PARALLEL/models/HIDER_GROUP_POLICY_BOTH_5500.ckpt (torch, 307166 bytes, 9 tensors)

network.0.weight f4 [32, 5, 3, 3]
-0.31628746 0.068416655 0.10400854 0.0025113458 -0.3249107 0.010524145 0.15487882 0.037982054
-0.106410146 -0.09674748 -0.34769097 -1.0800384 -0.2845816 -0.8875579 -0.5613824 -0.14003062
-1.0234028 -0.38915473 0.053107813 0.69022435 0.30810392 -0.6717163 0.104856916 0.14844392
0.013127316 0.6951744 0.077549964 0.6258113 -0.004525224 -0.29013965 -0.18954617 0.27835047
0.4104843 -0.009294599 0.07324085 0.42200786 0.3185357 0.44284287 0.1612028 -0.41922042
-0.17802392 0.011089207 -0.3248321 -0.15680453 -0.24594565 -0.15935077 -0.06149649 -0.5298362
-0.022126418 -0.09820601 -0.022337386 -0.14287804 -0.06181623 -0.40115362 0.034314986 -0.56292474
-0.71061146 0.070565805 -0.5698688 -0.2513712 0.2040671 -0.63656104 -0.1983133 -0.48546723
0.018816562 -0.27024758 0.3765555 -0.11885374 0.35980365 0.41312656 0.3621634 0.0500771
-0.6119293 0.52599543 -0.23899792 0.4072916 0.4240991 0.2284908 0.3433951 -0.5357814
0.59034735 -0.39400902 -0.12941834 -1.0885427 0.09401788 -0.12353346 0.39387518 0.25768745
-0.32222205 -0.015040165 -0.38178384 -0.5683643 -0.08570301 -0.25634462 0.006610222 0.06322373
-0.3660451 -0.3278363 0.06259588 -0.37864265 -0.17964573 0.12423007 -0.15416233 -0.35710102
0.13131176 -0.18806991 -0.16518854 0.011519493 -0.060976036 0.098945044 -0.11374342 -0.006814939
0.3809053 0.06866259 0.21470481 -0.5235181 -0.039084062 -0.39284205 -0.04680804 0.26909772
0.11697368 -0.18281233 -0.15759204 0.05080259 0.26902664 0.22040142 0.58236426 0.6057012
-0.5954803 -0.48197594 -0.38886714 0.07743807 0.022729274 -0.23967823 0.5551343 -0.29153398
-0.35771823 0.022979373 -0.2027565 -0.35636184 -0.31957668 -0.068869814 0.09394108 -0.12002643
-0.5618014 -0.320236 -0.3532063 -0.5983981 -1.1727685 -0.3750199 -0.18941395 -0.25528258
-0.7215664 0.22824034 0.28275523 0.4361392 -0.08695951 0.6053919 0.031008517 0.34273174
-0.37772515 -0.18324147 0.4786018 0.43670955 0.492235 0.3118712 0.109810084 0.15348476
0.14621058 0.1299591 -0.21499535 -0.17950955 0.40611932 -0.45784375 -0.612363 -0.35043162
-0.04583171 -0.37359852 0.23547049 0.103867136 -0.00024069977 0.014388076 -0.33122444 -0.34984434
-0.13147345 -0.36058784 0.011437699 -0.2000767 0.0890224 -0.569847 0.15027739 -0.21835716
-0.56673044 0.38146374 0.32696378 0.29797128 0.705074 0.038573343 0.7584343 0.30111426
0.11725073 -0.0337051 -1.0733756 -0.36735183 -0.12984197 0.38546896 -0.03014076 0.58284426
0.30427542 -0.079620585 0.22188723 -0.18479379 0.008427052 -0.3601244 0.361618 -0.043264326
-0.09585363 -0.030101387 -0.68930537 0.27769056 0.08983069 0.17546181 0.042271 0.05032667
-0.40807375 0.14516005 -0.47685868 0.19628572 -0.35611847 0.17441091 -0.33768314 -0.21964283
-0.24118546 -0.012275843 0.30149883 0.7792037 0.34306034 -0.1252 -0.28364205 0.118900605
0.4141303 -0.29710785 -0.08460689 0.6914811 -0.4387951 0.021452378 -0.29458857 2.6652471e-05
-0.014632777 -0.10321163 -0.17781946 -0.048506137 -0.056706116 0.13451806 -0.11793536 -0.6001814
00000000: 6ef0 a1be 081e 8c3d 6e02 d53d 6495 243b
00000010: b25a a6be 776d 2c3c 8e98 1e3e 1293 1b3d
00000020: 90ed d9bd 8b23 c6bd 8d04 b2be b33e 8abf
00000030: aeb4 91be ff36 63bf c2b6 0fbf 3064 0fbe
00000040: ddfe 82bf 4a3f c7be 9487 593d 8bb2 303f
00000050: ccbf 9d3e 99f5 2bbf 39bf d63d af01 183e
00000060: f413 573c f3f6 313f 84d2 9e3d 2b35 203f
00000070: 5548 94bb 2f8d 94be 6418 42be f483 8e3e
00000080: 002b d23e 6048 18bc 4cff 953d 6a11 d83e
00000090: 1c17 a33e 4dbc e23e 5912 253e 0fa4 d6be
000000a0: e74b 36be 81af 353c 6550 a6be 5e91 20be
000000b0: 2dd9 7bbe d92c 23be bee3 7bbd 58a3 07bf
000000c0: 7642 b5bc 3c20 c9bd e5fc b6bc 9f4e 12be
000000d0: 0433 7dbd 0264 cdbe df8d 0c3d d61b 10bf
000000e0: a2ea 35bf ce84 903d ece2 11bf bab3 80be
000000f0: f7f6 503e aaf5 22bf a412 4bbe 298f f8be
00000100: 3125 9a3c e45d 8abe e2cb c03e 9769 f3bd
00000110: 2f38 b83e 5385 d33e 7b6d b93e a51d 4d3d
00000120: 66a7 1cbf a3a7 063f dfbb 74be 8688 d03e
00000130: 8423 d93e 7ef9 693e 7cd1 af3e f828 09bf
00000140: 0121 173f 8dbb c9be 3e86 04be 5e55 8bbf
00000150: 728c c03d 1cff fcbd 02aa c93e 9cef 833e
00000160: 4afa a4be 066b 76bc 2c79 c3be 5380 11bf
00000170: 0f85 afbd 9a3f 83be 909a d83b 717b 813d
00000180: 436a bbbe 29da a7be 4532 803d 73dd c1be
00000190: 0df5 37be 566c fe3d bbdc 1dbe f2d5 b6be
000001a0: 9776 063e 6695 40be 2f27 29be 41bc 3c3c
000001b0: 02c2 79bd b3a3 ca3d 4ff2 e8bd da4f dfbb
000001c0: 0506 c33e f99e 8c3d 94db 5b3e 4805 06bf
000001d0: 9c16 20bd 9822 c9be cab9 3fbd 2dc7 893e
000001e0: e68f ef3d 2833 3bbe cf5f 21be 6016 503d
000001f0: dcbd 893e e9b0 613e d315 153f 3c0f 1b3f
00000200: 6671 18bf 8dc5 f6be 9819 c7be da97 9e3d
00000210: be32 ba3c 366e 75be 481d 0e3f f143 95be
00000220: d826 b7be 3d3f bc3c 669f 4fbe 0f75 b6be
00000230: 8e9f a3be 9e0b 8dbd 2e64 c03d 6bd0 f5bd
00000240: 37d2 0fbf f9f5 a3be 75d7 b4be 9e30 19bf
00000250: 471d 96bf 9c02 c0be bbf5 41be 66b4 82be
00000260: 93b8 38bf d6b7 693e 4bc5 903e a34d df3e
00000270: d417 b2bd f7fa 1a3f 9305 fe3c 897a af3e
00000280: 3165 c1be a7a3 3bbe 4c0b f53e 6598 df3e
00000290: 3a06 fc3e 95ad 9f3e 1ce4 e03d 1c2b 1d3e
000002a0: 3ab8 153e 0014 053e be27 5cbe 5ad1 37be
000002b0: dfee cf3e 7f6a eabe d2c3 1cbf c66b b3be
000002c0: 08ba 3bbd 4e48 bfbe 2d1f 713e 4bb8 d43d
000002d0: 5a64 7cb9 f7bb 6b3c 4096 a9be cc1e b3be
000002e0: faa0 06be f89e b8be 3065 3b3c e8e0 4cbe
000002f0: 6051 b63d 7ee1 11bf 51e2 193e 0599 5fbe
00000300: 3f15 11bf 374f c33e cc67 a73e b18f 983e
00000310: bb7f 343f 15ff 1d3d c028 423f a62b 9a3e
00000320: 2721 f03d 5c0e 0abd 5f64 89bf 8a15 bcbe
00000330: 4bf5 04be 305c c53e c1e9 f6bc 4835 153f
00000340: fdc9 9b3e 1e10 a3bd 6836 633e 953a 3dbe
00000350: 9e11 0a3c 3a62 b8be ff25 b93e ef35 31bd
00000360: e84e c4bd 2f97 f6bc 5176 30bf 752d 8e3e
00000370: 27f9 b73d 43ac 333e 5b24 2d3d 5723 4e3d
00000380: 0bef d0be d6a4 143e d226 f4be 20ff 483e
00000390: 2955 b6be c698 323e cee4 acbe 0dea 60be
000003a0: 52f9 76be 9e20 49bc 0e5e 9a3e e579 473f
000003b0: 9ba5 af3e 6e34 00be 8839 91be 2982 f33d
000003c0: e308 d43e 851e 98be 6146 adbd e804 313f
000003d0: c0a9 e0be e6bc af3c 50d4 96be bf93 df37
000003e0: 51be 6fbc 9e60 d3bd 4e16 36be 5fae 46bd
000003f0: ac44 68bd 1abf 093e 1888 f1bd 7da5 19bf

network.0.bias f4 [32]
-0.34961292 -0.58472204 -0.60775447 -0.4177546 -0.42418227 -0.19885203 -0.2426947 -0.58932805
-0.28014016 -0.5240304 -0.30855712 -0.5003898 -0.7019052 -0.38753146 -0.58897066 -0.6010888
-0.46149236 -0.25627697 -0.3727201 0.37140918 -0.42520443 -0.18796857 -0.17206466 -0.04258262
-0.28726792 -0.34007385 -0.52843475 -0.08863619 -0.037990548 -0.58203 -0.536952 -0.5259581
00000000: 7700 b3be 58b0 15bf cc95 1bbf eee3 d5be
00000010: 6b2e d9be de9f 4bbe f684 78be 34de 16bf
00000020: 886e 8fbe db26 06bf 33fb 9dbe 8c19 00bf
00000030: 0fb0 33bf 866a c6be c8c6 16bf f5e0 19bf
00000040: ba48 ecbe bc36 83be 2bd5 bebe 5829 be3e
00000050: 65b4 d9be d57a 40be b831 30be 1d6b 2ebd
00000060: c814 93be 291e aebe 8047 07bf e486 b5bd
00000070: fa9b 1bbd ebff 14bf b075 09bf 31a5 06bf

network.2.weight f4 [64, 32, 3, 3]
-0.5988605 0.086113945 -0.22942123 -0.35068956 -0.07061537 -0.024481626 -0.005359314 0.6077096
0.0031355424 -0.2262782 0.4070472 -0.1557908 0.06404596 0.37754774 0.1159153 0.11237147
0.16293192 -0.4773028 -0.2904439 0.09385155 -0.38731256 -0.0028768545 -0.4395876 -0.09978868
-0.3902381 -0.07301219 -0.74030334 0.10105715 -0.09711372 -0.575944 0.058420222 -0.25636572
0.39520484 0.21428533 -0.18544084 -0.49489847 0.34873712 -0.016617876 0.46125948 0.014287525
-0.018252073 -0.03769282 -0.0886576 -0.24986023 0.17414401 0.6841058 -0.03399485 -0.26017627
0.67317796 -0.87827784 -0.30901867 0.32559407 0.09433473 0.3136951 0.29227525 0.2084626
-0.76370096 -0.5347591 -0.24429867 0.035247628 -0.42332643 0.5330998 0.5366446 0.105508514
0.4420898 -0.2784782 -0.077072375 0.12405793 -0.64437956 0.02591229 0.3598187 -0.37232366
0.31255206 0.27466017 0.37385792 -0.31305873 -0.06854284 -0.25201702 0.05315818 -0.26074755
-0.14361943 0.7132537 0.084307455 0.055871725 -0.2891791 0.048271768 0.031880867 -0.38132322
-0.18861146 0.0020366115 -0.5726101 -0.9975583 -0.495421 -0.15408333 -0.3700721 -0.25794208
-0.63703954 -0.045940343 -0.17836207 0.3874175 0.5559252 0.179329 0.48432064 1.1222862
0.116231926 0.36340195 0.44347256 0.037291404 0.1705393 -0.0191127 -0.23992738 0.08914065
-0.1464458 -0.04122048 -0.21244751 -0.28642938 -0.28256103 -0.28672758 -0.29203036 0.31887373
0.5091546 0.061740536 -0.32228267 -0.51221365 -0.57398766 0.47978628 -0.30862278 0.88511753
-0.24468555 -0.0078001185 0.3018477 0.09917209 -0.40534 0.3827076 -0.60521996 0.133349
-0.19990952 0.51762176 -0.29350075 0.06762352 0.27549216 -0.25715172 0.34001854 0.03480578
0.12717147 0.15483479 0.42996916 0.08531923 -0.23672268 0.058997758 -0.45630217 -0.4063251
-0.37205458 0.2869824 -0.009809946 -0.50375164 0.23758104 -0.04394578 0.45720705 -0.21503992
-0.11612725 -0.17097192 0.5693103 -0.33441237 -0.03592046 -0.425289 -0.28053215 -0.26295125
-0.41723695 0.31641564 -0.61581725 -0.32406643 -0.26442254 -0.11079855 -0.35165367 0.11612586
-0.27600634 0.22721893 -0.24778782 0.08605052 0.6434323 -0.098387964 -0.36045256 0.2546557
0.038125206 0.38398665 -0.37864336 0.001009994 0.072195075 0.2121639 -0.3077007 -0.3322149
0.2411829 0.7548308 0.05330195 -0.106346816 0.050589032 0.064117126 0.44647726 0.14853896
-0.19095749 0.2593229 -0.7139064 -0.43399832 0.27295637 0.28306648 -0.8366133 0.15105334
-0.21637201 0.4142629 -0.402967 -0.68448204 -0.0070177293 0.14468357 0.46677473 -0.03497391
0.21929877 0.214643 0.20119597 -0.6656598 -0.16462852 -0.55432117 0.675967 -0.2930116
0.15953538 -0.42096975 0.29263893 -0.12537974 -0.41012532 -0.043270934 0.15633763 -0.02746222
-0.5334679 0.22777726 -0.26428592 -0.3765024 -0.42600742 -0.49885726 -0.033627354 0.44180548
-0.059510127 -0.033202976 -1.096715 0.3532963 -0.7638451 0.54960424 0.55053014 0.062351994
0.19002979 0.2869893 0.06682797 0.32253054 0.30714265 -0.35978362 -0.16585383 -0.23332237
00000000: ec4e 19bf 825c b03d 66ed 6abe 958d b3be
00000010: cb9e 90bd b18d c8bc 2f9d afbb db92 1b3f
00000020: ac7d 4d3b 79b5 67be 7e68 d03e a087 1fbe
00000030: 872a 833d f04d c13e 0065 ed3d 0323 e63d
00000040: a0d7 263e 0861 f4be 10b5 94be 3e35 c03d
00000050: d54d c6be 9c89 3cbb a011 e1be 025e ccbd
00000060: 4acd c7be 6a87 95bd 8584 3dbf 0df7 ce3d
00000070: 8fe3 c6bd 1171 13bf 0b4a 6f3d 5e42 83be
00000080: 4a58 ca3e 9d6d 5b3e 34e4 3dbe 5563 fdbe
00000090: ac8d b23e 3622 88bc 342a ec3e 3916 6a3c
000000a0: 5f85 95bc c963 1abd 1e92 b5bd 5cdb 7fbe
000000b0: cf52 323e 8f21 2f3f 2f3e 0bbd d335 85be
000000c0: 6455 2c3f d1d6 60bf b237 9ebe 44b4 a63e
000000d0: 9132 c13d a59c a03e 1aa5 953e 3877 553e
000000e0: e881 43bf f9e5 08bf 6e29 7abe d15f 103d
000000f0: 3ebe d8be 3a79 083f 8a61 093f d914 d83d
00000100: 9859 e23e b294 8ebe 1fd8 9dbd 1612 fe3d
00000110: 0ff6 24bf 0346 d43c 283a b83e 35a1 bebe
00000120: d306 a03e 42a0 8c3e 4e6a bf3e 3c49 a0be
00000130: 3060 8cbd 6008 81be 64bc 593d b480 85be
00000140: f910 13be cb97 363f 63a9 ac3d c0d9 643d
00000150: 480f 94be 9eb8 453d 8395 023d cc3c c3be
00000160: 5d23 41be ac78 053b 9396 12bf fb5f 7fbf
00000170: d2a7 fdbe 05c8 1dbe 177a bdbe fc10 84be
00000180: 0615 23bf f12b 3cbd 8ca4 36be 965b c63e
00000190: 1d51 0e3f 05a2 373e e0f8 f73e 13a7 8f3f
000001a0: 010b ee3d d20f ba3e d60e e33e dfbe 183d
000001b0: dba1 2e3e 3d92 9cbc 86af 75be 608f b63d
000001c0: e3f5 15be ced6 28bd d78b 59be dfa6 92be
000001d0: d7ab 90be f5cd 92be 0185 95be 6b43 a33e
000001e0: f557 023f a5e3 7c3d 3c02 a5be 6f20 03bf
000001f0: dbf0 12bf 8ca6 f53e ce03 9ebe 1097 623f
00000200: d98e 7abe 2398 ffbb c88b 9a3e bd1a cb3d
00000210: b988 cfbe 40f2 c33e b2ef 1abf a48c 083e
00000220: 15b5 4cbe dc82 043f bb45 96be 337e 8a3d
00000230: 4f0d 8d3e 64a9 83be e916 ae3e 8190 0e3d
00000240: 3d39 023e 038d 1e3e eb24 dc3e d9bb ae3d
00000250: 6e67 72be a2a7 713d 70a0 e9be d809 d0be
00000260: f07d bebe 5bef 923e e5b9 20bc def5 00bf
00000270: 7248 733e 7d00 34bd 0b17 ea3e 6d33 5cbe
00000280: 20d4 edbd 4313 2fbe 52be 113f 1938 abbe
00000290: 5521 13bd 7bbf d9be e9a1 8fbe 8ca1 86be
000002a0: 15a0 d5be 3b01 a23e 33a6 1dbf 09ec a5be
000002b0: 6462 87be 5aea e2bd f30b b4be 65d3 ed3d
000002c0: b450 8dbe 14ac 683e 17bc 7dbe 413b b03d
000002d0: fbb7 243f a17f c9bd 3d8d b8be 3b62 823e
000002e0: 2d29 1c3d e699 c43e 8bdd c1be c661 843a
000002f0: 03db 933d 7e41 593e f28a 9dbe 1218 aabe
00000300: a6f8 763e 973c 413f 2553 5a3d 5ccc d9bd
00000310: 7236 4f3d d74f 833d ab98 e43e 991a 183e
00000320: 5c8a 43be f9c5 843e 92c2 36bf 0735 debe
00000330: f0c0 8b3e 17ee 903e 4a2c 56bf baad 1a3e
00000340: a090 5dbe 441a d43e b151 cebe 373a 2fbf
00000350: fbf4 e5bb ee27 143e 19fd ee3e cd40 0fbd
00000360: db8f 603e 60cb 5b3e 5106 4e3e ae68 2abf
00000370: 6194 28be fee7 0dbf 2c0c 2d3f 9e05 96be
00000380: 3e5d 233e 5989 d7be c5d4 953e 8c63 00be
00000390: f2fb d1be dd3c 31bd f916 203e 73f8 e0bc
000003a0: 5a91 08bf 713e 693e 7c50 87be ecc4 c0be
000003b0: a51d dabe 386a ffbe d6bc 09bd 5434 e23e
000003c0: e4c0 73bd d8ff 07bd 2861 8cbf 41e3 b43e
000003d0: 5a8b 43bf ddb2 0c3f 8bef 0c3f ce64 7f3d
000003e0: 2b97 423e 43f0 923e 1add 883d b922 a53e
000003f0: cd41 9d3e 8f35 b8be 96d5 29be 0fec 6ebe

network.2.bias f4 [64]
-0.242014 -0.47068265 -0.1896504 -0.27907822 -0.22807157 -0.2165756 -0.0923149 -0.119361706
-0.34369302 -0.39290017 -0.22707582 0.092281505 -0.09187096 -0.12887858 -0.12575203 -0.09092719
-0.2541106 -0.07444806 -0.05977214 -0.16803356 0.19980289 -0.28367165 -0.43766713 -0.45617184
-0.28105333 0.07540649 -0.37738937 0.20841953 -0.33415687 -0.13225377 -0.146015 -0.19386545
0.031545192 -0.1626552 -0.053774286 -0.11552008 -0.38671038 -0.12343626 -0.08727221 -0.090582594
-0.22093666 -0.13313864 -0.3145976 -0.18570511 -0.00508095 -0.22273825 -0.0628502 -0.2918359
-0.29166946 0.018634211 -0.2361336 0.03722372 -0.07964321 -0.13673006 -0.17422122 -0.29458967
-0.45224106 -0.28326362 -0.338272 -0.3000349 -0.29854816 -0.37720695 -0.28871787 0.020229071
00000000: 85d2 77be 51fd f0be b733 42be 57e3 8ebe
00000010: 988b 69be fec5 5dbe 980f bdbd e973 f4bd
00000020: 88f8 afbe 362a c9be 9086 68be 16fe bc3d
00000030: d826 bcbd bff8 03be 24c5 00be 0938 babd
00000040: c91a 82be 3978 98bd a2d3 74bd fd10 2cbe
00000050: 2199 4c3e 693d 91be e815 e0be 5b8f e9be
00000060: 39e6 8fbe b86e 9a3d 2e39 c1be ee6b 553e
00000070: 9c16 abbe 886d 07be f584 15be aa84 46be
00000080: 8835 013d 168f 26be 6d42 5cbd cb95 ecbd
00000090: e7fe c5be 26cc fcbd c6bb b2bd 5e83 b9bd
000000a0: 383d 62be 7f55 08be f012 a1be 7b29 3ebe
000000b0: 197e a6bb 7f15 64be 9bb7 80bd 846b 95be
000000c0: b355 95be c6a6 983c 02cd 71be e677 183d
000000d0: fb1b a3bd f702 0cbe 0c67 32be 75d4 96be
000000e0: 248c e7be ee07 91be fd31 adbe 2d9e 99be
000000f0: 4edb 98be 4521 c1be d4d2 93be 70b7 a53c

network.4.weight f4 [64, 64, 3, 3]
0.17289563 0.23303096 0.054493163 0.13275518 -0.22635117 0.08701701 0.2549566 -0.21307704
-0.12880564 -0.35581592 -0.09083712 -0.23594026 -0.48303556 -0.7458365 -0.026635682 -0.2871411
-0.4238392 0.016231494 -0.06759487 0.049160365 -0.04608534 -0.25705802 0.51528436 0.21027729
-0.17807598 0.0026906584 0.07773588 -0.6344039 -0.32174304 0.31122425 -0.16886474 -0.006248055
-0.44711882 -0.44089052 0.27091107 0.15049368 0.21537748 0.30317342 0.18562534 -0.081476636
0.24505685 0.17847215 0.19130172 -0.47212428 0.547448 0.20122425 0.04565979 -0.1798284
-0.81082475 -0.62987703 -0.33450902 0.03947794 -0.09108106 -0.05174826 0.6187699 0.19183584
1.0561886 -0.5786059 0.3354048 0.00074024854 0.11134835 0.23431844 0.07490526 0.31569326
-0.37231973 -0.08256933 0.24330907 -0.21212399 -0.47694546 0.27135658 -0.3315755 0.30677816
-0.05025295 -0.32935393 0.12841427 -0.38294157 0.070988744 -0.54295844 0.030412585 -0.033288945
0.0509375 0.063974276 -0.16799001 0.0762696 -0.5276393 -0.73065794 -0.27913392 -0.062375367
-0.21390973 -0.19817556 0.42035246 -0.43841818 -0.08242631 -0.026266597 -0.18013735 -0.024446983
0.113528505 -0.45710105 -0.20309265 0.06967614 -0.57179904 0.061760396 -0.3448377 -0.21967737
-0.782663 -0.080113314 -0.07906713 -0.33224246 0.08935595 -0.087458625 -0.15728082 -0.35384592
0.011441234 -0.14472501 0.06704688 0.15019697 0.28061908 -0.030688183 0.044004466 0.024743076
0.025902273 0.0046138573 -0.030457746 -0.031552587 -0.012186101 0.020184958 -0.062394384 -0.07202276
-0.06221256 -0.007318864 -0.026044691 -0.03710647 0.033302147 0.03399887 0.003070568 -0.49452284
-0.17208144 -0.093301214 -0.37605307 -0.76155365 0.30245683 0.08340739 -0.3540727 -0.5542976
0.0126200635 0.29728672 0.22047988 0.11828366 -0.2371502 0.29322064 -0.035203457 -0.3086912
0.07689851 0.39428928 -0.22184937 -0.2318853 0.5522616 -0.527612 -0.15016976 0.5048106
-0.39042053 -0.02548364 -0.28100535 -0.055683024 -0.6886962 -0.5889596 -0.68996274 -0.7191706
0.16599573 -0.091466494 -0.3270891 -0.120922565 0.08231986 0.25808126 -0.08627742 -0.1749674
-0.038230468 -0.39516926 0.21395475 -0.50238097 0.064665794 -0.33038607 -0.8831673 0.045828253
0.16100468 0.17165257 -0.09000145 -0.41559693 -0.2556006 -0.066687986 -0.037614904 0.07619425
0.220577 0.17312106 -0.15807715 -0.47038114 -0.48407474 -0.4143649 -0.5912426 0.028372599
-1.0404965 -0.29376245 -0.114859015 -0.55988175 -0.28746995 -0.04447725 -0.44339278 -0.24625047
0.16175486 -0.0100628575 0.029915908 -0.21728572 -0.22054265 -0.08165113 -0.06441989 -0.16339499
-0.10338447 0.30071267 -0.026151165 -0.58408993 -0.44673312 0.47388244 0.2066036 0.3437374
-0.32144165 0.05124687 -0.027146276 0.025358194 -0.63124114 0.5231051 -0.66430146 0.27726373
0.28936076 0.1937241 0.06311251 -0.018650357 0.21120918 -0.36354986 -0.08123009 0.07916825
-0.16565537 -0.3363708 0.22315532 -0.10793763 -0.29098725 -0.18148233 0.16096795 -0.46487662
-0.78846556 0.05659605 -0.18742712 -0.09779822 0.24278028 0.58128625 -0.30813828 -0.09860019
00000000: 8d0b 313e ab9f 6e3e 3934 5f3d f9f0 073e
00000010: 9ac8 67be f935 b23d ac89 823e de30 5abe
00000020: a0e5 03be 812d b6be d008 babd 539a 71be
00000030: 7050 f7be 24ef 3ebf 1333 dabc 2904 93be
00000040: 7401 d9be e9f7 843c 2e6f 8abd 615c 493d
00000050: fbc3 3cbd 1c9d 83be ade9 033f ee52 573e
00000060: 8d59 36be c255 303b fd33 9f3d 4b68 22bf
00000070: 81bb a4be c958 9f3e e1ea 2cbe 7cbc ccbb
00000080: c2ec e4be 67bc e1be dbb4 8a3e 041b 1a3e
00000090: ea8b 5c3e 8c39 9b3e 9214 3e3e 39dd a6bd
000000a0: 2ff0 7a3e 67c1 363e 99e4 433e 46ba f1be
000000b0: 8d25 0c3f bb0d 4e3e c305 3b3d f024 38be
000000c0: 3692 4fbf 9f3f 21bf c444 abbe 9fb3 213d
000000d0: b588 babd fcf5 53bd b467 1e3f 9d70 443e
000000e0: 3031 873f 841f 14bf 2eba ab3e 3d0d 423a
000000f0: 9b0a e43d 2cf1 6f3e ee67 993d 8ca2 a13e
00000100: b1a0 bebe 1c1a a9bd 0326 793e 0837 59be
00000110: 3232 f4be 40ef 8a3e 44c4 a9be 0712 9d3e
00000120: 0ad6 4dbd 14a1 a8be 087f 033e eb10 c4be
00000130: 8c62 913d 53ff 0abf d023 f93c fd59 08bd
00000140: d7a3 503d f204 833d 9305 2cbe 3c33 9c3d
00000150: 5f13 07bf 660c 3bbf a4ea 8ebe 507d 7fbd
00000160: 270b 5bbe 89ee 4abe 7038 d73e 5978 e0be
00000170: 20cf a8bd 0c2d d7bc ed75 38be 0a45 c8bc
00000180: a281 e83d 2609 eabe 85f7 4fbe 5db2 8e3d
00000190: 6c61 12bf 78f8 7c3d 918e b0be 1bf3 60be
000001a0: 9a5c 48bf 7312 a4bd f3ed a1bd af1b aabe
000001b0: 4100 b73d 821d b3bd 390e 21be 4b2b b5be
000001c0: 0374 3b3c cb32 14be e04f 893d 3ccd 193e
000001d0: 4ead 8f3e c965 fbbc 073e 343d feb1 ca3c
000001e0: 0131 d43c d72f 973b 8682 f9bc 493d 01bd
000001f0: 36a8 47bc ed5a a53c 4191 7fbd ab80 93bd
00000200: 99d2 7ebd 15d3 efbb ad5b d5bc f4fc 17bd
00000210: d567 083d 6642 0b3d 953b 493b 1932 fdbe
00000220: 1e36 30be b514 bfbd 078a c0be 2ef5 42bf
00000230: 9fdb 9a3e 7ed1 aa3d 0449 b5be 73e6 0dbf
00000240: 62c4 4e3c f735 983e 7ac5 613e b43e f23d
00000250: 81d7 72be 0421 963e 8031 10bd c60c 9ebe
00000260: f77c 9d3d 49e0 c93e 7b2c 63be 5773 6dbe
00000270: 0461 0d3f 9411 07bf 1ac6 19be 443b 013f
00000280: 33e5 c7be 11c3 d0bc efdf 8fbe e213 64bd
00000290: 654e 30bf 0ec6 16bf 66a1 30bf 901b 38bf
000002a0: c9fa 293e c952 bbbd 3978 a7be 40a6 f7bd
000002b0: 5197 a83d 3a23 843e 37b2 b0bd a72a 33be
000002c0: 8d97 1cbd a053 cabe f416 5b3e 0a9c 00bf
000002d0: 806f 843d 5d28 a9be 4117 62bf 68b6 3b3d
000002e0: 69de 243e b1c5 2f3e ae52 b8bd 1fc9 d4be
000002f0: 15de 82be b693 88bd 1612 1abd bb0b 9c3d
00000300: f0de 613e a646 313e fade 21be ccd5 f0be
00000310: a5d8 f7be a327 d4be ad5b 17bf a76d e83c
00000320: fd2e 85bf 0868 96be 343b ebbd 6954 0fbf
00000330: 432f 93be c72d 36bd 6104 e3be 1529 7cbe
00000340: 11a3 253e afde 24bc 3512 f53c 2680 5ebe
00000350: efd5 61be b538 a7bd 93ee 83bd 0451 27be
00000360: 3dbb d3bd 03f7 993e f83a d6bc eb86 15bf
00000370: 34ba e4be b8a0 f23e e58f 533e 59fe af3e
00000380: 0094 a4be 3de8 513d de61 debc fdbb cf3c
00000390: 0599 21bf 37ea 053f a90f 2abf 83f5 8d3e
000003a0: 1827 943e 9c5f 463e 2241 813d a2c8 98bc
000003b0: 3847 583e 3523 babe f65b a6bd f722 a23d
000003c0: 90a1 29be cb38 acbe d482 643e 670e ddbd
000003d0: 48fc 94be 81d6 39be c8d4 243e 4f04 eebe
000003e0: e1d8 49bf 42d1 673d e5ec 3fbe 6f4a c8bd
000003f0: 659b 783e 2dcf 143f 4dc4 9dbe e5ee c9bd

network.4.bias f4 [64]
-0.38983947 -0.59336317 -0.5623533 -0.046784904 -0.48702705 -0.053066462 -0.53320634 -0.5698595
-0.8398742 -0.6324928 -0.42899346 -0.5409937 -0.74254364 -0.11896794 -0.1951527 -0.21772018
-0.5660973 -0.5705255 -0.22755764 -0.5792633 -0.21283041 -0.71174157 -0.08062496 -0.39642075
-0.54115736 -0.14990851 -0.04481693 -0.045251917 -0.23827541 -0.40477106 -0.15755138 0.03900559
-0.42288265 -0.78019094 -0.36417988 -0.21002893 -0.59972155 -0.5643875 -0.40748888 -0.6230738
-0.74593866 -0.5375859 -0.3940977 -0.35754067 -0.51183873 -0.4500694 -0.5793711 -0.6104144
-0.026094923 -0.55201954 -0.6636439 -0.31116706 -0.5561615 -0.12374363 -0.039640367 -0.10962612
-0.57890964 -0.40046754 -0.516363 -0.5540812 -0.086653315 -0.47211382 -0.75336164 -0.19651313
00000000: 0a99 c7be a6e6 17bf 63f6 0fbf 87a1 3fbd
00000010: 9c5b f9be 385c 59bd 3680 08bf 50e2 11bf
00000020: ff01 57bf 0ceb 21bf 08a5 dbbe 907e 0abf
00000030: 5717 3ebf 77a5 f3bd 1cd6 47be 0af2 5ebe
00000040: c1eb 10bf f60d 12bf df04 69be 9a4a 14bf
00000050: 37f0 59be b234 36bf b31e a5bd a9f7 cabe
00000060: 4a89 0abf 9e81 19be f591 37bd 135a 39bd
00000070: 78fe 73be 273e cfbe 2655 21be 53c4 1f3d
00000080: 1384 d8be 98ba 47bf c975 babe d311 57be
00000090: 5a87 19bf b37b 10bf 62a2 d0be c481 1fbf
000000a0: d6f5 3ebf 3b9f 09bf 2cc7 c9be 920f b7be
000000b0: dd07 03bf 7f6f e6be aa51 14bf 1e44 1cbf
000000c0: 05c5 d5bc 2751 0dbf 91e4 29bf 4a51 9fbe
000000d0: 9a60 0ebf 4d6d fdbd f05d 22bd a983 e0bd
000000e0: 6c33 14bf 150a cdbe 5e30 04bf 44d8 0dbf
000000f0: 4b77 b1bd e7b8 f1be 4fdc 40bf bd3a 49be

actor.weight f4 [5, 3136]
0.16477367 -0.29549474 0.2242339 0.16327432 0.61068344 0.17056611 -0.6257172 -0.47496554
-0.063666396 -0.02061316 -0.059191484 -0.15685368 0.64689684 0.40114078 -0.19891393 -0.04567946
-0.08502901 0.05849302 0.21519016 0.44968623 0.167284 0.17256407 -0.11602289 0.3465965
-0.3509106 -0.012665882 0.17795038 0.35449418 -0.2547997 -0.17851685 0.08643802 0.1503222
-0.35274816 -0.14320341 -0.283925 1.0488951 0.09175835 0.6349169 -0.1516594 -0.7260842
-0.09209909 0.084802456 0.41749206 0.32682607 0.21845408 -0.26001403 -0.02734453 0.13555858
-0.056829575 -0.39326033 0.36077446 0.3621745 -0.3336287 -0.20507811 0.22982019 0.22402821
-0.60446477 -0.10874106 0.19661401 -0.10756199 0.04917761 -0.44701222 0.124513894 -0.3309666
-0.050303534 -0.011477942 0.09041352 0.23479623 -0.13698946 0.40595216 -0.058859147 -0.13826163
-0.09437086 0.24963322 0.019397706 -0.052134976 0.14735329 0.16840516 -0.001306448 0.758971
-0.019427987 -0.0077392682 -0.33595765 -0.040102214 0.103379585 -0.060197666 0.09645989 0.021990726
0.40932435 -0.32797506 -0.100889966 0.07031165 0.44849008 -0.1718563 0.21577984 -0.06808631
-0.111705616 0.21002214 0.5647749 -0.8193652 -0.046618387 -0.26147664 0.08810032 -0.102363944
0.28901452 -0.66627944 0.03147331 0.58219063 -0.29498753 -0.30142373 -0.43961117 0.13621369
0.0007023389 -0.08233827 -0.71115506 -0.13957788 -0.065805465 -0.029843496 -0.3141993 -0.114069216
0.3347989 0.35618675 0.6562054 -0.53905004 0.58513767 0.39438573 0.4465663 0.067538105
0.8030664 0.03621024 -0.033257402 0.47579893 0.14509782 -0.20107433 0.07287541 -0.4480073
-0.7477515 -0.25887033 -0.37781376 -0.38345888 0.09670781 0.38376677 -0.1351706 -0.04936422
0.099455595 -0.16382207 -0.3158212 0.23314413 0.35058716 0.08287781 0.13884413 0.2527225
0.25143355 0.2827603 -0.07540838 -0.0037667765 -0.020948403 -0.33522338 -0.025320176 -0.22234847
0.35247612 0.16311562 0.08259353 0.26870054 0.18608257 0.50727314 0.54989636 0.59307766
0.42932764 0.14247887 0.10664043 -0.069759406 0.033844363 0.053768 0.04832078 0.34121385
0.0576713 0.0074019 0.06878015 0.23956196 0.12085917 0.26135355 0.32422784 -0.47398403
0.2549332 -0.7172553 0.2974892 -0.41810703 0.15608098 -0.3260782 0.24921647 -0.25253385
0.3136832 -0.02519437 0.49860772 0.12499986 0.27346855 0.10057118 -0.18351291 -0.25250232
0.11641054 -0.11767054 -0.43231422 -0.26091632 0.5200642 -0.14899342 -0.01221494 -0.34291825
0.6145051 0.34240755 -0.6019279 -0.04063231 0.11726015 0.36255807 0.41190225 0.25090647
0.023601543 -0.07338691 0.025741357 -0.52982867 0.7847614 0.13723439 0.25613356 0.3040986
-0.026501702 -0.39396375 0.19257799 0.20390396 -0.079566926 0.55615765 0.46740028 0.11053422
0.3966565 0.30442625 -0.5397573 -0.14939536 0.022753663 0.47919074 0.0616537 0.108010575
-0.22550923 0.15182164 0.19761762 0.02282919 -0.25252017 0.34537518 0.4017193 -0.1573753
-0.31025913 0.19940965 -0.07944261 -0.104591355 -0.11308015 0.16585016 0.21543008 -0.18732107
00000000: 6eba 283e 164b 97be 929d 653e 6231 273e
00000010: c055 1c3f e2a8 2e3e 012f 20bf af2e f3be
00000020: 8763 82bd eedc a8bc c572 72bd 409e 20be
00000030: 089b 253f 5362 cd3e 18b0 4bbe 631a 3bbd
00000040: b123 aebd 6096 6f3d cf5a 5c3e 463d e63e
00000050: 7f4c 2b3e a3b4 303e 699d edbd 1975 b13e
00000060: 8eaa b3be 8f84 4fbc a038 363e 4380 b53e
00000070: 1b75 82be 1fcd 36be 6b06 b13d 10ee 193e
00000080: 689b b4be eaa3 12be 9e5e 91be 3242 863f
00000090: cdeb bb3d ea89 223f 9a4c 1bbe a7e0 39bf
000000a0: 739e bcbd e9ac ad3d 85c1 d53e bf55 a73e
000000b0: 6db2 5f3e 8f20 85be a301 e0bc decf 0a3e
000000c0: 21c6 68bd 6b59 c9be 6eb7 b83e f06e b93e
000000d0: 62d1 aabe ffff 51be fc55 6b3e a767 653e
000000e0: 34be 1abf a2b3 debd 2f55 493e 7649 dcbd
000000f0: 766e 493d c9de e4be 2401 ff3d 7474 a9be
00000100: 140b 4ebd fa0d 3cbc b92a b93d 6c6e 703e
00000110: f746 0cbe f6d8 cf3e 4a16 71bd 7594 0dbe
00000120: 8245 c1bd da9f 7f3e f0e7 9e3c 7c8b 55bd
00000130: c8e3 163e 6772 2c3e 1f3d abba ec4b 423f
00000140: 7127 9fbc b099 fdbb a402 acbe 3842 24bd
00000150: adb8 d33d d491 76bd c38c c53d e525 b43c
00000160: f692 d13e 59ec a7be 669f cebd 8eff 8f3d
00000170: 7ea0 e53e 19fb 2fbe 64f5 5c3e d670 8bbd
00000180: eac5 e4bd 0b10 573e 1695 103f ebc1 51bf
00000190: ecf2 3ebd 44e0 85be f16d b43d 30a4 d1bd
000001a0: b6f9 933e 4a91 2abf 28ea 003d 720a 153f
000001b0: 9b08 97be 3654 9abe b714 e1be 9a7b 0b3e
000001c0: 2a1d 383a f8a0 a8bd 420e 36bf 81ed 0ebe
000001d0: 04c5 86bd 597a f4bc bbde a0be 1f9d e9bd
000001e0: c36a ab3e 1c5e b63e 14fd 273f 2fff 09bf
000001f0: 95cb 153f edec c93e 57a4 e43e 6b51 8a3d
00000200: c295 4d3f 3051 143d ea38 08bd eb9b f33e
00000210: 8694 143e 6ee6 4dbe b43f 953d 3661 e5be
00000220: a46c 3fbf a78a 84be ce70 c1be b954 c4be
00000230: bf0e c63d 147d c43e 296a 0abe 2332 4abd
00000240: 60af cb3d f9c0 27be 51b3 a1be 56bd 6e3e
00000250: 2980 b33e d7bb a93d 282d 0e3e d864 813e
00000260: e6bb 803e f5c5 903e b56f 9abd 06dc 76bb
00000270: fc9b abbc 66a2 abbe 426c cfbc 51af 63be
00000280: c077 b43e c807 273e cc26 a93d 1e93 893e
00000290: 6e8c 3e3e a7dc 013f 02c6 0c3f f0d3 173f
000002a0: d5d0 db3e fbe5 113e 4c66 da3d 05de 8ebd
000002b0: 63a0 0a3d d63b 5c3d 03ec 453d 95b3 ae3e
000002c0: be38 6c3d a38b f23b 9bdc 8c3d bb4f 753e
000002d0: 0385 f73d 22d0 853e 3101 a63e 09ae f2be
000002e0: 9b86 823e 0b9e 37bf 8150 983e 2012 d6be
000002f0: b1d3 1f3e b9f3 a6be 9a32 7f3e 1e4c 81be
00000300: 169b a03e 6c64 cebc 8349 ff3e edff ff3d
00000310: 1204 8c3e 43f8 cd3d cfea 3bbe fc47 81be
00000320: a668 ee3d 41fd f0bd 4a58 ddbe d396 85be
00000330: ed22 053f bb91 18be 2c21 48bc fb92 afbe
00000340: 3550 1d3f 0b50 af3e f217 1abf 116e 26bd
00000350: 1726 f03d 36a1 b93e dae4 d23e d076 803e
00000360: 0658 c13c e04b 96bd 8adf d23c daa2 07bf
00000370: 20e6 483f 2c87 0c3e f023 833e d0b2 9b3e
00000380: 191a d9bc 9eb5 c9be 2a33 453e 33cc 503e
00000390: fcf3 a2bd 5960 0e3f 174f ef3e c45f e23d
000003a0: 9016 cb3e c2dd 9b3e 892d 0abf 19fb 18be
000003b0: e465 ba3c 7d58 f53e 9788 7c3d a634 dd3d
000003c0: e4eb 66be 2277 1b3e 465c 4a3e 4804 bb3c
000003d0: 534a 81be 04d5 b03e 27ae cd3e fe26 21be
000003e0: 49da 9ebe 0b32 4c3e cfb2 a2bd fe33 d6bd
000003f0: 9196 e7bd a0d4 293e b499 5c3e 18d1 3fbe

actor.bias f4 [5]
-0.25479344 0.41709238 0.3649329 -0.21406256 -0.155766
00000000: 4974 82be 228d d53e 7cd8 ba3e 3733 5bbe
00000010: 1f81 1fbe

critic.weight f4 [1, 3136]
-0.1893522 0.19081485 -0.41106203 -0.2012805 0.18635562 0.10188629 -0.3060037 -0.20960121
-0.43310076 -0.100724846 -0.16940401 0.0022398066 0.07868958 -0.096710846 -0.82205886 0.28874627
-0.20881455 -0.22693942 -0.30515918 0.1434847 -0.31154498 -0.5770703 -0.13904954 -0.028744165
0.41249776 0.32091087 0.16232686 0.10935027 -0.7192838 -0.27573252 0.111956686 -0.09177684
0.018183164 0.016540088 -0.21590658 -0.60944253 0.03430691 0.029038055 -0.45334324 -0.314099
0.28170744 -0.33364415 0.13953957 0.3199965 -0.24065262 0.3095171 -0.19891903 -0.04452359
-0.16894333 0.2487062 -0.28655663 -0.4386933 -0.19058953 -0.11877197 0.18568338 0.21956776
-0.27081296 0.02794524 -0.29163718 -0.21312402 -0.22068931 0.24326086 -0.06797291 0.14451262
-0.099766515 -0.13231614 -0.43023047 0.028771205 0.1255415 -0.16075826 -0.51413286 -0.32434168
-0.48588243 -0.4347774 -0.03391205 -0.0074760015 0.37681437 0.03125156 -0.30649728 -0.48554224
-0.3093947 0.10945373 -0.118846424 -0.37325776 -0.23704919 -0.3579177 -0.21156108 -0.6924321
0.046250485 -0.11211216 -0.27399123 -0.41341698 -0.4231282 -0.4401428 -0.6136581 0.3427064
-0.3838533 0.03053652 0.033586927 0.120718986 0.22361526 0.17309356 -0.35695258 -0.20383179
0.1627665 -0.013219882 0.028905801 0.05637512 0.4011422 0.30210763 0.059279088 -0.19474748
0.80269545 0.1329073 -0.12599552 -0.18858229 -0.11409948 -0.02937147 -0.07984308 0.052829105
0.21999308 -0.07971952 0.22165377 0.21288 -0.11287414 0.24018846 0.10034323 -0.3074051
-0.047269646 -0.4139481 -0.31108767 -0.0788616 0.22035292 0.17794752 0.48794818 0.15875115
-0.18855287 -0.23036945 0.40415218 0.45483682 0.311994 0.09242471 -0.37375554 -0.117649905
0.026956413 0.110947385 -0.037755962 0.63225245 0.49223155 0.55626035 0.6986037 0.5829178
0.5964317 0.5485739 0.47335827 0.41046602 0.76547307 0.4823133 0.41067758 0.58110815
0.42730725 -0.34833297 -0.14209104 0.5725775 0.517177 0.23919703 -0.038291354 0.35176075
0.47535205 0.27344522 0.08235127 0.37218988 0.7107523 0.62577116 0.49209008 0.5597846
0.5943202 0.87516433 0.54265755 1.0017409 0.5195169 0.5189513 -0.28210723 -0.5150674
0.81755173 0.6087385 0.73515725 0.28200167 0.34080705 -0.06008866 -0.3692842 -0.21729897
0.7552703 0.32734358 -0.45667976 -0.2727362 -0.13876554 -0.31776193 -0.28687683 -0.16664273
-0.12454634 0.10618624 0.59453124 -0.2876219 0.09786463 0.16833228 0.024392286 -0.1295326
0.15279715 -0.08935177 0.38008425 -0.7476924 -0.36900178 0.22585864 -0.32154647 -0.0070285345
0.28256112 0.120653935 -0.22634508 0.2164966 -0.31013173 -0.054059535 0.14661726 -0.049027026
-0.30855876 0.36842173 0.116704896 -0.34159935 -0.43319875 0.2209299 -0.2522592 0.2705186
0.23637943 -0.09308717 0.32311606 -0.3564339 -0.03836044 0.024140649 -0.09373201 -0.17385852
-0.32064718 -0.4650145 -0.027888872 0.20099851 -0.566956 -0.354586 -0.1972282 0.16832359
-0.22645931 0.30513406 -0.33379182 -0.13707586 -0.36431122 0.12371858 0.046550967 0.1949834
00000000: 8be5 41be f864 433e b976 d2be 7a1c 4ebe
00000010: 02d4 3e3e c2a9 d03d 84ac 9cbe b3a1 56be
00000020: 62bf ddbe d448 cebd 3f78 2dbe b8c9 123b
00000030: 0128 a13d 5610 c6bd 7372 52bf 8dd6 933e
00000040: 7bd3 55be cf62 68be d33d 9cbe a7ed 123e
00000050: d382 9fbe e1ba 13bf 0163 0ebe e278 ebbc
00000060: e832 d33e 6e4e a43e 0339 263e 09f3 df3d
00000070: fc22 38bf d02c 8dbe 8c49 e53d 7ff5 bbbd
00000080: dcf4 943c 147f 873c 9d16 5dbe 6d04 1cbf
00000090: 6785 0c3d 37e1 ed3c 9b1c e8be 96d1 a0be
000000a0: f53b 903e 68d3 aabe 76e3 0e3e 95d6 a33e
000000b0: a46d 76be 0679 9e3e 6eb1 4bbe 5e5e 36bd
000000c0: 7bff 2cbe d7ac 7e3e 8db7 92be 699c e0be
000000d0: e729 43be b83e f3bd c923 3e3e 5fd6 603e
000000e0: ffa7 8abe 6aed e43c 7851 95be 2f3d 5abe
000000f0: 61fc 61be 6019 793e 6235 8bbd 1efb 133e
00000100: 6352 ccbd e27d 07be 2b47 dcbe 97b1 eb3c
00000110: f38d 003e d09d 24be 369e 03bf 1d10 a6be
00000120: 95c5 f8be 259b debe 5de7 0abd 3ff9 f4bb
00000130: d0ed c03e a301 003d 36ed 9cbe fe98 f8be
00000140: fb68 9ebe 4729 e03d c165 f3bd a41b bfbe
00000150: 06bd 72be fd40 b7be 78a3 58be 3b43 31bf
00000160: 2671 3d3d 0f9b e5bd 9448 8cbe 64ab d3be
00000170: 42a4 d8be 665a e1be b218 1dbf 3777 af3e
00000180: 6b88 c4be b927 fa3c 7292 093d 843b f73d
00000190: 66fb 643e 703f 313e 7dc2 b6be 48b9 50be
000001a0: 43ac 263e 3498 58bc dccb ec3c 99e9 663d
000001b0: 8362 cd3e daad 9a3e a1ce 723d e26b 47be
000001c0: 737d 4d3f da18 083e f804 01be b71b 41be
000001d0: fdac e9bd 709c f0bc c584 a3bd 5563 583d
000001e0: de45 613e fd43 a3bd 35f9 623e 37fd 593e
000001f0: 8f2a e7bd f7f3 753e c080 cd3d 3464 9dbe
00000200: d19d 41bd 01f1 d3be e246 9fbe 3182 a1bd
00000210: 32a4 613e e037 363e 58d4 f93e a98f 223e
00000220: 0114 41be f8e5 6bbe 09ed ce3e 5fe0 e83e
00000230: adbd 9f3e 2b49 bd3d e35c bfbe 6ff2 f0bd
00000240: b2d3 dc3c 6238 e33d ffa5 1abd 4cdb 213f
00000250: c605 fc3e 1467 0e3f b1d7 323f 1a3a 153f
00000260: bfaf 183f 576f 0c3f 045c f23e 9a28 d23e
00000270: 0bf6 433f c5f1 f63e 5544 d23e 81c3 143f
00000280: 04c8 da3e b358 b2be 5080 11be 7094 123f
00000290: b665 043f 11f0 743e 65d7 1cbd fc19 b43e
000002a0: 5861 f33e 0301 8c3e c8a7 a83d ac8f be3e
000002b0: ddf3 353f 8a32 203f 3bf3 fb3e 0b4e 0f3f
000002c0: 5e25 183f c50a 603f 9beb 0a3f 0c39 803f
000002d0: 0fff 043f fed9 043f 5c70 90be 75db 03bf
000002e0: 124b 513f 49d6 1b3f 4433 3c3f 8662 903e
000002f0: 437e ae3e 871f 76bd d212 bdbe 9f83 5ebe
00000300: 6559 413f 9499 a73e eed1 e9be 14a4 8bbe
00000310: 8e18 0ebe b1b1 a2be 85e1 92be 64a4 2abe
00000320: 2712 ffbd 2c78 d93d 3333 183f 2d43 93be
00000330: 406d c83d 4c5f 2c3e 55d2 c73c 32a4 04be
00000340: db76 1c3e 10fe b6bd 679a c23e c568 3fbf
00000350: cded bcbe 7d47 673e bda1 a4be 9f4f e6bb
00000360: daab 903e 6919 f73d 01c7 67be 49b1 5d3e
00000370: 96c9 9ebe 886d 5dbd d622 163e 90d0 48bd
00000380: 6afb 9dbe c6a1 bc3e fa02 ef3d 1ce6 aebe
00000390: 3acc ddbe 733b 623e 1e28 81be 6a81 8a3e
000003a0: 730d 723e 7ca4 bebd 786f a53e 817e b6be
000003b0: d61f 1dbd 9cc2 c53c 91f6 bfbd f807 32be
000003c0: de2b a4be 6116 eebe 3477 e4bc 8ed2 4d3e
000003d0: 0724 11bf 4c8c b5be 30f6 49be 055d 2c3e
000003e0: f3e4 67be 883a 9c3e c3e6 aabe 9d5d 0cbe
000003f0: 0087 babe 2b60 fd3d 3aac 3e3d baa9 473e
