PARALLEL/models/HIDER_GROUP_POLICY_BOTH_3200.ckpt (torch, 307166 bytes, 9 tensors)

network.0.weight f4 [32, 5, 3, 3]
0	0xbe2ae2d4	-0.1668809
1	0xbc57e6b4	-0.0131775625
2	0xbd73ee63	-0.059553515
3	0xbdc2e9bb	-0.09517237
4	0xbeafa98d	-0.34309044
5	0xbe992856	-0.29913586
6	0x3d838af8	0.064229906
7	0xbb8d47a8	-0.0043115206
8	0xbdc3a564	-0.0955303
9	0xbcaa9070	-0.020820826
10	0xbeaf22af	-0.3420615
11	0xbf58e4e3	-0.84724253
12	0xbe68774e	-0.22701761
13	0xbf5dd930	-0.86659527
14	0xbf05d78d	-0.5228203
15	0xbe9beaf6	-0.30452698
16	0xbf1f8ccc	-0.62324214
17	0xbe6e112e	-0.23248741
18	0xbe55244b	-0.20814626
19	0x3f044ea8	0.5168252
20	0x3eab9f79	0.33520105
21	0xbf04a23a	-0.5181004
22	0x3e695394	0.22785789
23	0x3e9bd034	0.30432284
24	0x3d228952	0.03968174
25	0x3f30ad51	0.6901446
26	0x3ea938d3	0.33051166
27	0x3d6a6621	0.057226304
28	0x3eb3dfe2	0.35131747
29	0xbdbc4125	-0.09192113
30	0xbe773601	-0.24141695
31	0x3e651148	0.22369874
32	0x3d992b34	0.074789435
33	0xbe92a36d	-0.2864031
34	0x3e772013	0.24133329
35	0x3e963df6	0.29344147
36	0x3db9ed06	0.09078412
37	0x3e83b65f	0.25725076
38	0xbce2e05f	-0.02769488
39	0xbd286e2e	-0.0411207
40	0x3c7b07a9	0.015321651
41	0xbd682e10	-0.056684554
42	0xbe584081	-0.21118356
43	0xbdf4886b	-0.11940082
44	0xbdc60f14	-0.09670845
45	0xbd959c3b	-0.07305189
46	0x3ddd71c9	0.108127184
47	0xbe47f98f	-0.19528793
48	0xbcee29f2	-0.029072735
49	0xbe385032	-0.17999342
50	0xbe0ab50f	-0.13545631
51	0xbe9127e6	-0.28350753
52	0x3d69e674	0.057104543
53	0xbe81a53f	-0.25321385
54	0xbdb5d9ce	-0.088794336
55	0xbf30a73a	-0.6900517
56	0xbea49146	-0.32142085
57	0x3d93d771	0.072188266
58	0xbed3a235	-0.41334692
59	0xbbdd2215	-0.0067484477
60	0x3ed476f0	0.41496992
61	0xbed64697	-0.4185073
62	0x3e9981db	0.29981884
63	0xbecb980c	-0.3976444
64	0xbe033565	-0.12813337
65	0x3df1d117	0.11807459
66	0x3e6f056b	0.2334191
67	0xbcf7ed44	-0.030264504
68	0x3e27d47a	0.16389647
69	0x3e8e0261	0.2773619
70	0x3e0b6926	0.1361433
71	0x3d1a6b10	0.03769976
72	0xbe1348ea	-0.14383283
73	0x3ecfd914	0.40595305
74	0x3cac9b83	0.021070248
75	0x3ed409b2	0.41413647
76	0x3ed0ad30	0.40757132
77	0xbd3dce33	-0.046339225
78	0x3ee75df8	0.4518888
79	0xbe9ea2f8	-0.3098371
80	0x3ec1efa0	0.37878132
81	0xbec489e7	-0.3838646
82	0xbdecfa21	-0.11571146
83	0xbf66b94a	-0.9012648
84	0x3bb9dca7	0.0056720558
85	0x3e15008a	0.14550987
86	0x3ed3471b	0.41265187
87	0x3e54071a	0.20705834
88	0xbe2d0991	-0.1689818
89	0xbea263a3	-0.31716642
90	0xbdf9a985	-0.121905364
91	0xbe761129	-0.24029984
92	0xbd30c969	-0.04316083
93	0xbd87694d	-0.066118814
94	0x3ca572a0	0.020196259
95	0xbc9dc92c	-0.019260965
96	0xbebc11e1	-0.3673239
97	0xbe7468b6	-0.23868069
98	0x3b27fe9a	0.0025633932
99	0xbe25cc07	-0.16191112
100	0xbd6f7d1b	-0.05846892
101	0x3e89ccde	0.26914114
102	0x3e11d691	0.14242007
103	0xbeb929c0	-0.36164665
104	0xbd60111f	-0.054703828
105	0xbdb8647e	-0.09003542
106	0xbe95c53b	-0.29252037
107	0x3e11d5f5	0.14241774
108	0x3c864131	0.016388508
109	0x3d8927b5	0.06697027
110	0xbeb342cb	-0.35011896
111	0xbe94f5a8	-0.2909367
112	0x3f128bc9	0.57244545
113	0x3dbc7df8	0.09203714
114	0x3c5c81cd	0.013458681
115	0xbede2861	-0.43390182
116	0xbd7b19ae	-0.061303787
117	0xbe4772ce	-0.19477388
118	0x3d6e94ed	0.058247495
119	0x3ecde58a	0.40214187
120	0x3d146d20	0.036236882
121	0x3e7eb12a	0.2487227
122	0xbe880d2b	-0.26572546
123	0xbd9ab31c	-0.07553694
124	0x3eb289c7	0.3487074
125	0xbd39e88f	-0.0453878
126	0x3e8d821f	0.27638337
127	0x3f014f50	0.50511646
128	0xbeeb5e11	-0.45970204
129	0xbede0be3	-0.43368444
130	0xbe858f0d	-0.26085702
131	0x3ca272b8	0.019830093
132	0x3e73ea57	0.23819862
133	0xbe634df5	-0.22197707
134	0x3e9172d2	0.28407913
135	0xbe9b4c54	-0.3033167
136	0xbe8c9d2e	-0.2746367
137	0xbe4c4b08	-0.19950497
138	0xbe323e45	-0.17406566
139	0xbda9515b	-0.082674704
140	0xbe1e9ec6	-0.15490255
141	0xbddaad25	-0.10677556
142	0x3d12fc42	0.035885103
143	0xbe9b1db0	-0.30296087
144	0xbf246b79	-0.6422649
145	0xbea5e2de	-0.32399648
146	0xbe4f565b	-0.20247786
147	0xbf1f8ed4	-0.62327313
148	0xbf1dc193	-0.61623496
149	0x3c18dbe8	0.0093297735
150	0xbe097920	-0.13425112
151	0xbd3dfe3f	-0.046385046
152	0xbf4e50e4	-0.8059218
153	0x3defcba8	0.11708766
154	0x3bc083b5	0.0058750757
155	0x3eeee4f8	0.46659064
156	0xbc1b3f1e	-0.0094754975
157	0x3f244361	0.6416531
158	0x3d8b4e51	0.06802047
159	0x3dec2cdc	0.11531994
160	0xbe68b8b9	-0.22726716
161	0xbd6a7e51	-0.05724937
162	0x3c5999d2	0.0132813025
163	0x3ec4e6ee	0.38457435
164	0x3ecfd59f	0.40592667
165	0x3e0fa5f6	0.14028153
166	0x3e879dd7	0.2648761
167	0x3cc97b17	0.024594827
168	0x3a60be17	0.00085732475
169	0xbd2b2e74	-0.041792348
170	0x3e93736f	0.28799006
171	0xbe25d237	-0.16193472
172	0x3deda077	0.11602872
173	0xbe987524	-0.2977687
174	0xbeac209e	-0.33618635
175	0xbe7ac436	-0.24488911
176	0xbd8fbcc9	-0.0701843
177	0xbed07679	-0.40715387
178	0x3d7f919b	0.06239472
179	0x3d96b26a	0.073582485
180	0x3cbc90d3	0.023018276
181	0xbca9c900	-0.020725727
182	0xbe9465b1	-0.28983834
183	0xbdaa4f63	-0.08315923
184	0xbd4d6496	-0.050144754
185	0x3c76d042	0.015064301
186	0xbe2782bb	-0.16358463
187	0xbe847f7a	-0.25878507
188	0x3d2d25e4	0.042272463
189	0xbb62b793	-0.0034594282
190	0x3e18b0d1	0.149112
191	0xbe4fd863	-0.20297389
192	0xbe169dad	-0.14708586
193	0x3eb69c53	0.3566614
194	0x3e5ce7c6	0.2157279
195	0x3edab6de	0.42717642
196	0x3f266336	0.64995134
197	0x3ed84379	0.42238978
198	0x3f16d771	0.5892249
199	0x3e105b39	0.14097299
200	0xbddd3b89	-0.10802371
201	0xbe1643aa	-0.1467425
202	0xbf32ca87	-0.6984028
203	0x3d9390d2	0.07205357
204	0xbdbffbbe	-0.09374188
205	0x3e95493a	0.2915743
206	0xbdbcf7a1	-0.09226919
207	0x3e9ee193	0.31031474
208	0x3e943567	0.28946993
209	0xbede8b28	-0.43465543
210	0x3e987d9d	0.29783335
211	0xbe2cfdcd	-0.16893692
212	0x3d473101	0.04863072
213	0xbe4adc59	-0.19810618
214	0x3eb5835c	0.35451782
215	0xbec56865	-0.3855621
216	0x3de484f0	0.11158168
217	0xbea124c0	-0.3147335
218	0xbe99951e	-0.2999658
219	0x3eb4e315	0.353295
220	0xbdbea0eb	-0.093080364
221	0xbdef78b1	-0.11692942
222	0xbb484fc3	-0.003056512
223	0x3d5de1b9	0.054170344
224	0xbed97d7b	-0.42478547
225	0xbb836e0a	-0.0040109204
226	0xbe39ee09	-0.1815721
227	0x3c200905	0.009767775
228	0xbf0dd7bb	-0.55407304
229	0xbd8d5b92	-0.06902231
230	0xbeea3c1b	-0.45748982
231	0xbe3cb0f1	-0.18426873
232	0xbe0b6c3d	-0.13615508
233	0x3d7993a4	0.060931817
234	0x3d793990	0.06084591
235	0x3eed7b2a	0.4638303
236	0x3ead51fd	0.33851615
237	0xbdde4944	-0.10853818
238	0xbec7bf76	-0.3901326
239	0x3eb5d029	0.35510376
240	0x3e89c3cd	0.26907197
241	0x3db8b66b	0.090191685
242	0xbeb99c78	-0.3625219
243	0x3ea8a47a	0.32937986
244	0x3cdb3745	0.026759753
245	0xbdd38b38	-0.10329288
246	0xbee14253	-0.43995914
247	0xbebc591f	-0.36786744
248	0xbe8aa975	-0.2708241
249	0xbf0a470a	-0.54014647
250	0xbeae9475	-0.3409764
251	0x3e07458f	0.13210128
252	0xbea9dba3	-0.33175382
253	0xbee53d6f	-0.44773433
254	0xbf13715d	-0.57594854
255	0xbea615e3	-0.32438573

network.0.bias f4 [32]
0	0xbeaf968c	-0.34294546
1	0xbec28071	-0.37988618
2	0xbeffaa3a	-0.4993456
3	0xbe907e09	-0.28221157
4	0xbea1039a	-0.3144806
5	0xbe687c8c	-0.22703761
6	0xbde47de1	-0.11156822
7	0xbea7c54b	-0.3276771
8	0xbe4517a9	-0.19247307
9	0xbe4e0424	-0.20118767
10	0xbdf2abb4	-0.11849156
11	0xbed2a5d2	-0.41142136
12	0xbf2882fc	-0.65824866
13	0xbeb64c69	-0.3560517
14	0xbed5b685	-0.41740814
15	0xbe877f70	-0.26464415
16	0xbed8d755	-0.42351785
17	0xbe393737	-0.18087469
18	0xbe1cbce5	-0.15306433
19	0x3e86fbbd	0.26363936
20	0xbe68c4e9	-0.22731365
21	0xbe4febe9	-0.20304836
22	0xbdd9ee49	-0.106411524
23	0x3d2e20e3	0.042511832
24	0xbdbc4f09	-0.09194762
25	0xbe237c15	-0.15965302
26	0xbecafa07	-0.3964388
27	0xbd181048	-0.037124902
28	0x3a774ea3	0.000943402
29	0xbed946f0	-0.42436934
30	0xbefd821e	-0.49513334
31	0xbe823a29	-0.25434998

network.2.weight f4 [64, 32, 3, 3]
0	0xbe0484da	-0.12941304
1	0xbdaba901	-0.08381844
2	0xbee7219c	-0.4514283
3	0xbe1828df	-0.14859341
4	0xbe85e7f2	-0.26153523
5	0x3dae0b7c	0.08498284
6	0xbdccc3ba	-0.099982694
7	0xbc04f0f9	-0.008114093
8	0xbe361dbd	-0.17784782
9	0xbed369c4	-0.4129163
10	0x3e686a37	0.22696768
11	0x3e44b95a	0.19211331
12	0x3e2fb31f	0.17158173
13	0xbe2e4da1	-0.170218
14	0xbd380f0a	-0.044936217
15	0xbe246d15	-0.16057236
16	0x3e849fdf	0.25903222
17	0xbf00597a	-0.5013653
18	0xbee6a4c9	-0.45047596
19	0x3ebd014c	0.36915052
20	0xbe984ffb	-0.2974852
21	0xbdf1b4fd	-0.11802099
22	0xbf04081c	-0.51574874
23	0xbe5d31ea	-0.21601072
24	0xbed58c89	-0.41708782
25	0xbd281b1c	-0.04104148
26	0xbf412864	-0.75452256
27	0xbd6a1f9d	-0.057159055
28	0xbb8a6121	-0.0042230044
29	0xbe9c8362	-0.30568987
30	0x3d8a0022	0.067383066
31	0xbec6a7ec	-0.3879999
32	0x3e0d4c32	0.13798597
33	0x3dda9425	0.106727876
34	0xbe996dc9	-0.29966572
35	0xbeb37ca0	-0.3505602
36	0x3dd6ae14	0.104824215
37	0x3e78de29	0.24303497
38	0x3ee35244	0.443987
39	0xbc96d4d5	-0.018412033
40	0x3c3d4420	0.011551887
41	0x3e0a569d	0.13509603
42	0xbde2bab0	-0.11070764
43	0xbe613bb5	-0.21995433
44	0x3ea4d4b2	0.32193524
45	0x3ec7558f	0.38932464
46	0xbe4cc7cb	-0.1999809
47	0xbde0d984	-0.10978988
48	0x3e740c0f	0.23832725
49	0xbe963dcb	-0.2934402
50	0xbeb0c355	-0.34524027
51	0x3dc05a50	0.09392226
52	0x3e136597	0.14394222
53	0x3e9bc277	0.30421802
54	0x3e5a40a4	0.21313721
55	0x3d24ef77	0.040267434
56	0xbe47c01c	-0.19506878
57	0xbed1ea0e	-0.40998882
58	0xbecce416	-0.40017766
59	0xbe0dc66c	-0.13845223
60	0x3df474c3	0.11936333
61	0x3d83fbf3	0.0644454
62	0x3bf5e300	0.007503867
63	0xbebf077c	-0.37310398
64	0x3e34810d	0.17627354
65	0xbe26da0e	-0.16294119
66	0xbe2b584b	-0.167329
67	0xbd9329d5	-0.07185713
68	0xbeafff5d	-0.34374514
69	0xbde5bf86	-0.11218171
70	0x3e03b00b	0.12860124
71	0xbe6c316a	-0.23065725
72	0xbe86649e	-0.2624864
73	0x3e1c1c99	0.15245284
74	0xbbd3e2ea	-0.0064662592
75	0xbe24cb1f	-0.1609311
76	0xbe857370	-0.26064634
77	0xbbe55701	-0.006998897
78	0x3e42e27b	0.19031708
79	0xbeec4574	-0.4614674
80	0x3d8e141b	0.069374286
81	0x3eb34539	0.3501375
82	0x3da3e029	0.080017395
83	0x3d09cea1	0.033644322
84	0xbec8d5f3	-0.3922573
85	0xbe5780a0	-0.2104516
86	0xbd16c6df	-0.036810752
87	0xbf075357	-0.5286154
88	0xbe62896f	-0.2212274
89	0x3ea0423e	0.3130054
90	0xbeb36654	-0.35039008
91	0xbee0abf3	-0.43881187
92	0x3dc80ce5	0.097680844
93	0xbe758951	-0.23978163
94	0xbdc90bbc	-0.09816691
95	0xbca0ba2c	-0.019620024
96	0xbe5fccca	-0.21855465
97	0x3df6b671	0.12046517
98	0xbe84b0c7	-0.2591612
99	0x3eacc96c	0.33747423
100	0x3ef80e49	0.484484
101	0x3dcf49ed	0.10121522
102	0x3e60f41b	0.21968119
103	0x3f0c132d	0.5471676
104	0x3e123805	0.14279182
105	0x3e8e9b99	0.27853087
106	0x3e43b7ee	0.19113132
107	0xba848e64	-0.0010113236
108	0x3e032f07	0.12810908
109	0xbd8f7717	-0.070051365
110	0xbe91aee9	-0.28453758
111	0x3daeff3e	0.08544777
112	0xbe141733	-0.14461975
113	0xbc6d6cd3	-0.014491278
114	0xbe75809c	-0.23974842
115	0xbe68cef7	-0.22735201
116	0xbe939583	-0.28825006
117	0xbe953793	-0.29143962
118	0xbe84a649	-0.25908116
119	0x3cc88238	0.024476156
120	0xbddf9812	-0.10917677
121	0xbd945355	-0.07242457
122	0xbe87514b	-0.2642921
123	0xbe9071ee	-0.2821192
124	0xbd6091f7	-0.054826703
125	0xbd79e2b5	-0.06100722
126	0xbe1e0124	-0.15430123
127	0x3e39666c	0.18105477
128	0xbe4ed0ee	-0.20196888
129	0xbd9ec7c0	-0.07752943
130	0x3e51b702	0.20479968
131	0xbd99eedd	-0.07516263
132	0xbedbdb61	-0.4294081
133	0x3d9d78f2	0.07689084
134	0xbf163e91	-0.5868922
135	0xbc246b56	-0.0100353565
136	0xbe9aae61	-0.30211166
137	0xbd63e5b0	-0.05563897
138	0xbeb303e5	-0.3496391
139	0xbe809022	-0.25109965
140	0x3e26b506	0.16279992
141	0xbe318119	-0.17334403
142	0xbc828c26	-0.015935969
143	0x3dd3c35f	0.103399985
144	0x3e02393d	0.12717147
145	0x3e1e8d03	0.15483479
146	0x3edc24eb	0.42996916
147	0x3daebbd9	0.08531923
148	0xbe72676e	-0.23672268
149	0x3d71a7a2	0.058997758
150	0xbee9a070	-0.45630217
151	0xbed009d8	-0.4063251
152	0xbebe7df0	-0.37205458
153	0x3c94cf60	0.01816529
154	0x3e4b041a	0.19825783
155	0xbdf6b9e4	-0.120471746
156	0xbe0e0efe	-0.13872907
157	0x3c54db4c	0.012991738
158	0xbda97172	-0.08273591
159	0xbe69d3b8	-0.2283467
160	0xbd819547	-0.063273005
161	0xbe7d4d03	-0.24736409
162	0x3e9ca834	0.3059708
163	0x3dbb77f6	0.0915374
164	0xbdd57d04	-0.104242355
165	0xbdf89f61	-0.12139774
166	0x3d75b268	0.059984595
167	0xbeba8d65	-0.36436
168	0xbed2466c	-0.41069353
169	0x3c4cf7a0	0.01251021
170	0xbeed31ab	-0.46326956
171	0xbe8efccd	-0.27927247
172	0xbe01588e	-0.12631437
173	0xbe16d0be	-0.14728066
174	0xbe89f98b	-0.269482
175	0xbe5653c6	-0.20930395
176	0xbf00ef65	-0.5036529
177	0xbdeec88c	-0.11659345
178	0xbe951b52	-0.29122406
179	0xbe813965	-0.252391
180	0x3e2c4bac	0.16825742
181	0xbe0b19ac	-0.13584012
182	0xbebf607b	-0.37378296
183	0x3e849872	0.25897557
184	0x3de9edaa	0.11422284
185	0x3e14375e	0.14474246
186	0xbe8d7598	-0.2762878
187	0x3e371f76	0.17883095
188	0xbdbec120	-0.093141794
189	0xbd2e6754	-0.04257901
190	0xbe299851	-0.1656201
191	0xbddd52f3	-0.10806837
192	0x3df1ee4e	0.11813031
193	0x3e80c00c	0.2514652
194	0xbe90a6d4	-0.2825228
195	0xbd6e296f	-0.058144983
196	0x3e08f941	0.13376333
197	0xbdfbbc21	-0.12291742
198	0x39681764	0.00022133958
199	0xbe1dcb6d	-0.15409632
200	0xbe172d56	-0.14763388
201	0x3e642b49	0.22282137
202	0xbe432d41	-0.19060232
203	0xbed27b5a	-0.41109735
204	0x3e8841ba	0.26612645
205	0x3e89cd57	0.26914474
206	0xbec8c183	-0.39210138
207	0x3d163c25	0.036678452
208	0xbefaa4ce	-0.4895386
209	0x3e8fdb46	0.2809698
210	0xbf0e4b09	-0.55583245
211	0xbee7aed0	-0.4525056
212	0xbe1ce2b5	-0.15320857
213	0xbdae957d	-0.085246064
214	0x3e950d36	0.29111642
215	0xbdcf17d3	-0.10111966
216	0xbe36ca3a	-0.17850581
217	0xbe08f21b	-0.13373606
218	0x3d97a827	0.074051194
219	0xbe7a01fd	-0.24414821
220	0xbe63c30c	-0.22242373
221	0xbf3af5bc	-0.7303121
222	0x3e83345e	0.2562589
223	0xbe60531b	-0.21906702
224	0xbdf1b08b	-0.11801251
225	0xbed6dedd	-0.41966906
226	0xbed1ca60	-0.40974712
227	0xbdb4b118	-0.088228405
228	0xbf0388af	-0.5138044
229	0x3bfdfcb8	0.0077510737
230	0xbe7a3ebe	-0.24437997
231	0xbebe6b61	-0.371913
232	0xbe58ed1c	-0.211842
233	0x3e47a33c	0.19495863
234	0xbe533eb6	-0.20629391
235	0xbebac8a1	-0.36481193
236	0xbe26df4d	-0.1629612
237	0xbe9eb671	-0.30998567
238	0x3cf3a830	0.029743284
239	0x3ea476f9	0.3212202
240	0xbdf7566b	-0.1207703
241	0x3bf628f8	0.007512208
242	0xbf3dae8b	-0.74094456
243	0x3e19fb89	0.1503736
244	0xbee62dfe	-0.44956964
245	0x3ecb5cd3	0.39719257
246	0x3dae953a	0.085245565
247	0x3dac79d7	0.084216766
248	0xbce5b5a1	-0.028040709
249	0x3e27cd7b	0.16386978
250	0xb94d4665	-0.00019576547
251	0x3e94bb2b	0.29049048
252	0x3e563ea4	0.20922333
253	0xbeb577c5	-0.3544294
254	0xbe317902	-0.17331317
255	0xbe6b8f7f	-0.23003958

network.2.bias f4 [64]
0	0xbe936cf2	-0.28794056
1	0xbea3519d	-0.31898203
2	0xbe2de1eb	-0.16980712
3	0xbdc2911a	-0.09500332
4	0xbe3b795f	-0.18308018
5	0xbe926628	-0.28593564
6	0xbdf62e4d	-0.1202055
7	0xbd84d8a3	-0.06486633
8	0xbe04c063	-0.12964015
9	0xbe85aa49	-0.2610648
10	0xbe20a3fa	-0.15687552
11	0x3cb43c7a	0.022001494
12	0xbe11f43a	-0.14253321
13	0xbdc6f23f	-0.097141735
14	0xbda2dfce	-0.079528436
15	0xbdb2601b	-0.08709737
16	0xbe17f2af	-0.1483867
17	0xbd908186	-0.07055955
18	0xbd42d7bc	-0.04756902
19	0xbe3ed01f	-0.1863408
20	0x3dcdc88e	0.100480184
21	0xbe1d5e47	-0.15367995
22	0xbed1153f	-0.40836522
23	0xbeae93b1	-0.34097055
24	0xbe02ce3a	-0.12773982
25	0x3d3c477a	0.045966603
26	0xbe017da3	-0.12645583
27	0x3e0b1c0c	0.13584918
28	0xbe3d6dca	-0.18498912
29	0xbdd0c47a	-0.10193725
30	0xbe8018b4	-0.25018847
31	0xbe4684aa	-0.19386545
32	0xbda9cfad	-0.08291564
33	0xbd99dc26	-0.07512693
34	0xbdc81ad8	-0.09770745
35	0xbe25c7b1	-0.16189457
36	0xbe595497	-0.21223675
37	0xbdfccc26	-0.12343626
38	0xbd3ed54e	-0.046590142
39	0xbdc5f5bd	-0.096660115
40	0xbc6b47d8	-0.014360391
41	0xbe2a07d4	-0.16604549
42	0xbe154e77	-0.14580713
43	0xbe53219a	-0.20618287
44	0xbdc5f5b7	-0.09666007
45	0xbe10b5a9	-0.14131798
46	0xbe0d7c6c	-0.13816994
47	0xbd94dac3	-0.07268288
48	0xbd705191	-0.058671538
49	0xbd9dc49a	-0.077035144
50	0x3afb0cdc	0.0019153613
51	0xbb179607	-0.0023130195
52	0xbe024575	-0.12721808
53	0xbe0b6f4b	-0.13616674
54	0xbe9d2970	-0.30695677
55	0xbe87602b	-0.26440558
56	0xbe54a151	-0.20764662
57	0xbe3747b8	-0.17898452
58	0xbe23d08e	-0.15997526
59	0xbe0b8f67	-0.13628922
60	0xbe87e576	-0.26542252
61	0xbe5ecdcc	-0.21758193
62	0xbe102558	-0.14076746
63	0xbe15d333	-0.14631347

network.4.weight f4 [64, 64, 3, 3]
0	0x3b2d312c	0.0026427014
1	0xbd8ee50f	-0.06977283
2	0x3d813b44	0.06310132
3	0xbd83c4ec	-0.06434044
4	0xbe8d8d6c	-0.2764696
5	0x3e854ebd	0.26036635
6	0x3c95ab61	0.018270196
7	0xbcc286bf	-0.023745893
8	0x3db76411	0.08954633
9	0xbec58e74	-0.38585246
10	0xbdb85c00	-0.090019226
11	0xbe8c7fd6	-0.2744128
12	0xbed1e9ce	-0.4099869
13	0xbf03ac17	-0.51434463
14	0xbe844a0b	-0.2583774
15	0x3d80ce94	0.06289402
16	0xbe13f2c0	-0.1444807
17	0xbda125fb	-0.07868572
18	0x3e981447	0.2970297
19	0xbe162b39	-0.14664926
20	0xbe05f4e6	-0.13081703
21	0xbe79e47d	-0.24403568
22	0x3f32ab00	0.69792175
23	0x3e57aa56	0.21061072
24	0x3dc14d0b	0.09438523
25	0x3de6e327	0.112737946
26	0xbe6d3fd4	-0.2316888
27	0xbe9177bf	-0.28411672
28	0xbf124feb	-0.57153195
29	0x3e30ed2e	0.17277977
30	0xbe3e7819	-0.18600501
31	0x3c0aac99	0.008464002
32	0xbe0dff4c	-0.1386692
33	0xbe669360	-0.22517157
34	0x3e1f67b4	0.15566903
35	0x3c043145	0.008068387
36	0x3ce30f5c	0.027717285
37	0x3e6fc7bc	0.23416036
38	0x3ec11d96	0.37717885
39	0xbc22efa0	-0.009944826
40	0x3e73fa3a	0.23825923
41	0xbdde0823	-0.10841396
42	0x3e973517	0.29532692
43	0x3e62bc85	0.22142227
44	0x3f0911f2	0.5354301
45	0xbdc50edb	-0.09621974
46	0x3d39e697	0.045385923
47	0x3d680231	0.056642715
48	0xbed7768c	-0.42082632
49	0xbe4b794a	-0.19870487
50	0xbefe14f4	-0.4962536
51	0xbb9c5765	-0.0047711604
52	0xbeecf5c1	-0.46281245
53	0xbe0927a2	-0.13394025
54	0xbb958f11	-0.004564174
55	0x3e4c0727	0.19924603
56	0x3f2f36c7	0.6844296
57	0xbe11c744	-0.1423617
58	0x3eef036f	0.46682307
59	0x3d235242	0.03987337
60	0x3ea8196c	0.32831895
61	0x3d8b8d85	0.06814102
62	0x3ec82734	0.3909241
63	0x3e5f6dfb	0.21819298
64	0xbe76589b	-0.24057238
65	0xbe38865d	-0.18020006
66	0x3e49814a	0.19678226
67	0xbdff5bf5	-0.12468711
68	0xbec2ff17	-0.38085243
69	0xbdd56a5c	-0.10420677
70	0xbda59ac1	-0.080861576
71	0x3ef49648	0.47770905
72	0x3e6c72c8	0.2309066
73	0xbf2fdaa8	-0.6869302
74	0xbd988068	-0.074463665
75	0xbe1e3697	-0.15450512
76	0x3d6a91ee	0.057268076
77	0xbf00b87f	-0.5028152
78	0x3c8004d8	0.01562731
79	0x3d196e94	0.03745897
80	0xbcbfd1de	-0.023415502
81	0x3e1bd734	0.15218812
82	0x3e43f675	0.19136985
83	0x3e8e65da	0.27812082
84	0xbe46ae5c	-0.1940245
85	0xbf13d476	-0.57746065
86	0xbe75cf3b	-0.24004833
87	0xbec99146	-0.39368647
88	0xbe5e60da	-0.21716633
89	0xbe9ecca2	-0.31015497
90	0x3dae9077	0.08523648
91	0xbd2cd258	-0.042192787
92	0xbdde0fdc	-0.10842869
93	0xbc046d50	-0.008082703
94	0x3d28840a	0.041141547
95	0x3caa9178	0.020821318
96	0xbcf427dd	-0.029804165
97	0xbe998ad3	-0.29988727
98	0xbda5ef47	-0.08102279
99	0xbcba0b16	-0.022710364
100	0xbec318fe	-0.38105005
101	0xbd479daf	-0.048734363
102	0xbeef9ea5	-0.46800724
103	0xbe0da8b4	-0.13833886
104	0xbf286f57	-0.6579489
105	0x3d854031	0.06506384
106	0x3d56ed81	0.052472595
107	0xbebd556f	-0.36979243
108	0x3d96049d	0.07325099
109	0xbbd6a208	-0.0065500773
110	0xbdacc887	-0.08436685
111	0xbcc756b5	-0.024333337
112	0xbda6756f	-0.081278674
113	0xbd927964	-0.0715206
114	0xbd080999	-0.033212278
115	0xbd22bc4f	-0.039730366
116	0xbc36df01	-0.011161567
117	0xbcfb65c9	-0.030688183
118	0x3d343e07	0.044004466
119	0x3ccab1fe	0.024743076
120	0x3cd43101	0.025902273
121	0x3b972fd7	0.0046138573
122	0xbcf98286	-0.030457746
123	0xbd013d49	-0.031552587
124	0xbc47a836	-0.012186101
125	0x3ca55aed	0.020184958
126	0xbd7f9141	-0.062394384
127	0xbd9380ab	-0.07202276
128	0xbd7ed299	-0.06221256
129	0xbbefd315	-0.007318864
130	0xbcd55bad	-0.026044691
131	0xbd17fcf4	-0.03710647
132	0x3d0867d5	0.033302147
133	0x3d0b4266	0.03399887
134	0x3b493b95	0.003070568
135	0x3e11354d	0.14180489
136	0xbe31def8	-0.17370212
137	0xbcbc2349	-0.022966044
138	0xbe9ca493	-0.3059431
139	0xbe79ad86	-0.243826
140	0x3d9f2fe5	0.07772807
141	0x3e787acb	0.24265592
142	0xbda9b240	-0.082859516
143	0xbe3e541a	-0.1858677
144	0x3d853757	0.06504696
145	0x3c6e764c	0.014554571
146	0x3d0f71a6	0.035020493
147	0x3e01a2fa	0.12659827
148	0x3c89a4f9	0.016802298
149	0x3ddfe3b5	0.109321035
150	0x3cf9faf0	0.030515164
151	0xbd79dfe0	-0.06100452
152	0x3de01c71	0.10942925
153	0x3ed4a03c	0.415285
154	0xbe2766f9	-0.16347875
155	0xbdd644b2	-0.10462321
156	0x3f017a28	0.5057702
157	0xbe452ad1	-0.19254614
158	0xbe68a182	-0.2271786
159	0x3e30416c	0.17212456
160	0xbe980339	-0.2968996
161	0xbbe31a36	-0.006930615
162	0xbe97fdde	-0.29685873
163	0xbe54d664	-0.20784909
164	0xbeea90d1	-0.4581361
165	0xbf230149	-0.63673836
166	0xbee01480	-0.4376564
167	0xbf39193e	-0.7230414
168	0xbd26437c	-0.040591702
169	0x3c23696a	0.009973863
170	0xbee4db23	-0.44698438
171	0xbe1759cc	-0.14780349
172	0xbd32fcd9	-0.043698166
173	0x3d69fb0d	0.057124186
174	0xbebbd59e	-0.36686414
175	0xbe966027	-0.29370233
176	0xbe1a4165	-0.15064009
177	0xbdf92999	-0.12166137
178	0xbcfd279a	-0.030902673
179	0xbf0ad859	-0.5423637
180	0xbe29a10a	-0.16565338
181	0xbeaa841a	-0.3330391
182	0xbf333e3c	-0.7001684
183	0xbe4c6112	-0.19958904
184	0x3d853ab7	0.065053396
185	0xbda08194	-0.07837215
186	0xbe08c3e8	-0.13355982
187	0xbedf2406	-0.4358217
188	0xbec98fa1	-0.39367393
189	0xbcb0d872	-0.021587584
190	0xbea652f7	-0.32485172
191	0x3e090c51	0.13383605
192	0xbe115bb3	-0.14195137
193	0x3c681131	0.014164255
194	0x3dd90e69	0.10598452
195	0xbe343ea5	-0.17602022
196	0xbd914b96	-0.07094495
197	0x3e0d966b	0.13826911
198	0xbe806987	-0.2508051
199	0x3b1c389d	0.0023837455
200	0xbf490508	-0.785233
201	0xbe9c69bf	-0.30549428
202	0xbda865a1	-0.08222509
203	0xbe569179	-0.20953931
204	0xbe372967	-0.17886887
205	0x3cc21be6	0.023694944
206	0x3d1a0b13	0.037608217
207	0xbe8b4c66	-0.27206725
208	0xbc39e2fd	-0.011345622
209	0xbe1862d4	-0.1488145
210	0x3dd0d78e	0.10197364
211	0xbdb8b2d7	-0.09018486
212	0xbc9f3bb1	-0.019437643
213	0x3ca891b8	0.020577297
214	0xbdc47f16	-0.09594552
215	0x3cdd68ef	0.027027575
216	0x3d905a5a	0.07048483
217	0x3f238a0f	0.63882536
218	0x3d20d14f	0.039262112
219	0xbedc0d3f	-0.42978856
220	0xbe3cb9b7	-0.1843022
221	0x3d6d0f6e	0.057876043
222	0x3defcf6d	0.11709485
223	0x3e7c55ff	0.2464218
224	0xbe2d8521	-0.16945316
225	0x3da10a9f	0.07863354
226	0x3d2c8952	0.042123146
227	0xbdf505d8	-0.11964005
228	0xbef45611	-0.47721913
229	0x3e558fc1	0.20855619
230	0xbf019eb8	-0.5063281
231	0x3b90a12f	0.004413746
232	0xbd9c53e9	-0.07633192
233	0x3ddde68c	0.10834989
234	0xbd28fe82	-0.041258343
235	0xbc9ba46b	-0.018999299
236	0xbcd14653	-0.025546229
237	0xbc86ce51	-0.016455801
238	0xbcc86222	-0.024460856
239	0xbd6e8109	-0.058228526
240	0xbd122ee2	-0.035689242
241	0x3ca5716f	0.02019569
242	0x3cf58d56	0.02997462
243	0xbe571416	-0.21003756
244	0xbe85c1bb	-0.26124367
245	0xbd3811c1	-0.044938806
246	0x3dc2496c	0.0948666
247	0xbe2a103a	-0.16607752
248	0xbed5488d	-0.41656914
249	0xbe5f7df0	-0.21825385
250	0xbf0e7c0d	-0.55658036
251	0xbe6e6417	-0.23280369
252	0xbd975382	-0.07388975
253	0x3e1b16c9	0.1514541
254	0xbeb3ce85	-0.351185
255	0xbd9a8022	-0.07543971

network.4.bias f4 [64]
0	0xbe2df104	-0.16986471
1	0xbf190807	-0.59777874
2	0xbeb5166e	-0.35368675
3	0xbd249e4b	-0.040190022
4	0xbe9d5cc8	-0.3073485
5	0xbccff20b	-0.02538397
6	0xbf01005a	-0.5039116
7	0xbed32da9	-0.41245773
8	0xbea69ea2	-0.32542902
9	0xbe285861	-0.16439964
10	0xbe8993a3	-0.2687045
11	0xbe874c03	-0.2642518
12	0xbed9656b	-0.42460188
13	0xbd0448ce	-0.032295994
14	0xbd8f5de6	-0.070003316
15	0xbe3a06db	-0.18166678
16	0xbf210696	-0.62900674
17	0xbe7c6698	-0.24648511
18	0xbe041e2c	-0.12902135
19	0xbe6f4b26	-0.2336851
20	0xbe039b6d	-0.12852259
21	0xbf05b9c6	-0.5223659
22	0xbb30b1d9	-0.0026961474
23	0xbe3437ee	-0.1759946
24	0xbe67293b	-0.22574322
25	0xbd521863	-0.05129279
26	0xbd0f8f9f	-0.035049077
27	0xbd77e41a	-0.06052027
28	0xbe0360d3	-0.12829904
29	0xbe707ff7	-0.23486315
30	0xbe027455	-0.1273969
31	0xbd99529c	-0.074864596
32	0xbec3c5c9	-0.38236836
33	0xbf10fa89	-0.56632286
34	0xbe540e81	-0.20708658
35	0xbd9cf8fc	-0.076646775
36	0xbe764751	-0.24050643
37	0xbee8d47d	-0.45474616
38	0xbe8810b3	-0.2657524
39	0xbed1b7e6	-0.40960616
40	0xbeaf7a26	-0.3427288
41	0xbeeb4721	-0.45952705
42	0xbe7d97c8	-0.24764931
43	0xbe8b7727	-0.27239344
44	0xbed5aa89	-0.4173167
45	0xbef87ddd	-0.48533526
46	0xbefdde5e	-0.49583715
47	0xbec8c168	-0.39210057
48	0xbe5c09f5	-0.21488173
49	0xbeb95c1a	-0.3620308
50	0xbe0d5dec	-0.1380536
51	0xbed7ebb3	-0.42172012
52	0xbebfbfc0	-0.3745098
53	0xbdf785fa	-0.12086101
54	0xbcc04c32	-0.023473833
55	0xbda40f1a	-0.08010693
56	0xbeb4c3a9	-0.35305527
57	0xbe9b1b3e	-0.30294222
58	0xbe1f1eec	-0.1553914
59	0xbe8e7d81	-0.27830127
60	0xbd623e4c	-0.055235192
61	0xbebd22c7	-0.36940596
62	0xbe9678f1	-0.29389146
63	0xbda6f582	-0.08152296

actor.weight f4 [5, 3136]
0	0x3e14ee6f	0.1454408
1	0xbdf52e24	-0.11971691
2	0xbc4f7c83	-0.012663963
3	0xbd3d7117	-0.04625043
4	0x3df90fb8	0.12161201
5	0x3e1ccd0f	0.15312599
6	0xbee7e11a	-0.45288926
7	0xbeb3c1c0	-0.35108757
8	0xbdc4f988	-0.09617907
9	0xbd575599	-0.052571867
10	0x3e560db8	0.20903671
11	0x3ea4cabd	0.32185927
12	0x3eff6942	0.49884993
13	0x3eaba95c	0.33527648
14	0xbae3889b	-0.0017359437
15	0x3d9f80a8	0.07788211
16	0xbe5241f1	-0.20532967
17	0x3e6f6fff	0.23382567
18	0xbe426a50	-0.18985868
19	0x3e4aee06	0.19817361
20	0x3edd6996	0.43244618
21	0x3c5f4b57	0.013628802
22	0xbcf454bc	-0.02982556
23	0xbce6ce70	-0.028174609
24	0xbe9148fb	-0.28375992
25	0x3d58895c	0.05286537
26	0x3e603633	0.21895675
27	0x3e6c9dce	0.23107073
28	0xbe41246d	-0.18861552
29	0xbe8cffbf	-0.2753887
30	0xbcdc28d7	-0.026874943
31	0x3e02aa1e	0.12760207
32	0xbcf6749b	-0.030084899
33	0x3dbab3b6	0.091163084
34	0xbea0c1ba	-0.31397802
35	0xbbca6826	-0.0061769662
36	0xbd9fa243	-0.07794621
37	0x3ee78a59	0.45222738
38	0x3e89ee4c	0.2693962
39	0xbeabdb00	-0.3356552
40	0xbeb77e22	-0.3583842
41	0xbe46d104	-0.1941567
42	0x3dc60d06	0.09670453
43	0xbbd92b8c	-0.0066275056
44	0x3e03b441	0.1286173
45	0xbcc0ad99	-0.023520278
46	0xbe7bed30	-0.24602199
47	0x3ebc3ffd	0.3676757
48	0xbe8ab4d9	-0.270911
49	0x3d6546a1	0.05597556
50	0xbe1641fa	-0.14673606
51	0x3db71999	0.08940429
52	0xbee36aeb	-0.4441751
53	0xbe8c9e8f	-0.2746472
54	0xbd642087	-0.055695083
55	0x3e1a8256	0.15088782
56	0xbea12a96	-0.31477803
57	0x3e2c1b79	0.16807355
58	0xbcb62b2f	-0.022237388
59	0xbe3a2f54	-0.18182117
60	0xbe105bec	-0.14097565
61	0xbecf332e	-0.40468735
62	0x3e960466	0.2930023
63	0xbe36da89	-0.17856802
64	0xbe493b03	-0.19651417
65	0xbd18a63a	-0.0372679
66	0x3dfed5a8	0.124430954
67	0x3e9b983f	0.30389592
68	0x3d138d3b	0.03602336
69	0x3ea64ee2	0.32482058
70	0xbdd7c284	-0.10535148
71	0xbe3c9cca	-0.18419185
72	0xbdebfd56	-0.11522929
73	0x3ea8c6e9	0.32964256
74	0xbe2337a0	-0.15939188
75	0x3db3712d	0.08761821
76	0x3de950db	0.11392375
77	0x3e677051	0.22601439
78	0xbda0ce49	-0.07851846
79	0x3e88cd33	0.26719055
80	0x3d4d86db	0.050177436
81	0xbd2a9a70	-0.04165119
82	0xbe96d964	-0.2946273
83	0x3bca1836	0.006167437
84	0x3dd3b8ad	0.103379585
85	0xbdb6a422	-0.089180246
86	0x3d8e9b50	0.06963217
87	0xbd67fb3c	-0.05663608
88	0x3eb916d8	0.3615024
89	0xbe84bb15	-0.25923982
90	0xbdd466f3	-0.103711985
91	0x3d8fff8e	0.07031165
92	0x3ee5a07e	0.44849008
93	0xbe2ffb19	-0.1718563
94	0x3ddea168	0.108706295
95	0xbdc85a61	-0.097828634
96	0x3def831a	0.116949275
97	0x3e71762b	0.23580234
98	0x3f1e7c9e	0.619089
99	0xbf706005	-0.93896514
100	0xbba0f513	-0.0049120276
101	0x3d83dbf0	0.06438434
102	0xbe444ab2	-0.19169119
103	0xbdc3366a	-0.09531863
104	0x3e3ad986	0.18247041
105	0xbf038adb	-0.5138375
106	0xbeac7806	-0.3368532
107	0x3e672a2f	0.22574686
108	0xbde8b414	-0.11362472
109	0xbc91a079	-0.017776715
110	0xbeb6f0a2	-0.35730463
111	0x3d983b4b	0.07433184
112	0x3e7b0d48	0.24516785
113	0x3d836e98	0.064175785
114	0xbeb33ec3	-0.3500882
115	0x3d46e440	0.04855752
116	0x3d3bac84	0.04581882
117	0xbe910fa2	-0.2833224
118	0xbde407fc	-0.111343354
119	0xbd55456c	-0.05206816
120	0x3e3da83f	0.18521212
121	0x3eccfe90	0.40037966
122	0x3eee3fa0	0.46532917
123	0xbf0d495d	-0.5519007
124	0xbd0091c3	-0.03138901
125	0x3e8ab4dd	0.27091113
126	0x3e739c6b	0.23790137
127	0x3e19eb6f	0.15031217
128	0x3ed5cce4	0.41757882
129	0x3e3e9b79	0.18613996
130	0x3ba2c740	0.0049676
131	0x3e10dd7c	0.1414699
132	0x3c809e4d	0.015700484
133	0xbdc0be42	-0.09411289
134	0x3ed44173	0.41456184
135	0xbed0aafb	-0.40755448
136	0xbef9b355	-0.48769632
137	0xbe9ce656	-0.30644482
138	0xbe73f180	-0.23822594
139	0xbdf8dfe1	-0.121520765
140	0xbcf55ac2	-0.029950503
141	0x3ddbbba8	0.10729152
142	0xbe10f428	-0.14155638
143	0x3c49fc11	0.012328164
144	0xbca48876	-0.0200846
145	0xbe4f185f	-0.2022414
146	0xbea1cedd	-0.31603137
147	0x3e3febbe	0.18742272
148	0x3e442e5f	0.19158314
149	0x3dbe99cf	0.093066804
150	0x3e045e29	0.12926544
151	0x3e301b89	0.17198004
152	0x3e202ae0	0.15641356
153	0x3de7fbcf	0.113273256
154	0xbe0fd74b	-0.14046971
155	0xbd9ca24d	-0.07648144
156	0x3e4e2ec8	0.20135033
157	0xbeb03ede	-0.34422964
158	0xbce45417	-0.027872128
159	0xbd66f8fa	-0.056389786
160	0x3e32f038	0.17474449
161	0x3e344a02	0.17606357
162	0x3c95d787	0.018291248
163	0x3e53a49c	0.20668262
164	0x3e2042fb	0.15650551
165	0x3de6ac6c	0.112633556
166	0x3d73ceef	0.05952352
167	0x3e6c75c4	0.23091799
168	0x3e964f96	0.29357594
169	0x3df1ee9e	0.11813091
170	0x3e2095b9	0.15682115
171	0xbcff2c2a	-0.031148989
172	0x3dbf0a24	0.09328106
173	0xbd1c0c36	-0.038097583
174	0xbde6a2b0	-0.11261499
175	0x3e34e688	0.17666066
176	0xbdb533fa	-0.08847804
177	0xbdfafd72	-0.12255372
178	0xbd69852c	-0.05701177
179	0x3e5383ab	0.20655696
180	0x3e73a53c	0.237935
181	0x3e093a62	0.13401178
182	0xbe447200	-0.19184113
183	0xbe4cb633	-0.19991378
184	0x3e050a38	0.1299218
185	0xbf259218	-0.64676046
186	0x3e42f45f	0.19038533
187	0xbe839827	-0.2570202
188	0x3e1aa436	0.15101704
189	0xba49baf0	-0.00076953974
190	0xbd54cee2	-0.05195511
191	0xbd8b078e	-0.0678855
192	0x3e03618c	0.1283018
193	0x3e902ee5	0.28160778
194	0x3e297612	0.16548946
195	0x3dd504e4	0.104013234
196	0x3e96487d	0.2935218
197	0x3c28a128	0.010292329
198	0xbe9b6668	-0.30351567
199	0x3d409167	0.047013666
200	0x3a66b922	0.00088013906
201	0x3e1613dc	0.14656013
202	0xbc228cb4	-0.009921242
203	0xbd3ebd6f	-0.046567377
204	0x3ea2581b	0.31707844
205	0x3ce99187	0.028511776
206	0x3de9d89d	0.11418269
207	0xbea25cd3	-0.31711444
208	0x3eabf233	0.3358322
209	0x3e092dc8	0.1339637
210	0xbecce3e6	-0.40017623
211	0x3e1222a4	0.14271027
212	0xbdc82c42	-0.097740665
213	0x3e23bdd9	0.1599039
214	0x3ef2a20b	0.47389254
215	0x3ecd070d	0.40044442
216	0x3ebfb35d	0.3744153
217	0xbd99d313	-0.07510962
218	0xba5cc69c	-0.0008421929
219	0xbe315170	-0.17316222
220	0x3e98916e	0.29798454
221	0x3e7d46f9	0.24734105
222	0x3e6c9165	0.23102339
223	0x3ea653e2	0.32485873
224	0xbe40e6c9	-0.18838038
225	0xbf2a29e5	-0.66470176
226	0x3cfc83b9	0.030824529
227	0x3e904aeb	0.28182158
228	0x3d76bc67	0.06023827
229	0x3f11d5a5	0.5696662
230	0x3e5eb722	0.21749547
231	0xbcf29e15	-0.029616395
232	0xbd01d546	-0.031697534
233	0xbb7d0fea	-0.0038614222
234	0xbeb8afa2	-0.36071497
235	0xbe3d235a	-0.18470517
236	0x3e77577a	0.24154463
237	0x3eeb3527	0.4593899
238	0xbe8ed6a1	-0.27898124
239	0xbe6b2e2b	-0.2296683
240	0xbe811939	-0.25214556
241	0x3db75a1c	0.08952734
242	0x3999c529	0.0002932933
243	0x3e102fe0	0.14080763
244	0xbe5e3e98	-0.21703565
245	0x3d44252d	0.047887016
246	0x3ef010e5	0.4688789
247	0x3d7cac2e	0.06168764
248	0xbd938df6	-0.07204811
249	0x3e9550ce	0.29163212
250	0x3dcfb82b	0.10142549
251	0xbd9d9c27	-0.07695799
252	0xbe0a7c64	-0.13524014
253	0x3e6dd880	0.2322712
254	0xbd4262b4	-0.047457412
255	0xbbf2c1e4	-0.0074083675

actor.bias f4 [5]
0	0xbe9b5a07	-0.30342123
1	0x3e6a45b2	0.22878149
2	0x3e44105b	0.19146864
3	0x3cd39fb1	0.025832983
4	0xbbf9a80b	-0.0076189092

critic.weight f4 [1, 3136]
0	0xbe87500d	-0.2642826
1	0x3da85aca	0.08220442
2	0xbde8a9a5	-0.11360482
3	0xbe2ec0de	-0.1706576
4	0xbe1968b1	-0.14981343
5	0xbe5dc7b1	-0.21658207
6	0x3e1436e1	0.1447406
7	0xbe9e41c2	-0.30909544
8	0x3e028e0c	0.12749499
9	0xbd3f3980	-0.046685696
10	0xbe58f85c	-0.21188492
11	0xbde92a5a	-0.11385031
12	0x3b05bfbf	0.002040848
13	0xbde35495	-0.11100117
14	0xbeee8158	-0.46583056
15	0x3f02ff6f	0.5117101
16	0xbe060320	-0.1308713
17	0xbdbc5674	-0.09196177
18	0xbe17120f	-0.14752983
19	0x3e70af11	0.23504283
20	0xbbe52577	-0.0069929915
21	0xbe339439	-0.17537011
22	0xbe442cf7	-0.19157778
23	0x3e850c90	0.25986147
24	0x3ea10b15	0.31453767
25	0x3ed3b41a	0.41348344
26	0x3e8f5414	0.27993834
27	0x3d09267b	0.033483963
28	0xbf84f25d	-1.0386463
29	0xbe93c7c8	-0.28863358
30	0xbce9badf	-0.02853149
31	0xbdea1914	-0.114305645
32	0x3e4c5d70	0.19957519
33	0xbe4b660e	-0.1986315
34	0xbef1c32e	-0.47219223
35	0xbeb419c4	-0.35175908
36	0x3e8557a2	0.2604342
37	0x3d5dcffd	0.05415343
38	0xbf1c5d00	-0.61079407
39	0x3db20362	0.086920515
40	0x3e89b970	0.2689929
41	0xbeccd23b	-0.40004143
42	0x3c8db56e	0.017298426
43	0x3e99514d	0.2994484
44	0x3ec8f21e	0.3924722
45	0x3f024f87	0.509026
46	0xbd84cba3	-0.06484153
47	0x3e889498	0.26675868
48	0x3ef21b7f	0.47286603
49	0x3df99113	0.12185874
50	0xbd9ec10b	-0.07751664
51	0xbd2cb76b	-0.04216711
52	0xbee9645d	-0.45584384
53	0xbdd9fff8	-0.10644525
54	0x3dca9152	0.09890999
55	0x3dc03f46	0.093870685
56	0xbe187178	-0.14887035
57	0x3e0269d2	0.1273568
58	0xbe0bb973	-0.13644962
59	0xbe8cb28e	-0.27479976
60	0xbe0562a4	-0.1302591
61	0x3e32a6ae	0.17446396
62	0xbd1d58b0	-0.038414657
63	0x3e3a545f	0.18196248
64	0xbe868c5f	-0.2627897
65	0xbeaa0561	-0.3320723
66	0xbe816805	-0.25274673
67	0xbd7a7850	-0.061149895
68	0x3ca6608e	0.020309713
69	0xbd173c6f	-0.03692287
70	0xbec6d85d	-0.38836947
71	0x3dd0597e	0.10173319
72	0xbf014748	-0.5049939
73	0xbebcaea3	-0.36851987
74	0xbe25dd5b	-0.16197722
75	0xbdd82625	-0.105541505
76	0x3d93f7cb	0.07224997
77	0x3c8aa9a4	0.016926594
78	0xbe8b8d4e	-0.27256244
79	0xbe399010	-0.18121362
80	0xbe786352	-0.24256638
81	0x3e052df6	0.13005814
82	0xbdebb329	-0.115087815
83	0xbed78064	-0.42090142
84	0xbe72bd06	-0.23704919
85	0xbeb740fd	-0.3579177
86	0xbd886020	-0.066589594
87	0xbf09e46c	-0.5386417
88	0x3d8105f7	0.06299966
89	0x3b147eac	0.002265851
90	0xbe9a29d8	-0.3011005
91	0xbed3ab64	-0.41341698
92	0xbed8a442	-0.4231282
93	0xbee15a66	-0.4401428
94	0xbec956fe	-0.39324182
95	0x3e6776cf	0.22603916
96	0xbea83370	-0.32851744
97	0x3db0afd4	0.086272866
98	0xbe931567	-0.28727266
99	0xbe188d37	-0.14897619
100	0x3dc29bee	0.095023975
101	0x3c4ec13e	0.012619315
102	0xbdf1af3c	-0.118010014
103	0xbe282513	-0.16420393
104	0xbd2c8f2c	-0.042128727
105	0xbb4b9be1	-0.0031068253
106	0xbe849ad6	-0.2589938
107	0xbda320f4	-0.0796527
108	0x3e248fe1	0.1607051
109	0x3e978ffc	0.2960204
110	0x3d7b46f9	0.06134698
111	0xbe443b83	-0.19163327
112	0x3eaa764c	0.33293378
113	0x3d260df9	0.04054067
114	0xbe2e334b	-0.17011754
115	0xbdc9c43b	-0.09851881
116	0xbdc70c33	-0.09719124
117	0x3d1cf994	0.038323954
118	0x3cf9ed95	0.030508796
119	0x3be2d414	0.0069222543
120	0xbd1656f8	-0.036704034
121	0x3d85bfd6	0.065307304
122	0x3ec8af23	0.3919612
123	0x3ae9d72c	0.0017840615
124	0xbe0ae668	-0.13564456
125	0x3dac35ef	0.084087245
126	0x3e724da1	0.23662426
127	0xbead9c76	-0.33908433
128	0xbda7b137	-0.08188098
129	0xbf0909df	-0.5353069
130	0xbea96e1b	-0.33091816
131	0x3d0cafa5	0.034347195
132	0x3e823360	0.2542982
133	0xbd76ca4a	-0.06025151
134	0x3da003b1	0.07813204
135	0x3e55de58	0.20885599
136	0xbe002dbb	-0.12517445
137	0x3e50cac9	0.20389856
138	0x3f04ef70	0.5192785
139	0x3e38ea7f	0.18058203
140	0xbbe64a5e	-0.007027908
141	0xbd0934ba	-0.03349755
142	0xbdaaf84b	-0.083481394
143	0x3b803d46	0.0039135544
144	0x3e091880	0.13388252
145	0x3e63a764	0.22231823
146	0xbd5eb12f	-0.054368194
147	0x3ecb8555	0.39750162
148	0x3ee26cd1	0.44223645
149	0x3eaf1538	0.34195876
150	0x3f03aade	0.514326
151	0x3edae327	0.42751428
152	0x3ef3cd04	0.47617352
153	0x3eb135b6	0.3461129
154	0x3ec20404	0.3789369
155	0x3ec970d9	0.39343908
156	0x3ef89879	0.48553827
157	0x3e84f8b4	0.25970995
158	0x3ec8f8ad	0.39252225
159	0x3ecb2427	0.3967602
160	0x3f04fdf4	0.5195
161	0xbe4c0d95	-0.19927056
162	0xbe8c57b6	-0.27410668
163	0x3f048f9f	0.5178165
164	0x3e7dc502	0.24782184
165	0x3e30d593	0.17268972
166	0xbd0feed6	-0.03513988
167	0x3e89b8b5	0.26898733
168	0x3efecf7d	0.49767676
169	0x3ed16ea8	0.40904737
170	0x3e01feaf	0.1269481
171	0x3eb443e1	0.35208037
172	0x3eccfb3a	0.4003542
173	0x3e91292a	0.28351718
174	0x3ecd2611	0.40068105
175	0x3ed75d6f	0.42063472
176	0x3f001bd3	0.50042456
177	0x3f414872	0.7550117
178	0x3eb8aaea	0.36067897
179	0x3f170967	0.5899872
180	0x3f0eebed	0.55828744
181	0x3ef6667e	0.4812507
182	0x3dfca5b4	0.12336293
183	0xbcbf6115	-0.023361722
184	0x3f0d7bc9	0.55267006
185	0x3ef64353	0.4809824
186	0x3f05d5ee	0.52279556
187	0x3e443767	0.1916176
188	0x3ea0d0e2	0.31409365
189	0xbdee9e4e	-0.11651288
190	0x3dad9890	0.084763646
191	0x3b4d8d48	0.0031364728
192	0x3f04f42c	0.51935077
193	0x3dc87ac9	0.097890444
194	0xbdad10bc	-0.084504575
195	0x3da8b6d8	0.08238
196	0xbd74150c	-0.059590384
197	0x3d90fe7b	0.07079788
198	0x3e1a93eb	0.15095489
199	0xbed63488	-0.41836953
200	0xbe068f58	-0.13140619
201	0xbe7a4b6c	-0.24442834
202	0x3e212b62	0.15739205
203	0xbe5da9d9	-0.21646823
204	0xbbbcf345	-0.0057663047
205	0x3e89f57c	0.26945102
206	0x3e4db8a8	0.20089972
207	0xbe3ff2d3	-0.18744974
208	0x3e387dc9	0.18016733
209	0x3db1bf54	0.08679071
210	0x3d4de17c	0.050263867
211	0xbf291d21	-0.6606007
212	0x3e1d517d	0.15363117
213	0x3eed6e1b	0.46373066
214	0xbecafa95	-0.39644304
215	0x3e2eadf6	0.17058548
216	0x3e438bff	0.19096373
217	0x3eff25fa	0.4983366
218	0x3e3a7fc2	0.18212798
219	0x3e26c7be	0.16287133
220	0xbf01b32d	-0.50664026
221	0x3d966f38	0.07345432
222	0x3e0b7f20	0.13622713
223	0x3a95bf11	0.001142474
224	0xbe09b712	-0.13448742
225	0x3f0ef2b1	0.5583907
226	0x3ed35009	0.41272
227	0xbe08b3c9	-0.13349833
228	0xbf3396d3	-0.70152014
229	0x3bbf7dbb	0.0058438457
230	0x3de2e450	0.110787034
231	0xbd899bb8	-0.06719154
232	0x3e8686a2	0.26274592
233	0x3e625859	0.22104014
234	0x3e265abc	0.1624555
235	0xbdcedbcd	-0.101005174
236	0xbef1a311	-0.47194722
237	0xbd92e670	-0.07172859
238	0xbcce8afb	-0.025212755
239	0x3dcc9c5d	0.099907614
240	0xbeccb84c	-0.39984357
241	0xbe74aa8f	-0.23893188
242	0xb80a5535	-3.298112e-05
243	0x3e5c9abe	0.21543404
244	0xbe2be6f5	-0.16787322
245	0xbf2adb7f	-0.66741174
246	0xbeaf49a0	-0.3423586
247	0x3de18039	0.11010785
248	0xbf09bc61	-0.5380307
249	0x3da9bc39	0.08287854
250	0xbeb4d481	-0.35318378
251	0xbf49ec3d	-0.78876096
252	0xbe8521fa	-0.26002485
253	0x3eb5aeea	0.3548501
254	0x3e006a00	0.12540436
255	0x3e832b79	0.25619105
