PARALLEL/models/HIDER_GROUP_POLICY_BOTH_2100.ckpt (torch, 307166 bytes, 9 tensors)

network.0.weight f4 [32, 5, 3, 3]
00000000: 50d2 a1bd 5b7d 1bbe 845a 84bd 22a1 15bd
00000010: 3e90 15be fa3f 0abd b456 123d 49f4 bdbc
00000020: 71b8 35bb 515d 59bc b03b 90bd 5669 0abf
00000030: 66e1 073e 9316 3fbf 2c56 bbbe 310e a53b
00000040: 91e4 0bbf a5aa fabd a2df 53bd 462a b63e
00000050: dbcc c03e bf38 c5be 5e6d b93d db38 7e3e
00000060: d6b5 223e 20af 0a3f d2cf b53e 63e1 e83d
00000070: 6dae eb3e 3292 31be 0feb 82be c52d 8e3e
00000080: 54fa 4e3e fb61 24be 215d 5dbd 1c65 a13e
00000090: c06a 913e a1a7 ca3e 35fc 343e c764 f23b
000000a0: 5f4c 883d 0223 b0bd 3a7d 85be 8a2f c5bc
000000b0: 2b18 5abe 8682 f0bc 9374 0e3e 7a6e 0abe
000000c0: 3a64 823d d7b0 a3bd 8a2b 32be 9ef4 47be
000000d0: 36a0 c43c b5ad 12be b4c3 cfbb 18bf f1be
000000e0: 244b cfbe eb7d 033e 6db9 da3b 3d80 f03d
000000f0: e188 ab3e 2562 b43c 70e8 db3e 45e1 d5be
00000100: cee6 a9be 0fc3 a93e 8bb0 323d 0f9a b2bd
00000110: 3940 543e c3b2 a73d 5244 e93d b1c3 1bbd
00000120: c5c5 c53d 9517 683e 63af 6f3d 3b6b ae3e
00000130: 10f0 003f 0c6c b23d 5515 a13e ef13 fa3d
00000140: 6ea3 b33e d8b6 91be 8c3b 063d a29d 0ebf
00000150: 8918 713d deee 7e3d 86d2 8a3e 07c9 9a3e
00000160: 8b08 de3c 78c7 a4be 864d 2b3d aeab 07be
00000170: 233f 74bd 5a14 a1bd 145b b73c 4915 e03c
00000180: 1a5f babe 398c 89be 9d0e cabd 3e1e 8ebe
00000190: 92c1 a6be efff a93e ec91 8dbd ea7b bfbe
000001a0: 5d8f 51be 59e9 af3d 21b1 e1bd edc1 eb3d
000001b0: 97a1 613d 2ccd b5bd 8704 53be 5ef6 b8be
000001c0: 144f c53e bac9 933d c337 7cbb d5d5 a6be
000001d0: ca3a 00be 332a 02be 1261 bfbd 1097 cd3e
000001e0: a262 1f3d a764 503d ae55 40be 302e 92bd
000001f0: f960 5d3e e575 4abe dfd7 a23e a04a 493d
00000200: 5322 e7be f443 ccbe 5627 5ebe a188 6dbd
00000210: 3810 d93c 309e 84bd 1f47 123e 4383 36be
00000220: 6e85 6dbe d389 3ebe b984 a4be 738c f6bd
00000230: d1a0 b1bd 0319 ffbd 4ffa 6abc 214d f5be
00000240: baa8 33bf 8814 13bf 2fba babd 0795 adbe
00000250: 6361 15bf bc46 3abd c8c2 a1bd 5358 e3be
00000260: 14fe 08bf c735 bb3c c0ca 3a3e 1b08 013f
00000270: d4cb 153e 299d d53e cea1 a63d 0bf7 be3c
00000280: 9ba0 3e3d e400 bbbc 9718 093c 723c 933e
00000290: cda0 a53e 1a57 5b3e 55b4 0e3d d0b8 db3c
000002a0: 94a0 bbbc 0179 c23d f790 9e3e 3ea0 b23c
000002b0: 0a5c 2e3e a3e6 12bd 2a4f b1be 36c4 7abe
000002c0: 48e2 253c 41cf e7be 67a7 443e 3417 593e
000002d0: 7dbe 1e3d 3f04 f2bd b578 2bbe 1667 c0bd
000002e0: 6426 a4bd 12e3 77bd ad73 a5bd e65c 17bd
000002f0: 4281 7d3d b25d 28bd 6fdd 693e 0696 d03d
00000300: 405a a93d 2897 9b3e 6c63 c33d dae8 973e
00000310: 3950 fc3e a540 e63e 0788 dd3e 8af4 b03d
00000320: 8536 8b3c 1eda 47be 747e c7be 7f08 15be
00000330: b878 e33b 4cad 1b3e a177 4abe c288 913e
00000340: 5714 983e af8a 3cbc 5a20 093f 33fb c6bc
00000350: 06bb a63d f87b 68be 47cb 2f3e df32 1dbe
00000360: c5bd 243e fefb 8e3d c8c7 e4bd 6e35 b83e
00000370: ea47 84be 26f5 00be ab01 20be d810 7abe
00000380: 64b2 bbbe baa3 8bbd c7a7 8bbd 6bc6 40bd
00000390: b57e 09bf 182f 00bd 4587 dbbe a615 efbd
000003a0: 22a3 3f3d 469b 1a3e 7707 a53c 1349 943e
000003b0: f978 d73e 3a52 473c ffa8 8abe ad34 973e
000003c0: a156 063e 87f5 7a3e 9b08 f9bd fc7a fd3e
000003d0: c44b a83d 2696 90bd a6f2 5cbe fb5c debe
000003e0: 3061 3cbe 6228 5bbe a37c d9be 37cb 0a3e
000003f0: 76c6 87be 4880 c3be a500 f4be 51c5 f7be
-0.07901442 -0.15184538 -0.06462577 -0.03653062 -0.14605805 -0.03375242 0.035727218 -0.023187773
-0.0027728344 -0.013266877 -0.070426345 -0.5406698 0.13269576 -0.7464382 -0.3658918 0.005037092
-0.5464564 -0.12239579 -0.051726945 0.35579127 0.37656292 -0.38519856 0.09054063 0.24826376
0.15889677 0.5417347 0.35510117 0.11371114 0.46031514 -0.17340925 -0.2556996 0.27769294
0.2021268 -0.16053002 -0.054043893 0.31522453 0.28401756 0.39581016 0.17674334 0.0073972675
0.06655192 -0.08600427 -0.26072103 -0.02407052 -0.21298282 -0.029359113 0.13911657 -0.13518706
0.06366773 -0.07992714 -0.17399421 -0.19526908 0.024002176 -0.14324076 -0.0063404683 -0.47216105
-0.40487015 0.12841003 0.0066749365 0.117432095 0.33502868 0.022019455 0.42950773 -0.4177343
-0.33183903 0.3315663 0.043625396 -0.087207906 0.20727624 0.08188393 0.11389984 -0.038028423
0.09656862 0.22665246 0.05851687 0.34066185 0.50366306 0.087120146 0.31461588 0.12210833
0.35085624 -0.2845981 0.032771632 -0.5570928 0.05886129 0.06223952 0.27113742 0.30231497
0.027103683 -0.32183433 0.04182198 -0.13249084 -0.059630524 -0.0786521 0.022382297 0.0273539
-0.36400682 -0.26864794 -0.098660685 -0.27757448 -0.32569557 0.33203074 -0.06912598 -0.37399226
-0.20464845 0.085894294 -0.11020113 0.11511598 0.055085745 -0.08877024 -0.20607196 -0.36125463
0.38536894 0.07216211 -0.0038485385 -0.32585016 -0.12522426 -0.1271141 -0.093446866 0.40154314
0.038912423 0.05087724 -0.18782684 -0.07137716 0.21619023 -0.19771536 0.31805322 0.049143434
-0.45143375 -0.39895594 -0.21694693 -0.057991628 0.026496992 -0.06475484 0.14284943 -0.1782351
-0.2319543 -0.18607263 -0.3213251 -0.12038507 -0.086732514 -0.124559425 -0.014341905 -0.47910407
-0.7017933 -0.57453203 -0.09117543 -0.3390276 -0.58351725 -0.045477614 -0.0789848 -0.44403324
-0.5351269 0.022852791 0.18241405 0.5040299 0.14628536 0.41721466 0.081363305 0.023311159
0.046539884 -0.022827573 0.008367679 0.28757054 0.32349244 0.21419945 0.034839947 0.026821524
-0.022903718 0.09495736 0.30969974 0.021804925 0.17027298 -0.035864484 -0.3463071 -0.24488911
0.01012475 -0.4527531 0.19204484 0.21200258 0.038755883 -0.11817216 -0.16745265 -0.09394662
-0.08015135 -0.060519286 -0.08078704 -0.03695383 0.061890848 -0.04110498 0.22838376 0.10184865
0.08269167 0.3038876 0.095404476 0.2966984 0.49279955 0.44971195 0.43267843 0.08640392
0.01699377 -0.19516799 -0.38963664 -0.14554022 0.006941881 0.15202826 -0.19772197 0.2842465
0.29703018 -0.011507674 0.5356499 -0.024289703 0.08141141 -0.2270354 0.17167388 -0.15351437
0.16088016 0.069816574 -0.11170918 0.35978264 -0.25836116 -0.12593517 -0.15625636 -0.24420488
-0.3665954 -0.06818338 -0.0681911 -0.047064226 -0.53708965 -0.031294912 -0.4287664 -0.11674051
0.046786435 0.15098295 0.020145161 0.28962 0.42084482 0.0121656 -0.2708206 0.29532376
0.13118984 0.24507724 -0.121598445 0.49507892 0.08217576 -0.070598885 -0.21576938 -0.43430313
-0.18396449 -0.21402124 -0.42477903 0.13554083 -0.265186 -0.38183808 -0.47656742 -0.48392728

network.0.bias f4 [32]
00000000: c469 40be 73e4 53be 31c5 d5be d41d 61be
00000010: dc30 51be 98bd 66bd 48a9 c1bd 8acf 96be
00000020: 1cdc 4fbe 1c15 45be 4902 86be c981 d6be
00000030: f6d9 0dbf f6db 74be 89e8 82be 5d54 d8bd
00000040: 33cf 2bbe eb4a 53be e3db 00be e08f 563e
00000050: 3669 08be c318 20be 9723 153d c91f 853d
00000060: 76d0 a4bd 07d2 25be 3859 a5be 51ba 89bc
00000070: 055f afbc 4b4e 8fbe ee1f a9be d0ec a6be
-0.18790346 -0.20692615 -0.41752008 -0.21984035 -0.20428795 -0.056333154 -0.09456116 -0.29455215
-0.20298809 -0.19246334 -0.26173618 -0.41895893 -0.55410707 -0.23912033 -0.25568035 -0.10562966
-0.16778259 -0.20634048 -0.1258388 0.20953321 -0.13321385 -0.15634446 0.036410894 0.06500203
-0.08047573 -0.161934 -0.3229463 -0.016812475 -0.021407614 -0.2798942 -0.33032173 -0.3260255

network.2.weight f4 [64, 32, 3, 3]
00000000: f6f1 3e3d 2f82 8e3b c95c e5be cc60 fdbc
00000010: 5afc 09be 7d7f fd3d 882c b13c c513 14be
00000020: b609 30bd f411 a5bd 2fce 563e 62e2 7b3e
00000030: 2da0 7bbc 584e 943d 28dc cfbd 4c53 babc
00000040: 93ce 1fbc b4ec b7be 8e1d 79be 9913 aa3d
00000050: c5e7 7abe d9f7 d73c 0c13 9ebe 69af 61be
00000060: 4822 b0be a20f 51be 74e1 c8be bd91 ef3c
00000070: a7d9 b2bc c4c5 a8be 31f8 183d e746 86be
00000080: a4d4 413c 8c8d e83c c176 8dbe 334c 95be
00000090: 4485 6abe e0b6 d33d 98a9 ff3e 5590 843e
000000a0: 77e3 2fbe a5ee 5d3e 40b2 51bd 8ae0 23be
000000b0: 09ab 213c 1093 833e 2c92 fd3c 90b5 0bbe
000000c0: 6ec9 083e 926d 4bbe cc52 28be 0bc8 fd3d
000000d0: 8d0b e63d 7197 b43d 706e 4abd b1cd 213e
000000e0: 8444 56be 198c 78be f473 c9be 3051 7dbe
000000f0: 07b6 c83c a37c ca3c e86c f7bc 4b4e a3bd
00000100: f564 9b3e 75c1 efbd 2152 00be 6631 133d
00000110: 6a87 cfbc 8330 dcbc 7797 a83d 70d4 fbbd
00000120: 46f9 d93c f1ee 9c3d 8b2e 313d a05f 80bc
00000130: 91d9 dcbd a7c4 8a3c 3beb ad3c 470a eebe
00000140: 0ef7 343e 08b4 cf3e 62ef f63b 5390 5cbd
00000150: 7a7f 74be 7e52 503d 1d6e 093d 609f a6be
00000160: e4c0 d93d f79e 383e 5cfc 55be 89e9 54bc
00000170: d169 033e 3da0 fdbe 588f 32bc 263c b4bd
00000180: 6726 84be 9f56 783e 4c6c 8abe a999 a13e
00000190: 2fb7 823e 7edf 2a3e f491 0e3e eac6 ca3e
000001a0: 6118 c2bd ee07 673e 9d04 983d 5980 50bd
000001b0: d166 3b3e ed73 933d 92e5 76be 2670 a83d
000001c0: 02ff a3bd 421f 63bd a2c4 89be 7855 13be
000001d0: 3876 a3be 9b62 1cbc 2833 20be 802c 89bd
000001e0: 774d 24bd ebe7 e13d ce17 67be 408b dfbd
000001f0: 0fc0 edbd 96f5 5b3e b6e2 33be 820c e43d
00000200: c5b8 23be aa8d b0bd a300 dd3d d802 4ebe
00000210: 2f5f 94be d1ed 8e3e e728 d4be 57d9 433c
00000220: bb79 27be 2601 aebd a66a 7cbe f6b2 d1bd
00000230: cf53 123e 192f 89be 321e 97bd 74be 87bd
00000240: dd0c 3d3e d10b 533e 9bc8 3d3e e49e eebc
00000250: 5799 efbd cfc7 9abd 76db b8be 8fe3 53be
00000260: 5c8b d6be 5198 583b ed03 533d 11b7 d8bd
00000270: a1cc 853e c668 aabc 4cf8 13bd 4cf2 08be
00000280: 4f1f a3bd 8b9f bcbe 3c84 b23e 1539 813e
00000290: 355c 14be b5db 4d3d e92e a6bb 3a11 48bd
000002a0: f199 77be ca32 6ebc 656c 3ebe 2762 79be
000002b0: 5dd8 25be 04aa 01be 0ec4 4ebe 1dbd a5be
000002c0: 1bf4 d6be 8fd1 c8bc de59 bfbc c14b f2bd
000002d0: 841c 603d 8654 f73c e526 7ebe eb96 043e
000002e0: 848d 613e 1a91 803e 3b55 23bd c472 9fbd
000002f0: d722 29be 8073 14bd 1228 47be 4cae 3fbe
00000300: 1ae7 ee3d a663 a2bd 7206 d4be 0fd2 2d3d
00000310: 655b 4a3e 9ca3 b03d fd55 4e3c d2e8 f33c
00000320: e8bc 2dbe 2ff8 ab3e cb8d 2cbe 98d0 88be
00000330: e054 693e db87 0e3e a215 aabe 725f 423d
00000340: a9eb c0be b00d 113e e662 d9be 8798 52be
00000350: b046 7e3d 8879 4ebe 4cc9 783e 4836 bdbc
00000360: 0e1a 0cbd 436b 08be 7dcc b63c aa23 0e3e
00000370: a780 9abc cfee b9be ff84 5f3e 8f16 21bd
00000380: 0193 14be 4a45 a3be bfd8 7dbe dd98 72bd
00000390: 1af3 cbbe 33c4 023e 046a 76be 4beb 37be
000003a0: e74c 04bd 1f19 273e 8266 1abd 81fa a93d
000003b0: 5dfa 3cbd 2428 adbe 2c8d 32bd 7702 d13d
000003c0: 0917 6ebc 3464 a8bc d588 e3be 6191 dd3d
000003d0: 082c 44be c2de 7c3e b467 3b3e 11d1 023e
000003e0: 5c9f 6a3d 19ff 443e e293 4cbc 9eee ac3d
000003f0: e464 133e 5e79 2cbe 9dc8 23be dd37 57bd
0.04661747 0.004349015 -0.44797352 -0.030929945 -0.1347517 0.12377832 0.02162768 -0.14460666
-0.04297801 -0.08060065 0.2097709 0.24598077 -0.015358013 0.072415054 -0.10149413 -0.022744797
-0.009753841 -0.35922778 -0.2432768 0.08304519 -0.24502476 0.0263633 -0.30873907 -0.2203957
-0.34401155 -0.2041612 -0.39234507 0.029244298 -0.0218323 -0.32963383 0.03734607 -0.2622597
0.011830483 0.028387807 -0.27629665 -0.29159698 -0.229024 0.10337615 0.49934077 0.25891367
-0.17176615 0.21673067 -0.051195383 -0.16003624 0.009867438 0.25698137 0.03095349 -0.1364348
0.1335809 -0.19866017 -0.16437835 0.12391671 0.11232672 0.08817948 -0.049421728 0.15801121
-0.20924574 -0.24272193 -0.39346278 -0.24738002 0.02450086 0.024717635 -0.030203298 -0.079739176
0.30350462 -0.11706821 -0.1253133 0.035935782 -0.025333125 -0.026878601 0.082320146 -0.122963786
0.02660812 0.07662762 0.043257277 -0.015670598 -0.10783685 0.016939474 0.02123033 -0.46492216
0.17672369 0.4056704 0.007535861 -0.053848576 -0.23876753 0.05085992 0.033552278 -0.32543468
0.10632494 0.1802939 -0.20897049 -0.012995132 0.12833335 -0.49536315 -0.010898434 -0.08800535
-0.2581055 0.24251793 -0.2703575 0.31562546 0.25530383 0.16686818 0.13922864 0.39604884
-0.09477306 0.22561619 0.07422755 -0.050903652 0.1830094 0.071998455 -0.24111012 0.082245156
-0.08007623 -0.05544973 -0.2690783 -0.14388072 -0.3192613 -0.009544994 -0.15644515 -0.06697941
-0.04011294 0.11030563 -0.22567675 -0.10915232 -0.11608898 0.21480402 -0.17566952 0.11135198
-0.15988453 -0.0862077 0.10791137 -0.20118272 -0.2897887 0.27915815 -0.41437456 0.011953673
-0.1635503 -0.08496313 -0.24650058 -0.10239212 0.14289783 -0.26793745 -0.07378806 -0.06628123
0.18461938 0.20609976 0.18533556 -0.0291285 -0.11699169 -0.07557642 -0.36104935 -0.20692275
-0.41903198 0.0033049772 0.051517416 -0.10581792 0.26132682 -0.020801913 -0.036125466 -0.13373679
-0.07964956 -0.36840472 0.34866512 0.25238863 -0.14488299 0.050258357 -0.00507151 -0.048844554
-0.24179818 -0.014538476 -0.18596037 -0.24353848 -0.16195817 -0.12662512 -0.20191976 -0.32370844
-0.41983113 -0.024513988 -0.023358282 -0.11830855 0.054714695 0.030191671 -0.24819525 0.12948196
0.2202664 0.25110704 -0.039876204 -0.07785562 -0.16517197 -0.036242962 -0.1944888 -0.18718833
0.11665173 -0.07929163 -0.41411167 0.042436656 0.19761427 0.08624956 0.012593743 0.029774103
-0.16966593 0.33587787 -0.16850965 -0.26721644 0.22786283 0.13919012 -0.3321963 0.047454305
-0.37679794 0.14165378 -0.42458266 -0.20565997 0.06207913 -0.20163548 0.24295539 -0.023097172
-0.034204535 -0.13322167 0.022314304 0.13880792 -0.018860174 -0.3631501 0.21828078 -0.039328154
-0.14509203 -0.318888 -0.24789713 -0.059227813 -0.3983391 0.12770157 -0.24063879 -0.17960851
-0.032299902 0.16318177 -0.037695415 0.08299733 -0.046137203 -0.33819687 -0.043591663 0.10205548
-0.014531859 -0.020555593 -0.44440332 0.108187445 -0.19157422 0.2469435 0.18301278 0.12775065
0.057280883 0.19237937 -0.01248643 0.0844395 0.14393955 -0.16843173 -0.15994497 -0.05254351

network.2.bias f4 [64]
00000000: 3926 25be a6b1 63be a476 aabd 3731 41be
00000010: 37bb 0dbd 0496 1abe 1c18 05be a88a 22bc
00000020: c3f8 e0bd 59dd fbbd 5bc7 d1bb e46f 723c
00000030: 218e c0bd 3ff2 c6bd cedf a2bd 8388 78bd
00000040: aff2 17be feb6 03be 8beb b0bd 01c5 2ebe
00000050: d6b3 c43d 1e4f 15be 3c6f 9dbe 8f8e 7cbe
00000060: de74 89be 3616 b13c a37d 01be cf7d fc3a
00000070: c9ce 37be 7ac4 d0bd e44d 90bd d0cd 1bbe
00000080: 59fe 983c 1fba 14be 2648 49bd a3d2 1ebe
00000090: 92ad 9cbe 26cc fcbd 4ed5 3ebd ecdd 9abc
000000a0: 0648 47bd c1f6 1dbe 029b 563d 7f05 46bd
000000b0: d8df e6bd ee5e 38bc 1b44 ddbd a9b1 c8bd
000000c0: 0968 61bd c58e 5fbd 3c8e 7ebc 3a6b b1bc
000000d0: 60cb 49be 680c 05be b073 21be 494e 79be
000000e0: 1c03 d4bd bfc6 05be d90c 7abd b9bb f7bd
000000f0: f2d1 56be aaf7 46be 5825 10be 564f 01be
-0.16127862 -0.22235736 -0.0832341 -0.1886643 -0.03460237 -0.15096289 -0.12997478 -0.009920754
-0.109849475 -0.12298078 -0.006401939 0.014797185 -0.09402109 -0.097141735 -0.079528436 -0.060677063
-0.1483867 -0.12862775 -0.08638676 -0.17067339 0.096046135 -0.14580962 -0.30748928 -0.24663757
-0.26846975 0.021617036 -0.12645583 0.0019263568 -0.17949976 -0.10193725 -0.070461065 -0.1521523
0.01867597 -0.14524125 -0.04914107 -0.15510039 -0.30601174 -0.12343626 -0.046590142 -0.018904649
-0.04865267 -0.1542616 0.05239392 -0.048345085 -0.112731636 -0.011253102 -0.10804006 -0.09799511
-0.055030856 -0.054579515 -0.015536841 -0.021657575 -0.19706488 -0.12993014 -0.15766788 -0.2434627
-0.103521556 -0.13064097 -0.06104741 -0.12096352 -0.20978525 -0.19430414 -0.14076746 -0.1262792

network.4.weight f4 [64, 64, 3, 3]
00000000: eb52 e1bc 0bfa 1ebe 88c6 28bd 0884 033d
00000010: df49 93be 6647 2c3e 0908 c03d 1789 8cbd
00000020: 5d46 b83d 624f dcbe 31d5 3fbe 03b7 6bbe
00000030: 64b1 aabe 4408 bebe 3e56 8ebe 9ac9 87bd
00000040: c6c0 95bd d686 40bd 5852 0d3e 55e3 0cbd
00000050: 049d 363d f359 bf3d 33bf a93e eafa 083e
00000060: 6fcc 3e3d daae a03d 4cc6 8dbe 39f3 2fbe
00000070: 56fc 0bbf 930f cebd 0baa 97be c401 d4bd
00000080: b6c7 08bd 288b 043d b132 013e f1fe 483d
00000090: f9df a53d d9cc a53e 370f 0a3e ceb0 523c
000000a0: 861f de3d 7d5a 98bc 094d 5b3e 7928 9c3e
000000b0: 5f22 e33e 496c fcbd f141 313e 2613 903d
000000c0: 59cd 9dbe 9334 2fbe 4594 03bf f10d 48bd
000000d0: f21f d7be 158f 66bd 7dae 173e fc16 98be
000000e0: f91d a53e f59c 8fbc ce48 b93e f46e b9bd
000000f0: 7789 f13d 0fac 8f3d 7dee 6b3e 6272 003e
00000100: b2b0 69be 4356 97be 08c7 223e 43d8 21be
00000110: cc11 b6be 7f73 abbe fddb 5ebc 0644 293e
00000120: efcb d73c f1f5 c5be 3530 46bd 0659 c53b
00000130: 6cad b9bd 1221 b5be 858f 293e 4b42 32bd
00000140: fad7 1dbe 81e3 cc3d bc69 93bd 15e3 823d
00000150: 4797 f3bd d772 babe f138 a3bd 5db5 a7be
00000160: 088c 84be 4154 81be f590 f53d 26bd 89bd
00000170: b46d dcbc d032 763d 9d79 b7bc 511f c0bd
00000180: 209d a53d 9846 9ebd 1b36 eebd 63e6 923d
00000190: c3a5 8ebe 4b16 01be 4491 29bf efb4 89be
000001a0: d16c 02bf ab94 9abd bfdc 143d 60d9 29be
000001b0: 9d04 963d 08a2 d6bb 87c8 acbd b556 c7bc
000001c0: 6f75 a6bd 6479 92bd 9909 08bd 4fbc 22bd
000001d0: 01df 36bc c965 fbbc 073e 343d feb1 ca3c
000001e0: 0131 d43c d72f 973b 8682 f9bc 493d 01bd
000001f0: 36a8 47bc ed5a a53c 4191 7fbd ab80 93bd
00000200: 99d2 7ebd 15d3 efbb ad5b d5bc f4fc 17bd
00000210: d567 083d 6642 0b3d 953b 493b 020d 053e
00000220: 6cb1 5fbd 2381 423e c5c3 80bd 2ad7 ebbd
00000230: f05c 22bc 5bfa 9e3e fa54 93be 75d9 8bbd
00000240: 5737 853d 4c76 6e3c a671 0f3d faa2 013e
00000250: f9a4 893c b5e3 df3d f0fa f93c e0df 79bd
00000260: 711c e03d b9d7 d53e 09e6 12bd 8d17 14be
00000270: 1ff9 1f3e 7947 dfbd 1c5b 91be 699a 023d
00000280: 9d45 84be f269 93bd 24f8 53be bdcc cfba
00000290: d0a7 1bbe 99fa c5be fa9e 9bbe 13f1 ebbe
000002a0: 4689 16be aa03 eebb 5724 eabe 911c e03c
000002b0: f8f2 5a3d 0cca cabc ecf0 1dbe 6daa 5abe
000002c0: dd34 2bbe 92ea 47be abd5 9ebd 1c5a febe
000002d0: 8bf4 b9be da66 09be cfc8 fabe 3564 60be
000002e0: d2dc b4bb 5cec 3dbe f736 56be 87ba 58be
000002f0: 70ee 68be cbfe a2be 7ddd 9abe 3689 29be
00000300: a00c c3bc 7fa1 3bbb c3cd fc3d 0fdb cfbd
00000310: 18f4 673d dbda 7c3d 75e7 93be 682a 893c
00000320: ab08 0bbf 318a 8fbe 5533 ec3d 0673 99be
00000330: e9b2 a8bd 9204 debd 4142 333d 8219 30be
00000340: e2ad 47bd 447d 26be 1a29 223e 86f0 e9bc
00000350: 7124 63bc 55c3 7e3d c074 c4bd 54b9 403d
00000360: 6bc0 8dbd 9d22 793e 32ef 91bd 357d b8be
00000370: 2d6f d1bd 9fc4 443d f970 2ebd 5907 9a3b
00000380: c36b dbbc faf1 edbd eb5b 243e 7ff6 9ebe
00000390: 3bd2 c7be 40f4 ae3d 6efc d4be e9b9 9dbd
000003a0: 2da4 86be fd58 70bd 82fe 28bd 6ba4 9bbc
000003b0: 5346 d1bc 51ce 86bc 2262 c8bc 0981 6ebd
000003c0: e22e 12bd 6f71 a53c 568d f53c e29e 8cbd
000003d0: 8497 46bb db18 a1be e64f 8fbc 6dfe 70be
000003e0: 6a4d bebe a8df 75be 30e3 38bf 27cc a0be
000003f0: 42e2 f73c f563 373e e7db c7be e856 17be
-0.027505359 -0.15525071 -0.04120496 0.032108337 -0.28767297 0.16824111 0.093765326 -0.06862085
0.08997796 -0.43029314 -0.1873367 -0.23019032 -0.33338463 -0.3711568 -0.27800173 -0.06630249
-0.07312159 -0.04700359 0.13800943 -0.03439649 0.044583336 0.09343328 0.33153686 0.13376966
0.04658168 0.0784585 -0.2769035 -0.17182626 -0.5468191 -0.10061564 -0.2962192 -0.10351899
-0.033393584 0.032359272 0.12616993 0.049071256 0.0809936 0.3238285 0.13482367 0.012859536
0.10845856 -0.018597836 0.21416105 0.30499628 0.4436216 -0.12325341 0.17310311 0.07034902
-0.3082073 -0.17109899 -0.51398116 -0.04884142 -0.4201656 -0.056288797 0.14812656 -0.29705036
0.3224943 -0.017530898 0.36188358 -0.09054366 0.117937975 0.070152394 0.23040195 0.12543634
-0.2282131 -0.29558 0.15896237 -0.15805154 -0.35560453 -0.33486554 -0.013602254 0.16529855
0.02634236 -0.386642 -0.048385818 0.0060225753 -0.09066281 -0.35376793 0.16558655 -0.043520253
-0.1541442 0.100043304 -0.071979016 0.06390969 -0.11894088 -0.3641574 -0.07969845 -0.32755557
-0.25888085 -0.25259593 0.11990539 -0.0672553 -0.02690778 0.060107052 -0.022396857 -0.09380973
0.0808661 -0.077283084 -0.116314135 0.07172849 -0.2786084 -0.1260616 -0.6623728 -0.26895854
-0.5094729 -0.075478874 0.036343332 -0.16586828 0.07325099 -0.0065500773 -0.08436685 -0.024333337
-0.081278674 -0.0715206 -0.033212278 -0.039730366 -0.011161567 -0.030688183 0.044004466 0.024743076
0.025902273 0.0046138573 -0.030457746 -0.031552587 -0.012186101 0.020184958 -0.062394384 -0.07202276
-0.06221256 -0.007318864 -0.026044691 -0.03710647 0.033302147 0.03399887 0.003070568 0.12993243
-0.054612562 0.18994574 -0.0628734 -0.11515649 -0.009909853 0.3105038 -0.2877577 -0.06828586
0.06504696 0.014554571 0.035020493 0.12659827 0.016802298 0.109321035 0.030515164 -0.06100452
0.10942925 0.41766146 -0.03586391 -0.14462109 0.15622376 -0.10902304 -0.28389823 0.03188554
-0.2583436 -0.07197942 -0.20700127 -0.0015853863 -0.15200734 -0.38667753 -0.30394727 -0.46082363
-0.14700803 -0.0072636204 -0.4573085 0.027357372 0.05345437 -0.024754547 -0.15423936 -0.21354075
-0.16719384 -0.19523075 -0.07755598 -0.49678123 -0.36319384 -0.13418141 -0.4898133 -0.21913226
-0.005519488 -0.18547195 -0.20919405 -0.21164905 -0.22747207 -0.31835017 -0.30247107 -0.16556248
-0.023809731 -0.0028630195 0.123439334 -0.10149204 0.05662927 0.061732154 -0.28887525 0.016743854
-0.543101 -0.2803512 0.11533228 -0.29970568 -0.082372494 -0.108407155 0.043764357 -0.1719723
-0.048749812 -0.16258723 0.15835992 -0.028557073 -0.013863669 0.062198002 -0.09592581 0.047051743
-0.069214664 0.2432961 -0.07125701 -0.36033025 -0.10226283 0.048039075 -0.042588208 0.004700583
-0.026784783 -0.11618419 0.16050689 -0.31047437 -0.3902758 0.08542681 -0.4159884 -0.07701475
-0.2629713 -0.058678616 -0.041258343 -0.018999299 -0.025546229 -0.016455801 -0.024460856 -0.058228526
-0.035689242 0.02019569 0.02997462 -0.06866242 -0.0030302713 -0.31464276 -0.017494153 -0.23534556
-0.37168437 -0.240111 -0.7222166 -0.31405756 0.030259255 0.17909224 -0.3903496 -0.14779246

network.4.bias f4 [64]
00000000: dbcf 18be 2dca aabe b5d5 84be 968c 3abd
00000010: 2612 4abe 2716 32bd 1cb5 cfbe d008 adbe
00000020: 7c27 95be d10e 40be 6683 91bd 7680 80be
00000030: 9be5 babe d754 85bc 398a 34bc 392f 38be
00000040: 0a9e f0be e3e6 a4be a0d7 edbc 617a 31bd
00000050: acff 89bd 8652 acbe 950a 8abc cbe8 31be
00000060: 69f2 26be 2687 1a3b c1f3 8abd 05bd 6cbd
00000070: 27fd 32be d2db 25be c025 3fbc a0ca b4bc
00000080: 40ee b6be f115 9cbe 7a80 1cbe 5127 c7bc
00000090: ca1e 81be 3ba1 84be f4d7 71be 9b93 94be
000000a0: 54d9 45be fa36 86be eb9b f9bd c354 49be
000000b0: 70af 99be 78f0 b2be 5c14 5cbe b172 7fbe
000000c0: 8ebb 88bd 3f89 e2be 3f3a cbbe 8b57 ccbe
000000d0: b755 94be 3783 c2bd 200e 403d b058 2bbd
000000e0: c81f 6abe 6f80 07be 8c32 8cbe b12a 37be
000000f0: 4d19 44bd 5494 9abe f2aa 40be e1fa 80bd
-0.1492304 -0.33357373 -0.25944296 -0.04554423 -0.19733486 -0.043478157 -0.40567863 -0.33795786
-0.29131687 -0.18755652 -0.071051404 -0.25098008 -0.365033 -0.016275806 -0.011019283 -0.17986764
-0.46995574 -0.32207403 -0.029033482 -0.0433296 -0.06738219 -0.3365671 -0.016850749 -0.1737396
-0.1630341 0.002357909 -0.067847736 -0.05779745 -0.17479382 -0.16197136 -0.011666715 -0.022069275
-0.35728645 -0.3048549 -0.15283385 -0.02431074 -0.25218803 -0.2590426 -0.23617536 -0.29018864
-0.19321185 -0.2621382 -0.12187942 -0.1966124 -0.3001666 -0.34949088 -0.21492141 -0.24946095
-0.06676398 -0.44245335 -0.39692876 -0.3991054 -0.28971645 -0.094976835 0.04688847 -0.041832626
-0.22863686 -0.13232587 -0.27382314 -0.17887379 -0.04787569 -0.3019129 -0.1881521 -0.06297851

actor.weight f4 [5, 3136]
00000000: 48eb 23be 88aa ac3c c910 a03d e143 2fbd
00000010: 3edd c9bc 446f d33d da48 a2be 71f5 52be
00000020: 2a45 2ebe 0f0a bfbb ce7d df3d bc7d d83d
00000030: 60b4 823e 1e36 663e ce2a a9bd a84c c13d
00000040: b15b ffbd bb24 293e af4c 02be a767 463e
00000050: ebc8 603e b911 b6bd a108 ea3c 5ed4 303d
00000060: a958 25be db49 36bc 0946 0c3e f341 093e
00000070: 9d84 17be fbc5 bfbe 4c80 c2bd 86a9 343e
00000080: 61ba 4abe 02d0 b7bd 7374 f5be a445 cb3c
00000090: 77d8 11be 5a8e d63e 1c96 063e 35c0 bbbe
000000a0: 8b4b a7be e70e 11be 9b5e 263e 664a 093d
000000b0: ebae d93d 98d5 eb3d 780c e9be 7206 1a3e
000000c0: c9e1 5cbd 0f72 9abd 1c55 90bd 7764 593e
000000d0: 21cf c0be 34a9 f9bd 8400 abba 692d 0f3e
000000e0: 0793 9abe bdef b63e f321 853c 7460 03be
000000f0: 0924 13bc 115e 97be 902f 003e 4dcb b7bd
00000100: 694d 193e 5cf5 cebd cbfb 943d 91ff 2c3e
00000110: 63dc 8bbc 14f2 a43e 7ccb c9bd 5ebf 50be
00000120: 364f 84be 5ab9 523e 66e3 a7bd d54d 3d3e
00000130: f721 b03d 3586 e43d 1f06 d9bd f4f8 5d3c
00000140: 506a b43c 25aa 98bb 8d67 a0be d131 a83d
00000150: 555d 623d 325f 10be 1340 1a3d dd66 193d
00000160: c70f 1fbd 0b33 9abe 49ae f2bd f5fd 743d
00000170: c890 ac3e 3bab a3be 6e40 313e 036e 19be
00000180: 3f11 0c3d d534 6f3e c854 f23e eb5e edbe
00000190: 8f41 833d 7721 ac3c c5de e9bd a53e 3cbe
000001a0: fdd4 8e3d f816 62be c8c3 80be 9911 3cbd
000001b0: d60c 0e3c 3fb7 69bd dd51 2bbe f3ef e4bc
000001c0: 568c 923c ef32 f93d 8e73 e1bd da90 933d
000001d0: b527 bfbd 3e50 a6bd c070 7dbe d608 273e
000001e0: dabe 30be d655 513e 977b 0c3f 4acd 00bf
000001f0: 6b4b 833d 273a 663e 08b6 123e e76c 863e
00000200: 01db 643e e4f8 913e bf5f fb3d cf66 213e
00000210: fd35 31bd 42be c0bd f8c8 413e f91e c4be
00000220: ae6f a7be e525 90be 3b79 893a 6f23 c43c
00000230: c25a f5bc a8bb db3d 7715 29be 608f 023e
00000240: 4e1b 0e3d c255 6dbe 0a85 6abe 817c 093e
00000250: e18a 233e fc89 7e3d 9eca 103e a579 453e
00000260: d6cb f83d b94b d93d caf9 57bd 33e6 a3bd
00000270: acb6 453e 38b4 15be 0aea 213e 336d 9e3c
00000280: 1d33 333e a83f 15bd 580a 3d3d 6190 073d
00000290: fd03 903c 6930 013e 1468 25bc 2c90 2f3e
000002a0: c6b5 843e f592 173e daa2 b9ba 3ae8 31be
000002b0: b793 4d3d 0384 66bd 5ff1 a23c 4763 89bd
000002c0: b4a3 80be 7789 89be 52cb ebbc 05e3 103e
000002d0: cd32 403e a479 1c3e aeed e8bd 7508 9abe
000002e0: 2332 8bbe 7710 20bf 98a6 313e 053c aa3c
000002f0: d2e2 e53d cc46 463d 05b7 80be f173 25be
00000300: 4c45 31be 5984 803d beec 2c3e 723b 643e
00000310: d0ca 853e 08a6 8b3d b307 7cbe ed99 e33d
00000320: a15b ffbc a742 b33e 8554 e73d 278b 91bd
00000330: 5639 473e c8a0 d03d 8e79 42be a5eb b1be
00000340: 22d2 f33d 0734 3a3d e02d 2abe 633a 9a3d
00000350: 13fc be3c 1dbb b5bd 5c34 a13e dfcd 5a3e
00000360: e507 8b3e 0a44 8abb 1ea6 103e 88be 68be
00000370: dbb6 683c 36bb 553e be6a 6a3e 8bdc 743e
00000380: c133 86be 3001 7fbe bd65 ca3c 4cc9 223e
00000390: ae92 66be 1e1e b93d 769e c03c acb7 afbc
000003a0: a8ed 1ebe 01d9 72bd 14ad 9ebc 2ad0 2ebe
000003b0: 42c9 b93d e281 603e a66c a0be 9f68 11be
000003c0: e1dc 11be a5fe 3cbe 5084 36bd 5622 183e
000003d0: 6b24 52be 4ec7 e7bd a6e6 783e 2448 c3bc
000003e0: b9a4 93bd d70c 413e 9904 e4bd 731e b93d
000003f0: 6617 d6bd 6631 1d3e 8ff0 e1bd e93f 173d
-0.16007721 0.02107741 0.078157015 -0.042789344 -0.02464163 0.103239566 -0.31696206 -0.20601441
-0.17018571 -0.0058300565 0.10912667 0.10570857 0.2552824 0.22481582 -0.082601175 0.09438449
-0.124686606 0.16517918 -0.12724565 0.19375478 0.21951644 -0.08890099 0.028568568 0.04317128
-0.16147102 -0.011126007 0.13698591 0.13404064 -0.14796682 -0.37455735 -0.09497127 0.17642793
-0.1979766 -0.08975221 -0.47940406 0.02481348 -0.14242731 0.4190548 0.131432 -0.3667008
-0.32674822 -0.14165841 0.16247027 0.033518218 0.10629066 0.11515349 -0.45517325 0.15041521
-0.053926263 -0.07541286 -0.07047483 0.2122973 -0.37658027 -0.12190476 -0.0013046418 0.13982166
-0.30190298 0.3572978 0.01625154 -0.12829763 -0.008980759 -0.29563954 0.12518144 -0.089743234
0.14970936 -0.10105392 0.07274588 0.16894366 -0.017072862 0.3221594 -0.09853265 -0.20385501
-0.25841683 0.20578519 -0.0819767 0.18486722 0.08600228 0.111584105 -0.10596871 0.013548125
0.02202335 -0.0046589547 -0.31329003 0.08212627 0.05526479 -0.14098814 0.037658762 0.037451614
-0.038833406 -0.30117068 -0.118496485 0.059812505 0.3370421 -0.31966576 0.17309734 -0.14983372
0.034196135 0.23359998 0.47330308 -0.4636148 0.06408989 0.021012051 -0.11419443 -0.18383272
0.06974218 -0.22079074 -0.2514937 -0.04591522 0.0086700525 -0.057059523 -0.16730447 -0.027946448
0.017889183 0.12167918 -0.110083684 0.072053626 -0.093337454 -0.08120774 -0.24750042 0.16311964
-0.17260304 0.204429 0.54876083 -0.50313246 0.06410869 0.22483121 0.14327252 0.2625496
0.22349168 0.285102 0.122741215 0.15761875 -0.043264378 -0.09411289 0.1892432 -0.3830488
-0.32702392 -0.2815391 0.00104884 0.023942677 -0.029950503 0.10729152 -0.16512094 0.12750006
0.03469401 -0.23177245 -0.22902313 0.134264 0.15970947 0.06214331 0.14139792 0.19284685
0.121482536 0.10610146 -0.05272845 -0.080028914 0.19307965 -0.14619529 0.15811935 0.01933918
0.17499967 -0.03643766 0.046152443 0.033096675 0.017580027 0.12616123 -0.010095615 0.17144841
0.25919932 0.14802153 -0.0014162913 -0.17373744 0.0501897 -0.05627824 0.019890485 -0.06708389
-0.25124896 -0.2686269 -0.028783474 0.14149101 0.18769379 0.15280777 -0.11373459 -0.30084577
-0.2718669 -0.62525123 0.17348707 0.020780573 0.11224903 0.04840736 -0.25139633 -0.1615751
-0.17311591 0.06275243 0.16887185 0.22288302 0.26131296 0.06818777 -0.24612312 0.111133434
-0.031171622 0.3501179 0.11295418 -0.07106619 0.19455466 0.101869166 -0.18991682 -0.34750095
0.11905314 0.045459773 -0.16619062 0.07530668 0.023313558 -0.0887358 0.3148526 0.21367596
0.2715446 -0.0042195367 0.14125869 -0.22728932 0.014203752 0.20872197 0.22892281 0.23912255
-0.2621136 -0.24902797 0.024706716 0.15897101 -0.22516891 0.090389475 0.02351306 -0.021449886
-0.15520346 -0.059288982 -0.01936964 -0.17071596 0.0907159 0.21924546 -0.31332892 -0.14200066
-0.14244415 -0.18456514 -0.044559777 0.14856848 -0.20521705 -0.11317311 0.24306735 -0.02383811
-0.07209153 0.18852554 -0.111336894 0.09039011 -0.10453682 0.15350875 -0.11032211 0.036926184

actor.bias f4 [5]
00000000: bcea 21be b4df aa3d 2a31 833d 28f4 0d3d
00000010: 3ce1 2b3d
-0.158122 0.08343449 0.06405862 0.034656674 0.041962847

critic.weight f4 [1, 3136]
00000000: 1a49 fdbd d5c0 4a3e f9ac 503d 7bac 29be
00000010: c4ab 7abe db15 42be d2ff 343e e142 7dbe
00000020: 7e92 3b3d 6292 51be 8e69 8dbe 9ba1 6ebb
00000030: 4c76 103d f9fe 433e 3093 f7be 96f0 643e
00000040: 5887 c0be 86c2 01be 334d 4fbc 805c 973e
00000050: 0138 1cbe b7b1 e8bd 4c1c 4e3d ac52 fb3d
00000060: e487 8d3e 0ab5 da3e db9d 233e b0aa 18bd
00000070: ea6c 7abf cfbd 38be 51aa 71be 6c94 87bc
00000080: e208 443d 1a1a 1abe 419b 3dbe b852 b3be
00000090: b544 803e ce7f be3e 583e b3be bccf 783d
000000a0: 9233 a73e 23ab a4be c69e 2bbe 7c54 f03e
000000b0: d654 a53e 9639 a73e 8f18 bf3e 5571 9e3e
000000c0: c270 883e 077e 1e3e 73e3 a1bc 6e76 203e
000000d0: e0d6 e7be bb7e 8a3c 8421 ff3c d4d3 223d
000000e0: ec24 73be b9a4 9e3d 571e 81be d5ad 86be
000000f0: 46e4 68bd 79a1 023e 6737 b53b 3206 3e3d
00000100: c47f 33bd 0144 79be a533 c3bd 73b6 203e
00000110: b6b9 623d fe9d 8ebd 8aea 95be 234a 313e
00000120: d04b 34be ca6e 88be 8924 cdbd a037 38be
00000130: 1bb8 a1bc 5e98 a13d 40b9 67be a14a e8bd
00000140: 0f2b 68be be0a bdbc aa0f edbd 42db 09bf
00000150: 176b 6cbe 2a66 20be 626d 843a 18fe 82be
00000160: d533 ac3e 2d25 1dbe 0019 8dbe fe22 c0be
00000170: 93e4 d9be 2ef8 b1be f323 07bf 8e66 2d3e
00000180: 311f 49be 0c3c bbbc 9425 6bbe b365 93be
00000190: 6af6 983d 2a2c afbd 9fc4 0d3d 11cf d3bd
000001a0: 4787 2fbe 9681 26bd 83e9 35be 8337 43be
000001b0: 0107 c93b c6c8 8e3e ea96 103d 53bf 2fbe
000001c0: 89a9 cf3e effd 2fbe 08f7 e0bd 03f8 34be
000001d0: 73a6 0ebd cbec a63d 5271 d73d 22a0 0fbd
000001e0: 19d4 a7bd b0e8 913e af76 a13e 9a14 013e
000001f0: f089 c1bd d434 c0bc d9d9 abbd 8adc c9be
00000200: 4ba2 9eba 97ca bdbe 65f6 6b3d f6f3 28be
00000210: 40a2 57be 4aca 76bd 1c02 0f3e 076c 663e
00000220: fb96 aabd 2549 253e 0471 bb3e aae8 bd3d
00000230: 5e4a e6bb ba34 09bd b4cb dcbd b966 c9bd
00000240: ae15 183e d104 423e 2824 173c 340f c63e
00000250: 07a9 df3e 8f08 a43e 16f8 c23e 4413 a13e
00000260: f33e d23e ff5d 843e 9736 7c3e 84fa 773e
00000270: 6e35 d93e 2ab7 733e 147e 173e 4d6d 953e
00000280: 58d6 ab3e 7e1b 673d 1cc2 063d b489 023f
00000290: b598 b23e 5f3f 4a3e b686 d73d c030 083e
000002a0: 9a5d d63e ce61 053f 77ec 943e 8b11 6d3e
000002b0: ab22 2b3f 9269 f93e a8db fb3e b53f cf3e
000002c0: 8bfc 003f e584 303f 399f af3e 32d0 dd3e
000002d0: f335 fb3e 2288 c73e f493 a23e a211 ff3d
000002e0: 1e0f e93e 2694 fe3e 0df1 e43e acf3 383c
000002f0: 4acc 823e 3c6e febd 2553 323e a5df 283e
00000300: 124a 023f dc9c 9a3e 4eb4 173d 1d5b f23d
00000310: 923c dfbb d88e f53d 5abb 093e 89bb 79be
00000320: b002 923b 7acd 76be ff7d df3d a127 96be
00000330: 0781 743d 9c14 7b3e 97cc 003e 8901 1bbd
00000340: 7918 9c3e 8c46 4b3e b027 1ebe 4e81 b9be
00000350: 93b3 1fbe b5db be3e 7d76 bcbd b896 3b3e
00000360: e303 7b3e db07 a53e 7323 383e 32e4 1b3d
00000370: 8ce6 34be 1ff4 853e d7a6 933e 1a5b b13d
00000380: dc91 16be 1559 043f 872b c13e 97a1 a73c
00000390: 8a25 f7be 6de9 833e 00af 1d3e 12d1 9dbd
000003a0: 07ea 7a3d 7282 b93d 5d24 5e3e fd82 0ebe
000003b0: fcab 9bbe d50a b63d 5e51 04bd d535 a43e
000003c0: fb3c cabe b5ab 25bf 92cd 34be 8ae3 823e
000003d0: f87c 4bbd 418c 09bf 1ed3 a83d c852 cf3d
000003e0: 61be 4dbe 5c63 8a3e 2067 30bd f2d1 d9be
000003f0: c563 69bd 94a9 d63e c69e 1a3e d3d3 0d3e
-0.12367459 0.19800122 0.05094621 -0.16569702 -0.24479586 -0.1895365 0.17675713 -0.24732544
0.045794003 -0.20465997 -0.27619594 -0.0036412242 0.035269067 0.19140233 -0.48354483 0.22357401
-0.3760326 -0.12671861 -0.012652683 0.2956276 -0.15255739 -0.113620214 0.050319955 0.12271628
0.2764274 0.42716247 0.15978186 -0.037272155 -0.9782244 -0.18041156 -0.23600127 -0.016550265
0.047860034 -0.1504902 -0.18516256 -0.35024047 0.2505242 0.37206882 -0.35008502 0.060744986
0.32656533 -0.32161817 -0.16759786 0.46939456 0.32291287 0.32661122 0.37323424 0.3094584
0.26648527 0.15477763 -0.019761777 0.15670177 -0.45281124 0.016906133 0.031143911 0.039752796
-0.23744553 0.07746262 -0.2521846 -0.26304498 -0.056858324 0.1275691 0.005530286 0.046392627
-0.04382302 -0.24342348 -0.09531335 0.15694599 0.05535289 -0.06963728 -0.29280502 0.17313437
-0.17607045 -0.26647025 -0.10016734 -0.17989969 -0.019741109 0.0789039 -0.22629261 -0.11342359
-0.22672676 -0.023076411 -0.11575253 -0.53850186 -0.23087727 -0.15663972 0.0010103399 -0.25584483
0.33633295 -0.15346213 -0.27558136 -0.37526697 -0.425572 -0.3475966 -0.5278923 0.16933653
-0.19640805 -0.022855781 -0.22963554 -0.28788528 0.07468875 -0.085533455 0.03461134 -0.10342229
-0.17141448 -0.040650927 -0.17764859 -0.19064145 0.006134868 0.27887553 0.035300173 -0.17162828
0.40559033 -0.17186712 -0.109846175 -0.17672734 -0.034826707 0.081506334 0.10519661 -0.035064824
-0.08194751 0.2849784 0.3153586 0.12605515 -0.094501376 -0.02346269 -0.083911605 -0.3942607
-0.001210281 -0.37068626 0.057608027 -0.16499314 -0.21057987 -0.06025151 0.13965648 0.22502147
-0.083295785 0.16141184 0.36609662 0.09272893 -0.007027908 -0.03349755 -0.10781041 -0.09834046
0.1485202 0.1894715 0.009224929 0.38683474 0.43683645 0.3203778 0.380799 0.3146001
0.4106365 0.25852963 0.246302 0.24216658 0.42423576 0.2380034 0.14794189 0.29184952
0.3356197 0.056422703 0.03289996 0.5099137 0.3488213 0.19750737 0.10523741 0.13299847
0.41868287 0.52102363 0.29086658 0.23151223 0.66849774 0.48713356 0.49191022 0.40478292
0.5038535 0.6895278 0.34301165 0.43322903 0.49064597 0.3897105 0.31753504 0.12454535
0.45519346 0.49722403 0.44715157 0.011288565 0.25546485 -0.12423369 0.1741453 0.16491564
0.5089427 0.301978 0.037037186 0.11833785 -0.0068126405 0.11990136 0.13450375 -0.24387945
0.004455887 -0.2410182 0.10912704 -0.2932711 0.059693363 0.2451958 0.12578045 -0.03784326
0.3048742 0.1985113 -0.15444827 -0.36231464 -0.15595846 0.37276998 -0.09202287 0.18319213
0.24513201 0.32232556 0.17982273 0.03805942 -0.17666072 0.26162812 0.28838226 0.08659954
-0.14704078 0.5169843 0.3772852 0.020462794 -0.48270828 0.25764027 0.15398788 -0.077058926
0.061258342 0.090580836 0.21693559 -0.13917156 -0.3040465 0.08888785 -0.03230416 0.3207232
-0.3949965 -0.6471513 -0.17656544 0.25564224 -0.049679726 -0.53729635 0.082433924 0.10123211
-0.20092155 0.2702893 -0.043067098 -0.42542988 -0.056979913 0.41926253 0.1509963 0.13850336
