PARALLEL/models/HIDER_GROUP_POLICY_BOTH_6100.ckpt (torch, 307166 bytes, 9 tensors)

network.0.weight f4 [32, 5, 3, 3]
00000000: 1cf2 81be a2c4 2fbb baef c73c 7284 8b3d
00000010: 9e6b e7be 9e59 a8bd 6227 903d 7a9b 58be
00000020: e2f2 81be a43f 4abe 5a06 8fbe a0c1 44bf
00000030: 251a d0be ba3b 4abf 3d0c 2abf 5398 39be
00000040: b267 98bf 689e f6be 3cdf 36bd 3683 0f3f
00000050: 3c49 d73e 7900 27bf cf87 093e afb7 c03d
00000060: ad5e 74bc c2ae 223f 6cb2 a43e 9fc2 043f
00000070: 97de 16be b968 d8be 3f09 6abe f8fb 013e
00000080: 0743 ca3e ebca 113b 9eae d83d e99d ec3e
00000090: e2c2 ab3d 1b59 023f b1eb 213e 0ebc f7be
000000a0: 4a24 8ebd d42b 18bc b9f3 a3be 72b2 9ebe
000000b0: 6b7e 61be ac84 98be c708 6cbe cb12 36bf
000000c0: b785 62bd 5ee7 32bc 88a8 83bd bf04 29be
000000d0: cf36 78bd d014 aebe 0b1d 393d f3fe 13bf
000000e0: a35d 33bf 7b01 f73d ed06 16bf 2434 2cbe
000000f0: 14d2 853d 899a 12bf 8451 4ebe 77ac 20bf
00000100: af63 05bd d517 a1be 590c 9a3e 6c37 95be
00000110: 2c75 da3e 2a67 393f ec99 b83e 0c44 f73c
00000120: acd1 34bf 367f d93e aa5c 5dbe a0a8 863e
00000130: 8383 c23e fa8c a93d 5f37 af3e 5d26 1abf
00000140: 68e7 d73e 1df8 eebe 688d 73be 5e55 8bbf
00000150: 89ac 683c 2b82 2dbe a10c 923e 6556 de3e
00000160: 56bc c9be 26b4 d1bd 5993 d2be 5380 11bf
00000170: c331 10bd b874 84be f299 2cbd 1aa0 ce3c
00000180: 0450 d6be 8291 64be 51cf 063e 8016 92be
00000190: 356e b33e 575e de3d cd30 90bd 2180 c3be
000001a0: bb2d 073d a812 edbd 994d b4be 2e65 21bc
000001b0: 7b55 863d 8bf4 883d 0754 2d3d ec30 a2bd
000001c0: 310d 6d3e 0930 193e 11ac 723e 2dfc 0cbf
000001d0: 04f3 75be ac84 bebe cb4d d93d 347b 733e
000001e0: c5ff 283e c26c b4be 8e19 4bbe 7e19 523d
000001f0: 84f5 9c3e 07cc ee3d fb07 1b3f 9cc1 073f
00000200: 6671 18bf 8dc5 f6be 9819 c7be da97 9e3d
00000210: 2049 91bd 366e 75be bd93 153f cc92 b8be
00000220: 4696 97be 3de7 133e 5bbc 79be 0c83 c3be
00000230: 498c 81bd 9a52 d4bd cff4 f63c e112 38be
00000240: eca3 1bbf 386f dcbe fefe 00bf bcb1 4cbf
00000250: ecad 8ebf f1b9 ecbe 6458 dcbd 6bb3 62bd
00000260: b3de 2bbf 1bb8 6a3e f788 af3e dbda 673e
00000270: d2eb e9bd 11dd 303f f507 683c 8331 213e
00000280: f04c eebe 547a 08be 026a f73e 91b1 0e3f
00000290: e33c f63e a2f0 ab3e e021 8a3c a138 213e
000002a0: 5aca cf3e d2f0 58b9 de60 cebe 477c 58be
000002b0: e2c1 813e 5874 f5be f295 1fbf bbb0 8fbe
000002c0: 1628 acbe 4e48 bfbe 133a 503e e607 263d
000002d0: 3421 473e 29a5 c23d 1ebc f1bd f145 7cbe
000002e0: d014 12be 4de3 5fbd cf30 debc 7eb6 e0be
000002f0: 3071 883d d538 4dbf 692a 373e 52d6 f7be
00000300: ad56 1abf 40d1 9a3e 36a0 9e3e e634 d03e
00000310: cfd5 643f afc9 d4bd 2724 473f 3dd4 823e
00000320: 71fa 2d3e 6d67 3bbe fbf8 74bf c1e0 94be
00000330: fd59 6bbd ad71 063f ebf3 abbd dedc df3e
00000340: 169d 6c3e 4279 78bd c577 153e ba33 18be
00000350: eb19 16bc c8ab 8cbe 722c dc3e bf82 343e
00000360: 290b 423c dad5 9e3d 4a2e 44bf 146c 333e
00000370: b324 4b3e 0b82 7e3e b96d 9cbc 0fed e13d
00000380: cd25 ffbe 50e6 8a3b 5c1d 18bf eaf5 293e
00000390: f5d7 bbbe 0e62 f73d 8efe 94be 0915 f9bd
000003a0: 7ead 67be 7483 e23d df92 ce3e ef73 443f
000003b0: 63e4 753e c335 7cbe be13 d5be 7118 923e
000003c0: 168c a23e 3130 e7be e499 e4bd 9a47 533f
000003d0: 4b14 14bf 196c 3c3b b88c 12bf 979c 2fbd
000003e0: 7c62 29bc d2b0 23be f451 60bc b975 9dbd
000003f0: ce6a a1bb ed11 e83d 47d0 14bd 2f7e c7be
-0.25380027 -0.0026820083 0.024406303 0.06812371 -0.45199293 -0.08220218 0.07038762 -0.2115306
-0.25380617 -0.1975084 -0.27934533 -0.7685795 -0.40644947 -0.78997386 -0.66424924 -0.18124513
-1.1906645 -0.4816773 -0.044646487 0.56059587 0.4204806 -0.65235096 0.13430713 0.09410035
-0.014915151 0.6354791 0.32167375 0.5185947 -0.14733349 -0.42267397 -0.2285509 0.12693775
0.39504263 0.0022246193 0.105801806 0.46214226 0.0838678 0.50917214 0.15812565 -0.48385662
-0.06940515 -0.009287793 -0.32021883 -0.30995518 -0.22020881 -0.2978872 -0.23050223 -0.71122426
-0.0553033 -0.01091942 -0.06428629 -0.16505717 -0.060599145 -0.34000254 0.045193713 -0.57810897
-0.70064753 0.12060829 -0.5860432 -0.16816765 0.0653421 -0.5726705 -0.20148283 -0.6276316
-0.03256577 -0.31463495 0.30087546 -0.29143846 0.4266752 0.7242304 0.36054933 0.030183814
-0.70632434 0.42479867 -0.2161738 0.26300526 0.3799096 0.08278842 0.34221932 -0.6021479
0.42168736 -0.4667367 -0.23784411 -1.0885427 0.014201292 -0.16944186 0.2852526 0.4342529
-0.394015 -0.10239439 -0.41128042 -0.5683643 -0.035203706 -0.258703 -0.042139 0.025222827
-0.41857922 -0.22321132 0.13165022 -0.2853279 0.3504502 0.10857838 -0.07040558 -0.38183692
0.033002596 -0.11575824 -0.35215452 -0.009850783 0.06559273 0.06687268 0.042316463 -0.07919487
0.23149563 0.1495973 0.2369845 -0.5507229 -0.24018484 -0.37210596 0.10610541 0.23777467
0.16503818 -0.35239226 -0.19833967 0.051293842 0.30656064 0.11660009 0.6055905 0.530298
-0.5954803 -0.48197594 -0.38886714 0.07743807 -0.070940256 -0.23967823 0.58428556 -0.36049497
-0.29606837 0.14443679 -0.24388258 -0.38185918 -0.063255854 -0.103673175 0.03014603 -0.17975952
-0.60797 -0.43053603 -0.5038909 -0.799587 -1.1146827 -0.46235612 -0.10759047 -0.055346888
-0.6713669 0.22921793 0.34284183 0.2264208 -0.11421932 0.6908732 0.014162053 0.15741543
-0.46543074 -0.13327914 0.48323065 0.55739695 0.48093328 0.33582026 0.016861856 0.15744258
0.4058407 -0.00020689078 -0.4030828 -0.21141158 0.25343233 -0.47940326 -0.62338173 -0.28064522
-0.33624333 -0.37359852 0.20334654 0.040534876 0.1944626 0.09504158 -0.11803459 -0.24636056
-0.14265752 -0.05466013 -0.027122883 -0.4388923 0.06662214 -0.80164844 0.17887272 -0.484057
-0.60288507 0.3023777 0.30981606 0.40665358 0.89388746 -0.103900306 0.7778954 0.2555255
0.16990067 -0.18301173 -0.95692414 -0.29077724 -0.057458866 0.52517205 -0.08396133 0.43723196
0.23106799 -0.060662515 0.1459647 -0.14863482 -0.009161453 -0.2747481 0.4300266 0.17628
0.011843481 0.07755633 -0.7663313 0.17521697 0.19838218 0.24854295 -0.019095289 0.110315435
-0.49833527 0.004238881 -0.594198 0.16597715 -0.366882 0.12079249 -0.2910046 -0.12162215
-0.22624776 0.11060229 0.4034643 0.767394 0.24012904 -0.24629883 -0.41616625 0.28534272
0.31747502 -0.45153955 -0.11162165 0.8253113 -0.57843465 0.0028750955 -0.5724597 -0.042873945
-0.010338422 -0.1598542 -0.013691414 -0.076884694 -0.004926062 0.11331544 -0.03633144 -0.38963458

network.0.bias f4 [32]
00000000: 7620 07bf 1a68 31bf e767 21bf 28bd fdbe
00000010: bd0d d0be 3633 85be 7eb0 8abe 28dd 1abf
00000020: 006c a6be f69f 1abf fd65 60be 8758 ebbe
00000030: 0fb0 33bf 9f13 d9be 400b 2bbf a24b 25bf
00000040: ba48 ecbe 3f40 adbe 0cfd d6be dde9 e73e
00000050: 114a 05bf d74d 3dbe 9d4a 3cbe 15c9 81bd
00000060: c862 8bbe 7b38 c2be fb35 debe 0285 7bbd
00000070: 7704 2dbd 7a42 f3be c12b fabe 4e2d c6be
-0.52783906 -0.6929947 -0.6304917 -0.49558377 -0.4063548 -0.26015633 -0.27087778 -0.6049371
-0.32504272 -0.6040033 -0.21913905 -0.45965979 -0.7019052 -0.42397782 -0.6681404 -0.6456853
-0.46149236 -0.33838078 -0.41989934 0.4529561 -0.5206614 -0.18486725 -0.18387838 -0.063371815
-0.27223802 -0.37933716 -0.4340056 -0.061406143 -0.042240586 -0.47511655 -0.48861507 -0.3870644

network.2.weight f4 [64, 32, 3, 3]
00000000: c740 fcbe 161e 303e 430d 90be a5dc bfbe
00000010: 3c22 97be d0ce d43c 5c38 34bd 3ff9 0c3f
00000020: fd09 01bd 7464 0fbe 6eee f83e 4500 2bbe
00000030: 32e9 c93c 42b9 7d3e 85b9 163e 75e4 033e
00000040: 581e 233e 3a7d 25bf 2840 a8be faed 4a3e
00000050: 317c 71be b80e 39bb 1fbf 0bbf 49df a9bd
00000060: 4acc a4be 64f5 793e f8ba 51bf d11b 713e
00000070: c9e9 b4bd 5b57 02bf edd3 143e 3342 90be
00000080: 6131 923e 5da7 bd3e 4966 f7bc d0d1 2ebf
00000090: a18f 923e 92b6 d5bd bced d93e 4617 8e3d
000000a0: 4c31 a23d b650 47bd 954d a03e 8206 b0bd
000000b0: 058c 3c3b db76 f53e 31b6 1fbe 3768 4dbe
000000c0: 2428 ed3e 3e97 4dbf 28e3 cebe d622 a03e
000000d0: e640 b33d cb02 413e 4ba1 753e b69d f93d
000000e0: c1bc 60bf 09ec 0fbf c18e 49be 8252 82bd
000000f0: 83cf 1dbf 6100 013f 36e6 063f 8bae 4f3d
00000100: 0e50 003f be6d 54be 1fb9 483d b767 593d
00000110: caf6 2fbf c878 843d 78ea b53e 65c8 0abf
00000120: 886b 883e 09ba 2c3e 2153 b83e d14c ffbe
00000130: 5513 1fbe da4c d5be 7dc7 6fbe d7d0 96be
00000140: b2f4 64be a90e 183f 0834 363d 525f d33d
00000150: aa92 99be 095c e33d d1e3 143e b080 d5be
00000160: 74ba 58be 62d4 023b 0d2e 5dbf f6c1 83bf
00000170: 8da2 febe afee f9bd 06fe b1be 264f 4ebe
00000180: 333f 17bf efa6 65be 08a1 cdbe e86b fd3e
00000190: d8d2 143f b857 a23e 6736 ff3e 0e4b 4a3f
000001a0: 7eb2 cabb 7f43 c73e e798 a93d aefc 4fbe
000001b0: dba1 2e3e 3d92 9cbc 86af 75be 608f b63d
000001c0: e3f5 15be ced6 28bd d78b 59be dfa6 92be
000001d0: d7ab 90be 656e a3be f661 57be 17bf 893e
000001e0: 06ca e83e 7ce5 213e b274 d4be 59ab 1ebf
000001f0: 9900 15bf 8269 cd3e 329d 86be 1e02 643f
00000200: bed3 bdbe c6c9 c73d 7bc2 a93e e790 1ebc
00000210: 46bf debe 6c26 833e 0d34 42bf 78e3 5fbd
00000220: f790 aebe 2529 ff3e 75bb 84be 3a53 f03d
00000230: 8dfb af3e 859f a9be 62cd 283e 497b 973c
00000240: 3d39 023e 038d 1e3e eb24 dc3e d9bb ae3d
00000250: 6e67 72be a2a7 713d 70a0 e9be d809 d0be
00000260: f07d bebe e796 e43e 3927 38be 5e1d 1ebf
00000270: abe5 973e ac51 69bd 461b c43e 4e3d 71be
00000280: c9f0 2bbe 897c 53be 24e6 303f 1b2e 83be
00000290: 0640 91bd 8553 c6be d469 afbe baa8 47be
000002a0: 1fb2 0bbf f548 913e 01e1 1fbf e6e4 2bbf
000002b0: b7b8 d2be 8273 59be d391 2cbf f5ac 093e
000002c0: a319 9bbe 8103 e73d 3cea f4be e134 053d
000002d0: 3d29 1a3f 0ef5 d6bd 8089 a6be 453d 173e
000002e0: a8cb 4dbe 1349 a83e a802 bfbe 334a f1bd
000002f0: 7cfd 55be e8e2 043e 896a c2be d215 78be
00000300: b33b 573e ccd1 553f 6a0c a5bd 4b8b 303e
00000310: e3ff d9bd c485 c23d fc37 d93e 5442 2d3d
00000320: 6f44 f1be f2de 443e 1303 3dbf cfaf 47bf
00000330: bb78 f63e 51e7 e73e 05f7 46bf ab78 3a3e
00000340: 85be 9fbe 8f90 023f d0e6 dabe 2d63 61bf
00000350: e921 44bc 393f 433e 3d14 ca3e ec1b 103e
00000360: 6a75 5f3e cc7f 2a3e bb2b 533e 27a1 59bf
00000370: baa2 87be 48a9 3abf 8130 1b3f b456 b9be
00000380: bb97 9d3d 82d8 e7be 127d 373e 0e3d 8abd
00000390: be4d a7be 5909 2ebe 524b e1bc 392a ae3d
000003a0: 9e03 2abf 5370 87bd 37fa b1be 0610 29bf
000003b0: 9075 b0be fddc 14bf a5a6 11be 2362 823e
000003c0: ebc8 ea3c fce4 34bc 316d 90bf 1f39 c33e
000003d0: 8240 06bf 2872 0e3f b96c d63e 93e0 88bd
000003e0: 69a3 b33e bb3f 473e 28a8 9a3d 85df b13e
000003f0: 5a56 983e ab68 e3be a924 0ebe 9e0f 2fbe
-0.4926817 0.17198977 -0.28135118 -0.37473026 -0.29518306 0.025977522 -0.04399906 0.5506782
-0.031503666 -0.14003164 0.48619407 -0.16699322 0.024647329 0.24777701 0.14719208 0.12880118
0.15929544 -0.64644206 -0.32861447 0.19817343 -0.23582532 -0.0028237533 -0.545885 -0.082945414
-0.3218711 0.24410015 -0.81925917 0.23545767 -0.088336535 -0.50914544 0.14533968 -0.28175506
0.28553298 0.3704175 -0.03020014 -0.682889 0.28625205 -0.10435213 0.4256419 0.06938033
0.07919559 -0.048660956 0.3130919 -0.08594991 0.0028769982 0.47942242 -0.15596844 -0.20059286
0.46319687 -0.803089 -0.4040768 0.31276578 0.08752613 0.18848722 0.2398731 0.12188284
-0.87788016 -0.56219536 -0.19683363 -0.06363393 -0.6164476 0.50391203 0.52695024 0.050703567
0.50122154 -0.20744988 0.04900467 0.053077426 -0.68735945 0.0646835 0.35530448 -0.5421203
0.2664454 0.16867842 0.36000922 -0.49863294 -0.15534718 -0.41660196 -0.23415942 -0.29456207
-0.22358969 0.5939737 0.044483215 0.10320915 -0.29994708 0.11101539 0.1454003 -0.41699743
-0.21164876 0.0019963016 -0.8639839 -1.0293567 -0.4973339 -0.122037284 -0.34764117 -0.2014738
-0.5908081 -0.22426961 -0.4016192 0.49496388 0.5813422 0.3170755 0.49846193 0.79020774
-0.0061858287 0.38918683 0.08281117 -0.20311233 0.1705393 -0.0191127 -0.23992738 0.08914065
-0.1464458 -0.04122048 -0.21244751 -0.28642938 -0.28256103 -0.31920162 -0.21033463 0.26903602
0.45466632 0.15810198 -0.4149528 -0.61980206 -0.58204037 0.4011956 -0.26291806 0.8906573
-0.3707561 0.09755282 0.3315619 -0.009678102 -0.43505305 0.2561525 -0.75860673 -0.05466029
-0.34094974 0.49836078 -0.25924268 0.11734624 0.34371606 -0.33129516 0.16484597 0.018491404
0.12717147 0.15483479 0.42996916 0.08531923 -0.23672268 0.058997758 -0.45630217 -0.4063251
-0.37205458 0.4464638 -0.17983712 -0.6176356 0.2966741 -0.056962654 0.38302058 -0.23558542
-0.16791071 -0.20652975 0.69101167 -0.25621113 -0.070922896 -0.38735595 -0.34260428 -0.19497958
-0.54568666 0.28375974 -0.62452704 -0.67146146 -0.4115655 -0.21235469 -0.6741001 0.13444884
-0.30292997 0.11279965 -0.47834957 0.032521132 0.60219175 -0.10495959 -0.3252678 0.14769466
-0.2009722 0.3286825 -0.37306714 -0.117817305 -0.20897478 0.12977183 -0.37971905 -0.24227074
0.21018867 0.8352325 -0.080590084 0.17240636 -0.1064451 0.0949817 0.42425525 0.042299584
-0.47122523 0.19225672 -0.73832816 -0.7800264 0.48138985 0.45293668 -0.7772067 0.18210094
-0.31200042 0.5100183 -0.4275422 -0.88041955 -0.011970975 0.19067086 0.39468566 0.14073151
0.21822134 0.16650313 0.2062215 -0.85011524 -0.26491338 -0.7291455 0.60620886 -0.36198962
0.07694956 -0.4528237 0.17918804 -0.067499265 -0.326765 -0.16995753 -0.027501736 0.08504147
-0.6641177 -0.06613221 -0.3476121 -0.66040075 -0.34464693 -0.581497 -0.14223726 0.25465497
0.028660258 -0.011040922 -1.1283323 0.38129517 -0.5244218 0.5564294 0.41879824 -0.06683459
0.3508561 0.19457905 0.075516045 0.34740844 0.2975338 -0.44415793 -0.13881172 -0.17095801

network.2.bias f4 [64]
00000000: 6d24 c3be 0676 26bf 6d58 9fbe e252 3abe
00000010: 3c4e 75be 6dac 9cbe 0ce2 f9bd 1fd9 96be
00000020: 70c9 afbe 6258 0bbf a530 a5be e159 d83d
00000030: eec1 13be bff8 03be 76f0 12be afc4 93bd
00000040: 0c77 38be 0474 c1bd 509f 94ba d3a5 9dbd
00000050: b564 943e ac56 f4be ab26 02bf e138 03bf
00000060: 7799 79be 1391 7c3d ddd1 dfbe bf58 963e
00000070: 37a2 adbe 886d 07be 4873 d7bd 6ba7 92bc
00000080: 14ee 6dbb 1d0f 68be 2201 15be 7ca4 babd
00000090: d31f d1be 2ac4 06bd c6bb b2bd 6bb4 85bd
000000a0: dbc3 eabd 946f 9dbe 14cf aabe d293 adbe
000000b0: 5f49 57bd a464 d9be 9340 03be e004 8dbe
000000c0: d427 51be 6c92 41bd 9413 a0be 1f33 a73d
000000d0: 8800 81bd f702 0cbe 78a3 38be 75d4 96be
000000e0: 2b9d f4be cfd6 99be 6fed c0be 47fd babe
000000f0: da9e 79be bcbd 96be 82d0 29be 6b50 04be
-0.38113728 -0.6502384 -0.3112215 -0.1819568 -0.23955625 -0.306003 -0.12201318 -0.29462525
-0.34333372 -0.54431736 -0.32263675 0.10564018 -0.14429447 -0.12887858 -0.14349541 -0.07215249
-0.18014163 -0.09445956 -0.0011338983 -0.07697644 0.28983083 -0.47722375 -0.5084025 -0.51258665
-0.24374948 0.06166179 -0.437148 0.29364583 -0.33912823 -0.13225377 -0.10520035 -0.017902097
-0.0036305236 -0.22662015 -0.14551213 -0.09113404 -0.40844592 -0.03290192 -0.08727221 -0.065285526
-0.11463138 -0.3074919 -0.33361113 -0.3390184 -0.052560207 -0.42459595 -0.12817602 -0.27542782
-0.2042535 -0.04725878 -0.31264937 0.081640474 -0.062989295 -0.13673006 -0.18031108 -0.29458967
-0.4777616 -0.30046698 -0.37681147 -0.3652136 -0.24377003 -0.2944163 -0.16583446 -0.12921302

network.4.weight f4 [64, 64, 3, 3]
00000000: bb3a c53e 54ac 913e 82b4 a73d 6691 67bd
00000010: d989 b6be 5de0 a6bc f880 813e 6f57 79be
00000020: cc6a 6ebe b620 98be 0c09 9dbd 21af 0fbe
00000030: 62e7 f3be 9c72 3ebf 0bcf 8ebc 9961 97be
00000040: 2429 e2be ab14 d33d 999e 46be 16ea 2d3e
00000050: a819 babc 7b37 76be a5d8 bb3e f291 af3d
00000060: 087d 5cbe 2374 7a3d 01e4 9c3d 32dd 30bf
00000070: 34fd 14bf 82f8 d93e cb43 b5bd b992 8bbd
00000080: 7351 ffbe c42d 1dbf 9a22 d03e cf8a 713e
00000090: 4e46 823e 99ea ee3e fcde ef3d 1d78 98be
000000a0: b013 223e ca37 493e 0188 933e d60a 1bbf
000000b0: 4876 ff3e b330 0c3e 1a9c 793d 49df bbbe
000000c0: 9301 2abf 0ea4 0ebf 64dd edbe 9e0d 923d
000000d0: 738f 9abd 1a87 f5bd 6244 f73e 3ea8 d23b
000000e0: 0a5b 813f 5e52 05bf 2e6e a43e 7a55 43bc
000000f0: f7ad 8138 35e5 9d3d 0de0 15bc d075 c93e
00000100: f848 f9be ef60 953a 0c9a b73e 94d4 63be
00000110: d2e1 01bf 111a 7a3d fade 79be fe65 553e
00000120: f490 e3bd 2d21 d4be 20a8 193e 5860 bfbe
00000130: 14db a33d 26fb 1fbf 1ad7 843e ebd5 15bd
00000140: 93a1 8e3d fade ce3d f22a 84be 2dbe 763d
00000150: 6b12 04bf 83d0 25bf 5a5d 98be 1782 92bd
00000160: 7dfb dbbd 592c 72be 9771 db3e 2699 9cbe
00000170: c0bf 9ebe dc66 8cbc 263b a8bc 91e9 84be
00000180: 835b 873d d1be ddbe 78d0 a5be 8abd 78bd
00000190: 49f8 27bf 4045 b83c 2519 d7be f99f c5be
000001a0: f5e2 58bf a127 19be 1f6c d6bd 8583 55be
000001b0: 86f7 cdbc d98a 04be 3068 62be 34e3 c7bd
000001c0: e72b db3d 9325 15be 71f1 d13d c842 913d
000001d0: 35c1 383e c965 fbbc 073e 343d feb1 ca3c
000001e0: 0131 d43c d72f 973b 8682 f9bc 493d 01bd
000001f0: 36a8 47bc ed5a a53c 4191 7fbd ab80 93bd
00000200: 99d2 7ebd 15d3 efbb ad5b d5bc f4fc 17bd
00000210: d567 083d 6642 0b3d 953b 493b 3000 07bf
00000220: 25ca c9be adc9 2b3d 75c8 edbe 0516 52bf
00000230: 1889 983e 7381 6b3b ff54 eebe 9705 f7be
00000240: 39a1 b43e 47ae c83e 5969 c33e 2ec9 373e
00000250: b0a6 83be 064a 883e eb8d 9fbe 8298 dabe
00000260: ceff 86bd c614 3c3e 6046 acbe fd28 89be
00000270: 390a 043f 894d bebe 37c8 b8bd 5b8d 1d3f
00000280: 9c22 b3be 0cbc 883c a51a 44be 4f72 eabd
00000290: 8fc8 1fbf 9e69 1dbf 1a90 5abf 0b43 4bbf
000002a0: 767d 053e e145 61be c059 e0be ec4c a9be
000002b0: f704 03bd a914 373e b3f1 80be d597 8fbe
000002c0: 8b14 16be 534a 35bf d036 863e 856d 10bf
000002d0: d93f 033e bd80 eebe e281 82bf 7752 13bd
000002e0: f337 0b3e ba8d 1b3d 9b6a aabe 154c 1cbf
000002f0: 70d9 e2be 66d1 f4bd 7918 35bd 44d0 bb3b
00000300: ee64 6a3e 75bb 193e 6217 a8bd c6aa f9be
00000310: 20c5 f1be 2105 eabe e1f3 0ebf 06ee d8bd
00000320: 3ce3 8cbf 8a96 aebe 2c59 09be e828 12bf
00000330: f2c5 febe 64c0 c93d 443e eabe 5fad aabe
00000340: f63e a53d 294d e03d ea03 65bc 9ae3 a2be
00000350: 62ba 8fbe ae19 3cbd b133 bd3c 707c 1fbe
00000360: 5243 5cbe 8145 b23e 1144 0cbe ff9d 20bf
00000370: 9fd8 2bbf bf8f e53e 23d2 7b3e 1db1 063e
00000380: ef44 cdbe 4e55 4f3c 733e 063e 831c 8bbd
00000390: 91e6 00bf d600 d43e f2aa 13bf 6bc4 773e
000003a0: 1c72 ac3e c9ab 7c3e f907 ddbc 023b 04be
000003b0: 7abd 873e 62b3 9dbe 281b e0bd 35b9 b43c
000003c0: cac7 3cbd b075 9ebe 4d60 803e 9be7 95bc
000003d0: 78fc c1be a751 0fbe 12d8 443e 8f03 07bf
000003e0: 1c24 3cbf 7368 473c e314 46be 2cac b4bd
000003f0: f774 833e 7451 dc3e 9608 07bf 7d55 31be
0.3852137 0.28451788 0.08188726 -0.056535147 -0.35652044 -0.020370657 0.25293708 -0.2434976
-0.23282927 -0.29712456 -0.07667741 -0.1403165 -0.4763747 -0.7439363 -0.01743271 -0.2956665
-0.44172013 0.103066765 -0.19396438 0.16983828 -0.022717312 -0.24044602 0.36688724 0.08572759
-0.2153207 0.061145913 0.07660676 -0.6908752 -0.5819886 0.4257241 -0.08850821 -0.068150945
-0.49866828 -0.6139796 0.406514 0.23588108 0.25444263 0.4666336 0.11712453 -0.2977914
0.15827823 0.19650188 0.288147 -0.6056341 0.4989493 0.13690452 0.060939886 -0.3669379
-0.6640865 -0.5571908 -0.4645797 0.071315035 -0.07546892 -0.11988659 0.4829436 0.0064287474
1.0105908 -0.5207881 0.3211531 -0.011922235 6.183603e-05 0.077097334 -0.009147656 0.39347696
-0.48688483 0.0011396686 0.35859716 -0.22249061 -0.507352 0.061060015 -0.24401465 0.20839688
-0.11111632 -0.4143156 0.15005541 -0.37378192 0.0800077 -0.624926 0.2594536 -0.03658096
0.069644116 0.10101123 -0.25814015 0.06023996 -0.51590604 -0.6477129 -0.29758722 -0.07153719
-0.10741327 -0.2364973 0.428601 -0.30585593 -0.3100567 -0.01713889 -0.020536017 -0.25959447
0.06609251 -0.43309644 -0.32385612 -0.060727634 -0.6561323 0.022493958 -0.4201137 -0.38598612
-0.8472131 -0.14956523 -0.10469841 -0.20850952 -0.025142442 -0.12943591 -0.22110057 -0.097601324
0.10701733 -0.14565115 0.102511294 0.07092816 0.18042453 -0.030688183 0.044004466 0.024743076
0.025902273 0.0046138573 -0.030457746 -0.031552587 -0.012186101 0.020184958 -0.062394384 -0.07202276
-0.06221256 -0.007318864 -0.026044691 -0.03710647 0.033302147 0.03399887 0.003070568 -0.5273466
-0.39412037 0.04194038 -0.46442 -0.8206485 0.29792094 0.0035935312 -0.46549222 -0.48246452
0.35279253 0.39195463 0.3816631 0.17947838 -0.2571311 0.26618975 -0.31162962 -0.4269448
-0.065917596 0.183673 -0.33647442 -0.26789084 0.515781 -0.3716853 -0.09022563 0.61543816
-0.34987342 0.01669123 -0.19150789 -0.11447584 -0.62415403 -0.61489284 -0.8537613 -0.79399174
0.13036141 -0.21999313 -0.43818474 -0.330665 -0.031987157 0.17878975 -0.25184402 -0.28045526
-0.14656274 -0.70816535 0.26213694 -0.56417114 0.12817325 -0.46582595 -1.0195887 -0.035967316
0.13595562 0.037976958 -0.3328446 -0.6105359 -0.44306517 -0.11954002 -0.044212792 0.0057316143
0.22890064 0.15012915 -0.08207585 -0.48763102 -0.47220707 -0.45707038 -0.5584088 -0.10592274
-1.1006846 -0.34099227 -0.13412923 -0.5709367 -0.49760395 0.09851149 -0.4575063 -0.33335397
0.080686495 0.10952217 -0.013977984 -0.3181427 -0.28071886 -0.045922928 0.023095937 -0.15574813
-0.21510056 0.34818652 -0.1369784 -0.6274108 -0.6712741 0.44836232 0.2459188 0.13153501
-0.40091655 0.012654616 0.1310976 -0.067925476 -0.50351816 0.41406888 -0.57682717 0.24196021
0.3368081 0.24674906 -0.02698134 -0.12913135 0.26511747 -0.3080092 -0.1094268 0.02206097
-0.04608897 -0.30949163 0.25073472 -0.018298915 -0.3788793 -0.13995992 0.1922305 -0.52739805
-0.734926 0.012170899 -0.19343905 -0.08821902 0.25675175 0.43030894 -0.52747476 -0.17317767

network.4.bias f4 [64]
00000000: 4901 edbe 5a0f 02bf 1f22 0cbf b789 303c
00000010: df38 0ebf ef96 16be 2541 06bf e04f 15bf
00000020: 99b6 60bf d6a9 33bf ff8c f4be d7c7 05bf
00000030: 3e09 2ebf 5a12 f2bd 532c 79be 648e 5ebe
00000040: b8c1 47bf a3d5 2dbf aa28 2ebe 900e 49bf
00000050: a895 42be c3d4 30bf 628d 90bd 1b36 c5be
00000060: 6ae2 31bf 098e 90be dc7a b3bd eee3 e53c
00000070: fdce 8ebe fbf4 e0be 6b02 05be 2143 203d
00000080: 1384 d8be 4841 3abf e23a 0cbf 52f5 43be
00000090: 509a 12bf 5c9e 39bf f3af d0be 6086 0fbf
000000a0: 4e8b 22bf 24d9 11bf 1f4b bfbe 1400 13bf
000000b0: e34f 0abf 635d f1be 2a0e 18bf 5be0 f1be
000000c0: 2455 9fbd d1b4 36bf cefa 2dbf 90d5 ddbe
000000d0: 4d3c 1dbf 6791 64be 253c 0abc 5169 b6bd
000000e0: 7f8b 04bf 2864 00bf 4b84 00bf c8c5 1abf
000000f0: d5ad c0bd 5ab8 07bf c7b8 5fbf 54b5 aebe
-0.46290043 -0.50804675 -0.54739565 0.010775021 -0.5555553 -0.14706014 -0.5244315 -0.58325005
-0.8777862 -0.70181024 -0.4776382 -0.52258056 -0.6798285 -0.118199065 -0.24333315 -0.21734005
-0.78029966 -0.6790411 -0.170077 -0.78537846 -0.19002402 -0.6907465 -0.07058217 -0.38517842
-0.69486105 -0.28233364 -0.08763668 0.028062787 -0.27892295 -0.43936905 -0.12989204 0.03912652
-0.42288265 -0.7275586 -0.5477735 -0.19136551 -0.5726671 -0.7250726 -0.4075924 -0.56064415
-0.6349381 -0.56971955 -0.37362 -0.57421994 -0.5402815 -0.4714156 -0.5939661 -0.47241482
-0.07779911 -0.71369654 -0.6796082 -0.43326998 -0.61420137 -0.22321092 -0.008437191 -0.08906806
-0.51775354 -0.50152826 -0.50201863 -0.6045804 -0.09408156 -0.53015673 -0.8739132 -0.34122717

actor.weight f4 [5, 3136]
00000000: 16f1 6d3e 50e8 7cbe 5643 6b3e 30b2 a23e
00000010: 26e7 de3e a5db a13c 5de0 32bf 5dae efbe
00000020: 25e8 02be b76f 9e3d f7ea 60be 6b80 36be
00000030: 2095 373f 708b ce3e 4026 a1bd 2640 9c3d
00000040: 0431 16be 61de 723d 61f2 753e a0cf da3e
00000050: e154 283e e1c7 963d 15be 1eba 22ac 123f
00000060: 830f d8be 0147 423c 16e0 f43d 9fe8 893e
00000070: c744 aabd 0520 30be 3f8b 3c3e 3a7d cdbd
00000080: 85d1 bcbe 4589 91bd c4d5 02bf 7aca 653f
00000090: fa66 c93d 5b17 203f c010 3dbe 31f6 45bf
000000a0: 84f0 51be 1293 2e3d 4d27 e03e 4a51 573e
000000b0: 82b3 ef3e 698b 2dbe 731b 34be cdc7 963e
000000c0: 1821 21be 6b2d eebd b99e ae3e 630f cb3e
000000d0: de41 66be 4048 7bbd c8f9 793e a15a ac3e
000000e0: feb9 d8be e2f8 11be 9a50 cb3e 23e7 1fbe
000000f0: ac48 ebbd 6991 e5be 2401 ff3d 4a62 d2be
00000100: 6392 523d 3ca4 d3bd 44ca d13d 1b28 003e
00000110: ad31 90be c286 dd3e cb29 2a3e 041d 75bd
00000120: 556a febd 75a9 333e 324a 99bc 1129 70be
00000130: a15c 27bc 4131 b73d dfa4 c03c 2792 893f
00000140: 008f 943e 4cf5 40be 9e5e 3cbe b1ed 5e3b
00000150: 3ecf 0f3d 4c39 cfbd cb54 a03e 972b 3d3d
00000160: d4ed a13e 229f 8ebe 2094 9cbe 1303 ea3d
00000170: 7ea0 e53e cbd1 adbc 6474 783e eacf 7e3d
00000180: 65ec aebd 0c22 f73d c16c 0f3f ccbc 79bf
00000190: c10a 7cbe 8448 f9be c702 143e 1a19 49bb
000001a0: 2ca0 073f 7df3 2fbf 6631 85bd 4b6c 253f
000001b0: 155f ccbe d84d 96be 7512 14bf 7627 4c3e
000001c0: f5ba bdbd 11a2 dcbd 43e6 3cbf 82d6 48be
000001d0: 2ab5 8c3d 0526 19be 3c48 71be fc8e 90be
000001e0: 1a98 e73e 374d c63e dcfa fe3e bffd 32bf
000001f0: d308 303f d50c ed3e d68e dc3e c0b8 463e
00000200: 0c23 613f e627 7c3d 519e 9ebe 63ce d73e
00000210: 6bea 3abd 8732 4dbe d62d 8e3d 01af efbe
00000220: ba76 2cbf 8c96 b7be 3b07 dcbe ebd6 e4be
00000230: 7878 ce3d ad3e a63e fce9 3abe 9a91 00be
00000240: 3cb9 143e 1bb4 d2bd 93c8 cbbd 71fb 8f3e
00000250: 7a25 d53e 65ca 733d 626d de3d 8f38 823e
00000260: c1a0 5f3e 2d1b 943e 6234 11be b345 23bd
00000270: 147c 553c ad74 8abe c2ed 29be 22b6 99be
00000280: e4bd ca3e 84a1 183e a2c8 053d e0ea 943e
00000290: b0ce 0b3e 56b0 023f 3572 113f 9c76 1f3f
000002a0: 3580 d73e 0869 de3c 6cff d73d c23e 353e
000002b0: 3a72 acbd 60f5 193e 8184 b73d 1eb6 a53e
000002c0: 0f45 b63d fd95 8b3d f255 fb3b 471f eb3d
000002d0: a117 193e d7ff a43e 9bb6 c23e 3985 03bf
000002e0: bdbb 6b3e 449d 4cbf 449e 813e 323e 96be
000002f0: 0baf 5e3e 439c 1abf e596 a43a e07c b9be
00000300: ca45 673e 6083 f9bd c1a1 2f3f 9eac 2b3e
00000310: 1204 8c3e 43f8 cd3d cfea 3bbe bf29 70be
00000320: 9e64 1b3e 3487 27be 2d1d bdbe 9be5 89be
00000330: ed22 053f 829b 1bbe d956 08bd 3881 e2be
00000340: e604 1b3f 0b50 af3e f217 1abf d239 563b
00000350: 1726 f03d f169 9e3e b74d e93e f3a1 b13d
00000360: ae6f 733d e04b 96bd 0102 613d bfb6 d4be
00000370: 6986 623f a6af 1a3e 8c8b 5d3e 57de 263e
00000380: 3c55 9b3d 31d2 8e3d 821a 2e3e b7d9 5d3e
00000390: a1b3 d9bd ab1e 363f b24f f93e 188a e23d
000003a0: 9016 cb3e 68c9 9e3e 08b9 1cbf e869 0cbe
000003b0: 698d 1a3d 5bd7 ed3e 9788 7c3d ea49 8e3d
000003c0: 887e c4bd 0fff 0b3e 397e 0c3e fc91 24be
000003d0: 534a 81be 323d 623e ebd7 003f df4d 4abe
000003e0: e573 afbe 42e0 b63e 21a6 193e f303 96bd
000003f0: 60ad 46bd 3b0c 103d 4a09 783e e1f6 38be
0.23236498 -0.24697995 0.22974905 0.3177657 0.43535727 0.019758055 -0.698736 -0.46812716
-0.12783869 0.07736152 -0.21964632 -0.17822425 0.7171192 0.40340757 -0.07868624 0.07629423
-0.14667135 0.05929411 0.24018241 0.4273653 0.16438629 0.073623426 -0.0006055546 0.57293904
-0.42199335 0.011857749 0.119568035 0.26935288 -0.083138995 -0.17199714 0.18412493 -0.10033651
-0.368786 -0.0710626 -0.5110743 0.8976208 0.09834094 0.6253564 -0.18463421 -0.77328783
-0.20501906 0.042620726 0.43779984 0.21027103 0.4681664 -0.16947712 -0.17588596 0.2944931
-0.1573528 -0.116297565 0.3410547 0.39660177 -0.22486064 -0.0613482 0.2441169 0.33662894
-0.423294 -0.14255098 0.39709932 -0.15615515 -0.114884704 -0.44837502 0.124513894 -0.41090614
0.051409137 -0.103340596 0.10243657 0.12515299 -0.281629 0.43266875 0.16617505 -0.059842125
-0.12422625 0.17545111 -0.018712137 -0.23453166 -0.010214956 0.08944941 0.023516117 1.0747727
0.2901535 -0.18843573 -0.18395469 0.0034016187 0.03510975 -0.101183504 0.31314692 0.04618415
0.3162676 -0.27855784 -0.3058176 0.114263676 0.44849008 -0.021218201 0.2426315 0.06221
-0.085411824 0.12067041 0.5602532 -0.97553706 -0.24613477 -0.48688138 0.14454184 -0.0030685128
0.5297878 -0.6873091 -0.06503563 0.64618367 -0.39916292 -0.29356265 -0.57840663 0.19936928
-0.09264175 -0.10773099 -0.7378885 -0.19613078 0.06870492 -0.1495591 -0.23562711 -0.28234088
0.45233232 0.38730785 0.49800766 -0.69918436 0.68763465 0.46298853 0.43077725 0.19406414
0.879441 0.061561488 -0.3098016 0.42149648 -0.045633715 -0.20038806 0.06942336 -0.46813205
-0.6736866 -0.35857046 -0.42974266 -0.4469522 0.10081571 0.32469693 -0.1825332 -0.12555543
0.14523786 -0.10288259 -0.09950366 0.28121522 0.41630155 0.05951919 0.10860707 0.25433776
0.21838666 0.28926983 -0.14180139 -0.039861392 0.013030071 -0.27042142 -0.16594604 -0.3002177
0.39598 0.14905363 0.03266204 0.29085445 0.13653064 0.5105032 0.5681489 0.6229036
0.42090002 0.027149692 0.10546765 0.17699721 -0.084202245 0.1503501 0.0896082 0.32365507
0.08899891 0.06815717 0.0076701576 0.11480575 0.1495042 0.3222644 0.38029942 -0.51375157
0.23020835 -0.7992747 0.2531606 -0.29344326 0.21746461 -0.60394686 0.0012557177 -0.36228085
0.22585216 -0.12183261 0.6860619 0.16765067 0.27346855 0.10057118 -0.18351291 -0.23453425
0.15175101 -0.1636017 -0.36936322 -0.26932988 0.5200642 -0.1519604 -0.03328595 -0.4423921
0.6055435 0.34240755 -0.6019279 0.0032688272 0.11726015 0.30940202 0.45567104 0.086734675
0.059432678 -0.07338691 0.05493355 -0.41545674 0.88486344 0.15106067 0.21635264 0.16295753
0.075846165 0.069736846 0.170023 0.21665083 -0.106299646 0.71140546 0.48693615 0.110614955
0.3966565 0.31013036 -0.61219835 -0.13712275 0.037732515 0.46453366 0.0616537 0.06947692
-0.095944464 0.13671516 0.13720025 -0.16071314 -0.25252017 0.22093657 0.50329465 -0.19756268
-0.34268108 0.3571797 0.1500478 -0.07324972 -0.048505187 0.035167914 0.24222293 -0.18062927

actor.bias f4 [5]
00000000: de24 edbe a921 b93e 9984 bc3e bc35 31be
00000010: 67f9 0b3d
-0.4631719 0.36158493 0.36819914 -0.17305654 0.034173395

critic.weight f4 [1, 3136]
00000000: a9c2 3ebe 45cf 3e3e f6c9 0cbf 9e5c 3dbe
00000010: fbec 183e 6ba6 3e3e 4930 18be c029 81be
00000020: a8f6 bfbe b2fc 7fbd 5e48 94be bbac a6bc
00000030: 9e05 29bd f4b7 52bd 994b 6dbf 770e c43e
00000040: e52b a0be 658f eebe e85c fdbe dd58 493e
00000050: d1d4 f5be fd97 e8be 246a 58be 261f 57bd
00000060: 73a5 d13e e7ec 013e 5674 09bc a647 2c3e
00000070: 3679 30bf 4337 21be a498 96bd f3ac af3c
00000080: 62ff 233d 987b 21be 9f0c 99be 4b30 1bbf
00000090: ca11 a63d ea4c d53d 5896 e5be 6449 8dbe
000000a0: 602f 223e 4b1a 9ebe fbc5 42be cff2 bc3e
000000b0: 2804 edbd 076c 803e a759 bebe 9647 b9be
000000c0: 24ec 8f3c 417e 193e 832a e6bd 128e d5be
000000d0: 0265 38bc 3124 0e3d 741d 673e cdda 693d
000000e0: 0ca6 53be 22f9 a73d e9a7 cfbe bc76 57be
000000f0: 54a6 05be 903d 813e 6235 8bbd 403a 093e
00000100: 395f c3bc b799 31be d864 d2be e151 c8bb
00000110: 7730 293c e315 84be 1b03 a4be 1bec 82be
00000120: c7cd ecbe a906 04bf 5bfa 1c3d 895b 043d
00000130: d95a a63e c4aa 5d3d 2591 85be 0754 f2be
00000140: eff8 d6be 8262 eebb b720 84be d80e cbbe
00000150: e882 7bbe 8c04 80be fb71 12be 878b 25bf
00000160: 5cec 5f3e 0dd0 79bd c81b d1bd 77a9 a1be
00000170: 42a4 d8be 0c91 1fbf 5b9a 32bf 2dbd aa3e
00000180: 7de5 94be b36a a73d 5b6e 733c 29e6 063e
00000190: 4e6a a43e fd06 723e 7e65 d8bd 48a7 d43c
000001a0: 865a 18bd cfad cabb 61c1 e13d 8650 cabc
000001b0: 5957 de3e a7a4 aa3e e1d4 463e 0c77 36be
000001c0: fa90 4f3f ce36 4a3e 2cad 0d3d d67f 6abc
000001d0: 9838 c0bd bac1 b4bd 063f 80be e191 163e
000001e0: 7692 833e 19a7 3a3e 9b28 4f3e e6bc 0e3e
000001f0: bd60 dfbd 2a7c 793e ff94 903d b89b 14bf
00000200: 81ba b8bc 1d0a b7be 89dc 96be 374b fb3c
00000210: b70e 183f 65eb 3d3e 4ef6 0b3f bee3 2f3e
00000220: e815 69be a8b6 85be 3f44 0f3f 5c62 063f
00000230: f580 7e3e 9ee0 abbd 18fb 49be c01d b8bc
00000240: 7bdb 20bd 00f4 6f3e 9394 0c3e 1269 173f
00000250: 45ca f73e 1302 273f 301a 523f 283b 1f3f
00000260: 32d6 223f fa58 143f 92bc e03e 57ed c13e
00000270: 57cc 4f3f 0eb0 193f c979 0f3f f98b 383f
00000280: 45d8 e03e b9ce 09be 988f 33be 7431 043f
00000290: e882 163f 5de3 323e 88d9 8abd 0be6 0e3f
000002a0: ee47 0d3f c572 bf3e 04df 573e 3863 e83e
000002b0: efa0 4b3f 1666 223f eddf f13e 37f1 0e3f
000002c0: f518 363f 87bf 833f 3daf 983e 39bc 563f
000002d0: 687f 1a3f d5a3 193f 7053 f7be a056 1dbf
000002e0: cf36 633f 9082 bf3e 2512 233f b482 a83e
000002f0: 5bd1 d53e 85db 7dbe 3b6c e3be 0bff 81be
00000300: 87fe 2a3f 93ad 023e 1c19 debe c1b0 cabe
00000310: 8e18 0ebe b1b1 a2be 85e1 92be d193 82be
00000320: 77aa ccbd 226f 48bc a6be db3e 6770 86be
00000330: 406d c83d f4fb d83d 4869 3e3d 5910 87bc
00000340: 1777 1c3e 10fe b6bd 679a c23e a9b9 30bf
00000350: cded bcbe 14c7 603e e4d9 e8be e03b a43c
00000360: c903 6b3e 6919 f73d 20ff e2be 8406 943e
00000370: 5017 d2be 1f62 8bbd e454 5e3c 6340 003d
00000380: 4e57 26be daf7 5b3e b4c3 923e 8aaa c3be
00000390: 2c7c 1bbf 82e5 5c3e e6d9 9cbe 593c 893e
000003a0: 730d 723e 9b59 34be b1c1 ff3e 492e aabe
000003b0: 681d 14bd 1389 863d 91f6 bfbd ea1e 80bd
000003c0: a0d1 cebe 1c9f 01bf af6e c93c c404 663e
000003d0: 0724 11bf 3fb3 17bd 930b 6e3c f538 13bd
000003e0: 7d71 cabd 1ad6 d23e ae50 a1be 19fa 55be
000003f0: 08ee 95be caab aa3d 15d2 603e aecb 3b3e
-0.18628944 0.18633755 -0.5499567 -0.18492362 0.14934151 0.18618171 -0.1486217 -0.25227165
-0.3749287 -0.06249685 -0.28961462 -0.020346036 -0.041265123 -0.051444963 -0.9269348 0.38292286
-0.3128349 -0.46593776 -0.49484944 0.19662805 -0.4801393 -0.45428458 -0.2113424 -0.05251994
0.4094654 0.12688027 -0.008389553 0.16824207 -0.68934953 -0.15743737 -0.07353333 0.021444773
0.040038474 -0.15769804 -0.29892442 -0.60620564 0.08108862 0.10415061 -0.44841266 -0.27595055
0.15838385 -0.30879435 -0.19020836 0.36903998 -0.11573058 0.25082418 -0.37177774 -0.36187428
0.017568655 0.14989568 -0.11238577 -0.41709954 -0.011254551 0.034702484 0.22569829 0.05709343
-0.2066881 0.08201815 -0.40557793 -0.21041387 -0.1305173 0.2524228 -0.06797291 0.13401127
-0.023849117 -0.17343794 -0.41092563 -0.0061132764 0.010326496 -0.25797948 -0.3203362 -0.2557076
-0.46250746 -0.5157266 0.038324695 0.032313857 0.32491186 0.054117933 -0.260873 -0.47329733
-0.41986796 -0.0072749266 -0.2580621 -0.39659762 -0.24561656 -0.2500347 -0.14301293 -0.64666027
0.21867508 -0.06098943 -0.10210377 -0.31574604 -0.4231282 -0.623307 -0.6976678 0.33347455
-0.29081336 0.08174648 0.014857854 0.13173737 0.32112354 0.23635478 -0.10566233 0.025958672
-0.037195705 -0.0061852704 0.11023212 -0.0246966 0.43426016 0.33328745 0.19417144 -0.1781885
0.8108059 0.19747469 0.034588978 -0.014312705 -0.093857944 -0.08826013 -0.25048083 0.14704086
0.25697678 0.18227805 0.20230334 0.13939247 -0.10907123 0.24363771 0.07059669 -0.5805011
-0.02254987 -0.35749903 -0.2946513 0.030675514 0.59397453 0.18546827 0.54672706 0.1717672
-0.22762263 -0.26115918 0.5596351 0.52493834 0.2485388 -0.08392452 -0.19724691 -0.022475123
-0.039271813 0.23432922 0.13728552 0.591447 0.48396507 0.6523754 0.8207121 0.6219964
0.63608086 0.5794827 0.43893868 0.37876388 0.8117117 0.60034263 0.56045204 0.7208858
0.43915 -0.13457765 -0.17535245 0.5163796 0.587935 0.17469545 -0.06779772 0.5581977
0.5518788 0.3739225 0.21081167 0.45388198 0.7954244 0.6343702 0.47241154 0.55836815
0.7113183 1.0292825 0.29821196 0.83880955 0.60350657 0.6001561 -0.48305845 -0.61460304
0.88755506 0.374043 0.6369956 0.3291222 0.41761288 -0.24790771 -0.4441851 -0.25389895
0.6679463 0.12761526 -0.43378532 -0.39587978 -0.13876554 -0.31776193 -0.28687683 -0.255034
-0.09993451 -0.012233527 0.4291889 -0.2625763 0.09786463 0.10594931 0.046487123 -0.016487287
0.15279804 -0.08935177 0.38008425 -0.69033295 -0.36900178 0.21950942 -0.45478737 0.020048082
0.22950663 0.120653935 -0.4433527 0.2891122 -0.4103341 -0.068058245 0.013570044 0.031311404
-0.16244242 0.21481267 0.28664935 -0.38216048 -0.60736346 0.21571925 -0.30634993 0.26803854
0.23637943 -0.17612307 0.49952462 -0.33238438 -0.036160856 0.065691136 -0.09373201 -0.062558964
-0.40394306 -0.50633407 0.02458891 0.22462755 -0.566956 -0.037036177 0.014529127 -0.03594299
-0.098849274 0.41178972 -0.31506866 -0.20896186 -0.29283166 0.083335474 0.2195514 0.18339416
