PARALLEL/models/HIDER_SOLOTRAIN1200.ckpt (torch, 306976 bytes, 9 tensors)

network.0.weight f4 [32, 5, 3, 3]
000000 cc 64 4c bd f9 f9 2a bd 5f 37 9b bd 8f bb 81 be
       -0.049900815 -0.0417423 -0.075789206 -0.25338408
000010 f0 fe 71 3c 80 42 31 3d 17 b0 28 be 41 fd 86 3d
       0.0147702545 0.04327631 -0.16473423 0.06591273
000020 fa 1e 5d 3c 8c e7 d7 3d 80 c9 ef 3e a0 4e c7 3d
       0.013496155 0.10542211 0.4683342 0.097317934
000030 6c 51 1c 3f 46 6a 88 3d 91 5f bf 3d 57 d5 82 be
       0.6106174 0.06660895 0.093444 -0.2555339
000040 84 49 9f be da 83 e8 bd e7 52 12 be 65 61 41 be
       -0.31110775 -0.11353274 -0.14289437 -0.1888481
000050 1f b4 1d bd 50 b0 82 be d2 92 98 bc 7a 8b f1 bd
       -0.038501855 -0.2552514 -0.018624697 -0.11794181
000060 4d 8f 32 3d 5a 5a 50 3e db 1c 09 3e 74 21 fd be
       0.043593694 0.20346966 0.13389914 -0.49439585
000070 51 fc 08 3e cf 55 89 3e 39 70 2d bd 08 06 be 3c
       0.13377501 0.2682328 -0.042343352 0.023196235
000080 70 d8 31 3e 3a dd 15 be 82 b5 00 bf c6 9b 94 be
       0.1736772 -0.14635172 -0.5027696 -0.29025096
000090 d0 14 2e bd 72 44 c1 3d 78 4e 47 3d 12 fa 6d be
       -0.042500317 0.09436883 0.048658818 -0.23239926
0000a0 9a d9 72 be 87 69 ac bb b2 9d d1 bd 4b 3f f8 3d
       -0.23715821 -0.0052616033 -0.10235156 0.12121447
0000b0 92 66 a7 3d 33 42 3c bd d3 0b 95 bd eb 62 50 be
       0.081738606 -0.04596157 -0.07277646 -0.20350234
0000c0 3d 25 b0 3d 90 be 39 be 3a b7 9f 3d f3 2a c3 bc
       0.08600853 -0.181391 0.077986196 -0.02382419
0000d0 88 15 4a be d8 8e 65 be a1 8f f7 be 4f 18 1b be
       -0.19734776 -0.22417772 -0.48351768 -0.15145992
0000e0 2c 80 3e bd 58 2f c0 bc 7a fe fd 3d cf 53 21 be
       -0.046508953 -0.023460075 0.12402053 -0.15754627
0000f0 e4 ce 4e be 1c b6 ac be 29 e1 fe bd bf 0a 31 3d
       -0.2019611 -0.33732688 -0.1244529 0.04322314
000100 61 dc 68 be aa b7 64 3e f6 d7 ac be d7 18 cf bd
       -0.22740318 0.22335687 -0.33758515 -0.1011216
000110 fb fa fe 3d 48 dd 8c 3e 20 d6 8d be 7c 93 78 bd
       0.124502145 0.27512574 -0.27702427 -0.060687527
000120 22 d2 d0 be 0a 4f 43 be 2c bf 4a be ec ec ad be
       -0.4078532 -0.1907312 -0.19799489 -0.3396982
000130 4d f4 b5 be c4 bb a1 3d 8f fb 58 3e 91 dc c1 be
       -0.3553795 0.078971416 0.21189712 -0.3786359
000140 c3 44 05 3e 89 9f c3 3d 08 66 fe bd 90 65 40 3e
       0.13014512 0.09551913 -0.12421805 0.18788743
000150 e8 61 bc 3e fd 5f 00 be 4b e4 17 be 9c 78 ba be
       0.36793447 -0.12536617 -0.1483318 -0.36420143
000160 e5 fc 4e be bc d3 8e bd 3f 58 e2 3c c7 43 3b bd
       -0.20213659 -0.06973979 0.02762997 -0.045718934
000170 46 59 c8 bc 02 86 f0 3c 4a 1f 01 be 75 1c af be
       -0.024456631 0.029360775 -0.12609592 -0.34201398
000180 3d 25 33 bd b9 2e 9c 3d 53 86 7a 3d 50 1e 2a 3d
       -0.043736685 0.07626099 0.061163258 0.041532815
000190 e7 78 03 bf ca eb 46 bf 66 41 3e bd a2 d3 5e be
       -0.5135636 -0.77703536 -0.046449088 -0.21760419
0001a0 28 a3 c2 be bb 45 42 be 3c 49 8a be e9 3e 7c be
       -0.38015103 -0.18971913 -0.27008998 -0.24633373
0001b0 4a 0e d0 be 67 76 f1 bd 63 22 70 3e 2c 9d 0b 3d
       -0.40635902 -0.117901616 0.23450617 0.034085438
0001c0 0e 51 86 bd d3 20 89 bd a3 ed 06 be aa b6 8b 3e
       -0.06558429 -0.06695714 -0.13176589 0.272878
0001d0 2c 45 57 be a0 a6 36 3e b0 3d 9f 3e 3b 4b 8a 3e
       -0.2102248 0.17837 0.3110175 0.2701052
0001e0 6d 64 03 3e 9f d8 1a 3e 01 bd 99 3e 7c 8e 9f 3d
       0.12831278 0.15121697 0.3002701 0.077908486
0001f0 85 8f 91 3e e2 ce 16 3e cb 70 16 3e 7a 98 ef bd
       0.2842981 0.14727357 0.14691465 -0.116990045
000200 36 13 50 be 5c e3 6a 3e 32 e7 05 3e 02 75 00 bf
       -0.20319828 0.22938293 0.13076475 -0.5017854
000210 d1 a5 e4 3d 6b 38 97 3e ce fb 66 3d 81 4a 17 be
       0.111644395 0.2953523 0.056392483 -0.14774515
000220 26 c1 22 3b 2b 53 c6 bd 04 2f ac bd 03 6a 6c bd
       0.0024834364 -0.09683832 -0.08407405 -0.05771829
000230 3e bc 3d 3d a2 59 a6 be 94 0d 36 be 17 35 0a bd
       0.0463221 -0.3249026 -0.17778617 -0.033742037
000240 f7 54 e6 be f0 a9 ba be 99 30 66 3c 82 e3 7b be
       -0.44986698 -0.36457777 0.0140496725 -0.24598506
000250 7a e0 d0 be e9 6e 11 be be 0b 80 be b2 7b f7 bd
       -0.40796262 -0.14202465 -0.2500896 -0.1208414
000260 cf 7a 54 3e c4 b5 a0 3e 23 0d 87 bd b1 11 c2 bd
       0.20749973 0.31388676 -0.065943025 -0.094760306
000270 f1 0d 50 3e c2 0d a5 be 9a 14 a6 bd 5a 98 c0 be
       0.20317818 -0.3223706 -0.08109398 -0.37616235
000280 ed 9c 3a be 07 f4 c0 bd 12 2a f5 3d c6 7b e8 3d
       -0.18223925 -0.094215445 0.11970915 0.11351733
000290 f0 a1 29 3e 1e f2 b4 be 95 7d 9c 3d 53 c4 3e be
       0.1656568 -0.3534097 0.0764114 -0.18629579
0002a0 9f e5 d4 bb fe 9e 1e be 30 05 7c bd 1a be b0 3d
       -0.0064970995 -0.15490338 -0.061528385 0.08630009
0002b0 85 78 ce 3d 70 51 25 be b0 f5 d4 bd 6d ed 15 3e
       0.10081581 -0.16144347 -0.10398424 0.14641352
0002c0 ff 18 81 bd af f2 a7 be 60 de 68 be a7 03 c7 be
       -0.06303596 -0.3280234 -0.2274108 -0.38869974
0002d0 7e 96 1b be a6 41 2b bc 90 97 af bc 9b 54 33 bd
       -0.15194127 -0.0104526635 -0.021434575 -0.043781858
0002e0 4e da 1f 3e c6 cb 20 bd 19 54 84 bd e5 00 87 3d
       0.1561062 -0.039256833 -0.06461353 0.065919675
0002f0 c8 d8 49 be 81 ac 7a bd f1 8c a8 be f2 a8 71 3e
       -0.19711602 -0.06119967 -0.3292003 0.23599604
000300 08 14 79 3e 36 f0 11 be 28 ee 4f bd c0 4d ae 3d
       0.24324048 -0.1425179 -0.050764233 0.085109234
000310 c8 1c e0 3e d3 95 f8 3e cc 14 79 bd 03 68 c5 b8
       0.43771958 0.48551807 -0.06081085 -9.413066e-05
000320 5d 03 01 3e f7 1e d4 3d 91 3a 75 3d 1e 02 d6 3c
       0.12598939 0.103574686 0.059870306 0.026124056
000330 90 f1 49 be ad 9e cb be 89 91 ab 3d ba cb 34 be
       -0.19721055 -0.39769498 0.08377368 -0.1765584
000340 0f 8b cd 3e 4d 62 ab be 88 7f 53 3e 1f c4 39 bd
       0.40145156 -0.33473435 0.20654118 -0.04535305
000350 91 77 af 3d b0 73 d4 3e ae c0 63 3e 27 09 e9 bd
       0.08567727 0.41494513 0.2224147 -0.11378699
000360 1e 54 cf 3d 1d 19 12 be 3b 31 fa bd 77 9d 8a 3e
       0.10123466 -0.14267392 -0.12216421 0.2707326
000370 38 24 0a 3e 23 11 9e 3e 02 84 85 be 1c ab 5d be
       0.13490379 0.3087245 -0.26077276 -0.21647304
000380 f7 27 39 be 7d e0 96 be f2 9b ad be 11 7a 01 be
       -0.18081652 -0.29468146 -0.3390804 -0.12644221
000390 c2 84 10 be f8 54 b1 bc 24 93 90 be ee 82 af bc
       -0.14113143 -0.021646962 -0.2823726 -0.021424737
0003a0 af 87 9a bd e3 9e 05 bf ca 17 b9 be 05 8e c8 3d
       -0.07545411 -0.52195567 -0.36150962 0.09792713
0003b0 74 5a ad bd 19 eb 7a be 42 eb ae be 12 4c 96 be
       -0.08464518 -0.24503745 -0.34163862 -0.29354912
0003c0 b3 86 a7 be 00 d0 29 be ae 9c c5 bd 2d 1c a1 bb
       -0.32719955 -0.16583252 -0.09649025 -0.004916689
0003d0 a5 6c 9f be e4 72 6a 3e 04 0a da bd bb 1a e3 bd
       -0.31137577 0.2289539 -0.106464416 -0.11089083
0003e0 51 39 42 3e 06 39 5d be 68 db 25 be c0 fe 0f be
       0.18967177 -0.21603784 -0.16196978 -0.14062023
0003f0 81 60 50 be 75 4f 09 3e ef 12 e5 be 44 e4 aa bd
       -0.20349313 0.13409217 -0.44741008 -0.083443195

network.0.bias f4 [32]
000000 8c 8a 4e bd 1e c8 19 be b6 07 20 3c 08 4f 1b be
       -0.050425097 -0.15017745 0.009767463 -0.15166867
000010 b6 35 73 be 64 40 00 be d9 d1 6b bd 4c 93 09 be
       -0.23750958 -0.12524563 -0.057573173 -0.13435096
000020 20 1b e2 bd e5 02 b4 3c 3b 6e 10 be 39 34 3a be
       -0.1104033 0.021974036 -0.1410455 -0.18183984
000030 b4 a3 c0 bd 06 38 09 3d 34 d6 a2 bd b1 3f af bd
       -0.09406224 0.033500694 -0.07951012 -0.0855707
000040 4d 9a 82 be cc 21 b2 bd bd fc b1 bd 3c 88 1e be
       -0.25508347 -0.086978525 -0.08690784 -0.15481657
000050 05 b5 69 be 89 77 45 be 62 9b 71 be 16 4a a5 bd
       -0.2282296 -0.1928388 -0.2359443 -0.080707714
000060 dc f7 80 bd 3f 0f d9 bc 44 fc 4f be 76 38 88 be
       -0.062972754 -0.026496528 -0.20311075 -0.26605576
000070 d6 17 46 3c 8f 1d b9 bd f0 45 3d be 68 5d 27 be
       0.012090644 -0.09038841 -0.1848371 -0.16344225

network.2.weight f4 [64, 32, 3, 3]
000000 cc b8 c8 be d8 01 d3 3d e8 13 60 3e ac 14 5a be
       -0.3920349 0.10303086 0.21882594 -0.21296948
000010 d9 43 6f 3d 4f d6 fa 3a cc eb e0 3b 25 9c a6 bc
       0.058414314 0.0019137355 0.0068640467 -0.020338127
000020 c9 37 e5 bd e5 d1 70 bd aa 04 63 3d 4d 28 4c 3e
       -0.11192281 -0.05879392 0.05542437 0.19937249
000030 10 58 75 be e8 55 7a 3e 7d 37 03 be fb 95 5a bd
       -0.23959374 0.24446833 -0.12814136 -0.05336569
000040 7b f5 9e be 89 46 a1 3c d8 d5 c2 be 4a da c9 be
       -0.31046662 0.019686954 -0.38053775 -0.39424354
000050 ca bb 50 3e db ce 10 be 21 ce 07 3d 1e 8b f8 3c
       0.20384136 -0.14141409 0.033155564 0.030339774
000060 6f 5a b1 be dd 93 74 be 67 61 00 be dc e5 69 bb
       -0.34639308 -0.2388453 -0.12537156 -0.0035689985
000070 ba 8d 69 be bf e4 db bd 43 86 a8 3c 07 39 2b be
       -0.2280797 -0.10736989 0.020571833 -0.16720973
000080 db 1a 13 be ce 20 02 3e 87 43 4e be 92 d4 56 be
       -0.14365713 0.12707826 -0.20142947 -0.20979527
000090 90 7d 4b bd 9d 21 67 be d0 47 9d bd 83 33 1e bf
       -0.049680293 -0.22571416 -0.07679713 -0.6179735
0000a0 3b 42 05 bf e2 77 01 bf b3 dd da bd a8 e3 26 3e
       -0.52054185 -0.5057355 -0.10686817 0.16297781
0000b0 86 43 90 3d 13 e1 ff bd d8 db 5e bd ef 31 81 bd
       0.07044129 -0.124941014 -0.054408878 -0.06308352
0000c0 2a 51 45 be e6 43 8f bb fb ef b0 be 78 58 b1 be
       -0.19269243 -0.004372108 -0.3455809 -0.3463781
0000d0 34 09 00 be 19 cf 2e be 44 8c 9e bd 45 cb c5 bd
       -0.1250351 -0.17071189 -0.07741597 -0.09657911
0000e0 cd a2 bf bc 04 4b 50 bd 1e 29 18 3d 89 d6 df bd
       -0.02339306 -0.05085279 0.037148587 -0.10929591
0000f0 7f f7 61 3e f4 ab 8d 3d 4d d5 1d be 2d 24 c6 3d
       0.22067069 0.06917563 -0.15413399 0.09674869
000100 b2 9b 1d be 5d e4 c6 bd c8 44 d0 be 1b 59 d3 3d
       -0.15391424 -0.097115256 -0.40677476 0.1031973
000110 9f 5b 14 3b 6c 20 aa bd 64 51 d9 3e f0 45 42 3c
       0.0022637618 -0.08306965 0.4244491 0.011857495
000120 dd 47 ec bd 36 bb ca 3c cb 1b 05 be bb 08 92 3d
       -0.11537144 0.024747472 -0.12998883 0.071305715
000130 5b ce 6e be 0e 20 f3 bd b4 5a 48 3c 90 3a 65 bd
       -0.23320906 -0.11871348 0.012228657 -0.055964053
000140 fb e5 a4 be c9 3a c3 be a3 21 02 be fd 3a eb 3c
       -0.3220671 -0.38130787 -0.12708144 0.028714651
000150 10 05 57 be 46 44 c3 3c 4d de 7d bc 17 bb ee 3c
       -0.20998025 0.023836266 -0.015494895 0.029141946
000160 34 8f 13 be f3 b2 94 be 85 27 ec bd e9 e1 d6 3d
       -0.14410096 -0.29042777 -0.11530975 0.10492308
000170 9a 85 dd bc 92 82 86 be 42 f7 a5 bc 70 ae 0c be
       -0.027041245 -0.26271492 -0.020259503 -0.13738418
000180 dd a0 a5 bd 46 81 03 3d b9 3f 5f be fa 43 9d bd
       -0.08087323 0.032105707 -0.21801652 -0.07678981
000190 5e 4c 15 3d 75 94 b3 bb b6 50 28 3e 91 06 81 bd
       0.036449783 -0.005480344 0.16437039 -0.063000806
0001a0 29 e1 bf 3d 47 3a 1a be 5f c7 1b bd 79 32 3f 3e
       0.09369118 -0.15061294 -0.038031932 0.18671598
0001b0 1f 36 a1 3e aa c5 34 be 29 9e 68 be bc 5d 3d be
       0.31486604 -0.17653528 -0.22716583 -0.18492788
0001c0 44 7b 7b bd ea 89 ad bd c6 d7 22 bf 93 0b 40 be
       -0.061396852 -0.08473571 -0.63610494 -0.18754415
0001d0 17 c2 b6 3c 5b 64 2b be f1 be 9a be bf 7a b1 be
       0.022309346 -0.16737501 -0.30223802 -0.3466396
0001e0 3d a5 d2 bd a4 03 c1 bc 3f bc 85 be e6 05 c9 3d
       -0.10285423 -0.023561306 -0.26120183 0.09815578
0001f0 af 6f 14 be 60 30 37 be ea 36 44 be fa 81 5b be
       -0.14495729 -0.17889547 -0.19161573 -0.21436301
000200 33 5c 86 be 0d a2 1a bd 89 3b c9 bc 91 6e c8 bc
       -0.26242217 -0.0377522 -0.024564521 -0.024466785
000210 4c 42 f1 3d 6a d9 78 3e 70 ce 7e 3d 96 3d 60 3e
       0.11780223 0.24301687 0.062208593 0.21898493
000220 a9 52 81 bd 53 d5 30 be 53 a2 11 bd a4 fe ad bd
       -0.06314594 -0.17268877 -0.035555195 -0.084958345
000230 16 be 0b 3d 37 20 ad 3c 8d a4 8c be 3c 0e 5a bd
       0.034116827 0.021133525 -0.27469292 -0.05323623
000240 fb d7 a5 be a6 99 36 bc 69 bf 6d 3b 9f 18 f2 3d
       -0.32391343 -0.011145031 0.003627742 0.11821102
000250 cb 62 a6 3b 62 fe 40 3e 82 3a a3 bd 0e e3 a1 be
       0.005077695 0.1884704 -0.07970144 -0.3161854
000260 b0 12 ba 3d 51 d5 69 be 54 4d 84 be a5 7b d6 3c
       0.090855956 -0.2283528 -0.25840247 0.026182005
000270 21 7c a1 bd 5a f7 27 3d 90 0d dd 3d f9 21 be 3d
       -0.07885004 0.041007377 0.107936025 0.092838235
000280 12 ed 89 bd 1c 23 52 be c4 59 02 3e 11 fb 7f 3c
       -0.06734671 -0.20521206 0.12729555 0.015623824
000290 d6 46 bf bd 4f 3c 00 3e 29 ac fd 3c 3b 68 d2 bd
       -0.09339683 0.12523006 0.030965881 -0.10273787
0002a0 90 f3 43 bd bf e0 2e bd 58 ee 49 be 0d c6 07 be
       -0.0478397 -0.042694803 -0.19719827 -0.13259144
0002b0 2d 39 56 be 72 08 82 3e 4f de 42 be 8a ef f5 bb
       -0.20920248 0.25397068 -0.19030116 -0.007505362
0002c0 5d 53 a6 be 62 59 57 bd aa 03 fe bd e6 fc 65 bc
       -0.32485476 -0.052575476 -0.124030426 -0.0140373465
0002d0 ad 04 d5 be f8 b3 08 be 4a 13 01 3b 86 3b 0a be
       -0.4160513 -0.13349903 0.0019695335 -0.13499269
0002e0 2b ee 9a 39 61 62 de 3d 09 19 95 3c ba 34 d6 bd
       0.00029550618 0.10858608 0.018200414 -0.104592755
0002f0 a1 ca 4b be 71 e7 91 bd 2e d7 11 be 0a be 10 3b
       -0.19901516 -0.07124222 -0.14242241 0.0022085928
000300 9c 3c 59 be db 98 3b 3d c6 82 51 3c 87 2b a3 bd
       -0.21214527 0.04580007 0.0127875265 -0.079672866
000310 1e 21 0a be 89 2c 89 bd 08 0e f3 3d 65 3e 0f be
       -0.13489196 -0.066979475 0.118679106 -0.13988645
000320 94 fe 4a be fd 3b 40 3d cd 83 b6 3e ae ba 2d bd
       -0.19823676 0.04693221 0.3564743 -0.04241436
000330 0d 9a 91 3e 4e ce 06 3e df f4 6c be ab fb a6 bd
       0.28437844 0.13164636 -0.23140286 -0.081534706
000340 7b 12 13 3e 45 f8 33 be 73 82 a2 3a 70 f0 05 be
       0.14362518 -0.17575176 0.0012398496 -0.13080001
000350 35 2a c3 3c 07 61 8d bc 27 96 10 3c 50 f0 18 3c
       0.023823837 -0.01725818 0.008824862 0.009334639
000360 42 c1 20 be bd 89 98 3e 39 33 83 3e d8 c1 79 be
       -0.15698722 0.29792586 0.25625017 -0.24390352
000370 56 f0 bb 3d 14 e2 51 be 8b b2 a5 bd 7e bb a2 be
       0.091767 -0.20496398 -0.08090695 -0.3178367
000380 a6 76 1d ba 77 00 3b bd e5 34 7d 3d a0 dc e3 bb
       -0.00060067547 -0.04565474 0.061818022 -0.006953791
000390 84 14 96 3d d8 ef f8 bd df cc b2 be e5 d9 31 be
       0.07328132 -0.121551216 -0.3492193 -0.17368276
0003a0 20 a8 2b be d5 d2 ac be a9 6c 25 3e a7 9f 18 3e
       -0.16763353 -0.33754602 0.16154732 0.14904653
0003b0 bd 38 bf be 16 48 e2 bd f5 c6 fa 3d 61 af aa be
       -0.37347975 -0.110489056 0.12244979 -0.33336928
0003c0 84 f6 36 be 0b f5 16 bd 62 75 2e be 04 95 ba 3d
       -0.17867476 -0.036854785 -0.17036965 0.09110454
0003d0 5e b1 f9 3c dc 40 a9 bc 19 ff 4c be f9 6a 80 be
       0.030480083 -0.02066081 -0.20019187 -0.25081614
0003e0 5c 9e 2e bd c9 a9 2d be 2d 64 8a 3d 8c 31 ad bd
       -0.042631492 -0.16959299 0.06757388 -0.08456716
0003f0 f0 3c 99 3d 0b 16 ba 3e bd d8 0b 3e b9 2f 3e 3e
       0.07482326 0.36344942 0.13656898 0.18572892

network.2.bias f4 [64]
000000 47 fd 2a be c0 bc e5 bd 8e 22 36 bd b7 e6 24 be
       -0.1669818 -0.11217642 -0.044466548 -0.16103636
000010 e2 0d e8 bd c1 35 aa bd 2f 95 23 be ef 2d 3f 3c
       -0.11330773 -0.08311034 -0.15974878 0.011668666
000020 fc e9 be bd 1c a6 2f be 42 22 ad bd 55 22 a0 bd
       -0.09321973 -0.1715321 -0.084538 -0.07819048
000030 ab c5 b3 bd fa 71 d1 bd 7a 23 c4 bd fd 6f 1f be
       -0.087779365 -0.102268174 -0.09577079 -0.15570064
000040 91 bb 61 bd 90 2a 0a be 5c 99 9b b9 0c 3f 13 bd
       -0.055110518 -0.13492799 -0.00029678165 -0.035948798
000050 4d 40 08 be 26 e6 2b be 87 af c3 bd 3b 02 1e be
       -0.13305779 -0.16787013 -0.095549636 -0.15430538
000060 4f ea 22 be 9c 36 35 bc b6 1e 9d bc 2e 71 a4 bd
       -0.15909694 -0.011060383 -0.019179683 -0.080294
000070 47 67 19 be f1 4a d3 bd 34 03 30 be c6 19 50 be
       -0.14980803 -0.10317028 -0.17188722 -0.20322332
000080 59 f4 82 bd f7 39 39 be f6 55 f3 bd f1 5b a9 3d
       -0.06394262 -0.18088518 -0.1188163 0.082694896
000090 5a 7b bd bd 0f a8 2e be 8b 63 a2 3d 54 61 b6 bd
       -0.09252043 -0.17056297 0.079291426 -0.089052826
0000a0 28 61 6e bc 3a 1e 27 bd 15 f9 fe bd a9 82 a2 be
       -0.014549531 -0.04080031 -0.124498524 -0.3174031
0000b0 d5 7f 07 be 79 54 4b be 97 92 cd bd cf 66 e7 bd
       -0.13232358 -0.19856443 -0.100377254 -0.11298906
0000c0 5c 13 a1 bd cc db 3d bc e2 2a 0c be 8f 28 15 be
       -0.07865021 -0.011588048 -0.13688233 -0.14566253
0000d0 3d a7 02 be e4 b1 e9 bd 24 11 14 be 14 17 a8 bd
       -0.12759109 -0.11410883 -0.14459664 -0.08207527
0000e0 2c c0 ba bd 25 81 34 bd fb d8 1a bd 8b 29 bf bd
       -0.09118685 -0.044068474 -0.037804585 -0.093340956
0000f0 37 e8 c0 bd ab 7f e4 3c 32 c8 87 bd 12 19 8f bd
       -0.094192915 0.027892908 -0.06629981 -0.06987204

network.4.weight f4 [64, 64, 3, 3]
000000 64 76 34 3e 46 e1 d8 3c d7 7e 45 be 8f 1b ce 3e
       0.17623287 0.026474606 -0.19286667 0.402554
000010 a1 35 a2 3e 57 a0 9f bc b7 56 05 be 6d c7 4a bd
       0.3168154 -0.019485636 -0.1302136 -0.049506593
000020 7f 37 24 3e a7 a4 4a 3d ce 3a 05 3e 1a 4a da 3d
       0.16036795 0.04947343 0.13010713 0.10658665
000030 a2 89 27 bd 69 06 a7 3e 96 49 16 3e 26 d4 5a 3e
       -0.04090274 0.32622078 0.14676508 0.2136999
000040 0c cf b7 bd 64 ac 9c be 5f de 7f be b1 15 3b bd
       -0.08975038 -0.30600274 -0.24987172 -0.045674983
000050 32 5b 29 be ab bc 35 be fd 1a c0 3d 8c 0a a1 3d
       -0.16538695 -0.17747752 0.093801476 0.0786334
000060 76 e4 e1 bd da b0 0f be 19 5b a6 3d 3b 84 8a be
       -0.110299036 -0.14032307 0.08122844 -0.2705401
000070 29 62 95 be a5 16 b4 be 41 04 8c bd 10 f3 8c be
       -0.29176453 -0.35173526 -0.06836749 -0.27529192
000080 9b 4a 7d be 33 05 44 3e 15 a2 05 be 1b 13 6b 3d
       -0.24735491 0.19142608 -0.1305011 0.057391267
000090 08 1c 41 be ba b6 1f be 63 f6 78 bd 30 77 04 3c
       -0.1885835 -0.15597048 -0.060781848 0.008085057
0000a0 fa 4b 78 be 7d 3b 1c be 29 e6 c3 bd dd be 4f 3c
       -0.24247733 -0.15257068 -0.09565384 0.012679783
0000b0 5e c2 0c bd 3a de 4c 3e f8 fb 0a be 39 3f 6e be
       -0.03436505 0.20006648 -0.13572681 -0.23266305
0000c0 77 a3 89 3d ff 66 81 bd 6c 5b 0c be 71 53 cf be
       0.067206316 -0.06318473 -0.1370675 -0.40493348
0000d0 3c a2 8c be 86 ad be be df ba bd 3d 07 ab 69 bd
       -0.27467525 -0.37241763 0.092641585 -0.05704787
0000e0 fd d9 bb bd 19 28 86 3e 46 a4 b0 3d e3 3b 63 be
       -0.09172437 0.26202467 0.08625083 -0.22190814
0000f0 cf 5e 15 3d a8 86 26 be 51 d3 76 3e 7d f6 11 bd
       0.03646737 -0.16262305 0.24104048 -0.03563546
000100 45 c1 45 bd 36 7d bd 3e f2 19 02 bd 4a 8e 69 3c
       -0.04828002 0.3700959 -0.031763025 0.014255116
000110 4b e7 96 3e db 7d b0 3e a4 75 7c bd f1 a7 a4 3d
       0.29473338 0.3447102 -0.06163563 0.08039845
000120 1a d6 ae be 0a 4e 0c be fe 75 5b bd 00 44 21 be
       -0.34147722 -0.13701645 -0.053579323 -0.15748596
000130 ae af 73 be 91 24 81 3e 1c 0f 08 3e b1 86 d8 3d
       -0.23797485 0.2522321 0.13287014 0.10572565
000140 66 46 4a be c7 c3 63 bd 8d ba a2 bc 9e 45 6f bc
       -0.19753417 -0.05560663 -0.019864345 -0.014604
000150 46 f8 9b bd 56 ff 05 3e 66 de 42 bc b9 b2 69 3c
       -0.07615714 0.13085684 -0.011893844 0.014263802
000160 ba a4 5f 3d c6 55 48 bc f6 9b 24 3e fc 0c 47 3e
       0.054600455 -0.012227481 0.1607512 0.19438547
000170 18 a5 4b 3e 76 4d 42 be 2f d3 5d 3e 6a a1 20 3e
       0.19887197 -0.18974862 0.21662591 0.15686575
000180 2c 5d cd be 66 39 55 bd 3c 19 d1 bc bd d7 af be
       -0.40110147 -0.052056693 -0.025524728 -0.34344283
000190 67 9e 74 bd a8 76 00 3d 99 a8 ef bc 31 ad cb be
       -0.059721377 0.03136316 -0.029255198 -0.39780572
0001a0 b1 bf 40 3e 7b a3 71 be a5 82 28 3e 1c ec 34 bd
       0.18823124 -0.23597519 0.16456087 -0.044170484
0001b0 e7 66 7c 3c cf e6 30 bd 2f 6c ad ba 1c c1 df 3c
       0.015405393 -0.043188866 -0.0013231094 0.027313761
0001c0 91 1a 32 bc 22 61 b0 3c 3f ec ac bb 30 ed b1 ba
       -0.010870592 0.021530692 -0.005277186 -0.0013574716
0001d0 9a 45 00 ba 13 22 30 3c cd 19 f4 3c e6 b7 89 bc
       -0.0004893184 0.010750311 0.029797459 -0.016811322
0001e0 16 20 3a 3c 7c e5 ed bc 49 7a 4a 3b 87 a3 47 bc
       0.011360189 -0.02904009 0.0030895642 -0.012184984
0001f0 cc 87 2f 3c 78 7c 41 3d 61 fc 0b 3e 19 62 78 3e
       0.010713529 0.047237843 0.13670494 0.24256171
000200 dc 96 a6 3d 94 58 a7 bb 9a e7 85 bd a7 34 8f bd
       0.08134243 -0.005106995 -0.06538315 -0.069924645
000210 52 65 76 bd 23 d2 55 3e b1 6d 8e be 1c af bf 3a
       -0.06015522 0.20880942 -0.27818063 0.001462433
000220 52 34 cb bd d2 d5 14 be 74 ef d7 3d f2 64 2c be
       -0.09922089 -0.14534691 0.10543719 -0.16835383
000230 5d 1f ee bd 5e 2b 3c 3e b0 78 01 be d9 5d d0 be
       -0.11627076 0.18375918 -0.12643695 -0.406966
000240 da 25 66 be 48 9f ed be 80 ed d5 b9 f3 87 9f 3c
       -0.22475377 -0.46410584 -0.00040803477 0.019474005
000250 d7 b1 95 be fb 4a 2d 3e 3e bf bf 3d 4a 0d 4d bd
       -0.29237244 0.16923134 0.093626484 -0.0500615
000260 1d 08 2c 3e bb 57 11 3d c2 3f e2 bd 8b 22 1c be
       0.1679997 0.035484057 -0.11047317 -0.15247552
000270 ae 38 83 3c 67 8a 91 bd c1 2f d8 3d 93 a6 27 bc
       0.016018238 -0.07106476 0.10555983 -0.0102325855
000280 78 3d 76 be 1a 6a cb bc a3 43 23 bd ae 2f 59 be
       -0.24046886 -0.024830867 -0.039859425 -0.21209595
000290 3c 88 85 3b 64 39 1d 3d f1 95 97 bd f8 15 6c bd
       0.0040750783 0.03838481 -0.07401646 -0.05763814
0002a0 d6 e0 74 be 73 38 37 be 3f c4 71 be 0d b1 43 bd
       -0.23913893 -0.17892627 -0.23610018 -0.04777627
0002b0 44 a5 06 bd 64 a3 07 be 9e d5 07 be d8 34 9f be
       -0.032872453 -0.13245922 -0.13265082 -0.31095004
0002c0 59 32 af be 3d 61 9d be 20 1a b0 bd 76 d3 89 3d
       -0.342181 -0.3073825 -0.08598733 0.06729786
0002d0 a0 ed 73 bd c8 f9 8a 3d f8 1a 3e 3d 74 65 cf 3d
       -0.05955279 0.06785923 0.04641244 0.101267725
0002e0 3d 88 a9 3e 7b dc 50 3d 89 d5 8a 3d d3 36 69 3d
       0.33111754 0.050991517 0.0677901 0.05693705
0002f0 2b b8 99 bc c9 26 c6 be 62 16 7b be 03 10 17 3d
       -0.018764576 -0.38701466 -0.24520257 0.036880504
000300 87 04 81 3d 13 f0 08 3d 70 13 ed 3d e1 be 4b be
       0.06299692 0.033432078 0.11575973 -0.19897033
000310 32 63 fb 3c d1 fe 77 3e d0 23 16 3e 9f 95 dc bc
       0.030686948 0.24218298 0.14662099 -0.026926814
000320 e0 48 d2 bd 3d 46 7f bd ed 8a 48 3e 07 9d dd 3d
       -0.10267806 -0.062322844 0.19584246 0.10820966
000330 ba 07 f4 3c 3e 73 50 be 79 b7 a8 bd 39 3e 06 3e
       0.02978884 -0.20356461 -0.0823812 0.13109674
000340 92 45 56 be 0d 38 6c 3d 45 ba 16 bd 2f 42 e7 bd
       -0.20924976 0.05767064 -0.036798734 -0.112919204
000350 47 fa 02 be 13 eb 73 bc f3 78 88 be d6 ac 8d be
       -0.12790786 -0.014887589 -0.26654777 -0.27670926
000360 ff f7 0e 3e 4e cc 67 be 46 a1 27 be c1 55 ad 3c
       0.1396179 -0.2263653 -0.16370115 0.021159055
000370 3b d5 1d 3d c0 9a b2 bd ec 25 50 3d cd 6e c4 3d
       0.03853343 -0.087209225 0.050817415 0.09591446
000380 09 10 49 be 1a f5 76 3d ec ad 37 3c 9b 6f 4d 3e
       -0.19635023 0.06029234 0.0112109 0.20062105
000390 68 e8 ad 3d ce 58 a8 3d cd 5a 37 3e 1c 39 c4 3c
       0.084915936 0.08220063 0.17905731 0.023953013
0003a0 91 d9 80 3d 76 5d 79 3e 8e ab e1 3d b9 ab b5 bd
       0.062914975 0.24352059 0.110190496 -0.08870644
0003b0 d5 8c 6e bc f2 60 00 3e cc 39 c4 bc 2b a3 58 3e
       -0.014559944 0.12536982 -0.023953341 0.21155994
0003c0 bd 52 1e be f2 6d 91 3d dd 72 b4 3d 18 25 ae 3d
       -0.1546125 0.071010485 0.08810971 0.08503169
0003d0 01 37 98 3c 1d 5e ac bd e5 ac 00 3e eb ba 30 3d
       0.018580915 -0.08416388 0.12565954 0.04314701
0003e0 48 05 28 3e 65 e7 66 be 5c 8f fa 3d c9 13 41 3e
       0.16408265 -0.22549208 0.12234375 0.18855204
0003f0 4b bd 58 be 2b a0 69 bb 36 8e 41 be ee 69 08 be
       -0.2116596 -0.0035648446 -0.18901905 -0.13321659

network.4.bias f4 [64]
000000 4f e2 89 bd d2 c4 9b bd 63 16 07 be 70 f5 6b be
       -0.06732618 -0.076059 -0.13192134 -0.23042846
000010 6f 80 80 be 5a 1d 1d be 64 45 c0 bd 19 36 14 be
       -0.25097987 -0.15343228 -0.09388235 -0.14473762
000020 f9 88 33 be eb d3 5d be 06 9f 28 be b5 21 a5 be
       -0.1753272 -0.21662872 -0.16466913 -0.3225228
000030 72 03 1a be 04 aa 10 be 18 79 25 be 32 d6 4e be
       -0.15040377 -0.14127356 -0.16159475 -0.20198897
000040 19 6e 67 be 12 b6 57 be dd cf ce 3c 8f d8 0f be
       -0.22600593 -0.21065548 0.025245601 -0.14047454
000050 bb 28 65 be 96 73 84 bd 05 70 83 bd db a1 81 bd
       -0.22378819 -0.06467359 -0.064178504 -0.063296996
000060 ee 9a 70 bd e4 39 da bd 94 09 13 be 16 83 8f bd
       -0.058741502 -0.10655573 -0.14359123 -0.070074245
000070 8b 0e 30 be 65 3f d5 bd 43 c8 3b be ed a1 3c be
       -0.17193048 -0.10412482 -0.18338113 -0.18421145
000080 a2 21 48 bd 82 f0 b6 bc 0b 21 39 be 40 3c c7 bd
       -0.0488602 -0.02233148 -0.18079011 -0.09728289
000090 39 7e a6 bc c8 44 9e be 3b 8d 75 bd a2 bd 96 bd
       -0.02032386 -0.3091185 -0.05994914 -0.07360388
0000a0 2d fc ff bd 54 ac 54 be a0 40 d7 bd c2 95 09 bd
       -0.124992706 -0.20768863 -0.10510373 -0.033590086
0000b0 78 e3 b7 bd bd 7f f1 bd 47 d9 b1 bd d9 21 33 bd
       -0.08978933 -0.11791942 -0.086840205 -0.04373345
0000c0 e3 05 9d bd 9b 23 00 bd 9a ca 23 be 22 8e c0 bd
       -0.076671384 -0.031283956 -0.15995255 -0.0940211
0000d0 d1 cb e2 bd bf 9b 2e be 2b d1 e6 bd 9b bc 85 bd
       -0.11074031 -0.170516 -0.112703644 -0.06530114
0000e0 1a 78 ae be 68 e9 1c bd e9 46 19 be 1e b4 8b bd
       -0.34076005 -0.03830853 -0.14968456 -0.06821464
0000f0 d0 1f d5 bd d4 60 13 be 25 93 dd bd e3 e3 c4 bd
       -0.104064584 -0.14392406 -0.10819081 -0.096137784

actor.weight f4 [5, 3136]
000000 bf 3a d3 3e 66 ff fd 3c bb 7d 71 3a a4 8a 5a 3d
       0.41255757 0.031005573 0.0009212156 0.053354874
000010 ac f9 ac 3e 92 9b 1a 3e f0 24 a1 bd 14 32 c1 3b
       0.33784235 0.15098408 -0.078683734 0.0058958624
000020 fe be 4a be 6d ac 1c be 08 c4 82 bd c9 f0 5d 3e
       -0.1979942 -0.1530015 -0.06385046 0.21673883
000030 d7 0e 6c 3d 44 04 ce bd a9 35 5d bc 18 15 83 be
       0.05763134 -0.10059407 -0.013501563 -0.2560203
000040 6b c6 4b 3e 1e 5e c2 bd e3 0f b7 bc 93 b4 f8 bd
       0.19899909 -0.09490608 -0.022346443 -0.12143817
000050 d2 5a 6b be 5b 6f 40 be 07 cc 02 3e b4 27 f5 bb
       -0.22983864 -0.18792479 0.12773143 -0.0074815396
000060 a5 6a 4c be ce b9 49 3c 42 9c 0d be 6c 29 fb bc
       -0.19962557 0.012312366 -0.13829139 -0.0306594
000070 5a 1a 9f 3e 73 03 d1 3b e6 1f 85 3d 19 3f 08 bd
       0.31074792 0.006378585 0.06500225 -0.0332633
000080 5c 6f 21 3e 46 59 0c bc 18 aa 99 bd 37 99 d4 bc
       0.15765136 -0.008566206 -0.07503146 -0.025951965
000090 86 3e ba bc 35 d4 8c 3d 1c 39 ee bd ac da f7 3d
       -0.022734892 0.06876413 -0.116319865 0.12102255
0000a0 fa 19 ee bd 32 ec ee 3c 7d 3d e2 ba 67 7a 88 3e
       -0.116260484 0.029165361 -0.0017260757 0.26655886
0000b0 b1 f0 3c 3d b8 66 35 3d 78 7f 66 3e 30 52 a1 3e
       0.04612798 0.044287413 0.22509563 0.31508017
0000c0 44 81 20 3e 87 f2 c6 bd 4c 23 10 be 37 a5 85 3d
       0.15674311 -0.09714227 -0.14075965 0.06525653
0000d0 ef 54 3f 3e f1 ac b2 bd ac 55 69 bd 8b 18 81 bd
       0.18684743 -0.08724392 -0.05696647 -0.06303509
0000e0 34 af 7a bd 14 e2 70 3e eb eb b7 be 33 be cd bd
       -0.061202243 0.23523742 -0.3592218 -0.10046043
0000f0 b9 49 ad 3d ee cc 92 3e 6a de 6d 3e 76 28 bc bd
       0.08461327 0.28671974 0.23229375 -0.09187405
000100 52 00 3d bd a1 c4 81 3e 63 ae a2 3e cd 5b 47 3e
       -0.046142884 0.25345328 0.31773672 0.19468613
000110 19 df 36 3e 09 1b 5c bd e7 be 3f bb 85 0c cb 3d
       0.17858543 -0.05373672 -0.0029258074 0.09914497
000120 ee 9f 4f 3d 8e 78 83 be ca 89 59 bc 69 d7 86 3e
       0.05068963 -0.25677913 -0.01327748 0.2633622
000130 d1 9c 2e 3e 3f 37 b9 3d 51 1a 31 be 5d 2c a5 3d
       0.17052008 0.090437405 -0.17295195 0.08065102
000140 1e 18 ab bc 9f c4 bf bc 5b 5d 27 3e 7b 65 1b 3e
       -0.020885523 -0.023409186 0.16344206 0.1517543
000150 ab 82 40 3e 9c 8e 6a 3d 4f d4 92 3e 6a a2 20 be
       0.18799846 0.05726491 0.28677604 -0.15686956
000160 45 8d c0 3d 6b 62 4f 3d 34 c7 17 be cd ea 83 bd
       0.09401945 0.050630968 -0.14822084 -0.06441269
000170 04 a1 26 3d ad a8 22 3e ff d5 f7 3c d9 1d 1b be
       0.0406809 0.15884657 0.030253408 -0.15148105
000180 0a df 7c 3e f0 09 94 bd 3f 2a 08 3e e2 c5 99 bc
       0.24694458 -0.07228458 0.13297366 -0.018771116
000190 c9 4d e4 bd 48 dd 1b be 72 19 76 bd 50 a5 55 3e
       -0.11147649 -0.15221131 -0.06008286 0.20863843
0001a0 10 b7 60 3e af 1e c4 3d c0 41 96 bd 97 92 74 bd
       0.21944833 0.09576165 -0.073367596 -0.05971011
0001b0 91 d6 03 bf 54 fc 59 3d ff 85 31 3d 15 df ab bd
       -0.5149928 0.053219154 0.04334068 -0.08392159
0001c0 fe 73 d6 bd 86 b5 e2 3d f2 7d 68 3e 87 34 98 be
       -0.104713425 0.11069779 0.22704294 -0.29727575
0001d0 9e 0a 4a 3e 5a cb db bc 8a a7 0f bd 43 45 bb bd
       0.19730613 -0.026830364 -0.035071887 -0.0914407
0001e0 b2 04 90 be 84 af 8b 3e 59 b0 21 3e 20 cb 27 3e
       -0.28128582 0.27282345 0.15789928 0.1638608
0001f0 56 3d d5 3d e5 41 cc 3d f3 b3 22 3e c9 c3 c5 bd
       0.104120895 0.09973506 0.15888958 -0.09656484
000200 35 26 8b 3d f1 fc b8 3d 6c 20 00 3e a8 a9 b7 3d
       0.06794397 0.0903262 0.12512368 0.08967906
000210 17 3d b7 bd c9 f4 31 3e 3e da 34 be 44 f3 0d 3d
       -0.08947199 0.17378534 -0.17661378 0.034655824
000220 ad d0 25 be e6 9d f8 bc dc 3b 0a 3e c9 6f 9f bd
       -0.16192885 -0.03034873 0.13499397 -0.07784993
000230 e7 b3 f0 3c 6b c2 17 be 9f 64 73 3e 6e d5 40 3e
       0.02938266 -0.14820258 0.23768853 0.18831417
000240 a1 98 20 3e 7f 41 2c 3e 61 e0 1a be 45 d9 ac bc
       0.15683223 0.1682186 -0.15124656 -0.021099696
000250 e6 60 10 3e 83 56 1c 3d 23 7c 04 3f 7f 4f 8e bd
       0.14099464 0.03816844 0.5175192 -0.069487564
000260 10 58 d1 3d c5 dc 3f bd e8 34 b5 3c 94 90 24 be
       0.10221875 -0.0468414 0.022119954 -0.16070777
000270 43 f6 a6 bd b1 ce a2 3e fc 09 a6 3d 89 54 2b bd
       -0.081524394 0.31798318 0.08107373 -0.041828666
000280 d5 35 a4 be c3 2a 0e be af 36 15 be d9 d4 cb 3d
       -0.3207232 -0.138835 -0.14571641 0.09952707
000290 cb 96 42 3e 93 16 18 3e 6a 76 3b be 77 6c 04 3d
       0.19002835 0.14852361 -0.1830689 0.032330003
0002a0 88 6f 0b be b6 78 11 3d 69 90 eb 3d 5f 3c d4 bd
       -0.13616765 0.03551551 0.115021534 -0.10363077
0002b0 80 d9 08 3d f1 f2 7a 3e 16 e8 1d 3e c7 5f 1a be
       0.03341055 0.24506737 0.15420565 -0.15075599
0002c0 81 d1 c8 bd 97 8c 41 3e f3 53 c7 bd 76 18 17 be
       -0.09805585 0.18901287 -0.09732809 -0.14755425
0002d0 c9 3c 54 bd 2e 81 00 3e e3 84 c5 3d 0f 9b 7c 3d
       -0.05181578 0.12549278 0.09644487 0.061671313
0002e0 09 0c db bd 80 75 40 3e 3f 93 89 be 15 cb 95 bd
       -0.10695655 0.18794823 -0.26870152 -0.073141254
0002f0 d9 37 8f 3d 24 a4 9e 3d e1 2f e0 bd 22 7d 82 3d
       0.06993074 0.07746151 -0.10946632 0.063715234
000300 d6 11 4d 3e 46 9e 1a be fe 00 e4 be 37 4c b2 bd
       0.20026335 -0.15099439 -0.44532007 -0.08705943
000310 ae 5c 50 3d 47 74 f6 bd 81 85 4b 3e 7b db e3 bb
       0.050869636 -0.12033897 0.19875146 -0.0069536543
000320 29 18 03 bb 56 99 fa 3d ab 5a 9f 3d c4 3e c5 bd
       -0.0020003414 0.12236278 0.077809654 -0.09631112
000330 c3 54 d6 bd d0 5b 96 bc fa ef d4 be 26 27 4a 3d
       -0.10465386 -0.018354326 -0.41589338 0.04935374
000340 71 47 e2 3d 8d 9e 43 3c 58 83 2e be 72 20 17 be
       0.110487826 0.011939657 -0.17042291 -0.1475847
000350 2c 1e 65 3e 7c 25 ac 3e 49 39 af be 2a ca d2 3d
       0.22374791 0.33622348 -0.34223393 0.10292466
000360 58 5d 1a 3e 75 34 99 3b 8f 72 8c 3e 7a c7 25 be
       0.1507467 0.004675443 0.2743115 -0.16189376
000370 ef 15 67 3e a1 19 e2 3c d5 13 8e 3d ff 70 3d bd
       0.22566961 0.027600111 0.069373764 -0.04625034
000380 0d d5 9a 3e 21 8e 7d 3e a1 bb 22 3e c9 6b ec 3d
       0.3024067 0.24761249 0.15891887 0.11543996
000390 22 cc 87 bd ff ed bb 3d fc 19 34 3d f5 25 5e 3d
       -0.06630732 0.091762535 0.043970093 0.054235417
0003a0 f5 f8 e3 3d 81 b5 4b be 5d df c9 3c 9c 0b f0 bd
       0.11131469 -0.19893457 0.02464264 -0.11720964
0003b0 98 98 93 3c 76 40 4f 3d d9 f4 b1 3a 44 06 f2 3d
       0.018017098 0.050598584 0.0013576999 0.11817601
0003c0 95 a2 c6 3d 85 8f f0 3d 0d a6 fb 3d 83 03 71 3d
       0.09698979 0.11746124 0.12287531 0.05884124
0003d0 df a1 cb bd d6 33 c1 3e a7 5f 83 bd 59 99 1a bd
       -0.09942984 0.3773486 -0.064147286 -0.0377439
0003e0 3b 0d bc 3d 8f 51 cd 3c 0e a5 f1 3d cb f9 42 3e
       0.09182211 0.025063304 0.1179906 0.19040601
0003f0 4d bf 02 be 0e 66 0a bd 9b ba c5 3d 7b fb 63 3e
       -0.12768288 -0.033788733 0.09654733 0.22263901

actor.bias f4 [5]
000000 7b a1 71 3c 5c 71 b1 bc 07 e7 d2 bd af d1 c8 3d
       0.014747973 -0.0216605 -0.10297971 0.09805619
000010 83 d6 65 3d
       0.056112777

critic.weight f4 [1, 3136]
000000 a7 14 f3 bd 56 18 3f 3d 99 37 94 3e 55 c5 67 3b
       -0.118691735 0.046654068 0.28948668 0.0035365422
000010 5c 3c 24 be 85 9e cd 3c 68 5a 1b 3e 3d 7b a6 3d
       -0.1603865 0.025100002 0.15171206 0.081289746
000020 bc 6e 6b 3e 20 31 28 be aa 08 fb bd b3 e2 84 bd
       0.2299146 -0.1642499 -0.12257512 -0.06488552
000030 4b 54 72 3e 88 38 17 3d 71 d9 2f be 01 a8 0b be
       0.23664968 0.036919147 -0.17172791 -0.13638307
000040 a4 3e 6f bd 4b f6 dd ba 5c f3 fd bc 07 f5 9d b9
       -0.058409348 -0.0016934363 -0.030999832 -0.00030127933
000050 bf ec 68 bd 00 7a bd bd d5 91 ca be 7a b7 6d 3e
       -0.056866404 -0.09251785 -0.39564386 0.23214522
000060 45 e8 45 bd bc d6 3f be b1 51 b2 bd df fb 48 be
       -0.048317213 -0.18734258 -0.08706988 -0.19627331
000070 96 34 d5 bd b6 b1 8f 3e 40 cc d5 3e 40 50 b7 3d
       -0.104104206 0.2806527 0.41757393 0.08950853
000080 03 96 f8 3c bc f6 65 bd cc ad 83 bd 46 eb d1 3a
       0.030344969 -0.056143507 -0.064296335 0.0016015552
000090 90 aa 8c bc 53 31 ff bc 73 25 32 be d7 39 3c be
       -0.017171174 -0.03115145 -0.17397098 -0.18381439
0000a0 00 97 ea bd ec f6 2f be ef ed 0f be dd ec 36 be
       -0.11454582 -0.17184037 -0.14055608 -0.17863794
0000b0 f0 67 09 be b5 6a 21 bb d2 01 70 bc 54 d3 14 be
       -0.13418555 -0.0024630253 -0.0146488715 -0.1453374
0000c0 d3 0d d4 3c b6 23 24 3e 1f 28 9c be c7 c4 84 3a
       0.025885498 0.16029248 -0.3049936 0.0010129445
0000d0 8a 93 a9 3d a4 27 d9 3d 79 be 01 3d be 57 10 3d
       0.08280094 0.10603264 0.03167579 0.035239927
0000e0 6c 5e 8a bd b1 9d 86 be 01 b2 3b 3d fa 33 92 be
       -0.06756291 -0.26292184 0.045824055 -0.2855528
0000f0 a2 84 4e bd 4b 51 05 be b3 25 0d 3c 3f 86 f9 3c
       -0.050419457 -0.13019292 0.008614945 0.030459521
000100 89 5b 0c 3d ea e8 16 be c2 9d 58 be bb 6b f8 bd
       0.034266982 -0.14737287 -0.2115393 -0.12129923
000110 fc 6e e5 bd 39 b4 9f 3e d8 01 f1 bd d1 74 44 be
       -0.11202809 0.31192186 -0.1176793 -0.19185187
000120 52 5e f5 3d cd e1 97 3d 3f ee 1c 3e aa 1c 12 bd
       0.11980881 0.07416115 0.15325259 -0.035671867
000130 92 17 4a be 50 a0 8a 3d d8 58 f2 bd f7 3c 14 3b
       -0.19735554 0.067688584 -0.11833352 0.0022619346
000140 07 c1 1d be c0 74 61 3e 57 c5 1d 3e b7 40 8f bd
       -0.15405665 0.22017193 0.1540731 -0.06994765
000150 da fd 06 be ff b9 9a 3d e7 21 6f 3e 38 63 61 be
       -0.13182774 0.07555007 0.23352776 -0.22010505
000160 77 6c 8f 3c d8 f7 3c be f4 54 71 3e 8b 6a 3d be
       0.017507775 -0.1845392 0.23567563 -0.18497674
000170 cd 82 2a 3e dc b3 90 bd 18 01 2c be db 6d 9a 3e
       0.16651459 -0.070655555 -0.16797292 0.30161938
000180 e4 bb ef be 40 6a 0a be a5 ae a6 3e a4 6e 1c be
       -0.46823037 -0.13517094 0.32555118 -0.15276581
000190 09 dd 7e be 61 54 2f bd ce e2 be be 7a f2 ea 3c
       -0.24889006 -0.04280508 -0.37282413 0.028680075
0001a0 cb 35 cb 3d 43 cb 45 3e 46 f4 55 3e 21 67 c3 bb
       0.099223696 0.1931582 0.20893964 -0.0059632217
0001b0 bc 69 f0 3d 90 99 c3 bc 5f 11 1b 3d 9b e1 6c bd
       0.11738917 -0.023876935 0.037858363 -0.05783234
0001c0 a5 7c 27 be cc 16 ef 3d 66 52 e5 bd cb e2 74 3e
       -0.16356142 0.1167427 -0.11197357 0.2391464
0001d0 f5 70 6f 3d e2 2e 54 3e 96 8c 9b 3c dd 91 df bb
       0.058457334 0.2072101 0.018987935 -0.006822808
0001e0 24 4e 73 3d 11 17 7b 3e 95 80 a7 3d 7c 54 2f bd
       0.059400693 0.24520518 0.08178822 -0.04280518
0001f0 c2 84 ca 3d 0e 2a c9 3e e6 82 91 3d 08 70 99 3d
       0.09888603 0.39289898 0.07105045 0.074920714
000200 3c f7 7d 3e 35 69 54 3e 1e 51 93 bd a2 b9 99 be
       0.24801344 0.20743258 -0.07193206 -0.3002444
000210 72 f1 8e be e6 e8 79 3d bf b5 79 be a4 bb 59 be
       -0.27918583 0.061013125 -0.24385737 -0.21262985
000220 11 e2 7c be 6a 3e b2 bb f4 23 8a 3e f1 4d 11 3e
       -0.24695612 -0.0054395692 0.26980555 0.14189889
000230 6e fd 89 3e 25 72 cf 3d a7 c7 8c 3e f7 cc 3a bd
       0.26951164 0.10129193 0.27496073 -0.045605626
000240 00 3c 9a bd aa 6c b7 be 5e 79 d9 3d 93 d0 a4 3c
       -0.07530975 -0.35825092 0.10618852 0.020118987
000250 0c 79 e1 bc 85 e2 4b 3d 00 94 08 be 11 fc f3 bd
       -0.02752354 0.049776573 -0.13337708 -0.11913312
000260 52 f1 d1 3d 3f 7c ed bd 5c 11 04 3d 78 b5 57 bc
       0.10251106 -0.11595964 0.032243118 -0.013165824
000270 bd d2 25 be c1 70 2f bd 8e f8 fd 3c 79 53 e9 3d
       -0.16193672 -0.04283214 0.03100231 0.11392874
000280 28 15 8a 3e ec 48 8b 3e cd 6d ad 3e 14 69 08 3e
       0.26969266 0.27204072 0.33872834 0.13321334
000290 69 07 a0 be 51 06 a6 3d d0 62 e1 3d ee 44 9e be
       -0.31255654 0.081066735 0.11005175 -0.30911964
0002a0 ee ba 07 bd 5f a0 9a bd cc 43 17 be 87 14 6b 3e
       -0.033137254 -0.075501196 -0.14771956 0.2295705
0002b0 79 8b 66 3e a5 75 91 3d 25 6b 30 be 38 22 8c 3e
       0.22514142 0.07102517 -0.17228372 0.27369857
0002c0 51 04 e8 3d fc dc 40 be 25 34 b7 3d 5e ba 8d bd
       0.11328948 -0.18834299 0.08945493 -0.06920312
0002d0 a3 43 7e 3c c5 2a 95 3e 45 c8 03 bc 3e f4 9e bd
       0.015519056 0.29134193 -0.008043353 -0.07761429
0002e0 bf d2 02 be cc b5 78 bc 19 1a 8a 3e f7 47 3c bd
       -0.12775706 -0.0151800625 0.26973036 -0.04596707
0002f0 da d1 92 be 4b 1d 64 3e 71 90 b9 bd 6a fc 11 3e
       -0.2867573 0.222768 -0.09060753 0.14256445
000300 f0 c9 c4 3e 78 7f 4f 3e b6 1c 45 3e 96 0a 2c 3e
       0.38435316 0.20263469 0.19249234 0.16800913
000310 b8 08 93 3e 7f 73 df bc 08 9e b2 be 58 81 9c 3d
       0.2871759 -0.027276753 -0.34886193 0.07641858
000320 36 06 eb 3d 18 04 28 be 8d 57 3d be 51 2b 62 bc
       0.11475794 -0.16407812 -0.18490429 -0.013804273
000330 9e d1 9e 3e c4 ea f8 bd 3a c5 17 3e d6 8b a8 3d
       0.310193 -0.12154153 0.1482133 0.082297966
000340 4a 41 e5 bd 7d bf 1b be 96 45 b7 3b e8 ea 9f bd
       -0.111940935 -0.15209766 0.005593012 -0.07808477
000350 55 e7 66 3e 8a 96 5d 3c 0f 2a 54 3e 0f 0c d1 3d
       0.22549184 0.013524661 0.20719169 0.10207378
000360 6d f0 9d bd 31 04 9e 3e 4e 34 4d 3e 60 88 dd 3d
       -0.07711873 0.30862573 0.20039484 0.10817027
000370 d0 16 83 3c b6 32 48 3d 73 27 ad 3d 8f f8 43 3e
       0.016002089 0.048876487 0.0845479 0.19137786
000380 47 18 bc bd e0 cc a6 3d 5c 3f 8c bd 3f c5 eb bd
       -0.09184318 0.081445456 -0.06848022 -0.11512231
000390 c0 de 8b 3d b3 9f c5 bd fd 19 77 bd 62 67 55 bd
       0.068295956 -0.09649601 -0.06032752 -0.052100547
0003a0 fb 84 3e 3e c4 01 fc bd 78 a0 1c 3c 6f 0a 2d bc
       0.18605416 -0.12305024 0.009559743 -0.01056157
0003b0 18 7e 4f bc c5 93 3a bd 6c 6b f1 bd 5f 26 e6 bd
       -0.01266434 -0.04555108 -0.11788067 -0.112377875
0003c0 29 99 e4 bd 67 0f 17 3d 8e 7f 3b 3e df 09 9b bc
       -0.111620255 0.036879923 0.18310377 -0.018925605
0003d0 97 58 59 3e 88 21 85 be 9b 18 40 3b 9c ff 10 be
       0.212252 -0.26002145 0.002931154 -0.14160007
0003e0 d9 0c f2 bd 0b bd 01 be 72 76 7a 3c 7f 5c 55 3b
       -0.11818857 -0.1266977 0.015287029 0.0032556353
0003f0 f8 82 34 3e fe 08 62 bc a5 fa d9 bc 63 c0 df 3d
       0.17628086 -0.013796089 -0.026608774 0.10925367
