PARALLEL/models/HIDER_GROUP_POLICY_BOTH_4200.ckpt (torch, 307166 bytes, 9 tensors)

network.0.weight f4 [32, 5, 3, 3]
0	0xbe5c5f9e	-0.2152085
1	0x3e078674	0.13234884
2	0xbcc7b416	-0.024377864
3	0xbd9282fa	-0.07153888
4	0xbf304cd6	-0.6886724
5	0xbea1568d	-0.31511346
6	0x3d1a785b	0.037712436
7	0xbe8c10ea	-0.27356654
8	0xbe5006c8	-0.20315087
9	0xbe9d6583	-0.3074151
10	0xbeb69b0b	-0.35665163
11	0xbf50692d	-0.81410486
12	0xbdff17f0	-0.124557376
13	0xbf29f1d1	-0.6638461
14	0xbf150bf3	-0.5822136
15	0xbdc6f1a5	-0.09714059
16	0xbf5c47fa	-0.8604733
17	0xbe8ac6e8	-0.27104878
18	0xbe1b43a4	-0.15162522
19	0x3f1de6ac	0.616801
20	0x3e89ea0e	0.26936382
21	0xbf04a23a	-0.5181004
22	0x3d03ebc1	0.032207254
23	0x3ddb61cf	0.10712015
24	0xbce2bdd6	-0.027678411
25	0x3f2f61ad	0.68508416
26	0x3edff516	0.43741673
27	0x3e388e95	0.1802314
28	0x3db17f38	0.08666843
29	0xbde7ac68	-0.11312181
30	0xbd68eec8	-0.056868345
31	0x3e016096	0.12634501
32	0x3ea7f158	0.32801318
33	0xbeb69dd1	-0.3566728
34	0x3e645f57	0.22301994
35	0x3ec450b6	0.38342828
36	0xbc1cd59a	-0.009572411
37	0x3e1b596d	0.15170832
38	0xbdb395d0	-0.08768809
39	0xbea87050	-0.32898188
40	0xbdc3b27e	-0.09555529
41	0x3dd6cad0	0.10487902
42	0xbe8ec86c	-0.27887285
43	0xbe1fd74c	-0.15609473
44	0xbdfe5e46	-0.12420325
45	0xbdde9f6a	-0.108702496
46	0x3e48698f	0.19571517
47	0xbeafeae8	-0.34358907
48	0xbe0efb87	-0.13963138
49	0xbd576516	-0.052586637
50	0xbec51ae9	-0.38497093
51	0xbe8486c1	-0.2588406
52	0x3e53ba97	0.20676647
53	0xbea3a1a1	-0.3195925
54	0x3d28661e	0.04111301
55	0xbf1321b7	-0.5747332
56	0xbf2fb23b	-0.68631333
57	0xbdfc0bfe	-0.12306975
58	0xbec62552	-0.38700348
59	0xbc3a93e9	-0.011387804
60	0x3eb53d27	0.35398218
61	0xbf367e7b	-0.71286744
62	0xbce96d1b	-0.028494408
63	0xbf04f841	-0.51941305
64	0x3c5d184a	0.0134945605
65	0xbdbc6760	-0.09199405
66	0x3e9b4fbc	0.3033427
67	0xbde96783	-0.113966964
68	0x3ec32ce3	0.38120183
69	0x3ea4a191	0.32154515
70	0x3df62ab7	0.12019866
71	0x3d93ec17	0.07222765
72	0xbeba21b1	-0.3635383
73	0x3eec6e58	0.46177936
74	0xbddd2a0c	-0.107990354
75	0x3ec9e22f	0.39430377
76	0x3ece9697	0.40349266
77	0x3daa2da9	0.0830949
78	0x3f0712ea	0.52763236
79	0xbefb1412	-0.4903875
80	0x3ef4b994	0.47797835
81	0xbef6c9ae	-0.48200744
82	0xbe5906e0	-0.21194029
83	0xbf90e151	-1.1318761
84	0xbdbe66db	-0.09296962
85	0x3d0a6a79	0.033792946
86	0x3ee05471	0.43814424
87	0xbd21d84b	-0.039512914
88	0xbe063372	-0.13105562
89	0xbe5bde26	-0.21471462
90	0xbea7ca43	-0.327715
91	0xbf24fa52	-0.6444446
92	0xbe2868c3	-0.16446213
93	0x3d038779	0.03211162
94	0x3b04138d	0.0020153255
95	0x3d8a9bff	0.06768035
96	0xbeee676a	-0.46563274
97	0xbe7c7ae6	-0.24656257
98	0xbdb01aff	-0.08598899
99	0xbe2c4517	-0.1682323
100	0x3d688fbe	0.05677771
101	0x3ec2e723	0.38066968
102	0x3d0a5bd7	0.03377899
103	0xbea667c5	-0.32501045
104	0xbe2a8a75	-0.1665438
105	0xbe30875a	-0.17239133
106	0xbe8bd6ae	-0.27312225
107	0x3e249f05	0.16076286
108	0x3e9e9ca1	0.30978873
109	0xbb6e5195	-0.0036364545
110	0xbe79b1cb	-0.24384229
111	0xbdce8260	-0.10083461
112	0x3ed1a82c	0.40948617
113	0xbdf601f3	-0.120120905
114	0x3dfed788	0.12443453
115	0xbefbdaa4	-0.49190247
116	0xbe365af7	-0.17808138
117	0xbe80773f	-0.25090978
118	0x3d95613d	0.07293937
119	0x3ee6e15c	0.4509381
120	0x3d83fbb0	0.0644449
121	0xbd9ff846	-0.07811026
122	0xbe493e0b	-0.19652574
123	0xbe2a9aa0	-0.16660547
124	0x3e6002a2	0.21876004
125	0x3e336ec6	0.17522725
126	0x3e68c38c	0.22730845
127	0x3f13e9ce	0.5777863
128	0xbf187166	-0.5954803
129	0xbef6c58d	-0.48197594
130	0xbec71998	-0.38886714
131	0x3d9af62d	0.075664856
132	0x3d8b2629	0.06794388
133	0xbe355af2	-0.17710474
134	0x3ebb32c3	0.36562166
135	0xbde85d45	-0.11345915
136	0xbe71934a	-0.23591343
137	0xbdc81347	-0.09769302
138	0xbe70eb6c	-0.23527306
139	0xbe6ed5cc	-0.23323745
140	0xbeb0c1dc	-0.34522903
141	0xbdddd959	-0.108324714
142	0xbe00cb02	-0.12577441
143	0xbebe905a	-0.37219507
144	0xbf226584	-0.6343615
145	0xbeeb658a	-0.45975906
146	0xbef1ddc4	-0.47239506
147	0xbea538a4	-0.32269776
148	0xbf4e252d	-0.80525476
149	0xbe3cc11b	-0.18433039
150	0xbdf8c807	-0.12147527
151	0xbe8764ab	-0.2644399
152	0xbf617393	-0.8806698
153	0x3cc6f1b4	0.024285175
154	0x3cf4efba	0.029899467
155	0x3eeb50c9	0.45960072
156	0xbc95ba85	-0.018277416
157	0x3f1a0fb3	0.60180205
158	0xbe6198e4	-0.2203098
159	0x3eb80f4e	0.35949177
160	0xbe89af1e	-0.26891416
161	0xbe6e1d74	-0.23253423
162	0x3e0918bb	0.1338834
163	0x3e9aa953	0.3020731
164	0x3ec62879	0.38702753
165	0x3ea1ca18	0.31599498
166	0x3d8c8975	0.06862155
167	0xbd4f4656	-0.050604187
168	0xbd232d0a	-0.039837874
169	0xbc878ef4	-0.016547658
170	0x3e8507e0	0.2598257
171	0xbe34b222	-0.17646077
172	0x3e60cff3	0.21954326
173	0xbea80d4f	-0.32822654
174	0xbf0729e9	-0.52798325
175	0xbebeabbc	-0.37240398
176	0x3e1eae60	0.15496206
177	0xbebf484e	-0.37359852
178	0x3e6d15a5	0.23152788
179	0x3d915a44	0.07097295
180	0x3d21f921	0.03954423
181	0xbd9dfaf2	-0.0771388
182	0xbe2af008	-0.16693127
183	0xbe395aac	-0.18100995
184	0xbdf0cb44	-0.1175752
185	0xbe2211d6	-0.15827116
186	0xbd3e0bb7	-0.04639789
187	0xbe570a9c	-0.21000141
188	0x3e062bca	0.13102642
189	0xbe02264a	-0.12709919
190	0x3ccf0f47	0.02527584
191	0xbe8fe636	-0.28105325
192	0xbe931e57	-0.28734085
193	0x3efd39c0	0.49458122
194	0x3e726b1b	0.2367367
195	0x3ee6f0ee	0.4510569
196	0x3f211c3c	0.6293371
197	0x3e3d8e99	0.18511428
198	0x3f2112ac	0.62919116
199	0x3e0e7a34	0.13913804
200	0x3d8f7327	0.070043854
201	0x3d504143	0.05084349
202	0xbf4a7cd5	-0.7909673
203	0xbdd05280	-0.101719856
204	0xbe37a4b4	-0.17933923
205	0x3ee567a5	0.44805637
206	0x3a9674da	0.0011478916
207	0x3edd5774	0.43230784
208	0x3e974795	0.295468
209	0xbe1f0619	-0.1552967
210	0x3e5382fa	0.20655432
211	0xbe3da371	-0.18519379
212	0xbe2292e3	-0.15876345
213	0xbe8733c5	-0.26406685
214	0x3ee48f71	0.44640687
215	0xbe880f32	-0.26574093
216	0x3e088a76	0.13334069
217	0xbcc7334d	-0.024316454
218	0xbf1b02a4	-0.60550904
219	0x3eeea8a0	0.46613026
220	0x3dd4b5ac	0.10386214
221	0x3e131959	0.14365138
222	0x3d3bfd7c	0.04589604
223	0x3d82c06f	0.0638436
224	0xbe24759e	-0.16060492
225	0x3df06e27	0.1173976
226	0xbeb96c80	-0.3621559
227	0x3e5ef3ba	0.21772662
228	0xbecf78fa	-0.40521985
229	0xbe12892e	-0.14310142
230	0xbeb1ebf3	-0.34750327
231	0xbdba9dd2	-0.09112133
232	0xbe0e16b8	-0.13875854
233	0x3de4110d	0.11136065
234	0xbd01afbd	-0.031661738
235	0x3f30a79f	0.6900577
236	0x3e86193e	0.26191133
237	0xbe44c7a7	-0.19216786
238	0xbe53d922	-0.20688298
239	0x3e936f1a	0.287957
240	0x3eb6a7d4	0.35674918
241	0x3c152e45	0.00910527
242	0xbeb080a3	-0.34473142
243	0x3ef30dcf	0.47471473
244	0xbe2ae63a	-0.16689387
245	0xbd8800e8	-0.06640798
246	0xbe5b08ae	-0.2139003
247	0xbe97cca5	-0.2964832
248	0xbb973362	-0.0046142796
249	0xbea5ba02	-0.32368475
250	0xbe0e7321	-0.13911106
251	0x3d30fb56	0.043208443
252	0xbe8f91ac	-0.28040826
253	0xba3dc2cd	-0.00072388054
254	0xbed1e1e5	-0.40992656
255	0xbed55025	-0.41662708

network.0.bias f4 [32]
0	0xbed73c9e	-0.42038435
1	0xbeef9a46	-0.4679739
2	0xbf0592f1	-0.5217734
3	0xbeee2240	-0.46510506
4	0xbeb87ebc	-0.3603419
5	0xbe327ce3	-0.17430453
6	0xbe5f3099	-0.21795882
7	0xbec00c3f	-0.37509343
8	0xbe7d81e3	-0.24756579
9	0xbed374bc	-0.413
10	0xbe75aa5b	-0.23990767
11	0xbee5bc84	-0.44870389
12	0xbf2a3003	-0.6647951
13	0xbeb59265	-0.35463253
14	0xbefb9a32	-0.4914108
15	0xbeeeb950	-0.46625757
16	0xbeec48ba	-0.46149236
17	0xbe65513e	-0.22394273
18	0xbe7c6f82	-0.24651912
19	0x3eb052ff	0.3443832
20	0xbe8b9105	-0.2725908
21	0xbe674b32	-0.22587278
22	0xbd9700a0	-0.07373166
23	0xbc25b0b4	-0.01011293
24	0xbe094d65	-0.1340843
25	0xbe8c1404	-0.2735902
26	0xbed793cb	-0.42104945
27	0xbd28015f	-0.041016933
28	0xbcefe396	-0.029283326
29	0xbed12fbd	-0.40856734
30	0xbf2e3125	-0.6804374
31	0xbeafb674	-0.34318888

network.2.weight f4 [64, 32, 3, 3]
0	0xbeb06c45	-0.34457603
1	0xbe355c66	-0.17711028
2	0xbf05fa9a	-0.5233551
3	0xbe332f85	-0.17498596
4	0xbe9e2567	-0.3088791
5	0x3e9b7f51	0.30370572
6	0x3d02cf4a	0.031935968
7	0x3e9930de	0.29920095
8	0xbd824432	-0.063606635
9	0xbeac3da4	-0.33640778
10	0x3ebe5faf	0.37182376
11	0xbc99ad98	-0.018759534
12	0x3de6203a	0.112366155
13	0x3de438b6	0.11143629
14	0x3d226d60	0.03965509
15	0x3e5be12e	0.21472618
16	0x3e97183e	0.29510683
17	0xbea4db1c	-0.32198417
18	0xbefdb081	-0.49548724
19	0x3dd34fdd	0.10317967
20	0xbdff6c0b	-0.124717794
21	0x3d5bf015	0.053695757
22	0xbeba01f8	-0.36329627
23	0xbdd329d2	-0.10310711
24	0xbf0cf02f	-0.5505399
25	0xbe0e1126	-0.13873729
26	0xbf3e3111	-0.7429362
27	0xbc890f18	-0.01673083
28	0xbd804786	-0.06263642
29	0xbf1d69b8	-0.6148944
30	0x3d94bcc3	0.07262566
31	0xbe90455a	-0.2817791
32	0x3e73f894	0.23825294
33	0x3c8c85a8	0.017153576
34	0xbea77936	-0.32709664
35	0xbf26ec72	-0.65204537
36	0x3df50859	0.11964483
37	0xbda65333	-0.08121338
38	0x3e9a797f	0.3017082
39	0xbe25e459	-0.16200389
40	0xbd74ee4e	-0.059797578
41	0x3bb69e86	0.0055730967
42	0xbe24bb37	-0.16087042
43	0xbeadee81	-0.33971027
44	0x3c0ec83e	0.008714734
45	0x3f0eb812	0.5574962
46	0xbdde4b56	-0.10854213
47	0xbe35649c	-0.1771416
48	0x3f1677fd	0.5877684
49	0xbf62cdea	-0.8859545
50	0xbe38e961	-0.18057777
51	0x3e56c455	0.20973332
52	0x3deb8587	0.11500078
53	0x3e9bebd0	0.30453348
54	0x3d80d799	0.06291122
55	0xbc9b54b0	-0.01896128
56	0xbf060fc6	-0.5236782
57	0xbea91cb4	-0.3302971
58	0xbed4574f	-0.4147286
59	0xbdd14679	-0.1021852
60	0xbe2efa13	-0.17087583
61	0x3e5f2fb2	0.21795538
62	0x3e4b2344	0.19837672
63	0x3cbb6d17	0.022879167
64	0x3ea33032	0.31872708
65	0xb9b36de8	-0.00034223427
66	0xbdfa2029	-0.12213165
67	0xbcf4cd97	-0.02988319
68	0xbed94d10	-0.42441607
69	0x3dcb924e	0.09940015
70	0x3e6be1a0	0.23035288
71	0xbe9a4c73	-0.3013645
72	0xbe188c1c	-0.14897197
73	0x3e94bfff	0.2905273
74	0x3e70a24a	0.23499408
75	0xbd096303	-0.03354169
76	0xbe362d11	-0.17790629
77	0xbd093fc7	-0.03350809
78	0x3e5176ae	0.20455429
79	0xbe913903	-0.2836381
80	0x3d027342	0.0318482
81	0x3ebc0750	0.3672433
82	0xbe03c847	-0.12869368
83	0x3cd61234	0.026131727
84	0xbe186a44	-0.14884287
85	0xbd364980	-0.04450369
86	0x3d7ade60	0.06124723
87	0xbeed9bcf	-0.46407935
88	0xbcfa8143	-0.030579215
89	0xbdde57b6	-0.10856573
90	0xbf1f5885	-0.62244445
91	0xbf411697	-0.75425094
92	0xbe95cdeb	-0.29258665
93	0xbe11bbc6	-0.14231786
94	0xbddf36e3	-0.10899141
95	0x3d04f7d3	0.032462906
96	0xbefad328	-0.48989224
97	0x3d2703f4	0.040775254
98	0xbe3a9700	-0.18221664
99	0x3ebae3e6	0.36501998
100	0x3ee25189	0.4420283
101	0x3e2759bb	0.16342823
102	0x3ea8c7d2	0.3296495
103	0x3f5d3f76	0.8642496
104	0x3e169a93	0.14707403
105	0x3ef2b765	0.47405544
106	0x3e9376a3	0.2880145
107	0xbe8eac2c	-0.27865732
108	0x3e2ea1db	0.1705393
109	0xbc87f811	-0.01659778
110	0xbe75af86	-0.23992738
111	0x3daeff3e	0.08544777
112	0xbe15f5e3	-0.1464458
113	0xbdf76309	-0.12079436
114	0xbe598bd7	-0.21244751
115	0xbe8743b7	-0.2641885
116	0xbe90abd7	-0.28256103
117	0xbeeecea0	-0.46642017
118	0xbe72141d	-0.23640485
119	0x3e4c9b1b	0.19981043
120	0x3e83b30f	0.25722548
121	0x3e1107a7	0.14163075
122	0xbe955ff3	-0.29174766
123	0xbf0610ac	-0.5236919
124	0xbde0f087	-0.10983377
125	0x3db78aab	0.08961996
126	0xbe3e9fea	-0.1861569
127	0x3f175c7a	0.59125483
128	0xbe7caa84	-0.24674422
129	0x3d9dd11f	0.07705902
130	0xbd5e1c91	-0.05422646
131	0xbd01d6ae	-0.031698875
132	0xbe9de7b7	-0.30840847
133	0x3ebd0555	0.3691813
134	0xbf143574	-0.57894063
135	0xbe05ac62	-0.1305404
136	0xbe9f5f15	-0.3112723
137	0x3ec0eec1	0.37682155
138	0xbea31ca3	-0.31857786
139	0x3c6f4f8d	0.014606369
140	0x3e42394d	0.18967171
141	0xbd984260	-0.07434535
142	0x3eba07a7	0.36333963
143	0x3dfa9ee9	0.12237341
144	0x3e02393d	0.12717147
145	0x3e1e8d03	0.15483479
146	0x3edc24eb	0.42996916
147	0x3daebbd9	0.08531923
148	0xbe72676e	-0.23672268
149	0x3d71a7a2	0.058997758
150	0xbee9a070	-0.45630217
151	0xbed009d8	-0.4063251
152	0xbebe7df0	-0.37205458
153	0x3a063352	0.00051193417
154	0x3e0a668e	0.13515684
155	0xbebbfce3	-0.36716375
156	0x3e420408	0.1894685
157	0x3b977c0b	0.0046229414
158	0x3c34d4b3	0.01103704
159	0xbe444295	-0.19166024
160	0xbd87f88a	-0.06639202
161	0xbe996889	-0.29962566
162	0x3ec57190	0.38563204
163	0xbd054e91	-0.03254563
164	0xbe75f905	-0.24020775
165	0xbed252c5	-0.41078773
166	0x3da46978	0.08027929
167	0xbf0d6642	-0.5523416
168	0xbf4f8185	-0.81057006
169	0xbd9b4102	-0.07580759
170	0xbeb7ac17	-0.35873482
171	0xbece86ed	-0.40337315
172	0xbe8ddc84	-0.27707303
173	0xbe050ca5	-0.12993105
174	0xbeef961a	-0.46794206
175	0xbe11fc17	-0.14256321
176	0xbed7f1d4	-0.42176688
177	0x3d016418	0.031589597
178	0xbe287b04	-0.16453177
179	0x3d8c242f	0.06842839
180	0x3f2793e8	0.6546006
181	0x3db33762	0.08750798
182	0xbeeb7d5f	-0.45994088
183	0x3d6d175b	0.0578836
184	0xbaab5f12	-0.0013074598
185	0x3e064066	0.13110504
186	0xbea5223d	-0.32252684
187	0x3e0e32c4	0.13886553
188	0xbe835841	-0.2565327
189	0xbdba890a	-0.091081694
190	0xbef0258c	-0.46903646
191	0xbe4dcc23	-0.20097403
192	0x3e5f2249	0.21790422
193	0x3f1cb9f4	0.6122124
194	0xbe40e556	-0.18837485
195	0xbd3c59c3	-0.04598404
196	0x3c76d45d	0.01506528
197	0xbcd9c8d2	-0.026585016
198	0x3ed03092	0.40662056
199	0xbc91e2bb	-0.017808309
200	0xbe29cb6f	-0.1658151
201	0x3ed10d77	0.40830585
202	0xbf01a2f5	-0.5063928
203	0xbe89edac	-0.26939142
204	0x3e1956d7	0.14974533
205	0x3ed7324b	0.42030558
206	0xbed62568	-0.41825414
207	0x3e487233	0.19574814
208	0xbf0aefb2	-0.54271996
209	0x3deb7f3a	0.11498876
210	0xbf0cc041	-0.54980856
211	0xbf0dd065	-0.5539611
212	0xbd1cb881	-0.038261894
213	0xbdca8cf1	-0.09890164
214	0x3ed7111a	0.42005235
215	0xbe91847b	-0.28421387
216	0x3e809ada	0.25118142
217	0xbe5ef529	-0.21773209
218	0xbd592dd0	-0.053022206
219	0xbf0b6b92	-0.54461014
220	0xbeb90322	-0.36135203
221	0xbf09cc1e	-0.53827083
222	0x3f2a6076	0.6655344
223	0xbe7f347d	-0.24922366
224	0x3d9329f3	0.071857356
225	0xbe3bb927	-0.18332349
226	0xbe9cbdfa	-0.3061369
227	0xbde0fb7b	-0.10985466
228	0xbf1134ad	-0.56721
229	0x3cc189b0	0.023625225
230	0xbe1f448e	-0.15553495
231	0xbecc287b	-0.39874634
232	0xbf100cb4	-0.56269383
233	0x3eb005cb	0.3437942
234	0xbe0f7b8b	-0.14011972
235	0xbebd4bbb	-0.3697184
236	0xbe753104	-0.23944479
237	0xbe8f35b0	-0.27970648
238	0xbd31eac9	-0.0434368
239	0x3ed913dc	0.42397964
240	0xbed89307	-0.42299673
241	0xbe70354a	-0.23457828
242	0xbf64d082	-0.8938066
243	0x3f02d3a6	0.511042
244	0xbf2a40da	-0.66505206
245	0x3e989166	0.2979843
246	0x3ea14ef4	0.3150555
247	0xbda0ab0f	-0.07845127
248	0xbdf8feae	-0.12157951
249	0x3edce1d6	0.4314105
250	0xbd12a820	-0.035804868
251	0x3e99be1e	0.3002786
252	0x3eaf6f2d	0.34264508
253	0xbe8b90ea	-0.27258998
254	0xbe9e7d4c	-0.3095497
255	0xbe02a836	-0.1275948

network.2.bias f4 [64]
0	0xbe9377f3	-0.28802451
1	0xbec5ad08	-0.38608575
2	0xbe043771	-0.12911774
3	0xbe4c4db7	-0.19951521
4	0xbc8e3f84	-0.017364271
5	0xbe08d6ea	-0.13363233
6	0xbe53ea64	-0.20694882
7	0xbe7b3cb2	-0.24534872
8	0xbe9341ee	-0.28761238
9	0xbeae4ab6	-0.34041375
10	0xbe7f4de9	-0.24932064
11	0x3d24ce0e	0.04023557
12	0xbdae366e	-0.085064754
13	0xbdc6f23f	-0.097141735
14	0xbdce3f4d	-0.100706674
15	0xbd8a5741	-0.067549236
16	0xbe6689d6	-0.22513518
17	0xbe102c02	-0.14079288
18	0xbc88407b	-0.01663231
19	0xbe26f2c9	-0.16303553
20	0x3e3a9264	0.18219906
21	0xbe5cedf4	-0.21575147
22	0xbe9d2371	-0.30691102
23	0xbec26de3	-0.37974462
24	0xbe867a81	-0.26265338
25	0x3d999681	0.074994095
26	0xbe448a5f	-0.1919341
27	0x3e843ed8	0.25829196
28	0xbeb23883	-0.3480874
29	0xbe076d88	-0.13225377
30	0xbddf955d	-0.10917161
31	0xbe4684aa	-0.19386545
32	0xbe58139a	-0.21101227
33	0xbe51499a	-0.20438233
34	0xbde22619	-0.11042423
35	0xbdde0972	-0.10841645
36	0xbeaaab53	-0.33333835
37	0xbdfccc26	-0.12343626
38	0xbd3ed54e	-0.046590142
39	0xbe47e91a	-0.19522515
40	0xbd82b3c2	-0.06381942
41	0xbe5822f6	-0.21107087
42	0xbe79e4c9	-0.24403681
43	0xbe7fed9e	-0.24992988
44	0xbe7898cc	-0.24277037
45	0xbdf25c70	-0.11834037
46	0xbe0d7c6c	-0.13816994
47	0xbe69e1c1	-0.22840025
48	0xbdb777ed	-0.08958421
49	0xbdb0bb56	-0.086294815
50	0xbe093562	-0.1339927
51	0x3bb9a9b8	0.005665984
52	0xbda95ffd	-0.082702614
53	0xbe0b6f4b	-0.13616674
54	0xbe881f0a	-0.2658618
55	0xbe96d475	-0.29458967
56	0xbe897532	-0.26847225
57	0xbe485a2e	-0.19565651
58	0xbe0903b8	-0.13380325
59	0xbe86c5d8	-0.26322818
60	0xbe2b49e9	-0.16727413
61	0xbea26c7c	-0.31723392
62	0xbe20be6e	-0.15697643
63	0xbe26b6ba	-0.16280642

network.4.weight f4 [64, 64, 3, 3]
0	0x3e9ad339	0.30239275
1	0xbe036483	-0.12831311
2	0x3ed70af9	0.4200056
3	0xbce3ed21	-0.027823033
4	0xbea8591f	-0.32880494
5	0x3e80b122	0.25135142
6	0x3e9a1998	0.3009765
7	0xbdfc194f	-0.12309515
8	0x3de26cc1	0.110558994
9	0xbeb23910	-0.3480916
10	0xbd92f473	-0.07175531
11	0xbe89c4fd	-0.26908103
12	0xbea29c72	-0.31759983
13	0xbf393725	-0.7234977
14	0xbe0c15b6	-0.13680157
15	0xbec6c79b	-0.38824162
16	0xbe6708de	-0.22561976
17	0x3e34bdc6	0.17650518
18	0x3ea09a24	0.313676
19	0xbe8737cd	-0.2640976
20	0x3e6a7496	0.22896037
21	0xbeb64363	-0.35598287
22	0x3f0d3da8	0.55172205
23	0x3e80d5f1	0.25163224
24	0xbe2ba969	-0.16763844
25	0x3dddfbe2	0.108390585
26	0xbe1df9fb	-0.15427391
27	0xbf1fcd7f	-0.6242294
28	0xbf11945d	-0.5686701
29	0x3ef0e4c2	0.47049528
30	0xbee04081	-0.43799213
31	0xbde10374	-0.10986987
32	0xbe54f5ec	-0.20796937
33	0xbe883239	-0.26600817
34	0xbdc59837	-0.09648173
35	0x3896b5ec	7.186443e-05
36	0x3e857916	0.26068944
37	0x3e4f0f8d	0.20220776
38	0x3ec09c90	0.37619448
39	0xbdbd6b58	-0.0924899
40	0x3d9d3ee7	0.07678013
41	0x3ba4cd14	0.00502933
42	0x3de91d9c	0.11382601
43	0xbd868ded	-0.06570039
44	0x3f36c0bb	0.71387833
45	0xbe3ecfab	-0.18633907
46	0xbc9359e1	-0.017987194
47	0xbcf77569	-0.030207353
48	0xbf17a29b	-0.5923249
49	0xbf08bab3	-0.5340988
50	0xbed7273d	-0.42022124
51	0x3c099b22	0.008398803
52	0xbe367af1	-0.17820336
53	0xbdc18d57	-0.094507866
54	0x3e5f9668	0.21834719
55	0x3ef48c0f	0.47763106
56	0x3f638206	0.88870275
57	0xbe7e8140	-0.24853992
58	0x3ec68a62	0.38777453
59	0x3dc0570b	0.09391602
60	0x3e58bbc1	0.21165372
61	0x3eae1e2b	0.3400739
62	0x3e7eded8	0.24889696
63	0x3ec2354d	0.3793129
64	0xbe859dd2	-0.2609697
65	0xbe1d9919	-0.15390433
66	0x3ed052a8	0.40688062
67	0xbdcd625e	-0.10028528
68	0xbf16d933	-0.5892517
69	0x3d73b718	0.059500784
70	0xbed8870e	-0.4229054
71	0x3e8a5e9e	0.27025312
72	0x3da376ef	0.07981669
73	0xbf12fd33	-0.574176
74	0xbd371f1b	-0.0447074
75	0xbe6cb76b	-0.23116843
76	0xbdb3770e	-0.08762942
77	0xbee1e87c	-0.44122684
78	0x3e2eb224	0.17060143
79	0xbe8594dc	-0.26090133
80	0x3dc0d13f	0.094149105
81	0x3dbde323	0.092718385
82	0xbcc631d7	-0.024193687
83	0x3e6d7947	0.23190795
84	0xbd9d11d5	-0.07669417
85	0xbf3b1955	-0.7308553
86	0xbe93a482	-0.28836447
87	0xbe5ff6be	-0.21871468
88	0xbefdd4db	-0.49576458
89	0xbe1e2667	-0.15444337
90	0x3ed553c0	0.4166546
91	0xbe42d8c9	-0.1902801
92	0xbe068382	-0.13136104
93	0xbd91e3ed	-0.071235515
94	0xbddee63b	-0.10883757
95	0x3d1dfc20	0.038570523
96	0x3d22589b	0.039635282
97	0xbee93b2d	-0.4555296
98	0xbcf3e6e0	-0.029773176
99	0x3e24026f	0.16016553
100	0xbf04789d	-0.5174654
101	0x3d8809d7	0.06642502
102	0xbecea0ca	-0.40357047
103	0xbd856d2d	-0.06514964
104	0xbf3f6fa8	-0.7477975
105	0x3e21c784	0.15798765
106	0x3e42ebb9	0.19035234
107	0xbea1460d	-0.31498757
108	0xbdba9045	-0.091095485
109	0x3d948e38	0.072536886
110	0xbdbaea9b	-0.09126779
111	0xbdb39a79	-0.08769698
112	0xbd0edfd0	-0.034881413
113	0xbddbc10b	-0.107301794
114	0x3e09a948	0.13443482
115	0x3d2fabca	0.04288844
116	0x3d9ea5ea	0.07746489
117	0xbcfb65c9	-0.030688183
118	0x3d343e07	0.044004466
119	0x3ccab1fe	0.024743076
120	0x3cd43101	0.025902273
121	0x3b972fd7	0.0046138573
122	0xbcf98286	-0.030457746
123	0xbd013d49	-0.031552587
124	0xbc47a836	-0.012186101
125	0x3ca55aed	0.020184958
126	0xbd7f9141	-0.062394384
127	0xbd9380ab	-0.07202276
128	0xbd7ed299	-0.06221256
129	0xbbefd315	-0.007318864
130	0xbcd55bad	-0.026044691
131	0xbd17fcf4	-0.03710647
132	0x3d0867d5	0.033302147
133	0x3d0b4266	0.03399887
134	0x3b493b95	0.003070568
135	0xbdaee0fb	-0.08539005
136	0xbe3de02f	-0.1854255
137	0xbec91a45	-0.39277855
138	0xbee26eca	-0.4422515
139	0xbee06486	-0.43826693
140	0x3d1075db	0.035268646
141	0x3de9fe10	0.11425412
142	0xbe74e802	-0.23916629
143	0xbe1ebebe	-0.1550245
144	0x3da858c6	0.08220057
145	0x3dc34134	0.09533921
146	0x3d8ae282	0.06781484
147	0x3e0a47b1	0.1350391
148	0xbcebe230	-0.028794378
149	0x3df93d04	0.12169841
150	0xbb1e8e55	-0.0024193723
151	0xbd79dfe0	-0.06100452
152	0x3de01c71	0.10942925
153	0x3ea2c118	0.31787944
154	0xbe0cb21a	-0.13739815
155	0xbda2e2b4	-0.079533964
156	0x3ee291e5	0.44251934
157	0xbe7805a6	-0.24220905
158	0xbe9c56bf	-0.30534932
159	0x3ec608f3	0.38678703
160	0xbe8fb46c	-0.28067338
161	0x3df77a13	0.12083831
162	0xbe0dc736	-0.13845524
163	0xbe1b2024	-0.1514898
164	0xbf273f57	-0.65331024
165	0xbf366a03	-0.7125551
166	0xbf3a0f49	-0.72679573
167	0xbf4168b3	-0.75550383
168	0xbce7370a	-0.028224487
169	0xbd82a6fb	-0.06379505
170	0xbf0fdd40	-0.56196976
171	0xbe8d8b35	-0.2764527
172	0x3beb8b3d	0.0071882294
173	0x3dbec80b	0.09315499
174	0xbe784596	-0.24245295
175	0xbdf3bf7e	-0.119017586
176	0xbe135218	-0.14386785
177	0xbe56d291	-0.20978762
178	0xbd233686	-0.03984692
179	0xbf17066c	-0.58994174
180	0x3e4b4bda	0.19853154
181	0xbe95f371	-0.29287294
182	0xbf33ad42	-0.70186245
183	0xbdacaf47	-0.08431869
184	0x3e30c46c	0.17262429
185	0xbcd4f429	-0.02599533
186	0xbda2ee17	-0.07955568
187	0xbf090bfd	-0.5353392
188	0xbe9b2a5f	-0.30305764
189	0x3de25d41	0.11052943
190	0xbe4d13a8	-0.2002703
191	0x3e237151	0.15961196
192	0xbd957158	-0.07297009
193	0x3dbd7c12	0.0925218
194	0x3e27e37e	0.16395375
195	0xbea2042a	-0.31643802
196	0xbe55078f	-0.20803665
197	0xbcb78ea0	-0.022406876
198	0xbeed14e9	-0.46305016
199	0xbdd29068	-0.102814496
200	0xbf6be679	-0.9214855
201	0xbea2177e	-0.31658548
202	0xbddb96e8	-0.107221425
203	0xbef8b3bf	-0.48574635
204	0xbe4cbfc2	-0.19995025
205	0xbc16d590	-0.009206191
206	0xbe811922	-0.25214487
207	0xbe784566	-0.24245223
208	0x3e053d2a	0.13011613
209	0x3ca8882d	0.020572746
210	0x3e11724a	0.14203754
211	0xbe1000d8	-0.14062822
212	0xbdafa705	-0.08576778
213	0x3dcd84e7	0.10035115
214	0xbe197597	-0.14986263
215	0x3e0e5c31	0.13902356
216	0x3d4efc95	0.05053385
217	0x3f06f186	0.52712286
218	0xbd33ce68	-0.043898016
219	0xbecbc818	-0.39801097
220	0xbe6cb510	-0.23115945
221	0x3cbeeefb	0.023307314
222	0x3e81d648	0.25358796
223	0x3e95d96b	0.2926744
224	0xbea3ac37	-0.31967327
225	0x3b4c7758	0.0031199064
226	0x3e8875d4	0.26652396
227	0xbdeff697	-0.11716955
228	0xbf37148e	-0.7151574
229	0x3ee112e4	0.43959725
230	0xbede53f7	-0.43423435
231	0x3ed0fc0c	0.40817297
232	0x3dbda09f	0.09259152
233	0x3e6441da	0.22290745
234	0xbd20102d	-0.039077926
235	0xbdf9908b	-0.121857725
236	0x3d3b3320	0.045703053
237	0xbe157701	-0.14596178
238	0xbd60af53	-0.054854702
239	0x3d632d2a	0.055462994
240	0xbdd28ba4	-0.102805406
241	0xbe25ee53	-0.16204195
242	0x3e29503b	0.16534512
243	0xbdcc9b24	-0.09990528
244	0xbe8a918b	-0.27064165
245	0x3d2e2321	0.04251397
246	0x3d12a7c6	0.035804532
247	0xbec17098	-0.37781215
248	0xbeee4392	-0.46535927
249	0x3d1a5ac3	0.037684213
250	0xbecf536d	-0.40493336
251	0xbde8aae2	-0.11360718
252	0xbcf2f812	-0.029659305
253	0x3eddbdca	0.4330886
254	0xbee44779	-0.4458578
255	0xbd9ca654	-0.07648912

network.4.bias f4 [64]
0	0xbe6a3b95	-0.22874291
1	0xbf1ecd98	-0.6203246
2	0xbefa49c5	-0.48884407
3	0xbd34555d	-0.04402672
4	0xbe972d8d	-0.2952694
5	0xbdc6e0e0	-0.0971086
6	0xbed44386	-0.41457766
7	0xbef8087e	-0.4844398
8	0xbf0cd664	-0.55014634
9	0xbec009a8	-0.37507367
10	0xbea49828	-0.32147336
11	0xbf084674	-0.532325
12	0xbf10050c	-0.562577
13	0xbca21ab1	-0.019788118
14	0xbde05cc0	-0.10955191
15	0xbdc0b765	-0.0940998
16	0xbf09626f	-0.5366582
17	0xbee67bea	-0.45016414
18	0xbdb77988	-0.08958727
19	0xbec46877	-0.3836095
20	0xbd45dc77	-0.048305955
21	0xbf06ab0a	-0.52604735
22	0xbbf2c7eb	-0.007409086
23	0xbe671caa	-0.22569528
24	0xbe8609ae	-0.2617926
25	0xbcc2aba2	-0.023763482
26	0xbd941795	-0.072310604
27	0xbddbe2f4	-0.10736647
28	0xbd5178e0	-0.051140666
29	0xbed20c39	-0.4102495
30	0xbca78d54	-0.020453133
31	0xbd1942a7	-0.03741708
32	0xbec3c5c9	-0.38236836
33	0xbf275027	-0.6535668
34	0xbe140f21	-0.14458896
35	0xbdf91b06	-0.121633574
36	0xbedf8722	-0.43657786
37	0xbf08c1f4	-0.5342095
38	0xbe89c8c9	-0.26911
39	0xbf0fa873	-0.5611641
40	0xbee57206	-0.44813555
41	0xbee66ae0	-0.45003414
42	0xbec82a46	-0.39094752
43	0xbef55830	-0.47918844
44	0xbefaef9c	-0.49010932
45	0xbed6fa72	-0.4198795
46	0xbef229bf	-0.47297475
47	0xbef004ba	-0.46878606
48	0xbd96b514	-0.07358757
49	0xbed96bd2	-0.42465073
50	0xbe8ee7ec	-0.27911317
51	0xbede86bd	-0.43462172
52	0xbea295c7	-0.31754896
53	0xbdeb910f	-0.11502277
54	0xbca8956c	-0.020579062
55	0xbd5d6e6b	-0.05406038
56	0xbf055e73	-0.52097243
57	0xbec12afa	-0.377281
58	0xbeaf50ff	-0.34241483
59	0xbef567c7	-0.47930738
60	0xbe01aa54	-0.12662631
61	0xbf02395c	-0.50868773
62	0xbf296dcc	-0.6618316
63	0xbdf2ff2b	-0.11865076

actor.weight f4 [5, 3136]
0	0x3e105186	0.14093599
1	0xbdcf2131	-0.10113753
2	0x3e4c7852	0.19967774
3	0x3e62135a	0.22077695
4	0x3ed10c2f	0.40829608
5	0x3e903a0a	0.2816928
6	0xbf13febc	-0.5781057
7	0xbebb10eb	-0.36536345
8	0xbe59bfec	-0.21264619
9	0x3d1e5acf	0.03866082
10	0x3d8fa2d0	0.07013476
11	0x3e77d8bc	0.24203771
12	0x3ed1bbca	0.40963584
13	0x3ecda21b	0.4016274
14	0xbe818532	-0.25296932
15	0x3d2fba50	0.04290229
16	0xbdaf0ad1	-0.08546985
17	0x3e84836b	0.25881514
18	0x3dcd3c41	0.10021258
19	0x3e95b2a3	0.29237852
20	0x3edefd51	0.4355264
21	0x3ca2666e	0.019824233
22	0xbe35ab86	-0.17741212
23	0x3e88e7f0	0.26739454
24	0xbe02d35a	-0.12775937
25	0xbe00340b	-0.12519853
26	0x3ec26c4d	0.37973252
27	0x3e96d2a0	0.2945757
28	0xbe3589fa	-0.17728415
29	0xbe9e4387	-0.30910894
30	0x3e0044ac	0.12526196
31	0x3e3d7d0f	0.18504737
32	0xbd374268	-0.044741064
33	0xbe61dbe4	-0.22056538
34	0xbe2af5bc	-0.16695303
35	0x3f00bc38	0.502872
36	0xbe6bfaf5	-0.23044951
37	0x3ef334a0	0.47501087
38	0x3e6f6eb0	0.23382068
39	0xbf24b82e	-0.64343536
40	0xbe7abf9a	-0.24487153
41	0xbc84d59b	-0.016215136
42	0x3e8ccb6c	0.2749895
43	0x3dd6147a	0.10453124
44	0x3dfe1381	0.12406064
45	0xbe994af6	-0.29940003
46	0xbe834ae6	-0.2564308
47	0x3e236519	0.15956534
48	0xbe2423f2	-0.16029337
49	0xbcea6469	-0.028612332
50	0xbdf60017	-0.12011736
51	0x3e632055	0.22180302
52	0xbeeebb3c	-0.46627223
53	0xbee0d5ad	-0.43913022
54	0xbd5f22c6	-0.054476522
55	0x3e1a8256	0.15088782
56	0xbea12a96	-0.31477803
57	0xbd875046	-0.06607108
58	0xbad3395c	-0.0016115117
59	0xbe1d3016	-0.15350375
60	0xbcc32ee9	-0.02382608
61	0xbeb5562c	-0.35417306
62	0x3e960466	0.2930023
63	0xbe318b6d	-0.17338343
64	0xbddeada4	-0.10872963
65	0xbd738401	-0.05945206
66	0x3d991c85	0.07476143
67	0x3eb4f72e	0.35344833
68	0x3d05af5f	0.03263795
69	0x3ea788a0	0.32721424
70	0x3d4ad097	0.049515333
71	0xbea48653	-0.3213373
72	0xbcaf6614	-0.02141098
73	0x3f008067	0.50195926
74	0xbd99d6f7	-0.075117044
75	0x3e097708	0.13424313
76	0x3de950db	0.11392375
77	0x3e845973	0.25849494
78	0x3e09f1f0	0.13471198
79	0x3f36bd70	0.7138281
80	0x3db80f33	0.08987274
81	0x3cedb4c3	0.029016858
82	0xbe728c32	-0.23686293
83	0x3bd40c59	0.0064711985
84	0x3dd3b8ad	0.103379585
85	0xbd7691d4	-0.060197666
86	0x3d8e9b50	0.06963217
87	0x3d0fbfdb	0.035095077
88	0x3ed1af72	0.40954167
89	0xbe84bb15	-0.25923982
90	0xbdd466f3	-0.103711985
91	0x3d8fff8e	0.07031165
92	0x3ee5a07e	0.44849008
93	0xbe2ffb19	-0.1718563
94	0x3ddea168	0.108706295
95	0xbe52e5e6	-0.20595512
96	0x3def831a	0.116949275
97	0x3e71762b	0.23580234
98	0x3f15d31e	0.58525264
99	0xbf5c1803	-0.8597414
100	0x3e1366d4	0.14394695
101	0xbe5b2269	-0.21399845
102	0xbd10de25	-0.035368104
103	0xbe10121a	-0.14069405
104	0x3e2b53c1	0.16731168
105	0xbef422a8	-0.4768269
106	0xbe42896c	-0.18997735
107	0x3f029469	0.51007706
108	0xbddf9b1a	-0.10918255
109	0xbe116dbe	-0.1420202
110	0xbeae1f2b	-0.34008154
111	0x3e6db01e	0.23211715
112	0x3e525db3	0.20543556
113	0x3ded533e	0.11588143
114	0xbf1c6d39	-0.6110416
115	0x3e52f23c	0.20600218
116	0x3da0a076	0.078431055
117	0xbe2ba09d	-0.16760488
118	0xbd1dcbc8	-0.03852442
119	0xbd4b8c19	-0.049694154
120	0x3e03dc2d	0.12876959
121	0x3eafc468	0.34329534
122	0x3f35090e	0.7071694
123	0xbeea4667	-0.45756838
124	0x3dd8ee72	0.10592355
125	0x3ec3beb5	0.38231435
126	0x3e83b140	0.2572117
127	0x3e916bc1	0.28402522
128	0x3f2fa739	0.68614537
129	0x3d3c5dfc	0.045988068
130	0xbd3bb4cb	-0.045826714
131	0x3e8916ca	0.267752
132	0xbd99d601	-0.07511521
133	0xbd98c1ff	-0.07458877
134	0x3e28c702	0.16482165
135	0xbeed95d2	-0.46403366
136	0xbf5a0b05	-0.85173064
137	0xbe886ee0	-0.2664709
138	0xbe7d2099	-0.24719466
139	0xbe0bf3b9	-0.13667192
140	0x3dc046ae	0.09388481
141	0x3e8eddcb	0.2790359
142	0xbe221df8	-0.15831745
143	0x3b8c49b1	0.0042812456
144	0xbac40134	-0.0014953972
145	0xbe85ccb3	-0.26132736
146	0xbea1cedd	-0.31603137
147	0x3e7a4fd9	0.24444522
148	0x3e963790	0.29339266
149	0x3e450c62	0.19243005
150	0x3db7258e	0.0894271
151	0x3e15f112	0.14642742
152	0x3e0729f2	0.13199595
153	0x3ddf8924	0.109148294
154	0xbe0be0e1	-0.13660003
155	0xbd7d9b17	-0.061915483
156	0x3e9be5e4	0.3044883
157	0xbe4d2003	-0.20031743
158	0xbb0c0262	-0.0021363725
159	0xbda65b73	-0.08122911
160	0x3e1b84b8	0.15187347
161	0x3e6da135	0.23206027
162	0x3da57ca6	0.080804154
163	0x3ea1bd61	0.31589797
164	0x3e80c511	0.2515035
165	0x3e766c78	0.24064815
166	0x3eadb573	0.33927497
167	0x3e89ce59	0.26915243
168	0x3ebbf77c	0.36712253
169	0x3e841849	0.25799778
170	0x3eafd8be	0.3434505
171	0x3d87289d	0.06599543
172	0x3d8a3a14	0.06749359
173	0x3d6acebe	0.05732607
174	0xbdfbfc2a	-0.12303956
175	0x3e64cc5e	0.22343585
176	0xbd72feee	-0.05932515
177	0xbe0add1d	-0.1356091
178	0xbe3dc48b	-0.18532006
179	0x3e2e8341	0.17042257
180	0x3e32028f	0.17383789
181	0x3de799d0	0.11308634
182	0xbc964655	-0.018344084
183	0xbe284614	-0.16432983
184	0x3e1307b1	0.14358403
185	0xbf1cf5ae	-0.6131238
186	0x3ea65099	0.32483366
187	0xbed31d3c	-0.41233242
188	0x3de1382c	0.10997042
189	0xbc7189c2	-0.014742317
190	0x3e82694d	0.25470963
191	0xbe39d078	-0.18145931
192	0x3e6e1ffa	0.23254386
193	0x3e7d3d0a	0.24730316
194	0x3eda8fcf	0.42687842
195	0x3dd6a628	0.104809105
196	0x3e6a0193	0.22852163
197	0x3e17389a	0.14767686
198	0xbeb37291	-0.35048345
199	0xbdf20437	-0.1181721
200	0x3d1829ae	0.037149124
201	0x3d0584bb	0.032597285
202	0xbe30c543	-0.1726275
203	0xbd0f9054	-0.03504975
204	0x3ec8ef3e	0.39245027
205	0x3c3b5585	0.011433964
206	0xbaa471b2	-0.0012546091
207	0xbed2969f	-0.4113054
208	0x3f01dae9	0.50724655
209	0x3db1c5df	0.08680319
210	0xbf0f705a	-0.5603081
211	0x3ded9d2b	0.11602243
212	0xbe009fe5	-0.12560995
213	0x3e48e56c	0.19618767
214	0x3eeb5e57	0.45970413
215	0x3e514a02	0.20438388
216	0x3dec0efe	0.11526297
217	0xbdaa0899	-0.08302421
218	0x3dcdf76a	0.10056956
219	0xbed4a922	-0.41535288
220	0x3f00ff01	0.50389105
221	0x3e517a7d	0.20456882
222	0x3e8ddce5	0.27707592
223	0x3ebbf46d	0.3670992
224	0xbabe8d44	-0.001453795
225	0xbef5fcfb	-0.4804457
226	0x3ec5cfd2	0.38635117
227	0x3e253974	0.16135198
228	0xbe550e83	-0.20806317
229	0x3f26bace	0.6512879
230	0x3ebd7cdb	0.3700932
231	0x3d9da61b	0.07697698
232	0x3e76a1a5	0.240851
233	0x3ea71f70	0.32641172
234	0xbef7026b	-0.48244032
235	0xbeb749f3	-0.35798606
236	0x3e4c8b5c	0.19975036
237	0x3ea8e66a	0.32988292
238	0xbdf898a7	-0.12138491
239	0x3d4fcf24	0.050734654
240	0xbea6bba6	-0.3256504
241	0x3e12cf29	0.14336838
242	0x3c8a661f	0.016894398
243	0x3c006951	0.007837609
244	0xbe91b0f2	-0.2845531
245	0x3e234062	0.15942529
246	0x3e9b0d78	0.30283713
247	0xbdfe3070	-0.124115825
248	0xbe89bc81	-0.2690163
249	0x3e4f81ab	0.20264308
250	0xbd87de94	-0.0663425
251	0x3ceeaac2	0.029134158
252	0xbdaf238d	-0.08551703
253	0x3e9a6f60	0.30163097
254	0x3d850b39	0.06496281
255	0xbdf6c3b9	-0.1204905

actor.bias f4 [5]
0	0xbe954d9c	-0.29160774
1	0x3ea57414	0.32315123
2	0x3e8dbc6f	0.27682826
3	0xbd8b2aef	-0.06795298
4	0xbe10d5a5	-0.14143999

critic.weight f4 [1, 3136]
0	0xbeba1c6c	-0.3634981
1	0xbd29b904	-0.04143621
2	0xbec4e63e	-0.3845691
3	0xbee43555	-0.4457194
4	0x3d5f1fd6	0.05447372
5	0xbd4c52b3	-0.049883556
6	0xbe31c4bb	-0.17360203
7	0xbf041494	-0.515939
8	0xbd63b4e4	-0.055592433
9	0xbe88254e	-0.2659096
10	0xbec36585	-0.3816339
11	0xbe83092c	-0.25592935
12	0xbcf09dfb	-0.029372206
13	0xbe46b7fa	-0.19406119
14	0xbf1852ae	-0.5950116
15	0x3ebbfb31	0.3671508
16	0xbe1aeebd	-0.15130134
17	0xbe87a8fb	-0.2649611
18	0xbeef2d5d	-0.46714297
19	0x3e6772ba	0.22602358
20	0xbe5f8e5e	-0.21831653
21	0xbeaddeac	-0.33958948
22	0xbe0fff1f	-0.14062165
23	0x3eb56ecb	0.3543609
24	0x3e6099f9	0.21933736
25	0x3eb14d35	0.34629217
26	0x3dba8f72	0.09109391
27	0x3ce8980a	0.02839281
28	0xbf6fb49e	-0.93634975
29	0xbe82c940	-0.25544167
30	0xbda7d21f	-0.08194374
31	0xbde1c223	-0.11023357
32	0x3ed179aa	0.40913135
33	0xbdbc5d11	-0.091974385
34	0xbec0e2c9	-0.37673023
35	0xbe7f862e	-0.24953529
36	0x3ec84c86	0.39120883
37	0x3ce1e776	0.02757619
38	0xbf57e8e3	-0.8433973
39	0xbdf7d3cd	-0.12100945
40	0x3ec6fa40	0.388628
41	0xbebcf2d1	-0.36904004
42	0xbe06f8a2	-0.13180783
43	0x3efbefe7	0.49206468
44	0x3e5d11ac	0.21588773
45	0x3ec93e35	0.39305273
46	0x3dd48524	0.10376957
47	0x3e499959	0.19687404
48	0x3e473755	0.19454701
49	0x3e619888	0.22030842
50	0xbe5f9432	-0.21833876
51	0xbeae95bf	-0.34098622
52	0xbe7f8242	-0.24952033
53	0xbde6a265	-0.11261443
54	0x3e367915	0.17819627
55	0x3dc03f46	0.093870685
56	0xbe187178	-0.14887035
57	0x3ab66108	0.0013914416
58	0xbe50ee29	-0.20403351
59	0xbe0e7050	-0.13910031
60	0xbe85a037	-0.26098797
61	0x3e32a6ae	0.17446396
62	0xbd1d58b0	-0.038414657
63	0x3e3180ea	0.17334333
64	0xbe0cfa9d	-0.13767476
65	0xbe897d8c	-0.26853597
66	0xbeecb592	-0.46232277
67	0x3ab9c820	0.0014174022
68	0xbc7ba7d6	-0.015359839
69	0xbd173c6f	-0.03692287
70	0xbf1af42c	-0.60528827
71	0xbe7047b4	-0.23464853
72	0xbf0de337	-0.5542483
73	0xbecb7c72	-0.39743382
74	0xbe06f0dd	-0.1317782
75	0xbd8fe27d	-0.07025621
76	0x3d93f7cb	0.07224997
77	0x3c8aa9a4	0.016926594
78	0xbe9d9d4d	-0.30784073
79	0xbefb8eb3	-0.49132308
80	0xbe86b37f	-0.2630882
81	0x3db7d64c	0.08976421
82	0xbe2a0668	-0.16604006
83	0xbed78064	-0.42090142
84	0xbe72bd06	-0.23704919
85	0xbeb740fd	-0.3579177
86	0xbd886020	-0.066589594
87	0xbf1b5ccb	-0.60688466
88	0x3d17c3a7	0.037051823
89	0x3b147eac	0.002265851
90	0xbe9a29d8	-0.3011005
91	0xbed3ab64	-0.41341698
92	0xbed8a442	-0.4231282
93	0xbee15a66	-0.4401428
94	0xbec956fe	-0.39324182
95	0x3e9e9347	0.3097174
96	0xbea83370	-0.32851744
97	0x3db0afd4	0.086272866
98	0xbe8d2d31	-0.2757354
99	0x3c7fce75	0.015613188
100	0xbce3ee51	-0.027823599
101	0x3d5d98a5	0.05410065
102	0xbe6daf86	-0.23211488
103	0xbe8d909e	-0.27649397
104	0xbdcb85b7	-0.099376135
105	0xbd3cf23a	-0.046129443
106	0xbe453c31	-0.19261242
107	0xbe465ce1	-0.19371368
108	0x3e091bd2	0.13389519
109	0x3ee7af8f	0.45251128
110	0x3e7fda43	0.24985604
111	0xbeb1ec40	-0.34750557
112	0x3eef0d38	0.46689773
113	0x3e57929b	0.2105202
114	0xbe15fa83	-0.14646344
115	0x3c46b00b	0.012126933
116	0xbda45df3	-0.08025732
117	0x3df7ace2	0.12093522
118	0xbaa49f0b	-0.0012559606
119	0xbcf8711e	-0.030327376
120	0x3e4d3a9e	0.20041892
121	0x3df6392f	0.12022626
122	0x3eb5b451	0.35489133
123	0xbdf52958	-0.11970776
124	0x3d03c786	0.032172702
125	0x3d63f47d	0.055653084
126	0x3dcf1bf5	0.10112754
127	0xbeac8b8a	-0.3370021
128	0xbd2722b2	-0.040804572
129	0xbe93af52	-0.28844696
130	0xbf07cabf	-0.5304374
131	0x3e1d5e7f	0.15368079
132	0x3e6d9c67	0.23204194
133	0xbd942cc8	-0.07235104
134	0x3eb7e7d5	0.3591906
135	0x3c293548	0.010327645
136	0xbdd7a8fb	-0.10530277
137	0xbe37045e	-0.1787276
138	0x3ee0ef63	0.43932638
139	0x3e4dc783	0.20095639
140	0x3e25ec1f	0.16203354
141	0xbd9a327a	-0.07529159
142	0xbdf24c13	-0.11830916
143	0xbe69b2b5	-0.22822078
144	0x3cebb564	0.028773017
145	0x3e967f2c	0.293939
146	0xbd5eb12f	-0.054368194
147	0x3f0b3458	0.54376745
148	0x3f09b81b	0.5379655
149	0x3ef49988	0.47773385
150	0x3f22f994	0.63662076
151	0x3f06c047	0.5263714
152	0x3f0e0667	0.5547852
153	0x3ee111a7	0.4395878
154	0x3eb98450	0.3623376
155	0x3ef8dcbd	0.4860591
156	0x3f0f3366	0.559378
157	0x3ebd88a2	0.37018305
158	0x3f047973	0.51747817
159	0x3ee5f249	0.4491141
160	0x3f187b2a	0.59562933
161	0xbef53a89	-0.4789622
162	0xbea5398f	-0.32270476
163	0x3efb4d56	0.4908244
164	0x3e91af49	0.28454044
165	0x3cfe8176	0.031067591
166	0xbe9d957a	-0.30778104
167	0x3e743880	0.23849678
168	0x3efaaf34	0.48961794
169	0x3eaeea3e	0.34163088
170	0x3d99548a	0.07486828
171	0x3f26690e	0.6500405
172	0x3f2a2723	0.6646597
173	0x3ea6a174	0.32545054
174	0x3ef1fb6f	0.4726214
175	0x3f014c53	0.50507087
176	0x3f0f7e2f	0.56051916
177	0x3f56377b	0.83678406
178	0x3efb86cf	0.49126288
179	0x3f555d04	0.83345056
180	0x3f208036	0.62695634
181	0x3f09b34f	0.5378923
182	0xbd234f4a	-0.039870538
183	0xbebf1d0a	-0.37326843
184	0x3f353866	0.7078918
185	0x3f1fe367	0.62456363
186	0x3f007697	0.50180954
187	0x3eaec29c	0.3413285
188	0x3ed1dd65	0.40989223
189	0xbe5f1253	-0.21784334
190	0xbe2d8d0f	-0.16948341
191	0xbea4c18f	-0.32178923
192	0x3f0856b2	0.53257287
193	0x3e882e85	0.26597992
194	0xbd220753	-0.039557766
195	0x3e734f34	0.23760682
196	0xbd878418	-0.06616992
197	0xbe4213f1	-0.1895292
198	0xbd201846	-0.03908565
199	0xbe1ef7fc	-0.15524286
200	0xbc7ad727	-0.015310085
201	0xbdfcff37	-0.12353366
202	0x3e78841c	0.24269146
203	0xbe42db17	-0.19028889
204	0x3d90b926	0.07066564
205	0x3e160012	0.14648464
206	0x3e3a7486	0.18208513
207	0xbcb6340c	-0.022241615
208	0x3d1d21d0	0.038362324
209	0x3e1cf32d	0.15327139
210	0x3f020d4f	0.5080156
211	0xbf13b7ca	-0.57702315
212	0xbd9baacf	-0.076009385
213	0x3e1f3d07	0.15550624
214	0xbed033f6	-0.40664643
215	0x3d740277	0.059572663
216	0x3e3348c5	0.17508228
217	0x3ea03295	0.3128859
218	0x3d26f87d	0.04076432
219	0x3ea2fc76	0.31833237
220	0xbec5b9e6	-0.38618392
221	0xbe603d48	-0.21898377
222	0x3e8c29cc	0.27375638
223	0x3c368dd9	0.011142218
224	0xbe53eaf0	-0.2069509
225	0x3f19f6bf	0.6014213
226	0x3e2009c8	0.15628731
227	0xbe40586f	-0.18783735
228	0xbe893233	-0.2679611
229	0x3e4e5614	0.20150024
230	0xbee88992	-0.45417458
231	0x3e22b675	0.15889914
232	0x3eb66bbd	0.35629073
233	0xbb2fcd97	-0.0026825422
234	0x3e9f073d	0.3106021
235	0xbe0ac4e5	-0.13551672
236	0xbea6274e	-0.32451862
237	0xbdd3986c	-0.103318065
238	0xbe0c4489	-0.13698019
239	0xbdefacd0	-0.11702883
240	0xbed36a81	-0.41292194
241	0xbea93597	-0.33048698
242	0x3d80d8ce	0.06291352
243	0x3e636204	0.22205359
244	0xbeca3114	-0.3949057
245	0xbf0e7ba6	-0.5565742
246	0xbed60786	-0.41802615
247	0x3e6545fa	0.22389975
248	0xbe8ddfbb	-0.27709755
249	0x3e63a9ab	0.22232692
250	0xbe9d8b6c	-0.30770433
251	0xbed84313	-0.42238674
252	0xbeac0a74	-0.33601725
253	0x3ea20123	0.31641492
254	0x3e801def	0.25022838
255	0x3e901ccd	0.28146973
