PARALLEL/models/HIDER_GROUP_POLICY_BOTH_5300.ckpt (torch, 307166 bytes, 9 tensors)

network.0.weight f4 [32, 5, 3, 3]
0	0xbec81741	-0.3908024
1	0x3da8ef35	0.0824875
2	0x3d117969	0.035516176
3	0xbdc58f2b	-0.09646448
4	0xbef7c4a2	-0.48392206
5	0xbe0f3264	-0.13984066
6	0x3cc45bb4	0.023969509
7	0xbdcdd669	-0.10050661
8	0xbe625550	-0.22102857
9	0xbe0bc021	-0.1364751
10	0xbea31aec	-0.31856477
11	0xbf848897	-1.0354184
12	0xbe68e06e	-0.22741863
13	0xbf4aecb9	-0.7926746
14	0xbf0a3435	-0.5398591
15	0xbe8aef0d	-0.27135506
16	0xbf737178	-0.95095015
17	0xbf04fe08	-0.5195012
18	0x3cc6afb4	0.024253704
19	0x3f0bf5b3	0.5467178
20	0x3e30f321	0.17280246
21	0xbf43a0cd	-0.7641724
22	0x3dcbcb6c	0.09950909
23	0x3e5ead10	0.21745706
24	0x3bb88427	0.005630988
25	0x3f2439ad	0.64150506
26	0x3e3c5371	0.18391205
27	0x3ee84cd2	0.4537111
28	0xbd49e4a9	-0.049290333
29	0xbec3ef94	-0.3826872
30	0xbe4b46c8	-0.1985122
31	0x3e5dedea	0.21672788
32	0x3eba2daf	0.3636298
33	0xbe908690	-0.28227663
34	0x3dd17535	0.102274336
35	0x3ed17820	0.4091196
36	0x3e48ccbb	0.19609348
37	0x3eb9aa88	0.36262918
38	0xbcea3af1	-0.028592559
39	0xbea20d50	-0.31650782
40	0xbdf1fb86	-0.118155524
41	0xbd3c1f7e	-0.04592847
42	0xbe7a8ee8	-0.24468577
43	0xbe51abc0	-0.20475674
44	0xbe7a1b02	-0.24424365
45	0xbe278b8e	-0.1636183
46	0xbd063939	-0.032769416
47	0xbed66da0	-0.41880512
48	0xbd707600	-0.058706284
49	0xbdbf25f1	-0.093334086
50	0xbd9a7173	-0.0754117
51	0xbe0d50f5	-0.13800414
52	0x3cbac7b9	0.022800313
53	0xbea84a11	-0.32869008
54	0xbcc3f931	-0.023922535
55	0xbf1466b5	-0.5796922
56	0xbf33c2af	-0.7021894
57	0xbc7880f6	-0.015167465
58	0xbf195344	-0.5989268
59	0xbe9f1122	-0.3106776
60	0x3e6268a9	0.22110237
61	0xbf155248	-0.58328676
62	0xbe30a8d3	-0.17251901
63	0xbefd494d	-0.49469987
64	0xbbfef52d	-0.007780692
65	0xbeabcda1	-0.3355532
66	0x3f029e73	0.51023024
67	0xbdaf4a8b	-0.0855914
68	0x3ea59b06	0.32344836
69	0x3ecfb0e3	0.4056464
70	0x3e4e1776	0.20126137
71	0x3cf95090	0.030433923
72	0xbf1ca766	-0.6119293
73	0x3efd2ee4	0.49449837
74	0xbe4286a4	-0.18996674
75	0x3f02d019	0.5109878
76	0x3ecc61d5	0.3991839
77	0x3e8f8e98	0.28038478
78	0x3eb3fbb2	0.35152966
79	0xbefa3458	-0.4886806
80	0x3f1614f7	0.5862574
81	0xbeb0a72f	-0.3450255
82	0xbdd642fd	-0.10461996
83	0xbf8b555e	-1.0885427
84	0x3d92f4f4	0.07175627
85	0x3d023d09	0.03179649
86	0x3ecc341a	0.398835
87	0x3e609a59	0.21933879
88	0xbe8b54aa	-0.2721303
89	0xbcc5b21e	-0.024132784
90	0xbeb6ebc2	-0.35726744
91	0xbf118053	-0.5683643
92	0xbdb4c8de	-0.08827375
93	0xbe2ceaff	-0.16886519
94	0xbd18b458	-0.037281364
95	0x3daa7a1c	0.08324072
96	0xbea190d1	-0.315558
97	0xbeb09898	-0.3449142
98	0x3ddfe813	0.109329365
99	0xbe8f33ca	-0.279692
100	0xbdd38191	-0.10327447
101	0x3e37b542	0.17940238
102	0xbe51cef2	-0.204891
103	0xbeae08a5	-0.3399097
104	0x3dea0318	0.11426371
105	0xbe292e91	-0.1652167
106	0xbea78cdf	-0.32724664
107	0x3e011a0a	0.1260759
108	0x3c0df034	0.008663226
109	0x3de45d4d	0.11150608
110	0xbe13701b	-0.14398234
111	0x3ca30f27	0.019904686
112	0x3ec96c71	0.39340547
113	0x3d884dde	0.06655477
114	0x3e56d399	0.20979156
115	0xbef0da1d	-0.47041407
116	0xbd532997	-0.051553335
117	0xbedb642e	-0.4284987
118	0x3ce0a340	0.027421594
119	0x3ebaf68b	0.36516222
120	0x3da43114	0.080171734
121	0xbe9f2532	-0.31083065
122	0xbdf2bf6f	-0.11852919
123	0xbd43d051	-0.047806088
124	0x3e5b7dbf	0.21434687
125	0x3e7b5637	0.24544607
126	0x3f15b493	0.5847866
127	0x3f16a839	0.5885044
128	0xbf187166	-0.5954803
129	0xbef6c58d	-0.48197594
130	0xbec71998	-0.38886714
131	0x3d9e97da	0.07743807
132	0x3daabd54	0.08336893
133	0xbe756e36	-0.23967823
134	0x3ef1ec5d	0.47250643
135	0xbeb75927	-0.35810205
136	0xbea502e0	-0.32228756
137	0x3d3d7b18	0.04625997
138	0xbe29dc91	-0.16588046
139	0xbe8f490a	-0.27985412
140	0xbe5c98d0	-0.21542668
141	0xbde62187	-0.112368636
142	0x3d76d4f6	0.06026169
143	0xbe2f1377	-0.17097269
144	0xbefcc0ec	-0.49365938
145	0xbee89fff	-0.45434567
146	0xbeaa69b7	-0.3328378
147	0xbf11eb58	-0.5699973
148	0xbf84e1fa	-1.0381463
149	0xbea157c4	-0.31512272
150	0xbc91b6af	-0.017787306
151	0xbe83fb0a	-0.25777465
152	0xbf3d5581	-0.73958594
153	0x3e70d109	0.2351724
154	0x3e9e0f2f	0.3087096
155	0x3ef371f5	0.4754788
156	0xbd61dc57	-0.055141773
157	0x3f1b6b9c	0.60711074
158	0x3cd4d8cb	0.025982281
159	0x3e81678f	0.2527432
160	0xbebb96a0	-0.36638355
161	0xbe68b5ce	-0.22725603
162	0x3eeef2a9	0.4666951
163	0x3ebc7a4a	0.3681205
164	0x3f13a748	0.57677126
165	0x3ea32270	0.3186221
166	0x3de7dd88	0.113215506
167	0x3cadad4a	0.021200795
168	0x3e4828f7	0.19546877
169	0x3e4c74b1	0.19966389
170	0xbe403f2b	-0.18774097
171	0xbdb28adc	-0.087178916
172	0x3ed6c910	0.41950274
173	0xbecf4b55	-0.4048716
174	0xbf1cc3d2	-0.612363
175	0xbebeabbc	-0.37240398
176	0xbce3f036	-0.027824502
177	0xbebf484e	-0.37359852
178	0x3e77fc7a	0.24217406
179	0x3d915a44	0.07097295
180	0x3c97eadc	0.018544607
181	0x3cff2623	0.031146115
182	0xbe5522e2	-0.20814088
183	0xbe99742b	-0.29971442
184	0xbe1f6873	-0.15567188
185	0xbe779f27	-0.24181806
186	0x3c8203b1	0.0158709
187	0xbe632a60	-0.22184134
188	0x3d7c100a	0.061538734
189	0xbf056713	-0.52110404
190	0x3d8a07ce	0.0673977
191	0xbe923512	-0.28556114
192	0xbf103fb9	-0.56347233
193	0x3f007e24	0.50192475
194	0x3ece2b72	0.4026752
195	0x3ec891b6	0.3917367
196	0x3f209248	0.6272321
197	0x3dc01a47	0.09380012
198	0x3f498343	0.78715914
199	0x3e81f215	0.25380006
200	0x3da2c7db	0.07948276
201	0xbc29ba2f	-0.010359331
202	0xbf71ed88	-0.9450307
203	0xbe92f47a	-0.28702146
204	0xbddfcc72	-0.10927667
205	0x3ec78ac8	0.3897307
206	0x3c38dd3a	0.011283213
207	0x3f07103e	0.5275916
208	0x3e9e6526	0.30936545
209	0xbdd5efa0	-0.104460955
210	0x3e87138f	0.2638211
211	0xbe45d0cc	-0.19317931
212	0xbd797314	-0.060900763
213	0xbeb1bf0e	-0.34716076
214	0x3ecac804	0.39605725
215	0xbd6b014d	-0.057374287
216	0xbe436c07	-0.19084178
217	0x3cc42ef0	0.023948163
218	0xbf2baed4	-0.6706364
219	0x3eb3f70a	0.35149413
220	0xbd008671	-0.031378213
221	0x3e2390fd	0.15973277
222	0xbd9efcab	-0.07763036
223	0x3d6e47d8	0.058173984
224	0xbed2a538	-0.41141677
225	0x3e12bce7	0.14329873
226	0xbeeabee5	-0.45848766
227	0x3e69d41a	0.22834817
228	0xbf009a32	-0.50235283
229	0x3d8f2088	0.06988627
230	0xbea4a193	-0.3215452
231	0xbe0a7c51	-0.13523985
232	0xbe608da4	-0.21929032
233	0x3bd8d79d	0.0066175
234	0x3e82e286	0.2556345
235	0x3f357421	0.70880324
236	0x3eaa6e09	0.33287075
237	0xbe0a99fb	-0.13535301
238	0xbe89fda9	-0.2695134
239	0x3e2b3ae2	0.16721681
240	0x3edb7e29	0.4286969
241	0xbe8b7db2	-0.27244335
242	0xbe00a6b7	-0.12563597
243	0x3f36b25b	0.713659
244	0xbf077bd0	-0.529233
245	0xbe0262a6	-0.12732944
246	0xbebaea69	-0.36506966
247	0x3d89badb	0.06725093
248	0xbb8d373c	-0.004309563
249	0xbd8afa6e	-0.06786047
250	0xbe21a43e	-0.1578531
251	0xbd85df2e	-0.06536709
252	0xbdcc784c	-0.09983882
253	0x3d8cc6ea	0.06873877
254	0xbe80597d	-0.25068274
255	0xbf01d6cc	-0.5071838

network.0.bias f4 [32]
0	0xbeefd0b4	-0.46838915
1	0xbf0d11a8	-0.55105066
2	0xbf10d1b5	-0.5656999
3	0xbecfc524	-0.40580094
4	0xbed74b1a	-0.42049485
5	0xbe5a7250	-0.2133267
6	0xbe408bf6	-0.18803391
7	0xbf0d85c6	-0.5528225
8	0xbe94b198	-0.29041743
9	0xbef31bb2	-0.47482067
10	0xbea82b36	-0.32845467
11	0xbede35a8	-0.4340031
12	0xbf33b00f	-0.7019052
13	0xbeb9866a	-0.36235362
14	0xbf19caff	-0.6007537
15	0xbf1053c0	-0.5637779
16	0xbeec48ba	-0.46149236
17	0xbe9be982	-0.3045159
18	0xbe9934ef	-0.29923198
19	0x3ec25886	0.37958163
20	0xbedf961d	-0.43669215
21	0xbe163c02	-0.14671329
22	0xbe07bae0	-0.13254881
23	0xbd87a2d8	-0.06622857
24	0xbe6620ae	-0.22473404
25	0xbebd6514	-0.3699118
26	0xbef27fc2	-0.47363096
27	0xbd8d4ba3	-0.06899192
28	0xbd0cce2e	-0.034376316
29	0xbf19485f	-0.59876055
30	0xbf137e92	-0.57615006
31	0xbee1e968	-0.44123387

network.2.weight f4 [64, 32, 3, 3]
0	0xbef8cd9a	-0.48594362
1	0xbc9055bc	-0.017619006
2	0xbea1753f	-0.31534764
3	0xbe91ce03	-0.28477487
4	0xbe434fd1	-0.19073416
5	0x3d3932ce	0.045214467
6	0xbd2b194a	-0.041772164
7	0x3f08fe9d	0.5351351
8	0xbd1bfb76	-0.03808161
9	0xbe9d3e7d	-0.30711737
10	0x3eb375f9	0.35050943
11	0xbe15be9e	-0.14623496
12	0x3e2c80d8	0.16846025
13	0x3ea667c1	0.32501033
14	0x3e27df28	0.16393721
15	0x3d8b8aae	0.068135604
16	0x3e2bad1e	0.16765258
17	0xbef5ec59	-0.4803188
18	0xbeb9ed78	-0.36313987
19	0xbd682ac2	-0.056681402
20	0xbeb50416	-0.3535468
21	0x3cde0eef	0.02710673
22	0xbebd85c2	-0.37016112
23	0xbdf2b7d0	-0.11851466
24	0xbea23dbb	-0.31687722
25	0xbe41027f	-0.18848608
26	0xbf3d2c7e	-0.73896015
27	0x3d531fef	0.051544126
28	0xbe109595	-0.14119561
29	0xbf33e3b7	-0.7026934
30	0x3d8de53a	0.06928487
31	0xbe866ee0	-0.26256466
32	0x3ebde597	0.37089226
33	0x3e493b92	0.1965163
34	0xbe90d9f4	-0.28291285
35	0xbf0e2e8d	-0.5553978
36	0x3eb3fbf4	0.35153162
37	0xbd07f427	-0.033191826
38	0x3ee3524b	0.44398722
39	0xbcd90153	-0.02648989
40	0x3d7be295	0.061495382
41	0x3c52c539	0.012864404
42	0xbdd679d9	-0.10472459
43	0xbe9454fc	-0.28971088
44	0x3e25c196	0.16187128
45	0x3f22e224	0.63626313
46	0x3c9e9b06	0.01936103
47	0xbe369483	-0.1783009
48	0x3f242829	0.6412378
49	0xbf56ce41	-0.8390847
50	0xbea49b49	-0.32149723
51	0x3e82cf77	0.25548908
52	0x3e291baa	0.16514459
53	0x3e80e80e	0.25177044
54	0x3e671b22	0.22568944
55	0x3e5fb27a	0.21845427
56	0xbf3831ce	-0.71950996
57	0xbf07ba4a	-0.5301863
58	0xbe390e15	-0.18071778
59	0x3deb0ce5	0.11477069
60	0xbee9fde2	-0.4570151
61	0x3ec4eb04	0.38460553
62	0x3edd7f76	0.43261307
63	0x3d71eabf	0.059061762
64	0x3ef0a151	0.46998075
65	0xbe64b50b	-0.22334687
66	0xbddb1573	-0.106974505
67	0x3e22cb29	0.15897812
68	0xbf1c8e05	-0.61154205
69	0xbd2e3338	-0.042529315
70	0x3ea5e7aa	0.32403308
71	0xbe9907ae	-0.29888672
72	0x3e99cab3	0.3003746
73	0x3e8f20a2	0.27954584
74	0x3ec99db8	0.39378142
75	0xbe5978b7	-0.21237455
76	0xbdb54bbf	-0.08852338
77	0xbde6ef79	-0.112761445
78	0x3de951bc	0.11392543
79	0xbe443a3e	-0.19162843
80	0xbdc02e0b	-0.09383782
81	0x3f3c94d7	0.7366461
82	0x3dcff256	0.10153644
83	0x3d67e650	0.056616127
84	0xbe1e0fb3	-0.15435676
85	0x3c946d73	0.018118596
86	0x3d570ed0	0.05250436
87	0xbeec3bd5	-0.46139398
88	0xbe895a74	-0.26826823
89	0xbcf87a53	-0.030331766
90	0xbf06244c	-0.52399135
91	0xbf6661d9	-0.89993054
92	0xbec9a16b	-0.39380965
93	0xbe0edd71	-0.1395166
94	0xbeb0c664	-0.3452636
95	0xbe6283ff	-0.22120665
96	0xbf4b2520	-0.79353523
97	0xbd6ad59a	-0.057332613
98	0xbda59675	-0.08085338
99	0x3ec0c546	0.37650508
100	0x3f0a5955	0.5404256
101	0x3e4a82a3	0.19776396
102	0x3f0ad7e7	0.5423569
103	0x3f922232	1.1416686
104	0x3dc512c9	0.096227236
105	0x3e72093e	0.23636338
106	0x3eed9d6e	0.46409172
107	0x3df17115	0.11789147
108	0x3e2ea1db	0.1705393
109	0xbc9c923d	-0.0191127
110	0xbe75af86	-0.23992738
111	0x3db68f60	0.08914065
112	0xbe15f5e3	-0.1464458
113	0xbd28d6ce	-0.04122048
114	0xbe598bd7	-0.21244751
115	0xbe92a6df	-0.28642938
116	0xbe90abd7	-0.28256103
117	0xbe9610f1	-0.293098
118	0xbe9b2b3a	-0.30306417
119	0x3ee80dae	0.45322937
120	0x3f0c6736	0.5484499
121	0x3d8b56f8	0.06803697
122	0xbe9abf65	-0.30224147
123	0xbf1e0bdc	-0.61736846
124	0xbf042666	-0.5162109
125	0x3ece401e	0.40283293
126	0xbe611a91	-0.2198279
127	0x3f646ea0	0.892313
128	0xbe657b0a	-0.22410217
129	0x3d4830d6	0.0488747
130	0x3e8ac4de	0.27103323
131	0x3c8f40aa	0.017486889
132	0xbed16bfe	-0.40902704
133	0x3eaa9417	0.3331611
134	0xbf15a959	-0.5846153
135	0x3bfaa896	0.0076494915
136	0xbe3cad5a	-0.18425503
137	0x3f1b4010	0.60644627
138	0xbddc90b7	-0.1076979
139	0x3e19dd9e	0.15025946
140	0x3e718d33	0.2358902
141	0xbea04dec	-0.3130945
142	0x3ebc5c24	0.36789048
143	0x3d557054	0.052109078
144	0x3e02393d	0.12717147
145	0x3e1e8d03	0.15483479
146	0x3edc24eb	0.42996916
147	0x3daebbd9	0.08531923
148	0xbe72676e	-0.23672268
149	0x3d71a7a2	0.058997758
150	0xbee9a070	-0.45630217
151	0xbed009d8	-0.4063251
152	0xbebe7df0	-0.37205458
153	0x3e837693	0.25676402
154	0x3d10982d	0.035301376
155	0xbeee0c08	-0.46493554
156	0x3e9fc0cd	0.31201783
157	0x3c05a1d3	0.008156258
158	0x3e9e13cb	0.30874476
159	0xbe8113c8	-0.25210404
160	0xbe296ed5	-0.16546185
161	0xbe182ce8	-0.1486088
162	0x3f0fceb2	0.56174767
163	0xbea64131	-0.32471612
164	0x3d843553	0.06455483
165	0xbeb8f6a6	-0.36125678
166	0xbe5e682b	-0.21719424
167	0xbeb563ff	-0.35427853
168	0xbef276e7	-0.4735634
169	0x3e849d37	0.25901195
170	0xbf04293d	-0.51625425
171	0xbeb483ef	-0.35256907
172	0xbe7733e0	-0.24140882
173	0xbe15a824	-0.14614922
174	0xbea40e7f	-0.3204231
175	0x3da651b3	0.08121052
176	0xbe9bb361	-0.30410293
177	0x3e7a7aab	0.24460857
178	0xbe1ec0f7	-0.15503298
179	0x3d1163b3	0.03549547
180	0x3f23cd6a	0.6398531
181	0x3d1e9ab9	0.038721774
182	0xbf068646	-0.52548635
183	0x3e818245	0.252947
184	0x3dbe9553	0.09305825
185	0x3e878283	0.2646676
186	0xbece93a2	-0.4034701
187	0x3d744201	0.05963326
188	0xbb931cb0	-0.004489504
189	0x3e424c8a	0.1897451
190	0xbea25d45	-0.31711784
191	0xbebe9d89	-0.37229565
192	0x3e79d613	0.24398069
193	0x3f55c0b3	0.8349716
194	0xbcd6b705	-0.026210317
195	0xbe071bdb	-0.1319422
196	0xbb4e4050	-0.0031471439
197	0x3d7e27f0	0.062049806
198	0x3f03b487	0.5144734
199	0x3e60277e	0.21890065
200	0xbe478607	-0.19484721
201	0x3ea92f34	0.33043826
202	0xbf2e1766	-0.68004453
203	0xbec47022	-0.383668
204	0x3e9a3d5e	0.30124944
205	0x3eb5cf18	0.35509562
206	0xbf4b4dc1	-0.7941552
207	0x3e5345c2	0.20632079
208	0xbe9cac0f	-0.3060002
209	0x3ee55f54	0.44799292
210	0xbed0fe8d	-0.40819207
211	0xbf46caf3	-0.77653426
212	0xbdb1157a	-0.086466745
213	0x3d7499b8	0.05971691
214	0x3efd78b6	0.49506158
215	0x3d31cb6f	0.0434069
216	0x3e5c4226	0.21509609
217	0x3e274fdd	0.16339059
218	0x3de95a99	0.11394233
219	0xbf39f681	-0.7264176
220	0xbe286e4c	-0.16448325
221	0xbf0cf44c	-0.5506027
222	0x3f241ff7	0.64111274
223	0xbea340f9	-0.31885508
224	0x3ddb850a	0.107187346
225	0xbedc895f	-0.43073556
226	0x3e9fcd83	0.3121148
227	0xbdc21e3b	-0.09478422
228	0xbeeb70c2	-0.45984465
229	0xbc8d1ffa	-0.017227162
230	0x3dfb705e	0.12277292
231	0xbce7ab0a	-0.0282798
232	0xbee73d0c	-0.45163763
233	0x3e5d67c9	0.21621622
234	0xbe3900ef	-0.18066762
235	0xbe9c05be	-0.3047313
236	0xbeadbfec	-0.33935487
237	0xbeea4837	-0.4575822
238	0x3c10542a	0.008809129
239	0x3ee6ca12	0.45076042
240	0xbdf1ee71	-0.11813057
241	0xbc3cf916	-0.011533996
242	0xbf8731cd	-1.0562073
243	0x3e810021	0.2519541
244	0xbf3c2d27	-0.73506397
245	0x3f02f21a	0.5115067
246	0x3ef7be36	0.48387307
247	0x3ccc961f	0.024973927
248	0x3e2d60c5	0.16931446
249	0x3e96ebc9	0.29476765
250	0x3d6d7952	0.05797703
251	0x3ea9988f	0.33124205
252	0x3ebf50c5	0.3736631
253	0xbed2e30e	-0.41188854
254	0xbdc7f8ae	-0.09764229
255	0xbe39ce8f	-0.18145202

network.2.bias f4 [64]
0	0xbe599d3b	-0.21251385
1	0xbef5f791	-0.4804044
2	0xbe5db520	-0.21651125
3	0xbeb5c418	-0.3550117
4	0xbe4aa29c	-0.19788593
5	0xbe5fe567	-0.21864854
6	0xbc9d0701	-0.019168379
7	0xbdf8d15d	-0.12149308
8	0xbeaa85f3	-0.3330532
9	0xbef67f37	-0.48143932
10	0xbe489653	-0.19588594
11	0x3de99492	0.11405291
12	0xbdda14a0	-0.10648465
13	0xbe03f8bf	-0.12887858
14	0xbe00c524	-0.12575203
15	0xbd3da57b	-0.046300393
16	0xbe83785e	-0.2567777
17	0xbda290c5	-0.07937769
18	0xbc640e65	-0.013919448
19	0xbe1d7b25	-0.15379007
20	0x3e6384ff	0.22218703
21	0xbe8c3c21	-0.27389625
22	0xbeda8812	-0.42681938
23	0xbee9cd3f	-0.45664403
24	0xbe748c78	-0.2388171
25	0x3d8eddc0	0.06975889
26	0xbea96e41	-0.3309193
27	0x3e7c65d1	0.24648215
28	0xbebb9b00	-0.36641693
29	0xbe076d88	-0.13225377
30	0xbdfdd047	-0.123932414
31	0xbe4684aa	-0.19386545
32	0xbcc31e83	-0.02381826
33	0xbe307207	-0.17230998
34	0xbcabd989	-0.020977752
35	0xbd9c9c58	-0.07647008
36	0xbe9d4652	-0.30717713
37	0xbdfccc26	-0.12343626
38	0xbd3ed54e	-0.046590142
39	0xbe13eab0	-0.14444995
40	0xbea9483f	-0.33062932
41	0xbe368500	-0.17824173
42	0xbe980ae3	-0.29695806
43	0xbe0e9825	-0.13925226
44	0x3c0ffb11	0.008787886
45	0xbe991e3a	-0.29905874
46	0xbd1dee80	-0.03855753
47	0xbe4a6df7	-0.19768511
48	0xbe5a8dae	-0.21343109
49	0xbd9ec359	-0.07752103
50	0xbe3d6c8a	-0.18498436
51	0x3d752dbe	0.059858076
52	0xbcd86398	-0.026414678
53	0xbe0b6f4b	-0.13616674
54	0xbe5a0a21	-0.21292926
55	0xbe96d475	-0.29458967
56	0xbed8b6e6	-0.4232704
57	0xbe889ccc	-0.26682127
58	0xbea0dbdb	-0.31417736
59	0xbe81a451	-0.25320676
60	0xbeacfbc3	-0.3378583
61	0xbeac64d9	-0.3367069
62	0xbea7c63f	-0.32768437
63	0xbe26b6ba	-0.16280642

network.4.weight f4 [64, 64, 3, 3]
0	0x3e536b05	0.20646293
1	0x3e6d3401	0.23164369
2	0x3d67623a	0.05649016
3	0x3e03b649	0.12862505
4	0xbe939150	-0.28821802
5	0x3dedc20c	0.11609277
6	0x3e8295bd	0.25504866
7	0xbdb3eef8	-0.08785814
8	0xbdf8b63d	-0.12144134
9	0xbe9d2e81	-0.30699542
10	0xbd9b919b	-0.075961314
11	0xbe8cbb3c	-0.27486598
12	0xbef4ca85	-0.4781076
13	0xbf3c5b2b	-0.7357661
14	0xbc566bcb	-0.013087223
15	0xbe988956	-0.2979228
16	0xbeeeec6e	-0.46664757
17	0xbcfdf324	-0.030999728
18	0x3e6d2223	0.23157553
19	0xbdf1e927	-0.118120484
20	0x3afdcc47	0.0019363248
21	0xbeac0e96	-0.33604878
22	0x3f14e70f	0.5816507
23	0x3e4bb1f1	0.19892098
24	0xbe23b637	-0.15987478
25	0x3c5af3b8	0.013363771
26	0x3e029ac7	0.12754355
27	0xbf1a1be8	-0.6019883
28	0xbe8c995d	-0.27460757
29	0x3e8fba51	0.28071836
30	0xbd829553	-0.063761376
31	0x3bd1cc4a	0.006402527
32	0xbefbb58c	-0.49161947
33	0xbedde32e	-0.43337387
34	0x3e7e2ec1	0.24822523
35	0x3e0ee407	0.13954173
36	0x3e62831d	0.22120328
37	0x3e91f14c	0.28504407
38	0x3e5bf302	0.21479419
39	0x3a82d152	0.0009980595
40	0x3e548659	0.20754375
41	0x3e67f137	0.2265061
42	0x3e4c8c5a	0.19975415
43	0xbee70ec1	-0.45128444
44	0x3f0847c2	0.53234494
45	0x3e4798dd	0.19491906
46	0x3c8c4c19	0.01712613
47	0xbe1a30d6	-0.15057692
48	0xbf331431	-0.69952685
49	0xbf2127bf	-0.6295127
50	0xbea610e6	-0.32434767
51	0x3d390eed	0.04518025
52	0xbdeda85c	-0.116043776
53	0xbe09b7d5	-0.13449033
54	0x3f363ff6	0.71191347
55	0x3e436067	0.19079743
56	0x3f8f91af	1.1216334
57	0xbf1987ed	-0.5997303
58	0x3ec659f8	0.38740516
59	0x3da48709	0.080335684
60	0x3e098f2c	0.13433522
61	0x3e44f249	0.1923305
62	0x3db0e3a5	0.0863717
63	0x3eceb58c	0.40372884
64	0xbe9482fb	-0.2900618
65	0xbe14cefb	-0.14532082
66	0x3e73f882	0.23825267
67	0xbe53cfc8	-0.20684731
68	0xbf0bd18f	-0.54616636
69	0x3e8731c5	0.2640516
70	0xbedff2e2	-0.43739992
71	0x3ed73931	0.4203582
72	0xbd91a69b	-0.071118556
73	0xbec20e37	-0.3790147
74	0x3e2393ae	0.15974304
75	0xbec4b278	-0.3841741
76	0x3d326109	0.04354957
77	0xbef374bd	-0.47550002
78	0x3cdb9dcf	0.026808647
79	0xbdfa94b9	-0.12235398
80	0x3d8b665d	0.068066336
81	0x3e082609	0.1329576
82	0xbd93ea5d	-0.072224356
83	0x3df449c0	0.11928129
84	0xbef71b71	-0.48263124
85	0xbf367093	-0.71265525
86	0xbe8f0c40	-0.27939034
87	0x3ccfeb9c	0.025380902
88	0xbe777d36	-0.24168858
89	0xbe21465f	-0.157495
90	0x3ed98fcd	0.42492524
91	0xbe852fe3	-0.26013097
92	0xbe199c6e	-0.1500108
93	0x3c4cf1c5	0.012508814
94	0xbe41f1bf	-0.18939875
95	0xbd369c9b	-0.044582944
96	0x3e0487c3	0.12942414
97	0xbeb99652	-0.36247498
98	0xbe62c31c	-0.22144741
99	0x3e14b869	0.14523472
100	0xbf03f210	-0.51541233
101	0x3d966156	0.07342784
102	0xbeb52a7e	-0.3538398
103	0xbe228840	-0.15872288
104	0xbf46e8fd	-0.7769926
105	0xbdef10b1	-0.116731055
106	0xbda00c2f	-0.07814824
107	0xbe98fd07	-0.29880545
108	0x3daf4089	0.08557231
109	0xbd110265	-0.035402674
110	0xbdcfefdc	-0.101531714
111	0xbea79710	-0.3273244
112	0x3cf789bf	0.03021705
113	0xbdc35314	-0.0953733
114	0x3acbfc65	0.001556289
115	0x3e015766	0.12630996
116	0x3e914bc5	0.2837812
117	0xbcfb65c9	-0.030688183
118	0x3d343e07	0.044004466
119	0x3ccab1fe	0.024743076
120	0x3cd43101	0.025902273
121	0x3b972fd7	0.0046138573
122	0xbcf98286	-0.030457746
123	0xbd013d49	-0.031552587
124	0xbc47a836	-0.012186101
125	0x3ca55aed	0.020184958
126	0xbd7f9141	-0.062394384
127	0xbd9380ab	-0.07202276
128	0xbd7ed299	-0.06221256
129	0xbbefd315	-0.007318864
130	0xbcd55bad	-0.026044691
131	0xbd17fcf4	-0.03710647
132	0x3d0867d5	0.033302147
133	0x3d0b4266	0.03399887
134	0x3b493b95	0.003070568
135	0xbeb53ea7	-0.35399362
136	0xbe68b866	-0.22726592
137	0xbdd94b36	-0.106100485
138	0xbeda9c7d	-0.42697516
139	0xbf1d2660	-0.6138668
140	0x3ea10e05	0.3145601
141	0x3e264582	0.16237453
142	0xbea479f4	-0.32124293
143	0xbedd295c	-0.43195617
144	0x3d33e4f3	0.043919515
145	0x3e8a1ffc	0.26977527
146	0x3e5b3862	0.21408227
147	0x3d4d7d42	0.050168283
148	0xbe45e69a	-0.19326249
149	0x3e8d6115	0.2761313
150	0x3c014b0b	0.007891427
151	0xbe86d60d	-0.26335183
152	0x3d6d1505	0.057881374
153	0x3f0d0eb3	0.55100554
154	0xbe52b923	-0.20578437
155	0xbe3079e8	-0.17234004
156	0x3efc1e89	0.49242046
157	0xbecd49b2	-0.40095288
158	0xbddac182	-0.1068144
159	0x3f0666f5	0.5250085
160	0xbeaf3523	-0.34220228
161	0xbcebc476	-0.028780203
162	0xbe59f1d9	-0.21283664
163	0xbd2b1982	-0.041772373
164	0xbf1e25e5	-0.6177657
165	0xbefdfc11	-0.49606374
166	0xbf301c67	-0.6879334
167	0xbf2aa66a	-0.6666018
168	0x3dcbb307	0.09946256
169	0xbda0f2e1	-0.078588255
170	0xbeb2bccc	-0.34909666
171	0xbddda1fc	-0.10821912
172	0x3e2c2db4	0.1681431
173	0x3e8d2d60	0.2757368
174	0xbe50073c	-0.2031526
175	0xbe28342d	-0.16426153
176	0xbd90746b	-0.07053455
177	0xbed9a2bf	-0.42506978
178	0x3e6416b5	0.22274287
179	0xbf273ca7	-0.65326923
180	0x3e522a52	0.20523956
181	0xbe876a96	-0.26448506
182	0xbf509945	-0.8148387
183	0x3d8651f2	0.065585986
184	0x3e51c22d	0.20484228
185	0x3e6b61be	0.22986504
186	0xbdbf732a	-0.09348138
187	0xbef01865	-0.46893612
188	0xbe8cf745	-0.27532402
189	0xbd3af49e	-0.04564344
190	0xbd99ee48	-0.07516152
191	0x3e4da8f2	0.20083979
192	0x3e828cfd	0.2549819
193	0x3e4e6047	0.20153914
194	0xbdd00fc6	-0.101592585
195	0xbedd349a	-0.43204194
196	0xbedd3fd4	-0.4321276
197	0xbed17d9a	-0.4091614
198	0xbf1577e7	-0.5838608
199	0x3d64f134	0.05589409
200	0xbf8ee5bd	-1.116386
201	0xbe82bdeb	-0.2553552
202	0xbd8e34ce	-0.069436654
203	0xbf06531e	-0.52470577
204	0xbe6c14b9	-0.2305478
205	0xbd1307d2	-0.03589613
206	0xbee41ff3	-0.44555625
207	0xbe06ecc7	-0.13176261
208	0x3e400c82	0.18754771
209	0x3926c6e4	0.00015905086
210	0x3bc83f4b	0.0061110607
211	0xbe81439f	-0.25246903
212	0xbe709866	-0.23495635
213	0xbde00a9d	-0.10939524
214	0xbd44a739	-0.04801104
215	0xbdf2d163	-0.118563436
216	0xbd57110a	-0.052506484
217	0x3ebcf14b	0.36902842
218	0x3d20cd39	0.039258216
219	0xbf1cc0ac	-0.61231494
220	0xbefc76ff	-0.49309537
221	0x3ee938d8	0.4555118
222	0x3e81b7f8	0.2533567
223	0x3e9e7254	0.309466
224	0xbea3fd3e	-0.32029146
225	0x3c965228	0.018349722
226	0x3e17ae4f	0.14812587
227	0x3d986aa6	0.074422166
228	0xbf2bffb7	-0.67187065
229	0x3f1530a5	0.5827735
230	0xbf1f9f55	-0.62352496
231	0x3e8840de	0.2661199
232	0x3eba481f	0.3638315
233	0x3e83c6a7	0.25737497
234	0x3d319575	0.043355424
235	0x3c921b7d	0.017835373
236	0x3e9c3e66	0.30516356
237	0xbea4c2fe	-0.32180017
238	0xbcd42a71	-0.025899144
239	0x3dc72f69	0.0972584
240	0xbe1ad14d	-0.15118904
241	0xbea31ec8	-0.31859422
242	0x3e564a9e	0.20926902
243	0x3ce024bd	0.027361268
244	0xbe3ec4aa	-0.18629709
245	0xbd17be32	-0.03704662
246	0x3dfa56ac	0.122235626
247	0xbed955ef	-0.42448375
248	0xbf301910	-0.6878824
249	0x3d043ef1	0.032286588
250	0xbe4f9e78	-0.20275295
251	0xbd967773	-0.07347002
252	0x3e8704bf	0.26370808
253	0x3f1e75d9	0.6189857
254	0xbe96f7fa	-0.29486066
255	0xbda3b5fd	-0.07993696

network.4.bias f4 [64]
0	0xbeb99d25	-0.36252704
1	0xbf0e1985	-0.5550769
2	0xbf1341ec	-0.57522464
3	0xbd21adc0	-0.03947234
4	0xbeb2e352	-0.34939057
5	0xbd2bce70	-0.04194492
6	0xbf0ff738	-0.562366
7	0xbefc7f51	-0.49315885
8	0xbf35c8e2	-0.7100965
9	0xbf2553e3	-0.64581126
10	0xbf003b6d	-0.50090677
11	0xbefd2330	-0.49440908
12	0xbf2f1c15	-0.68402225
13	0xbe0df23e	-0.1386194
14	0xbe5405c4	-0.20705324
15	0xbe758d7a	-0.2397975
16	0xbf15c374	-0.5850136
17	0xbf09dff0	-0.53857327
18	0xbe485333	-0.19562988
19	0xbef6f16d	-0.48231068
20	0xbe25a810	-0.16177392
21	0xbf3c3588	-0.7351918
22	0xbd272de4	-0.04081525
23	0xbeae2108	-0.34009576
24	0xbf0d5519	-0.55207974
25	0xbdadad00	-0.08480263
26	0xbcbaa598	-0.02278404
27	0xbd050d83	-0.03248359
28	0xbea97351	-0.33095792
29	0xbed08625	-0.40727344
30	0xbe2a3219	-0.16620673
31	0x3c9738e6	0.018459748
32	0xbed88413	-0.42288265
33	0xbf50d472	-0.81574166
34	0xbedc7a13	-0.43061885
35	0xbe4859fd	-0.19565578
36	0xbf12fc6f	-0.57416433
37	0xbf025a99	-0.5091949
38	0xbecb2aa2	-0.39680964
39	0xbf0e6720	-0.55626106
40	0xbf38ee11	-0.7223826
41	0xbf0fea00	-0.5621643
42	0xbeb73520	-0.3578272
43	0xbeb4341a	-0.35196
44	0xbf0084f5	-0.50202876
45	0xbedcc9f7	-0.43122837
46	0xbf02d33c	-0.5110357
47	0xbf0e4376	-0.5557169
48	0xbdfbea53	-0.12300553
49	0xbf153a2e	-0.582919
50	0xbf29b166	-0.66286314
51	0xbeb0967c	-0.3448981
52	0xbefa366c	-0.48869646
53	0xbdb1e247	-0.08685737
54	0xbc99a668	-0.018756106
55	0xbded342b	-0.11582216
56	0xbf0c5351	-0.5481463
57	0xbee75728	-0.45183682
58	0xbf0f8277	-0.5605845
59	0xbf1aa373	-0.60405654
60	0xbda8ffc3	-0.08251908
61	0xbee2f7ac	-0.44329584
62	0xbf41cfd9	-0.75707775
63	0xbe509029	-0.20367493

actor.weight f4 [5, 3136]
0	0x3dea0d8b	0.11428364
1	0xbe9d3c24	-0.30709946
2	0x3e8025bd	0.25028792
3	0x3e2cc647	0.16872512
4	0x3f12d2c5	0.5735286
5	0x3e9065ec	0.2820276
6	0xbf3213cf	-0.69561476
7	0xbeebcfa6	-0.4605686
8	0xbe0d6916	-0.13809618
9	0x3c5994cf	0.013280108
10	0xbd872ab9	-0.065999456
11	0xbde37ade	-0.111074194
12	0x3f17d265	0.5930541
13	0x3ec213f1	0.3790584
14	0xbe468836	-0.19387898
15	0xbd41ad9c	-0.047284707
16	0xbe22012f	-0.15820764
17	0x3c385c30	0.011252448
18	0x3e768e04	0.24077612
19	0x3edfc128	0.43702054
20	0x3e28ff3c	0.16503614
21	0x3e37d3d1	0.17951895
22	0xbdce9f32	-0.10088958
23	0x3ead2c6c	0.33822954
24	0xbec9b987	-0.3939936
25	0x3c404a87	0.011736519
26	0x3ea19e7b	0.31566224
27	0x3e93051f	0.28714845
28	0xbe64eb0f	-0.22355293
29	0xbe2e1116	-0.16998705
30	0x3d50e10b	0.050995868
31	0x3e2c7085	0.16839798
32	0xbe89af7f	-0.26891705
33	0xbdded62b	-0.10880693
34	0xbe2c944c	-0.16853446
35	0x3f7b13ed	0.9807728
36	0xba83ac90	-0.0010045934
37	0x3f1c98ec	0.6117084
38	0xbd573aa9	-0.052546177
39	0xbf366c16	-0.71258676
40	0xbdba57cf	-0.090987794
41	0x3d5f66d2	0.054541416
42	0x3ed473ff	0.41494748
43	0x3ea1bc28	0.31588864
44	0x3e4473e4	0.19184834
45	0xbeac3b19	-0.33638838
46	0xbe00d1b1	-0.12579991
47	0x3d252178	0.04031512
48	0xbd2183f5	-0.039432485
49	0xbec9d169	-0.3941758
50	0x3eb8c7ef	0.36090037
51	0x3eb70572	0.35746342
52	0xbead8a89	-0.33894756
53	0xbe5279bb	-0.20554249
54	0x3e6b55fc	0.22982019
55	0x3e6567a7	0.22402821
56	0xbf1abe34	-0.60446477
57	0xbddeb3a2	-0.10874106
58	0x3e4e6407	0.20155345
59	0xbdf5d85a	-0.120041564
60	0x3d764b7e	0.06013059
61	0xbee4dec9	-0.44701222
62	0x3dff0124	0.124513894
63	0xbea97474	-0.3309666
64	0xbd73f376	-0.059558354
65	0xbbd9c482	-0.00664574
66	0x3dcd5c19	0.10027332
67	0x3e700fac	0.23443478
68	0xbe0c46f7	-0.13698946
69	0x3ecfd8f6	0.40595216
70	0xbd6b230a	-0.057406463
71	0xbe0d9475	-0.13826163
72	0xbdbf47c1	-0.09339858
73	0x3e819f2a	0.25316745
74	0x3c714016	0.014724752
75	0xbd884e96	-0.06655614
76	0x3e11021f	0.14160965
77	0x3e2c7267	0.16840516
78	0xbaab3d1f	-0.001306448
79	0x3f420489	0.7578817
80	0xbc5d9e32	-0.013526486
81	0x3c2cf93e	0.010557471
82	0xbec4581e	-0.38348478
83	0xbd7ffc8f	-0.062496718
84	0x3dd3b8ad	0.103379585
85	0xbd7691d4	-0.060197666
86	0x3dc58cc3	0.09645989
87	0x3cb425e5	0.021990726
88	0x3ed192f6	0.40932435
89	0xbeaaafdc	-0.33337295
90	0xbdce9f66	-0.100889966
91	0x3d8fff8e	0.07031165
92	0x3ee5a07e	0.44849008
93	0xbe2ffb19	-0.1718563
94	0x3e5cf564	0.21577984
95	0xbd83eaab	-0.06441244
96	0xbdf189cb	-0.1179386
97	0x3e571bd5	0.21006711
98	0x3f2462d4	0.642133
99	0xbf5d8298	-0.86527395
100	0xbdcf2553	-0.10114541
101	0xbeb7cde3	-0.35899267
102	0x3db75a66	0.08952789
103	0xbd29e7c6	-0.041480802
104	0x3e847319	0.25869063
105	0xbf259aca	-0.64689314
106	0xbd03e0cf	-0.032196816
107	0x3f1dc426	0.61627424
108	0xbe5f1f17	-0.21789204
109	0xbebccbcb	-0.36874232
110	0xbede5991	-0.4342771
111	0x3df14fad	0.11782775
112	0xbdf89fff	-0.12139892
113	0xbe13aa3a	-0.14420405
114	0xbf3b414d	-0.73146516
115	0xbcd11fdd	-0.025527889
116	0x3d60a33f	0.054843184
117	0xbcdb6155	-0.02677981
118	0xbe7a8788	-0.24465764
119	0xbe410f3c	-0.18853468
120	0x3ea16b44	0.3152715
121	0x3eaf8cbc	0.3428706
122	0x3f281185	0.6565173
123	0xbed69fe5	-0.41918865
124	0x3edb5f2a	0.42846042
125	0x3ed73924	0.42035782
126	0x3ec05920	0.37567997
127	0x3e0e573c	0.13900465
128	0x3f425305	0.7590793
129	0x3d768a3d	0.060190428
130	0xbcc4458d	-0.023958946
131	0x3eccd8a0	0.40009022
132	0x3e15ca32	0.14627913
133	0xbe4f3d7f	-0.20238303
134	0x3def181a	0.11674519
135	0xbecf1762	-0.40447527
136	0xbf44b56e	-0.7683934
137	0xbe854b87	-0.26034185
138	0xbecaee15	-0.39634767
139	0xbec454b9	-0.38345888
140	0x3dc36a54	0.09541765
141	0x3e92e15b	0.28687558
142	0xbe46bd49	-0.19408144
143	0xbd491661	-0.049093608
144	0x3dcbaf60	0.099455595
145	0xbe5f5e5c	-0.21813339
146	0xbea1b351	-0.3158212
147	0x3e2f97f8	0.17147815
148	0x3ead86f2	0.33892018
149	0x3e26d029	0.16290344
150	0x3e550f63	0.20806651
151	0x3e9f4c05	0.31112686
152	0x3e872cf3	0.2640148
153	0x3e90fa24	0.28315842
154	0xbe055e80	-0.1302433
155	0xbd940a84	-0.07228568
156	0x3d813a2b	0.06309923
157	0xbe6a0a50	-0.22855496
158	0xbcc22e43	-0.0237037
159	0xbe2bdfd4	-0.16784602
160	0x3ea522ae	0.3225302
161	0x3e27f4a8	0.16401923
162	0x3c804417	0.015657468
163	0x3e78dc0b	0.2430269
164	0x3e2c85e4	0.1684795
165	0x3ee86252	0.45387512
166	0x3f00368a	0.5008322
167	0x3f0c2151	0.54738337
168	0x3eb44bd8	0.35214114
169	0x3d1e7c05	0.038692493
170	0x3df18c0c	0.1179429
171	0xbd9bda78	-0.07610029
172	0x3d1abad0	0.037775815
173	0x3c520eba	0.012820894
174	0x3ba80d0b	0.005128508
175	0x3e8d6adf	0.276206
176	0xbd1afa9f	-0.037836667
177	0xbe14dfc6	-0.14538488
178	0x3d5cde30	0.053922832
179	0x3e57d264	0.21076351
180	0x3e334561	0.17506935
181	0x3e8c5c30	0.27414083
182	0x3e81f7a6	0.25384253
183	0xbea26887	-0.31720373
184	0x3e86776b	0.26262984
185	0xbf1581b4	-0.58401036
186	0x3eb221b5	0.3479134
187	0xbed957de	-0.4244985
188	0x3e0e2c36	0.13884053
189	0xbeabbd30	-0.33542776
190	0x3e7acdd3	0.24492578
191	0xbeaf22df	-0.34206292
192	0x3e92cd3a	0.286722
193	0x3cdf2adc	0.027242117
194	0x3f10447c	0.563545
195	0x3e4ee53e	0.20204636
196	0x3e8c0412	0.27346855
197	0x3dcdf843	0.10057118
198	0xbdd376b0	-0.10325372
199	0xbe7c7e1b	-0.2465748
200	0x3db5ca27	0.08876448
201	0xbcf6a0fa	-0.030106056
202	0xbeb3fe17	-0.35154793
203	0xbe8aba54	-0.27095282
204	0x3f05510e	0.52076805
205	0xbe18b707	-0.1491357
206	0xbc4a3951	-0.012342767
207	0xbeb21942	-0.34784895
208	0x3f1d7910	0.6151285
209	0x3eacab2a	0.33724338
210	0xbf1c44a5	-0.61042243
211	0xbd3c21fe	-0.045930855
212	0x3e0b19c2	0.13584045
213	0x3eb7e3a8	0.35915875
214	0x3efd2293	0.4944044
215	0x3e768cf3	0.24077205
216	0x3cc3197d	0.023815865
217	0xbd964be0	-0.07338691
218	0x3dd48d7b	0.10378548
219	0xbef1ee2d	-0.47252026
220	0x3f3ecd35	0.7453187
221	0x3e3c35fe	0.18379971
222	0x3e8c9280	0.2745552
223	0x3ea67670	0.32512236
224	0xbcc32eae	-0.02382597
225	0xbecec741	-0.40386394
226	0x3e445072	0.19171312
227	0x3e6ccd84	0.23125273
228	0xbdde55bb	-0.108561955
229	0x3f1001f6	0.5625299
230	0x3efa1ce2	0.4885016
231	0x3da06e84	0.07833579
232	0x3ecb1690	0.3966565
233	0x3e8a1908	0.26972222
234	0xbf08cbd2	-0.53436005
235	0xbe0b3b60	-0.13596869
236	0x3cb7b237	0.022423847
237	0x3f05e146	0.52296865
238	0x3d7c8897	0.0616537
239	0x3d6aeecd	0.057356644
240	0xbe88f421	-0.26748756
241	0x3e41ef2a	0.1893889
242	0x3e1c192f	0.15243982
243	0xbdc88009	-0.09790046
244	0xbe814a53	-0.25252017
245	0x3e89ff95	0.26952806
246	0x3f03a3dd	0.5142191
247	0xbdf99f7f	-0.121886246
248	0xbec3dc4a	-0.38254005
249	0x3e560ca5	0.20903261
250	0xbd3a3934	-0.04546471
251	0xbe026733	-0.1273468
252	0xbd9ad253	-0.075596474
253	0x3e364d3b	0.17802899
254	0x3e0f0bb9	0.13969316
255	0xbe01812e	-0.12646934

actor.bias f4 [5]
0	0xbe84969b	-0.25896153
1	0x3ed8cbd4	0.4234301
2	0x3ea3acd2	0.3196779
3	0xbe171ebd	-0.1475782
4	0xbe3fa3c5	-0.18714817

critic.weight f4 [1, 3136]
0	0xbe278879	-0.16360654
1	0x3e501379	0.20319928
2	0xbef32204	-0.4748689
3	0xbe93d018	-0.288697
4	0x3df08bee	0.117454395
5	0x3de0a975	0.10969821
6	0xbe8c6d06	-0.27426928
7	0xbe7dd7bc	-0.24789327
8	0xbed4f635	-0.4159409
9	0xbbaa1176	-0.00519007
10	0xbddf83d3	-0.10913815
11	0xbd3524f9	-0.044224713
12	0x3e2948b8	0.16531646
13	0xbe0305de	-0.12795207
14	0xbf42ce50	-0.7609606
15	0x3ea175d7	0.31535217
16	0xbe07611c	-0.13220638
17	0xbe56efd7	-0.20989929
18	0xbea10634	-0.31450045
19	0x3e2a8f24	0.16656166
20	0xbeccc887	-0.3999674
21	0xbf1e7316	-0.6189436
22	0xbe74068e	-0.23830625
23	0x3da91e25	0.08257703
24	0x3eb496e0	0.35271358
25	0x3ed33221	0.41249183
26	0x3e396aef	0.18107198
27	0x3dd5ebf1	0.10445393
28	0xbf331e7c	-0.6996839
29	0xbe91b01f	-0.28454682
30	0x3e1a797f	0.1508541
31	0xbd873a01	-0.0660286
32	0x3d43649c	0.04770337
33	0x3dc203da	0.09473391
34	0xbe9c51f5	-0.30531278
35	0xbf0917e4	-0.5355208
36	0x3da56261	0.08075405
37	0x3d6b5d47	0.057462003
38	0xbeb6eb90	-0.35726595
39	0xbe8471d1	-0.25868085
40	0x3eb1bcc1	0.3471432
41	0xbede1d86	-0.433819
42	0x3e15613a	0.1458787
43	0x3e9e30b4	0.30896533
44	0xbe70165d	-0.23446031
45	0x3ec83dd3	0.39109668
46	0xbb8f8d16	-0.0043808324
47	0x3c3443da	0.011002505
48	0xbe3f9fbe	-0.1871328
49	0x3e772ea1	0.24138881
50	0xbe92ff99	-0.2871063
51	0xbef35b62	-0.47530657
52	0xbe54bab3	-0.20774345
53	0xbdf74f4b	-0.12075671
54	0x3e3e23c9	0.18568338
55	0x3e60d65f	0.21956776
56	0xbe8aa7ff	-0.27081296
57	0x3ce4ed6a	0.02794524
58	0xbe8cbe75	-0.27489057
59	0xbe5023ec	-0.20326203
60	0xbe669f70	-0.22521758
61	0x3e791960	0.24326086
62	0xbd8b3562	-0.06797291
63	0x3e13fb1e	0.14451262
64	0xbdeda196	-0.11603086
65	0xbdfadb9f	-0.12248921
66	0xbf028275	-0.5098031
67	0x3cad9788	0.02119042
68	0x3e008df3	0.1255415
69	0xbe249dd0	-0.16075826
70	0xbf034670	-0.51279354
71	0xbea6101d	-0.32434168
72	0xbefc141d	-0.49234095
73	0xbeddb90e	-0.43305248
74	0xbde5313d	-0.11191032
75	0xbc8b6836	-0.017017465
76	0x3eced46d	0.40396443
77	0x3d0001a3	0.03125156
78	0xbe9ced36	-0.30649728
79	0xbeeced83	-0.46274957
80	0xbec37155	-0.38172403
81	0x3dfd30fb	0.12362858
82	0xbdcae68b	-0.09907254
83	0xbeb77eda	-0.35838968
84	0xbe72bd06	-0.23704919
85	0xbeb740fd	-0.3579177
86	0xbe58a378	-0.21156108
87	0xbf31433b	-0.6924321
88	0x3d3d7126	0.046250485
89	0xbd99d0c3	-0.07510521
90	0xbe8c4894	-0.27399123
91	0xbed3ab64	-0.41341698
92	0xbed8a442	-0.4231282
93	0xbee15a66	-0.4401428
94	0xbf1d18b2	-0.6136581
95	0x3eb3b312	0.35097557
96	0xbedfd2e6	-0.4371559
97	0x3cf8a88f	0.030353813
98	0xbd19e356	-0.03757032
99	0x3db2c314	0.087286144
100	0x3e2f5f0b	0.171261
101	0x3e1b6a10	0.15177178
102	0xbe518994	-0.20462638
103	0xbddc2af0	-0.10750377
104	0x3dbce58e	0.092234716
105	0x3d90de3e	0.07073639
106	0x3d408e92	0.047010966
107	0x3c9a3a8b	0.018826744
108	0x3e8ad1e4	0.2711326
109	0x3e9ce5bd	0.30644026
110	0x3be2c2c6	0.0069201915
111	0xbe93c671	-0.28862336
112	0x3f322f9b	0.6960389
113	0x3e2230cb	0.15838926
114	0xbe1a5c7b	-0.15074341
115	0xbdba9ee5	-0.09112338
116	0xbe26e117	-0.16296802
117	0xbd4c4b0f	-0.04987627
118	0xbe0b3309	-0.13593687
119	0x3d2802b5	0.041018207
120	0x3e8aee59	0.2713497
121	0x3bdd9dcb	0.006763195
122	0x3e67cd03	0.226368
123	0x3e36c021	0.17846729
124	0xbe05ced5	-0.13067181
125	0x3e198732	0.14992979
126	0x3d8cab14	0.06868568
127	0xbea2f882	-0.3183022
128	0xbc48a26f	-0.012245758
129	0xbebb76e8	-0.36614156
130	0xbeba635d	-0.36403933
131	0xbd587e58	-0.052854866
132	0x3e8b08b2	0.27155071
133	0x3e558cf2	0.20854548
134	0x3ed9f4dc	0.42569625
135	0x3d8d0c03	0.06887057
136	0xbdfd5199	-0.12369079
137	0xbe6be5f8	-0.23036945
138	0x3eecdc73	0.4626194
139	0x3ee8e05f	0.45483682
140	0x3ea0a8ab	0.31378683
141	0x3cdecf55	0.027198473
142	0xbe9281f9	-0.28614786
143	0xbe0db349	-0.13837923
144	0x3cdcd3b2	0.026956413
145	0x3e358f8a	0.17730537
146	0xbd1aa5ff	-0.037755962
147	0x3f1feac5	0.62467605
148	0x3f01b712	0.5066997
149	0x3f058aea	0.5216509
150	0x3f2d71db	0.67751855
151	0x3f0f1cc9	0.559033
152	0x3f17709a	0.5915619
153	0x3f0a0b34	0.53923345
154	0x3ed691f5	0.4190823
155	0x3f028f72	0.5100013
156	0x3f327c86	0.6972126
157	0x3f04d9b6	0.518947
158	0x3f005fda	0.5014626
159	0x3f1105a4	0.5664923
160	0x3edcf77f	0.43157575
161	0xbeb8edb3	-0.3611885
162	0xbe486863	-0.1957107
163	0x3f0d6fbd	0.55248624
164	0x3eef7a31	0.46772912
165	0x3e25fd22	0.16209844
166	0xbdaa9093	-0.083283566
167	0x3e94facc	0.29097593
168	0x3ef5b903	0.47992715
169	0x3e884851	0.26617673
170	0x3dca4e42	0.09878208
171	0x3ebb49a0	0.3657961
172	0x3f3112bc	0.6916921
173	0x3f1f0d91	0.62130076
174	0x3f056795	0.5211118
175	0x3f069ace	0.52579963
176	0x3f181a18	0.59414816
177	0x3f625023	0.8840353
178	0x3f12b5e6	0.57308805
179	0x3f70b8c5	0.94031936
180	0x3efffbc4	0.4999677
181	0x3effcdf3	0.49961814
182	0xbe49cc34	-0.19706804
183	0xbf018a18	-0.5060134
184	0x3f4de2c4	0.8042414
185	0x3f160884	0.58606744
186	0x3f386be0	0.72039604
187	0x3ea5604d	0.32300034
188	0x3eac9c80	0.3371315
189	0xbdd6360a	-0.10459526
190	0xbeb0b1c0	-0.34510612
191	0xbe364f41	-0.1780367
192	0x3f3d0be1	0.7384625
193	0x3ea4b83b	0.32171807
194	0xbec52d31	-0.3851104
195	0xbe2711e2	-0.16315416
196	0xbe0e188e	-0.13876554
197	0xbea2b1b1	-0.31776193
198	0xbeaadfc2	-0.3337384
199	0xbdca9744	-0.09892133
200	0xbb91c838	-0.0044489168
201	0x3c8fcf11	0.017554792
202	0x3f0ec068	0.5576234
203	0xbe917539	-0.28409746
204	0x3dc26256	0.09491412
205	0x3e2c2a81	0.16813089
206	0x3cc43cba	0.023954738
207	0xbe02e485	-0.12782486
208	0x3e2a633c	0.16639417
209	0xbd1cc532	-0.038273998
210	0x3ecea5c4	0.40360844
211	0xbf31b9bb	-0.6942403
212	0xbec4eed5	-0.38463464
213	0x3e879f6b	0.26488814
214	0xbec6a7c6	-0.38799876
215	0x3cbebf40	0.023284554
216	0x3e784105	0.24243553
217	0x3df71969	0.120653935
218	0xbe2c9a58	-0.16855752
219	0x3e1d87c3	0.1538382
220	0xbee23343	-0.44179735
221	0xbdd7ae48	-0.105312884
222	0x3dcf4e4e	0.10122357
223	0xbd5a02a1	-0.053225163
224	0xbea41bff	-0.3205261
225	0x3ed8d832	0.42352444
226	0x3d8b56b5	0.068036474
227	0xbe737943	-0.23776726
228	0xbed4ba5b	-0.41548428
229	0x3e6b5b49	0.22984041
230	0xbe4da877	-0.20083795
231	0x3e8a4f46	0.27013606
232	0x3e720d73	0.23637943
233	0xbdac07c0	-0.08399916
234	0x3ea56f78	0.32311606
235	0xbebc2e3c	-0.36754024
236	0xbd2f7754	-0.04283841
237	0x3cd32015	0.025772134
238	0xbdbff691	-0.09373201
239	0xbe0b0a51	-0.13578154
240	0xbec0a9e0	-0.37629604
241	0xbef7fc38	-0.48434615
242	0xbd9c9b5a	-0.076468185
243	0x3e444be0	0.19169569
244	0xbf112407	-0.566956
245	0xbe7db71a	-0.24776879
246	0xbdcbeb9b	-0.099570476
247	0x3e669f5c	0.22521728
248	0xbea4fb85	-0.32223144
249	0x3e9f0108	0.31055474
250	0xbea00ed1	-0.31261304
251	0xbe8044bd	-0.25052443
252	0xbe991c7d	-0.29904547
253	0x3e0b5d46	0.136098
254	0x3e0b6e7e	0.13616368
255	0x3e321d36	0.17393956
