PARALLEL/models/HIDER_GROUP_POLICY_BOTH_8500.ckpt (torch, 307166 bytes, 9 tensors)

network.0.weight f4 [32, 5, 3, 3]
0	0xbe7f246e	-0.2491624
1	0x3e71f6a3	0.2362924
2	0x3e4c9333	0.19978027
3	0x3cca73b1	0.02471337
4	0xbec6da93	-0.38838634
5	0x3d7b9e63	0.061430346
6	0xbd36192d	-0.044457603
7	0xbe5b7d4d	-0.21434517
8	0xbefd23fd	-0.4944152
9	0xbeffa2d8	-0.49928927
10	0xbe54c281	-0.20777322
11	0xbf4baea0	-0.7956333
12	0xbf0194d9	-0.5061775
13	0xbf2d37b6	-0.67663133
14	0xbf694545	-0.9112132
15	0xbdac9a76	-0.084278986
16	0xbfa6e544	-1.3038716
17	0xbf1aada8	-0.6042123
18	0x3e13e0ca	0.14441219
19	0x3f02d2f2	0.51103127
20	0x3e71249c	0.23549122
21	0xbf5186ea	-0.8184649
22	0x3ec9c80f	0.39410445
23	0x3ded51bd	0.11587856
24	0xbe0be4be	-0.13661477
25	0x3f1188f2	0.56849587
26	0x3eb6adf3	0.35679588
27	0x3f00c443	0.5029947
28	0xbd5da3bf	-0.05411124
29	0xbeb935ab	-0.36173758
30	0xbd619373	-0.05507226
31	0x3ef8970b	0.48552737
32	0x3ece6603	0.40312204
33	0x3dbd3354	0.09238306
34	0x3e513da4	0.2043367
35	0x3f0de4d8	0.5542731
36	0x3de8152e	0.11332165
37	0x3f0bb586	0.5457386
38	0xbeff2c64	-0.49838555
39	0xbed5021d	-0.41603175
40	0xbcef7cda	-0.029234339
41	0xbeffdf4b	-0.49975047
42	0xbefada6d	-0.4899477
43	0xbe2f17f9	-0.17098989
44	0xbebfb07c	-0.37439334
45	0xbe96e9f7	-0.29475376
46	0xbe5c1a5c	-0.2149443
47	0xbf3f76f3	-0.7479088
48	0xbe4c4167	-0.19946824
49	0xbeb9f276	-0.36317796
50	0xbe3182db	-0.17335074
51	0xbe9da74e	-0.30791706
52	0xbca1ad0f	-0.019735841
53	0xbea5f6c8	-0.32414842
54	0xbe6ba859	-0.23013438
55	0xbf301dd0	-0.6879549
56	0xbec4614d	-0.38355485
57	0x3e7edbdf	0.24888562
58	0xbeb9f780	-0.3632164
59	0xbe3b760b	-0.18306749
60	0xbe2c36a3	-0.16817717
61	0xbef40c0f	-0.4766545
62	0xbe23e012	-0.16003445
63	0xbf45bccc	-0.77241206
64	0x3d5ea317	0.054354753
65	0xbdb0d8d1	-0.086351044
66	0x3dea8ba3	0.11452415
67	0xbe7bec34	-0.24601823
68	0x3e806f85	0.25085083
69	0x3f346d42	0.70479214
70	0x3ef3e738	0.47637343
71	0x3c6252b4	0.013813663
72	0xbf0938fc	-0.53602576
73	0x3f045c86	0.5170368
74	0xbdbc90cd	-0.09207306
75	0x3e5eebba	0.2176961
76	0x3e3bfa7a	0.18357268
77	0x3e38d4c1	0.18049909
78	0x3e3ee47d	0.18641849
79	0xbf198dfb	-0.5998227
80	0x3e8a20ec	0.26978242
81	0xbebc9315	-0.36830965
82	0xbeb45a7c	-0.35225284
83	0xbf83b82b	-1.0290579
84	0x3ca454c5	0.020059953
85	0xbe24fa01	-0.16110994
86	0x3e56fa40	0.209939
87	0x3f151e11	0.58249
88	0xbf061b5a	-0.52385485
89	0xbdef1191	-0.116732724
90	0xbf04c7cd	-0.5186737
91	0xbf2dadab	-0.6784312
92	0xbe7368a7	-0.2377039
93	0xbe5d1051	-0.21588255
94	0xbe9785ec	-0.29594362
95	0xbd6edd08	-0.05831626
96	0xbf4390b9	-0.76392704
97	0xbe0a8b8f	-0.135298
98	0x3e78ea0c	0.24308032
99	0xbe924a0f	-0.28572127
100	0x3e44a017	0.19201694
101	0x3e3474ac	0.17622632
102	0xbd904149	-0.07043702
103	0xbf019987	-0.5062489
104	0x3df20cee	0.118188724
105	0xbe035e1d	-0.1282887
106	0xbedbb950	-0.4291482
107	0x3e265ddf	0.16246746
108	0xbd146293	-0.03622682
109	0x3ef9e4a5	0.48807254
110	0x3eabb5ae	0.33537048
111	0x3b6fa11c	0.0036564535
112	0x3d936374	0.071967036
113	0x3e6f6d2f	0.23381494
114	0x3e92baf3	0.28658256
115	0xbf3e7427	-0.74395984
116	0xbed8f24c	-0.42372358
117	0xbebdf93c	-0.37104213
118	0x3e009ab5	0.12559016
119	0x3e34bcb0	0.17650104
120	0x3e54c88a	0.20779625
121	0xbe717e8a	-0.23583427
122	0xbd76d27e	-0.060259335
123	0xbe516edf	-0.2045245
124	0x3ecb9667	0.39763185
125	0x3ea19ab6	0.31563348
126	0x3f45b64e	0.772313
127	0x3ee6d0b8	0.45081115
128	0xbf3757e7	-0.71618503
129	0xbee219dc	-0.44160354
130	0xbee00811	-0.43756154
131	0xbd6274ef	-0.055287298
132	0xbda5faa9	-0.0810445
133	0xbe9b5f6d	-0.30346242
134	0x3ecae6fd	0.39629355
135	0xbec601a7	-0.38673136
136	0xbc8ab1cc	-0.016930483
137	0x3e403aa3	0.18772368
138	0xbe90cf3e	-0.28283113
139	0xbe5b84e9	-0.2143742
140	0xbeee04d7	-0.46488068
141	0xbe6cb0cb	-0.23114316
142	0xbe41b978	-0.18918407
143	0xbee65dfb	-0.44993576
144	0xbea25938	-0.31708694
145	0xbf7853af	-0.9700269
146	0xbf2895a5	-0.6585334
147	0xbf8d2f32	-1.1030028
148	0xbf947078	-1.1596823
149	0xbf264507	-0.6494908
150	0xbd3b4e31	-0.045728866
151	0xbe9ff110	-0.31238604
152	0xbf650792	-0.89464676
153	0xbc870d17	-0.016485734
154	0x3e820ca2	0.25400263
155	0x3ca60a27	0.020268513
156	0x3e393fc1	0.18090726
157	0x3f248a28	0.6427331
158	0x3d813427	0.063087754
159	0x3e0cbb95	0.13743432
160	0xbf23ce92	-0.63987076
161	0xbe69ac5c	-0.22819656
162	0x3ea8d6f4	0.32976496
163	0x3f090534	0.53523564
164	0x3f04ae32	0.518283
165	0x3e7a1b7d	0.24424548
166	0xbe0c84d1	-0.1372254
167	0x3e2849ec	0.16434449
168	0x3eeda9ae	0.46418518
169	0x3beb90fc	0.0071889143
170	0xbd0aa7a4	-0.03385128
171	0xbeda0f80	-0.4258995
172	0x3e8c48a1	0.2739916
173	0xbf379818	-0.7171645
174	0xbee81bed	-0.45333806
175	0xbefb84ca	-0.49124748
176	0xbe8ced7f	-0.27524945
177	0xbede10ab	-0.43372092
178	0x3ce25887	0.027630104
179	0x3d62c3d8	0.055362552
180	0x3dba0f2b	0.09084924
181	0xbc3cd05a	-0.011524284
182	0xbed0a255	-0.4074885
183	0xbecb9877	-0.3976476
184	0xbea2f88a	-0.31830245
185	0xbe6ae1db	-0.2293772
186	0x3d956078	0.072937906
187	0xbf05f46f	-0.523261
188	0x3d0a2a9d	0.033732045
189	0xbf6fc46c	-0.9365909
190	0x3e7756e0	0.24154234
191	0xbe87e291	-0.26540044
192	0xbf7d37b0	-0.989131
193	0x3e85bdd4	0.2612139
194	0x3df685cb	0.12037238
195	0x3e722b6f	0.23649381
196	0x3f675799	0.9036804
197	0x3e51b08d	0.20477505
198	0x3f31afff	0.69409174
199	0x3e96a37e	0.2942161
200	0xbd0c2dd4	-0.034223393
201	0xbf20aba1	-0.62761885
202	0xbfa4f023	-1.2885784
203	0xbed350cf	-0.4127259
204	0xbebc30c2	-0.3675595
205	0x3f27da29	0.6556726
206	0xbf323772	-0.6961585
207	0x3e4e9ba2	0.20176557
208	0x3e46e761	0.19424202
209	0xbb8ff457	-0.0043931413
210	0x3ea47f01	0.32128146
211	0xbd5b7a73	-0.053583574
212	0x3d9db5a9	0.077006646
213	0x3d5560ef	0.052094396
214	0x3eb9427e	0.36183542
215	0x3ea2c056	0.31787366
216	0xbe500c92	-0.20317295
217	0xbe3676d8	-0.17818773
218	0xbeb5d187	-0.3551142
219	0xbd2318b6	-0.039818488
220	0x3e18c4b7	0.14918791
221	0x3d0da52c	0.03458135
222	0xbe7e9246	-0.24860486
223	0xbe6475ea	-0.22310606
224	0xbeac6506	-0.33670825
225	0xbec019ad	-0.3751959
226	0xbf3d278e	-0.7388848
227	0xbef0e389	-0.47048596
228	0xbeb54797	-0.3540618
229	0x3e276c68	0.16349947
230	0xbea9974e	-0.3312325
231	0xbe908979	-0.28229883
232	0xbdbf1f5b	-0.093321525
233	0x3e40dedd	0.18835016
234	0x3f0bcb44	0.54607034
235	0x3f33cdf6	0.70236146
236	0x3ef266b6	0.47343987
237	0xbe857d3e	-0.26072115
238	0xbeeac64c	-0.45854414
239	0x3e6eea03	0.23331456
240	0x3e95cfda	0.2926014
241	0xbf03a495	-0.5142301
242	0xbefe45d5	-0.49662653
243	0x3f75ed5b	0.960653
244	0xbf29cd62	-0.66329014
245	0xbe0eff01	-0.13964464
246	0xbf3c21f6	-0.7348932
247	0x3d3d88cc	0.046273038
248	0x3cdb1480	0.026743174
249	0xbeea74ea	-0.45792323
250	0xbdb581eb	-0.088626705
251	0xbe16d6c0	-0.14730358
252	0x3e4f7758	0.2026037
253	0x3ddac119	0.10681362
254	0x3dbb577f	0.09147548
255	0xbf10a376	-0.5649942

network.0.bias f4 [32]
0	0xbeee941d	-0.46597376
1	0xbf854d9c	-1.041431
2	0xbf389062	-0.7209531
3	0xbf3a7890	-0.72840214
4	0xbf18dd71	-0.5971289
5	0xbeccb372	-0.39980656
6	0xbe8678a7	-0.26263925
7	0xbf250554	-0.64461255
8	0xbed64a46	-0.4185354
9	0xbf4598ab	-0.7718608
10	0xbeaa7c96	-0.33298177
11	0xbf22ba29	-0.6356531
12	0xbf33b00f	-0.7019052
13	0xbef3faf7	-0.47652408
14	0xbf40d02e	-0.75317657
15	0xbf164eba	-0.5871388
16	0xbeec48ba	-0.46149236
17	0xbef15129	-0.47132233
18	0xbf37f154	-0.7185261
19	0x3ee70309	0.45119503
20	0xbf077aef	-0.52921957
21	0xbead612d	-0.33863202
22	0xbe9759be	-0.29560655
23	0xbe42f438	-0.19038475
24	0xbedadd3a	-0.42746907
25	0xbee93dbe	-0.45554918
26	0xbf099c7f	-0.5375442
27	0xbdfc5c9d	-0.12322352
28	0xbd9a45ac	-0.0753282
29	0xbf186a35	-0.5953706
30	0xbf1ad2bb	-0.604778
31	0xbecf3a84	-0.4047433

network.2.weight f4 [64, 32, 3, 3]
0	0xbf0f94f4	-0.5608666
1	0x3e4fe7c3	0.20303254
2	0xbf10603c	-0.5639684
3	0xbd8c0a2a	-0.06837876
4	0x3e131233	0.14362411
5	0x3d86c95c	0.06581375
6	0xbe7349e0	-0.2375865
7	0x3f3754f0	0.7161398
8	0xbe00ee17	-0.12590824
9	0x3cb84c21	0.022497239
10	0x3f286596	0.6578001
11	0xbef2f43d	-0.47451964
12	0xbdc2f646	-0.09519629
13	0x3e6d9832	0.23202589
14	0x3de14c38	0.11000866
15	0x3de774a7	0.113015465
16	0x3e61fa72	0.22068194
17	0xbf236393	-0.63823813
18	0xbf154dfe	-0.5832213
19	0x3dd6bea7	0.10485583
20	0xbef6ca65	-0.4820129
21	0x3e2065c7	0.15663825
22	0xbc898b1a	-0.016789962
23	0xbe683449	-0.22676195
24	0xbf3fdffb	-0.7495114
25	0x3f012ad7	0.50455993
26	0xbf84d838	-1.0378485
27	0x3e4629ad	0.19351836
28	0xbeb3c47a	-0.35110837
29	0xbf568fb1	-0.83813006
30	0x3e974609	0.2954562
31	0xbe0e31f9	-0.1388625
32	0x3ca10c27	0.019659115
33	0x3e5ac8b7	0.21365629
34	0xbe30c640	-0.17263126
35	0xbf87c707	-1.0607613
36	0x3ed4486a	0.41461498
37	0x3d7b7f7a	0.061400868
38	0x3f19b4bf	0.6004142
39	0x3e30fea0	0.17284632
40	0xbd51f5cb	-0.051259797
41	0xbe14e997	-0.14542232
42	0x3e475fe4	0.19470173
43	0xbe5e1aea	-0.21689954
44	0xbefabd7a	-0.48972684
45	0x3f6015d1	0.8753329
46	0x3c8a9c49	0.016920226
47	0xbecf24ae	-0.40457672
48	0x3f3744c7	0.7158932
49	0xbf927798	-1.1442747
50	0xbee67595	-0.45011583
51	0x3e6a52b3	0.2288311
52	0xbef1f675	-0.47258344
53	0x3eb60dbd	0.35557356
54	0x3e3587f8	0.17727649
55	0xbed0c4b3	-0.4077507
56	0xbf0b8acf	-0.5450868
57	0xbef0c615	-0.47026125
58	0x3dd79be2	0.10527779
59	0xbee0f709	-0.43938473
60	0xbf378c69	-0.71698624
61	0x3ec1d97d	0.37861243
62	0x3eb82783	0.35967645
63	0xbe404136	-0.18774876
64	0x3ed042eb	0.40676054
65	0x3e6d9bb6	0.2320393
66	0x3e8a303b	0.26989922
67	0x3ea4912e	0.32142013
68	0xbf3596ac	-0.7093303
69	0x3e9e4458	0.30911517
70	0x3e653268	0.2238251
71	0xbf3ad00f	-0.7297372
72	0x3ed8c01b	0.42334065
73	0x3e895670	0.2682376
74	0x3f32c1f4	0.698272
75	0xbf20f1dc	-0.6286905
76	0x3d111a7b	0.035425644
77	0xbef568b5	-0.47931448
78	0xbec3ca44	-0.38240254
79	0xbda8b922	-0.08238436
80	0xbe39c587	-0.18141757
81	0x3ecba0eb	0.39771208
82	0x3e901259	0.28138998
83	0x3d56c817	0.052436914
84	0xbe59b2f1	-0.21259667
85	0x3e77afe6	0.24188194
86	0x3e5dedb7	0.21672712
87	0xbece1e42	-0.4025746
88	0xbee58af3	-0.44832572
89	0xbc014fd9	-0.007892572
90	0xbf496290	-0.7866602
91	0xbf617b77	-0.8807902
92	0xbe927cd1	-0.28610852
93	0xbe96588b	-0.29364428
94	0xbec1451c	-0.3774804
95	0x3d39e77b	0.045386773
96	0xbf34ed9d	-0.7067507
97	0x3d4bf113	0.049790453
98	0xbf05cc27	-0.52264637
99	0x3e7bed91	0.24602343
100	0x3f44528c	0.76688457
101	0x3f0b9814	0.5452893
102	0x3e0a7823	0.13522391
103	0x3f421a95	0.7582181
104	0x3e0af8ad	0.13571425
105	0x3e4004d0	0.18751836
106	0x3e6c2154	0.23059589
107	0xbf281a7f	-0.6566543
108	0x3e2ea1db	0.1705393
109	0xbc9c923d	-0.0191127
110	0xbe75af86	-0.23992738
111	0x3db68f60	0.08914065
112	0xbe15f5e3	-0.1464458
113	0xbd28d6ce	-0.04122048
114	0xbe598bd7	-0.21244751
115	0xbe92a6df	-0.28642938
116	0xbe90abd7	-0.28256103
117	0xbf26261a	-0.6490189
118	0xbea1f277	-0.31630298
119	0x3e0d8ec6	0.13823995
120	0x3f2362c0	0.63822556
121	0x3e0cab39	0.13737191
122	0xbf18f71a	-0.5975205
123	0xbee71269	-0.45131233
124	0xbf319500	-0.6936798
125	0x3f2f1471	0.68390566
126	0xbee748cf	-0.45172736
127	0x3f8eed75	1.1166216
128	0xbe823303	-0.25429544
129	0xbe573e0d	-0.21019764
130	0x3ebf9533	0.37418517
131	0x3e83d0d1	0.25745252
132	0xbe87316e	-0.264049
133	0xbd2f2cce	-0.04276734
134	0xbf8c16f3	-1.0944504
135	0x3e2f25db	0.17104284
136	0xbe300866	-0.17190704
137	0x3e5d1c07	0.21592723
138	0xbd8efd14	-0.069818646
139	0x3e46a43e	0.19398591
140	0x3edc335a	0.43007928
141	0xbea4fccb	-0.32224116
142	0x3ea3c5b3	0.3198677
143	0xbea0daf6	-0.31417054
144	0x3e02393d	0.12717147
145	0x3e1e8d03	0.15483479
146	0x3edc24eb	0.42996916
147	0x3daebbd9	0.08531923
148	0xbe72676e	-0.23672268
149	0x3d71a7a2	0.058997758
150	0xbee9a070	-0.45630217
151	0xbed009d8	-0.4063251
152	0xbebe7df0	-0.37205458
153	0x3e1d6ebe	0.15374276
154	0x3dd48500	0.1037693
155	0xbefeaacf	-0.49739692
156	0x3ee3401d	0.44384852
157	0x3e11dbee	0.14244053
158	0x3e2465ff	0.16054533
159	0xbd3140cd	-0.04327469
160	0xbdb3ae47	-0.08773475
161	0x3eda2d1e	0.42612547
162	0x3f56cba1	0.83904463
163	0xbea4aaf2	-0.3216167
164	0xbce4bea0	-0.027922928
165	0xbef136f6	-0.47112244
166	0xbead0106	-0.33789843
167	0xbd18e849	-0.0373309
168	0xbf0450ae	-0.5168561
169	0x3ef6c184	0.48194516
170	0xbf6cbd8c	-0.92476726
171	0xbf5f69cc	-0.8727081
172	0xbf2d2e6f	-0.6764898
173	0xbd122e46	-0.03568866
174	0xbf3a6e32	-0.72824395
175	0x3d6b4848	0.05744198
176	0xbee01173	-0.43763313
177	0x3e933023	0.28747663
178	0xbe856950	-0.2605691
179	0x3d9a6658	0.07539052
180	0x3f673496	0.90314615
181	0xbe5bb86c	-0.2145707
182	0xbf2081c2	-0.62697995
183	0xbd8da2d9	-0.06915826
184	0xbdbce355	-0.09223048
185	0x3ef3aac3	0.47591218
186	0xbdedd701	-0.11613274
187	0x3d1f6ba3	0.03892101
188	0x3d642dd4	0.055707768
189	0x3e82a447	0.2551596
190	0xbe840839	-0.25787523
191	0xbef0cc36	-0.470308
192	0x3edfffff	0.43749997
193	0x3f134d75	0.57540065
194	0xbe115d74	-0.14195806
195	0x3e9bfa8f	0.304646
196	0xbf64b7b0	-0.89342785
197	0xbeb753e4	-0.3580619
198	0x3f3dbf4e	0.7412003
199	0x3ecc178a	0.3986171
200	0xbea7d846	-0.3278219
201	0x3eb75704	0.35808575
202	0xbf4268df	-0.7594127
203	0xbf87bbc0	-1.0604172
204	0x3f0c225b	0.5473992
205	0x3ef6ba39	0.48188952
206	0xbf92b439	-1.146125
207	0x3ecb337b	0.39687714
208	0xbde93eec	-0.113889545
209	0x3f32e041	0.69873434
210	0xbec890ef	-0.39173076
211	0xbf45d97d	-0.77284986
212	0xbe5a869a	-0.21340409
213	0xbd35ac22	-0.04435361
214	0x3e56c7e9	0.20974697
215	0x3f06d0e6	0.52662504
216	0x3e0b2f90	0.13592362
217	0x3eb36f9c	0.3504609
218	0x3e4d1355	0.20026906
219	0xbe070360	-0.13184881
220	0xbed820cd	-0.42212525
221	0xbf7291b4	-0.94753575
222	0x3f305a00	0.6888733
223	0xbf65ee57	-0.898168
224	0x3f06d42e	0.5266751
225	0xbde2b55e	-0.11069749
226	0x3ead489b	0.33844456
227	0xbcfd87da	-0.030948568
228	0xbeaaf557	-0.33390304
229	0xbcb22386	-0.021745455
230	0xbe4d4303	-0.20045094
231	0xbe0a9e20	-0.13536882
232	0xbed5ecc6	-0.41782206
233	0xbea3bfc3	-0.3198224
234	0xbf526785	-0.8218921
235	0xbec1792b	-0.37787756
236	0xbf199a56	-0.6000112
237	0xbf5603de	-0.8359965
238	0x3e1982ec	0.14991349
239	0xbec66479	-0.3874853
240	0x3e9502dc	0.29103744
241	0x3e5b6384	0.21424681
242	0xbf90fe37	-1.132758
243	0x3f1691e7	0.5881638
244	0xbf0ac83e	-0.54211795
245	0x3f4e2b4b	0.8053481
246	0x3f02e622	0.51132405
247	0x3ed9de3c	0.42552364
248	0x3f747f2e	0.9550656
249	0x3f09df09	0.5385595
250	0x3d3db045	0.04631068
251	0x3f053a86	0.52042425
252	0x3ee63a4d	0.44966355
253	0xbeed98fe	-0.46405786
254	0x3e83d66a	0.25749522
255	0x3e4982c5	0.19678791

network.2.bias f4 [64]
0	0xbebf4b60	-0.37362194
1	0xbf4f239a	-0.809137
2	0xbe7373f3	-0.237747
3	0xbe62110e	-0.22076818
4	0xbf0ba9ba	-0.5455586
5	0xbeb397a1	-0.3507662
6	0xbea37500	-0.319252
7	0xbea4ce4b	-0.3218864
8	0xbf03f325	-0.51542884
9	0xbf0d2ec7	-0.551495
10	0xbed121a0	-0.40845966
11	0x3e5bf458	0.21479928
12	0xbe913c12	-0.28366143
13	0xbe291933	-0.16513519
14	0xbe384079	-0.17993344
15	0xbccf56b1	-0.025309892
16	0xbdfc2a5b	-0.12312766
17	0xbe56faa5	-0.20994051
18	0x3df8bd56	0.12145488
19	0xbe482adb	-0.19547598
20	0x3ede0a74	0.4336735
21	0xbf5e1ad3	-0.8675968
22	0xbf0d4e5d	-0.551977
23	0xbf21fed3	-0.63279456
24	0xbeae6187	-0.34058782
25	0x3dcb836f	0.09937178
26	0xbf076ec4	-0.5290339
27	0x3ed8690d	0.42267647
28	0xbf106792	-0.56408036
29	0xbe11ebe3	-0.1425014
30	0xbd993250	-0.074802995
31	0xbe344684	-0.17605025
32	0x3cfbd0e5	0.030739257
33	0xbe1976c1	-0.14986707
34	0xbe7c0dcc	-0.24614638
35	0xbd9adc3a	-0.07561536
36	0xbf23db2b	-0.640063
37	0xbe73d36f	-0.23811124
38	0xbde6d534	-0.11271134
39	0x3c966139	0.018356906
40	0xbe2ba05b	-0.1676039
41	0xbe3acdff	-0.18242644
42	0xbf17a280	-0.5923233
43	0xbebdbd86	-0.37058657
44	0xbec74faf	-0.3892798
45	0xbf25170b	-0.64488286
46	0xbf0f4c9b	-0.55976266
47	0xbeb66942	-0.3562718
48	0xbe60cfd9	-0.21954288
49	0xbe9133cd	-0.28359833
50	0xbe9746da	-0.29546243
51	0x3e4e404c	0.20141715
52	0xbd26ac5b	-0.040691715
53	0xbe2c01ee	-0.16797611
54	0xbe52e424	-0.20594841
55	0xbebe9630	-0.3722396
56	0xbf34b3a0	-0.70586586
57	0xbf0d39b4	-0.55166173
58	0xbf03cc9c	-0.51484084
59	0xbf19dfc3	-0.6010706
60	0xbec47ef6	-0.38378114
61	0xbec0fe3e	-0.3769397
62	0xbe77c322	-0.24195531
63	0xbf16d903	-0.58924884

network.4.weight f4 [64, 64, 3, 3]
0	0x3f66da0a	0.9017645
1	0x3e8f8c27	0.28036615
2	0x3cfa1878	0.030529246
3	0x3bc209f0	0.005921595
4	0x3c28d521	0.01030472
5	0xbd50d9d3	-0.050988983
6	0x3dbc6fa9	0.09200985
7	0xbe8523e7	-0.26003954
8	0xbde6c1c6	-0.11267428
9	0xbea0a204	-0.31373608
10	0xbe9571f0	-0.2918849
11	0xbe0faf21	-0.1403165
12	0xbf041c8d	-0.51606065
13	0xbf57042c	-0.8399074
14	0xbe68f92b	-0.227513
15	0xbe56458b	-0.20924966
16	0xbecfa264	-0.40553582
17	0x3dd314ab	0.103066765
18	0xbec9897c	-0.39362705
19	0x3e015ec3	0.12633805
20	0xbe898e96	-0.26866597
21	0xbed901cd	-0.42384186
22	0x3d21c1dc	0.03949152
23	0x3e9f3213	0.3109289
24	0xbe538cca	-0.20659176
25	0x3dfd33d8	0.12363404
26	0xbd2bd27d	-0.041948784
27	0xbf282b9e	-0.65691555
28	0xbf8a959d	-1.0826908
29	0x3efe04d5	0.49613062
30	0xbe18cf84	-0.14922911
31	0x3d38f2c1	0.045153383
32	0xbf2d8a65	-0.677893
33	0xbe9e8543	-0.30961046
34	0x3e906b8a	0.28207046
35	0x3ddf2ece	0.10897599
36	0x3eaac37b	0.33352265
37	0x3ef48f2f	0.4776549
38	0x3caff883	0.021480804
39	0xbeacfcc7	-0.33786604
40	0x3d26790d	0.040642787
41	0x3d5f1875	0.054466683
42	0x3efe06f7	0.4961469
43	0xbf85888e	-1.0432298
44	0x3f246387	0.64214367
45	0xbbb311d3	-0.0054647713
46	0x3d015b59	0.031581257
47	0xbe827e2f	-0.25486895
48	0xbf78c0ed	-0.9716938
49	0xbf1ab947	-0.6043896
50	0xbef72645	-0.48271385
51	0xbd16b261	-0.03679121
52	0xbda7d562	-0.081949964
53	0xbecfdccb	-0.4059814
54	0x3f1e0b3d	0.617359
55	0x3dbdcbc3	0.0926738
56	0x3f2bd249	0.67117745
57	0xbf745770	-0.9544592
58	0x3efeaa56	0.4973933
59	0xbe93c22b	-0.28859076
60	0x3d18ff10	0.03735262
61	0x3e0599ae	0.13046905
62	0xbeb2829c	-0.34865272
63	0x3ea7c8db	0.32770428
64	0xbea95e03	-0.33079538
65	0xbe94ca3d	-0.29060546
66	0x3f22a283	0.63529223
67	0xbec572f1	-0.38564256
68	0xbea23a67	-0.31685182
69	0x3e2afea2	0.16698697
70	0xbe7875f7	-0.2426375
71	0x3e8c7a80	0.2743721
72	0xbe0bc645	-0.13649853
73	0xbf172381	-0.5903855
74	0x3e000a89	0.12504019
75	0xbeea8fc1	-0.458128
76	0xbdcf08f4	-0.101091295
77	0xbf0c2ef9	-0.54759175
78	0x3f2eb96e	0.68251693
79	0xbe00200a	-0.12512222
80	0x3e1a6a17	0.15079533
81	0xbd39e2bb	-0.045382243
82	0xbe86b579	-0.26310328
83	0x3ecd3f37	0.40087292
84	0xbebfd9d9	-0.37470892
85	0xbf088faf	-0.53344244
86	0xbedd32d5	-0.43202844
87	0x3eee801e	0.4658212
88	0xbe44a4cb	-0.19203489
89	0xbf048856	-0.5177053
90	0x3ee62007	0.4494631
91	0xbea5a44e	-0.32351917
92	0xbec56ef5	-0.38561216
93	0xbdf5d186	-0.12002854
94	0x3e9a78c9	0.30170277
95	0xbe5695ec	-0.20955628
96	0x3ea01951	0.31269315
97	0xbf326910	-0.6969156
98	0xbeb8700e	-0.3602299
99	0xbe218195	-0.15772088
100	0xbf17f4b1	-0.59357744
101	0x3de1341d	0.10996268
102	0xbf1a00ae	-0.6015729
103	0xbe6fd278	-0.23420131
104	0xbf6d8cd6	-0.92793024
105	0xbf20000e	-0.62500083
106	0xbea1d1d6	-0.31605405
107	0xbe384574	-0.17995244
108	0xbe2fd407	-0.17170726
109	0xbe70b04a	-0.23504749
110	0xbf0dc636	-0.5538057
111	0x3d9a4b5c	0.07533905
112	0x3ee9f812	0.45697075
113	0xbeaf85d1	-0.3428178
114	0x3d67dfbb	0.05660985
115	0x3f02de8e	0.5112084
116	0x3c617bec	0.013762455
117	0xbcfb65c9	-0.030688183
118	0x3d343e07	0.044004466
119	0x3ccab1fe	0.024743076
120	0x3cd43101	0.025902273
121	0x3b972fd7	0.0046138573
122	0xbcf98286	-0.030457746
123	0xbd013d49	-0.031552587
124	0xbc47a836	-0.012186101
125	0x3ca55aed	0.020184958
126	0xbd7f9141	-0.062394384
127	0xbd9380ab	-0.07202276
128	0xbd7ed299	-0.06221256
129	0xbbefd315	-0.007318864
130	0xbcd55bad	-0.026044691
131	0xbd17fcf4	-0.03710647
132	0x3d0867d5	0.033302147
133	0x3d0b4266	0.03399887
134	0x3b493b95	0.003070568
135	0xbf02c5b6	-0.5108293
136	0xbdb29f89	-0.08721835
137	0xbe5f4f53	-0.21807604
138	0xbf02b7ce	-0.51061714
139	0xbf4d6981	-0.8023911
140	0xbe8b6556	-0.2722575
141	0x3d83a2c8	0.064275324
142	0xbe57bb5a	-0.21067563
143	0xbed51b64	-0.4162246
144	0x3e1b13c7	0.15144263
145	0x3ed10b8e	0.40829128
146	0x3e8e738d	0.27822533
147	0x3e3329aa	0.17496362
148	0xbe0303dd	-0.12794442
149	0x3d2deb73	0.04246087
150	0xbeb7e016	-0.35913152
151	0xbed07b1b	-0.40718922
152	0x3de1dc6c	0.1102837
153	0xbe9c4d7d	-0.3052787
154	0xbe7a5368	-0.2444588
155	0xbe914877	-0.283756
156	0x3f8f48c6	1.1194084
157	0xbdcf1fd2	-0.10113491
158	0xbe11b4b2	-0.14229086
159	0x3ebe4010	0.3715825
160	0xbec68d1e	-0.3877954
161	0x3c981d85	0.018568764
162	0xbd8fb064	-0.07016066
163	0xbd432b2c	-0.047648594
164	0xbf019e62	-0.506323
165	0xbedfd40f	-0.43716475
166	0xbf91531f	-1.1353492
167	0xbf2be98e	-0.6715325
168	0x3eaf97af	0.34295413
169	0xbe8b03dc	-0.27151382
170	0xbf262899	-0.649057
171	0xbeff101a	-0.49816972
172	0xbe8f94d7	-0.28043243
173	0xbe34b230	-0.17646098
174	0xbf09370c	-0.5359962
175	0xbf6f642f	-0.93512243
176	0xbf1fc12c	-0.6240413
177	0xbec2a200	-0.3801422
178	0x3e7d2a1b	0.24723093
179	0xbefe0bc6	-0.49618357
180	0x3ebf4b09	0.37361935
181	0xbef6932c	-0.48159158
182	0xbf3a3372	-0.7273475
183	0x3e7aa060	0.2447524
184	0x3db76f59	0.08956785
185	0x3e392c48	0.18083298
186	0xbe7fdac5	-0.24985798
187	0xbf29fc9f	-0.66401094
188	0xbed2e752	-0.41192108
189	0xbea5f56d	-0.32413808
190	0x3b9bd6bc	0.004755823
191	0x3bbbd044	0.0057316143
192	0x3c2ff80c	0.010740291
193	0x3dd4c22a	0.10388596
194	0xbda81762	-0.08207585
195	0xbf07e171	-0.5307837
196	0xbef1c520	-0.47220707
197	0xbeea0521	-0.45707038
198	0xbedd6e96	-0.43248433
199	0xbe50bddc	-0.20384926
200	0xbfa9b3ff	-1.3258055
201	0xbbebf7d7	-0.0072011757
202	0xbf0b327d	-0.54373914
203	0xbf1b71d2	-0.6072055
204	0xbf19416c	-0.5986545
205	0x3e1b502c	0.15167302
206	0xbc0b075b	-0.00848564
207	0xbe6e39c9	-0.23264231
208	0x3df51358	0.1196658
209	0xbe6b843b	-0.2299966
210	0xbe3367a7	-0.17520009
211	0xbf078794	-0.5294125
212	0xbeb34cc5	-0.35019508
213	0xbe961380	-0.29311752
214	0xbe44166e	-0.19149181
215	0xbe1b8e60	-0.1519103
216	0xbea5f262	-0.32411486
217	0xbd8352d9	-0.06412286
218	0xbe10b989	-0.14133276
219	0xbf414a30	-0.75503826
220	0xbf2da436	-0.6782869
221	0x3f0826f7	0.53184456
222	0x3e66a62d	0.22524329
223	0x3e892b27	0.26790735
224	0xbec1f044	-0.3787862
225	0xbd7b1825	-0.061302323
226	0x3e33ac1c	0.17546123
227	0xbd268cd2	-0.04066164
228	0xbf67eefc	-0.90599036
229	0x3e598b05	0.21244438
230	0xbf2eb458	-0.6824393
231	0x3eee46ec	0.46538484
232	0x3ed8ba51	0.42329648
233	0x3e77bb5d	0.24192567
234	0xbf0aa2dc	-0.54154754
235	0xbe570ad2	-0.21000221
236	0x3e9dde52	0.3083368
237	0xbec7ecf8	-0.3904798
238	0xbe216893	-0.15762548
239	0x3d069941	0.032860998
240	0x3dfc5236	0.12320368
241	0xbf064834	-0.52453923
242	0xbd657fc7	-0.05603006
243	0xbbbf40ab	-0.0058365664
244	0x3db3bfa9	0.08776791
245	0x3ccd7cee	0.025083985
246	0x3de2b331	0.11069334
247	0xbf24b938	-0.6434512
248	0xbf6799af	-0.9046888
249	0xbda9f9ca	-0.082995966
250	0xbe162b38	-0.14664924
251	0x3e621f3a	0.22082224
252	0x3ebc826e	0.3681826
253	0x3ecea0ea	0.40357143
254	0xbf77bc53	-0.96771735
255	0xbe2fa553	-0.1715291

network.4.bias f4 [64]
0	0xbebd6b60	-0.36995983
1	0xbf30bd1d	-0.69038564
2	0xbee1bae5	-0.44087902
3	0xbe0495e4	-0.12947804
4	0xbeff042c	-0.4980787
5	0xbe698bb1	-0.22807194
6	0xbf2c635f	-0.6733913
7	0xbf689e44	-0.90866494
8	0xbf8f1fb5	-1.1181551
9	0xbf43d1c5	-0.7649196
10	0xbf35742a	-0.7088038
11	0xbee41610	-0.44548082
12	0xbf6d309a	-0.92652285
13	0xbe1effa2	-0.15527204
14	0xbe3c1610	-0.18367791
15	0xbe2b5e80	-0.16735268
16	0xbf8fa7dc	-1.1223102
17	0xbf4172b7	-0.75565666
18	0xbe3ae794	-0.18252403
19	0xbf632ba2	-0.88738453
20	0xbed603b0	-0.41799688
21	0xbf71bd5c	-0.94429564
22	0xbe328483	-0.17433362
23	0xbf0078b2	-0.50184166
24	0xbf5b5826	-0.8568138
25	0xbef8735c	-0.48525512
26	0xbcd5e57d	-0.026110405
27	0x3de7e1ce	0.11322366
28	0xbec239f3	-0.37934837
29	0xbf1d908a	-0.61548674
30	0xbcaa927a	-0.020821799
31	0x3dcef3b0	0.101050735
32	0xbed88413	-0.42288265
33	0xbf66bb90	-0.9012995
34	0xbf2f9f80	-0.6860275
35	0xbe7fa69c	-0.249659
36	0xbf303bfb	-0.6884152
37	0xbf409895	-0.7523282
38	0xbeead44f	-0.45865104
39	0xbf1c0b4e	-0.6095475
40	0xbf5ef261	-0.8708859
41	0xbf15c025	-0.58496314
42	0xbef0e5d3	-0.47050342
43	0xbf6197d2	-0.88122284
44	0xbf28badf	-0.6591014
45	0xbf0305d8	-0.5118079
46	0xbf5355a3	-0.82552546
47	0xbf45d1da	-0.77273333
48	0x3d9da337	0.076971464
49	0xbf54a5fe	-0.83065784
50	0xbeeba7b8	-0.46026397
51	0xbef4cf53	-0.47814426
52	0xbf71d031	-0.944583
53	0xbd382528	-0.04495731
54	0x3d3fdc3b	0.046840888
55	0xbe146639	-0.1449212
56	0xbf2f08a7	-0.6837258
57	0xbf06ab33	-0.5260498
58	0xbf0f238d	-0.5591362
59	0xbf6acf7c	-0.91722846
60	0xbe075b64	-0.13218457
61	0xbf3a52ac	-0.727824
62	0xbf79f7ad	-0.9764355
63	0xbeba5579	-0.36393335

actor.weight f4 [5, 3136]
0	0x3e8821de	0.2658834
1	0xbe191f32	-0.14953306
2	0x3e32ea6f	0.17472242
3	0x3e9540ea	0.29151088
4	0x3ed373e2	0.4129935
5	0x3d711c80	0.05886507
6	0xbef098ad	-0.46991482
7	0xbef8d89d	-0.48602763
8	0xbe9e19ca	-0.3087905
9	0x3e6eed42	0.23332694
10	0x3cffb4e4	0.031214185
11	0x3d4a39dc	0.049371585
12	0x3f6f3b29	0.93449646
13	0x3f319a93	0.69376487
14	0xbd67d713	-0.056601595
15	0x3c074a81	0.008257509
16	0x3e745ebc	0.23864263
17	0x3dd23a92	0.10265078
18	0x3edec5e0	0.43510342
19	0x3f1dc534	0.61629033
20	0xbd24fca2	-0.040279992
21	0x3de8aa15	0.113605656
22	0xbd7ea930	-0.06217307
23	0x3f1e56f7	0.6185145
24	0xbf21f59d	-0.632654
25	0x3e85d5c6	0.2613966
26	0x3e0071ec	0.12543458
27	0x3e88d5bf	0.26725575
28	0x3d810833	0.06300392
29	0xbe498657	-0.19680153
30	0x3ebe6f65	0.37194362
31	0x3dd8497d	0.10560892
32	0xbeeaf01d	-0.45886317
33	0x3ecd336b	0.4007829
34	0xbf1ccdb7	-0.61251396
35	0x3f5fa992	0.8736812
36	0xbc301168	-0.0107463375
37	0x3f26ef5d	0.6520899
38	0x3c9269f1	0.017872782
39	0xbf830c37	-1.0238103
40	0x3e52bffb	0.20581047
41	0xbed9b178	-0.4251821
42	0x3ee0274d	0.43779984
43	0x3f019ec5	0.5063289
44	0x3efa9e91	0.48949102
45	0x3c654699	0.013993883
46	0x3e8a30a4	0.26990235
47	0x3eb80442	0.35940748
48	0xbe45c320	-0.19312716
49	0x3eb1348f	0.34610412
50	0x3c8a3892	0.016872678
51	0x3ed92e1b	0.42417988
52	0xbe7d8edf	-0.24761532
53	0x3e51eddc	0.20500892
54	0xbdac6728	-0.08418113
55	0x3ea4c9f4	0.32185328
56	0xbea495ba	-0.32145482
57	0xbefdecfb	-0.49594864
58	0x3e938075	0.28808942
59	0xbebd28f0	-0.36945295
60	0xbe7c445f	-0.24635457
61	0xbebfb7c0	-0.37444878
62	0x3deed25c	0.116612166
63	0xbe8e47a7	-0.2778904
64	0xbe38265c	-0.17983383
65	0xbe316745	-0.1732455
66	0xbd3b216c	-0.04568617
67	0x3e08de3c	0.13366026
68	0xbee08655	-0.43852487
69	0x3f2e4eb2	0.6808883
70	0x3cec48b2	0.028843258
71	0x3e003002	0.12518314
72	0xbe9e4f0a	-0.30919677
73	0x3ef41dcb	0.4767898
74	0x3e1f8c37	0.15580831
75	0xbe1acb8c	-0.1511671
76	0xbd5efb0b	-0.054438632
77	0x3e5996f9	0.21248998
78	0x3dbdc9d2	0.0926701
79	0x3f55a9ff	0.8346252
80	0x3f23f504	0.6404574
81	0xbde2b36e	-0.1106938
82	0xbdd920ae	-0.10601936
83	0x3d74f8ef	0.059807714
84	0xbd86283c	-0.06550643
85	0xbcfed755	-0.031108538
86	0x3f05ecab	0.5231425
87	0x3ee1c679	0.44096735
88	0x3ec75e43	0.38939103
89	0xbd6fab0e	-0.05851274
90	0xbe9c9420	-0.3058176
91	0x3d47362c	0.048635647
92	0x3ed8e1f0	0.42359877
93	0x3e33b966	0.17551193
94	0x3ec9ee02	0.39439398
95	0xbdae48f6	-0.0851001
96	0xbe3d40a2	-0.18481687
97	0x3df7220c	0.12067041
98	0x3f3c5353	0.7356464
99	0xbf6643ca	-0.8994719
100	0xbe9041b3	-0.28175125
101	0xbe92b5a2	-0.286542
102	0xbd269ccc	-0.040676877
103	0x3d4b651c	0.049656972
104	0x3ec14bdf	0.37753198
105	0xbf154b27	-0.583178
106	0xbdcd271b	-0.100172244
107	0x3f13ed17	0.57783645
108	0xbeeaaf2f	-0.4583678
109	0xbe363b64	-0.17796093
110	0xbf24f386	-0.6443409
111	0x3e41339a	0.1886734
112	0xbd9c41cf	-0.076297395
113	0x3eccb6b7	0.3998315
114	0xbf4e6ea3	-0.8063757
115	0xbde9c511	-0.114145406
116	0x3e914289	0.28371075
117	0xbea0f752	-0.3143869
118	0xbd323352	-0.043505974
119	0xbee3c5b9	-0.44486788
120	0x3e7d44d1	0.24733283
121	0x3eec49d1	0.46150067
122	0x3e8f5d58	0.28000903
123	0xbf841577	-1.031905
124	0x3f7a1fda	0.9770485
125	0x3f0681a9	0.52541596
126	0xbde72917	-0.11287134
127	0x3e8c95da	0.27458078
128	0x3eae2b74	0.34017527
129	0xbe1cdedf	-0.15319394
130	0xbd3c0024	-0.04589857
131	0x3f2188ca	0.6309935
132	0x3d16e90b	0.03684334
133	0xbdec1645	-0.11527685
134	0x3b87218f	0.0041238735
135	0xbeac488d	-0.33649102
136	0xbec4fc74	-0.38473856
137	0xbebfb85f	-0.3744535
138	0xbedc073b	-0.42974266
139	0xbee4d6eb	-0.4469522
140	0xbd287c4e	-0.04113417
141	0x3ed3fcc7	0.4140379
142	0x3db922d7	0.09039848
143	0xbd4a723a	-0.04942534
144	0x3e3bdf92	0.18347004
145	0x3d2894fb	0.041157704
146	0xbdae36d2	-0.0850655
147	0x3e941662	0.28923327
148	0x3ede1f49	0.43383244
149	0x3e08162a	0.13289705
150	0x3e81f708	0.25383782
151	0x3e3a1209	0.18170942
152	0x3ea470b4	0.32117236
153	0x3e9ddfbc	0.30834758
154	0xbd9822f9	-0.074285455
155	0xbdc29407	-0.0950089
156	0x3eec84e7	0.46195146
157	0x3e850e7e	0.2598762
158	0x3c76c65d	0.015061942
159	0xbef16d9e	-0.47153944
160	0x3ec2f877	0.3808019
161	0x3e0c058f	0.13673995
162	0xbe817534	-0.2528473
163	0xbe456af3	-0.19279079
164	0x3e0bd39e	0.13654944
165	0x3f558428	0.8340478
166	0x3eaac8e0	0.3335638
167	0x3d127479	0.03575561
168	0x3e8d4abd	0.27596083
169	0x3d6a066a	0.057135023
170	0xbd54df14	-0.051970556
171	0x3d74c2bc	0.059756026
172	0xbdfed84c	-0.12443599
173	0x3f009135	0.5022157
174	0x3d7269a1	0.059182767
175	0x3e9c6c4a	0.30551368
176	0x3d574e54	0.052564934
177	0xbc905ac9	-0.017621415
178	0x3e2f424d	0.17115135
179	0x3e6b22a4	0.22962433
180	0x3e99d203	0.3004304
181	0x3e8c4b01	0.27400973
182	0x3eae0217	0.3398597
183	0xbed36c9c	-0.412938
184	0x3dbed545	0.09318022
185	0xbf2cec51	-0.6754809
186	0xbc31e60a	-0.010858068
187	0xbef5d194	-0.48011458
188	0x3da1df98	0.07903975
189	0xbe934dd3	-0.28770313
190	0x3e8444f9	0.25833872
191	0xbef88698	-0.48540187
192	0x3df6bdab	0.12047895
193	0xbea6479d	-0.32476512
194	0x3f459deb	0.7719409
195	0x3ec21777	0.37908527
196	0x3ebbe9cd	0.36701813
197	0xbcfa9454	-0.030588306
198	0xbe9d399f	-0.30708024
199	0xbe9951b0	-0.29945135
200	0x3e5a2828	0.21304381
201	0xbe2772ea	-0.1635243
202	0xbebd1d11	-0.36936238
203	0xbe3ff484	-0.18745619
204	0x3efe4dc1	0.49668697
205	0xbdef197b	-0.11674782
206	0xb9bd2346	-0.0003607517
207	0xbe7629bc	-0.24039358
208	0x3f1d00fa	0.61329615
209	0x3ec4058e	0.38285488
210	0xbf225b86	-0.63420904
211	0x3e8b54a3	0.2721301
212	0x3ee14471	0.4399753
213	0x3f000bf8	0.5001826
214	0x3f22367d	0.6336439
215	0x3d9f1679	0.07767958
216	0x3d736fae	0.059432678
217	0xbd4f47ab	-0.050605457
218	0x3d699174	0.05702348
219	0xbeb6b5a6	-0.35685462
220	0x3f35b87e	0.7098464
221	0x3f02c22c	0.5107753
222	0xbe5d2e47	-0.21599685
223	0x3e27d43f	0.16389559
224	0x3e068ab1	0.13138844
225	0x3e2a82c1	0.16651441
226	0x3e4e2e4c	0.20134848
227	0x3eed0261	0.46290877
228	0x3c6c3623	0.014417204
229	0x3f1b44c9	0.6065183
230	0x3ef94fb2	0.48693615
231	0xbd428618	-0.047491163
232	0x3ef0c52e	0.47025436
233	0x3f0a9891	0.5413905
234	0xbf184c23	-0.59491175
235	0xbe9e1c97	-0.30881187
236	0x3d1a8d69	0.037732515
237	0x3eedd75b	0.46453366
238	0x3f0aa260	0.54154015
239	0x3db3bb14	0.08775917
240	0x3c48f20c	0.01226474
241	0x3e88b29a	0.26698762
242	0x3eb23abf	0.34810445
243	0xbdd01186	-0.10159592
244	0xbe73f8dd	-0.23825403
245	0x3b5340aa	0.0032234588
246	0x3ec89d7f	0.3918266
247	0x3dc7848a	0.09742077
248	0xbf0b8df4	-0.5451348
249	0x3f06e48e	0.52692497
250	0x3e71f8f8	0.2363013
251	0xbd44c689	-0.0480409
252	0xbc785423	-0.0151567785
253	0xbd77b4b3	-0.060475063
254	0x3f138c8c	0.5763633
255	0xbe75665b	-0.23964827

actor.bias f4 [5]
0	0xbef4edd8	-0.4783771
1	0x3ee5ca1c	0.4488076
2	0x3f1d1d0e	0.6137246
3	0xbe50b68e	-0.20382139
4	0xbe1cf7f3	-0.1532896

critic.weight f4 [1, 3136]
0	0xbe3ec2a9	-0.18628944
1	0x3d744f10	0.059645712
2	0xbf0d42d7	-0.55180115
3	0xbeb9fa2b	-0.36323676
4	0x3eb88805	0.36041275
5	0x3f23f860	0.64050865
6	0xbe375ec7	-0.17907248
7	0xbe81612c	-0.2526945
8	0xbe33d8a5	-0.17563112
9	0xbda7c097	-0.081910305
10	0xbdff6424	-0.12470272
11	0x3d962ea7	0.07333117
12	0xbed16871	-0.40899995
13	0x3e08837b	0.13331406
14	0xbf83482c	-1.02564
15	0x3f0d1469	0.5510927
16	0xbeea0c9c	-0.45712745
17	0xbf1335fb	-0.5750424
18	0xbf0b0379	-0.54302174
19	0xbe1adc99	-0.15123214
20	0xbec381c4	-0.3818494
21	0xbf1a3cb5	-0.6024888
22	0xbda23ec8	-0.07922131
23	0xbeced5e9	-0.40397575
24	0x3ea3f9b8	0.32026458
25	0x3ee2deeb	0.44310698
26	0x3e34e0d3	0.17663889
27	0x3e4bab16	0.19889483
28	0xbf1fb1d1	-0.623807
29	0xbe739ad0	-0.23789525
30	0xbd310f82	-0.04322768
31	0x3dfe8445	0.12427572
32	0x3e118a4d	0.14212914
33	0x3ea140fd	0.31494895
34	0xbce4965d	-0.02790373
35	0xbf062fe7	-0.52416843
36	0x3d53e6e6	0.051733874
37	0xbcd43844	-0.025905736
38	0xbf4aa3c7	-0.79156154
39	0x3e2ea588	0.17055333
40	0x3e1e04e4	0.15431553
41	0x3d1ec8c9	0.038765702
42	0xbe42c5fb	-0.19020836
43	0xbbc266d7	-0.0059326696
44	0xbedd5e9b	-0.4323624
45	0x3e7969f3	0.24356823
46	0xbe3f4eaa	-0.18682352
47	0xbe07ff9e	-0.13281104
48	0x3e430e87	0.1904851
49	0xbc87ad59	-0.01656215
50	0xbdc161f8	-0.09442514
51	0xbe71280d	-0.23550434
52	0xbe21000e	-0.15722677
53	0x3c158e6f	0.009128197
54	0x3de88172	0.11352815
55	0xbc802983	-0.015644794
56	0xbf05ba6c	-0.5223758
57	0x3c1ec289	0.0096899355
58	0xbe6bbd6b	-0.23021476
59	0x3d4316ee	0.04762929
60	0xbe411b41	-0.18858053
61	0x3deb3998	0.114855945
62	0xbd8b3562	-0.06797291
63	0x3e442a15	0.19156678
64	0x3ea271e8	0.3172753
65	0x3e2d41d4	0.16919643
66	0xbed12d4f	-0.4085488
67	0x3d1a16dc	0.037619457
68	0x3ea87373	0.3290058
69	0xbeae2a5c	-0.34016693
70	0x3d90a171	0.070620425
71	0x3c1ff044	0.009761874
72	0xbe5346f1	-0.20632531
73	0xbe7f1710	-0.24911141
74	0x3d8ae883	0.06782629
75	0xbd2c35cc	-0.042043492
76	0x3eda3fbd	0.42626753
77	0x3e147ac3	0.14499955
78	0xbec0ae13	-0.37632808
79	0xbe1620a5	-0.1466089
80	0xbeae1467	-0.3399994
81	0xbeae7643	-0.34074602
82	0xbe705a3e	-0.23471925
83	0xbee83150	-0.45350122
84	0xbe8015ef	-0.25016734
85	0xbe8ada9d	-0.27119914
86	0xbe4f8f0a	-0.20269409
87	0xbea4604e	-0.32104725
88	0x3d96d2f1	0.07364453
89	0xbe85bb27	-0.26119348
90	0xbdd11bc8	-0.10210377
91	0xbeb65f72	-0.35619694
92	0xbef02225	-0.4690105
93	0xbf2f7732	-0.6854125
94	0xbf7674fb	-0.9627225
95	0x3ec45a79	0.38350275
96	0xbe2bb0ed	-0.1676671
97	0x3da76ab3	0.08174648
98	0x3e3d6f60	0.18499517
99	0x3e97e659	0.2966793
100	0x3d07c5ed	0.03314774
101	0x3d8a1682	0.06742574
102	0xbe4952d0	-0.19660497
103	0xbb8e20e4	-0.004337417
104	0xbe740b3b	-0.23832409
105	0x3dae8950	0.08522284
106	0x3eb43a75	0.3520085
107	0xbdce9afb	-0.10088154
108	0x3e6108bf	0.21975993
109	0xbda315c0	-0.07963133
110	0x3e0cf1bd	0.13764091
111	0xbe655e1a	-0.22399178
112	0x3ebb8def	0.36631724
113	0x3eacf87c	0.3378333
114	0x3cf0ff17	0.029418511
115	0xbcd7ad71	-0.02632782
116	0xbdb6d1a6	-0.08926706
117	0xbe8364f8	-0.2566297
118	0xbedfa092	-0.43677193
119	0x3ea48a40	0.32136726
120	0x3eb594bb	0.35465035
121	0x3ed85200	0.4225006
122	0x3f1414b9	0.5784412
123	0x3b9533e8	0.004553307
124	0x3e4894eb	0.19588058
125	0x3e66ef97	0.22552334
126	0xbe09eda7	-0.13469563
127	0xbf1af2d5	-0.6052678
128	0x3e465e12	0.19371822
129	0x3db3e66b	0.08784183
130	0xbea5b24a	-0.32362586
131	0xbe1c68fc	-0.15274423
132	0x3f13937c	0.5764692
133	0x3e3e6398	0.1859268
134	0x3eefec73	0.46860084
135	0x3e84299a	0.2581299
136	0xbea8ca6e	-0.32966942
137	0xbe6c7e99	-0.23095168
138	0x3f0f443f	0.5596351
139	0x3f06625c	0.52493834
140	0x3f0b2cf6	0.5436548
141	0xbe9515fa	-0.2911833
142	0xbe8cb9b2	-0.27485424
143	0xbcebd144	-0.028786309
144	0xbe08eb8c	-0.13371104
145	0x3d7d50ea	0.061844744
146	0x3de7a615	0.113109745
147	0x3f026b26	0.50944746
148	0x3f05ecce	0.5231446
149	0x3f39239a	0.7231995
150	0x3f5b1b5e	0.85588634
151	0x3f1997fe	0.59997547
152	0x3eb490dc	0.3526677
153	0x3f35ae1d	0.709688
154	0x3ed5fa11	0.41792348
155	0x3e95bb51	0.29244474
156	0x3f65f022	0.8981954
157	0x3e408840	0.18801975
158	0x3ec53b6a	0.38521892
159	0x3f0a36ef	0.5399007
160	0x3daca578	0.08429998
161	0x3d71f1f6	0.059068643
162	0xbcb8e8dc	-0.022571974
163	0x3ef281e3	0.4736472
164	0x3f00182d	0.5003689
165	0x3ed46c92	0.41489083
166	0xbd07c63a	-0.033148028
167	0x3f3bd684	0.733742
168	0x3f04c0e0	0.51856804
169	0x3d9b16e1	0.07572723
170	0x3eed9ae3	0.46407232
171	0x3dba26d7	0.09089439
172	0x3f2a3c93	0.6649868
173	0x3ef13e21	0.47117713
174	0x3e9fe528	0.3122952
175	0x3f10f6ce	0.56626594
176	0x3f1451a2	0.5793706
177	0x3f26bef2	0.6513511
178	0xbe895c42	-0.268282
179	0x3f57909e	0.84205043
180	0x3eee7f2c	0.465814
181	0x3f26833d	0.65044004
182	0xbf403663	-0.7508299
183	0xbf879bc3	-1.059441
184	0x3f355e13	0.7084667
185	0x3e81754d	0.25284806
186	0x3f3924e2	0.72321904
187	0x3d01c80d	0.031684924
188	0x3eabd9ce	0.3356461
189	0x3dced823	0.100998186
190	0xbe937c29	-0.28805664
191	0xbf2e0242	-0.67972195
192	0x3f2819fe	0.6566466
193	0xbe5467df	-0.20742749
194	0xbedd3602	-0.43205267
195	0xbe90e639	-0.28300646
196	0xbe329585	-0.1743985
197	0xbea3774c	-0.31926954
198	0xbe79c8a5	-0.24392946
199	0xbe5ad2e2	-0.21369508
200	0xbe17fd3d	-0.14842696
201	0xbc4dffae	-0.012573166
202	0x3edc276b	0.42998824
203	0xbec7f44f	-0.3905358
204	0x3e98bbb8	0.29830718
205	0x3d014321	0.03155816
206	0x3e1459a6	0.14487323
207	0xbd2fc689	-0.042913947
208	0x3dce0415	0.10059372
209	0xbd8dd031	-0.06924475
210	0x3f1468f5	0.5797265
211	0xbea219c3	-0.3166028
212	0xbf53790a	-0.82606566
213	0xbdd42f4f	-0.10360586
214	0xbedabc11	-0.42721608
215	0x3d4ab1ab	0.049485844
216	0x3e6b03c9	0.22950663
217	0x3e847d02	0.25876623
218	0xbf42cb90	-0.7609186
219	0x3e9cbf3a	0.30614644
220	0xbeffa1aa	-0.49928027
221	0xbec776ca	-0.38957816
222	0xbeb5b064	-0.35486138
223	0xbc190097	-0.00933852
224	0xbed94150	-0.42432642
225	0xbe33b281	-0.17548563
226	0x3f265cd5	0.649854
227	0xbf1c8c75	-0.6115182
228	0xbf2f6c35	-0.68524486
229	0x3e90f055	0.2830836
230	0xbe9cd9e6	-0.30634993
231	0x3e8cd00f	0.27502486
232	0x3de6e12a	0.112734154
233	0xbee4b0ab	-0.44666037
234	0x3eebd143	0.46058092
235	0xbeaad939	-0.33368853
236	0xbd141d68	-0.036160856
237	0x3d868913	0.065691136
238	0xbec9e0f3	-0.39429435
239	0xbbf23b42	-0.007392318
240	0xbef0cac4	-0.47029698
241	0xbebe69be	-0.3719005
242	0xbdfd787e	-0.12376498
243	0x3ed7633c	0.42067897
244	0xbefcc1b9	-0.4936655
245	0x3cd7b545	0.026331553
246	0x3e295aa4	0.16538483
247	0x3e8ec674	0.27885783
248	0xbe0a9d6b	-0.13536613
249	0x3e968ad0	0.2940278
250	0xbe968d58	-0.29404712
251	0xbe2f36f6	-0.1711081
252	0x3d9f14f7	0.077676706
253	0xbd073de0	-0.033017993
254	0xbd9d9013	-0.076934956
255	0x3dcee8c6	0.10102992
