PARALLEL/models/PRED_GROUP_POLICY_BOTH_5200.ckpt (torch, 307152 bytes, 9 tensors)

network.0.weight f4 [32, 5, 3, 3]
-0.3448303 -0.51756704 -0.17608626 0.15472707 -0.18508004 -0.25884026 -0.035247292 -0.21939306
-0.26464725 -0.12533101 -0.30190244 -0.5797275 -0.29363576 -0.049385313 -0.39265397 -0.22406562
-0.7031838 -0.83878666 -0.12757896 -0.22697216 0.3378056 -0.04239623 0.17715737 -0.2453513
0.714142 -0.21505544 0.14082867 0.0035872257 -0.7297484 -0.04124736 -0.23812646 -0.43074542
-0.14628474 0.38270092 -0.2427981 -0.26334423 -0.6014873 0.063009985 0.0031976425 0.0781703
-0.038240872 -0.48557195 -0.0010355929 -0.40514582 0.2222244 -0.065052636 -0.1783061 -0.060931455
-0.21135308 -0.2903741 -0.34788677 -0.25706393 -0.46318144 -0.38953424 -0.012382995 -0.004694186
-0.20501453 0.039151855 -0.5312978 -0.7126858 -0.22472729 -0.5653398 -0.5000708 -0.31986868
0.053017486 -0.06669442 0.0776196 0.386757 -0.33391193 -0.11730328 0.09299698 0.11389933
0.18629397 -0.029031733 -0.4303178 -0.2005278 0.33616564 -0.3574265 -0.2946344 -0.31254017
-0.25508437 -0.4722198 0.09262183 -0.12043346 -0.09596593 -0.619851 -0.3826618 -0.10833284
-0.120284304 -0.11512941 0.001274314 -0.0202557 -0.111660905 -0.25725746 -0.0064545185 0.01720037
-0.0396977 -0.09597893 0.14899305 -0.051980384 -0.46369115 0.18902968 -0.4337195 0.29355988
0.41389897 0.09877921 0.13376598 0.6000573 0.076392554 0.53687674 0.08144348 -0.4151532
-0.41891056 -0.009865595 -0.042351972 0.00621427 0.11276869 0.26858625 -0.8348061 -0.5207965
0.37640208 -0.7843526 -0.008278986 -0.74314255 -0.11444497 -0.9713238 0.23696981 0.19017568
-0.099802524 0.1061099 0.036518395 0.10614185 -0.032574244 -0.3830522 -0.008763275 0.06525725
0.027768578 0.1277751 -0.09644356 -0.028096836 -0.08818818 -0.016788097 0.015733667 -0.008265081
0.42618173 0.0994689 -0.4081286 0.54786855 0.23899288 0.511085 0.3330852 0.589542
0.7756042 -0.01843103 0.18739437 0.1786178 -0.061439108 0.14743106 0.27434155 -0.06206599
0.12110643 -0.01571846 -0.69344336 -0.6250704 -0.53091687 -0.9634742 -0.77754396 -0.8725161
-0.53779364 -0.8306263 -0.56997997 0.17038642 0.103831425 0.31198338 -0.05465427 -0.10851823
-0.08961229 0.290329 -0.08960193 -0.19857864 -0.34017077 0.026051106 0.08610384 0.16790557
0.0018218098 -0.19593942 -0.21030143 0.07691988 -0.11147446 -0.6263301 -0.57624435 0.036845356
0.29963636 -0.40708682 0.10866029 -0.05778888 -0.31393364 -0.52440625 0.26053047 0.32591763
-0.3148108 -0.36988714 -0.13607413 -0.0048188344 0.31646433 -0.0009889734 -0.035767004 0.5933784
-0.21942605 -0.13630952 0.30615723 -0.5383851 -0.15402807 -0.4464591 -0.5578771 -0.46144858
-0.25907564 0.17898181 0.27409133 -0.3970613 0.2735536 0.52234566 -0.037256278 0.15630269
-0.25261343 -0.00021900256 -0.43945184 -0.294235 -0.03025676 -0.17819175 -0.1288087 -0.2510917
-0.056444705 0.14370748 0.51623154 -0.016469864 -0.5882833 -0.32703182 -0.5610917 0.064797886
0.46050432 0.423389 -0.51595646 0.12741186 0.19382872 0.17637713 -0.043269187 -0.32353267
-0.37794706 0.35167328 -0.06462969 -0.037156455 0.59197104 -0.46100965 -0.8448527 0.52939457
00000000: 998d b0be 467f 04bf f54f 34be c670 1e3e
00000010: 9f85 3dbe b686 84be 775f 10bd 93a8 60be
00000020: d87f 87be c656 00be f592 9abe 0569 14bf
00000030: 6d57 96be 4148 4abd f109 c9be 7571 65be
00000040: db03 34bf b9ba 56bf 0fa4 02be 646b 68be
00000050: dbf4 ac3e aba7 2dbd be68 353e 5f3d 7bbe
00000060: 03d2 363f 7e37 5cbe 6435 103e a917 6b3b
00000070: cbd0 3abf fef2 28bd 6cd7 73be aa8a dcbe
00000080: abcb 15be 60f1 c33e 11a0 78be 0ed5 86be
00000090: 12fb 19bf 610b 813d 8a8f 513b c017 a03d
000000a0: 76a2 1cbd e39c f8be bbbc 87ba 466f cfbe
000000b0: cb8e 633e 513a 85bd e095 36be 4393 79bd
000000c0: f16c 58be eaab 94be 371e b2be e29d 83be
000000d0: 1e26 edbe 0871 c7be 0ce2 4abc b0d1 99bb
000000e0: 54ef 51be b25d 203d 2203 08bf 9472 36bf
000000f0: e91e 66be 1cba 10bf a404 00bf d4c5 a3be
00000100: dd28 593d 1697 88bd 06f7 9e3d 0305 c63e
00000110: 81f6 aabe b43c f0bd 3375 be3d 0d44 e93d
00000120: d9c3 3e3e f5d3 edbc 9d52 dcbe 2957 4dbe
00000130: e71d ac3e 9b00 b7be 52da 96be 4405 a0be
00000140: 6b9a 82be cbc6 f1be 84b0 bd3d d1a5 f6bd
00000150: c989 c4bd 8eae 1ebf 3fec c3be 9cdd ddbd
00000160: 9e57 f6bd f8c8 ebbd e206 a73a 48ef a5bc
00000170: 79ae e4bd 40b7 83be 6d80 d3bb cae7 8c3c
00000180: 0e9a 22bd 9a90 c4bd a291 183e 62e9 54bd
00000190: ed68 edbe ff90 413e 7b10 debe 7b4d 963e
000001a0: 91ea d33e c14c ca3d f3f9 083e 5b9d 193f
000001b0: b373 9c3d c170 093f d7cb a63d f68e d4be
000001c0: 727b d6be 4ea3 21bc 4379 2dbd 13a1 cb3b
000001d0: 45f3 e63d 2384 893e dab5 55bf eb52 05bf
000001e0: c6b7 c03e 55cb 48bf 96a4 07bc 973e 3ebf
000001f0: 2062 eabd ada8 78bf 37a8 723e 6abd 423e
00000200: 4465 ccbd 2650 d93d 5094 153d e660 d93d
00000210: 926c 05bd 6b1f c4be d793 0fbc 98a5 853d
00000220: ee7a e33c 7ad7 023e 3484 c5bd 562b e6bc
00000230: 019c b4bd 3187 89bc e4e3 803c 436a 07bc
00000240: 7e34 da3e 5ab6 cb3d 3bf6 d0be 1d41 0c3f
00000250: 8dba 743e 77d6 023f 258a aa3e 39ec 163f
00000260: ff8d 463f acfc 96bc 4fe4 3f3e 96e7 363e
00000270: 93a7 7bbd 2bf8 163e 7f76 8c3e e838 7ebd
00000280: a606 f83d 00c4 80bc 8185 31bf 9d04 20bf
00000290: 2bea 07bf 3fa6 76bf 1f0d 47bf 375d 5fbf
000002a0: d8ac 09bf eda3 54bf 35ea 11bf c779 2e3e
000002b0: 92a5 d43d 49bc 9f3e 28dd 5fbd ce3e debd
000002c0: a686 b7bd 01a6 943e 3781 b7bd 3358 4bbe
000002d0: dd2a aebe 2169 d53c 3657 b03d 70ef 2b3e
000002e0: cbc9 ee3a 58a4 48be 4259 57be 2c88 9d3d
000002f0: b94c e4bd 2b57 20bf c084 13bf 28eb 163d
00000300: f069 993e af6d d0be 4989 de3d 08b4 6cbd
00000310: e9bb a0be 7d3f 06bf 4064 853e adde a63e
00000320: e22e a1be d961 bdbe 0457 0bbe 50e7 9dbb
00000330: 9d07 a23e 71a0 81ba 6c80 12bd a6e7 173f
00000340: 39b1 60be b994 0bbe a4c0 9c3e 9bd3 09bf
00000350: 89b9 1dbe 4a96 e4be 09d1 0ebf fd42 ecbe
00000360: 90a5 84be 0247 373e b355 8c3e 9e4b cbbe
00000370: 380f 8c3e 72b8 053f 0a9a 18bd d00d 203e
00000380: 8c56 81be 0da4 65b9 d5ff e0be f8a5 96be
00000390: 06dd f7bc e677 36be 6ee6 03be 178f 80be
000003a0: 9032 67bd 0e28 133e c027 043f cfeb 86bc
000003b0: bc99 16bf b770 a7be b5a3 0fbf c1b4 843d
000003c0: 39c7 eb3e 71c6 d83e b915 04bf 4178 023e
000003d0: 097b 463e 359c 343e 083b 31bd 13a6 a5be
000003e0: 4782 c1be 850e b43e 925c 84bd 5e31 18bd
000003f0: 6a8b 173f 7509 ecbe 4448 58bf 6786 073f

network.0.bias f4 [32]
-0.3229047 -0.40055266 -0.1693373 -0.10468662 -0.36778814 -0.5632847 -0.11063232 -0.31380442
0.04328854 -0.5862719 -0.33683687 -0.41403314 -0.39732873 -0.45068944 -0.19246778 -0.7285817
-0.42283973 -0.43694988 -0.3342049 -0.0929723 -0.5660319 -0.44419146 -0.30156982 -0.233825
-0.5373519 -0.43400806 -0.18003978 -0.3986991 -0.42475334 -0.50088114 -0.38239008 -0.32249123
00000000: c453 a5be 3d15 cdbe c266 2dbe f065 d6bd
00000010: ba4e bcbe 6d33 10bf 3393 e2bd f9aa a0be
00000020: 534f 313d ea15 16bf e275 acbe 27fc d3be
00000030: ac6e cbbe c4c0 e6be 4616 45be 5584 3abf
00000040: 737e d8be e5b7 dfbe e81c abbe 4368 bebd
00000050: 77e7 10bf 106d e3be 5c67 9abe d26f 6fbe
00000060: e58f 09bf 4e36 debe 595c 38be 4a22 ccbe
00000070: 4579 d9be bf39 00bf a2c8 c3be 921d a5be

network.2.weight f4 [64, 32, 3, 3]
0.022174714 -0.09378183 0.3717429 0.24649552 -0.4158944 -0.19627333 0.16714558 -0.026888212
-0.17505717 -0.14753544 -0.13551655 -0.23200129 0.19834429 0.058390733 -0.33563045 0.27696663
-0.10764571 0.081988156 -0.69541585 -0.34864247 -0.1261519 0.08628511 -0.36999965 -0.23462127
-0.049213286 0.11447413 -0.09557035 -0.54428333 -0.022569476 -0.12832107 -0.022469534 0.080081776
-0.33229476 -0.2555721 0.36868286 -0.053018548 0.23648633 -0.1576604 -0.27899835 0.38458
-0.27013597 0.10918551 -0.54094505 -0.7410839 -0.34001246 -0.08154153 -0.08046318 -0.075949416
-0.08276084 -0.07914789 -0.24427615 0.21899992 0.04973211 -0.19508906 0.060552847 -0.07251025
-0.32102403 -0.017928181 0.08610027 -0.0913798 0.3248711 0.085709386 -0.5271021 -0.0007162945
0.4453328 -0.3541539 0.011013065 -0.815328 -0.040925637 0.23140904 -0.310583 -0.17068969
-0.074170426 -0.24810228 0.103273004 -0.69602454 -0.2649297 -0.28794912 0.11746763 -0.20081338
0.06309373 -0.004108397 -0.13250455 0.148846 -0.035721812 0.30696613 0.051396925 0.6453558
-0.40362662 -0.1593782 -0.03555397 0.006197664 -0.003883266 -0.0024862683 -0.010732128 -0.11654932
-0.006108656 0.03834803 -0.0048222975 0.2860121 0.074202225 -0.03327233 0.15164508 0.027659986
0.36787897 -0.07041738 0.22523504 0.10358148 -0.331182 0.09861182 0.27221513 -0.12495766
0.07049785 0.3587384 -0.24567789 -0.24927513 0.08200728 -0.048582725 0.023483811 -0.111054994
-0.023083054 -0.035233103 -0.062494334 0.03065371 -0.123898596 -0.11537581 -0.026898718 -0.003831487
0.01263636 0.021616843 -0.04631412 -0.0024772694 -0.042020954 -0.050851073 -0.030748097 -0.10296847
0.09411961 -0.0399479 -0.016481405 0.04260193 -0.15288234 -0.12770599 0.0022938084 -0.10346666
0.21372871 0.14950156 -0.20711565 -0.0217124 -0.109618 -0.2118329 0.61623216 -0.07950779
-0.41012287 0.023133619 -0.13637626 -0.30761576 -0.5525075 -0.3707571 -0.34320766 -0.32836503
-0.018333852 0.10232597 -0.03146668 0.26510063 -0.017456582 0.064205974 -0.19557634 -0.07352584
0.022311443 0.08356415 -0.2339168 0.027946996 0.17643648 0.054342683 -0.18544617 0.043981563
-0.050914317 0.066493265 -0.44182375 -0.3219413 -0.24055846 -0.87960374 -0.32017958 -0.41952857
0.18638895 -0.35969892 -0.5741584 -0.27635568 -0.325814 -0.17506665 -0.3668337 0.112042636
-0.44984993 -0.15163277 -0.7807136 -0.003128936 -0.2534699 -0.41114333 0.051433172 -0.25933066
-0.23587997 -0.33726197 -0.123375416 -0.008194072 -0.53717804 -0.20218433 0.030745028 -0.10488347
-0.011218256 -0.35711068 -0.107994534 -0.23816864 -0.6153849 -0.39887416 -0.0527066 -0.061797988
-0.08683735 -0.036706567 -0.1665926 0.13287127 -0.21761818 -0.052459795 -0.035697095 -0.11869188
-0.2645026 -0.40004683 0.20473957 -0.35126284 -0.19066527 -0.30120733 -0.48829162 -0.11998032
-0.30457518 -0.19443992 0.31440595 -0.2875199 -0.21954456 0.062875934 0.11832952 -0.43212172
0.25575593 0.06040248 -0.50184524 -0.06703247 0.4868837 -0.35744032 0.62454027 0.2788894
0.14580995 0.14637066 0.014028482 -0.08805366 0.17133605 -0.4273485 0.20331776 0.2849183
00000000: bfa7 b53c b010 c0bd 1655 be3e 5269 7c3e
00000010: 1cf0 d4be e0fb 48be 3628 2b3e ab44 dcbc
00000020: 3042 33be 8813 17be dac4 0abe bf91 6dbe
00000030: c41a 4b3e 1f2b 6f3d c1d7 abbe 92ce 8d3e
00000040: 5b75 dcbd 68e9 a73d c606 32bf 4481 b2be
00000050: f72d 01be 3fb6 b03d 9870 bdbe 8f40 70be
00000060: df93 49bd 6a71 ea3d 63ba c3bd 2756 0bbf
00000070: 9fe3 b8bc 9966 03be 0712 b8bc ea01 a43d
00000080: 8a22 aabe 59da 82be 00c4 bc3e fa29 59bd
00000090: 7929 723e ba71 21be dfd8 8ebe abe7 c43e
000000a0: 434f 8abe a79c df3d 607b 0abf adb7 3dbf
000000b0: 1d16 aebe 3fff a6bd e1c9 a4bd 5e8b 9bbd
000000c0: 847e a9bd 4a18 a2bd 8723 7abe 8441 603e
000000d0: e6b3 4b3d 6dc5 47be 4306 783d 4180 94bd
000000e0: 435d a4be 1fde 92bc 5755 b03d 5525 bbbd
000000f0: 8155 a63e 6788 af3d 2af0 06bf b6c5 3bba
00000100: a902 e43e a953 b5be 2570 343c 56b9 50bf
00000110: a4a1 27bd 7ef6 6c3e bc04 9fbe 47c9 2ebe
00000120: aae6 97bd 860e 7ebe cc80 d33d aa2e 32bf
00000130: dea4 87be 116e 93be de92 f03d 06a2 4dbe
00000140: 4937 813d bb9f 86bb 46af 07be 166b 183e
00000150: 0951 12bd aa2a 9d3e 9585 523d 0a36 253f
00000160: 26a8 cebe 0a34 23be 0aa1 11bd c615 cb3b
00000170: 647e 7ebb a9f0 22bb cfd5 2fbc 69b1 eebd
00000180: 1f2b c8bb d312 1d3d 5d04 9ebb 2e70 923e
00000190: 56f7 973d 9148 08bd d948 1b3e 3297 e23c
000001a0: a25a bc3e fd36 90bd 04a4 663e 8722 d43d
000001b0: b090 a9be fef4 c93d c85f 8b3e cde9 ffbd
000001c0: 2d61 903d 8fac b73e fc92 7bbe fb41 7fbe
000001d0: 6ff3 a73d aefe 46bd 1f61 c03c cd70 e3bd
000001e0: ac18 bdbc 9650 10bd 0ffa 7fbd 7d1d fb3c
000001f0: 8cbe fdbd 274a ecbd b35a dcbc af19 7bbb
00000200: bc08 4f3c ce15 b13c e0b3 3dbd af59 22bb
00000210: 2a1e 2cbd 3749 50bd 6fe3 fbbc 22e1 d2bd
00000220: c8c1 c03d 69a0 23bd 0304 87bc 5d7f 2e3d
00000230: 308d 1cbe 5cc5 02be b853 163b 54e6 d3bd
00000240: b3db 5a3e f016 193e 2016 54be 34de b1bc
00000250: 677f e0bd b9ea 58be 64c1 1d3f fbd4 a2bd
00000260: a0fb d1be b782 bd3c 38a6 0bbe d07f 9dbe
00000270: 2271 0dbf e0d3 bdbe eab8 afbe 761f a8be
00000280: e030 96bc 4790 d13d 35e3 00bd 45bb 873e
00000290: 1b01 8fbc 6c7e 833d 2a45 48be b794 96bd
000002a0: 7dc6 b63c ae23 ab3d e387 6fbe 19f1 e43c
000002b0: c4ab 343e 6f96 5e3d 9ae5 3dbe 0326 343d
000002c0: 888b 50bd 9f2d 883d b936 e2be 7dd5 a4be
000002d0: f554 76be b62d 61bf 94ee a3be 73cc d6be
000002e0: bfdc 3e3e 752a b8be 0bfc 12bf 7e7e 8dbe
000002f0: 18d1 a6be ac44 33be a0d1 bbbe 9c76 e53d
00000300: bb52 e6be 9f45 1bbe d9dc 47bf d60e 4dbb
00000310: cfc6 81be 6181 d2be 97ab 523d fdc6 84be
00000320: 858a 71be 9aad acbe 40ac fcbd 6e40 06bc
00000330: 8084 09bf 6909 4fbe ffdc fb3c 25cd d6bd
00000340: c7cc 37bc 36d7 b6be 3d2c ddbd 7be2 73be
00000350: dd89 1dbf 3c39 ccbe e0e2 57bd e31f 7dbd
00000360: c8d7 b1bd a059 16bd 4097 2abe 680f 083e
00000370: 4dd7 5ebe 15e0 56bd 1e37 12bd ba14 f3bd
00000380: e36c 87be f0d2 ccbe 40a7 513e b9d8 b3be
00000390: c23d 43be d937 9abe 5c01 fabe 3eb8 f5bd
000003a0: 47f1 9bbe 421b 47be d1f9 a03e cf35 93be
000003b0: 4ad0 60be 19c5 803d bf56 f23d 0f3f ddbe
000003c0: 71f2 823e 9768 773d ee78 00bf 5248 89bd
000003d0: d248 f93e 6b02 b7be dfe1 1f3f 97ca 8e3e
000003e0: 344f 153e 31e2 153e b8d7 653c 7a55 b4bd
000003f0: b872 2f3e 6ccd dabe 8832 503e d0e0 913e

network.2.bias f4 [64]
-0.17804518 -0.5855512 -0.45743147 -0.28941372 -0.24853943 0.19355345 -0.23067746 -0.12082316
-0.095456555 -0.26194605 -0.15383632 -0.34180823 -0.42463022 -0.63319194 -0.087389946 -0.10552595
-0.09378465 -0.08333105 0.063300095 -0.34083018 -0.11176222 -0.08177464 -0.080157205 -0.13517034
-0.065704025 -0.14255609 -0.12369212 -0.4533632 -0.4033626 -0.2050297 -0.33957365 -0.16190325
-0.004483737 -0.20941225 -0.4998591 -0.2702602 -0.06300487 -0.45977545 -0.13261868 -0.016656434
-0.19465521 -0.09221727 -0.05882679 -0.122730374 -0.41672188 -0.35399842 -0.26230225 -0.16555777
-0.23452033 -0.09318348 -0.38369 -0.17704697 -0.2190876 -0.29711354 -0.3453078 -0.35937315
-0.27677494 -0.11235278 -0.31911543 0.01664302 -0.095725454 -0.15877096 -0.31629694 -0.32967648
00000000: 7a51 36be afe6 15bf 7534 eabe 092e 94be
00000010: 1f81 7ebe e032 463e b636 6cbe 2272 f7bd
00000020: ba7e c3bd cb1d 86be 4587 1dbe 7d01 afbe
00000030: 2269 d9be de18 22bf 80f9 b2bd fd1d d8bd
00000040: 2b12 c0bd 78a9 aabd 7ba3 813d 4b81 aebe
00000050: 97e3 e4bd 7679 a7bd 7629 a4bd 186a 0abe
00000060: d58f 86bd 39fa 11be 4b52 fdbd 391f e8be
00000070: 8b85 cebe 4ef3 51be 99dc adbe f7c9 25be
00000080: 50ec 92bb 2a70 56be 88ed ffbe 8c5f 8abe
00000090: b308 81bd b067 ebbe 31cd 07be 1373 88bc
000000a0: b253 47be 68dc bcbd 5cf4 70bd 105a fbbd
000000b0: 925c d5be 483f b5be 7b4c 86be fa87 29be
000000c0: 1926 70be fbd6 bebd 0473 c4be cd4b 35be
000000d0: 8058 60be 441f 98be 2fcc b0be c2ff b7be
000000e0: 72b5 8dbe 3719 e6bd 1963 a3be f156 883c
000000f0: b50b c4bd db94 22be acf1 a1be 5bcb a8be

network.4.weight f4 [64, 64, 3, 3]
-0.23277453 0.19834931 -0.1555661 0.11194355 -0.28657964 -0.09859211 0.3671017 -0.015648477
0.18728289 -0.49784285 0.04124921 0.16982692 0.044331245 -0.39392462 0.1817717 -0.5575776
0.07818968 -0.19002779 -0.05299242 0.18809913 0.31754062 -0.010696719 -0.15568148 0.070295885
-0.7427282 -0.31351477 0.015814995 -0.011441646 0.025935354 0.05412515 0.30931613 -0.3168426
0.09225283 0.028646527 -0.07430774 -0.03010371 0.031376556 -0.51978624 -0.21697477 -0.38136238
0.22852822 0.19741254 -0.29982185 0.096817 -0.18646142 0.042219944 0.11415998 -0.18007997
-0.061148707 -0.079684846 -0.43742457 -0.48211855 -0.43926695 0.020611588 -0.20228156 -0.32694566
-0.17200455 -0.028490428 -0.31302735 0.42301404 -0.41377327 0.2882838 -0.31407937 -0.12124646
-0.34965113 0.43282884 -0.63959193 -0.06143963 -0.19959088 -0.9513408 -0.06783968 0.44093564
-0.9978908 -0.33378854 0.36302075 -0.25365704 -0.6645512 0.03857331 -0.52034324 -0.5545498
0.2958682 0.07540258 -0.04981603 -0.5904606 -0.09434077 0.021863868 0.39798093 0.060386036
-0.094136015 -0.14884485 -0.3047007 -0.23433106 -0.24942315 -0.34525993 -0.28962 0.44129238
-0.38318276 -0.45219186 0.92310584 -0.31611088 -0.106190555 0.4398841 0.089668736 -0.5872058
-0.15618078 -0.527479 -0.19096324 -0.20610447 -0.25533956 -0.5580853 -0.59243846 0.2961202
-0.050065674 -0.33873725 -0.073162094 0.16440354 0.07098481 -0.66861504 0.29845202 -0.13597694
-0.15463369 0.03383015 0.010354787 -0.29025027 -0.9308392 0.4327978 0.02101022 -0.013197615
-0.040565584 -0.02651011 0.016016586 0.006283899 0.00084877765 -0.017423885 0.032078385 0.029185962
0.020180063 -0.007410967 0.020365259 0.014383307 -0.01729796 -0.0035353214 -0.028993927 -0.0055269087
-0.61089355 0.6273715 -0.018746896 -0.074865006 0.13470584 -0.45834625 -0.31614086 -0.4442643
-0.004935207 -0.77138925 -0.4477912 -0.0015156458 -0.43200552 -0.3976415 -0.21007891 -0.19930479
-0.17143607 0.45055145 0.25128746 0.079581134 0.03248987 -0.3700433 0.28901774 -0.12681109
-0.3946549 -0.18580045 -0.7146505 -0.33361116 0.4656704 0.10497093 -0.46427768 -0.67107654
-0.40345496 -0.25285706 -0.51452976 -0.22836208 0.29570296 -0.05111388 -0.0070071723 -0.40695783
-0.24682069 -0.27582934 0.18093595 -0.06057301 0.055333395 -0.41493815 -0.059513956 0.7938078
-0.028198486 -0.18773651 0.3037122 -0.092548266 0.015595675 -0.1214736 0.0008748276 -0.20710678
-0.16030379 0.08327862 -0.6711334 -0.16571447 0.15407808 -0.57914954 0.06350972 -0.23894519
0.080444664 0.046086784 0.32821018 0.20520943 0.28460485 -0.07257166 0.27404526 0.19253813
-0.38858148 -0.73484683 0.4027289 -0.10540484 -0.13084728 -0.650724 -0.41466513 0.33287698
-0.037048377 -0.01178968 -0.14264372 -0.020199494 0.0070916587 -0.11325035 -0.08164431 -0.122239746
-0.08570422 0.09525205 0.02856352 -0.03814454 0.016688284 -0.03905647 0.019560672 0.03004351
-0.012287856 -0.027569175 -0.005095318 -0.31193617 -0.19457518 0.037813623 -0.042588085 -0.19591688
-0.17593853 -0.15125239 0.5022051 -0.16955008 -0.49509522 0.39234146 0.07552768 -0.65104634
00000000: 725c 6ebe 151c 4b3e b84c 1fbe a942 e53d
00000010: 91ba 92be a9ea c9bd c1f4 bb3e 3c31 80bc
00000020: 16c7 3f3e 42e5 febe eef4 283d 1ce7 2d3e
00000030: ae94 353d 7db0 c9be 5c22 3a3e 68bd 0ebf
00000040: e921 a03d a596 42be 940e 59bd 0f9d 403e
00000050: af94 a23e 4b41 2fbc f76a 1fbe 4af7 8f3d
00000060: 6f23 3ebf 0285 a0be 738e 813c be75 3bbc
00000070: 6176 d43c 55b2 5d3d af5e 9e3e 3139 a2be
00000080: 0def bc3d 1fac ea3c a82e 98bd 0e9c f6bc
00000090: b484 003d b610 05bf a22e 5ebe ee41 c3be
000000a0: 4d03 6a3e 8326 4a3e 4082 99be fe47 c63d
000000b0: beef 3ebe d2ee 2c3d b5cc e93d e266 38be
000000c0: 1177 7abd cf31 a3bd 1df6 dfbe 3ed8 f6be
000000d0: 99e7 e0be a2d9 a83c e622 4fbe 6c65 a7be
000000e0: f621 30be c264 e9bc 1f45 a0be 4c95 d83e
000000f0: 17da d3be ef99 933e 03cf a0be 1050 f8bd
00000100: 7905 b3be be9b dd3e 4cbc 23bf 1fa8 7bbd
00000110: 8d61 4cbe 128b 73bf 88ef 8abd 51c2 e13e
00000120: c575 7fbf 55e6 aabe dbdd b93e 56df 81be
00000130: 0720 2abf 0cff 1d3d 3735 05bf faf6 0dbf
00000140: 097c 973e ab6c 9a3d e50b 4cbd 6d28 17bf
00000150: bc35 c1bd db1b b33c 28c4 cb3e 5957 773d
00000160: 62ca c0bd c96a 18be bb01 9cbe 7bf4 6fbe
00000170: c868 7fbe e9c5 b0be 1349 94be 13f1 e13e
00000180: 8830 c4be b185 e7be aa50 6c3f 49d9 a1be
00000190: 6f7a d9bd 7d38 e13e 3ea4 b73d 1f53 16bf
000001a0: dbed 1fbe dd08 07bf de8b 43be 0d0d 53be
000001b0: debb 82be aede 0ebf 0caa 17bf 119d 973e
000001c0: aa11 4dbd f86e adbe 02d6 95bd 6759 283e
000001d0: 7c60 913d 5b2a 2bbf b4ce 983e 8a3d 0bbe
000001e0: 4b58 1ebe 7c91 0a3d 20a7 293c af9b 94be
000001f0: 7a4b 6ebf ac97 dd3e a01d ac3c cf3a 58bc
00000200: 1928 26bd bb2b d9bc 3735 833c 2ae9 cd3b
00000210: 8180 5e3a 89bc 8ebc a064 033d 6617 ef3c
00000220: a950 a53c b2d7 f2bb 0bd5 a63c f6a7 6b3c
00000230: 74b4 8dbc dab0 67bb ac84 edbc 121b b5bb
00000240: 8563 1cbf 6b9b 203f 1793 99bc d352 99bd
00000250: 54f0 093e 5cac eabe 37dd a1be 9c76 e3be
00000260: 84b7 a1bb c479 45bf e344 e5be a2a8 c6ba
00000270: d42f ddbe ab97 cbbe ed1e 57be 8e16 4cbe
00000280: f08c 2fbe aeae e63e c0a8 803e 6ffb a23d
00000290: 1914 053d 5176 bdbe 22fa 933e c4da 01be
000002a0: 3510 cabe 7942 3ebe 56f3 36bf 15cf aabe
000002b0: 5a6c ee3e 00fb d63d ceb5 edbe accb 2bbf
000002c0: a691 cebe 7b76 81be 39b8 03bf c0d7 69be
000002d0: 6166 973e ca5c 51bd 6c9c e5bb c75c d0be
000002e0: 90be 7cbe 8139 8dbe 4647 393e 681b 78bd
000002f0: 45a5 623d c672 d4be e8c4 73bd fd36 4b3f
00000300: 8300 e7bc 003e 40be 2a80 9b3e f289 bdbd
00000310: 0185 7f3c 27c7 f8bd b054 653a cd13 54be
00000320: ad26 24be fb8d aa3d 66cf 2bbf 0eb1 29be
00000330: a5c6 1d3e 2543 14bf 6211 823d 0cae 74be
00000340: 2cc0 a43d 7fc5 3c3d 2a0b a83e 6c22 523e
00000350: bab7 913e 73a0 94bd a94f 8c3e b728 453e
00000360: 27f4 c6be ec1e 3cbf 7b32 ce3e 7ede d7bd
00000370: d4fc 05be d995 26bf fd4e d4be da6e aa3e
00000380: 0ac0 17bd 8129 41bc 3211 12be 6979 a5bc
00000390: 2561 e83b cdef e7bd 2235 a7bd d558 fabd
000003a0: b285 afbd 8213 c33d 0bfe e93c 733d 1cbd
000003b0: deb5 883c adf9 1fbd b43d a03c cf1d f63c
000003c0: 0153 49bc c0d8 e1bc a0f6 a6bb 19b6 9fbe
000003d0: b73e 47be 75e2 1a3d d870 2ebd 6f9e 48be
000003e0: 3b29 34be e8e1 1abe 8390 003f 899e 2dbe
000003f0: 1f7d fdbe fbe0 c83e 42ae 9a3d f9aa 26bf

network.4.bias f4 [64]
-0.12821501 -0.23930316 -0.2258326 -0.3496251 -0.20015304 -0.3791899 -0.08827352 -0.18124124
-0.7288029 -0.48993522 -0.20580952 -0.10989637 -0.2034095 -0.17355233 -0.4870734 -0.53434604
-0.5088115 -0.18335353 -0.7492557 -0.10964084 -0.28644273 -0.5843496 -0.63128257 -0.41588265
-0.5331353 -0.637737 -0.27985343 -0.4463854 -0.20554404 -0.6029278 -0.33049434 -0.63600266
-0.43169817 -0.48881382 -0.14900276 -0.4213773 -0.49549702 -0.57523507 -0.81534517 -0.09216605
-0.4768423 -0.15796225 -0.27226463 -0.041834246 -0.23775175 -0.3409113 -0.11799138 -0.48314828
-0.6035757 0.05123002 -0.33802074 -0.056616604 -0.29612666 -0.34331188 -0.29121968 -0.12020822
-0.4585106 -0.47747067 -0.10508591 -0.053296104 -0.42079514 -0.2487839 -0.4331985 -0.18612558
00000000: cc4a 03be e30b 75be a940 67be 1002 b3be
00000010: ebf4 4cbe 2e25 c2be bfc8 b4bd 4e97 39be
00000020: d492 3abf cad8 fabe bbbf 52be 5911 e1bd
00000030: 944a 50be b4b7 31be af61 f9be e7ca 08bf
00000040: 7841 02bf 07c1 3bbe 39cf 3fbf 608b e0bd
00000050: 9fa8 92be ef97 15bf bc9b 21bf 92ee d4be
00000060: 8e7b 08bf bb42 23bf f348 8fbe a18c e4be
00000070: 237a 52be 7a59 1abf 8e36 a9be 12d1 22bf
00000080: 8b07 ddbe ce45 fabe 2e94 18be c4be d7be
00000090: c9b1 fdbe 9b42 13bf 76ba 50bf 8ec1 bcbd
000000a0: ad24 f4be dbc0 21be 4566 8bbe 635a 2bbd
000000b0: 3275 73be ed8b aebe 77a5 f1bd 365f f7be
000000c0: f083 1abf 92d6 513d 0e11 adbe d0e6 67bd
000000d0: ea9d 97be 93c6 afbe bf1a 95be ba2f f6bd
000000e0: e7c1 eabe 0977 f4be 4837 d7bd 044d 5abd
000000f0: 7672 d7be 35c1 7ebe 32cc ddbe b497 3ebe

actor.weight f4 [5, 3136]
0.33660468 0.27096283 0.35622367 0.3705212 0.27845407 0.6098963 0.022838332 0.12309967
0.2915265 0.020973314 0.3510088 0.30541757 0.31259936 0.4216029 0.975066 0.20505963
0.029786736 0.008932389 0.36155123 0.20799412 0.24114846 0.2726504 0.23054655 0.1177906
0.11815964 0.002627496 0.20646611 -0.20006871 -0.021721112 0.31865144 0.18868776 0.0987258
0.38011476 0.4167448 0.793783 0.4620482 0.32024086 0.28416073 0.18159837 0.23833762
0.20520711 0.31560692 0.41788998 0.36127013 0.005443604 0.61857146 0.30486205 0.17453419
0.1261169 0.24997841 0.18189514 0.8085257 0.2974382 0.1791114 0.23484951 0.11069446
0.11413141 0.8940645 0.17294563 0.13800631 0.18779957 0.85835236 0.543503 0.69918716
0.21784551 0.48140615 -0.0059281792 0.32797658 -0.07902681 0.4141357 0.13275336 0.8589542
0.34123182 0.47519365 0.09898135 -0.099929385 0.15884115 -0.14146192 0.3394666 0.07276182
0.70869243 0.6396647 0.25134328 0.26035726 0.4001485 0.24462435 0.10976361 0.2682112
0.12656866 -0.3176618 0.048825853 0.49659958 0.2098255 0.060144883 0.2720079 0.16894116
0.30297446 0.4765949 0.082651585 0.28452784 0.03862867 0.15854064 0.30186164 -0.03157093
0.56417894 0.3177275 0.17232427 0.3047971 0.18619898 0.39842746 -0.16986613 0.23179196
0.1404065 0.41412815 0.33829528 0.5099397 0.17073908 0.5491382 -0.08454155 -0.1543852
0.19689432 0.25694716 0.18259002 0.26973382 0.5058373 0.40903962 0.22445741 0.13182867
0.15037076 0.4109411 0.1887631 0.2218457 0.22699828 0.20818323 0.1799074 0.13259749
0.40332916 0.2744873 0.14447303 0.84576553 0.7787269 0.65552205 0.4532252 0.20462549
0.18946066 0.58649063 0.10504439 0.41092637 0.43292123 0.41169608 1.0380192 0.36593327
0.18289171 0.001682529 0.6168883 0.5864755 0.6454861 0.14195344 0.11043153 0.7316639
0.33958527 0.28031248 1.1304541 0.10152128 0.40517792 0.06376123 0.5195643 0.11264061
0.61532086 0.16704188 0.29540727 0.23731537 0.07194411 -0.2989302 0.5961973 0.5161137
0.3293907 -0.02360003 0.23798403 0.46746722 0.3247241 0.031498387 0.59524256 0.6716497
0.06966232 0.44796342 0.4675612 0.3199279 0.22516863 0.2690702 0.8838033 1.097807
0.15460426 0.093412094 0.09497986 0.38397568 0.26521197 0.1750555 0.43514085 0.42216054
0.25531346 0.8264934 0.05480894 0.29020688 0.37737384 0.34190032 0.34406418 -0.06367391
-0.14993209 -0.21823373 0.17617068 0.2339176 0.40350312 0.18316086 0.18623288 0.21856596
0.49531648 0.08548376 0.2020306 0.37285358 0.033729043 -0.17322114 0.25756195 0.36049128
0.35323748 0.30447334 0.25193945 0.30894163 0.54851973 0.5728052 0.08029973 0.27341366
0.23910186 0.55477035 0.244143 0.32234457 0.22323509 0.0577189 0.29647613 0.37006435
0.6908165 0.02263433 -0.1291619 0.5592012 0.2803182 -0.17200038 0.48855203 0.25536793
0.20974398 -0.043863438 0.088824935 0.15400068 0.113384716 0.7629278 0.533393 0.4879424
00000000: 7357 ac3e a4bb 8a3e f362 b63e f4b4 bd3e
00000010: 8891 8e3e 2a22 1c3f 7417 bb3c ae1b fc3d
00000020: f642 953e 3ad0 ab3c 6db7 b33e b15f 9c3e
00000030: 060d a03e 56dc d73e ed9d 793f 27fb 513e
00000040: 5003 f43c 2859 123c 3e1d b93e 69fc 543e
00000050: 9fef 763e d598 8b3e 6514 6c3e 333c f13d
00000060: aefd f13d 1132 2c3b da6b 533e d0de 4cbe
00000070: 79f0 b1bc 4826 a33e 5d37 413e c130 ca3d
00000080: 679e c23e 935f d53e 5d35 4b3f 9591 ec3e
00000090: 9cf6 a33e 847d 913e ecf4 393e c70e 743e
000000a0: d021 523e 3b97 a13e adf5 d53e 66f8 b83e
000000b0: 4360 b23b b35a 1e3f e116 9c3e 17b9 323e
000000c0: ca24 013e 57fa 7f3e b842 3a3e 8afb 4e3f
000000d0: d249 983e fb68 373e 647c 703e c7b3 e23d
000000e0: bbbd e93d 69e1 643f a918 313e 8751 0d3e
000000f0: 884e 403e fbbc 5b3f 0323 0b3f eefd 323f
00000100: e512 5f3e de7a f63e 2c41 c2bb 8cec a73e
00000110: cfd8 a1bd 9809 d43e 7ff0 073e 6ce4 5b3f
00000120: f0b5 ae3e 954c f33e bcb6 ca3d c7a7 ccbd
00000130: 41a7 223e 65db 10be 91ce ad3e 2604 953d
00000140: de6c 353f 11c1 233f 11b0 803e 8c4d 853e
00000150: 44e0 cc3e ce7e 7a3e becb e03d fa52 893e
00000160: 379b 013e 91a4 a2be 9efd 473d 4d42 fe3e
00000170: 7fdc 563e 7b5a 763d 9f44 8b3e e9fe 2c3e
00000180: 781f 9b3e 3f04 f43e 3c45 a93d a2ad 913e
00000190: 1939 1e3d 7a58 223e 9c8d 9a3e 8550 01bd
000001a0: 086e 103f 2ead a23e c675 303e 5e0e 9c3e
000001b0: f2aa 3e3e affe cb3e 63f1 2dbe df5a 6d3e
000001c0: b9c6 0f3e 9b08 d43e 0a35 ad3e 688b 023f
000001d0: 3ad6 2e3e 5294 0c3f 1f24 adbd 2717 1ebe
000001e0: aa9e 493e 948e 833e e1f8 3a3e 8d1a 8a3e
000001f0: 8e7e 013f a46d d13e 2ad8 653e 18fe 063e
00000200: cbfa 193e df66 d23e 1d4b 413e 852b 633e
00000210: 3d72 683e fc2d 553e a539 383e a3c7 073e
00000220: 2981 ce3e 9989 8c3e bdf0 133e 1784 583f
00000230: a55a 473f 4bd0 273f 220d e83e 5889 513e
00000240: fa01 423e 4024 163f 8321 d73d f164 d23e
00000250: daa7 dd3e d4c9 d23e d0dd 843f 9b5b bb3e
00000260: f747 3b3e 4e88 dc3a 64ec 1d3f 4223 163f
00000270: 943e 253f 3e5c 113e ed29 e23d 534e 3b3f
00000280: 1fde ad3e 1e85 8f3e b8b2 903f 64ea cf3d
00000290: 7b73 cf3e 3f95 823d 2a02 053f 1fb0 e63d
000002a0: ab85 1d3f 070d 2b3e 9f3f 973e cd02 733e
000002b0: 6f57 933d 610d 99be 63a0 183f 0720 043f
000002c0: e6a5 a83e da54 c1bc 16b2 733e dd57 ef3e
000002d0: 3d42 a63e 7404 013d d161 183f 3cf1 2b3f
000002e0: 1eab 8e3d 765b e53e 2e64 ef3e 97cd a33e
000002f0: 9b92 663e 92c3 893e ef40 623f f184 8c3f
00000300: 9450 1e3e d74e bf3d cd84 c23d 7698 c43e
00000310: ddc9 873e c041 333e c8ca de3e 6d25 d83e
00000320: 72b8 823e 1295 533f 577f 603d ff95 943e
00000330: 2537 c13e 8f0d af3e 2e29 b03e 7867 82bd
00000340: cc87 19be aa78 5fbe 1666 343e 1888 6f3e
00000350: f697 ce3e 858e 3b3e d5b3 3e3e c1cf 5f3e
00000360: 1f9a fd3e 1c12 af3d 1ce1 4e3e aae6 be3e
00000370: 7727 0a3d e260 31be 29df 833e 5092 b83e
00000380: 8bdb b43e eee3 9b3e 35fe 803e 992d 9e3e
00000390: ca6b 0c3f 5da3 123f 2f74 a43d e0fc 8b3e
000003a0: 1ed7 743e 6e05 0e3f 9f00 7a3e 590a a53e
000003b0: bd97 643e a76a 6c3d b8cb 973e 1379 bd3e
000003c0: 5ad9 303f a16b b93c 0443 04be cf27 0f3f
000003d0: de85 8f3e de20 30be 7e23 fa3e 96bf 823e
000003e0: 20c7 563e 26aa 33bd d9e9 b53d 5bb2 1d3e
000003f0: 3f36 e83d 3c4f 433f 728c 083f 96d3 f93e

actor.bias f4 [5]
0.068154685 0.100191765 0.18199952 0.13397315 0.011026859
00000000: af94 8b3d 5731 cd3d 155e 3a3e 4230 093e
00000010: 00aa 343c

critic.weight f4 [1, 3136]
-0.42376694 -0.54976493 -0.40268478 0.17192937 0.31128317 0.017523086 -0.08032094 0.049038418
0.10040172 -0.066747926 -0.025081987 0.13899401 0.0041688774 -0.030091394 -0.18782726 -0.45122144
0.09071663 0.0037104085 0.06418647 -0.080959655 -0.055367444 -0.27350295 -0.45843038 -0.105120234
-0.14050815 0.17311487 0.18079634 0.037715048 -0.34177342 0.029539872 0.039026093 0.016203616
-0.107802585 -0.039168645 0.02766169 0.3640596 -0.20762558 0.093513995 -0.013490567 0.07844244
-0.15860875 0.22649382 0.3264403 -0.17528047 0.033635393 0.016787222 0.3148619 0.28873423
-0.024832232 -0.06958007 -0.1626369 -0.5847495 0.13492571 -0.15062606 -0.47159573 -0.33444354
0.42418167 0.004868225 -0.38288578 0.38385788 0.1927392 0.07700156 -0.3012524 0.09830082
0.07177732 0.33416674 0.5281734 0.63279206 0.27510753 0.07368486 0.21232839 -0.14256941
0.14263329 -0.2989693 0.2489093 -0.0711332 -0.1721365 -0.0016838151 -0.19942252 -0.13577776
-0.31170687 0.10377644 -0.059032474 -0.3684665 0.5911628 0.6963715 0.21621707 0.30643156
0.25275433 0.08541315 0.14881255 0.25670308 0.34665588 0.03932839 0.106013745 0.17137133
0.38110125 -0.21172643 -0.19334035 0.08041695 -0.30114317 -0.4316651 -0.0045694117 0.13464858
-0.45044264 -0.067482986 -0.1278659 -0.0062913983 -0.010392323 -0.099301904 0.34619412 0.34137923
-0.1799694 -0.050121132 0.04872983 0.25590515 0.10417278 0.00898284 -0.014928459 0.03452088
0.07774021 0.1543299 -0.031048266 -0.016636668 0.114227876 -0.06396807 0.29013374 -0.06013964
0.18640094 -0.051377 0.10917316 0.16540708 0.35722739 -0.07135765 -0.22580583 -0.031901814
0.06677252 0.04122538 -0.38633308 -0.35475162 0.15719146 0.110240325 0.08725769 0.2237598
0.5539925 0.058528163 0.27226833 -0.6929276 -0.5787375 -0.36564216 -0.9117473 -0.954655
0.061041705 0.09366758 0.08494148 -0.031922635 0.53317803 -0.004793886 -0.09434801 0.07015386
0.20974852 0.25022653 0.6136859 -0.14460708 0.1838213 -0.041658618 -0.12867714 0.24870846
-0.021593874 0.27613902 0.32692325 -0.24799186 -0.31372154 0.24185157 0.18041873 -0.6236407
0.0023168013 0.22545405 0.11506309 -0.27955848 -0.6357588 0.14425416 -0.04330954 -0.19013974
0.31560868 -0.18986984 -0.31694093 0.4768941 -0.094901204 -0.07690121 0.59810764 0.5006961
-0.037774663 -0.1097633 -0.25220865 -0.02278462 -0.11810957 -0.09875244 0.018313523 -0.20434804
-0.20859337 -0.2430248 0.13618518 0.16013291 -0.024356859 0.19564357 0.1292417 0.0377282
0.0313306 0.20993042 -0.18166861 -0.0685946 0.13349196 0.12639296 -0.00999401 -0.07684979
0.14989547 0.1431836 0.16613847 -0.19175155 -0.14384048 -0.08931219 -0.08010691 -0.077448465
0.16064233 0.21819407 0.021939946 -0.012371765 -0.16251013 -0.062065154 0.29737654 -0.22561099
-0.19621004 -0.053643275 0.033749238 -0.46023792 -0.3965556 -0.1933549 0.040559575 0.0028265563
0.08289056 0.06122091 0.22920841 0.12985215 0.45316923 0.024882216 0.335912 -0.06256555
-0.04894134 -0.20272335 0.17856644 -0.053609792 -0.12517397 -0.03621216 0.19913231 -0.14074501
00000000: fbf7 d8be 65bd 0cbf b32c cebe 410e 303e
00000010: 8260 9f3e 938c 8f3c 4e7f a4bd 82dc 483d
00000020: 6b9f cd3d 23b3 88bd bd78 cdbc 7254 0e3e
00000030: 149b 883b 3a82 f6bc ca55 40be 7f06 e7be
00000040: a4c9 b93d 532a 733b 3274 833d 2dce a5bd
00000050: f9c8 62bd 9408 8cbe 63b7 eabe 4749 d7bd
00000060: 5ee1 0fbe 0645 313e ad22 393e 187b 1a3d
00000070: edfc aebe 9afd f13c d3d9 1f3d 72bd 843c
00000080: 9ac7 dcbd 4d6f 20bd c59a e23c 0566 ba3e
00000090: cd9b 54be 4484 bf3d 8a07 5dbc 6ea6 a03d
000000a0: 556a 22be ffed 673e 2f23 a73e b97c 33be
000000b0: 44c5 093d 5b85 893c 9435 a13e f9d4 933e
000000c0: f76c cbbc ff7f 8ebd 4a8a 26be 25b2 15bf
000000d0: f729 0a3e b83d 1abe ff74 f1be 2f3c abbe
000000e0: 572e d93e a285 9f3b 9b09 c4be 0589 c43e
000000f0: 6d5d 453e feb2 9d3d c13d 9abe f151 c93d
00000100: fdff 923d e717 ab3e 5f36 073f a9fe 213f
00000110: e5da 8c3e 16e8 963d 9d6c 593e b7fd 11be
00000120: 760e 123e 8112 99be 14e2 7e3e 48ae 91bd
00000130: 8d44 30be 76b3 dcba 6b35 4cbe 5309 0bbe
00000140: 0b98 9fbe be88 d43d 09cc 71bd a4a7 bcbe
00000150: 7256 173f 6745 323f 0268 5d3e 99e4 9c3e
00000160: 0469 813e 17ed ae3d 5162 183e 966e 833e
00000170: e17c b13e ce16 213d bc1d d93d f77b 2f3e
00000180: b41f c33e d0ce 58be 03fb 45be a4b1 a43d
00000190: 702f 9abe 3503 ddbe 01bb 95bb 51e1 093e
000001a0: 6ba0 e6be 8534 8abd 47ef 02be 1328 cebb
000001b0: 9044 2abc cc5e cbbd 5b40 b13e 42c9 ae3e
000001c0: e649 38be d14b 4dbd ee98 473d 0006 833e
000001d0: 8a58 d53d c32c 133c 7f96 74bc c465 0d3d
000001e0: 4236 9f3d a808 1e3e ef58 febc 9f49 88bc
000001f0: 4ef0 e93d b101 83bd 698c 943e fc54 76bd
00000200: e3df 3e3e b070 52bd 2d96 df3d 7960 293e
00000210: 82e6 b63e f623 92bd a539 67be 7aab 02bd
00000220: 08c0 883d f2db 283d 73cd c5be 01a2 b5be
00000230: ccf6 203e aec5 e13d 29b4 b23d 4a21 653e
00000240: 74d2 0d3f 3abb 6f3d c166 8b3e b463 31bf
00000250: 2428 14bf 7335 bbbe 4568 69bf 4564 74bf
00000260: de06 7a3d cad4 bf3d ccf5 ad3d 4fc1 02bd
00000270: 5b7e 083f 0816 9dbb 8839 c1bd d4ac 8f3d
00000280: 51c8 563e b11d 803e 851a 1d3f e113 14be
00000290: a73b 3c3e 3aa2 2abd f1c3 03be 6ead 7e3e
000002a0: a3e5 b0bc 1862 8d3e 7c62 a73e 94f1 7dbe
000002b0: 1ca0 a0be f0a7 773e b0bf 383e eba6 1fbf
000002c0: 7ad5 173b 6ddd 663e 33a6 eb3d 4a22 8fbe
000002d0: 17c1 22bf 5db7 133e 5865 31bd feb3 42be
000002e0: 7697 a13e 3d6d 42be 1546 a2be 772b f43e
000002f0: 905b c2bd 627e 9dbd 951d 193f 9f2d 003f
00000300: 9bb9 1abd 95cb e0bd 7e21 81be d0a6 babc
00000310: 6ee3 f1bd b83e cabd 3e06 963c 9d40 51be
00000320: 8099 55be 7edb 78be 2174 0b3e e2f9 233e
00000330: 0988 c7bc ca56 483e f057 043e e388 1a3d
00000340: 8454 003d 00f8 563e 5607 3abe 537b 8cbd
00000350: 1eb2 083e 286d 013e ebbd 23bc 6c63 9dbd
00000360: 337e 193e b99e 123e 3420 2a3e 855a 44be
00000370: eb4a 13be 4fe9 b6bd 170f a4bd 4d9d 9ebd
00000380: 6c7f 243e 446e 5f3e 67bb b33c f2b2 4abc
00000390: 0e69 26be 0838 7ebd bd41 983e 9106 67be
000003a0: 49eb 48be 0db9 5bbd a43c 0a3d 4ea4 ebbe
000003b0: 5609 cbbe d4fe 45be cc21 263d bf3d 393b
000003c0: 87c2 a93d c7c2 7a3d 9cb5 6a3e f6f7 043e
000003d0: cc05 e83e cad5 cb3c a8fc ab3e 5e22 80bd
000003e0: b776 48bd b696 4fbe 1fda 363e f195 5bbd
000003f0: 9b2d 00be 3453 14bd 57e9 4b3e 761f 10be
