PARALLEL/models/PRED_GROUP_POLICY_BOTH_2700.ckpt (torch, 307152 bytes, 9 tensors)

network.0.weight f4 [32, 5, 3, 3]
00000000: 32be 823c 9e85 ebbd d55d 69be 60f4 cebe
00000010: 1c24 2cbf b4f7 54be c681 31be 44af 88be
00000020: 6bbb 92bd 61b6 2abd 36d3 44be b857 04bf
00000030: a7ed 2dbe aaeb 1b3b bb72 27be 4648 7bbe
00000040: e598 18bf aeb1 00be 0242 0f3d 8e07 503d
00000050: 32ab 863e 5761 febd 8a24 163e 54d8 92be
00000060: bb01 ab3e 1aef 773e 0403 aa3e d567 4ebe
00000070: a791 47be 3118 2ebe c07a 03be 0a1a aebe
00000080: 1f16 0b3e fe26 c03e bf71 1b3c 478d 6abb
00000090: e46d 07bf b1dc 7ebe a5c5 a7bd eb55 d23e
000000a0: b390 20bd 470a 55be d21c f0bd 964c 54be
000000b0: a89f b1bd 0e1a 453d 6287 b5bd d91b 863d
000000c0: fe40 503d e107 4abe 0336 20be 010e 3cbd
000000d0: 6820 053d 6d1c d8bd 9658 1dbe f587 8fbe
000000e0: de8e c7be ad22 3e3e 77ed e7be 0e1f 3cbf
000000f0: a566 d6be e959 eebe 3328 13be 76a1 c5be
00000100: 434a 003e bb68 2f3d 9f1b 073e 1e99 8cbb
00000110: c5f7 efbe 4828 273e 601c 353e 41f3 b23e
00000120: e4c6 883e b4ce 0fbe 215b 96be 756e 97bc
00000130: a1b1 ee3d 52f8 a6be f7cd 1f3e e113 6dbe
00000140: d59e a5be c38f cebe 6b05 173d 1eab 77be
00000150: 2b50 c4be a9e6 18bf bb02 92be 7e37 7f3e
00000160: 83fe c4bd 9bcf d03d 2d5f 403d 356b d7bc
00000170: 60b0 12be cad8 99bd 28a5 323d 3829 a7bd
00000180: 7505 10bc ade7 27bb 02fe 6a3d 0491 8bbe
00000190: 465a 89be d86c 583b a9b5 89bd 9d19 bf3e
000001a0: 6c94 753e a1df 25be a409 a03e 511a f83e
000001b0: cb7f 813e 0e9d d43d 7293 c43e 3b5c febe
000001c0: 8776 09be 8373 843e 3473 16bd 34ac 48be
000001d0: 57c8 683e 7a25 123e 2b59 d6be c1da 33bf
000001e0: 596a 853d d293 e6be e2cc 103c c303 fdbe
000001f0: 82c4 c7be d5fb 7cbf abee 843d 0d80 43bd
00000200: e2aa 6bbe 03b2 7dbe 9bde 013d 43c3 7b3e
00000210: 065f 07bd 4d89 b7bd 2839 0cbe b903 b63c
00000220: fad8 0bbd 975b d93d 0a3d b3bd 0552 1f3d
00000230: 97f2 babd 8a08 343d 3238 013c f54e 11bd
00000240: 433d 893e b576 b73c 4372 ecbe 0251 dd3e
00000250: 6d02 813e 3031 0f3f ddc5 843e 3f49 0c3f
00000260: e9e0 063f 6aa7 7a3d 3573 cebd 7fb8 283e
00000270: 927f 603c d9ed 57bd 24e2 553e 8343 21be
00000280: d601 2a3e 65ee cd3c d7e1 98be 3a17 04bf
00000290: 1ba3 e5be 93fd 5ebf 09cc 15bf 025a 6dbf
000002a0: 6487 0abf 4b05 48bf f1c2 cabe a645 133d
000002b0: 0a2e 7dbb 0ddb 923d 2173 6abd ab34 43be
000002c0: 8ffd 6fbd 1e01 133e 0894 103d 6abf a9bd
000002d0: bb66 66be 2323 abbd 0d3e 42bd 1f65 46bd
000002e0: 8347 8dbe 3ee0 7ebe b118 7dbe 758b b63d
000002f0: 2a04 41bd 04f3 7abe ed1e 86be 9b01 b93d
00000300: 76e6 583e f6d6 6c3d 76a4 133f e0ca 80be
00000310: 93f8 cabe a819 92be 8ce9 3dbe 0cc9 083e
00000320: 0d80 d8be 56a5 083e c641 83bc b581 233e
00000330: 46af 853e 2d59 893e 93c1 853b 62d3 9e3e
00000340: 6dc2 0e3e af50 e33d 8497 ad3e 71c9 a9be
00000350: 1b4d 28bd fd24 33be 4971 623d ea59 e9be
00000360: 1db8 00be 61bf 213e 3342 823e bcc9 06be
00000370: cb86 a5bc ae31 633e cacf 33be 15f8 613d
00000380: f81a 3fbe ad5d 2f3e 41cd 66be 8a8b 3f3b
00000390: 260e 8ebd e799 14be c4ca 96bd 7ae0 fcbd
000003a0: 4622 c4bd a4d4 67bd 9231 063f 15ca 25bd
000003b0: 63fa 9bbe 14bf 88be 1d46 06bf 4e7e a6be
000003c0: b382 be3e e244 803e 307e a4be 2a95 2e3e
000003d0: 7fb1 533e 53cc 313e ae4a e13d 12ce ec3b
000003e0: 4f9b 1cbf b4e5 4b3e f287 aebe 1c44 9ebd
000003f0: 7f36 a43e 317f c1bd 251a 34bf 1244 093f
0.015959833 -0.11500095 -0.227897 -0.40420818 -0.672426 -0.20797616 -0.17334661 -0.26696217
-0.071646534 -0.041677836 -0.19221196 -0.5169635 -0.16985188 0.002379159 -0.1635236 -0.24539289
-0.596083 -0.1256778 0.03497506 0.050788455 0.26302487 -0.1242091 0.14662376 -0.2868067
0.33399758 0.24212304 0.33205426 -0.20156796 -0.19489156 -0.17001416 -0.12839794 -0.3400424
0.13582657 0.3752975 0.009487568 -0.0035789774 -0.52902055 -0.24888875 -0.081919946 0.41081175
-0.039200496 -0.20804702 -0.11724247 -0.2073234 -0.0867303 0.04812055 -0.08863713 0.0654828
0.05084323 -0.19729568 -0.15645604 -0.045911793 0.032501608 -0.10552297 -0.15365824 -0.28033414
-0.38976187 0.18567915 -0.4529836 -0.73484886 -0.41875187 -0.4655297 -0.14370804 -0.38599747
0.12528329 0.042824488 0.1319413 -0.004290714 -0.4686872 0.1632396 0.17686605 0.34951213
0.26714242 -0.14043695 -0.293664 -0.018485287 0.11654974 -0.32611328 0.15605913 -0.23152114
-0.32347742 -0.40344056 0.0368704 -0.2418637 -0.38342413 -0.5972696 -0.28517708 0.24923512
-0.09618857 0.101958476 0.046965767 -0.026296237 -0.14325094 -0.07512052 0.043614537 -0.08162159
-0.008790364 -0.0025620267 0.057371147 -0.27259076 -0.26826686 0.003302386 -0.06724102 0.3732423
0.239824 -0.16198589 0.31257355 0.48457578 0.2529281 0.10381518 0.38393742 -0.4967974
-0.13424121 0.25869378 -0.03673096 -0.1959694 0.22732674 0.14272109 -0.41864905 -0.70255667
0.06514425 -0.45034653 0.00883791 -0.49416932 -0.3901711 -0.98821765 0.06490835 -0.04772954
-0.23014405 -0.24774937 0.031706434 0.24586205 -0.033049606 -0.08961735 -0.13693678 0.022218572
-0.03414247 0.106131725 -0.08751877 0.03889658 -0.091283016 0.043953456 0.007886933 -0.03547569
0.2680455 0.022395471 -0.46180925 0.43225867 0.25197163 0.5593443 0.25932208 0.54799265
0.52686936 0.061194815 -0.10080568 0.1647663 0.01370229 -0.052717064 0.20887047 -0.1574841
0.16602263 0.02513809 -0.29859802 -0.5159794 -0.44851002 -0.87105674 -0.5851446 -0.92715466
-0.5411284 -0.78133076 -0.39601853 0.035955094 -0.0038632178 0.07170687 -0.0572387 -0.1906306
-0.05859142 0.14355895 0.035297424 -0.082884625 -0.22500126 -0.08356311 -0.047422457 -0.04843628
-0.27593622 -0.24890229 -0.2471645 0.08913318 -0.04712311 -0.24506766 -0.2619547 0.09033509
0.21181664 0.05782219 0.5767282 -0.2515478 -0.39642772 -0.285352 -0.18546122 0.13357943
-0.42285195 0.1334432 -0.016022574 0.15967448 0.26110286 0.26825848 0.0040819137 0.31020647
0.13941355 0.110993735 0.3390466 -0.331615 -0.04108916 -0.17494579 0.05528382 -0.4557641
-0.12570234 0.15795662 0.2544113 -0.13162893 -0.020205876 0.2218692 -0.17559734 0.05516823
-0.18662632 0.17125578 -0.22539236 0.002922746 -0.06936292 -0.14511834 -0.07362893 -0.12347503
-0.0957685 -0.056599274 0.5241939 -0.040475924 -0.30464467 -0.2670828 -0.52450734 -0.32518238
0.3720909 0.25052553 -0.32127523 0.17049089 0.20673178 0.173631 0.11000572 0.007226714
-0.6117448 0.19911844 -0.34088093 -0.077278346 0.32072827 -0.09448088 -0.70352393 0.5361949

network.0.bias f4 [32]
00000000: 1e4f 5ebe bada 08bd 7648 04be ea11 4abd
00000010: 9f50 85be 0205 acbe bfca 0cbe fd6e cbbd
00000020: 3396 dc3d 59c5 abbe 757e 9cbe 662b 0abe
00000030: 4fca aabe 35c9 babe 4616 45be 6fae 1dbf
00000040: 63d8 18be dda6 cabe b3ab 8abd 32cb 97bd
00000050: 7923 dfbe 1e20 96be 38c5 09be 5811 4dbe
00000060: bfda 63be fd14 53be 285a 32be 1e61 a8be
00000070: 46c2 6abe 72ed 9cbe f644 37be 9fe2 afbc
-0.21709868 -0.03341172 -0.12918267 -0.04933349 -0.26038072 -0.3359757 -0.13749216 -0.09933279
0.10770836 -0.33549002 -0.3056523 -0.13493118 -0.33357474 -0.36481634 -0.19246778 -0.6159429
-0.14926295 -0.39580432 -0.0677103 -0.07411803 -0.4358175 -0.29321378 -0.13454139 -0.20026147
-0.22251414 -0.20613475 -0.17417204 -0.32886595 -0.22925672 -0.30649906 -0.178974 -0.021470366

network.2.weight f4 [64, 32, 3, 3]
00000000: 6770 88bd 5960 ebbd 0586 c43b 0441 d5bc
00000010: b185 253d 23f2 833b c2ea 493c 13b0 a3bd
00000020: a6b1 75bd c8e7 4cbd 145c aabd aaf4 13bc
00000030: 12f3 69bc 8f40 30bd 27b3 96bb 7561 b8bc
00000040: 4b96 57bb 3692 53bd a378 cbbd 6e66 58bd
00000050: 6fa6 74bd 4b98 48bd bb7d d4bd c7b6 9dbd
00000060: 31fd 8cbd 1f0c 54bc 8352 fabd f71a a2bc
00000070: 66bd 073c 5d33 fb3c 4457 05be d36e 0dbd
00000080: 3874 53bd 6708 dcbd ddf0 d6bc 1903 72bc
00000090: 6722 ddbc 9c06 70bd 7a7c 1abd f512 03bd
000000a0: 7371 f3bd 5fe5 9e3c ec21 f3bd e198 93bd
000000b0: f968 4d3c 1370 913b 0028 e63b 7f0a d5bd
000000c0: cf1a f43a 1dd2 efbc 4611 d3bd 3050 d83d
000000d0: 7d60 acbd d647 69bc e1a0 4bbd b710 31bd
000000e0: 0a7d 80bd d93c abbd 14da efb8 dac2 57bd
000000f0: 56cd aabc 777e bbbd dde9 f8bd 79c4 163c
00000100: 5714 75bc 5bec 2d3c 641a f43c fd2e 27bd
00000110: 3c62 0dbc 0363 ebbc 3f8b 7abc 66d9 62bd
00000120: 3ab7 c5bd befd e9bd e6e4 3ebd d999 c3bd
00000130: 5697 13be 8a73 98bd c7a6 493b 0f4f 48bc
00000140: 96f9 8fbd 78d3 54bd 77b1 03bd e4ab 103d
00000150: 31b2 b9bc 5d83 bcbd 3364 62bb 9cba 283d
00000160: f590 c9bd 95ba 5fbc 0aa1 11bd c615 cb3b
00000170: 647e 7ebb a9f0 22bb cfd5 2fbc 69b1 eebd
00000180: 1f2b c8bb d312 1d3d 5d04 9ebb 27e7 56ba
00000190: 5734 f1bd 492c 3dbd b68a 433c 52b8 66bd
000001a0: 51fe 55bb 4238 06bd 00a6 b0bc 2d43 9bbb
000001b0: 23dc 35bd 5d59 273c f2b8 a73c 70e0 54bd
000001c0: 5c13 8ebd 3ffd bb3c 39b7 39bd a5dc 04bd
000001d0: 1f98 89bd 92b9 54bd 966e 10bc e46b a4bd
000001e0: 780a 5abd 9650 10bd 0ffa 7fbd 5f89 07bd
000001f0: 1aa4 fcbd 8428 2abe b35a dcbc af19 7bbb
00000200: bc08 4f3c ce15 b13c e0b3 3dbd af59 22bb
00000210: 2a1e 2cbd 3749 50bd 6fe3 fbbc f26e c2bd
00000220: 9542 54bc 041c 62bd a364 27bd 65af d43c
00000230: 2f71 05be 03e4 02be b853 163b 54e6 d3bd
00000240: abf8 b7bd 82dd cabd 9eea 333c d757 63bd
00000250: 533f 8ebd 01b4 f2ba 8cf1 97bc 9a57 1f3c
00000260: b8a7 9abc 5a61 b0bd bc1b 11bd 5453 93bd
00000270: cc08 e8bd a27b f93c 4301 13bd 9a79 2abe
00000280: b46c 1abd b9e9 f8bd 5bf2 9cbd 9abb dcbd
00000290: 7a71 7fbc b889 93bd 6a0c 87bd 1c1f 3abd
000002a0: fb2c bdbd a9a0 04be 456f 05be 6300 8dbd
000002b0: 6571 4ebd 22f2 73bd 073c 45bc cbd4 04bd
000002c0: 6901 c7bc ac13 b1bc 2085 cebc cd6d 4ebd
000002d0: 3638 b7bd 5cb6 09bd 6f4d 85bd 42b6 54bd
000002e0: 2c85 c8bd d4a9 b6bd ac3d dbbd efca 8cbd
000002f0: f56a bebd 9ac2 8fbd a5d7 c73c ec24 bb3c
00000300: 94a7 d9bc eb41 40bb b3fd 13bd 4f24 d0bc
00000310: a2fa e0bd 6185 2fbd 9dfb ccbd 6c75 cbbd
00000320: ac87 69bd 4fdd fdbd 8d72 9dbd 0fe4 f8bd
00000330: 7480 64bd ab21 14be 09f7 8dbd e483 f5bb
00000340: 3bd8 76bd 5ab9 97bd 72b0 983c b15a e4bd
00000350: 0918 dabd 1066 cdbd f7fb 2e3d 6f09 74bd
00000360: 9465 c9bd 81f0 68bd d7ac 24bd 57a5 28bd
00000370: 0e8e d5bd 084a 943c 9e89 3abd 74c2 bebc
00000380: 2b16 34bd 4208 b9bd ffb7 92bd 264e 3b3c
00000390: fba7 343d 2a7c 9bbc 7720 b9bd 80e5 3d3d
000003a0: 9585 6c3c e2e7 f2bc dbda 11bd 25c0 273c
000003b0: a3da e2bd a6a1 b33c e54a acbd d83c bdbd
000003c0: 9398 4dbd 85a1 87bc f8e2 d7bd 2ec7 463c
000003d0: d5dd 73bc b672 a0bc 6ffe 01bc 5c32 11bd
000003e0: 79a7 dc3c 2af4 6f3b 6210 7c3c 8866 053c
000003f0: 0c72 9cbd 5411 71bd a6d2 82bb ff94 82bd
-0.06662064 -0.11492986 0.0059974217 -0.026031978 0.0404107 0.0040266677 0.012324037 -0.07992568
-0.059983872 -0.05002573 -0.08318344 -0.0090305 -0.014279144 -0.043030318 -0.0045989933 -0.022507409
-0.0032895978 -0.05165311 -0.09935119 -0.05283206 -0.059729036 -0.048973363 -0.10375544 -0.07700878
-0.0688423 -0.012942343 -0.12222769 -0.019788248 0.008284902 0.03066414 -0.1302157 -0.03452952
-0.051624507 -0.1074379 -0.0262379 -0.014771246 -0.026993943 -0.058600053 -0.037716366 -0.0320005
-0.11886873 0.019396482 -0.118717045 -0.07206894 0.012537234 0.004438409 0.0070238113 -0.104023926
0.0018623712 -0.029274995 -0.10306029 0.105621696 -0.08416841 -0.014238318 -0.049713973 -0.04322883
-0.06273849 -0.08361215 -0.00011437028 -0.05267606 -0.020849865 -0.09154981 -0.12153981 0.009202116
-0.014958463 0.010615434 0.02979774 -0.040816296 -0.008629378 -0.028733736 -0.015291988 -0.05538311
-0.09654088 -0.114253506 -0.046605013 -0.095508285 -0.14413199 -0.07443912 0.0030769573 -0.01222588
-0.070300266 -0.051959485 -0.032151666 0.035320178 -0.022667976 -0.09204743 -0.0034544587 0.04119359
-0.098421015 -0.0136553245 -0.03555397 0.006197664 -0.003883266 -0.0024862683 -0.010732128 -0.11654932
-0.006108656 0.03834803 -0.0048222975 -0.00081978965 -0.11777561 -0.04618481 0.011934927 -0.056328125
-0.0032652805 -0.032768495 -0.02156353 -0.0047382326 -0.04439939 0.010214177 0.020473931 -0.051971853
-0.06937286 0.022947906 -0.04534075 -0.032436986 -0.06718468 -0.051934786 -0.008815428 -0.08028391
-0.05323264 -0.035233103 -0.062494334 -0.03308999 -0.123359874 -0.16617018 -0.026898718 -0.003831487
0.01263636 0.021616843 -0.04631412 -0.0024772694 -0.042020954 -0.050851073 -0.030748097 -0.094938174
-0.0129553275 -0.0552025 -0.04086746 0.02596254 -0.13031457 -0.12782292 0.0022938084 -0.10346666
-0.089829765 -0.099055305 0.01098123 -0.055503692 -0.06945672 -0.001851678 -0.018547796 0.009725476
-0.018878803 -0.08612318 -0.03542684 -0.07193628 -0.11329803 0.03045446 -0.035889875 -0.1664795
-0.037701324 -0.12153954 -0.07663413 -0.1077797 -0.01559102 -0.07204002 -0.06594165 -0.045439824
-0.09237095 -0.12951912 -0.13030727 -0.068848394 -0.05040111 -0.059557088 -0.012038237 -0.032429498
-0.024292665 -0.021615826 -0.025209963 -0.050397683 -0.08946268 -0.033621177 -0.0650891 -0.051931627
-0.097910255 -0.08919111 -0.10705122 -0.06874644 -0.09297744 -0.07019539 0.02439482 0.022844754
-0.026569165 -0.0029336165 -0.03613062 -0.025407938 -0.109853044 -0.04285181 -0.10008929 -0.09934506
-0.057014152 -0.12395727 -0.076878645 -0.12152874 -0.055786565 -0.14465968 -0.06931884 -0.007492529
-0.060264807 -0.074084 0.018638823 -0.111501105 -0.106491156 -0.100292325 0.04272076 -0.05957931
-0.098338276 -0.056869987 -0.040203895 -0.041173305 -0.104274854 0.018101707 -0.0455414 -0.023286082
-0.043966454 -0.09034778 -0.07164001 0.011432206 0.04410551 -0.018980104 -0.09039395 0.046361446
0.014436145 -0.029651586 -0.035609107 0.010238682 -0.11076858 0.021927666 -0.084127225 -0.09240121
-0.050194334 -0.01655651 -0.10541338 0.012132449 -0.014884432 -0.019585948 -0.007934197 -0.035448417
0.026935326 0.003661404 0.015384765 0.008142121 -0.0763894 -0.058854416 -0.0039923964 -0.06376075

network.2.bias f4 [64]
00000000: 671f 8dbd 42d8 d3be 598b 98bd 94fd 95bd
00000010: 159c 55bd 2446 3cbd 3bd5 2bbe 4c30 29be
00000020: e825 c2bd 778c bebd 7c2e 57be af48 10be
00000030: 6a5f 6cbe 9150 88be 1fa3 90bd 705e b3bd
00000040: 96f3 1abe 392d c5bd 9375 3d3c bb92 54bd
00000050: 9a6e 6bbe a0f1 e9bd 7ac8 0dbe 1d50 b8bc
00000060: 2386 dcbd 5cdf 05be 3762 f0bd e1ab 10bd
00000070: 01a7 c1be bcc0 cebd 4574 6bbe 1f4b 1bbe
00000080: f079 10be c593 97be 9d25 86be 0fb9 fcbd
00000090: ee28 583d a42e c2be 89c5 07be 13e6 0cbe
000000a0: 28aa 3bbe 25b7 a7bd 1544 84bd 22d2 93bd
000000b0: eced 87be 6fe4 86bd 217e 6ebe 0610 4abd
000000c0: c455 50be 4c20 86bd 0473 c4be afea 10be
000000d0: 9552 a2bd b40c d5bd b024 24be c83c 0bbe
000000e0: 6467 a0be 774f 17be ddb3 07be ee0d e0bc
000000f0: 4a6c 5abd 48f7 b8bd 3848 cebd 88de 73be
-0.06890755 -0.4137593 -0.074484535 -0.07323757 -0.052150805 -0.04596533 -0.1678056 -0.1652233
-0.09479886 -0.09304135 -0.21013826 -0.14090227 -0.23083273 -0.26623967 -0.07062363 -0.08758247
-0.15131983 -0.09627766 0.011563676 -0.051897746 -0.2299141 -0.114230394 -0.13846007 -0.022499138
-0.10767772 -0.13073486 -0.11737483 -0.035320166 -0.37822726 -0.10095355 -0.22993572 -0.15165375
-0.14109015 -0.29604927 -0.26200572 -0.123399846 0.05277341 -0.3792621 -0.13258947 -0.13759641
-0.18326628 -0.08189229 -0.06458298 -0.07217814 -0.26548707 -0.06586539 -0.23290302 -0.049331687
-0.20345217 -0.06549129 -0.38369 -0.14152025 -0.079259075 -0.104028136 -0.1602962 -0.13597405
-0.3132888 -0.14776407 -0.13252206 -0.027350392 -0.05332593 -0.0903154 -0.100723684 -0.23815358

network.4.weight f4 [64, 64, 3, 3]
00000000: 27c1 443c d9e8 1f3d 5c5a 19ba 4c95 fabc
00000010: e724 92bc 807e 24bd 8c21 953c 9a9d 1d3d
00000020: c53d 59bd 5e9a bbbe 2917 c7bc 3771 5c3e
00000030: 9026 1dbd e2f2 c0be cb0b 313d 966c e63c
00000040: 6a77 f7bd 6428 6dbe fd4a 2d3d 85d3 3f3e
00000050: 2035 923e f498 37bc 406c 70bd ef5e b3bd
00000060: 83be 12be 2cee d6be 08db 743d 372c cbba
00000070: edc1 223d a0e0 e93d f31f 323d fc67 93be
00000080: 4d9d 24be 1822 0abd 89a0 c6ba 9401 9abd
00000090: 2fcb 29be 1512 26be 29cb 35be ce57 83be
000000a0: bc17 c83d 63b7 023d e884 d5bd 8bb7 b6be
000000b0: a106 ca3d f5eb 10bd a0da a43b 40a4 89be
000000c0: 2594 ccbd 33d0 753d 0715 e0be 3197 a5be
000000d0: 0fba 28be 9eb6 eebe 5579 8dbe b439 efbd
000000e0: c83f fbbd a13e 1cbe 76dc d3be 6977 453d
000000f0: e013 12be 0078 b93d edb7 d7be e2dd 99be
00000100: f89d 013d fe32 9e3e 71bf 04bf 5e88 2a3e
00000110: 0f12 f1ba d166 c1be ca4a 34be 3801 9c3e
00000120: 4c06 41bf a47a d9bd 87ea 343e ca82 71be
00000130: dd72 f4be 53fd 223d c188 03bf a886 e3be
00000140: d893 2d3e 982c 5ebd 0414 103c 493a fbbd
00000150: f04e 673d 15ba c83d 37cb 763e 4de3 853e
00000160: 9607 23be 9835 c6bc 4d8f 9b3d 38d8 92bd
00000170: f6d4 62be 487c dcbd ffab 8ebe ddb4 4d3e
00000180: 2b9f 3fbe 87ab ccbe 4fb3 f83e dcbb 82be
00000190: fbeb 43be 3f1f 983d 1381 3c3d f276 4ebe
000001a0: e058 36bc 633e cbbe 136d dfbd 7b79 e73d
000001b0: 2deb 81be 1d24 05be 7fd9 d4be ac3f 1e3e
000001c0: 864f 74bd 04db 223e 823a 533d 7fb3 37bd
000001d0: c5cd 60be e1ea 83be 51dc bd3e 32ce 293e
000001e0: 1f13 95be 428e b0be efdf 673d 49b5 1f3d
000001f0: 303e cebe 2a37 2c3d a01d ac3c cf3a 58bc
00000200: 1928 26bd bb2b d9bc 3735 833c 2ae9 cd3b
00000210: 8180 5e3a 89bc 8ebc a064 033d 6617 ef3c
00000220: a950 a53c b2d7 f2bb 0bd5 a63c f6a7 6b3c
00000230: 74b4 8dbc dab0 67bb ac84 edbc 121b b5bb
00000240: 2c91 f4bd 50a2 c13e ff8c 4cbe 24fa 8ebe
00000250: 9307 2fbe 8006 d5bc 3e30 93be bc92 bdbd
00000260: c190 c8bd 4c91 23bf a411 eebe 0c8e 95bd
00000270: d50f 8ebe 5200 72be 6851 17be 2823 40be
00000280: a4c5 c6be a651 8a3d 5e3f 713d 0669 bcbd
00000290: 4530 243e 8d5d 19bf e207 0a3e 2247 07be
000002a0: f96b 94be 3968 11be 3baa 8abe 349f 0bbe
000002b0: 0393 5c3e 4a7c 83be 18c9 21bf 8211 06bf
000002c0: 6d3e 19be 8ade 45be 4a35 0abe 5722 5ebd
000002d0: 12f6 bdbd 36b3 83be b63f 47be 687d 1bbe
000002e0: e10d 90be 5854 b1be 986a 3e3e ea51 00be
000002f0: 7807 d93b a5ef 083c d1d9 b6bb d3d6 b93c
00000300: 7fef 9dbb ef52 a9bc f173 cf3c b4ed ff3c
00000310: bba0 88bb a706 17bc 3a0f a8bd 9cc2 4dbe
00000320: 35ee 5cbe 4de9 5abe 6329 e2be ebc3 3bbe
00000330: 2517 c63d f96d 97be 0b49 babd dece 503e
00000340: bb5d 913d 35dc af3b a9c4 a23e 9d63 643d
00000350: 9eff f63d f6f1 31be eeb7 2b3e 7c3d 9f3e
00000360: bbc0 2fbe 9694 09bf ab1f 1e3e 30f8 71be
00000370: 43b5 31be dc05 26bf 0a85 85be 1087 c33d
00000380: af92 e93c 8129 41bc 3211 12be 6979 a5bc
00000390: 2561 e83b cdef e7bd 2235 a7bd d558 fabd
000003a0: b285 afbd 8213 c33d 0bfe e93c 733d 1cbd
000003b0: deb5 883c adf9 1fbd b43d a03c cf1d f63c
000003c0: 0153 49bc c0d8 e1bc a0f6 a6bb 2cae c03d
000003d0: bde8 09bf 92b6 9abd 1ff8 d33e e1e9 b4bd
000003e0: 6b36 78be 3e5c 903d b017 ef3e b175 22be
000003f0: 5120 6bbe c81b 0f3e acd4 fb3d b6f2 83be
0.012008942 0.03904042 -0.00058499514 -0.030588768 -0.017839862 -0.040159702 0.018204473 0.03848038
-0.053037424 -0.3664121 -0.024303036 0.21527563 -0.038366854 -0.37685305 0.043224137 0.02812795
-0.12083323 -0.23159939 0.042307843 0.18733032 0.28556156 -0.0112059 -0.058696985 -0.087583415
-0.14330487 -0.41978586 0.059779197 -0.0015500848 0.039735723 0.11419797 0.0434875 -0.2879027
-0.1607563 -0.03372392 -0.0015154044 -0.07519832 -0.16581415 -0.16217835 -0.1775328 -0.25652927
0.09770152 0.031913172 -0.104257405 -0.35686907 0.098645456 -0.035381276 0.005030945 -0.26883125
-0.09989194 0.060013007 -0.43766043 -0.32341912 -0.16477226 -0.466237 -0.27631631 -0.11680928
-0.12268025 -0.15258266 -0.41379136 0.04820958 -0.14265394 0.09056091 -0.42132512 -0.30052096
0.03164479 0.3089828 -0.51854616 0.16653582 -0.0018392223 -0.37773755 -0.17606655 0.3046968
-0.75400233 -0.10619095 0.1766759 -0.23585048 -0.47743884 0.03979237 -0.51380545 -0.44438672
0.16950929 -0.054241747 0.008793835 -0.122669764 0.056471765 0.09801117 0.24100958 0.2614998
-0.15920863 -0.024195477 0.07595692 -0.07170147 -0.2215155 -0.10765892 -0.27865598 0.20088525
-0.18713062 -0.39974615 0.48574302 -0.2553395 -0.19132988 0.07427835 0.046021532 -0.20162562
-0.011129588 -0.39696035 -0.10909476 0.113024674 -0.25374737 -0.13002057 -0.41572186 0.15453976
-0.059646152 0.1590386 0.05156947 -0.044848915 -0.21953495 -0.25765136 0.3708215 0.16582564
-0.2911615 -0.34483534 0.056610044 0.038991246 -0.4028182 0.042044796 0.02101022 -0.013197615
-0.040565584 -0.02651011 0.016016586 0.006283899 0.00084877765 -0.017423885 0.032078385 0.029185962
0.020180063 -0.007410967 0.020365259 0.014383307 -0.01729796 -0.0035353214 -0.028993927 -0.0055269087
-0.11941752 0.37819147 -0.1997566 -0.27925217 -0.17092733 -0.026004076 -0.28747743 -0.09256503
-0.097932346 -0.6389358 -0.46497834 -0.07302484 -0.27746454 -0.23632935 -0.14777148 -0.18763411
-0.38822663 0.067538545 0.058898322 -0.09199719 0.16034038 -0.5990837 0.1347957 -0.13210729
-0.28988627 -0.14199914 -0.27083 -0.1363495 0.21540456 -0.25680763 -0.6319747 -0.52370465
-0.1496522 -0.19323173 -0.1349689 -0.054231968 -0.0927545 -0.25722665 -0.19457898 -0.15184557
-0.2813559 -0.34634662 0.1859535 -0.12531248 0.006623205 0.008357917 -0.005580165 0.022685444
-0.00481981 -0.020669429 0.02532384 0.031241275 -0.004169551 -0.009217895 -0.08206029 -0.20093769
-0.21575244 -0.2137806 -0.441722 -0.18336456 0.09672383 -0.2957609 -0.09095963 0.20391414
0.07097956 0.005366827 0.31790665 0.05575906 0.12060474 -0.17377457 0.16769382 0.31101596
-0.17163365 -0.5374235 0.15441768 -0.23629832 -0.17354302 -0.6485269 -0.26078063 0.095472455
0.028512327 -0.01178968 -0.14264372 -0.020199494 0.0070916587 -0.11325035 -0.08164431 -0.122239746
-0.08570422 0.09525205 0.02856352 -0.03814454 0.016688284 -0.03905647 0.019560672 0.03004351
-0.012287856 -0.027569175 -0.005095318 0.09408221 -0.53870755 -0.07554354 0.4140024 -0.08833671
-0.24239509 0.07048844 0.4669776 -0.15865208 -0.22961546 0.13975441 0.12296423 -0.2577111

network.4.bias f4 [64]
00000000: 389d 1fbd 1fe9 f1bd 172f 45be 1143 09be
00000010: c1bf f7bd 8e4a 2fbe 1141 33be 6904 c5bd
00000020: 7f94 fbbe 8e33 96be 9a55 1cbe 3858 99bd
00000030: 6f33 8bbd 4928 f9bd 5d34 fabe 3d15 d7be
00000040: 4706 70be 33b5 9dbd a969 07bf 6f6c a5bd
00000050: 6698 7bbd 713c bdbe 76ce d4be 1310 bebe
00000060: fd93 94be d4c0 a4be 941d 7abe 1d5b 32be
00000070: 05d9 22be 6299 9abe 7386 93be 9414 b3be
00000080: 4c12 9bbe 6f65 0fbe a135 06be f1e8 11be
00000090: 85b1 f9be f6d2 73be 3cea a9be a893 9cbd
000000a0: ce69 40be 26ef 08be 187c 7dbe 4237 03be
000000b0: e42d 1ebe a917 86be 182e 07bd 1031 89be
000000c0: 9c32 c7be 2d24 8fbd 995f f1bd 3e54 2cbe
000000d0: 5035 f9bd 1121 f3bd e7a8 41be 7600 16bc
000000e0: 79c1 bebe e330 d2bd 7e09 b0bd f466 973a
000000f0: a7c8 38be 760c 99bd 44c8 83be 60b6 f3bd
-0.038968295 -0.118120424 -0.19256245 -0.1340449 -0.12097121 -0.17118284 -0.1750529 -0.09619982
-0.4913673 -0.29336208 -0.1526703 -0.074875295 -0.067969196 -0.12165887 -0.48868075 -0.4200839
-0.23439895 -0.07700577 -0.528956 -0.08077323 -0.061424635 -0.36960176 -0.41563767 -0.3712164
-0.29019156 -0.32178366 -0.24425346 -0.1741757 -0.15903099 -0.30195147 -0.28813514 -0.34976637
-0.30287397 -0.14003538 -0.13106395 -0.14249016 -0.4876825 -0.23810944 -0.3318652 -0.07645351
-0.18790361 -0.13372478 -0.2475437 -0.12814048 -0.15447193 -0.26189926 -0.033002943 -0.26795244
-0.389058 -0.06989322 -0.11785812 -0.16829011 -0.12168372 -0.11871541 -0.18912087 -0.009155383
-0.37256983 -0.10263231 -0.085955605 0.0011551068 -0.18045293 -0.0747308 -0.25738728 -0.1190002

actor.weight f4 [5, 3136]
00000000: 2574 083e 46f7 963e 99c0 b5bb 0384 76bc
00000010: 1a6a 673e 9e01 323d 6d00 e33d b8e9 db3c
00000020: cad8 333e b467 2abe 4544 35bd cb62 113e
00000030: 2771 a33d 2ea8 2b3e 720c 4c3e 308f c3bd
00000040: 8226 21bd 96c3 543c 8714 fc3d 7661 10be
00000050: 4662 123d 0269 8f3d 7602 1c3c 1487 133e
00000060: d491 3abe a4e9 c93d 75c7 1dbe 56ca 28be
00000070: 06f1 c93d c240 413e 3301 1d3e 2a80 333b
00000080: e39e fa3d eef3 703d 6001 103f 39fe 2d3e
00000090: 9aa1 9d3e 0e26 673e 987a 50be 39d0 9a3c
000000a0: 2f9d b7bc d93b da3e b508 dd3e 8f39 8e3e
000000b0: b2ea 993d c3db 1f3e a85e 20bd 092e 9cbe
000000c0: ee6c 1cbe b0fc a7bd 5b35 233e 33a3 ad3e
000000d0: a92c 983d 98e3 443d 3a10 883e da2f 133d
000000e0: 3ac2 503d e340 0a3f 6929 063e 3326 813e
000000f0: 4fdb ab3d 07da 053f f3da 5d3e e283 083f
00000100: 8d92 7c3c c8c6 8f3e 25cd 8ebd c815 c53d
00000110: 1c89 09bc 88c6 b93d a529 11be 13c7 963e
00000120: b0ba 3d3d 16ec bf3e d289 0e3e ab81 723d
00000130: d072 533d 62da 27bd 4c1d 843c 6c72 963d
00000140: 9a01 973e 0ad4 ef3e 2714 c43d fce0 8f3e
00000150: 6024 b93e f669 ef3d 96da 193e cd23 ef3d
00000160: fc94 f13d f8ea 88be dd27 fcbb 3e4e 033f
00000170: 13cc 1c3e c744 723d 0579 f83d da87 d23e
00000180: fde4 4b3e ef41 473e 91b5 123b 6f82 693e
00000190: 9ba7 8cbd e7eb 31be dbe0 283e 15da 803e
000001a0: 51e8 023e 9b6d 913e 26dc 223e 857c 2a3e
000001b0: de5a 063e b083 f43d cb22 a43e 4fa3 6a3e
000001c0: 6e39 f23c 47bc 143e 0f82 4fbb 73f3 8b3e
000001d0: 6d17 443e 09e6 853e f993 13bd 5965 133e
000001e0: 7e44 063d 3966 033b b5a3 353e 634a 163d
000001f0: 1f4a 733e 827b 10bd 0d08 103e aeb1 493e
00000200: 2729 b43d 9424 603e 38b6 7b3d 5734 163e
00000210: 0f34 35be f502 d53c eccc 423e a6e4 263d
00000220: c8e8 aa3d 4b88 733e ac15 a33d 3711 a33e
00000230: f65d 6c3e d5ee 973e 8e5e 6e3e fd1d 113f
00000240: 2d19 4a3e ea82 8c3e a897 e73d 0978 303e
00000250: 2fe6 4b3e 7ad5 0f3e 2b90 203f 3148 dc3e
00000260: 60b5 e3bc 4dfb 74be e074 543e 8790 1b3e
00000270: 7097 133f 3970 863e 5aa9 523e 3ce5 593e
00000280: f69b b43d 7c37 373e b1d3 263f e8e2 76bb
00000290: 7e36 9b3e 3293 513d 3c28 a63e f0a0 733c
000002a0: a2ef 873d 481f 653e c972 713e 27e7 be3e
000002b0: 1123 123e 9e40 55be c55d b93e 48a5 2e3e
000002c0: be8a 7abd 3d04 0b3e 76c0 26be 3f77 733e
000002d0: 5001 893e 3c16 82bd 83eb 843e 4149 e03e
000002e0: b386 f9bc 98d8 3e3d 78b5 f23e ed58 a63b
000002f0: 7545 463e 602c 2ebb 0d61 133f 1114 0f3f
00000300: f9f3 dd3d 9be8 ec3d 543a 85be ef82 5d3e
00000310: 45fb 543e 270f 42bd 19a4 b73e 24f4 973e
00000320: 5499 8d3e 64a7 d33e 1f4d 3e3e 1370 c13d
00000330: 4dbd c4bd a131 d83e d2aa 863e 0869 96be
00000340: 7578 5f3d 1c09 b4be 0159 d73d da20 07be
00000350: 76d5 7f3e ac38 483e 465f e33d 151e 913e
00000360: e2ae fb3e 10f5 af3d 7fca 873d e235 b63e
00000370: 5d73 483e 8772 043e f177 763e 73e8 7f3e
00000380: 2fbb e43d 8d0d 2e3e d22d b13d 0b42 7d3e
00000390: 06fb 873e c115 8d3e 85c1 de3e 52d9 363d
000003a0: 01e4 103e f958 e93c 9d75 7a3e 6c5a d83d
000003b0: 5d0c 093e 31b5 0a3e 4172 523d 5fdc d23d
000003c0: c4de ae3e a37c 9d3d 1dd1 07bc 9323 c53d
000003d0: d633 85b9 7fbe 86be 4aae e83e 3762 e63d
000003e0: d4a6 8b3e 4ddb f0bd 488a 19be 7a6e da3d
000003f0: 4d01 e33c 5042 033f 33cd c03e e484 d5bc
0.13325556 0.2948553 -0.005546641 -0.0150461225 0.22599068 0.043458574 0.110840656 0.026844844
0.17563167 -0.16641122 -0.04425456 0.14197843 0.079805665 0.16763374 0.19926623 -0.09548795
-0.039343365 0.012986084 0.12308603 -0.14099678 0.035738252 0.070024505 0.009522071 0.14406997
-0.18219692 0.098590165 -0.15408118 -0.16483435 0.09860425 0.1887236 0.15332489 0.0027389624
0.122373365 0.05882638 0.562521 0.1699151 0.30787355 0.2257311 -0.20359266 0.018898116
-0.022413818 0.42623785 0.43170705 0.2777829 0.07515468 0.15611176 -0.03915277 -0.30503872
-0.15275928 -0.08202493 0.15938322 0.33913574 0.07430393 0.048068613 0.2657488 0.035934307
0.05096648 0.5400526 0.13101734 0.25224456 0.08391439 0.5228581 0.21665554 0.5332624
0.0154158 0.28081346 -0.06972722 0.09623295 -0.008394506 0.0907107 -0.14176042 0.29448757
0.046320617 0.37484807 0.13919762 0.059205692 0.051623166 -0.04097975 0.016127251 0.07346043
0.2949341 0.4684146 0.09574156 0.28101337 0.36160564 0.11690132 0.1502479 0.1167675
0.11795995 -0.26741767 -0.0076951818 0.51291263 0.15312223 0.059147622 0.12132458 0.41119272
0.19911571 0.19458745 0.0022386054 0.22803663 -0.06867906 -0.17375146 0.16492026 0.25166383
0.12783934 0.28403935 0.15904292 0.16649063 0.131206 0.1193918 0.32057795 0.2291386
0.0295684 0.14524947 -0.0031663214 0.27334175 0.19149561 0.26152065 -0.03602979 0.1439413
0.032780163 0.0020049943 0.1773823 0.036692034 0.23758744 -0.035274036 0.14065571 0.19696686
0.08796912 0.21888953 0.061453074 0.14668404 -0.1769564 0.026002387 0.19023484 0.0407454
0.08345181 0.2378246 0.07963118 0.3184907 0.23082718 0.29674402 0.23278257 0.56686383
0.19736166 0.2744363 0.11308223 0.1723329 0.19912027 0.14046279 0.6271998 0.43023828
-0.027796447 -0.23923989 0.2074771 0.15191852 0.5765295 0.26257494 0.20572415 0.21278852
0.0881881 0.1789226 0.65166765 -0.0037671868 0.30315012 0.051165767 0.3245257 0.014869913
0.06637503 0.22375214 0.23578943 0.3728573 0.1427119 -0.20825431 0.36204353 0.17055237
-0.06116747 0.13575836 -0.16284356 0.23775958 0.26758814 -0.06351897 0.2596093 0.43805888
-0.030459737 0.04659328 0.47404075 0.0050765187 0.19362433 -0.0026576743 0.5756996 0.55889994
0.1083755 0.115678035 -0.26021063 0.21631978 0.20798977 -0.04737773 0.35867384 0.29678452
0.27656043 0.41338646 0.18584107 0.094452046 -0.09606419 0.42225364 0.263022 -0.29377007
0.054558236 -0.351632 0.10515023 -0.13196126 0.24983773 0.19552869 0.11102156 0.28343263
0.49156862 0.08591664 0.0663042 0.35587984 0.19575258 0.12934314 0.24069192 0.24991016
0.11168515 0.16997357 0.08651318 0.24732225 0.26558703 0.2755566 0.4350702 0.044640847
0.14149477 0.028484808 0.24458928 0.105641216 0.13383622 0.13545682 0.051378492 0.10295939
0.34154332 0.07689788 -0.008289603 0.09625926 -0.00025406358 -0.26317212 0.45445472 0.11249202
0.27275717 -0.11760578 -0.14994156 0.10665603 0.027710581 0.5127306 0.37656555 -0.026064344

actor.bias f4 [5]
00000000: 0075 d4bc 8074 f83d 1107 d33b 91eb 253e
00000010: 3c4d f23a
-0.025934696 0.121315956 0.0064400514 0.16203143 0.0018486152

critic.weight f4 [1, 3136]
00000000: af6b 04bf d308 1dbf 57fc 52be 8b65 a5bc
00000010: 008f 783d 8fda af3d f3d4 de3d d2c9 783e
00000020: 3578 d43d 0839 00bc f8f3 ffbd f920 b3bd
00000030: 0fe5 36be 068a 103e 16c9 55be fd9b bdbe
00000040: 5d1c f7bd d37e df3d 2bba 1cbe 929d 83be
00000050: 0956 6cbe 9a0d d1be 60e9 68be 92b2 1cbe
00000060: 12bb 03bc 273f 96bd d789 893c e29d 1e3e
00000070: 5ff6 4cbe a780 58be 3705 8fbd d4e3 623c
00000080: aee0 c7bd 825c f13c ae0c 19bd 9706 153e
00000090: 0f33 bdbd 29f7 d3bd 95e5 f13d 4982 903c
000000a0: b229 49be b38c f83d b6b4 403e 950e dfbe
000000b0: 33a6 e73b 4a09 423e 6627 ad3d a41f 823d
000000c0: 104c c93c ae56 80be bc94 38be 023d 17bf
000000d0: 5130 95be 3b5b 66be 1efc cebe e85b e4be
000000e0: 33ba 8d3e 0683 4d3e 39f7 e6be e692 97bd
000000f0: 4b95 503e 1a01 893e ad53 96be 7b79 a8be
00000100: d089 1d3d 41e1 f0bc 2225 9f3d 0a4e be3e
00000110: 15b3 803c 91ee 063e cb3b 8bbe 0f02 1bbe
00000120: 0b48 0c3d a9de eabd 79bf 083e ed71 98be
00000130: fc92 bbbe 63ce 633e 5ff0 74be 0ad1 b4be
00000140: d16d b0be ec1b 83bc 0a3a 00be 02f2 8bbe
00000150: 6fef 153e cae9 813e f9a2 a63d 5a43 8b3d
00000160: 6ae0 e03d 0a36 ca3d 6e26 f2bc 656d 963d
00000170: 425c 453d 1245 0cbe 5962 5abe 26fe 97be
00000180: f521 913d 1d9d 94bd e21c 0abe 7f89 803c
00000190: b4d4 afbe 39dd 07be c4a7 d43d e1bb 7bbe
000001a0: 9692 a53c b1e0 05be f192 7dbd f8ad a23c
000001b0: 7476 04be 6eaf 5abe 64e0 153e 0445 92be
000001c0: beee 1a3e ea5d 47be b3aa 0c3e 8742 4c3e
000001d0: 5728 2fbd 6667 7ebc 4b58 26bd 2989 333e
000001e0: cd35 3bbe d936 a1bd 9c20 ae3d 5ddf eebc
000001f0: 3197 13bd d75e bcbc b404 233e c1e8 bc3c
00000200: dabb 4cbe 8cef 073e 476e 4f3e 19f0 2b3e
00000210: 8d0b 9c3e 8c05 01be 25d6 20be 73a6 93bd
00000220: 6d53 993d 9788 ff3d b08a e2bd 02cc 173d
00000230: 1568 c13c da96 633d bb06 18be ee0e 863d
00000240: 3d51 863d cb49 f2bd bc04 e5bc 4a72 1fbf
00000250: 8ae1 02bf 92ff 34be f17e c1be d7ca 26bf
00000260: 7b62 01bf ca96 9e3e c0f7 993e 4c77 57bd
00000270: 1caa f43d dc1f 1cbc b6b3 383e 8964 a2bd
00000280: d1e4 3e3e 14e8 51bd 6697 3b3f d389 083e
00000290: ce91 2f3e 4844 afbe 0e5f b63c fd3b 963d
000002a0: c39a 9ebe 6622 a2bc 5a8f bbbd 8707 bdbe
000002b0: 8b4d ccbe 94ea 8abe fc93 9e3e 6006 dabe
000002c0: a4be 30bc 7d50 0c3b 4665 3e3d 0cd0 dcbc
000002d0: 4ee8 c8be b6de 923e 202a 753d 2dee 443e
000002e0: 959f 04bd f93f b13e 4c49 f7bd 1c55 423d
000002f0: c03d e83d 9ee4 cabe c966 a63d 32f7 b03e
00000300: 546e 073d dcc1 cf3c afb0 863e 7438 a43e
00000310: e6c1 43be cf7e 54be 2708 813d c616 543e
00000320: 7fcc 553c 8d20 c8be 7519 03be b8bc 773e
00000330: cd3a de3c dfa0 993e f613 513e 16d1 8fbd
00000340: 5f82 863e 3c88 803e f936 17be 4760 88bd
00000350: aeed 8d3e e68b 4f3e d1f6 76bd e027 9bbe
00000360: 7d6e 8dbe 9682 033d 5049 783d 98b5 b93c
00000370: 417c cd3c 321c 4cbe d8fa 71be 3556 52be
00000380: 5344 6b3e d495 e63d 94bb 5c3d 5639 7b3e
00000390: 30d9 753c 6f14 ecbd 3f4f 1f3f a38b cb3d
000003a0: d5a4 d9bb 1495 6f3e f55c 893e f8df ffbd
000003b0: 966a 93be 8721 dbbe bdc6 493e 0291 e83d
000003c0: ddac d63d 9c60 483d a1a5 0a3b bb8a 993c
000003d0: 390c 5abe 9b57 213e a456 303e c054 5f3e
000003e0: d76a 53be 341d 46be d2e3 503e b267 e4bd
000003f0: cf38 30be 72fe 88bb 91ef 8e3e fedc a6bd
-0.5172681 -0.6134159 -0.20604073 -0.020190021 0.06068325 0.085866086 0.108804606 0.24295738
0.1037449 -0.007826097 -0.12497705 -0.087465234 -0.17860816 0.14115152 -0.2087749 -0.37033072
-0.12065957 0.10912862 -0.15305392 -0.25706154 -0.23079695 -0.4083069 -0.22745275 -0.15302494
-0.0080402065 -0.07336264 0.01678936 0.15489915 -0.20015858 -0.21142827 -0.069834165 0.013848264
-0.09759651 0.029463056 -0.037365608 0.14553295 -0.09238254 -0.103498764 0.118113674 0.01764025
-0.19644812 0.12136211 0.18818936 -0.43565813 0.007069373 0.18948856 0.0845478 0.06353691
0.024572402 -0.2506613 -0.18025488 -0.59077466 -0.29138425 -0.22495739 -0.40426725 -0.4460137
0.2768112 0.20069513 -0.4511049 -0.074010655 0.20369451 0.26758653 -0.29360715 -0.32905182
0.038461506 -0.029404284 0.077707544 0.37168914 0.015710393 0.13176943 -0.27194056 -0.15137504
0.034248393 -0.1146825 0.13354291 -0.29774418 -0.36635578 0.22246699 -0.2391982 -0.35315734
-0.34458783 -0.016004525 -0.1252214 -0.27333075 0.14642118 0.2537368 0.08136553 0.06799956
0.109803036 0.098735884 -0.02955934 0.07345084 0.048183687 -0.13698223 -0.21326579 -0.29686087
0.07086555 -0.072565295 -0.1348758 0.015690563 -0.34341967 -0.13267983 0.10383561 -0.24583389
0.0202115 -0.13073994 -0.061907712 0.019858345 -0.12935811 -0.21355984 0.1463638 -0.2856828
0.15130135 -0.19469419 0.13736992 0.19947253 -0.04276308 -0.015527582 -0.040611546 0.17532791
-0.18282242 -0.078717895 0.085023135 -0.029159242 -0.03603286 -0.022994442 0.15919763 0.023060204
-0.19993535 0.13274974 0.20256911 0.16790809 0.30477563 -0.12599772 -0.1570669 -0.07209482
0.07486615 0.12477224 -0.11061609 0.03705979 0.0236092 0.055563785 -0.14846317 0.06545816
0.06558464 -0.11830481 -0.02795636 -0.62283766 -0.51125395 -0.17675617 -0.3779216 -0.6515326
-0.50540894 0.30974418 0.3007183 -0.052604005 0.11946508 -0.00952908 0.18037304 -0.07929332
0.18641974 -0.051246718 0.7327789 0.13333826 0.17145464 -0.34231782 0.022262122 0.073356606
-0.3097745 -0.019791793 -0.091582015 -0.36919805 -0.3990291 -0.27132094 0.30972278 -0.4258299
-0.01078764 0.002141028 0.0464833 -0.026954673 -0.39239734 0.2868554 0.059854627 0.19231482
-0.03237875 0.3461912 -0.12074527 0.047444448 0.11339903 -0.39627546 0.081250735 0.34563595
0.0330642 0.025360994 0.26306674 0.3207432 -0.19116935 -0.20751499 0.06300383 0.20711812
0.013049244 -0.39087334 -0.1280268 0.24193084 0.027127648 0.30005547 0.2041777 -0.07022302
0.2627134 0.2510394 -0.14767064 -0.066589884 0.27720398 0.20268211 -0.060293976 -0.3030386
-0.27623358 0.03210696 0.06061679 0.022669598 0.025083663 -0.1993263 -0.23630846 -0.20540698
0.22975282 0.11259046 0.053889826 0.2453359 0.015005395 -0.11527335 0.62230295 0.09938743
-0.006641964 0.23396713 0.26828733 -0.124938905 -0.28792256 -0.42799017 0.19704719 0.11355783
0.1048219 0.04892026 0.0021155851 0.01874291 -0.21293725 0.15756075 0.17220551 0.21809673
-0.20646225 -0.19347078 0.20399407 -0.11152591 -0.17209171 -0.004180723 0.2791715 -0.0814762
