PARALLEL/models/PRED_GROUP_POLICY_BOTH_INDIV_RWD_ROUND2_1400.ckpt (torch, 307454 bytes, 9 tensors)

network.0.weight f4 [32, 5, 3, 3]
000000 b5 08 ba 3d 65 a7 04 3d 34 8a 77 3d ba 55 b9 3d
       0.09083692 0.032386202 0.060434535 0.09049554
000010 d7 1e 03 3e 96 a3 32 3c 0a c8 e7 3d b9 ec b4 3d
       0.12804733 0.01090326 0.11317451 0.08834214
000020 c8 ce 22 bd 5e 75 00 3e 43 68 e3 3d 9f 91 0b be
       -0.039747983 0.12544772 0.11103871 -0.13629769
000030 cb 2d 83 3e c3 a4 08 be db 17 06 be cc c2 6a 3e
       0.25620875 -0.13344102 -0.13095038 0.22925872
000040 9e 14 7b 3e 86 10 1a 3e 05 a1 b9 3d 2f e7 42 3d
       0.24519584 0.15045366 0.09063915 0.047583755
000050 66 cb 0c 3e f2 6a 1b 3e e5 ff ca bd e4 ce 26 3e
       0.13749465 0.15177515 -0.09912089 0.1628986
000060 7f 9a 3b bd ad cb b7 bd 41 85 c5 3c ea 51 3b be
       -0.045801636 -0.08974395 0.024111392 -0.18292966
000070 d8 75 c6 bd fb 1a cb 3d 1c 91 96 3d 52 f8 11 be
       -0.09690446 0.099172555 0.07351896 -0.14254883
000080 eb 3b 08 be 41 11 0a be 1d be c8 3c 24 f3 26 be
       -0.13304107 -0.13483144 0.024504716 -0.16303688
000090 10 3c b3 3d f2 cb d5 bc 2d e8 71 bc a3 80 98 bd
       0.087516904 -0.026098225 -0.014764828 -0.074464105
0000a0 1a 21 d0 3d cc b6 cb 3c d7 6a 2e bc 12 16 ae bd
       0.101625636 0.024867438 -0.01064559 -0.08500303
0000b0 1a 0d 92 3a 81 83 77 bc c5 fd 50 bd 59 91 bf bd
       0.0011142821 -0.015107037 -0.051023263 -0.09353895
0000c0 7d f3 a4 3d f9 44 a5 bd 26 e0 01 be 85 8c 05 3c
       0.08054254 -0.08069796 -0.12683162 0.008151178
0000d0 00 e7 4a 3d ae 4c ce bd 16 81 1d 3e d6 a6 5b bd
       0.049536705 -0.10073219 0.15381274 -0.053625904
0000e0 1e 4a 33 3e d9 e2 6d 3e 1c 68 30 3e 08 c0 2b 3e
       0.17508742 0.23231067 0.17227215 0.16772473
0000f0 44 0e 47 3d cb 2c 1f 3d 36 b1 f6 3c 7c eb e1 bc
       0.04859759 0.038861077 0.030113798 -0.027578108
000100 12 9b 2f bd 6d e1 09 be c1 4a 68 bd e5 40 4a 3d
       -0.042872496 -0.134649 -0.056711916 0.049378294
000110 8f 0f fb bd 6d d2 98 3d 41 52 af 3c 64 14 4f be
       -0.12258827 0.074620105 0.021401526 -0.20222622
000120 40 75 48 be 89 3c b7 3d 17 20 f1 bd 22 5f bc bd
       -0.19575977 0.08947093 -0.11773699 -0.09197833
000130 58 3a ed 3d 5e b3 ad bc 9b 4c 0d 3d b7 48 8e 3c
       0.11583394 -0.021203693 0.034496885 0.017368658
000140 b2 65 00 3d 90 aa c6 3b 16 ad 91 3d 3c 7a 1e be
       0.031346984 0.006062813 0.07113092 -0.15476316
000150 44 9d a1 3d 5e a9 36 3c 73 c0 14 3e 2a b9 18 be
       0.07891324 0.011148779 0.14526539 -0.14914384
000160 b8 33 ca 3d 4b e4 2c bc d5 15 ed bd d2 14 b2 bd
       0.09873146 -0.010552476 -0.1157643 -0.086953774
000170 7b 95 f9 bd fb bc 08 3e 52 92 cc bd f5 50 77 3d
       -0.12186714 0.1335334 -0.09988846 0.06037994
000180 43 a4 c3 3d 2d 3a 79 bc c5 c8 b6 3d ce ff 23 3e
       0.09552815 -0.015211624 0.089250125 0.1601555
000190 09 64 79 3e 4d 04 2a 3e f9 ae 44 3c 8b 15 2b 3e
       0.24354567 0.16603203 0.012004607 0.16707437
0001a0 9d 87 2b bd 1c 67 07 be bd de 06 be 1e da 43 be
       -0.041877378 -0.13222927 -0.13170905 -0.19126174
0001b0 01 9c 1e be 12 cd 6c bc 2f 3a 92 bd 89 35 c6 3d
       -0.15489198 -0.014453189 -0.07140004 0.0967818
0001c0 77 be c4 bc 8b cb 0a be 01 a7 14 be 4c 50 5a bd
       -0.024016602 -0.13554208 -0.14516832 -0.053299233
0001d0 d2 60 95 bd bf 9b dc 3d dc d4 2c bc 82 a4 2d bc
       -0.07293858 0.10771894 -0.0105487965 -0.010598304
0001e0 40 4b 3e 3d 18 06 2c bd 53 23 87 3b b0 55 c6 bd
       0.046458483 -0.041998 0.004124084 -0.09684312
0001f0 60 cc 15 3e 7b 65 09 3e 18 73 01 3e dd c1 d1 bd
       0.14628744 0.13417618 0.12641561 -0.102420546
000200 2e fe 4f 3c e0 ee 02 bd 9e d9 08 3d 37 17 c3 bd
       0.0126948785 -0.03196609 0.03341066 -0.09525912
000210 9b 14 97 3d 09 2d 4e bd b6 45 2b 3d be 61 50 3d
       0.07376977 -0.050335918 0.04181453 0.050874464
000220 0c 13 8d 3d 57 46 ba bd 7f 4f aa 3c c1 39 11 3e
       0.068883985 -0.090954475 0.02078986 0.14182188
000230 f4 79 4b bd bf e6 5c 3d 92 4f b7 bb dc 3c ea bd
       -0.04967685 0.053930994 -0.0055942023 -0.11437389
000240 8c 43 2b be fd 88 67 3e ae 1e 6a 3e 76 09 03 be
       -0.16724986 0.2261085 0.22863266 -0.12796578
000250 2d 1e 7e 3e 86 5a b6 bc 66 43 34 3e 0c 08 bd bd
       0.24816199 -0.022259962 0.17603835 -0.092300504
000260 a8 bc 32 3d 40 4c 6a bd cd 7a f2 bd bc 77 21 be
       0.043636948 -0.057201624 -0.11839829 -0.15768331
000270 84 a2 0b be a3 fb fc bc 08 fc 76 bc 96 84 58 3c
       -0.13636214 -0.030881708 -0.015074737 0.013215205
000280 b3 b5 d2 3c bc 6b 03 bc f3 f0 f6 3d f2 95 98 3c
       0.025721407 -0.008021291 0.12057676 0.018626187
000290 d3 4b b1 3d 1c 15 35 3d 50 57 82 3c e5 5c 2f bd
       0.086570404 0.044209585 0.015910774 -0.0428132
0002a0 1a 85 c4 3d ce 25 40 3b 11 62 2a bd 3a ea ce bb
       0.095956996 0.0029319408 -0.04159743 -0.006314543
0002b0 74 64 31 3b 34 2d 5f 3d 1e 3c 46 be ba df 67 be
       0.0027067931 0.05448647 -0.1935887 -0.22643939
0002c0 95 3d 0e be 80 7d ee 3c 5b 81 29 be 24 2a 12 3c
       -0.13890679 0.029112577 -0.16553251 0.00892118
0002d0 b6 34 82 3d be fe db bd 89 d3 98 3c ae 09 dd bc
       0.0635771 -0.107419476 0.018655555 -0.026982155
0002e0 fd 66 b9 bd 9b 85 c4 bd cf f0 cc 3d ce ed 10 3c
       -0.090528466 -0.09595796 0.10006868 0.00884576
0002f0 66 43 c3 3d 68 e7 45 be d1 8e 91 3b 83 b4 8c bd
       0.095343396 -0.19326556 0.004442074 -0.068703674
000300 38 77 32 3d dd 9e e0 3d 7a fa be bd e6 36 43 be
       0.043570727 0.10967801 -0.09325118 -0.19063911
000310 8e 34 fe bd 5c 25 ba bd 9b 38 b3 3d 29 e8 08 bd
       -0.12412368 -0.09089157 0.08751031 -0.03342453
000320 b4 5f 79 bd 51 a1 93 ba 15 6d d6 3d 60 80 eb 3c
       -0.060882285 -0.0011263286 0.104700245 0.028747737
000330 86 00 ad bd 4a df 0a 3e df 69 14 bd 79 5f 8e be
       -0.084473655 0.1356174 -0.03623378 -0.27807215
000340 1b 18 c8 3c 0f 48 90 be c2 63 e1 bd 7b 08 2a 3d
       0.024425557 -0.28179976 -0.110053554 0.041511994
000350 64 c3 b9 bb 46 30 44 3e 86 63 55 3d e6 7b 4c 3d
       -0.0056690443 0.1915904 0.052096866 0.049922846
000360 c2 cb 0b be 97 5d 19 3d f4 1d aa 3d 05 99 c6 bc
       -0.13651946 0.03744277 0.08306494 -0.024242887
000370 d6 4e 06 bc c0 32 e3 bd be fa 8b 3d cf d6 10 3d
       -0.008197507 -0.11093664 0.06834935 0.035361107
000380 44 6c fd bb d3 67 ce 3d 95 c9 d3 3d 05 19 2e 3d
       -0.0077338535 0.10078397 0.10341183 0.04250433
000390 16 76 f9 3d 35 8a 4d 3c cc d9 cd 3c bd 2b 17 bd
       0.12180726 0.012545158 0.025128268 -0.036906946
0003a0 ce de f8 3d ea de 01 bd e0 0d 0d 3e 99 d5 6f 3e
       0.121518716 -0.031706728 0.13774824 0.23421325
0003b0 43 48 33 3e 39 40 d3 3d da f4 3a 3e 62 5f 36 3e
       0.17508034 0.10314984 0.18257466 0.17809823
0003c0 dd 70 12 be fd 44 88 bd 62 cf 8c 3c d7 58 f6 b9
       -0.14300866 -0.066537835 0.017188732 -0.00046986967
0003d0 b9 23 21 bd 02 6d be bd d2 62 cc 3d 11 24 02 3e
       -0.03934071 -0.09298135 0.09979786 0.1270907
0003e0 39 6d a4 bc bc 08 cf 3d c7 79 9d 3d 5c ce 12 3c
       -0.020071613 0.10109088 0.07689243 0.008960333
0003f0 8e cc 16 bd 1e 1d ed 3d 74 8b 01 bb 67 20 54 3c
       -0.036816172 0.11577819 -0.0019766958 0.012947178

network.0.bias f4 [32]
000000 da c0 f2 bd 19 cd f4 3d 8b 9e f5 bd 25 48 d6 3d
       -0.1185319 0.11953182 -0.1199313 0.10462979
000010 f9 2e 8e 3d 98 39 a1 bc 0d 5b d7 3c c2 f5 18 bd
       0.06942553 -0.019680783 0.026288534 -0.037343748
000020 87 f4 9d 3c 1b 74 b0 bd ba 04 c7 bc 22 7f b3 3c
       0.019281639 -0.08615895 -0.024294246 0.021911208
000030 72 e2 50 3c 2e 7f 8b bd 8e fe f7 3d 1d 25 d5 3d
       0.012749301 -0.06811367 0.12109099 0.104074694
000040 8a 1c f2 bc 5a 77 f9 3d 91 99 ff 3c 50 3e 92 3d
       -0.029554624 0.12180968 0.031201156 0.071407914
000050 a3 3b 89 3d ff d7 e1 bd 57 f1 bc 3d 69 00 22 3c
       0.06700828 -0.11027526 0.092257194 0.009887793
000060 d2 ab c0 3d 0a 87 f0 bd de 54 70 bd 37 38 bd 3d
       0.09407772 -0.11744507 -0.058674686 0.09239238
000070 29 47 df bb d0 73 6a 3d a8 59 48 bd 7a 19 13 3d
       -0.006813903 0.057239354 -0.048913628 0.03591297

network.2.weight f4 [64, 32, 3, 3]
000000 b1 61 71 bd 18 5c 96 bc b5 2c 5e bd 53 60 97 bd
       -0.058931056 -0.01835446 -0.054241855 -0.07391419
000010 b1 1c bf 3a 2b 21 05 3d 37 ec 74 3c 5c 9c 23 bd
       0.0014580694 0.032502335 0.014948896 -0.039944038
000020 c1 1c c7 3c 8e 5a 0e 3d 25 e8 d9 3c f4 e0 c1 3d
       0.024305703 0.03475433 0.026599953 0.094667345
000030 d7 0b 2a bc 83 52 e5 3d 33 12 11 bd c5 19 d1 ba
       -0.010378799 0.111973785 -0.035417747 -0.0015953114
000040 ca 7e 22 3d 4c 0d 42 3d 4c d1 6b 3b 91 07 86 3d
       0.039671697 0.047375962 0.0035982905 0.06544412
000050 30 bd 02 3d fc 7e f1 bb 93 53 06 3d 6f 36 81 bb
       0.031918705 -0.007369874 0.032794546 -0.0039432566
000060 0c 6a 3a bb ba 26 83 3d ea 36 7a 3c c0 9e a9 bc
       -0.0028444557 0.06403871 0.015271882 -0.02070558
000070 70 27 bb 3b 41 76 e5 bc d8 d1 71 3d 87 b9 75 bc
       0.0057114884 -0.02801049 0.059038013 -0.014997846
000080 1f 9e b2 bc f6 4b 68 3d 4d 2d 18 bd 7e 3b a5 3c
       -0.021803914 0.056713067 -0.037152577 0.02016997
000090 ac d9 ad bd 27 31 79 bd e6 a3 85 3c dc 68 b3 bd
       -0.08488783 -0.06083789 0.016313504 -0.08760235
0000a0 fc 27 3a bd 79 be 24 be 1b d0 82 ba 1a 00 c3 bc
       -0.04544829 -0.16088285 -0.0009980233 -0.02380376
0000b0 8c 00 e7 bc 7a 3d 46 bd 3d fe ed 3c 0e a9 70 3d
       -0.028198503 -0.048398472 0.029051894 0.058754973
0000c0 0a 15 d9 3b e3 06 66 3a 2d cc 38 3d 52 b8 17 bc
       0.0066248225 0.000877483 0.045116592 -0.009260254
0000d0 21 b9 59 bc 38 95 4f 3d 3e 15 26 3c d8 6c 89 3d
       -0.013288767 0.050679415 0.0101369005 0.067102134
0000e0 d3 da 7f ba 20 9b a5 bc 21 49 4d 3c fd 75 90 bc
       -0.00097600854 -0.02021557 0.012529642 -0.017634386
0000f0 c6 32 9f bc bb 6f 53 3d 68 fb 59 3d 84 f3 9b bc
       -0.01943339 0.051620226 0.053218275 -0.019037016
000100 7a f8 9c 3d 18 d3 db bd c7 8f c4 bc dc c0 2d 3d
       0.07664581 -0.10733622 -0.02399434 0.042420253
000110 4a ad 8c 3d e0 fe 9a bc eb d9 c4 ba ce 45 93 bd
       0.0686899 -0.018920362 -0.0015018558 -0.071910486
000120 b7 b1 a9 3b 85 bc 82 3b cf 9d e7 bd 3f 8c 70 b9
       0.005178656 0.0039897584 -0.113093965 -0.0002294043
000130 02 e8 12 bc d6 f4 57 3d 0c da 0b bd 24 59 81 3b
       -0.008966448 0.052723728 -0.034143493 0.003947394
000140 58 ca 2e bd d0 dc 31 3c e0 c5 4a bc e5 7a 21 bc
       -0.04267344 0.010855868 -0.012376279 -0.0098559605
000150 55 9f 16 bd 69 03 cf bc 1e 8e e5 bc 91 4f 2b 3b
       -0.036773045 -0.02527018 -0.028021868 0.0026139955
000160 c0 65 7c 3d b4 6b 8c 3c 92 46 bd bc 0d 70 87 3c
       0.061620474 0.0171412 -0.02310494 0.016532922
000170 74 8a cb bc 30 ac 49 bd 65 69 80 bd 72 66 4a 3d
       -0.024846293 -0.049236476 -0.062701024 0.049414106
000180 0d 39 72 bd 5b aa 91 bd fc 8f 3d bd da 64 be bc
       -0.05913644 -0.07112571 -0.046279892 -0.02324145
000190 13 32 12 bc 1b 15 06 bd b0 26 ac 3d 45 76 f0 bc
       -0.008923071 -0.03273497 0.084058166 -0.02935327
0001a0 a8 55 cd 3b 10 ed dd 3b 01 f4 1e bd 1e fc 38 bc
       0.0062663145 0.006772645 -0.03880692 -0.011290578
0001b0 97 24 00 3c 6f 68 9e 3c a8 c0 f5 b8 82 53 6d 3d
       0.007821224 0.019336907 -0.000117183954 0.057940967
0001c0 d2 6b 43 3d 03 73 31 3d 74 b1 96 bc b1 dd 27 bd
       0.047710247 0.043322574 -0.018395163 -0.040982906
0001d0 52 51 80 bd 9a 09 23 bc bd 08 0e bc 0c e8 94 bd
       -0.062655106 -0.00995102 -0.008669076 -0.07270822
0001e0 12 af 94 3d 1e fe 11 3d 99 d4 92 3d 70 dd 25 3d
       0.072599545 0.035642736 0.07169456 0.040494382
0001f0 4c 4f 28 3d 9e 4d 60 bc 2e 9e 19 bc 5f bd 84 3c
       0.04109125 -0.01369038 -0.009376092 0.01620358
000200 1d 6e f3 bc f9 ff b7 bc 88 c3 1b 3c 47 41 17 3d
       -0.029715592 -0.022460924 0.0095070675 0.036927488
000210 06 53 bb bb b0 d2 ed bc fa 53 fd 3c 1b 23 4a 3c
       -0.0057166843 -0.029031128 0.030923832 0.012337471
000220 e8 87 5b bd 26 8e ac bc 97 97 32 bd 3b b9 84 3c
       -0.053596407 -0.021063875 -0.0436016 0.016201606
000230 82 82 82 3d 5d 81 ac 3c 53 fd 7a 3d 84 a2 f9 bc
       0.06372549 0.021057779 0.061276745 -0.030473001
000240 22 e2 36 bd 98 4b 0c bd 9f 36 08 bd 18 9a 89 bc
       -0.04464925 -0.03425178 -0.033255216 -0.01679711
000250 9a 56 6d 3c aa f0 f8 3b 13 52 c8 3d 88 18 46 bd
       0.014485979 0.0075970488 0.097812794 -0.04836324
000260 97 1f 34 bb 66 1b ae bd 2e ed ac 3c 9d ab b1 bc
       -0.002748465 -0.085013196 0.02110919 -0.021688277
000270 bf 42 1e bd 56 6e cb 3c 38 86 b5 3a 4e 5b 35 3d
       -0.038637873 0.024832886 0.0013849204 0.044276528
000280 9b 4b 5a bb 97 2f c7 3c 3a ef 35 3c 99 1f 99 bc
       -0.0033309225 0.024314685 0.011104399 -0.018691825
000290 37 fe da bd 0f b6 aa 3c 12 93 60 bd 1f 35 a0 bd
       -0.10693019 0.020838765 -0.054827757 -0.07822632
0002a0 af af fe bc 85 24 73 bc c5 cb 19 3c d2 8c e4 3d
       -0.031089632 -0.01484025 0.009386961 0.11159672
0002b0 d3 c7 07 bb 62 bb 3c bd fc bc 93 3d 80 5e 34 3d
       -0.002071847 -0.04607714 0.0721378 0.044035435
0002c0 7f 4a 41 3d e7 b1 4c bc 01 9d d0 bc ce 12 2d bd
       0.047190186 -0.012493587 -0.02546549 -0.04225426
0002d0 7f ac 54 bc a5 6d 59 3c aa 69 90 bd 39 3e 70 3d
       -0.012980579 0.01327077 -0.07051404 0.05865309
0002e0 2b 5c 8b 3c da 0c 95 39 fc 68 af bc 44 f9 22 bd
       0.017011723 0.0002842907 -0.021412365 -0.0397885
0002f0 ad 7b de 3a 29 ca 51 bb 01 74 ca 3d 60 e1 11 3c
       0.0016974114 -0.0032011366 0.09885407 0.008903831
000300 21 0c d6 bc 12 e7 a6 3a e7 db a5 3d 61 76 9d 3d
       -0.02612883 0.0012733659 0.08098584 0.076885946
000310 7a 6d c9 bc 86 b8 82 3c 68 fb 95 bc 09 ae 96 bc
       -0.024588335 0.015957128 -0.018308356 -0.018393533
000320 f1 93 01 be c9 f4 dd bb e8 6e 0e 3d 05 9f e9 3c
       -0.12654091 -0.0067735654 0.034773737 0.02851821
000330 fd 7c dd bc 43 42 13 bd 3c ad 8d bd 80 92 5b bd
       -0.027037138 -0.035951864 -0.069178075 -0.05360651
000340 bc d1 47 bb 15 10 d0 bc 5d 64 7e 3d 49 1a b3 bc
       -0.0030490002 -0.025398294 0.062107433 -0.02186312
000350 95 9d 8e 3d 1a 4c 21 3d d6 c7 b5 bc ee 48 87 3b
       0.0696365 0.039379217 -0.022190016 0.004128567
000360 55 40 14 3c 34 9d 99 bd 7f 22 02 3c 3b 21 06 3b
       0.009048541 -0.07500687 0.007942795 0.0020466584
000370 d2 bc 2a 3c 8b c6 39 bd 3f bd 1f bd 61 5c 2c 3d
       0.010420995 -0.04535536 -0.03899884 0.042080287
000380 57 7f fc bc fb 72 3d 3d e8 0d b6 3d 5b ee 1d bb
       -0.03082244 0.046252232 0.08889371 -0.002409837
000390 0c 2f 81 3d 7c 93 41 3d b3 85 b4 3d da 10 89 3d
       0.063078016 0.047259793 0.088145636 0.06692667
0003a0 27 8d a0 bd 9b c0 15 bd 5a ab 9d bc 0b 08 93 bc
       -0.07839423 -0.036560636 -0.019246746 -0.017948171
0003b0 a0 9b d4 bb 33 2f cd 3c 75 32 d7 3c b9 c0 a1 3b
       -0.0064882785 0.02504692 0.026269177 0.0049363044
0003c0 5f f8 50 3d b9 20 ae bd 4a b7 0f bc d7 e0 55 bd
       0.051018115 -0.08502335 -0.008771727 -0.052216377
0003d0 58 63 32 3c 29 7d 3c bd 67 6a cb 3b 31 e5 be bd
       0.010887943 -0.0460178 0.0062077525 -0.093210585
0003e0 8c 93 51 3b bb bf e2 bc 86 68 bf bc 38 59 68 bd
       0.0031978814 -0.027679315 -0.02336527 -0.05672571
0003f0 68 bb 1c 3d 52 69 bf bc 81 08 85 3b ac 10 50 3d
       0.038264662 -0.02336565 0.0040598516 0.05079715

network.2.bias f4 [64]
000000 0f 2c eb 3c 96 90 57 3d 30 d6 2f 3d f7 49 41 bc
       0.028707532 0.052628122 0.042928874 -0.01179742
000010 30 62 80 bd 20 c8 8a bc 70 a2 0a bd ee 5f 07 3b
       -0.06268728 -0.01694113 -0.03384632 0.0020656544
000020 36 6a 26 bd 00 8e 51 3d a4 b0 fc bc 7e 2e 1c 3d
       -0.040628634 0.051160812 -0.030845948 0.038130276
000030 29 17 0a 3d 90 92 88 bc b2 d1 fe bb 98 44 59 3c
       0.033713493 -0.016671449 -0.0077764625 0.013260983
000040 91 0c a6 3b d3 a0 a5 bc 54 c1 59 bd 2d 81 6a bd
       0.005067416 -0.020218289 -0.053162888 -0.057252098
000050 ec 1f a1 bc e4 52 55 bd 18 a3 c6 3b aa 12 9c bc
       -0.019668542 -0.052081004 0.0060619228 -0.019051868
000060 43 7e e0 bc 67 95 43 3d 70 d6 06 3d 1a 38 bd 3c
       -0.027403956 0.047749903 0.032919347 0.02309804
000070 0d 70 55 bd cf 99 2c bd 77 84 2d bd ac 93 3f bb
       -0.052108813 -0.04213887 -0.042362656 -0.0029232306
000080 ef 66 4e bd f7 9a 59 3d 44 71 c6 bc bd be aa 3c
       -0.050391134 0.0531263 -0.024223931 0.020842904
000090 32 d7 1e bd 9f 1f f4 3c 98 6f 67 bc ca 61 dd 3c
       -0.038779445 0.029800234 -0.014125727 0.027024169
0000a0 1a 0b 38 3d 4f 96 06 bd 8d 6e 79 3c 9b 12 39 3d
       0.044932462 -0.03285819 0.015224111 0.04518376
0000b0 d0 63 02 3d 32 f3 43 3c 13 bd 9e bc 65 4b 73 3c
       0.03183347 0.011959838 -0.019377267 0.014849518
0000c0 35 08 83 3c 6f dc 25 3d 65 86 da 3b c1 dd 15 bd
       0.015995124 0.040493425 0.006668853 -0.036588434
0000d0 8d fe 66 bb 02 f8 2c 3c 23 3a 87 3c 80 7b dc bc
       -0.003524694 0.010557177 0.016507214 -0.026914358
0000e0 f7 93 11 3d 96 ad 50 3d f3 78 b4 3b f5 b0 cf bc
       0.0355415 0.050946794 0.0055075823 -0.025352934
0000f0 1e c3 61 bd ce 6e 0d bd 31 85 39 3d fd 19 83 3c
       -0.05511772 -0.0345295 0.045293037 0.016003603

network.4.weight f4 [64, 64, 3, 3]
000000 40 96 95 3c bf 1f 8d bd 63 93 d7 3b ea 7e bd 3c
       0.018260121 -0.06890821 0.006578849 0.023131806
000010 46 1c 07 3d 6d 90 74 3d 6a 6b f9 bc b9 9c 81 bc
       0.032985948 0.059708048 -0.030446727 -0.015821801
000020 a9 76 8c bc 55 57 f5 3c a0 69 0a bc de c6 e5 bc
       -0.017146425 0.02994887 -0.0084480345 -0.028048929
000030 10 71 b2 bc 60 3a d8 bc e8 fd 36 3d 6c c0 7f bb
       -0.021782428 -0.026395023 0.044675738 -0.0039024604
000040 cf 96 71 bd 88 44 d9 3c be 6e 48 3d 72 5e 6e 3c
       -0.058981713 0.026521936 0.048933737 0.014548885
000050 ee 74 cc bb 03 ee db bb 2c 29 9f 3c 1c 35 13 3d
       -0.006239525 -0.006711723 0.019428812 0.03593932
000060 70 5b 04 3d 03 12 e6 3b e5 50 18 3d 20 f2 8a 3b
       0.032313764 0.00702119 0.037186522 0.0042402893
000070 01 34 88 3b 0b 41 d5 bb 85 05 b6 3d b0 4b 5d 3d
       0.00415659 -0.006507998 0.088877715 0.05402726
000080 49 e2 17 3d a7 4c 0a bc 43 ec e8 bc 26 a5 44 bd
       0.037081037 -0.008441127 -0.02843297 -0.04800906
000090 c3 09 bd bc a1 ed b6 3c 8d 59 b8 bb 74 cb 2d bd
       -0.023075944 0.022330107 -0.0056259097 -0.042430356
0000a0 12 b8 fb 3c 06 93 01 bd 6d 4b 16 3a 8c 34 0a bd
       0.03072742 -0.031634353 0.0005733285 -0.03374152
0000b0 67 a4 27 3c af 0d ec 3c 57 be 8a 3a 4b bc f8 3c
       0.010232068 0.028815119 0.001058529 0.030363223
0000c0 e3 14 a3 bb 0a 7e 73 3d bb c3 8c 3c 53 b7 77 3d
       -0.004976855 0.059446372 0.017183175 0.060477566
0000d0 15 09 d5 bc fb dc 04 bc f4 b2 a7 3c d9 87 cb 3b
       -0.026005307 -0.0081093265 0.020471074 0.0062112627
0000e0 aa 28 1e bd b1 6b 03 bc 6e 66 60 bb 34 47 58 3b
       -0.038613 -0.008021281 -0.003424074 0.0033001425
0000f0 3f 3b 6c 3d b1 cd e7 b9 82 05 3c 3d 06 88 0c 3d
       0.05767369 -0.00044213005 0.04590369 0.03430941
000100 f1 8a 9f 3c b8 5c 6d 3b 0c 39 80 3d 44 35 c5 bc
       0.019475432 0.0036218595 0.06260881 -0.02407325
000110 19 6d e2 3b c7 be a5 bc 52 bd 3d bc 44 1c 75 bd
       0.006909978 -0.020232571 -0.011580782 -0.05984141
000120 86 d7 85 bd 79 ff 71 bd 5a 40 23 3d 88 61 25 bd
       -0.065352485 -0.05908153 0.039856292 -0.040376216
000130 8b a0 29 3c 5c 61 01 3d c6 78 b4 3c a7 2d fc bc
       0.010353218 0.03158699 0.022030246 -0.030783487
000140 43 ac 16 bd 5a f7 09 3d 0c ad 82 bc 4d 37 1f 39
       -0.036785375 0.03368316 -0.015951656 0.00015184023
000150 b4 d4 10 bd 1d db 75 bd 52 3c ef bc bb 3b 1f 3d
       -0.0353591 -0.060023416 -0.029203568 0.038875323
000160 5d 9a 13 3d 9f 0a 99 3d ab 92 be 3d 2d 77 ca bc
       0.036035884 0.07472729 0.093053184 -0.02471503
000170 62 b0 2b bc e7 d0 aa bc 59 17 01 bc 13 e1 22 bd
       -0.010479065 -0.020851566 -0.007879102 -0.03976543
000180 5b 8f 6a 3c 27 ea 7a bc ef 30 fa bc 6f 16 87 3c
       0.014316405 -0.015314615 -0.030540911 0.01649019
000190 76 70 25 bc 46 d7 38 bd 4f 2b 71 3d 5d 58 1b bd
       -0.010097614 -0.045127176 0.058879193 -0.037926067
0001a0 f7 5f 8b 3d e0 45 d8 3c 6d 53 de 3c d3 70 14 3d
       0.06805413 0.026400506 0.02713939 0.03624041
0001b0 15 58 da bc e8 ea 96 bd 5c 8b 1c bd a3 c0 9d bc
       -0.026653329 -0.073690236 -0.03821884 -0.019256895
0001c0 f1 99 34 3c d5 66 82 3d a2 81 23 bd 2f b9 15 bd
       0.011023031 0.0636727 -0.03991855 -0.036553558
0001d0 cc 22 79 bd b8 0b 14 3d 1d ba 4a 3c f2 a6 bb 3c
       -0.0608242 0.03614399 0.012373474 0.022906754
0001e0 b1 04 b2 bc b7 f1 bf bb c5 a4 55 3d c4 82 f2 bc
       -0.021730753 -0.005857672 0.05215909 -0.02960337
0001f0 b0 cb 57 3d 89 d9 60 3d de 15 e4 3b da 1c bf bd
       0.052684486 0.054894958 0.0069606146 -0.09331675
000200 da 96 f0 ba 54 0c a5 bc 27 9a 07 bd 33 23 03 bd
       -0.0018355504 -0.02014748 -0.033105996 -0.03201599
000210 ad 9a 52 bd dd 48 f4 3c 09 0e 07 bd 14 04 9a 3c
       -0.05141704 0.0298199 -0.03297237 0.018800773
000220 e1 39 39 bd b7 dc 97 3c c1 db de bb 49 0f d1 3c
       -0.045221213 0.018537862 -0.006801099 0.025519984
000230 75 75 31 3d 6b 89 17 3d d3 d8 31 bd 0f 41 dd bc
       0.043324906 0.036996286 -0.04341967 -0.027008561
000240 ed d1 65 3d 8a 67 93 bd 34 dd 60 3c 1a 02 1f 3d
       0.056108404 -0.07197483 0.013724614 0.038820364
000250 9d f6 6c 39 3d 76 92 bd b1 cb 9f bc a4 b9 dd 3b
       0.00022598584 -0.071514584 -0.019506307 0.006766515
000260 a1 cc 2a bd 11 22 1c bc 66 eb a6 bc 3e f4 53 3d
       -0.041699056 -0.009529606 -0.020375919 0.0517466
000270 08 b2 77 3d 7f 50 5f bb a3 53 5d 3d 3d 6c 4d 3c
       0.06047252 -0.003407508 0.05403484 0.012538013
000280 7e af 67 3d 60 07 57 3d 6e 2a 48 3d fd 38 86 bd
       0.056563847 0.052497268 0.04886859 -0.065538384
000290 cf 96 1b 3d 8e 65 01 bb 78 83 26 3d ff fc 9d 3d
       0.03798562 -0.001974437 0.040652722 0.07714271
0002a0 f5 16 10 bc 00 06 28 ba d9 e8 78 bd f9 b5 46 3d
       -0.008794536 -0.00064095855 -0.060768936 0.048513386
0002b0 26 85 98 bb 7c ff 6b bd c1 c4 e7 3c 76 ee 6f 3d
       -0.0046545444 -0.057616696 0.028292062 0.058577023
0002c0 c6 47 2f 3d b1 3c a1 3a ef dc 17 3c 08 70 8f 3d
       0.042793058 0.0012301413 0.009268983 0.0700379
0002d0 f2 a8 aa bb 32 57 11 3d d8 28 ae 3c 60 44 09 3d
       -0.005208128 0.035483547 0.02125971 0.033512473
0002e0 20 d4 b0 bc ca 54 da ba b2 3c f0 3b 59 78 c1 bd
       -0.021585524 -0.0016657349 0.007331454 -0.094467826
0002f0 ea 51 1f 3c 34 49 94 3d 93 b0 2d 3d 44 7d 70 bd
       0.00972412 0.07240525 0.042404722 -0.058713213
000300 c4 30 a0 3c 2a 1a 79 3c 6f dc 3c 3d da ba a1 bc
       0.019554503 0.015203992 0.04610866 -0.019742418
000310 e7 29 0f 3d 94 9c b9 3c 02 78 a3 3d 07 d3 7a bd
       0.03495207 0.02265767 0.07981874 -0.061236408
000320 5e 7b 8a 3a 61 5e a9 3b d5 3c 40 3c ef 41 1e 3d
       0.0010565331 0.0051687215 0.0117332535 0.038637098
000330 34 07 92 ba c5 5e 94 bc 2e 9f 86 bd a2 bd 61 bd
       -0.0011141063 -0.018111596 -0.0657333 -0.05511249
000340 db 88 2f 3e eb 1a d0 bd 23 da 80 bc 8f 23 98 3d
       0.1714205 -0.10161384 -0.015729016 0.07428657
000350 48 6f 15 bc 8f 32 3c 3d 5e b1 0e 3d e0 a3 6f bb
       -0.00912077 0.045946654 0.03483712 -0.0036566183
000360 06 c2 7f bc af 47 aa bc 7d 93 23 3c d5 f5 65 3d
       -0.015610224 -0.020786135 0.009983894 0.056142647
000370 5a 9b 74 3d 3a c7 71 3d 27 d2 e9 bc da 8a 60 bc
       0.059718467 0.059027888 -0.028542591 -0.01370498
000380 a9 7c 8a 3c 56 b0 91 bc 27 29 23 3d bc d6 58 bd
       0.016905146 -0.017784279 0.039834168 -0.05293916
000390 a5 e5 82 bb 68 80 5e 3c d9 c5 a1 bc 9c 38 c1 bc
       -0.003994661 0.013580419 -0.019747661 -0.023586564
0003a0 45 73 5c bc 4c 8d 20 3d 7c a7 2f 3d 3e 30 39 bd
       -0.013455217 0.03919725 0.042884335 -0.045212023
0003b0 33 72 28 3d 4d 89 08 3d fa 94 66 bd b3 4f da 3b
       0.041124534 0.033334065 -0.05629442 0.006662333
0003c0 fa fd 42 3d 6f 7c cf 3c 28 e5 65 bd ff 2b 37 3d
       0.047605492 0.02532789 -0.056126744 0.044719692
0003d0 b4 88 8d bd ed 9e 58 3d 6d 79 98 bc 6e d3 6a bd
       -0.0691084 0.05288594 -0.018612588 -0.05733054
0003e0 d2 03 dc bc fb f5 49 3d 34 89 14 bd 2b d4 bc 3b
       -0.02685729 0.04930685 -0.03626366 0.005762597
0003f0 ff e4 e6 3b 9a 6a 8d 3d 15 b7 b8 bc 7b fc c3 3c
       0.0070463414 0.06905098 -0.022548238 0.023924103

network.4.bias f4 [64]
000000 a4 fa 0b 3d 69 5d 29 ba 4f 8b 8f bb 41 da 1b 3d
       0.034174576 -0.00064607576 -0.0043806206 0.03804994
000010 e4 bd 31 bc 93 d8 14 bc f2 43 f8 3c 33 eb cd bb
       -0.010848496 -0.009084838 0.030305836 -0.0062841414
000020 31 ef c9 3b df 8a 92 3c bf be d9 ba b8 e8 96 bc
       0.006162547 0.017888485 -0.0016612633 -0.018421516
000030 d7 0f 9d 3c ed 39 ba bc c0 54 bd bb 34 ad 1e 3d
       0.019172592 -0.0227327 -0.0057779253 0.038739398
000040 07 96 13 3d 7b 3f 00 bc 47 71 21 3d 7b 72 3d 3c
       0.03603175 -0.007827635 0.03941467 0.011562939
000050 a3 42 a5 3b 7d a8 b2 3c 27 fe e3 3c 3b 9b b0 3c
       0.005043344 0.021808857 0.02783115 0.021558395
000060 1a 36 74 bc 88 2f 02 bd 48 8e 42 3c 71 89 aa 3c
       -0.014905477 -0.03178361 0.011874743 0.02081749
000070 d7 03 0e bd 41 63 0f 3d b0 89 6d 3c a8 31 ed bc
       -0.03467163 0.035006765 0.014498159 -0.028954342
000080 cd 42 b6 3c c8 dd 76 3c b2 61 86 bc 65 75 4a 3d
       0.02224865 0.015067525 -0.016404007 0.049428362
000090 2c dd b5 bc fa 71 11 3d fa 28 0d bd 98 19 d7 bc
       -0.02220019 0.035509087 -0.034462906 -0.026257321
0000a0 2b 13 00 bd 6a 36 01 bb 15 26 ea 3c 1e 05 8d bc
       -0.03126828 -0.0019716271 0.028582612 -0.017214354
0000b0 d7 5f 0b bd 65 b8 4c bb a0 43 d9 3c 79 56 8f bc
       -0.034026947 -0.0031237837 0.026521504 -0.017497288
0000c0 cb b1 b4 bc 76 ab 10 3d 0a 45 51 3d f9 2f 17 3c
       -0.022057435 0.035319768 0.05109123 0.009227746
0000d0 a9 41 26 bd cc fb be bc bc f7 34 3c 02 c7 67 3c
       -0.040589962 -0.023313425 0.011045393 0.014146568
0000e0 82 c9 02 3d 39 0a 77 3c 5c f8 84 3c e6 5c 93 39
       0.031930454 0.015078121 0.016231708 0.0002810724
0000f0 7a 58 3c 3d 1b e5 54 3c e1 af 3c bd 81 8a fc 3b
       0.045982815 0.012994076 -0.04606617 0.0077069406

actor.weight f4 [5, 3136]
000000 9d 03 6f bb b0 69 1f bd b8 59 23 bd 9a ce 33 bd
       -0.003647066 -0.03891915 -0.039880484 -0.043898202
000010 a3 f3 ad bc bb 97 a2 bc cc cd b5 3c f1 29 3e 3a
       -0.02123434 -0.019847741 0.022192858 0.00072541746
000020 7f f8 f6 3b 53 57 3f 3c 4f 7d 24 bc 74 d1 47 bc
       0.0075369473 0.011678535 -0.0100396415 -0.012195934
000030 64 cf b2 39 c3 8f 16 3c d0 18 05 3c 0f 1d 9f 3c
       0.00034105324 0.009189549 0.008123592 0.019423036
000040 20 8b a0 3c 1d 65 67 bb 76 3f 8c 3a 25 be 5a bb
       0.01959759 -0.003530807 0.0010700065 -0.0033377495
000050 ff 86 a3 3a 50 b0 09 3d ff af 10 3d bc 26 0d 3d
       0.0012476145 0.03361541 0.035324093 0.034460768
000060 6b 82 d8 3c a1 15 c9 3b fd fe 89 3b 3b c9 7d 3c
       0.026429376 0.0061366116 0.004211305 0.015489872
000070 cf cd 6d 3c e0 ee 71 3c 85 48 6a 3c 27 7b 0e 3c
       0.014514401 0.014766425 0.014299517 0.008696354
000080 20 ce 1c bc 34 a0 c2 bb 87 c2 4b bb e4 f4 65 bc
       -0.009570628 -0.005939508 -0.003109129 -0.014035437
000090 fe c1 40 3c 09 1d 01 3d d8 50 05 3d b6 d5 57 3c
       0.011765001 0.03152183 0.0325478 0.013173511
0000a0 1d 52 ce 3b 64 14 8f bb 4b 5c 1b 3c 29 40 a7 3b
       0.0062964098 -0.0043664444 0.009482454 0.005104084
0000b0 fb 25 b6 bb 78 4c d1 3b 31 51 36 3c a1 7a 86 39
       -0.005558727 0.0063872896 0.011127756 0.00025649837
0000c0 4a 14 99 ba 77 55 1b bd b2 f7 20 3b 5d 03 29 bd
       -0.001167902 -0.037923303 0.00245617 -0.041262973
0000d0 b1 b8 49 bd 58 9c 00 bd fd b2 c4 bc 21 00 8e bc
       -0.0492484 -0.0313991 -0.02401113 -0.017334046
0000e0 7f 48 cf 3b cd 89 c4 3a aa f8 fe 3b 7b 36 b2 3c
       0.006325781 0.0014994681 0.007781108 0.021754494
0000f0 9f f9 c8 3b 91 b5 f7 bb 54 9c 8d bb 8d be b4 3c
       0.006133273 -0.007559486 -0.0043216143 0.022063518
000100 7d 3d f9 3c 5e 88 90 3c 15 33 b2 3c 14 8f b1 3c
       0.030424828 0.01764315 0.021752873 0.02167467
000110 6d e7 60 3c a2 f2 50 3c 61 87 11 3d 42 08 9c 3c
       0.013727051 0.012753161 0.035529498 0.019046906
000120 bf ae ee 3c a4 9b 14 3d f7 27 f8 3c 4b dc 64 3c
       0.02913606 0.036281243 0.030292494 0.013968538
000130 13 38 cc 3c 96 68 f1 39 30 2a b6 bc 1a e1 bf bb
       0.024929082 0.00046045025 -0.022236913 -0.0058556916
000140 d8 e1 84 3b 04 29 5c 3c 0d 01 fd 3a d2 45 51 3c
       0.004055243 0.013437513 0.0019302681 0.012772994
000150 85 ec 2f 3d 05 a9 e8 3c 10 84 f4 bb c1 93 8a 3a
       0.042950172 0.028400907 -0.007462032 0.0010572599
000160 54 97 20 bb 04 2c 30 3c da ca 2b 3c 16 3d 1c ba
       -0.002450426 0.010752682 0.010485375 -0.000596003
000170 9c d4 03 bc 8a 90 13 bc 0e d8 5d bc 46 20 19 bc
       -0.0080462955 -0.009006629 -0.013540281 -0.0093460735
000180 1c 87 a8 bb 80 73 f5 b9 61 ad e0 3b 62 65 b8 3b
       -0.0051430594 -0.00046816096 0.006856606 0.00562732
000190 2a 94 99 3b 4c 3b 72 3c bd a6 90 3b 6f ac ed 3c
       0.004686852 0.014784645 0.004414408 0.029012887
0001a0 5c ae a0 3b dd 62 aa 3c 57 5b b6 3c 9c d2 46 3c
       0.0049035978 0.020799095 0.022260351 0.012135174
0001b0 22 a1 46 3c 0e 60 6f 3c 52 56 32 3c c6 4e d0 3b
       0.012123378 0.014610304 0.010884838 0.006357047
0001c0 9c e5 57 3c 7e f2 60 3b dc 28 14 bc c2 de 2e bb
       0.013177302 0.0034324224 -0.009042945 -0.0026683067
0001d0 d7 0e 4a 3c c8 49 d6 bb 26 18 03 bc 35 71 af ba
       0.01233264 -0.006539557 -0.008001363 -0.0013385179
0001e0 14 38 d5 3b 30 9e 4c bc 73 b0 c7 bc 68 cf e8 bb
       0.006506929 -0.012488887 -0.02437613 -0.007104803
0001f0 72 ea 3f bc d9 6c b0 3b 31 2b 65 bb c7 7c 81 ba
       -0.011713611 0.0053840694 -0.003496837 -0.0009879105
000200 31 cd 0b bb 6f 28 89 3b 4d b1 d3 3a 9c 53 83 3a
       -0.002133202 0.0041857283 0.0016150862 0.0010019424
000210 4b b2 89 3b 64 47 36 3a 3c 2f 1d bc 6f 3a 40 bc
       0.0042021624 0.0006953387 -0.009593781 -0.011732682
000220 ff ba dd 3a e8 bd 9d 3c f4 a4 ad 3b 90 75 a1 3a
       0.0016916691 0.019255593 0.005299205 0.0012318362
000230 68 89 18 3c 21 bc 39 3c 60 6e 6c 3c a3 ce 72 3c
       0.009310104 0.011336357 0.014430612 0.014819774
000240 59 57 7d 3c b3 e3 29 3b 90 a6 99 bb a1 3f 3c 3c
       0.01546272 0.0025923073 -0.0046890453 0.01148978
000250 e0 6c 6b bb dd 8a 99 3a 7f 39 4a 3c c6 1f 5b 3c
       -0.003592305 0.0011714358 0.01234281 0.013374275
000260 65 36 25 3c ed 5e 81 3b b5 87 89 3c 83 62 51 3c
       0.010083769 0.0039480836 0.016788343 0.012779835
000270 a9 72 4e 3c d7 77 0e 3c 4d 7a bf 3b be 2a 0e 3c
       0.012600579 0.008695564 0.005843437 0.008677183
000280 b0 44 01 ba 84 73 24 3c 09 ad 9d 3c a2 ac 47 3c
       -0.00049311947 0.010037307 0.019247549 0.012187155
000290 69 17 0a 3c 03 ac 91 3b c2 84 ff 3a f6 ee ee 3b
       0.008428433 0.004445554 0.0019494521 0.00729167
0002a0 87 f5 ce 3c 5a 22 0a 3d 94 21 31 3b 26 1a 15 3b
       0.025263561 0.033724166 0.002702807 0.0022751181
0002b0 ff 48 84 3a 56 cd 3b 3c ab 3a 14 3c 0d e4 38 3c
       0.0010092555 0.01146253 0.009047191 0.01128484
0002c0 9a 16 80 3b 5d d0 98 ba 29 8d ab bc ba b3 dd bb
       0.0039089443 -0.0011658777 -0.020941334 -0.00676581
0002d0 f9 bc a6 3b a8 eb 32 39 b7 97 46 3c a2 a9 11 3c
       0.0050884453 0.00017063192 0.012121133 0.008890541
0002e0 0b 9e d1 3a 31 20 2b bc 0b b6 58 bb 82 f4 83 3b
       0.0015992535 -0.010444687 -0.003306749 0.0040269503
0002f0 93 e1 94 3a 09 4e 9c 3c 4c e1 46 3c e6 00 ca 3c
       0.001135873 0.019080179 0.012138676 0.024658632
000300 a4 ec 4b 3c ff 85 8f 3b e4 bd 10 bb c0 34 cb ba
       0.012446556 0.0043799873 -0.002208584 -0.0015503392
000310 d1 a0 77 bc 59 4e b6 bc 93 30 a0 bc c8 ac 8c bc
       -0.015114025 -0.022254156 -0.019554412 -0.017172232
000320 13 d4 47 bc 9a 1f 89 3a 26 b1 d2 3b 2e 93 0b bc
       -0.0121965585 0.0010461689 0.006429809 -0.008518977
000330 57 07 94 ba 52 fc b9 3b 7f e7 a4 bb b3 e8 ce 3a
       -0.0011293691 0.005675831 -0.0050324793 0.0015785903
000340 90 5e 1b 3c 13 f2 a4 ba d3 67 29 ba ff 40 cc 3b
       0.009482995 -0.0012584351 -0.00064623094 0.006233334
000350 98 7e 85 3b 3b 57 e7 bb 3d 2a 40 bc 3b 18 e5 3b
       0.004073929 -0.007059959 -0.01172882 0.006991414
000360 95 2d 26 3c 7d d5 83 3c 88 74 ad 3c ed ef 22 3c
       0.010142704 0.01609301 0.02117373 0.009944898
000370 98 9a 71 3a c8 ac a0 3c 6d 20 aa ba 42 08 6b 3b
       0.00092164567 0.019613639 -0.0012979634 0.0035863076
000380 c7 f1 ea 3a 2d eb 16 3c 3f a8 57 3b 46 93 34 b9
       0.0017924838 0.009211344 0.003290668 -0.00017221001
000390 b2 6e 03 3c f5 81 cb bb 18 cf 52 3b 51 c1 cc 3a
       0.008021997 -0.0062105604 0.0032166895 0.0015621578
0003a0 be 8a 11 3c d0 1c 8d 3b 5c cf 03 bc a1 6b a3 3a
       0.008883176 0.0043064132 -0.008045044 0.0012467989
0003b0 ef a6 02 3c a5 93 e1 b8 90 7d a9 3b f9 ca 59 3c
       0.00797437 -0.00010756337 0.005172439 0.013293021
0003c0 93 ab f3 3c f7 e9 c4 3c 56 f0 0a 3d 18 c4 8c 3a
       0.029744899 0.024037344 0.03392061 0.0010739593
0003d0 fb 7f a3 bb 78 9b 2a 3c 6d ae 9a 3a 1a fe b8 bb
       -0.0049896217 0.010413043 0.001180125 -0.0056455256
0003e0 e6 74 ba 3b 7d ef a8 3c e5 50 30 3c b1 6a 13 bc
       0.005690205 0.02062201 0.010761474 -0.008997605
0003f0 20 2b 3e 3c 67 d1 0b bc b5 89 95 bc 3b c3 75 bc
       0.0116069615 -0.008533812 -0.01825414 -0.01500016

actor.bias f4 [5]
000000 f6 1e 27 ba 0d b4 88 3b 3f 3e 89 3b 12 0c db 3a
       -0.0006375158 0.0041718544 0.0041883285 0.0016711971
000010 5b 0d 93 3b
       0.004487676

critic.weight f4 [1, 3136]
000000 77 c5 d8 3b 14 c3 ae 3d 21 3b 95 3d 2a 88 c3 3d
       0.0066153365 0.08533302 0.072866686 0.095474556
000010 e1 fd 39 3d 17 2d b7 bb bf fc c0 bb a9 43 99 bd
       0.045408133 -0.005590092 -0.0058895047 -0.07483608
000020 a0 c8 a6 bc b9 81 03 3c 41 81 4a 3d a7 f4 9a bd
       -0.020359337 0.008026534 0.049439672 -0.07566195
000030 7a c4 99 bc 28 0c a7 ba 69 b0 e9 bc e7 6e d7 3c
       -0.018770445 -0.0012744712 -0.028526502 0.026298
000040 b9 9c a2 bc 99 cb 53 3d 23 78 22 3d 8f ae 02 bd
       -0.019850122 0.051707838 0.039665353 -0.031904753
000050 22 ce 99 3c 79 0a 16 bd 64 b1 57 3c f9 cc 9f 3b
       0.01877505 -0.03663108 0.013164852 0.0048767296
000060 a1 b7 ee 3a d5 26 15 bd 5e 17 b7 bc 65 ba 82 3c
       0.0018212685 -0.036413986 -0.02235001 0.01595802
000070 d1 c2 c6 3c 96 bc 8f 3c 06 35 91 bb 0f 11 ba 3c
       0.024262818 0.01754598 -0.0044313697 0.022713212
000080 6c 81 9c 3c 3f e9 07 3b bc 47 08 bc f0 1c 3a bb
       0.019104682 0.002073839 -0.008317884 -0.0028398596
000090 51 56 ff bc be d4 8f 3c 3c a4 47 bd f8 1e fb 3a
       -0.031169089 0.017557498 -0.04874061 0.001915901
0000a0 b7 7d 95 3c af ae 77 3d 71 1e 9d bc ba 5e fd bb
       0.018248422 0.060469326 -0.019179555 -0.0077322396
0000b0 99 3b 2c bd e7 76 e9 3c d7 de 2e bd 48 e6 ac 3b
       -0.042049024 0.02849908 -0.042692985 0.005276475
0000c0 47 48 27 3d 29 a3 4c bb 30 5a 8b bd ff db 8f 3c
       0.040840413 -0.003122518 -0.06804311 0.017560957
0000d0 a8 44 f1 3d 85 d1 9e 3d 29 01 56 3d 3f 09 27 3d
       0.11780673 0.077548064 0.0522472 0.040780302
0000e0 48 5b 7d 3d 42 7b 7a ba b6 09 4c bd 4a fe bb bd
       0.06185463 -0.000955511 -0.04981395 -0.09179361
0000f0 21 69 d9 3c 7b 62 19 3d 26 df 3f 3c 93 4f 55 bc
       0.026539387 0.037447434 0.011710918 -0.01301946
000100 2a a7 97 3b d7 3d 86 3c 66 bc 21 bc 57 d9 1d 3c
       0.004628082 0.01638691 -0.009871578 0.009634337
000110 f7 5b 14 bd 3e 2a b6 ba 63 bc c4 3c 20 8f 12 bd
       -0.036220517 -0.0013898087 0.024015611 -0.035781026
000120 c5 af a4 bd 7c 85 fe 3d 1e 62 50 3d eb ba ed bc
       -0.08041338 0.12427804 0.05087482 -0.029019793
000130 a9 c9 73 3c 47 9d 93 bc 5c ec ef 3b 60 8a 29 bc
       0.0148796225 -0.018019332 0.0073218774 -0.010347933
000140 26 47 85 3a 0f 27 bb bc 9a bb 09 bb 2e c9 b3 3c
       0.0010168299 -0.022845773 -0.002101636 0.021946516
000150 71 17 d6 bc 97 d5 4d bd 52 a7 3b bd 1d d7 43 3b
       -0.026134225 -0.050252523 -0.045813866 0.0029882856
000160 de d3 fc bc 33 38 01 bd f2 c9 99 3c a4 95 10 3d
       -0.030862745 -0.031547736 0.018773053 0.03529896
000170 f8 cc 94 3d 48 42 99 3d bd 36 5a 3d 09 21 e7 3c
       0.07265657 0.07483345 0.05327486 0.028213995
000180 aa 95 83 3d 15 32 2a bc 18 53 20 3d cb 7a c1 3b
       0.064250305 -0.010387917 0.039141744 0.0059045306
000190 68 a9 c2 bc 42 a8 ef bc 09 f3 e0 bc be 62 ae 3b
       -0.02376242 -0.029255036 -0.027459638 0.0053218296
0001a0 d9 0f 09 bd cd db 3e 3d b4 cb 85 bc fb 72 0a bd
       -0.03346238 0.046596337 -0.016332485 -0.03380106
0001b0 a9 84 89 bd f8 8b bb bc 44 df 68 bc 8f ff 03 3d
       -0.06714756 -0.02289389 -0.014213387 0.03222614
0001c0 4d b4 89 3d 13 6d 69 3d 4e 95 0b 3d 98 7c 46 bc
       0.06723843 0.056988787 0.034077935 -0.012114666
0001d0 eb 19 38 3c 53 fb 93 3d 3f 01 05 bd 93 5e 87 3b
       0.011236648 0.07225671 -0.03247189 0.004131147
0001e0 fe 6b 58 3c d4 10 09 3d e8 9d 01 3d 14 f6 28 3d
       0.013209341 0.033463314 0.03164473 0.041250303
0001f0 f5 c0 a1 3d ab d2 50 3d 7a bc 8b 3c a3 80 41 3d
       0.07898132 0.05098216 0.017057646 0.04724182
000200 9f dc 0b 3d 13 9f ad 3d 0d a4 8b 3d b1 26 5f 3d
       0.034145948 0.084776066 0.068183996 0.05448026
000210 71 a2 b2 3d ca 6d 8c 3c 83 87 60 3c 4b ba 4d 3d
       0.087223895 0.017142195 0.0137041835 0.05022649
000220 8a 56 7e bc da 80 59 3d 77 ba d6 3c 02 9e c0 3c
       -0.015523562 0.053101398 0.02621196 0.023512844
000230 4c 82 86 bc 21 0e 29 bd 49 d9 61 bc 6f 3e 81 bd
       -0.016419552 -0.04127324 -0.013784715 -0.063107364
000240 08 75 ae bc 9a 8c 88 b9 94 a5 9b 3c fd 71 10 3d
       -0.02129604 -0.00026044698 0.018999852 0.035264958
000250 da 48 a4 39 76 e3 6d bc a4 68 67 bc 9e 8e 94 bc
       0.00031334796 -0.014519563 -0.014124069 -0.018134411
000260 1b be 5f bb fb ac 07 bd f0 4b af bc 3b 6c a3 3b
       -0.0034140411 -0.03312395 -0.021398515 0.0049872673
000270 a5 b5 41 3c 5a ed 75 bc 9c 89 6c bd 30 f7 f1 3c
       0.011823093 -0.015010202 -0.057748422 0.029536813
000280 7a 74 af bc 6e d3 44 3c 30 e8 99 3d 7c ef 29 3d
       -0.021417845 0.012013299 0.075149894 0.041488156
000290 62 d5 31 bd d6 69 3c bd d4 58 6e bc 61 5b 38 bc
       -0.04341639 -0.04599937 -0.014547545 -0.011252255
0002a0 94 1e 4c 3d 42 7d 67 bc 7a 83 57 bd c1 4c df 3b
       0.04983385 -0.014128985 -0.05261562 0.0068145697
0002b0 ff 5a f6 3b 9a e6 c8 bc f8 f2 a6 3d e4 70 25 bd
       0.007518172 -0.024524022 0.08151811 -0.040390864
0002c0 4a e1 39 bd 0c e2 d7 3b 80 22 ce 3c 4a 8c 42 3d
       -0.045380868 0.006588226 0.025162935 0.04749707
0002d0 20 06 aa 3c 28 7c b0 3d e9 5d 1f bc 8f eb 76 3d
       0.020754874 0.08617431 -0.00972698 0.06028324
0002e0 21 82 41 3d 3d 17 78 3c 10 aa 3d 3c dd dc 04 3d
       0.04724324 0.015142259 0.011576191 0.032437194
0002f0 04 6b ac 3c 39 a6 bb bc 4f 4e a5 3b fb c6 09 3b
       0.021047123 -0.02290641 0.0050447355 0.0021023143
000300 62 f0 43 bd ba a9 50 3c 68 c5 64 3c 10 2a bb 3b
       -0.04783667 0.0127357785 0.013963081 0.0057118014
000310 52 03 78 bc 9e 20 5b 3d e3 bc 9d 3d 65 02 10 3d
       -0.01513751 0.053497903 0.07702043 0.035158534
000320 4f c5 2b bd aa 75 73 ba 44 5a 33 3d 0e 5f 40 bd
       -0.041936215 -0.00092872477 0.043787256 -0.04696565
000330 5a 17 38 bc 64 79 2d 3d 8f a4 08 bd 55 72 83 bd
       -0.011236036 0.042352095 -0.03336006 -0.064182915
000340 b4 b7 60 3d b0 13 ed bb 3c eb 08 3d 72 a4 74 3d
       0.054862693 -0.007235013 0.033427462 0.05972714
000350 cb f8 2c bd 94 d6 45 3d 1e a9 3f 3c b5 cc b1 bd
       -0.042229455 0.04830034 0.0116980355 -0.08681623
000360 50 c1 d7 3b b8 10 9e bc 5a 4b 25 bc a4 29 f8 3c
       0.006584324 -0.019295081 -0.010088766 0.030293293
000370 d6 3b 43 3d 2a f8 2c bd 5f a0 be 3b 2c 60 c5 3d
       0.047664486 -0.042228855 0.0058174576 0.09637484
000380 15 fa 08 bc c8 d9 0f 3d 70 db d4 bb 53 61 19 bc
       -0.008360405 0.0351198 -0.0064958856 -0.009361583
000390 c7 53 fa 3b 92 42 e4 bc dd 41 42 3d d3 a6 e9 bc
       0.0076393816 -0.027863774 0.047426093 -0.02852193
0003a0 df b7 07 3c 39 66 1e 3c f0 e9 7f bd 13 14 42 bc
       0.008283584 0.0096679265 -0.06247896 -0.011845606
0003b0 5b c1 3b bc c6 4b 59 bd c5 cd fe bc 7b 6a bd bc
       -0.011459674 -0.05305078 -0.031103978 -0.023122063
0003c0 37 3b f8 3c c7 cd fb ba 1c 9e 90 bc 09 c0 50 3d
       0.030301673 -0.0019211107 -0.017653517 0.05096439
0003d0 21 18 12 bd 45 db 20 3d b2 c0 86 3c ca f3 69 3d
       -0.035667542 0.03927161 0.016449306 0.05711726
0003e0 36 ce 73 3d b7 1c e8 bb d1 c5 2c bc 4a 24 8c bc
       0.05952283 -0.007083501 -0.01054521 -0.017107148
0003f0 fe ca 0c bc 31 0b 59 3d 5a 2a 3c 3c e3 28 07 3d
       -0.008593319 0.05298919 0.011484707 0.032997977
