PARALLEL/models/PRED_GROUP_POLICY_BOTH_INDIV_RWD_ROUND2_1900.ckpt (torch, 307454 bytes, 9 tensors)

network.0.weight f4 [32, 5, 3, 3]
000000 60 7d b9 3d b7 33 ff 3c 41 de 7b 3d ec aa be 3d
       0.090571165 0.03115259 0.061491255 0.093099445
000010 a9 41 04 3e d3 9b 32 3c 73 ba f5 3d 67 7a a1 3d
       0.12915672 0.010901409 0.11998453 0.078846745
000020 8b 56 98 bc 9f 3c 0e 3e 25 66 0b 3e 7a 7e 0b be
       -0.018595954 0.13890313 0.13613184 -0.13622466
000030 7d 4c 87 3e 79 dd 0c be f9 6a c7 bd c7 be 7a 3e
       0.26425543 -0.1375636 -0.097372 0.24486838
000040 c5 23 7b 3e 4a bf 1d 3e 18 b6 d9 3d 0d 1c 20 3d
       0.24525364 0.15405002 0.10630435 0.03908925
000050 26 85 26 3e 52 0f 37 3e 23 81 97 bd 34 93 12 3e
       0.1626173 0.17876938 -0.07397678 0.14313966
000060 8f cb 19 bd aa cd d5 bd df 40 88 3c c1 10 40 be
       -0.037547644 -0.10439618 0.016632495 -0.18756391
000070 f5 2b d6 bd 79 7e ea 3d b8 af 86 3d 8e 2a 0d be
       -0.10457603 0.11449904 0.065764844 -0.13785765
000080 37 bb 0f be d0 23 0e be ba 07 0b 3d 01 39 56 be
       -0.1403626 -0.13880849 0.033942915 -0.20920183
000090 3d 2d c9 3d 25 3a db bc fb f9 d8 bc 29 c9 97 bd
       0.09823082 -0.026761124 -0.026486387 -0.07411415
0000a0 a1 5a d6 3d 1f 99 71 3c 38 97 aa ba 09 0c 9f bd
       0.10466505 0.01474598 -0.0013015037 -0.077659674
0000b0 ee f3 03 3b 41 1b 82 bc 23 52 5c bd 7b 21 bc bd
       0.0020134407 -0.015882136 -0.05378927 -0.091860734
0000c0 7b b9 96 3d b7 40 b2 bd fa 40 01 be 64 14 a6 3c
       0.07359596 -0.087037496 -0.12622443 0.020273395
0000d0 e7 09 57 3d d8 e1 ac bd 15 a8 29 3e 62 1d 33 bd
       0.052499678 -0.08441514 0.16568024 -0.043729194
0000e0 76 a1 42 3e 3e 6f 63 3e 98 4f 30 3e 99 dc 32 3e
       0.19006905 0.22210404 0.17217863 0.17466964
0000f0 37 29 47 3d 04 f1 03 3d 60 07 86 3d 45 96 95 bc
       0.04862329 0.032212272 0.065443754 -0.01826013
000100 68 3f a7 bd b4 84 00 be 6b cd 83 bd bd 17 fa 3c
       -0.08166391 -0.12550622 -0.06435665 0.030528897
000110 6e 2f 13 be 2b 22 6d 3d e2 1b 8f bb c4 4f 5d be
       -0.14373562 0.057893913 -0.0043673376 -0.2161246
000120 5b be 25 be 7a 6b bb 3d a7 f9 e2 bd bb 89 a7 bd
       -0.16185896 0.09151359 -0.11082774 -0.08180567
000130 d5 07 03 3e 9e 36 6e bc e8 9d 27 3d 95 37 a2 3c
       0.12795956 -0.014539389 0.040922076 0.019801894
000140 be 4c 1a 3d 35 38 de 3b 15 ff 88 3d bd 7e 1c be
       0.037670843 0.0067816027 0.06689278 -0.15282722
000150 60 db 9f 3d 4e c0 b3 3c f8 70 18 3e 54 27 10 be
       0.07805514 0.021942284 0.14886844 -0.14077502
000160 af a7 ca 3d 52 64 dc bb 31 18 00 be 29 c2 af bd
       0.09895264 -0.0067258263 -0.12509228 -0.08581955
000170 46 ed 07 be 81 e9 05 3e 34 c5 cd bd 58 96 48 3d
       -0.13274106 0.13077356 -0.10047379 0.048971504
000180 93 37 b0 3d 14 81 bd bc 32 21 a8 3d 14 c4 21 3e
       0.0860435 -0.023132838 0.082094565 0.15797454
000190 f4 22 79 3e ed 91 26 3e 8e 9a 33 3c 27 61 4b 3e
       0.2432974 0.16266604 0.010962142 0.1986128
0001a0 91 fa b2 bc 49 28 9e bd 85 90 15 be 64 94 4d be
       -0.021847995 -0.077225275 -0.14605911 -0.20076138
0001b0 bd 2a 2e be 23 2d 05 bd 71 56 bc bd 12 e6 b3 3d
       -0.17008491 -0.03251375 -0.09196175 0.08784117
0001c0 cf a1 04 bd 7c af 1f be 76 1f 01 be 35 74 ef bc
       -0.032380875 -0.15594286 -0.12609658 -0.029230217
0001d0 25 bb 8b bd 92 ca e0 3d c1 43 74 bc c0 03 14 bc
       -0.06822804 0.10976137 -0.014908732 -0.009034097
0001e0 99 48 82 3d 74 63 fd bc 3e e0 b4 bb 56 53 93 bd
       0.06361503 -0.030931212 -0.005519896 -0.071936294
0001f0 33 3c 1d 3e 34 45 15 3e ad 71 06 3e 42 e3 cf bd
       0.15354995 0.1457718 0.13129301 -0.10150768
000200 de 1e fa 3b e6 ce 5f bc a8 0b e5 3c 7c 9e c5 bd
       0.007633074 -0.013660168 0.02795966 -0.09649369
000210 43 9e 88 3d 76 1a 05 bd c6 5c 22 3d f4 b9 44 3d
       0.06670811 -0.03249594 0.039639257 0.0480289
000220 32 a7 8b 3d e2 f9 bd bd 87 67 9c 3c 1c 8a 0c 3e
       0.06818999 -0.09276177 0.019092334 0.1372456
000230 5f 1c 7f bd 1e 49 59 3d 82 8e 1b bc ba ff f2 bd
       -0.062282916 0.053048246 -0.009494426 -0.11865182
000240 dd 86 32 be e3 c8 66 3e 42 d9 6a 3e a8 7e 04 be
       -0.17434259 0.2253757 0.2293444 -0.1293894
000250 cd e5 80 3e 6a 4b d7 bb 7a 88 35 3e b9 d6 d7 bd
       0.25175324 -0.0065702694 0.17727843 -0.10539002
000260 55 57 3c 3d 6a 28 7e bd 66 38 09 be 40 98 34 be
       0.045981724 -0.06205026 -0.1340042 -0.17636204
000270 a5 0a 30 be f5 9e 4a bd e0 59 45 bd f5 13 94 3b
       -0.1719156 -0.049468 -0.048181415 0.0045189806
000280 90 0d 0d 3d 6c 4e 68 3b 53 a2 f5 3d 36 95 e5 3c
       0.034436762 0.0035447134 0.119938515 0.02802525
000290 8a e0 c2 3d 6d 39 50 3d c7 aa d8 3c f2 ba 25 bd
       0.09515484 0.050836015 0.02644862 -0.040461488
0002a0 91 dd d0 3d 16 94 b9 3b f4 c4 6c bd 0b 6d 21 bc
       0.101985104 0.005663405 -0.057805017 -0.009852658
0002b0 52 d6 83 3b 8b 70 83 3d 41 05 3e be 7f 72 50 be
       0.0040233517 0.0641795 -0.18556692 -0.20356177
0002c0 4f 2a 0f be 5c 75 1d 3d 6f 72 25 be 53 91 21 3c
       -0.13980983 0.038442 -0.16156934 0.009861308
0002d0 1e 3d 8d 3d a4 f6 d5 bd 96 ef 93 3c 5e d7 8e bc
       0.06896423 -0.104474336 0.01805858 -0.01743668
0002e0 26 fb 87 bd 55 a9 b1 bd 22 b3 cf 3d cc f6 8b 3c
       -0.066397 -0.08674876 0.10141589 0.017085455
0002f0 36 20 9b 3d c9 2f 63 be 77 44 11 bc 5d ae 1c bd
       0.07574503 -0.22186197 -0.008866421 -0.038252223
000300 2a b5 88 3d 70 75 f6 3d f9 4b c9 bd 91 00 52 be
       0.06675179 0.12034118 -0.09828944 -0.20508029
000310 a0 de fa bd 55 b9 c8 bd 46 b2 bd 3d 8e 48 a2 bc
       -0.122494936 -0.09800974 0.092625186 -0.019809987
000320 db 67 5a bd 90 3b d8 3b 5b 52 02 3e 3e ef ea 3c
       -0.0533217 0.0065988973 0.12726729 0.028678533
000330 17 1b 7c bd 5a ac 17 3e 9a a2 f3 bc ec fe 91 be
       -0.061549272 0.1481184 -0.02974062 -0.28514802
000340 e0 ed 4a bb 4e 32 a1 be 0e 09 08 be db 74 3d 3d
       -0.0030964538 -0.31483692 -0.13284704 0.04625402
000350 d8 74 91 ba fa 6a 49 3e 37 a9 4d 3d ef 81 4e 3d
       -0.0011097444 0.19669715 0.050210204 0.050416883
000360 f3 d3 0a be 4c a8 3e 3d 8c 04 a8 3d 40 d1 f1 bc
       -0.13557415 0.04654722 0.08203992 -0.029518723
000370 10 98 62 bc 81 98 e2 bd 2c fb 8a 3d 5e 94 fd 3c
       -0.0138302 -0.11064244 0.067861885 0.030954536
000380 39 85 e1 bc 87 e9 c5 3d 6f e4 c7 3d e9 ae 1c 3d
       -0.027529346 0.096636824 0.09760367 0.038252745
000390 5b 64 ff 3d 64 58 74 3c 57 74 ed 3c 6c 9a 20 bd
       0.12470313 0.014913652 0.02898614 -0.03920977
0003a0 77 3c f4 3d c7 6b 0b bd 39 33 06 3e ce 9f 6b 3e
       0.11925595 -0.03403833 0.13105477 0.2301018
0003b0 42 65 37 3e a2 18 d3 3d 3c 22 41 3e de db 37 3e
       0.1790972 0.10307433 0.18860716 0.17954966
0003c0 fe 94 0c be 06 0f 8b bd 61 fc 29 3d a8 8e 8a bc
       -0.13728711 -0.06789975 0.041500453 -0.016913727
0003d0 e4 72 65 bd 92 ba e6 bd 4f e1 af 3d 18 a7 f2 3d
       -0.05601777 -0.11266054 0.08587896 0.11848277
0003e0 76 de e9 bc 5b 45 f0 3d e9 31 cf 3d d4 0a ea 3c
       -0.02854846 0.117319785 0.101169415 0.028569616
0003f0 af a1 1a bd 20 74 f5 3d 94 9a 5a 3b e2 56 41 3c
       -0.03775185 0.1198504 0.0033356296 0.0118005

network.0.bias f4 [32]
000000 6f 33 e0 bd b2 58 f5 3d 77 84 00 be 50 30 d2 3d
       -0.1094731 0.11979808 -0.12550531 0.10263121
000010 75 f0 97 3d 37 e9 bc bc 09 18 c9 3c c9 9e ef bc
       0.074189104 -0.023060424 0.024547594 -0.02925052
000020 64 a8 78 3c fc 3a b9 bd 01 a1 db bc 19 94 6c 3c
       0.015176866 -0.090444535 -0.026810171 0.014439606
000030 d3 26 34 3c ce fd 93 bd 50 03 e8 3d 62 7f d4 3d
       0.010995585 -0.07226144 0.11328757 0.10375859
000040 cc ba 03 bd c3 19 fb 3d 5f 8b e9 3c a7 81 9f 3d
       -0.032160565 0.12260773 0.02850884 0.07788401
000050 94 e4 8b 3d 75 f5 e6 bd bf c7 b4 3d ed 73 0d 3c
       0.06830707 -0.11277286 0.08827161 0.008633596
000060 3c e6 b7 3d f1 b7 eb bd 38 c6 77 bd fa 57 b6 3d
       0.089794606 -0.115096934 -0.06049177 0.08903499
000070 6b 0d e5 bb a2 43 71 3d 07 58 46 bd e8 43 cd 3c
       -0.006990125 0.05890239 -0.048423793 0.025056794

network.2.weight f4 [64, 32, 3, 3]
000000 00 03 9c bd 3d 09 a0 bb af 8c 68 bd dc a6 b5 bd
       -0.0761776 -0.004883914 -0.05677479 -0.088697165
000010 b7 9a 83 b9 17 26 0e 3d 06 6b 3b 3c c2 58 42 bd
       -0.0002510154 0.034704294 0.011439091 -0.047447927
000020 df e8 bb 3c 8b 93 4e 3d 48 a1 97 3c dc 3b eb 3d
       0.02293819 0.050433677 0.018509522 0.11486027
000030 f1 59 73 bc 0d b1 f6 3d 41 93 28 bd cd c0 33 bc
       -0.014852987 0.120454885 -0.041156057 -0.01097126
000040 93 f3 4d 3d fb 95 1a 3d 6c 5a fd b9 33 8f 8f 3d
       0.05028112 0.03774069 -0.0004832329 0.07009735
000050 4e fe 28 3d 09 fa 49 bc 78 91 92 3c 3b 39 ae 3a
       0.04125815 -0.012327679 0.01789163 0.0013292202
000060 48 76 07 bb 6d f7 82 3d 85 50 27 3d 8b 77 be bc
       -0.0020669866 0.06394849 0.040848274 -0.023250362
000070 db e5 3a 3c 4c 23 5a bc 94 a7 6b 3d 21 83 74 bc
       0.011407341 -0.0133140795 0.05753286 -0.014923842
000080 0d 45 83 bc 48 97 8a 3d 9b 8f 01 bd 4d 2e f9 3c
       -0.016024137 0.06767136 -0.031631093 0.030417586
000090 82 75 8d bd eb 1d a6 bd 4b 6a 0f 3d ca 71 ac bd
       -0.069071785 -0.08111175 0.03501348 -0.08420141
0000a0 be 34 4a bd 7c fa 32 be 7b c7 3e bc a9 98 a1 bc
       -0.049366705 -0.17478365 -0.01164424 -0.019726114
0000b0 22 c1 01 bd 90 a7 72 bd a4 a1 28 3d 7b 20 9a 3d
       -0.031678326 -0.05924183 0.041169778 0.075257264
0000c0 36 29 8d 3b 58 a3 41 bc 99 21 3e 3d 82 f4 55 bc
       0.0043078912 -0.011818729 0.04641876 -0.0130587835
0000d0 4d 74 4f bc b3 f8 3b 3d 3a 6a 8c 3c 8f 4d a1 3d
       -0.012662006 0.045891475 0.017140497 0.07876121
0000e0 50 3e 40 bb 76 26 9b bc e1 6b a0 3c 65 f4 ac bc
       -0.0029334016 -0.018939238 0.01958269 -0.02111263
0000f0 3c 07 a0 bc 21 ea 5f 3d 57 9e 83 3d f8 cd 89 bc
       -0.0195347 0.054666642 0.06426685 -0.016821846
000100 a9 57 a6 3d 04 38 08 be 17 b9 e1 bc 7e 38 3a 3d
       0.081221886 -0.13302618 -0.027554078 0.04546403
000110 56 88 82 3d e0 b1 2e bc 44 41 a0 3a 92 3a 99 bd
       0.0637366 -0.010662526 0.0012226482 -0.074818745
000120 20 f6 d7 3b f7 c9 19 3b c7 a3 0b be 38 48 17 3c
       0.0065906197 0.0023466328 -0.13636695 0.009233527
000130 ab e0 5c bc 84 38 51 3d f1 e3 0e bd c7 48 08 bb
       -0.013481299 0.051079288 -0.03488535 -0.0020795332
000140 fe ec 2b bd 5c 81 bc 3c 97 f7 7c bc e0 4f 36 bc
       -0.04197406 0.023010902 -0.015439889 -0.011127442
000150 43 ce 08 bd 56 3d ce bc a3 fb f5 bc cd 8c 08 3c
       -0.03339983 -0.025175732 -0.030027216 0.008334351
000160 bc 23 86 3d f1 6e 6e 3c 07 37 17 bd 50 06 56 bc
       0.065497845 0.014552818 -0.036917713 -0.013063028
000170 a6 80 bc bc 30 d1 64 bd 39 5c af bd 1d ae 28 3d
       -0.023010563 -0.05586356 -0.08562512 0.041181672
000180 49 c8 70 bd 9b c0 9e bd 7b d0 55 bd 37 da 0c bc
       -0.058784757 -0.0775158 -0.052200776 -0.008596948
000190 54 1c ac 3b b9 ad 66 bd c1 86 c4 3d 1e c1 cf bc
       0.0052524004 -0.05631802 0.09596015 -0.02536064
0001a0 52 a3 19 ba 84 a0 b2 3c aa 35 13 bd 00 67 47 bc
       -0.00058608234 0.021805055 -0.03593985 -0.012170553
0001b0 dd 59 a1 3c f9 aa d6 3c 92 15 40 3a 5b 9d 6f 3d
       0.01969617 0.026204573 0.0007327433 0.058499675
0001c0 88 c8 41 3d c2 11 2f 3d f9 1c 2c bc 11 48 40 bd
       0.047310382 0.042741545 -0.0105049545 -0.046943728
0001d0 44 28 57 bd ab 55 8d 3b 07 6f 9f bb 0d 08 a3 bd
       -0.052528635 0.004313191 -0.0048655304 -0.0796052
0001e0 ee a3 aa 3d b1 0b 16 3d 3f 21 99 3d 32 29 39 3d
       0.08332048 0.036632244 0.07477044 0.045205303
0001f0 fa 0b 33 3d df e7 6b bc 04 63 7f bb 10 e2 aa 3c
       0.043712594 -0.014398544 -0.003896893 0.020859748
000200 67 e2 f5 bc b4 1f ba bc dc 63 c9 3b e6 08 12 3d
       -0.030015184 -0.022720195 0.0061459374 0.035653017
000210 bf 73 17 bb 0f 45 09 bd d7 81 17 3d 06 0d 84 3c
       -0.0023109762 -0.033513125 0.03698906 0.016119491
000220 92 36 2c bd a7 18 5d bc 9b ac 38 bd 36 c8 a9 3c
       -0.04204423 -0.013494647 -0.045086484 0.02072535
000230 53 ac 8c 3d 3e 61 bf 3c 00 f9 83 3d ae 8e ea bc
       0.06868806 0.023361798 0.06443977 -0.028632488
000240 26 69 28 bd 97 27 13 bd 2a c1 63 bd d6 22 15 bc
       -0.041115902 -0.035926428 -0.055604137 -0.009102544
000250 7e 31 86 3c 8c d9 23 bc 72 c9 d7 3d 4c cb 4e bd
       0.016381022 -0.010000598 0.105364695 -0.050486848
000260 22 b4 66 ba c4 e3 a0 bd 89 98 4c 3c 96 ce b5 bc
       -0.00088006456 -0.07855943 0.012487539 -0.022193234
000270 f2 b7 57 bd 56 88 c5 3c 24 36 a5 bc b2 8f 0c 3d
       -0.05266566 0.024112862 -0.020167418 0.034316726
000280 b2 7d 9f b9 2d e2 a4 3c 46 9b 1b 3c 4e 0b e6 bc
       -0.00030420494 0.02012738 0.009497469 -0.028081562
000290 98 71 06 be 86 c7 82 3c a3 f6 74 bd 43 d7 d0 bd
       -0.1312927 0.01596428 -0.059805524 -0.10197308
0002a0 bc f7 45 bc 6c 6c 42 bc f3 50 ba 3c e0 db f8 3d
       -0.01208299 -0.01186667 0.022743678 0.12151313
0002b0 63 ff 78 bc 12 55 0f bd b9 36 9c 3d cc 9d 31 3d
       -0.015197608 -0.03499324 0.07627625 0.043363377
0002c0 c3 5a 15 3d 67 8c 78 bb b8 ca c8 bc 53 08 5e bd
       0.03646351 -0.0037925483 -0.024510726 -0.054207157
0002d0 1e ed b2 b8 23 74 90 3c 40 b5 96 bd aa 1f 83 3d
       -8.531868e-05 0.017633503 -0.073587894 0.06402524
0002e0 30 b8 c4 3c bf 56 26 bc b8 ef 9b bc d4 0d 34 bd
       0.024013609 -0.010152518 -0.019035205 -0.0439585
0002f0 bb 7a 97 3b 17 01 03 38 d3 01 ef 3d 62 05 bd 3c
       0.004622785 3.123385e-05 0.1167027 0.023073856
000300 b2 e2 d2 bc 07 e2 45 3c 76 07 b9 3d 07 a7 b7 3d
       -0.025742862 0.012077815 0.09034626 0.08967405
000310 0c ad db bc ae d8 4c 3c 7e 6b 0d bc 7f 0a a7 bc
       -0.026815914 0.012502832 -0.008631585 -0.020390747
000320 96 af 15 be 00 fa 94 3b 2f 73 dd 3c 2d 8d 55 3c
       -0.14617762 0.004546404 0.027032463 0.013034147
000330 da 94 c4 bc 3b 34 16 bd 6e 52 9b bd 1d 61 65 bd
       -0.02399676 -0.036670905 -0.075840816 -0.056000818
000340 6e 2f 15 3b 12 2b 09 bd 8b c7 84 3d 21 c7 ee ba
       0.0022763866 -0.03348834 0.06483372 -0.0018217304
000350 e2 4e 9b 3d f6 e7 4b 3d c2 f0 dc bc fd 63 84 3c
       0.07583405 0.049781762 -0.026970271 0.01616096
000360 ce 32 ca 3b 91 da 97 bd c0 c3 37 3c 27 57 96 b9
       0.006170607 -0.07414735 0.011216104 -0.00028675163
000370 e4 6a f7 3b 74 d8 69 bd f7 92 0f bd 33 64 39 3d
       0.007550584 -0.05709119 -0.035052266 0.045261573
000380 2e 71 1e bd c9 1f 1b 3d 02 be e4 3d 65 66 78 bb
       -0.038682155 0.03787211 0.111690536 -0.0037902829
000390 a2 e7 7c 3d e0 1d 47 3d d4 a3 ba 3d 8f e9 9d 3d
       0.06174434 0.048612475 0.09113279 0.077105634
0003a0 63 c9 a3 bd fc 9e c1 bc 3e f8 a5 bc de b9 87 bc
       -0.07997396 -0.02363538 -0.020259973 -0.01656812
0003b0 f3 01 59 3b e3 f1 b1 3c 74 ae d4 3c ea 0d 3d 3c
       0.0033112734 0.021721786 0.025962092 0.011538962
0003c0 8a 45 8f 3d 12 e5 a7 bd 06 c0 47 3c 07 be a8 bd
       0.069956854 -0.081979886 0.012191778 -0.0823937
0003d0 2d 41 7d 3c af 74 35 bd e6 a3 27 bb 5c d3 df bd
       0.015457434 -0.04430073 -0.0025579869 -0.109289855
0003e0 5d bb 02 bb b5 6f 11 bd 78 00 02 bd ea 6d 76 bd
       -0.0019948103 -0.035506923 -0.03173873 -0.060163416
0003f0 f1 bb 2a 3d 44 3b 76 bc 47 63 9b 3c 86 4d 77 3d
       0.04168314 -0.015028778 0.018968238 0.060376666

network.2.bias f4 [64]
000000 fe f7 ef 3c 9f 39 52 3d 16 8e 26 3d 58 4c 34 bc
       0.029293057 0.051324483 0.040662847 -0.01100453
000010 30 62 80 bd bd 76 9f bc cb 5c 11 bd 42 de 49 3b
       -0.06268728 -0.019465799 -0.035488885 0.0030802642
000020 44 15 21 bd 06 f2 4b 3d a5 b7 da bc f0 97 23 3d
       -0.03932692 0.04979136 -0.026698897 0.03993982
000030 cb a8 1c 3d 41 33 82 bc 28 14 04 bc b6 c3 4a 3c
       0.03824691 -0.01589358 -0.008061446 0.012375763
000040 1a 9c a5 3b 89 b4 9a bc 67 06 53 bd 28 02 73 bd
       0.005054009 -0.018884914 -0.051519778 -0.05932823
000050 f5 58 a0 bc c4 f3 57 bd 0d 9a 21 3c f6 43 b0 bc
       -0.019573668 -0.052722707 0.009863389 -0.021516781
000060 f1 2a f6 bc fd f8 39 3d 31 c7 07 3d 73 cb b4 3c
       -0.030049773 0.04540347 0.033148948 0.022069668
000070 93 2f 5b bd d8 fc 2a bd 4d 01 2b bd 1d c0 04 3b
       -0.053512167 -0.041745037 -0.041749287 0.002025611
000080 e2 e0 4f bd 93 b5 54 3d 76 df c4 bc 04 69 e6 3c
       -0.050751574 0.051930975 -0.024032336 0.028126247
000090 a9 19 16 bd 2e 62 fc 3c f0 1b 3b bc 4e ab ee 3c
       -0.036645565 0.030808534 -0.011420235 0.029134419
0000a0 cc b1 50 3d 55 7b 0d bd 8c 72 52 3c 30 9d 3a 3d
       0.05095081 -0.034541447 0.012844693 0.045560062
0000b0 f6 de 02 3d 2c fa e8 3b 05 04 9b bc 31 ae 63 3c
       0.031950913 0.007109901 -0.018922815 0.013896511
0000c0 f9 3c 84 3c 18 82 31 3d 3e cf 58 3b 92 57 15 bd
       0.016142355 0.043336958 0.003308251 -0.036460467
0000d0 8a e3 79 3a e8 3a 50 3c ee 2b 85 3c be 84 e2 bc
       0.0009532502 0.012709357 0.016256299 -0.027651187
0000e0 fa 74 05 3d d5 b9 5a 3d 6a 61 00 3c 2f f2 be bc
       0.03258226 0.05339988 0.007835725 -0.023308842
0000f0 77 65 6b bd a2 40 07 bd cf 3d 40 3d 70 d5 78 3c
       -0.05746981 -0.033020623 0.046933945 0.015187606

network.4.weight f4 [64, 64, 3, 3]
000000 3b 49 fe 3c e6 31 9b bd 7d b3 c2 38 c9 a0 20 3d
       0.031040778 -0.07577877 9.284073e-05 0.039215837
000010 cc ec 20 3d f8 c2 9c 3d 6e 0e f8 bc ac f6 06 bc
       0.039288327 0.07654375 -0.030280318 -0.008237522
000020 34 42 17 bc da e4 3f 3d 1e 09 93 bc e2 49 1c bd
       -0.009232093 0.04684911 -0.017948683 -0.038156398
000030 b4 aa aa bc 7d 06 c1 bc ab 0a 89 3d a9 c9 03 bc
       -0.02083335 -0.023562664 0.06691488 -0.008043685
000040 cb 08 57 bd af 34 12 3d 5e 6e 6a 3d 2e d4 2f 3c
       -0.05249862 0.035694774 0.05723416 0.01073174
000050 9c 23 36 3a cf db 88 3b bd 49 fb 3c 20 44 3d 3d
       0.0006948055 0.004176594 0.03067481 0.046207547
000060 39 a1 05 3d eb 8b 7c 3c 7e ea 3d 3d 81 2e a3 3c
       0.032624457 0.015414218 0.046366207 0.019919636
000070 f6 96 5d bb 17 6e 2d bc 7d 68 bd 3d 3a fd 6c 3d
       -0.0033811904 -0.0105853295 0.09248445 0.057858683
000080 01 3b 14 3d 97 01 7b 3c 25 ba 52 bd e3 4e 48 bd
       0.036189083 0.015320203 -0.051447053 -0.048903357
000090 c3 09 bd bc a1 ed b6 3c 8d 59 b8 bb 74 cb 2d bd
       -0.023075944 0.022330107 -0.0056259097 -0.042430356
0000a0 12 b8 fb 3c 06 93 01 bd 6d 4b 16 3a 8c 34 0a bd
       0.03072742 -0.031634353 0.0005733285 -0.03374152
0000b0 67 a4 27 3c d1 e3 36 3d 19 c4 df 3b e2 13 17 3d
       0.010232068 0.044650856 0.0068287966 0.036884196
0000c0 88 4f 69 bb ee be 81 3d 0c 28 bd 3c 9a f4 79 3d
       -0.0035600383 0.06335245 0.023090385 0.061024286
0000d0 8d 76 c9 bc 39 79 4b bc 39 ea aa 3c 06 b3 0d 3b
       -0.024592662 -0.012419038 0.02086364 0.00216216
0000e0 db 8f ec bc 24 86 48 bb e4 14 ef 3a a2 b4 ef 3a
       -0.02887719 -0.0030597532 0.0018240479 0.0018288086
0000f0 bb ba 81 3d b2 d4 4f 3b fb d6 50 3d f8 1f 57 3d
       0.06334444 0.003171247 0.05098627 0.052520722
000100 ca cf ba 3c 3e e8 11 bc a6 2c 88 3d b1 b1 ba bc
       0.02280416 -0.0089054685 0.06649141 -0.022789808
000110 79 c0 39 3c 8c 1d 14 bc 9f 56 b3 bc ea f8 95 bd
       0.011337393 -0.009040248 -0.02189189 -0.07322867
000120 c0 68 71 bd 18 d0 6a bd 20 6e 0e 3d 83 52 58 bd
       -0.058937788 -0.05732736 0.034772992 -0.052813064
000130 07 5e 06 bc 68 24 e5 3c bc 1c 82 3c c0 eb 1c bd
       -0.008201129 0.027971461 0.015882842 -0.038310766
000140 ee 9c 0f bd 35 d6 14 3d d0 02 ac bc bb d7 12 3c
       -0.03506177 0.036337096 -0.020997435 0.008962567
000150 7b 92 ef bc 39 63 51 bd 9c 0c c5 bc 76 a2 f7 3c
       -0.029244652 -0.051120017 -0.024053864 0.030228835
000160 d3 d2 2d 3d 86 69 ab 3d df ae cf 3d 42 97 cf bc
       0.042437386 0.083697364 0.10140776 -0.02534068
000170 5c ce ff bc e3 21 26 bb 1a ba c3 bc f9 c8 1b bd
       -0.03122633 -0.0025349788 -0.023892451 -0.03803346
000180 6a f7 8f 3c 4a bc aa bc bd 71 84 bd 4a 5c 8c 3c
       0.01757403 -0.020841736 -0.06467006 0.01713385
000190 d6 52 6b bc 8c 6b 3e bd 41 f9 a1 3d 7e 82 76 bd
       -0.014363011 -0.046489283 0.079088695 -0.06018304
0001a0 47 fd 8e 3d d3 55 14 3d 65 6e c5 3c 6d f5 df 3c
       0.069819026 0.03621466 0.024100492 0.027338708
0001b0 3c c5 79 bc c2 51 a1 bd 77 e0 2c bd 39 80 dc bc
       -0.015244778 -0.07876922 -0.042206254 -0.02691661
0001c0 69 15 99 3c a4 a8 85 3d f1 7e 5f bd 21 48 34 bd
       0.018686967 0.06526306 -0.05456442 -0.0440141
0001d0 0a cc 6e bd 5a 92 3a 3d 4e df 69 3c b1 02 d2 3c
       -0.058300056 0.045549728 0.014274431 0.025636049
0001e0 72 ed 4e bc 80 d8 39 3b 2a 08 70 3d 58 71 04 bd
       -0.012629854 0.0028357804 0.058601536 -0.032334656
0001f0 c4 25 77 3d 9d fd 85 3d 6e 7d 70 3c d4 db c0 bd
       0.06033875 0.065425135 0.014678342 -0.09416929
000200 5e 6c 83 3b 01 a6 32 bd 10 c4 0a bd 31 6a a1 bc
       0.004010721 -0.043615345 -0.033878386 -0.019703956
000210 bd 57 a4 bd 9f bb 09 3d 51 ca 08 bd b8 39 b6 3c
       -0.08024547 0.033626195 -0.03339607 0.02224432
000220 e5 ce 5c bd 2f c0 68 3c 57 67 a4 bb ca 09 09 3d
       -0.053908248 0.014205976 -0.005017202 0.0334566
000230 01 e6 3d 3d 12 89 0c 3d e6 f3 7b bd 9e 7e d5 bc
       0.046361927 0.034310408 -0.061511897 -0.026061352
000240 6b 59 86 3d 0b d2 9f bd 4b 5b eb 3b fd 6b 0d 3d
       0.06560024 -0.078037344 0.007182514 0.034526814
000250 12 65 89 bb 23 ac 8c bd 8a 21 f6 bc 60 01 e3 3b
       -0.0041929567 -0.0686877 -0.03004529 0.006927654
000260 1e 78 25 bd cb a7 56 bb 77 a8 95 bc 03 f4 6b 3d
       -0.040397756 -0.003275382 -0.018268807 0.057605755
000270 74 f5 8d 3d ad 2f d1 3a e0 a8 79 3d 28 d4 7d 3c
       0.06931582 0.0015959643 0.060952067 0.0154924765
000280 b5 aa 81 3d af e5 5c 3d 16 34 8a 3d 66 6e 8c bd
       0.06331388 0.05392998 0.06748216 -0.06856994
000290 c3 e1 c7 3c ad cc 5f 3c 46 e0 30 3d 02 c4 c2 3d
       0.024399644 0.013659638 0.043182634 0.09510042
0002a0 a0 1f 25 bc 9b 1a 51 bc 90 81 ae bd a5 89 5a 3d
       -0.010078341 -0.012762691 -0.08520806 0.053353924
0002b0 77 4f 17 bc 23 63 46 bd c6 90 24 3d d5 04 81 3d
       -0.0092352545 -0.048434388 0.04017713 0.0629975
0002c0 cd c4 3a 3d fc e1 33 3c cf 41 b2 3c 10 b9 a5 3d
       0.04559784 0.010979172 0.021759896 0.080919385
0002d0 b6 d2 a8 bb 9a 5f 1d 3d b7 54 d2 3b 23 40 2a 3d
       -0.005152072 0.03842125 0.00641879 0.04156507
0002e0 92 86 6c bc fd 38 28 bc 15 77 d9 3b 76 fe f5 bd
       -0.014436381 -0.010267493 0.00663651 -0.12011425
0002f0 f1 ca 07 3b ff a8 a3 3d 64 d6 21 3d a6 a7 92 bd
       0.0020720328 0.07991218 0.0395111 -0.07160883
000300 8c 31 2b 3d a1 c7 c1 3c d3 67 70 3d 31 8e 8a bc
       0.0417953 0.02365476 0.058692764 -0.016913505
000310 a5 1c 29 3d 52 c4 c8 3c ff c5 ba 3d fa 3d 93 bd
       0.041287083 0.024507675 0.09119796 -0.071895555
000320 a8 15 d0 bb e4 13 b9 3c 25 b5 8c 3b 53 6a 5e 3d
       -0.006350238 0.022592492 0.004294055 0.054300617
000330 f9 f7 94 3a bd 6b be bc 5d ee c2 bd 2a 0d 78 bd
       0.0011365406 -0.023244733 -0.095181204 -0.06055943
000340 7f e0 30 3e 66 d4 e3 bd f9 0d 1d bc b4 c7 c7 3d
       0.17273138 -0.11124496 -0.009585851 0.09754887
000350 01 98 0f bd d6 61 27 3d 09 df 9e 3c 10 cf 78 bc
       -0.03505707 0.040864788 0.01939346 -0.015186086
000360 e1 30 35 bc eb b1 c6 bc 90 90 19 3c c5 31 84 3d
       -0.011059017 -0.02425476 0.009372845 0.06454805
000370 3d d0 8d 3d 70 36 80 3d 6a 2c c6 bc ff 73 51 3b
       0.06924484 0.06260383 -0.0241911 0.0031960008
000380 16 15 c6 3c 6a 51 e0 bc 35 12 3c 3d fc c2 1a bd
       0.024179976 -0.027382571 0.0459158 -0.037783608
000390 42 57 b5 bb 5b 9e ac 3c 71 b6 20 bd a5 70 69 bc
       -0.0055340836 0.021071604 -0.03923649 -0.014248048
0003a0 eb 95 88 bc 67 82 1b 3d 6d 12 4f 3d c4 8b 2b bd
       -0.016673049 0.03796616 0.05055468 -0.041881338
0003b0 e9 a7 e8 3c 9a 65 35 3d 9c f8 79 bd a4 98 87 3c
       0.028400378 0.044286348 -0.061028108 0.016552277
0003c0 be 1c 43 3d a7 af 8c 3c 12 ac ac bd d2 b3 4a 3d
       0.047634833 0.017173601 -0.08431257 0.049487896
0003d0 c5 57 92 bd 77 0f 3b 3d 4d 62 b1 bc bf d1 a3 bd
       -0.07145647 0.045669045 -0.021653319 -0.0799899
0003e0 05 be e9 bc ee e1 4b 3d e0 67 4f bd fb 57 cd 3b
       -0.028532991 0.04977601 -0.050636172 0.0062665916
0003f0 b1 02 03 3c 75 f1 93 3d ab 21 6d bc c3 23 10 3d
       0.007996247 0.07223789 -0.014473359 0.035190355

network.4.bias f4 [64]
000000 26 3c 0f 3d 9d c4 37 3b 38 3c 8f bb 72 15 2e 3d
       0.03496947 0.0028040775 -0.0043711923 0.04250092
000010 ed e5 05 bc 0d 58 f0 bb 2c c8 f4 3c 0a 60 95 bb
       -0.008172494 -0.007334715 0.029880606 -0.004558568
000020 23 af 79 39 96 a6 c3 3c 6d 23 e8 3b de ae 89 bc
       0.00023811734 0.023883145 0.007084301 -0.016807016
000030 c8 af 0f 3c ed 7f c1 bc 50 21 b0 ba b0 44 27 3d
       0.008769937 -0.02362057 -0.0013437662 0.04083699
000040 b7 00 1a 3d 7c 7d 18 bb 15 8f 26 3d 6a 53 1f 3c
       0.037598338 -0.0023268154 0.040663797 0.009724477
000050 b7 9f 50 3b 99 fd 90 3c a4 7b ed 3c d9 7a b3 3c
       0.0031833479 0.01769905 0.02898962 0.021909164
000060 1a 36 74 bc 0b 02 d7 bc 75 00 5b 3c 1d dc b9 3c
       -0.014905477 -0.026246091 0.013366808 0.022687966
000070 d7 03 0e bd ba fb 0b 3d e6 82 3c 3c 7c f8 fd bc
       -0.03467163 0.034175612 0.011505818 -0.031002276
000080 47 b7 b0 3c ff 52 7f 3c 4f a2 48 bc 45 f9 5f 3d
       0.021571768 0.015583753 -0.012245729 0.05468108
000090 b6 61 b9 bc fb 52 2e 3d 45 30 f1 bc ab 6a c7 bc
       -0.0226296 0.042559605 -0.029441962 -0.024342855
0000a0 9b d6 19 bd 7f f5 02 bc bc 1f 05 3d b0 91 ab bc
       -0.03755818 -0.007993101 0.032500967 -0.020943493
0000b0 19 0d 3c bd e5 30 91 bb 9b 6e be 3c 17 a4 8e bc
       -0.04591093 -0.0044308775 0.0232461 -0.017412229
0000c0 e7 a3 cb bc b4 80 11 3d 84 29 5e 3d cf ca 78 3c
       -0.024858428 0.03552313 0.05423881 0.015185072
0000d0 84 a5 2c bd 83 4f e1 bc 60 ed 74 3c 86 d9 32 3c
       -0.042150036 -0.027503734 0.014949173 0.010916119
0000e0 1c 21 16 3d d5 75 7a 3c d5 58 ae 3c dc 66 06 3b
       0.03665267 0.015286882 0.021282593 0.0020508086
0000f0 7f e8 47 3d 1f 9b 7f 3c 83 27 37 bd a4 4a 55 3b
       0.04880571 0.015600949 -0.044715416 0.003254571

actor.weight f4 [5, 3136]
000000 77 92 0f bc 33 44 ab bc 20 20 28 bd 3e aa 2c bd
       -0.008762947 -0.020906543 -0.04104626 -0.042154543
000010 ab 66 70 bc 7f 34 ba bc 6a 3a f7 3c 84 54 7c 3c
       -0.014672915 -0.02273011 0.030179221 0.0154010095
000020 71 86 c9 3b 3c 3c da 3c 27 63 53 bc 82 ca 94 bc
       0.00615006 0.02664005 -0.012902058 -0.01816297
000030 3c 09 a2 ba 80 cf cc 3b 51 5b 61 3c 23 8b f9 3c
       -0.0012362371 0.006250322 0.013754682 0.030461853
000040 dc ec b9 3c a2 c5 c9 bb c7 9c 62 bb 21 b9 17 3b
       0.022695951 -0.006157593 -0.003457831 0.0023151117
000050 a6 26 c5 bb d6 28 20 3d da cd 08 3d 22 d8 e5 3c
       -0.00601657 0.039101444 0.03339944 0.028057162
000060 fa c5 f1 3c 7b 42 88 3c 15 cd 7a 3c ae ed f3 3b
       0.029513348 0.016633263 0.015307684 0.007444105
000070 ae ab 88 3c 3e 4d 1b 3c 53 f0 61 3c b2 6f 26 39
       0.016683426 0.009478865 0.013790208 0.00015872603
000080 cc ba 35 3a e1 75 f3 ba 11 55 b5 3a f7 c9 8e bc
       0.0006932437 -0.0018574559 0.0013834556 -0.017430289
000090 8b 89 07 3d 85 de 14 3d cc 87 3b 3d 69 77 8c 3c
       0.033090156 0.036345024 0.045783803 0.017146783
0000a0 3a f5 9a bb 85 0f 6d bb 68 6e b4 bb b6 d0 e6 3a
       -0.0047289403 -0.003617258 -0.0055063255 0.0017609808
0000b0 99 78 92 bb d3 58 bf 3c ed 48 14 3c 38 dd c3 3b
       -0.004469943 0.023357784 0.00905059 0.005977299
0000c0 0e b5 54 bc f5 85 3e bd 97 99 20 3c 04 74 1e bd
       -0.01298262 -0.04651447 0.009802244 -0.03868486
0000d0 6c e6 7d bd 66 6b 93 bc cc 3d 20 ba 35 c7 ea bb
       -0.061987326 -0.017995548 -0.0006112724 -0.0071648606
0000e0 46 dc 83 3b 88 d6 9e 3c 73 49 cd 3b bb 37 fb 3c
       0.0040240614 0.019389406 0.0062648593 0.030666223
0000f0 f9 9e ee 3b 9d 72 5d bc 18 9f 53 bc b9 a7 ae 3c
       0.0072821346 -0.0135160955 -0.012916349 0.02132021
000100 e2 67 04 3d 7e 44 cd 3c 56 6e c0 3c 39 9c b7 3c
       0.032325633 0.025057074 0.023490112 0.02241336
000110 5a e3 90 3c e1 9d 83 3c 3d 64 3d 3d f6 07 d5 3c
       0.017686535 0.016066493 0.046238173 0.026004773
000120 5a 83 b7 3c 65 0e da 3c 47 29 ad 3c 12 a4 9d 3c
       0.0224015 0.026618192 0.021137847 0.019243274
000130 a4 b0 19 3d 05 48 b8 bb 92 6d b7 bc 95 b3 c0 3b
       0.037521973 -0.00562382 -0.022391114 0.005880783
000140 c6 24 58 3b f7 e1 5d 3c 0f 21 1d bb cf 11 3b 3c
       0.0032980903 0.013542644 -0.0023976003 0.01141782
000150 40 f4 77 3d 3c 45 f9 3c eb e4 d6 bc 8f cc 7c b9
       0.06053567 0.030428521 -0.026232203 -0.00024108797
000160 cd d1 1a 3b bb 23 bd 3b e9 c2 69 bb 8c e5 69 bb
       0.0023623586 0.0057720817 -0.0035669154 -0.00356898
000170 c5 88 19 bc de fa 84 bb 20 d0 e2 ba 75 aa 4c 3c
       -0.009370987 -0.004058226 -0.0017304458 0.012491812
000180 dc 8a 83 3c f0 6a 78 3c be b7 9f 3b ed 1c 2d ba
       0.016057424 0.015162215 0.0048741987 -0.00066037365
000190 aa a2 33 bb 49 cb 45 3c 23 15 ac 3a aa ce a7 3c
       -0.0027410188 0.012072393 0.0013128858 0.020484287
0001a0 82 5a 83 bb 50 f3 72 3c 10 17 85 3c f8 81 27 3c
       -0.004008592 0.014828518 0.016246349 0.010223858
0001b0 73 e0 22 3c 32 e1 56 3c b0 0d 77 3b 51 9b 39 bb
       0.009941208 0.013115214 0.0037697367 -0.0028321336
0001c0 25 bb c8 3b e8 8f a1 bb 5e ac a4 bc 70 a4 06 bc
       0.006125825 -0.004930485 -0.020101722 -0.008217916
0001d0 bf 64 61 3c ec b6 04 bc 91 9d 12 bc be 37 16 3c
       0.01375693 -0.008100253 -0.0089487 0.009168563
0001e0 5f 1a bc 3b 4e 01 17 bb 20 e9 03 bd cf df 47 bc
       0.0057404484 -0.002304155 -0.032204747 -0.012199356
0001f0 1a 51 14 bc 67 b1 03 3c a3 4c ee bb 6c 4a e5 ba
       -0.009052539 0.0080379015 -0.0072723194 -0.0017493493
000200 18 44 b6 3b f4 82 ef 3b 07 6d 32 ba 1f bb 62 bb
       0.0055623166 0.007309312 -0.00068064075 -0.0034596396
000210 e6 b6 67 b9 63 74 85 bb 1a 63 28 bc 95 d1 de ba
       -0.00022098012 -0.0040727123 -0.010277534 -0.0016999716
000220 ed 42 f2 3b c5 be 84 3c d6 5b 0a bc 38 c0 7e bb
       0.007393232 0.016204247 -0.008444747 -0.0038871896
000230 88 f1 80 3c 87 11 5d 3c 4f 45 0d 3c 73 d5 cb ba
       0.015740171 0.013492948 0.0086224815 -0.0015551284
000240 70 37 17 bc 9b cb 0c bc 8d 3e fa bb ab 67 6a 3c
       -0.009229526 -0.008593465 -0.007636851 0.014306943
000250 ff 89 55 bc bf aa 2d ba 9d df b1 3b a9 90 2f 3c
       -0.013033389 -0.00066248694 0.005428268 0.010715642
000260 ee 14 70 3c 4b e0 b8 ba 6d f9 cc 3b 59 4a 92 3c
       0.0146534275 -0.001410493 0.00625532 0.017857717
000270 dc db 1b 3b a0 55 95 3b ea 6c 00 3b e8 ed 30 3c
       0.002378217 0.0045573264 0.0019596168 0.010798909
000280 7b d7 1d bc 57 09 5a 3c 4c 07 98 3c fc de 85 3b
       -0.009633894 0.013307891 0.018558167 0.0040854197
000290 6c d0 5b 3c 17 7f be 3b 2f af 69 bb fb cc 15 bb
       0.013416391 0.00581349 -0.0035657396 -0.0022857774
0002a0 39 a9 18 3d 67 70 27 3d 64 e4 a1 3c ad f7 20 3b
       0.03727076 0.04087868 0.019762225 0.0024561689
0002b0 bf 4f 54 3c 39 bd 09 3c 67 8c 72 3c 9a 71 90 3c
       0.012958466 0.008406931 0.014803982 0.017632294
0002c0 05 2b cc 3a c1 a0 bc 3a 76 50 c8 bb 55 67 8f 3b
       0.0015576786 0.001439117 -0.0061131073 0.004376332
0002d0 1b 57 e3 3a fa ec b8 3a 1c a8 dc 3c 12 45 2e 3c
       0.0017344685 0.001410871 0.02693563 0.010636585
0002e0 07 c6 8e 3b 2f 67 6b bb 6e 49 67 bb 3d b1 81 3b
       0.004357103 -0.0035919657 -0.003529157 0.003957896
0002f0 99 a6 c8 bb 6f c0 b7 3c 99 5e 5a 3c 5f 83 02 3d
       -0.0061233756 0.022430627 0.013328218 0.031863566
000300 83 a5 46 3c f4 f0 1c 3b 6a e8 40 bc 3e a5 38 bc
       0.012124422 0.002394733 -0.011774162 -0.011269866
000310 1e f3 0e bc df 23 d3 bb eb e0 01 bd 16 f2 9e bc
       -0.008724956 -0.006443485 -0.03170864 -0.019402545
000320 a7 b7 09 bb 18 b6 12 3b 20 30 5d 3b 4b 44 b3 bb
       -0.0021014006 0.0022386368 0.0033750609 -0.0054707876
000330 90 b7 7a 3b 3b 51 a2 3c b3 30 18 bc c5 67 af bb
       0.0038256384 0.019814124 -0.009288955 -0.0053529465
000340 6d f3 e9 3b fd c8 7e bc d9 8c fe 3c 18 85 75 3c
       0.0071396143 -0.015550849 0.03107302 0.014985345
000350 2d 31 fa 3b 2c c2 01 bb 34 96 af bc 93 0a f5 3c
       0.0076352567 -0.0019799573 -0.021433927 0.029912269
000360 0a 44 c5 3c d2 24 c9 3c 3a 4b 83 3c 9f bb 1a 3c
       0.024080295 0.02455369 0.016027082 0.009444146
000370 75 cd 34 bb 52 40 04 3d eb 4f 4d 3b 88 c3 f4 ba
       -0.0027588282 0.032287903 0.0031328152 -0.0018673996
000380 2d 73 b7 3b b6 08 25 3c 90 20 8b 3b e6 b7 6d ba
       0.005598447 0.010072878 0.004245825 -0.00090682355
000390 68 24 58 bb 14 c6 bb bc 04 eb 09 bc d8 44 0b bc
       -0.0032980684 -0.0229216 -0.0084178485 -0.0085003
0003a0 7b cd 00 3d 9b 5c 33 3c 37 93 f4 bc a9 67 b0 3c
       0.03144596 0.010947372 -0.029855354 0.021533804
0003b0 c4 fd 0f bb bc bb 8c bc ff c2 2b bc 6e ea 76 3c
       -0.0021971324 -0.017179362 -0.010483502 0.015070541
0003c0 a9 67 07 3d 75 3b 3c 3d 57 33 b1 3c b4 b1 40 bb
       0.033057842 0.04595514 0.021630926 -0.0029402794
0003d0 8e 6e f5 3b 6b d7 69 3b e8 9f 4e bb 36 86 02 bc
       0.007489986 0.0035681378 -0.0031528417 -0.007966569
0003e0 09 10 4b 3b e9 75 c7 3c e5 e4 26 3c 38 ea 07 bc
       0.00309849 0.024348216 0.010186409 -0.008295588
0003f0 94 b7 03 3c bc 26 86 bc 54 21 ec bc e0 d6 c4 bb
       0.008039374 -0.016375892 -0.028824486 -0.0060070604

actor.bias f4 [5]
000000 fb 16 b5 bb 07 19 98 3b 89 34 d3 3b 29 1f da 3b
       -0.005526421 0.0046416554 0.0064454717 0.0066565466
000010 10 fa 99 3b
       0.004698999

critic.weight f4 [1, 3136]
000000 39 cd 9f bc 53 e7 bf 3d 79 81 a1 3d 51 0e d2 3d
       -0.019507037 0.093702935 0.07886023 0.10256637
000010 d5 aa 52 3d 01 5b 70 3b c6 7d 39 bb e7 37 da bd
       0.05143245 0.0036675336 -0.0028303727 -0.10655194
000020 7f 22 1b bd ba 97 c4 3c ee 88 50 3d 1c cb 9f bd
       -0.037874695 0.02399813 0.050911836 -0.07802412
000030 5a da eb bc 25 4e e8 3a 71 97 0d bd e4 f3 45 3d
       -0.028790642 0.0017723484 -0.034568254 0.048328295
000040 e8 c1 ed 3a e5 28 62 3d fe f2 13 3d fe 90 5f bd
       0.0018139454 0.05521478 0.036120407 -0.054581635
000050 f6 45 ae 3c 91 bf e9 bc c7 23 83 3c b9 ff 74 3c
       0.021273594 -0.028533729 0.01600827 0.014953547
000060 0b b3 e6 3c f7 8b 16 bd 63 6a e0 bc 96 87 d8 3c
       0.028161546 -0.036754575 -0.02739448 0.02643184
000070 ed be ab 3c 4c d0 c5 3b 23 b9 bc 3c 5e 05 49 3d
       0.020965064 0.006036794 0.023037499 0.049077384
000080 b7 be 29 3c 4a 12 58 bc ed 51 c3 bb a2 44 18 ba
       0.010360411 -0.013187954 -0.005960694 -0.0005808567
000090 f5 3e c8 bc 1f 39 d9 3c b2 fb ee bc cb bc 0a bd
       -0.024444083 0.026516495 -0.029172752 -0.033871453
0000a0 30 ca e9 3c f0 b7 68 3d 00 80 94 bc a7 82 90 bc
       0.028538793 0.05681604 -0.018127441 -0.017640425
0000b0 49 42 44 bd ff 5c bf 3c 51 43 5e bd 96 4a 9f 3b
       -0.047914777 0.023359774 -0.054263417 0.0048611863
0000c0 4a 7d 18 3d 6e df 72 bd 1f 79 d1 bd 73 0d 04 3d
       0.03722886 -0.05929511 -0.1022818 0.03223939
0000d0 6d b0 fc 3d 28 39 b3 3d 84 22 81 3d e5 dd 64 3d
       0.12338338 0.08751136 0.063054115 0.055875678
0000e0 0f 52 41 3d 2d 14 b1 bc d8 f5 97 bd 4f dd 99 bd
       0.047197398 -0.021616066 -0.07419938 -0.075129144
0000f0 8f 56 f0 3c 58 a4 f8 3c 35 0a 51 3b e7 d4 02 bd
       0.02933815 0.030351803 0.0031896953 -0.03194132
000100 40 63 6d 3c 31 11 01 3d ac b4 23 3c 5c 64 15 3d
       0.014488995 0.031510536 0.009991806 0.036472663
000110 b4 e0 03 bd 38 46 73 39 53 51 1c 3d ac 01 cb bc
       -0.032196715 0.00023200444 0.038163494 -0.02478107
000120 06 3e b3 bd 5d b9 09 3e ca af 8a 3d 49 73 e7 bc
       -0.087520644 0.13449617 0.0677181 -0.028253214
000130 4a 37 03 3c 96 7d b3 bc df c2 44 bc 6b 14 c4 3a
       0.008008787 -0.02191047 -0.0120093515 0.0014959698
000140 ce bb 3b bc 92 6f 0d 3a 41 0e e8 3b 07 37 9c 3c
       -0.01145835 0.00053953484 0.0070817773 0.019069208
000150 57 9a 23 bd 63 14 34 bd a9 74 55 bd 65 1e 75 bc
       -0.03994211 -0.043964755 -0.05211321 -0.01496086
000160 00 8b 18 bd ac 4c 20 bd 41 01 8e bb 7f 87 2f 3d
       -0.037241936 -0.03913562 -0.0043336456 0.04285383
000170 b5 df 9d 3d 36 b6 a6 3d 23 6c 8a 3d 31 00 2b 3d
       0.07708684 0.08140223 0.06758907 0.04174823
000180 00 8d a6 3d 93 9e 92 3b 3b a2 47 3d d5 4e 80 3c
       0.08132362 0.00447447 0.0487387 0.01566259
000190 b8 00 7c bc c9 8a ad bc 82 35 0e bd 3e f7 e8 3b
       -0.015381031 -0.021184342 -0.034718998 0.0071095517
0001a0 09 e6 1e bd a9 30 68 3d 13 e2 01 bb 27 f1 b3 bc
       -0.038793597 0.05668703 -0.0019818589 -0.021965576
0001b0 8d 4f 76 bd 69 50 92 bc 31 f2 4c bc 54 24 08 3d
       -0.06013446 -0.017860608 -0.012508915 0.03323777
0001c0 50 24 9b 3d 4b 2d 86 3d 1d 15 14 3d ec dc 53 bc
       0.075752854 0.06551608 0.036152948 -0.01293109
0001d0 4c 18 ff 3c 42 16 c6 3d 91 90 b9 bc 36 1d 15 3c
       0.031139515 0.09672214 -0.022651942 0.009101203
0001e0 9f 17 a1 3b 10 fc ae 3c eb 5a cf 3c b3 f0 57 3d
       0.004916146 0.021360427 0.025311908 0.052719783
0001f0 2c c6 bc 3d ae b6 6e 3d 6e 14 a6 3c 91 2d 39 3d
       0.09217486 0.058279686 0.020273414 0.04520947
000200 a0 72 18 3d 7e f9 b8 3d a4 b7 9d 3d 8c ed 7c 3d
       0.03721869 0.09031962 0.07701042 0.06174998
000210 bf 31 b2 3d 3b ab a1 3c 56 f2 85 3c 49 b5 8f 3d
       0.087008946 0.01973497 0.016350906 0.07016999
000220 39 ae a5 bb d4 dd 85 3d b3 2b 98 3c db b2 ae 3a
       -0.0050561693 0.06536451 0.018575525 0.001332845
000230 29 48 08 bd fd 6f 5d bd ad 9d 25 bd 81 37 c4 bd
       -0.033271942 -0.05406188 -0.040433574 -0.09580899
000240 0f f3 11 bd ed 87 00 bc 3c 6d 09 3c a6 b0 59 3d
       -0.03563219 -0.007844907 0.00838786 0.05314698
000250 49 55 90 bb 00 74 66 bc 81 fa 34 bd 49 57 88 bb
       -0.004404698 -0.0140657425 -0.04418421 -0.004160796
000260 0a 21 b3 bc 03 00 cd bc 7f 24 eb bc b5 5c e3 3b
       -0.02186634 -0.02502442 -0.028703926 0.006938542
000270 27 2d 84 3c 1d 00 af bc 61 a3 58 bd 4e 41 56 3c
       0.016134812 -0.021362359 -0.052890185 0.013077093
000280 2c 74 94 bc 46 5f 1b 3c b3 40 b4 3d 7c e6 27 3d
       -0.018121801 0.009483164 0.08801403 0.04099129
000290 ba 39 22 bd 25 83 6e bd a3 0a f3 bb 80 8b f0 bb
       -0.039605834 -0.058230538 -0.0074170395 -0.0073408484
0002a0 d9 38 a2 3d b4 12 8c 3b 81 a0 32 bd 5d 4b a7 3b
       0.07920999 0.0042746905 -0.0436101 0.0051054196
0002b0 76 8f b1 ba 98 48 29 bc 95 15 ca 3d 9f b6 0c bd
       -0.0013546783 -0.010332249 0.09867398 -0.03435385
0002c0 37 84 04 bd 7f 31 bf 3a ca 41 c6 3c f4 b2 3c 3d
       -0.032352652 0.0014586895 0.024201293 0.0460691
0002d0 6b 4a 1e 3d 39 44 b5 3d 55 cf be ba a9 38 8b 3d
       0.03864519 0.08850903 -0.0014557639 0.067979164
0002e0 bf 01 42 3d 41 9a 43 3c d5 22 a4 3c af f0 15 3d
       0.047364946 0.0119386325 0.02003614 0.036606487
0002f0 13 1c c0 3c 10 34 bc bc 5a b6 65 ba 33 15 5d ba
       0.023450887 -0.022974044 -0.0008762829 -0.000843364
000300 ff 4e 49 bd a7 da 8b 3c 79 8c 58 b8 d0 a5 ec 3b
       -0.049147602 0.017072035 -5.162924e-05 0.007221915
000310 b0 0d 24 bd df 90 84 3d e7 97 a7 3d e3 e7 28 3d
       -0.040052116 0.064729445 0.0818327 0.04123677
000320 f5 80 24 bd 8d d2 1a bc 2f 90 26 3d a3 fe b3 bd
       -0.040162046 -0.009449613 0.040664848 -0.087888025
000330 aa 5a 2c bc 09 e2 5f 3d c9 ef a3 bc 9a 92 81 bd
       -0.010519663 0.054658923 -0.0200118 -0.0632679
000340 a6 a5 55 3d 7b ca 5c bc d9 ba 01 3d 83 d0 8c 3d
       0.052159928 -0.0134760095 0.031672332 0.06875708
000350 ab 20 03 bd 90 88 3b 3d 41 20 79 3c 0d 39 c9 bd
       -0.032013576 0.045784533 0.015205444 -0.09825335
000360 fc 4c 6d 3c 68 b0 64 bc c8 7a 9f bc 94 f0 4c 3d
       0.014483687 -0.013958074 -0.019467726 0.05003412
000370 69 b3 50 3d 4a 35 68 bd 24 d0 ff 3b 71 34 ed 3d
       0.05095235 -0.056691445 0.0078067947 0.11582268
000380 a9 bf 20 bc 10 06 5b 3d a7 37 a6 3c d4 61 07 bd
       -0.00981132 0.05347258 0.020290209 -0.03305228
000390 c7 12 a9 bc b4 5f 45 bd 2e ae 80 3d 01 f0 50 bd
       -0.020638837 -0.048186973 0.06283222 -0.051010136
0003a0 28 2b 0b 3d 28 65 86 bc 22 2b 38 bd 3c 20 00 bd
       0.033976704 -0.016405657 -0.04496301 -0.03128074
0003b0 ba 4c bb bc 05 b0 47 bd 8d a4 30 bd 36 39 52 bd
       -0.022863735 -0.04875185 -0.043125678 -0.05132409
0003c0 d6 61 dc 3c b7 6d a0 3b cc 8b ec bc 55 67 5b 3d
       0.02690212 0.0048958915 -0.028875254 0.053565342
0003d0 22 c4 8e bd 58 42 32 3d e4 4a b9 3c ac db 86 3d
       -0.06971003 0.0435203 0.022618718 0.06584868
0003e0 74 53 91 3d 79 4e 85 3b 93 b9 69 3b 65 91 f4 bb
       0.070959955 0.0040681926 0.003566359 -0.0074636214
0003f0 26 ac 43 bc 61 31 2d 3d 7c 55 87 3c ff a6 ed 3c
       -0.011942899 0.04228342 0.016520254 0.029010294
