PARALLEL/models/PRED_GROUP_POLICY_BOTH_INDIV_RWD_ROUND2bis_1300.ckpt (torch, 307496 bytes, 9 tensors)

network.0.weight f4 [32, 5, 3, 3]
00000000: 0399 cd3d 7def ab3d 1553 1fbd 5547 dbbd
00000010: 6b04 65bc 25ef b7bd ac2e 783d 5710 63bd
00000020: 7e4a 14be 951a 103a 6a85 2f3e b5a3 613e
00000030: bc17 1e3e 679a 033e 4a9d e1bc b0ca 383e
00000040: a261 d0bd f11d 783e 5d8a 73be ffd4 6bbd
00000050: 515f 66bd 9208 afbd d420 50bc 1dee bf3d
00000060: b513 c5bb 060f 083d ca8a 953c dd2e a43d
00000070: a1c0 e93d 7d63 07be f1f5 263d 6706 423e
00000080: 0f21 d53d f278 123e b477 1dbd b6d7 c33d
00000090: ad0c 03bd 0464 cc3d 7a3f abbd da7f ea3d
000000a0: 18ad 053e aeee f73d dc27 efbd 5455 823d
000000b0: 875a 03be 8337 d63d 26ae 8ebd b658 833d
000000c0: fdd6 b33d 5826 873d 5ade 943d 8b11 953d
000000d0: 44a1 cf3d d97e ca3d ffb5 87be d618 f0bd
000000e0: dbb1 a2bd 8d30 7abe 1c41 12be 389e d4bd
000000f0: ebe5 6ebd 522c 373c c77c 97bd 666d 14bd
00000100: 5ee7 6d3d 71c8 1ebe dd4c 583d a2c1 d53d
00000110: 154d ccbd 855a 153e 80c7 0f3e f83f db3c
00000120: 7e41 fb3d 0344 a1bd e557 66be 525f 2d3e
00000130: e67a dc3c cbf6 55bd 68fb 08be dc01 9bbe
00000140: 565b 2ebe b340 003c c60a e03d ab67 6dbd
00000150: ea11 bbba 9cae aa3d f5c3 e33d 44bb 893d
00000160: d8e0 bcbd 017c 723d bed1 04be cfec 2abc
00000170: e9cb be3d 7b43 f33d b0e4 f3bd 47c4 913d
00000180: fd14 af3b 6733 80bd c496 cdbd 3fbb 5abc
00000190: 7134 acbd 5f44 2b3d a58b bcbd d431 803c
000001a0: c32c ab3e 608b 85bd eaaf 9bba 1c87 a63e
000001b0: d1a2 ccbc 6ba8 3ebc d58b 813d 27c7 ec3d
000001c0: e56a 943d b997 52be a1c4 993d 5407 8a3c
000001d0: 65e9 c63c dedc 12bd 0f76 243e 1d9d 2ebd
000001e0: 2f8e e4ba 3e08 6cbc 4328 efbc 467b 06be
000001f0: a39d 6d3d 72b5 92bd 1fee b9bd f9bc 333e
00000200: 722f aa3d 8065 653d cc3a 403d cfe2 b53d
00000210: 872f b53d 7824 bebd 10f0 233e 643d bb3d
00000220: 4073 07bc b653 673d 21f0 e03d 7b27 083e
00000230: 237c 68bd 5f3e b1bc 2ce0 a2bc 84e1 f63c
00000240: a4c8 d33d 65f6 c23d ff6c 513e f347 363d
00000250: 4ab3 063e a9fb a53d 1791 08bd bb42 8f3d
00000260: 378f 8ebc d2f2 5a3b 634a a7bd 4d76 dc3b
00000270: cbc8 173e 5500 983d 9b29 30be 2b7e 9dbd
00000280: 28c4 a7bd b2a0 0abe 8c1d b6bc c2da 57be
00000290: 9661 d5bd dc1e 02be cca8 d0be 305d 2ebd
000002a0: 3273 7cbe d9cd afbe d9e8 673c bc2f 1d3d
000002b0: 36d0 143d d3bf dcbc be66 fd3b 36fb af3c
000002c0: a489 f5bc 5c3b 6abd bf94 22bb 0922 9b3c
000002d0: cc2f d23b 8f2e edb7 1283 92bc 2a37 533c
000002e0: b07c 74bd 925e 063e ae0b ab3d a2ea 453d
000002f0: b843 1fbd 6282 f83d 366d 183e b5f7 4d3c
00000300: 0652 863e 7d61 0f3e 5aee 603e 45e8 de3d
00000310: 5981 773e 298c 273e 2661 a3bd 886f d0bd
00000320: b22f c2bd 70d1 f7bd ffc5 a7bd 697f e3bc
00000330: 6f57 fabd 31ac 41bd e82b f9bd e396 5bbd
00000340: 5e46 313e 4870 8a3d fb65 033e 6fe1 003e
00000350: 4599 823c 359e 2b3e 2e71 5e3e 9f9f d13d
00000360: 5776 563d 29d8 e7bd 88c6 cd3d d4b0 143e
00000370: 7801 d4bd f7c3 81bd 11be bebd c01c 2d3d
00000380: a427 9cbd a878 5bbc e88d 28bd 4d8a 0a3e
00000390: b81d 793d 0a28 3e3d 0402 b13a d6c6 b83d
000003a0: dd41 debc eabd abbd 2fba 013e 50f5 383e
000003b0: 1a0b f73d a3f2 7e3e f508 333e dbe6 e0bc
000003c0: 47cf 55be fd5d 0d3d 76c8 cdbb 1b80 3a3d
000003d0: 9fd0 37be a8f3 4dbd 3165 77bd aef8 d7bd
000003e0: c47f 25bc a6ee 453e 1c78 b7bc 4389 0fbd
000003f0: c3c9 f13d 2389 4a3e d401 b6bd e546 223e
0.1003895 0.08395288 -0.038897593 -0.10706965 -0.013978104 -0.0898116 0.060591385 -0.055435505
-0.14481542 0.0005497125 0.17140737 0.22035106 0.15438741 0.12851869 -0.027540822 0.18046069
-0.10174872 0.24230172 -0.2378325 -0.057576176 -0.056243245 -0.085465565 -0.012703139 0.093715884
-0.006014312 0.033217452 0.018254656 0.08016751 0.11413694 -0.13221546 0.04076189 0.18947755
0.10406696 0.1430395 -0.038444236 0.09562628 -0.03199451 0.09980014 -0.083617166 0.11450167
0.13054311 0.121060714 -0.116775244 0.06363931 -0.12827502 0.10459807 -0.0696681 0.06413405
0.0878124 0.0659911 0.07268973 0.07278737 0.10138181 0.098874755 -0.2650604 -0.11723487
-0.079440795 -0.24432583 -0.1428265 -0.1038174 -0.058324736 0.01118 -0.07396846 -0.036237143
0.058081977 -0.1550615 0.052807678 0.10437323 -0.0997564 0.14585312 0.14040947 0.026763901
0.12268351 -0.078743 -0.22494467 0.16930893 0.026914071 -0.052237313 -0.13377154 -0.30274856
-0.1702703 0.0078279255 0.10939555 -0.057960194 -0.0014272307 0.08334085 0.1112136 0.06725171
-0.09222573 0.05920029 -0.12970635 -0.010432436 0.093162365 0.11878105 -0.11908853 0.07117515
0.005343078 -0.06259804 -0.10038522 -0.013350307 -0.0840844 0.04181325 -0.092063226 0.01564876
0.33432588 -0.06520724 -0.0011877988 0.32524955 -0.02497998 -0.011636834 0.06325499 0.11561423
0.07246951 -0.2056569 0.07508207 0.016849197 0.024281213 -0.035855167 0.16060661 -0.042630304
-0.0017437394 -0.014406262 -0.029194003 -0.13132963 0.058011662 -0.07163514 -0.09078621 0.17552556
0.08309831 0.056005 0.046931073 0.08881151 0.08846956 -0.092842996 0.16009545 0.09142569
-0.008267224 0.056476317 0.10983301 0.1329631 -0.05675901 -0.021636186 -0.019882284 0.030136831
0.103410035 0.09519652 0.20451735 0.04450221 0.13154331 0.08104641 -0.033341493 0.0699515
-0.017402275 0.0033408892 -0.08168485 0.0067279697 0.1482269 0.07421938 -0.17203371 -0.0769008
-0.08191711 -0.13537863 -0.022230886 -0.21079543 -0.10419004 -0.12707084 -0.40753782 -0.04256934
-0.24653319 -0.34336737 0.014154636 0.0383756 0.036331378 -0.026946938 0.007733195 0.021482091
-0.029972859 -0.057185516 -0.0024807898 0.018937128 0.0064143892 -2.8274282e-05 -0.017884765 0.01289157
-0.059689224 0.13122013 0.08351837 0.048319466 -0.03888294 0.121342435 0.1488541 0.012571265
0.26234454 0.14002033 0.21965924 0.10884146 0.24170436 0.1636206 -0.07977514 -0.10177523
-0.094817534 -0.12100494 -0.08192062 -0.027770715 -0.12223708 -0.047283355 -0.121665776 -0.053610694
0.17311999 0.06759697 0.12831871 0.12585996 0.015942225 0.1675957 0.21722862 0.102355234
0.05235895 -0.11320526 0.100476325 0.1452058 -0.10351843 -0.063362055 -0.09313596 0.042263746
-0.07624748 -0.013395466 -0.041150957 0.1352932 0.060819358 0.046424903 0.0013504629 0.090223
-0.027131015 -0.083858326 0.1266868 0.1806233 0.12062664 0.24897246 0.17483886 -0.02745383
-0.20879851 0.034513462 -0.0062800003 0.045532327 -0.17950676 -0.050281197 -0.060399238 -0.10545479
-0.0101012625 0.19329318 -0.02239614 -0.035043012 0.11806061 0.19778876 -0.088870674 0.15847357

network.0.bias f4 [32]
00000000: e293 8d3d 866e 74bc ef00 bd3a 94d1 853d
00000010: 41a4 bebd 91af 03be a129 b1bd 8443 4c3a
00000020: 8537 b23d 7248 033d 3055 1a3c d12a 03bd
00000030: d0b3 bbbd 6362 be3c e70e 97bd a372 3cbd
00000040: 1e1b 01be 3fee 5f3b 9746 cebd dbf6 4d3c
00000050: 1861 2c3c 3a77 23bd 3bd8 0e3e 3ef3 e73d
00000060: ef00 12bc 76f6 cd3c 1650 143e bbd4 503c
00000070: cd51 053e 8528 04be 81e5 843d c0db 893d
0.06912972 -0.014918929 0.0014419834 0.065341145 -0.09308673 -0.12859942 -0.08650518 0.0007792043
0.08701996 0.03205151 0.009419724 -0.032023255 -0.09165156 0.023240274 -0.07375889 -0.046007764
-0.12608 0.0034169105 -0.10072058 0.012571062 0.010521196 -0.039908625 0.13949673 0.11325692
-0.008911355 0.025141936 0.14483675 0.012746031 0.13019486 -0.12906082 0.06489087 0.06731367

network.2.weight f4 [64, 32, 3, 3]
00000000: d33b d43c d8f7 85bc 3071 d43c 93be 9b3a
00000010: 2304 b5bc 0898 913d 8c06 2fbc 8206 9abc
00000020: 7348 3a3d 01f3 9abd 6e83 b6bd 1c55 443d
00000030: c068 1cbe a1a8 ddbc 667b ddbc 8141 10bd
00000040: 94b2 bcbd dd3b 943c 21d6 a33d 381b dcbc
00000050: 29d2 683d f387 db3c 2331 a13d 10be ecbc
00000060: b963 44bd e44e c5bd d125 95bd a2b6 4fbd
00000070: 996f e1bd aa60 5bbb 1344 6a3b 7606 3cbe
00000080: dc68 cf3a 6c52 85bd a664 f9bd 2fbf c83d
00000090: fc9b 193d ff22 923b 79b4 7d3d 41d4 6e3d
000000a0: 0ab1 ff3d 7aac c33c 1403 733d 7d4e d73d
000000b0: 41b1 1c3d b50c 97bd aa5f 803d 05b9 93bc
000000c0: e55a 2bbd ce99 713d 5a5b 533d 589b 7d3d
000000d0: 87c7 033e 2213 c93d c57a ae3d 4e1c 743d
000000e0: e613 7f3d 183a 8b3d fe4b 923c 99fd 8e3d
000000f0: 31ab 4dbd 7aba 97bd 3431 04be 8aec 53bc
00000100: 9f6a b43d d088 f3bd 9fb2 4b3c 40ab c63d
00000110: 94bf 8fbc 5dfb 2d3d e9c0 8f3d 9615 db3d
00000120: ef98 f73b c9b5 dc3c 1380 b43b bae5 e23d
00000130: 307c 803d b1c5 f63d 781b 2b3d cd8c a7bc
00000140: e7b5 423d f4f9 afbd acb1 a73c 5a1d 90bc
00000150: 9ff2 89bd 9d5e 76bc c3c7 e7bc 0559 a03c
00000160: 52f3 17be 9b59 2a3d c83b ea3c 75c9 013d
00000170: 544a c9bd 1ff0 433d e75f 80bd eec2 04be
00000180: c683 c53d 44ea 703d cde5 adbc c78b 8fbd
00000190: 783b 073d 6326 cb3c 8892 14be 50d5 b6bd
000001a0: 0902 b2bc 6216 ecbd 8a41 ebbd 5532 d4bd
000001b0: 5539 23bd 59bc 203d 0658 15bd 4dc3 0dbd
000001c0: b72a 98bc c074 4cbc 8e38 1cbe ef32 1bbe
000001d0: 3ab3 a4bd eb89 d6bc e4f9 623d 9952 673d
000001e0: 6aef 5bbd ddcb 30bd 5cb5 7ebd 99e7 4ebd
000001f0: 67f3 94bd 6d0e 2c3d 9e42 af3c 59a1 0c3d
00000200: bdcd 3d3d 5604 f9bc 58bb c43c af7d c83d
00000210: 43ee b83d 8537 c33c 0adc 8c3d 964e 8c3d
00000220: 83e1 873d 4db5 1a3e 1803 5dbc 5c31 70bd
00000230: 8ca2 193e f5fe 0fbe b56a b8bd 4246 8cbd
00000240: 2ace 6abc c16e 0a3c ddd4 d63d 7811 6e3d
00000250: f930 863c ca68 df3d 9d26 de3d dd61 35bc
00000260: 9458 92bb 7906 d3bd bfd8 103d b81b 6cbd
00000270: 27de 7dbd e1c8 a6bd b70e aebd 128a e03a
00000280: 5758 a2bd 2180 1bbd f978 a93d c973 ad3c
00000290: f8cf 1b3d fc7c e13d d87c 2ebc 0cf1 e63d
000002a0: b9b3 03bd a82d 893c eb5c 00be 1811 333c
000002b0: 38bf cabc f573 9bbd 79fa 59bd c6a1 e3bc
000002c0: 1718 553d 71ab 563b 0ff9 32bb 3e99 a63c
000002d0: 1139 22be 324e d2bd 75db 30bd dc9a c5ba
000002e0: ff2e e4bd 882f 14bc a688 aebd 8c1c 17be
000002f0: 822a 94bd 6309 dcbd 671a 10be 8f4f 26bd
00000300: 33a6 693d 11a1 9a3d 01a5 60bd c0b1 f33d
00000310: 8fbb c63d 3558 563c ea04 13bd 7af4 40bd
00000320: 74ac a4bb eb7d adbd 5497 bd3c 5c6c 5dbd
00000330: 5a0d 0dbe b7e5 90bd e4c2 8fbc 5a13 dabd
00000340: 3a97 bc3c bc4c cb3d db15 0bbe 8588 8abd
00000350: d3b1 99bd e28b e1bd 3eb8 a3bd e948 07be
00000360: 9e8c 0dbe 8e11 6fbd d3f4 b5bd bf12 2f3d
00000370: 8cd5 0ebd e3fa 2ebd 5e0c 073d afe1 c1bd
00000380: d36b ae3c 4ef5 4eba 7ec9 813b dcc0 20bd
00000390: 6fc0 2cbd 9eb3 823d 335f 8c3b 14b3 efbd
000003a0: 3282 0ebd 2ff7 8cbd 452d 2dbd 5caf 8cbc
000003b0: 21b5 eebd af48 a5bc e9fd 9ebd caef 9cbd
000003c0: c589 bbbd be06 33bc 90bc eaba 522e bd3d
000003d0: 0abd 85bd e68c 3ebd c5dd c23d 9c83 cc3c
000003e0: be4e 8e3d 93df 8a3d e928 143d 2763 60bb
000003f0: 3103 883c 6cd4 df3c d528 443d c2dd 483c
0.025907433 -0.016353533 0.025932878 0.0011882357 -0.0220967 0.07109076 -0.010682713 -0.018801931
0.04547925 -0.075658806 -0.08911787 0.04793273 -0.15274334 -0.027057948 -0.02703638 -0.03521872
-0.092137486 0.018094951 0.07999826 -0.026868448 0.05684105 0.026798224 0.078707 -0.028899223
-0.047946665 -0.09634188 -0.072826035 -0.05071128 -0.11007614 -0.0033474364 0.0035746142 -0.1836184
0.0015824097 -0.06509861 -0.121774 0.098020904 0.037502274 0.0044597383 0.06193969 0.05830789
0.124849394 0.023885954 0.059329107 0.10513017 0.03825498 -0.073754705 0.062682465 -0.01803256
-0.04183473 0.05898457 0.05160079 0.061915725 0.12869082 0.098181024 0.0851951 0.059597306
0.062274836 0.0679819 0.017858502 0.06981964 -0.05021209 -0.074086145 -0.12909395 -0.012934813
0.08809399 -0.11891329 0.012432723 0.09700632 -0.017547406 0.042476047 0.070192166 0.106974766
0.007556073 0.02694215 0.0055084317 0.11078973 0.06273687 0.120494254 0.041774243 -0.020452881
0.047536757 -0.08592597 0.020470463 -0.01759212 -0.067357294 -0.015037206 -0.028293496 0.019573698
-0.14838913 0.04158936 0.028592959 0.031686265 -0.0982863 0.04783642 -0.06268292 -0.12964985
0.096442744 0.058817163 -0.021227742 -0.07009082 0.0330157 0.024798578 -0.14509022 -0.08927405
-0.021729486 -0.11527707 -0.1148711 -0.103611626 -0.039849598 0.039242122 -0.0364609 -0.03461008
-0.018575056 -0.012479007 -0.15255949 -0.15156148 -0.08041997 -0.026188811 0.055414096 0.056475256
-0.05369512 -0.04316317 -0.062184677 -0.050513837 -0.07272988 0.042005945 0.02139407 0.03433356
0.046338785 -0.030397575 0.024015114 0.09789597 0.0902982 0.023830185 0.068779066 0.068509266
0.0663481 0.15108223 -0.013489507 -0.058640823 0.15003413 -0.14062102 -0.09004728 -0.06849338
-0.01433138 0.008449257 0.10489819 0.05812213 0.016380774 0.10908659 0.10847209 -0.011070696
-0.0044661257 -0.10303969 0.035362955 -0.057643622 -0.06197944 -0.08143783 -0.084989004 0.0017130992
-0.07927006 -0.03796399 0.08275027 0.021173375 0.03804013 0.11010167 -0.010649882 0.11276445
-0.03215382 0.016745403 -0.12535445 0.010929368 -0.024749383 -0.075904764 -0.053217385 -0.0277871
0.052024927 0.0032755996 -0.0027309095 0.020336743 -0.15842082 -0.10268821 -0.04317804 -0.0015076059
-0.11141776 -0.009044535 -0.08522157 -0.14756984 -0.0723467 -0.10743978 -0.14072572 -0.040603217
0.057043266 0.07550252 -0.05484486 0.118991375 0.09703743 0.013082554 -0.03589336 -0.04710815
-0.005025441 -0.084712826 0.023143448 -0.054058418 -0.13774624 -0.07075065 -0.017548986 -0.10648222
0.02302133 0.09926745 -0.13582556 -0.0676432 -0.075046204 -0.11013009 -0.07994126 -0.13211407
-0.13823172 -0.05836635 -0.08884587 0.042742487 -0.034871623 -0.042719733 0.03297078 -0.09466874
0.021291649 -0.00078948296 0.0039607873 -0.039246425 -0.042175706 0.063819155 0.0042838096 -0.11704078
-0.034792133 -0.06883084 -0.0422795 -0.017173462 -0.11655641 -0.02017626 -0.07763273 -0.07662924
-0.09157137 -0.0109269 -0.0017908979 0.092373505 -0.06530197 -0.04652109 0.095149554 0.0249651
0.06948613 0.06780925 0.036171827 -0.0034238787 0.016603084 0.02732297 0.047890503 0.012259902

network.2.bias f4 [64]
00000000: acfe 1ebb 2d95 2dbc 1852 213d 4a22 b43c
00000010: 578a 953d c0bb 12bc d3b2 993d 19bc 813d
00000020: f99a 93bc d779 963c bbce 103d ec9f 3e3c
00000030: 866a 95ba 5a9d 67bc 3883 5a3d 439f c83b
00000040: 1f96 6bbb 2782 bcbc e3f0 bbbc 5002 c13c
00000050: 2532 ff3c 11f4 8fbd c047 e8bc 541d 803d
00000060: 2758 343d c402 e73c fca1 34bd d8c3 8fbd
00000070: b516 6f3d 6187 81bc 95ea c5bb 2a52 333d
00000080: 49d5 4f3c 88a8 073d 98cc 353d f8cb 863b
00000090: 6992 fabc 04bd b43c a670 95ba 630d 18bc
000000a0: 1784 9d3a eca9 803d 333b 8d3d e453 ddbb
000000b0: f3e0 11bd 4f55 14bd 6124 a63c 2f9e 023d
000000c0: c0a3 473b 2bd0 28bd ee9b 813c eca2 973c
000000d0: b32d 08bd 7803 38bc 54c0 703d 5313 1fbd
000000e0: 8172 d93c bdb2 fcbc da59 54bc 72bc 4f3d
000000f0: 580e 18bd 527e e3bc d2ac 893d de12 bc3c
-0.0024260683 -0.010594648 0.03938493 0.021989007 0.07301777 -0.008955896 0.07504811 0.06334705
-0.018018233 0.018368645 0.035353404 0.011634808 -0.0011399544 -0.014136637 0.053347796 0.006122501
-0.0035947633 -0.02301128 -0.022942012 0.023560673 0.03115184 -0.07028974 -0.028354526 0.06255594
0.04402938 0.028199561 -0.044099793 -0.07019776 0.058371264 -0.015811624 -0.0060399272 0.04377953
0.0126851285 0.03311971 0.04438457 0.0041136704 -0.030587392 0.022062786 -0.001140137 -0.009280535
0.0012017515 0.0628241 0.06896057 -0.0067543853 -0.03561492 -0.03621417 0.020281019 0.031889137
0.0030462593 -0.04121415 0.015821423 0.018510304 -0.033246707 -0.011231296 0.05877717 -0.03883679
0.026543858 -0.030846948 -0.012960875 0.050716825 -0.037123054 -0.027770195 0.06722416 0.022958215

network.4.weight f4 [64, 64, 3, 3]
00000000: 0756 54bd c7d0 ba3c 554f fc3a a4cc 723c
00000010: c964 483d ae03 b63d b46d e1ba 3c48 063c
00000020: 7f7d ef39 0c32 8abb 8e22 c43d 3bc2 953d
00000030: 2ba2 403d 1ab8 193e d3b5 a33d 7c9a 373d
00000040: ce1e bf3d 6ba5 23bc 674d 103c 092f 683d
00000050: 3442 b33d f5de 8b3d c825 a23d 3bbc c53d
00000060: ab44 ef3c e084 313d 36ac 073d 23a3 d6bc
00000070: 73e1 8b3d 6639 9a3d 0ae0 343d 2270 7b3d
00000080: 6f6e 633d 905a 523d 351a 203d 5e76 be3c
00000090: 9a6e c4bb 7c5d 35bd d42b 053c bd1d 44bd
000000a0: ffdc 03bd e2bf 7ebd 9e39 f3bd 68ea 9cbd
000000b0: 3fec 91bd f11e 6b3d 030c 04be f7fe c2bd
000000c0: e5ff 413d 7017 0fbe 0a0c 75bd 8142 fe3c
000000d0: 9116 97bd 735d 4e3d f11c 193d c04b fc3d
000000e0: 3bd3 f33c 90bd dfbc 03b5 e2bb 3c0f 80bd
000000f0: 724f 19bd 1b11 87bd a9bc b4bd 5774 7abb
00000100: 6d39 cdbc 0f55 91bb 86b9 82bd 43a6 d8bd
00000110: 7b18 babd 3788 31bd e72d ddbc 8218 d8bd
00000120: 7202 bfbc 8884 ea3d a951 b23d 6a45 403d
00000130: 2cef 1c3e f118 ce3d ec1c d23d 788d 983d
00000140: 253d 383c 6195 edbc bc05 cc3c 31f2 3d3d
00000150: 1075 90bb f80f 0fbd 3e4b aebc ff4c 09bd
00000160: 3e90 f0bd de63 b4bd 221a 823d d3f1 fb3d
00000170: 7659 873d 002f bc3d ab96 c03d acd2 523d
00000180: 6527 8a3c ff76 673c 353f 173c 9a58 a73d
00000190: 2076 b9bd 2426 27bd 8500 85bd a8e8 18be
000001a0: dc43 c9bd f2ae b4bd 4207 b4bd ddc6 80bd
000001b0: 345e ffbb 3bf3 04be 4fb2 82bd 1a83 193d
000001c0: 816d 34be c007 b8bc 6ed9 90bc 3c63 02be
000001d0: b132 1abc 68cb 113c bff6 cbbd bb68 17bd
000001e0: 528d 3dbd d977 18be 2df4 b2bd e0af 50bd
000001f0: 5170 27bd dfb7 783c a52a 203e d3d6 6a3d
00000200: 14a6 3abd e4ce 703d 3ef3 c0bd f83a 5ebd
00000210: a4bd 90bd 2ddd a6bd 03d7 e2bd 6386 163c
00000220: 0941 ec3d 2c2a 5fbc ea9b 8b3c b28c 973d
00000230: b872 7bbb 7a06 a43c 17f1 09bc 37a2 643c
00000240: 352a 213d b318 35bd c767 cfbc 85ed 0b3d
00000250: d547 6cba 3080 82bc 7b67 f7bd d4d2 ecbd
00000260: ace0 fbba 058d f73c c852 0fbc f41f 4bbc
00000270: f793 dbbd 9d09 92bd ad2e e3bc 204d 1dbd
00000280: 4e5e 80bd fdab 0bbd ced2 593d 2e24 babc
00000290: 73e0 9f3b a12e 88bb 0913 be3c f37a c33d
000002a0: 11e8 16bd 8f20 c7bd 0243 04bd da56 b83c
000002b0: 00a6 4ebd 8442 8e3c 0b2a 743d 015f 0f3d
000002c0: 9b90 e33c e48f a83d 459e ba3d 5f8a f13c
000002d0: d12a 113d 3175 7e3d c542 c13c 5fbc 1e3c
000002e0: 00ba 983d 6f5a d9bb 5814 0fbd 0044 c1bc
000002f0: 64d1 babc d9f0 423c c41d 45bd 951b 95bd
00000300: 2c85 7c3a 6aca 95bd 054a b13c 7482 e03c
00000310: 23d4 03bd ed70 f8bc c49f 83bd 5977 803d
00000320: e128 493d 6e32 0abd 153b 583d 5ce1 58bd
00000330: b99d b83d d2c3 9f3d a54d c6bc 2d02 87bc
00000340: 6c50 0f3d 8e4b df39 0d8e 0c3d 065c 943c
00000350: 5385 523c b5f6 7e3d b4f7 5d3d 4b1e 8b3c
00000360: 9637 c13d 7f2e 913d 03a7 c43d b67a 8d3d
00000370: a711 b13d 425a 883c f2f6 f73d 2842 d63d
00000380: 9408 89bc c2d7 a03c 14dc 84bd 4d05 6c3c
00000390: 081c fe3b 4524 663b ad24 68bc 3278 07be
000003a0: 73ec a6bd 017d 3abd eb57 1b3c 116b 2b3c
000003b0: 0d63 6dbc 135f b13c 99f4 b53d d368 bb3d
000003c0: 6b42 ecbc 3d24 04bc 9baf ecbc 23c1 c03d
000003d0: 115b d2bc 2264 18bc 3a83 cd3d a399 d03c
000003e0: effd c73d 10e6 953d 7c75 88b8 e549 83bd
000003f0: 85e6 273d eab1 7a3d b184 d83d f65b 8c3d
-0.051839855 0.02280463 0.0019249717 0.014819298 0.04892424 0.088874206 -0.0017198832 0.008195933
0.00045679134 -0.004217392 0.09576903 0.07312437 0.047029655 0.15011635 0.079936646 0.044825062
0.093320474 -0.009988169 0.008807517 0.05668548 0.087528616 0.06829635 0.079173625 0.09655043
0.029207548 0.04333961 0.033123218 -0.026200837 0.068301104 0.07530479 0.044158973 0.061386235
0.05552524 0.0513559 0.039087493 0.023249801 -0.00599463 -0.044278607 0.008128125 -0.047879923
-0.03219318 -0.062194712 -0.11876224 -0.07661897 -0.071251385 0.057402555 -0.12895207 -0.09521287
0.04736318 -0.13973784 -0.059825934 0.03103757 -0.07377351 0.05038209 0.037381116 0.12319136
0.029763808 -0.02731207 -0.006918551 -0.06252906 -0.03742928 -0.065950595 -0.088250466 -0.0038216317
-0.025051797 -0.0044351886 -0.06383042 -0.10578587 -0.090867005 -0.043342795 -0.026999427 -0.105515495
-0.023316596 0.114510596 0.08706982 0.0469412 0.15325612 0.10063351 0.10259423 0.07448858
0.011245047 -0.029001893 0.024905078 0.04637355 -0.004408486 -0.03492734 -0.021276113 -0.033520695
-0.11746262 -0.08808111 0.06352641 0.12301984 0.0660886 0.09188652 0.09403738 0.051470444
0.016864488 0.014127492 0.009231378 0.08171196 -0.09055734 -0.040807858 -0.0649424 -0.14932501
-0.09827396 -0.08822431 -0.08790447 -0.0628793 -0.0077932123 -0.1298341 -0.06381666 0.037478544
-0.17619897 -0.022464633 -0.017681804 -0.12733167 -0.0094115 0.0088985935 -0.099591725 -0.036965113
-0.04627735 -0.14889468 -0.08737979 -0.050948977 -0.040878598 0.015180557 0.15641268 0.05733378
-0.04556854 0.058791056 -0.09421395 -0.054255456 -0.07067421 -0.08147655 -0.110761665 0.009187314
0.11535842 -0.013620894 0.017042119 0.073998824 -0.0038367938 0.02002262 -0.008419297 0.013954691
0.039346892 -0.044213008 -0.02531804 0.034162063 -0.00090133894 -0.015930265 -0.12080284 -0.1156365
-0.0019216738 0.03021861 -0.008747764 -0.012397755 -0.107215814 -0.0713074 -0.027732218 -0.03840363
-0.06267987 -0.034099568 0.053179555 -0.02272233 0.0048790514 -0.004155949 0.023202436 0.09544935
-0.03684241 -0.09723007 -0.032290466 0.022502352 -0.05045128 0.017365701 0.059610408 0.035002712
0.027778914 0.0823057 0.09112219 0.029484926 0.035441224 0.06212348 0.023591409 0.009688466
0.07457352 -0.006633095 -0.03493151 -0.023591995 -0.022804923 0.011898243 -0.04812409 -0.072806515
0.0009632881 -0.07313998 0.02164174 0.027405955 -0.03218473 -0.030327285 -0.06426957 0.06272764
0.04911125 -0.0337395 0.05279072 -0.052949294 0.09014458 0.07801022 -0.024206946 -0.01648053
0.034988806 0.00042590167 0.034315158 0.018110286 0.01284917 0.062246997 0.054191306 0.016982218
0.0943443 0.070889466 0.096021675 0.06908171 0.08645945 0.0166446 0.12107648 0.10461837
-0.016727723 0.019634131 -0.06487289 0.014405561 0.0077548064 0.0035116833 -0.0141689 -0.13229445
-0.08150568 -0.04552937 0.0094814105 0.010462538 -0.014488948 0.02165178 0.08884544 0.09150853
-0.028840264 -0.0080652805 -0.028892329 0.09411838 -0.02567819 -0.009301217 0.10034795 0.025463885
0.09765231 0.073192716 -6.5068685e-05 -0.06410579 0.040991325 0.06120483 0.10572184 0.06853478

network.4.bias f4 [64]
00000000: ba45 6b3c e5b4 3bbd 330a 443c 26ff f0bc
00000010: f746 013d 9005 3d3d 50e0 05bd f416 40bc
00000020: 1f43 383b b4b0 79bd 2384 c3bb 7c7c 13bd
00000030: 150b 4bbc 3efe 0bbc dd9b 913c f876 033d
00000040: 7de0 033d 0f49 2b3a bcec bfbc 9792 47bc
00000050: 4344 e33c 3d0d 88bb 5101 113d 1868 67bd
00000060: 9da7 f0bb fd0a c2bc 7403 8cba 944e 7dbb
00000070: 0582 2b3d cedf 243d 13e1 9bbb 9ee5 073d
00000080: 4254 f33c 15e1 153d 0026 6dbc 1df4 14bc
00000090: b95f c3bc b689 1f3d e4ae 92bc 6941 ae3c
000000a0: 6d75 6c3d 2086 edbb db1a f53c e513 f23c
000000b0: 4276 4abd 210f b93c 0632 0d3d d026 a9bb
000000c0: 1f73 5d3c 92b4 e5bc 84be 1cbd 640e 0fbc
000000d0: d0c8 403d 76fd 123d 7da6 023a 4f92 2f3c
000000e0: c676 e33c f852 87bc 5040 af3a f32e a9bc
000000f0: 8a4a 4fbb b4c0 86bc 3dc5 fdbc 550d 443d
0.014359886 -0.04582681 0.011965322 -0.02941854 0.031561818 0.046147883 -0.032684624 -0.011724222
0.002811618 -0.060959533 -0.0059666797 -0.03600739 -0.012392779 -0.008544503 0.017774517 0.03209588
0.03219651 0.0006534019 -0.023428313 -0.012180946 0.02774251 -0.0041519688 0.035401646 -0.056495756
-0.0073442 -0.02368688 -0.0010682181 -0.0038651573 0.041872043 0.0402525 -0.0047570555 0.033177964
0.029703263 0.036591608 -0.014474392 -0.009091404 -0.023849355 0.03894969 -0.01790566 0.021271424
0.057729173 -0.007248655 0.029920032 0.029550502 -0.049429186 0.022590222 0.034471534 -0.0051620975
0.013516217 -0.028040204 -0.038267627 -0.008731458 0.04706651 0.03588625 0.0004983915 0.010716035
0.027766597 -0.016519055 0.0013370607 -0.02065227 -0.0031630122 -0.01644931 -0.03097784 0.047864277

actor.weight f4 [5, 3136]
00000000: e802 383d 1e18 073d 80a2 853d 21e4 a33c
00000010: 9788 233c 0f30 873d a17d 213d ecc5 6f3d
00000020: 24c1 863d ffe9 543d c726 36bd 17f5 5cbc
00000030: 6410 9b3c 2460 503d 5d1f 1bbd 8515 c3bb
00000040: fe8f 85bb b034 7cbd 33a2 0dbd d096 fb3c
00000050: 1988 8e3d de7b 143b 7e40 f7ba b572 3bbc
00000060: 2170 c4bc 04ba 38bc dd84 2abd bef5 3abc
00000070: d255 7e3c 9031 e43b 56f7 37bc 8059 713c
00000080: a422 cb3c 1291 e7bb 9437 1ebd e37d b03c
00000090: bb26 8d3c 47d4 d23b 3148 fb3c f04f 3f3d
000000a0: 877f d73c ef89 a83a b5a3 7cbc 2d41 633b
000000b0: 1510 3f3d aa4a 1f3d d3e7 f23c 8a08 c03c
000000c0: bc25 a93c 13cc 753d 9961 833d 9010 f23d
000000d0: a1e8 743d 4094 e3bc fb53 5d3d b2da b63c
000000e0: 5881 493d b767 983d 3945 d63d a6ca 793c
000000f0: 84cb f13b acca 773d b94c 433c 5c1e 8a3d
00000100: a0c2 3e3d 0f2b 303d 3ccf 90bb ca08 b63c
00000110: aa01 063d 5f0c 6f3d d501 78bd a7d6 6bbd
00000120: de48 53bd 5b55 cfbb 4fcb 1bbd b93a 15bc
00000130: 0eeb 06bd 5b42 2dbb 7bcc 7cbc df13 a83b
00000140: 8f45 363c 984c 343d 94ae f13b 6a1d 2cbd
00000150: 2335 11bc a7bf cebb f9f0 83bc 4087 b53c
00000160: b501 c63c 594f 873c 84c3 24bd 6abd 10bc
00000170: 830f 103d 9ce0 f4bb 2a9a 6f3c 41ba dd3c
00000180: 5044 c43c 4682 75bc 36f5 37bc fee1 11bd
00000190: 6c54 f7bc 13e4 f43b 485a 283c cd42 01bc
000001a0: e062 19bd e745 00bd ccf7 16bb 3430 40bb
000001b0: bd00 143d de3f bc3c 369e a2bc 9af8 fdbc
000001c0: dde8 1d3d 8f3b f4bc 733a 17bc e8ae cebc
000001d0: 2f61 b4bb d51c 98bc 427d f8bc 131a e73c
000001e0: 3dd4 69bd 73dd 71bd d113 07bd a451 843b
000001f0: d7a4 fcbb 21cc 90bc e0f4 323c 1ebc 12bc
00000200: 2048 5abd 6591 b7bc 967f 093d 12f2 503d
00000210: 9aa8 873c a4fe 83bc 96d5 1e3c d608 04bc
00000220: dada 18bb 2ca2 06bd 9d4c c33c 08cf 963c
00000230: f2b2 2c3d 21c4 0a3c b8ef db3c 07e1 a83c
00000240: b63f 8d3c 0880 553d f576 fc3c 736b 633d
00000250: 2ff7 db3d bfdc af3d cb9a b6bb 89cd 3c3c
00000260: 162f 373d 9018 a13c 100a 0e3d 56a7 933d
00000270: 0755 353d 81d2 37bc 9bf3 3f38 f9d3 173d
00000280: e67a 423d b0d9 4e3d 053e 303d 96a0 433d
00000290: 6b05 13bd 03be d33c 78ab 613d d58b 793d
000002a0: ce5c 28bd 1ddf 93bc 0818 b5bc ba24 2abd
000002b0: 5e9f a53b e292 803c 4e65 c43b 518d 9e3c
000002c0: f161 a43c c633 823c f343 3d3d 62fe 513d
000002d0: 80eb cb3b b9b7 b8bc 8486 a43c 56a8 d83c
000002e0: 6d45 cd39 6f07 fa3c 0eff 0b3d c5a9 6c3c
000002f0: fa51 47bc 92df ee3c 2174 f73c 3a55 9e3c
00000300: ab4b 143d 1d7c 323d 1157 f13c b994 8d3a
00000310: 3617 523d dd4e 123d f47e cc3c 2e89 023d
00000320: d90a a4bd d10a 393c 7e8f ffbc 096c 903d
00000330: 3f37 803b 6480 29bd f888 b53c 27ca 2ebd
00000340: edd1 b1bd 251e 81bc 6b6e bdbd 25c8 4f3c
00000350: 7ebc 173d 7b01 de3c 2ca0 b4bc 102c b03c
00000360: 8e29 d63c be06 5dbc 15e8 07bd 61c9 73bc
00000370: 0f31 21bd 8488 8e3c c7a6 8c3b 88c2 c83b
00000380: 41d5 94bc f65c 11bd ada4 c5bb edd3 413d
00000390: bc28 8fba 75d5 40bc 813e 97bc 5077 c23b
000003a0: 0aa5 6d3c 9fbf a5bc 374f e03c 2871 99bc
000003b0: b930 4dbd bbba ee3b cc66 fd3a d2e2 bbbc
000003c0: e426 763c 3767 d93b 0703 163c 7259 fb3b
000003d0: c04d 9ebc 6b1a 65b7 a583 97bc d463 44bb
000003e0: c17c f43c bb53 75b9 275f 1839 498b 2eba
000003f0: 1cef 3e3b 1fee c638 7ddb 93bc 7950 8bbb
0.044924647 0.032981984 0.06525135 0.020006241 0.009981296 0.06600963 0.03942645 0.058538362
0.065798074 0.05198097 -0.044470575 -0.013486168 0.018928714 0.050872937 -0.037871707 -0.005953493
-0.004076003 -0.061573684 -0.034578513 0.030711561 0.06959552 0.0022656838 -0.0018863825 -0.0114409225
-0.023979248 -0.011274818 -0.041630615 -0.011411129 0.015523391 0.006963916 -0.011228403 0.014730811
0.024796791 -0.0070668543 -0.038627222 0.021544402 0.017230382 0.006433997 0.030674072 0.046707094
0.026305927 0.001285849 -0.01541989 0.00346763 0.046646196 0.038889565 0.029651558 0.023441572
0.020647876 0.060009073 0.064151 0.11819565 0.059792165 -0.027780652 0.05403517 0.022321079
0.049195617 0.07441657 0.10462422 0.015246069 0.0073789973 0.060496017 0.011920148 0.06744072
0.046572328 0.043009814 -0.0044192355 0.022220988 0.03271643 0.058361407 -0.060548622 -0.057577755
-0.051583163 -0.006327314 -0.038035687 -0.009108239 -0.03293901 -0.0026437256 -0.015429611 0.005129322
0.0111249825 0.044018358 0.0073755477 -0.04202024 -0.008862766 -0.006309468 -0.016106116 0.022159219
0.024170736 0.016517328 -0.04022552 -0.008834222 0.035171043 -0.0074730646 0.014624158 0.027066352
0.023958355 -0.014984673 -0.011227896 -0.035615914 -0.030191623 0.0074734776 0.010275431 -0.007889462
-0.03744781 -0.031316664 -0.0023035882 -0.0029325606 0.036133517 0.022979673 -0.019850831 -0.031002332
0.038552154 -0.029813556 -0.009230244 -0.025229886 -0.0055047492 -0.018568436 -0.030333165 0.028210675
-0.05708717 -0.05904908 -0.032977883 0.0040380526 -0.00771008 -0.017675461 0.010922641 -0.008955983
-0.05329144 -0.022408197 0.03356894 0.051012106 0.016559888 -0.016112633 0.009694478 -0.008058747
-0.0023323805 -0.032869503 0.023840243 0.018409267 0.042162843 0.008469612 0.026847705 0.020615114
0.017242294 0.052124053 0.030818442 0.055522393 0.10740506 0.08587026 -0.005572652 0.011523613
0.04472264 0.019665033 0.034677565 0.07209651 0.04427054 -0.011219622 4.5764824e-05 0.037067387
0.047480486 0.05050057 0.043027896 0.04776057 -0.03589384 0.02584744 0.055095166 0.06092437
-0.04110413 -0.018050725 -0.022106186 -0.04153893 0.0050543984 0.01569504 0.005993522 0.019354494
0.020066233 0.015893828 0.04620738 0.05126799 0.006223142 -0.022548543 0.020083673 0.026447456
0.00039152373 0.030521123 0.034178786 0.014444773 -0.012165541 0.029159341 0.030206742 0.019327749
0.036204975 0.043575395 0.029460462 0.0010801769 0.051291667 0.03571974 0.02496288 0.031869106
-0.080098815 0.011294083 -0.031196352 0.07051856 0.003912836 -0.04138221 0.022160038 -0.042673256
-0.08682618 -0.015761444 -0.09249576 0.0126819955 0.037044995 0.027100315 -0.022049032 0.021505386
0.026142862 -0.013490377 -0.033180315 -0.014879555 -0.039353427 0.01739908 0.0042923423 0.0061267056
-0.018168094 -0.035489045 -0.006031594 0.04732125 -0.0010922174 -0.011769642 -0.018462421 0.0059346333
0.01450468 -0.020232974 0.027381523 -0.018730715 -0.050095294 0.0072854436 0.0019333004 -0.022935305
0.015023921 0.0066346186 0.009155995 0.007670575 -0.019324183 -1.3655615e-05 -0.01849539 -0.0029966729
0.029844644 -0.00023396213 0.00014531297 -0.00066583283 0.002913422 9.485729e-05 -0.018048996 -0.0042515364

actor.bias f4 [5]
00000000: 5b91 8ebc 0457 c93c f12b 9a3a ceb8 26bc
00000010: 96ce 9a3c
-0.017403295 0.024577625 0.0011762363 -0.010175897 0.018897336

critic.weight f4 [1, 3136]
00000000: bd1c 00bd 3cbe 573d 31e8 b03d 6a8c 413d
00000010: 0178 223d ab8d 4d3d 7e4d e03b 1e8c 74bc
00000020: 4210 9c3d c7f2 ae3d a0a8 783c 4d71 a4ba
00000030: c0e0 973d 984b fe3d faee ba3d ab92 6dbd
00000040: c540 c9bd d801 9fbc 7f5e babd c336 a93d
00000050: cfe4 ed3d 5ba3 93b8 bc8d b3ba 12e4 4b3c
00000060: d23e 263c 0ea7 a2bd d580 1a3d bcbe de3c
00000070: d703 5d3d bb65 bf3d f3cd 813d a334 c63c
00000080: 79c8 a53d 264e 013e c6ff 063e 3bbe 603c
00000090: 3511 363c fb77 4dbd c994 6bbd 4479 c9bc
000000a0: dae1 003d c5c6 753d 60a0 2c3d 9c1d d03d
000000b0: e294 093e 98e5 8f3d 1885 8f3c f0d0 6b3d
000000c0: 517e aa3d 2348 063d 3bbb 70bc 8017 76bb
000000d0: da5e 1cbd d5a5 29be d639 963c 50bf 403a
000000e0: 123a c13b 2e46 de3d aaa9 f23d fc9c 033d
000000f0: 0b6c f93c 6101 093e 406c 1b3e 75e3 023e
00000100: 0fab 3a3e 2785 44bc a886 9dbc 25e2 b83d
00000110: 763e d33d 06c4 503d ea1b 553e 8490 d13d
00000120: e5b5 6a3c dcf9 833d 13f9 8b3d 7d5d df3c
00000130: 0c84 cd3d 3121 64bd 8b85 c03d 2993 993d
00000140: 5ea0 123d 5228 33bd 0edb 7b3d 68d3 893d
00000150: a7b9 663d a20d 403d 95bf 103d 8f86 833c
00000160: ce47 ef3c dd5c 573d 652c 253d b1b9 233d
00000170: 980e c03d c440 6e3c 10a9 403b cffa a03b
00000180: 7ce0 08bd 29b3 ff3c 04a4 dabb 3ed1 d3bd
00000190: 1e35 61be 737c 9fbc c071 cabd 21c2 37be
000001a0: f1da 5ebc 37ef a63c b0e6 533d 66cc 2fbd
000001b0: 4634 6cbc 0dc2 40bd a8dc 22bd c65b 733b
000001c0: 934e d03c cedd bb3c f831 72bd d9d8 06be
000001d0: 354f 913c ddff af3c 34a0 a73d 2543 783d
000001e0: d1b0 70bc 0973 b5bd 439d 13be d7f8 123d
000001f0: cfec 203d 12e9 16bc 89fb 843c 49d8 13bd
00000200: 2a5b 1db9 a6b5 8c3a 6823 f0bb 5fbb 13bd
00000210: 2bf7 6bbd 8bdd d8bc 9283 3ebd e29a 47bc
00000220: c8f5 0a3d c8b7 12ba 8f8c 63bd 739f 42bb
00000230: 523f ac3d c34e 24bc d853 34bd bba3 893c
00000240: b4d2 3e3d 0e0f 613d cd39 f43c c619 e4bc
00000250: ca3e 3c3d f063 8b3d 2085 43bc 543b 87bd
00000260: e48b dabc 23b4 4d3d d8ff 123e 76bc f83d
00000270: 664d 073e 65cf d03d 8fdb c33d 4554 123d
00000280: 8fc7 ff3d 32d6 543e 1ad8 6a3d 0278 9c3d
00000290: 0c26 be3d c906 d63d 9c36 b53d 9e69 1d3c
000002a0: 978c 1b3e 1e4e f13d eb92 003c e67a 383d
000002b0: 3e1b 963d 9462 0c3d 2fc0 a83d acc8 983b
000002c0: bd40 783d c3fb 133d e590 503d 3d10 703d
000002d0: e2e5 c63d 228b 803d 8601 e83c c042 e03d
000002e0: 967d df3d ee15 333d 67ba 1d3c d194 f63d
000002f0: 4d91 ec3c a7c3 db39 926c bf3d 52d7 fcbb
00000300: 33b2 d1bc 5df0 b4bc 1a26 7b3d 79d7 933c
00000310: d503 a5bd 2950 8bbd fb7a 5cbc 912e 6f3d
00000320: 913e bd3d ece0 913d 6e90 0cbc 9c26 963d
00000330: 5fa6 d93d 4180 80bd 32d4 68bd 3c89 4d3d
00000340: 9532 fa3b 2209 e23d fa43 cfbc e738 85bc
00000350: 16bb e43d 877c 683c 6df5 f23d eadb 0e3d
00000360: ede8 55bc 764b 9ebd 3e89 abbd 62d0 963c
00000370: a476 e1bd 1ea9 03bd 5c0f 3dbd 2ef6 ad3c
00000380: c129 a3bd 8d70 2c3d 213e a7bb 013b 1fba
00000390: c55e 99bc 4a76 183d b102 0d3c bc2b 4bbd
000003a0: bf60 4138 d525 6e3d 3f84 30bd 2164 b9bd
000003b0: 66d1 08bd 6811 aa3c c765 4abb a401 9bbb
000003c0: 904d c2ba ec33 ab3c 30f6 a63c 3a1d bf3b
000003d0: e464 fa3c fc78 2b3d 2e07 ea3c d248 b63d
000003e0: 28b8 ef3d 611d b23d b118 033b 70d5 2d3d
000003f0: bc37 6dbd 1c12 ddbd 90e4 dbbd d591 c0bd
-0.031277407 0.052671656 0.08638037 0.04725305 0.039665226 0.050183933 0.0068451753 -0.014925985
0.076202884 0.085424 0.015176922 -0.0012545973 0.074159145 0.12416762 0.091276124 -0.0580012
-0.09826807 -0.019410059 -0.09100055 0.08262398 0.116159074 -7.0399336e-05 -0.0013698856 0.012444513
0.0101468135 -0.079420194 0.03772052 0.027190559 0.05395874 0.093455754 0.0633811 0.024195021
0.08094878 0.12627468 0.13183507 0.0137172295 0.011112501 -0.05016325 -0.05751494 -0.024593957
0.03146539 0.060004015 0.042145133 0.101618975 0.134357 0.070262134 0.017519519 0.057572305
0.08324874 0.03278364 -0.014693077 -0.0037550628 -0.038176395 -0.16567166 0.018338125 0.00073527265
0.005896815 0.108532295 0.11848767 0.032132134 0.030447027 0.13379432 0.15178013 0.1278208
0.18229316 -0.011994637 -0.019229248 0.09027509 0.10314648 0.050968193 0.2081143 0.10232642
0.014325594 0.06444141 0.068346165 0.027266258 0.100349516 -0.055695716 0.09400471 0.07498772
0.03579747 -0.043739624 0.061488204 0.06729776 0.056329396 0.046888 0.035338957 0.016055373
0.029209044 0.052578796 0.04032554 0.03997201 0.093777835 0.0145418085 0.0029397644 0.004912711
-0.03341721 0.03121336 -0.006672384 -0.10342644 -0.21992919 -0.019468522 -0.09884977 -0.17945148
-0.013602004 0.020377738 0.051733673 -0.04291954 -0.01441676 -0.04706006 -0.039761215 0.0037133559
0.025428092 0.022932913 -0.059129685 -0.13168658 0.017737964 0.02148431 0.08184853 0.06061091
-0.014690594 -0.08859832 -0.1441546 0.035881843 0.03928834 -0.009210842 0.016233223 -0.036094937
-0.00015006648 0.0010735288 -0.0073284395 -0.036067363 -0.057608765 -0.026472827 -0.046512194 -0.012182923
0.0339258 -0.00055968435 -0.05555397 -0.002969709 0.08410515 -0.010028544 -0.044025272 0.016801706
0.04658766 0.054945998 0.029812718 -0.027844321 0.045958318 0.06806171 -0.011933595 -0.06603113
-0.026678033 0.05022062 0.14355409 0.12145321 0.13213119 0.10195807 0.09563362 0.035724897
0.12489235 0.20784834 0.057334997 0.07640077 0.092846006 0.10450513 0.088483065 0.009607701
0.1519035 0.11782478 0.007847528 0.04503908 0.07329415 0.0342737 0.08239781 0.004662594
0.060608614 0.03612877 0.050919432 0.058609236 0.097118154 0.062765375 0.028321039 0.109502316
0.109126255 0.043722086 0.009626961 0.12040103 0.028877879 0.00041916707 0.0934688 -0.007716098
-0.025597667 -0.02208727 0.061315633 0.018047081 -0.080573715 -0.06802399 -0.013457055 0.05839402
0.09240449 0.071229786 -0.008579357 0.07331583 0.10627436 -0.062744625 -0.05684299 0.050179705
0.0076354244 0.11036898 -0.025300968 -0.016262485 0.11168496 0.014189846 0.118632175 0.034877695
-0.013056022 -0.07729237 -0.08375786 0.018409912 -0.11008957 -0.032143705 -0.046157226 0.021235552
-0.07966948 0.042099524 -0.005103842 -0.0006074161 -0.018721947 0.037222184 0.008606599 -0.049602255
4.6104888e-05 0.05814155 -0.04309487 -0.09052301 -0.033402823 0.020760253 -0.0030883418 -0.00473042
-0.0014824141 0.020898782 0.020381063 0.0058323415 0.030565687 0.041863427 0.028567877 0.08900608
0.11705047 0.0869701 0.002000373 0.042439878 -0.05791448 -0.1079447 -0.10736954 -0.09402815
