PARALLEL/models/PRED_GROUP_POLICY_BOTH_INDIV_RWD_ROUND2_800.ckpt (torch, 307440 bytes, 9 tensors)

network.0.weight f4 [32, 5, 3, 3]
0	0x3dccebba	0.10005899
1	0x3d26a0f1	0.04068083
2	0x3d920971	0.07130707
3	0x3dc73037	0.09725993
4	0x3e0ebf9f	0.13940285
5	0x3ca6b3d5	0.020349422
6	0x3df82e26	0.12118177
7	0x3dcb92ff	0.09940147
8	0xbcd39ed3	-0.02583257
9	0x3ded33be	0.11582135
10	0x3dd7e248	0.105412066
11	0xbe016199	-0.12634887
12	0x3e818f4c	0.2530464
13	0xbdf7b695	-0.12095372
14	0xbe1081f7	-0.14112078
15	0x3e69d3d8	0.22834718
16	0x3e76aa68	0.24088442
17	0x3e0ba2ea	0.13636366
18	0x3dad90ed	0.08474908
19	0x3d627761	0.05528963
20	0x3e0ff2e3	0.14057498
21	0x3e1fda2d	0.15610571
22	0xbd97537f	-0.073889725
23	0x3e41210c	0.18860263
24	0xbd55e61f	-0.052221414
25	0xbd99f399	-0.07517166
26	0x3d405cb1	0.046963397
27	0xbe2f132f	-0.17097162
28	0xbda72708	-0.081617415
29	0x3dbd98a4	0.092576295
30	0x3d9d23d0	0.07672846
31	0xbe0287fc	-0.12747186
32	0xbdfe1d6e	-0.12407957
33	0xbe048ca5	-0.12944277
34	0x3d141978	0.0361571
35	0xbe0ff3de	-0.14057872
36	0x3db8928f	0.09012329
37	0xbc90a46c	-0.017656527
38	0x3cb1079b	0.021610072
39	0xbd84cab6	-0.064839765
40	0x3dd63a8d	0.104603864
41	0x3c9f428a	0.019440908
42	0xbc8c69ce	-0.017140295
43	0xbdb85186	-0.08999924
44	0xbc097386	-0.008389359
45	0xbc87c087	-0.016571296
46	0xbd589c17	-0.052883234
47	0xbdc614f6	-0.09671967
48	0x3daa9d8a	0.083308294
49	0xbda44c45	-0.0802236
50	0xbe041fee	-0.12902805
51	0x3c26d674	0.010182966
52	0x3d414cc5	0.047192354
53	0xbddc47eb	-0.10755905
54	0x3e13c1cd	0.14429398
55	0xbd7e1d68	-0.062039763
56	0x3e2853d8	0.16438234
57	0x3e706c48	0.23478806
58	0x3e2ba0fd	0.16760631
59	0x3e24f80a	0.16110244
60	0x3d728e7a	0.059217907
61	0x3d1fca29	0.039011154
62	0x3ca99798	0.020702168
63	0xbcb9e61f	-0.022692738
64	0xbd0bf3f7	-0.03416821
65	0xbe01877b	-0.12649338
66	0xbd5e955b	-0.054341655
67	0x3d6b39a6	0.057428025
68	0xbde7cbb7	-0.113181524
69	0x3d9eae94	0.07748142
70	0x3cf2b1a4	0.029625721
71	0xbe529167	-0.20563279
72	0xbe49a256	-0.19690832
73	0x3daa0af6	0.08302872
74	0xbdf9c1b5	-0.1219515
75	0xbdce2ba8	-0.100669205
76	0x3ddd811a	0.1081564
77	0xbce86b16	-0.028371375
78	0x3cd6f23d	0.026238555
79	0x3bc85e8e	0.0061147874
80	0x3ce5e6bb	0.028064122
81	0x3c12492a	0.0089285765
82	0x3da1e224	0.07904461
83	0xbe012ab5	-0.12613948
84	0x3daeb9ab	0.08531507
85	0x3cbb370f	0.022853402
86	0x3e17a5a8	0.14809287
87	0xbdf312ef	-0.11868846
88	0x3dd13c46	0.10216574
89	0xbcc911d6	-0.024544638
90	0xbdd9e381	-0.10639096
91	0xbd9b751f	-0.075906985
92	0xbdf92c0e	-0.12166606
93	0x3e111662	0.14168695
94	0xbdc87786	-0.09788422
95	0x3d9140bb	0.070924245
96	0x3dc8e831	0.09809912
97	0xbc2d6a91	-0.010584489
98	0x3dbb4d77	0.091456346
99	0x3e2624bc	0.1622495
100	0x3e78af54	0.24285632
101	0x3e28b549	0.16475405
102	0x3d1cb423	0.03825773
103	0x3e4216c2	0.18953994
104	0xbd233afd	-0.039851177
105	0xbe1b2de5	-0.15154226
106	0xbdec2001	-0.11529542
107	0xbe2a281b	-0.16616862
108	0xbe110065	-0.14160307
109	0xbb0cb067	-0.0021467449
110	0xbd627e0a	-0.05529598
111	0x3da83f71	0.082152255
112	0xbd31b98b	-0.04338984
113	0xbe020b39	-0.12699594
114	0xbe089bb5	-0.13340648
115	0xbd9b3f34	-0.075804144
116	0xbd9ab32d	-0.07553706
117	0x3dd9d599	0.10636444
118	0xbc3d5917	-0.011556885
119	0xbbe448ef	-0.006966702
120	0x3d087cb8	0.033322066
121	0xbd22ce14	-0.039747313
122	0x3cd901e3	0.026490157
123	0xbddfb794	-0.109236866
124	0x3e06b588	0.13155186
125	0x3df6fcdf	0.1205995
126	0x3e0c4360	0.13697577
127	0xbd9d021b	-0.07666417
128	0xbbf8bf02	-0.0075911293
129	0x3b8be8c9	0.0042696935
130	0x3c5f699f	0.013636022
131	0xbdd9224c	-0.10602245
132	0x3da8a648	0.08234841
133	0xbd465a33	-0.048425864
134	0x3d083fb3	0.033263873
135	0x3d61afc3	0.05509926
136	0x3d91bea5	0.07116441
137	0xbdc91df1	-0.09820164
138	0x3ca7934f	0.020455984
139	0x3e12c100	0.14331436
140	0xbd5d6806	-0.054054283
141	0x3d671007	0.05641177
142	0x3ae21b41	0.0017250554
143	0xbde294e1	-0.11063553
144	0xbe27ab1c	-0.16373867
145	0x3e6544a8	0.22389472
146	0x3e64f2b9	0.22358216
147	0xbdf31d06	-0.1187077
148	0x3e806eb7	0.2508447
149	0xbc856eab	-0.016288122
150	0x3e3a08e8	0.1816746
151	0xbdbd4e3f	-0.0924344
152	0x3d892b15	0.0669767
153	0xbd49da81	-0.049280647
154	0xbdda9b0a	-0.106741026
155	0xbe0d4b7e	-0.13798329
156	0xbe1396a4	-0.14412934
157	0xbd0153ca	-0.031574048
158	0x3b5091d8	0.003182521
159	0x3c84b818	0.016201064
160	0x3c81ce35	0.015845397
161	0xbca13649	-0.019679205
162	0x3e006e20	0.1254201
163	0x3c8ca728	0.01716955
164	0x3db3b5ee	0.08774935
165	0x3d3110bc	0.04322885
166	0x3b96d7c6	0.004603359
167	0xbd1066a3	-0.035254132
168	0x3da8e695	0.08247105
169	0xbb1aaf63	-0.0023603074
170	0xbd2cbf60	-0.042174697
171	0xbaab3e33	-0.0013064801
172	0x3c93e930	0.018055528
173	0x3d996b67	0.074911885
174	0xbe297f81	-0.16552545
175	0xbe5aa820	-0.21353197
176	0xbe159388	-0.1460706
177	0x3d32a6cc	0.0436161
178	0xbe255be9	-0.16148342
179	0xbbd31b8b	-0.0064424924
180	0x3d8d9b41	0.06914378
181	0xbdd08b92	-0.10182871
182	0x3cc2865d	0.02374571
183	0xbd167f39	-0.036742423
184	0xbddc8034	-0.1076664
185	0xbdcfc51a	-0.10145016
186	0x3dc5cd50	0.09658301
187	0x3c2169c8	0.00985188
188	0x3dc59862	0.09648205
189	0xbe2dd616	-0.16976199
190	0x3b016667	0.0019744874
191	0xbd90824a	-0.07056101
192	0x3d0428ee	0.032265596
193	0x3ddf8e98	0.109158695
194	0xbdc9fd5c	-0.098627776
195	0xbe338895	-0.1753257
196	0xbddb973c	-0.10722205
197	0xbdbfb193	-0.093600415
198	0x3dadb995	0.084826626
199	0xbd59fa78	-0.05321738
200	0xbd7f570d	-0.062338877
201	0x3a8edcf5	0.001089959
202	0x3dc29992	0.095019475
203	0x3d0f50ba	0.034989096
204	0xbd8e3ca4	-0.0694516
205	0x3e1cf026	0.15325984
206	0xbcb5e921	-0.022205891
207	0xbe8b6c3a	-0.27231008
208	0x3c9f2c16	0.019430202
209	0xbe885832	-0.26629788
210	0xbdbe6cc1	-0.09298087
211	0x3d37792a	0.044793285
212	0xbc276696	-0.0102173295
213	0x3e4520ec	0.1925084
214	0x3d434253	0.047670674
215	0x3d40fdac	0.04711692
216	0xbe117b97	-0.14207302
217	0x3d14b1c5	0.036302347
218	0x3d95db16	0.07317178
219	0xbc9ef6ff	-0.019404886
220	0xbb1b8f7f	-0.0023736653
221	0xbdca2382	-0.09870054
222	0x3d66ad3e	0.05631756
223	0x3cff2c65	0.031149099
224	0x3adb0101	0.0016708673
225	0x3dc96434	0.09833565
226	0x3dce2a3a	0.10066648
227	0x3d225987	0.03963616
228	0x3e00553f	0.12532519
229	0x3c5bc4c9	0.013413616
230	0x3cc9e04b	0.024643084
231	0xbd0f7aa4	-0.03502907
232	0x3e01004f	0.12597774
233	0xbd029f0f	-0.03188997
234	0x3e0c816a	0.13721243
235	0x3e6ea586	0.2330533
236	0x3e33d604	0.17562109
237	0x3ddccc1e	0.1078112
238	0x3e35d28c	0.17756099
239	0x3e39ce8b	0.18145196
240	0xbe07456c	-0.13210076
241	0xbd71e68d	-0.05905776
242	0x3c65cead	0.014026326
243	0x3c0d3791	0.008619205
244	0xbcd40b9b	-0.02588444
245	0xbd92e4c6	-0.07172541
246	0x3dce7a31	0.100819
247	0x3e03562e	0.12825844
248	0xbc5b9808	-0.013402946
249	0x3db2145c	0.086952895
250	0x3d4e008f	0.0502935
251	0xbbd90d22	-0.00662388
252	0xbd199577	-0.037496056
253	0x3de91f3e	0.11382912
254	0x3af3f953	0.0018613733
255	0x3bd9a869	0.0066423905

network.0.bias f4 [32]
0	0xbdd47bf9	-0.103752084
1	0x3dee0981	0.116229065
2	0xbde53e7f	-0.11193561
3	0x3dde156c	0.1084393
4	0x3d906bce	0.07051812
5	0xbc9b39c0	-0.018948436
6	0x3ce12ba4	0.02748663
7	0xbd0fe0a6	-0.03512635
8	0x3cd2283d	0.025653953
9	0xbdb04198	-0.08606261
10	0xbca683d9	-0.020326542
11	0x3d0785c3	0.03308655
12	0x3c77a087	0.015113956
13	0xbd74f1c2	-0.05980087
14	0x3e031bee	0.12803623
15	0x3dd532a0	0.104100466
16	0xbcd36afd	-0.025807852
17	0x3dfde705	0.12397579
18	0x3d14d68f	0.03633743
19	0x3d888f75	0.06667987
20	0x3d8f92ce	0.07010423
21	0xbddcc542	-0.107798114
22	0x3dc108bf	0.09425496
23	0x3c19112e	0.009342475
24	0x3dc62914	0.09675804
25	0xbde7897e	-0.113055214
26	0xbd5d3fb3	-0.054015826
27	0x3dcc384a	0.09971674
28	0xbba02ada	-0.004887921
29	0x3d9fa1a1	0.077945
30	0xbd42e9b2	-0.04758615
31	0x3d4843b9	0.04889271

network.2.weight f4 [64, 32, 3, 3]
0	0xbd2bf9eb	-0.041986387
1	0xbcbc1399	-0.022958564
2	0xbd3adfdc	-0.045623645
3	0xbd8f4c9a	-0.069970325
4	0x3afdc46e	0.0019360909
5	0x3cec6a4e	0.028859284
6	0x3c4e2c2a	0.012583772
7	0xbcc6ed95	-0.02428321
8	0x3cf0ce38	0.029395208
9	0x3d0d5508	0.03450492
10	0x3d15288c	0.03641562
11	0x3dd39d01	0.103326805
12	0xbbb15af6	-0.0054124547
13	0x3dd374d2	0.10325016
14	0xbcb0cffa	-0.021583546
15	0x3b9ba362	0.0047497014
16	0x3cdc65c3	0.026903993
17	0x3d51c824	0.05121626
18	0x3c425200	0.011860371
19	0x3daa5a02	0.08317949
20	0x3d4ca83b	0.049965125
21	0x3ab4b880	0.0013787895
22	0x3d60ecfa	0.0549135
23	0x3c54ac0f	0.012980475
24	0xbb491a39	-0.0030685796
25	0x3d850c4d	0.06496487
26	0xbbce0b62	-0.006287978
27	0xbc9306dd	-0.017947609
28	0x3c1bde43	0.009513441
29	0xbcea3495	-0.028589526
30	0x3d73a23d	0.059480894
31	0xbc43d48f	-0.011952533
32	0xbcbea2d3	-0.023271
33	0x3d51420f	0.05108839
34	0xbd11dfe0	-0.035613894
35	0x3c96dda4	0.018416233
36	0xbda84048	-0.08215386
37	0xbd7f33d4	-0.062305287
38	0x3ca5c3c4	0.02023495
39	0xbdab2b62	-0.08357884
40	0xbd37f501	-0.04491139
41	0xbdff7cb4	-0.12474957
42	0x3b8bf739	0.0042714146
43	0xbd085cbc	-0.033291563
44	0xbcd5851b	-0.026064446
45	0xbd01e7d1	-0.031715218
46	0x3d3bc8c5	0.045845766
47	0x3d859843	0.06523182
48	0x3b31e122	0.0027142246
49	0x3c806a46	0.015675675
50	0x3d40c658	0.047064155
51	0xbc03bbbd	-0.008040366
52	0xbc78f286	-0.015194541
53	0x3d596e71	0.05308384
54	0x3c1f7f99	0.0097350115
55	0x3d787a75	0.06066366
56	0x3bc93446	0.0061402647
57	0xbc9654b4	-0.018350936
58	0x3bf548fe	0.007485508
59	0xbc9edbe5	-0.019391963
60	0xbcd0ebf0	-0.025503129
61	0x3d3e4d5d	0.046460498
62	0x3d3de616	0.046362005
63	0xbc80d4d4	-0.015726484
64	0x3d91afe4	0.071136266
65	0xbdb9e75e	-0.09077333
66	0xbccc045a	-0.024904419
67	0x3d2633bf	0.040576693
68	0x3d8e09e8	0.06935483
69	0xbc88d9ac	-0.016705357
70	0x3c36ebf4	0.011164654
71	0xbd5702dc	-0.05249296
72	0x3cde1246	0.027108323
73	0x3c96bcb2	0.018400524
74	0xbdccb5c2	-0.09995605
75	0xb8295d90	-4.0379877e-05
76	0x3c03bbda	0.008040393
77	0x3d502ac3	0.05082203
78	0xbd1abdb3	-0.037778568
79	0x3c2b0d39	0.010440164
80	0xbd1fd7a4	-0.03902401
81	0x3be9d249	0.0071356636
82	0x3bd9ce80	0.006646931
83	0xbb3f8c0c	-0.0029227762
84	0xbd1234b2	-0.035694785
85	0xbc874291	-0.016511234
86	0xbcc89e81	-0.024489643
87	0x3b3191cb	0.0027094956
88	0x3d7b8cfc	0.06141375
89	0x3cb33f19	0.021880673
90	0x3b6906d1	0.0035557041
91	0x3d1811ad	0.037126232
92	0xbceea203	-0.029129988
93	0xbd53e15c	-0.05172859
94	0xbd59b94c	-0.05315523
95	0x3d558d8f	0.052136954
96	0xbd6732a6	-0.056444786
97	0xbd697f53	-0.05700619
98	0xbd2876eb	-0.041129034
99	0xbcc62605	-0.024188051
100	0x3c267df6	0.010161867
101	0x3b721cf4	0.0036943527
102	0x3daa4fd8	0.0831601
103	0xbc82c2cf	-0.015962033
104	0x3cb59013	0.022163427
105	0x3ba0dcc8	0.0049091317
106	0xbd0dd0c2	-0.034622915
107	0xbc375592	-0.011189835
108	0x3b785c66	0.003789687
109	0x3c950d5c	0.018194847
110	0x3b82251b	0.0039717085
111	0x3d6804c4	0.05664517
112	0x3d54942e	0.051899128
113	0x3d43ce10	0.04780394
114	0xbcb28e4c	-0.021796368
115	0xbcc9858f	-0.024599819
116	0xbd6db8eb	-0.05803768
117	0x3b0b066d	0.0021213547
118	0x3c7460bc	0.014915641
119	0xbd4da749	-0.050208364
120	0x3d98608c	0.0744029
121	0x3d264a76	0.040598355
122	0x3d8ddbf9	0.06926722
123	0x3d1bfa8e	0.038080744
124	0x3d39b6e6	0.04534044
125	0xbc0dbba6	-0.008650696
126	0xbba6a568	-0.005085636
127	0x3cb78565	0.022402475
128	0xbcc54f52	-0.024085674
129	0xbcc31c9d	-0.023817355
130	0x3c5b61a4	0.013389979
131	0x3d1c32f0	0.038134515
132	0xbc080dc6	-0.008304065
133	0xbcaaa2fd	-0.020829672
134	0x3ce1f316	0.027581733
135	0x3c686911	0.014185206
136	0xbd543c8a	-0.051815547
137	0xbc106143	-0.0088122515
138	0xbd190ddd	-0.037366737
139	0x3c510a72	0.012758838
140	0x3d7ad701	0.0612402
141	0x3cc03568	0.023462966
142	0x3d749eb3	0.05972166
143	0xbcf8dd6e	-0.030379023
144	0xbd2ccf05	-0.042189617
145	0xbc689e51	-0.014197902
146	0xbb3bd8d0	-0.0028663166
147	0xbc9e8fb5	-0.019355634
148	0x3cf1eedf	0.029532848
149	0x3cc8664c	0.024462841
150	0x3dc1bf70	0.09460342
151	0xbd310273	-0.043215226
152	0xbbc06b23	-0.0058721467
153	0xbd9130db	-0.070893966
154	0x3cf842d5	0.030305305
155	0xbc282ed2	-0.010265069
156	0xbcd418bf	-0.025890706
157	0x3cce9cd4	0.025221266
158	0x3cd5d879	0.026104199
159	0x3d3a2673	0.045446824
160	0xbbcfdc4a	-0.006343399
161	0x3ce55412	0.02799419
162	0x3c5fb840	0.0136547685
163	0xbc00016d	-0.00781284
164	0xbdc074d5	-0.09397284
165	0x3cbbe9ba	0.022938598
166	0xbd16e396	-0.036838137
167	0xbd4f0827	-0.050544884
168	0xbd327224	-0.043565884
169	0xbbb930d5	-0.005651573
170	0xb9e8a52c	-0.0004437355
171	0x3dd18fdb	0.102325164
172	0x3c38d808	0.011281975
173	0xbd474f63	-0.048659693
174	0x3d9721fa	0.073795274
175	0x3d2a8f60	0.04164064
176	0x3d5bd94e	0.053674035
177	0xbc986cbe	-0.01860654
178	0xbcaae382	-0.020860437
179	0xbcf8a97b	-0.030354252
180	0xbc0445e1	-0.008073301
181	0x3c7e3740	0.015516102
182	0xbd26c96e	-0.040719442
183	0x3d68dc18	0.056850523
184	0x3c4c6a86	0.012476569
185	0x3bd53e6e	0.0065076863
186	0xbce4ad7c	-0.027914755
187	0xbd202b08	-0.039103538
188	0x3b90827d	0.0044100867
189	0x3c09ddec	0.008414727
190	0x3db69bb5	0.089164175
191	0x3cd65d8b	0.026167652
192	0xbced8758	-0.028995201
193	0x39eee299	0.00045563726
194	0x3da3cc1c	0.07997915
195	0x3d863467	0.06552964
196	0xbcbc7d2b	-0.023008903
197	0x3c4ee4ae	0.012627764
198	0xbca2555a	-0.01981609
199	0xbc977c58	-0.018491909
200	0xbdc9cd12	-0.09853567
201	0xbc83059d	-0.015993888
202	0x3d2453c1	0.040118936
203	0x3d136e36	0.035993777
204	0xbd03d080	-0.032181263
205	0xbd084234	-0.03326626
206	0xbd8b420d	-0.067997076
207	0xbd07b95f	-0.033135768
208	0x3b594c16	0.0033156923
209	0xbbbba622	-0.0057265917
210	0x3d946af4	0.07246962
211	0xbc9a30f5	-0.018822173
212	0x3d9088ac	0.07057318
213	0x3d006467	0.03134575
214	0xbc9d14b7	-0.019174917
215	0xbb4f64de	-0.0031645815
216	0x3c9a5c66	0.018842887
217	0xbd6bb281	-0.05754328
218	0x3cb63a07	0.022244466
219	0x3c394bef	0.011309608
220	0x3ca97404	0.020685203
221	0xbd0735d7	-0.03301033
222	0xbd11f26f	-0.035631593
223	0x3d271478	0.040791005
224	0xbced1e49	-0.028945105
225	0x3d64fbe1	0.055904273
226	0x3d9a74cc	0.075418085
227	0x3b6fc689	0.0036586842
228	0x3d7a0439	0.061039183
229	0x3d2cb8ce	0.04216843
230	0x3da9de28	0.08294326
231	0x3d6b5b6e	0.05746024
232	0xbd844e46	-0.06460242
233	0xbd0dc859	-0.034614895
234	0xbc96f208	-0.018425956
235	0xbc9afefb	-0.018920412
236	0xbc8652ca	-0.016396899
237	0x3ccfdb2a	0.02537306
238	0x3cfa9c48	0.030592099
239	0xbaab88ac	-0.0013086996
240	0x3d1569c2	0.03647781
241	0xbd893729	-0.06699974
242	0xbc26079d	-0.010133651
243	0xbd04a5c6	-0.032384656
244	0x3cc84c2b	0.024450382
245	0xbd47745e	-0.04869496
246	0x3c810190	0.015747815
247	0xbd95d47e	-0.0731592
248	0x3c144309	0.009049186
249	0xbca8abc0	-0.02058971
250	0xbc98ee4f	-0.018668322
251	0xbd5ae2d3	-0.053438973
252	0x3d366647	0.044531133
253	0xbb44391e	-0.002994127
254	0x3cb53c37	0.02212344
255	0x3d4aca0d	0.049509097

network.2.bias f4 [64]
0	0x3cfbae5f	0.030722795
1	0x3d5af151	0.053452794
2	0x3d3a0216	0.045412146
3	0xbc99866c	-0.018740855
4	0xbd806230	-0.06268728
5	0xbc4d5acb	-0.012533854
6	0xbd064033	-0.03277607
7	0x3bb04b76	0.0053800894
8	0xbd19db30	-0.03756255
9	0x3d54db50	0.051966965
10	0xbcb87390	-0.022516042
11	0x3d3a0ae4	0.045420542
12	0x3d350542	0.044194467
13	0xbc8b5317	-0.017007394
14	0xbbd10b5c	-0.006379528
15	0x3c9a02dd	0.018800193
16	0x3bf72599	0.007542324
17	0xbca32786	-0.019916307
18	0xbd50dc19	-0.05099115
19	0xbd61c60e	-0.05512052
20	0xbc629f60	-0.013831943
21	0xbd4dbca2	-0.050228722
22	0x3c0ef756	0.008725962
23	0xbc84456d	-0.016146386
24	0xbcdfa1e5	-0.027298877
25	0x3d47944e	0.04872542
26	0x3d1dfccc	0.038571164
27	0x3cd747ed	0.026279414
28	0xbd5c008f	-0.05371147
29	0xbd1f6dae	-0.038922958
30	0xbd2a8dd5	-0.041639168
31	0x3b316221	0.0027066546
32	0xbd4d366f	-0.05010074
33	0x3d5a3bac	0.053279564
34	0xbcafc6a5	-0.021457026
35	0x3d01c72b	0.031684082
36	0xbd1edfd6	-0.038787685
37	0x3d04443e	0.032291643
38	0xbbf3b758	-0.0074376278
39	0x3cd84de5	0.02640433
40	0x3d48aaf9	0.048991177
41	0xbcf611d4	-0.030037798
42	0x3c8b49ad	0.017002905
43	0x3d3ea912	0.046547957
44	0x3d15e95e	0.03659951
45	0x3c7e3a2a	0.015516797
46	0xbca18bd8	-0.019720003
47	0x3c882539	0.016619312
48	0x3c937042	0.017997865
49	0x3d3d9b74	0.04629083
50	0x3c2773d4	0.010220487
51	0xbd16ab0f	-0.036784228
52	0xba5d95a1	-0.00084527774
53	0x3c8297a2	0.015941445
54	0x3c928e80	0.017890215
55	0xbccb6531	-0.024828525
56	0x3d243465	0.04008903
57	0x3d50dd87	0.050992515
58	0x3c236699	0.009973192
59	0xbca9dd3c	-0.020735376
60	0xbd5e8a13	-0.054330897
61	0xbd06934b	-0.032855313
62	0x3d418335	0.04724427
63	0x3c9baae6	0.01900239

network.4.weight f4 [64, 64, 3, 3]
0	0x3be8048a	0.007080619
1	0xbd544ee4	-0.05183305
2	0x3a0e8978	0.00054373546
3	0x3c0ef279	0.008724802
4	0x3cf13fe7	0.029449416
5	0x3d3824de	0.044957034
6	0xbc942827	-0.018085552
7	0xbce91b91	-0.028455527
8	0xbc91a094	-0.017776765
9	0x3cf227b0	0.02955994
10	0x3b97fd68	0.0046383627
11	0xbce5bb72	-0.028043482
12	0xbcb77106	-0.022392761
13	0xbc98a8ce	-0.01863518
14	0x3d31cec2	0.04341007
15	0xbb5573c4	-0.0032570222
16	0xbd45591c	-0.048180684
17	0x3cb92fd3	0.022605812
18	0x3d419e23	0.04726995
19	0x3ca3ceb6	0.019996028
20	0xbbff708f	-0.0077954005
21	0xbc5d73bd	-0.013516364
22	0x3c8c5fb3	0.017135477
23	0x3cd7490b	0.026279947
24	0x3cedeccd	0.02904358
25	0x3b2f0e0c	0.0026711253
26	0x3d03f1c8	0.032213002
27	0x3b3bf3b6	0.0028679199
28	0x3c02ea36	0.007990411
29	0xbc010e3e	-0.007876931
30	0x3da46215	0.0802652
31	0x3d595e64	0.053068534
32	0x3d0ab06c	0.033859655
33	0xbc4973aa	-0.012295643
34	0xbd00f01d	-0.03147899
35	0xbd19e07a	-0.037567593
36	0xbcbd09c3	-0.023075944
37	0x3cb6eda1	0.022330107
38	0xbbb8598d	-0.0056259097
39	0xbd2dcb74	-0.042430356
40	0x3cfbb812	0.03072742
41	0xbd019306	-0.031634353
42	0x3a164b6d	0.0005733285
43	0xbd0a348c	-0.03374152
44	0x3c27a467	0.010232068
45	0x3d1de6c7	0.038550165
46	0x3c205b37	0.009787372
47	0x3cec974c	0.028880738
48	0xbbdc9988	-0.0067321695
49	0x3d4c0dc1	0.049817804
50	0x3c83af7d	0.01607489
51	0x3d6fb3ee	0.058521204
52	0xbcb69132	-0.022286031
53	0xbbd6d0f0	-0.006555669
54	0x3ce3816d	0.027771676
55	0x3c4a5078	0.012348287
56	0xbd16b6ed	-0.036795545
57	0xbba822d2	-0.005131104
58	0xbbc29c78	-0.0059390627
59	0x39a6ab0d	0.0003178943
60	0x3d5fa30f	0.054598864
61	0xbb4cdf7e	-0.0031261141
62	0x3d2b0ecc	0.04176216
63	0x3d140421	0.03613675
64	0x3c9a06a6	0.018801998
65	0x3c12dc62	0.008963676
66	0x3d72d705	0.05928709
67	0xbcde6bee	-0.027151074
68	0x3af7b572	0.0018898679
69	0xbcc4623e	-0.023972627
70	0xbc83b2b9	-0.016076433
71	0xbd64f168	-0.055894285
72	0xbd9af9fb	-0.07567211
73	0xbd8835c0	-0.06650877
74	0x3d059d01	0.032620434
75	0xbd07d20e	-0.033159308
76	0x3c89d535	0.016825298
77	0x3cf2f8fb	0.029659739
78	0x3ca43725	0.020045826
79	0xbcda9c3a	-0.026685823
80	0xbd1e83f1	-0.038700048
81	0x3d21bf8a	0.039489307
82	0xbc3552ba	-0.011067087
83	0xbb837b2e	-0.004012487
84	0xbd1df96a	-0.038567938
85	0xbd589877	-0.052879777
86	0xbd11464f	-0.035467442
87	0x3d259a69	0.04043046
88	0x3d00ec22	0.031475194
89	0x3d8dd413	0.069252156
90	0x3dafd3b7	0.08585303
91	0xbc306c69	-0.0107680345
92	0xbc991bd8	-0.018690035
93	0xbd034837	-0.03205129
94	0xbc212f63	-0.009837958
95	0xbd4baf26	-0.04972758
96	0x3c6bfad6	0.014403066
97	0xbbfcb549	-0.0077120406
98	0xbca51e84	-0.020156153
99	0x3c29be8d	0.010360372
100	0x3bfdc56f	0.007744483
101	0xbd1a3b0b	-0.037653964
102	0x3d39645d	0.04526173
103	0xbcbdedfd	-0.02318477
104	0x3d371119	0.04469404
105	0x3c99a02e	0.018753137
106	0x3cc99d3d	0.02461111
107	0x3cf63225	0.030053208
108	0xbd077d23	-0.033078324
109	0xbd8713c3	-0.06595566
110	0xbd33c570	-0.043889463
111	0xbccad52f	-0.024759857
112	0x3be39968	0.0069457777
113	0x3d7d3acc	0.06182365
114	0xbd12bb1a	-0.035822965
115	0xbce553f0	-0.027994126
116	0xbd5205a7	-0.05127492
117	0x3d03f71d	0.032218087
118	0x3c8365c3	0.016039735
119	0x3cda31c3	0.026635056
120	0xbcf7a449	-0.030229704
121	0xbbc0a5c2	-0.005879135
122	0x3d357ffe	0.044311516
123	0xbd13245c	-0.035923347
124	0x3d42a820	0.047523618
125	0x3d4b0b6c	0.04957144
126	0xbc321f14	-0.010871667
127	0xbda026ed	-0.078199245
128	0xbc2fd37b	-0.010731573
129	0xbc3e0aa7	-0.011599219
130	0xbd0ac38c	-0.033877894
131	0xbd233808	-0.039848357
132	0xbcfe42d8	-0.031037733
133	0x3cb8a92a	0.022541601
134	0xbd0482aa	-0.032351173
135	0x3cc11c72	0.023573134
136	0xbd114636	-0.03546735
137	0x3ca49c0e	0.020093944
138	0xbc822a6e	-0.015889373
139	0x3c771f11	0.01508309
140	0x3d2a16a8	0.041525513
141	0x3d250330	0.040286243
142	0xbcf29912	-0.029614005
143	0xbc67b243	-0.014141622
144	0x3d3441ac	0.044007942
145	0xbd818a8c	-0.06325254
146	0x3bc00bbf	0.0058607752
147	0x3d0d5b7d	0.03451108
148	0x39664811	0.00021961356
149	0xbd89e045	-0.06732229
150	0xbca8053a	-0.020510305
151	0x3b77e4ff	0.0037825701
152	0xbd2792ea	-0.040911593
153	0xbc5e45f4	-0.013566483
154	0xbc7242da	-0.0147864465
155	0x3d483a85	0.048883934
156	0x3d6e9be9	0.058254156
157	0xbbe17cee	-0.006881348
158	0x3d3d8855	0.046272594
159	0x3c127338	0.008938603
160	0x3d546433	0.05185337
161	0x3d534f16	0.051589094
162	0x3d123ec8	0.035704404
163	0xbd2b30b5	-0.041794498
164	0x3d20a0f5	0.039216
165	0xbc97d554	-0.01853434
166	0x3d10518d	0.035234023
167	0x3d83f046	0.06442313
168	0xbbaf7444	-0.005354436
169	0x3c90ef49	0.017692225
170	0xbd4acf31	-0.049514
171	0x3d3ed885	0.046593208
172	0x3b6c3cf2	0.0036047068
173	0xbd67ba8c	-0.05657439
174	0x3ccd2614	0.025042571
175	0x3d796b39	0.06089327
176	0x3d1a8b5b	0.037730556
177	0xbc05d83c	-0.00816923
178	0x3a9cd604	0.0011965637
179	0x3d80068f	0.06251251
180	0x3b92f741	0.0044850414
181	0x3d2b1cef	0.04177564
182	0x3ccabbe7	0.024747802
183	0x3d069289	0.03285459
184	0xbcef2c67	-0.029195977
185	0xbac66fb3	-0.001513949
186	0x3c319e1a	0.010840917
187	0xbd9a90bf	-0.075471394
188	0x3c9a6b33	0.018849945
189	0x3d95e988	0.07319933
190	0x3d4cb7b2	0.049979873
191	0xbd6ba1e1	-0.057527427
192	0x3c34e99b	0.011042024
193	0x3c6280a9	0.01382462
194	0x3d1fb255	0.03898843
195	0xbcb8c3fd	-0.022554392
196	0x3d056f9b	0.03257714
197	0x3cc8d4ec	0.024515592
198	0x3d8ac517	0.06775873
199	0xbd21987e	-0.03945207
200	0xbc55b1bf	-0.013042866
201	0xbb1b30f5	-0.0023680304
202	0x3c40efe5	0.011775945
203	0x3d0f3f51	0.034972493
204	0xbac8de38	-0.0015325015
205	0xbca20caf	-0.019781439
206	0xbd656d29	-0.056012306
207	0xbd1dee02	-0.03855706
208	0x3e1799cf	0.14804767
209	0xbda3cbd5	-0.07997862
210	0xbcd2736e	-0.025689807
211	0x3d79e328	0.06100765
212	0x3c01c73e	0.007921038
213	0x3d140ae7	0.03614321
214	0x3cebf1e9	0.028801875
215	0xbba364a9	-0.004986365
216	0xbc99efaa	-0.018791039
217	0xbc3da0ac	-0.011573952
218	0x3c6b52c9	0.014362999
219	0x3d592f74	0.05302377
220	0x3d6fe51e	0.058568113
221	0x3d6a09dc	0.05713831
222	0xbd1f147f	-0.038837906
223	0xbca1bbf6	-0.019742947
224	0x3c579cda	0.013159955
225	0xbb17985e	-0.002313159
226	0x3c9a8c12	0.018865619
227	0xbd1478d4	-0.036248043
228	0x3b0bdbe4	0.0021340782
229	0x3c2519d1	0.010076956
230	0xbc528318	-0.012848638
231	0xbd0293b8	-0.031879157
232	0xbc072aa4	-0.008249912
233	0x3cef7b0c	0.029233478
234	0x3cd0e1b8	0.025498256
235	0xbd36b70f	-0.044608172
236	0x3cdd675d	0.027026827
237	0x3c804318	0.015656993
238	0xbd50f918	-0.051018804
239	0x3b1ca83d	0.0023903989
240	0x3d1783ba	0.03699086
241	0x3cc18f89	0.023628013
242	0xbd410086	-0.04711964
243	0x3cea09bb	0.028569093
244	0xbd6549d0	-0.055978596
245	0x3d1f97c8	0.03896311
246	0xbc960195	-0.018311301
247	0xbd565084	-0.05232288
248	0xbcbb8954	-0.022892632
249	0x3d2d5f5f	0.04232728
250	0xbd09a79f	-0.03360712
251	0xbae1a2e6	-0.0017214685
252	0x3c413f44	0.011794869
253	0x3d91c960	0.07118487
254	0xbc204ca9	-0.009783902
255	0x3cb0be38	0.021575078

network.4.bias f4 [64]
0	0x3d05372a	0.03252331
1	0xbb8cc8ed	-0.004296413
2	0xbbe3d34e	-0.0069526797
3	0x3d20365e	0.03911435
4	0xbbfe0917	-0.0077525484
5	0xbc16b390	-0.0091980845
6	0x3d03e42e	0.03220003
7	0xbbacb66a	-0.005270769
8	0x3b9147b1	0.004433595
9	0x3c8650f4	0.016396023
10	0x39ada026	0.0003311645
11	0xbcadff79	-0.021239983
12	0x3c63bcd5	0.0139000015
13	0xbcd8529f	-0.026406584
14	0xbc2b6537	-0.010461143
15	0x3d111e0f	0.035429057
16	0x3d150d48	0.03638962
17	0xbc007942	-0.00784141
18	0x3d25caaf	0.040476497
19	0x3c27f9b1	0.010252402
20	0x3b37231e	0.0027944515
21	0x3c7d8337	0.015473179
22	0x3d01456a	0.03156034
23	0x3ca3ac4c	0.019979618
24	0xbc74361a	-0.014905477
25	0xbcfde424	-0.030992575
26	0x3c2752d3	0.010212618
27	0x3c9ff424	0.019525595
28	0xbd0e03d7	-0.03467163
29	0x3d09c810	0.03363806
30	0x3c58a5af	0.013223096
31	0xbcfc2fec	-0.03078457
32	0x3cae1651	0.021250876
33	0x3c865557	0.016398115
34	0xbc9812c8	-0.018563643
35	0x3d4213e3	0.047382247
36	0xbcd6adf0	-0.026205987
37	0x3d1b78f8	0.03795716
38	0xbcf5468d	-0.029940868
39	0xbcf23f18	-0.029571101
40	0xbcf6336f	-0.030053822
41	0xba9a197c	-0.0011756863
42	0x3cf707f6	0.030155163
43	0xbc98ec27	-0.018667294
44	0xbd22d067	-0.03974953
45	0xbb5f691d	-0.0034089752
46	0x3cfb7425	0.03069503
47	0xbc9aee52	-0.018912468
48	0xbca1f3bf	-0.019769548
49	0x3d02a338	0.03189394
50	0x3d55734f	0.05211192
51	0x3c2b5cee	0.010459168
52	0xbd140a33	-0.03614254
53	0xbcc58c9a	-0.024114896
54	0x3c44f6bb	0.012021716
55	0x3c71627b	0.014732952
56	0x3d079d2a	0.033108868
57	0x3c3e5c2f	0.011618658
58	0x3c6b6d75	0.014369358
59	0xbb5bcf68	-0.0033540372
60	0x3d326c81	0.04356051
61	0x3c547631	0.012967632
62	0xbd2db94d	-0.042413045
63	0x3ad1969e	0.0015990322

actor.weight f4 [5, 3136]
0	0xbc7284dd	-0.014802185
1	0xbca884a4	-0.02057106
2	0xbc41eb3c	-0.011835869
3	0xbc7d4497	-0.015458248
4	0xbca0d68b	-0.019633552
5	0xbca05a83	-0.01957441
6	0x3bd94e96	0.0066316826
7	0xbc044551	-0.008073167
8	0x3b580ddc	0.0032967245
9	0x3bb52d16	0.0055290563
10	0xbbf44d18	-0.0074554794
11	0xbc5f9345	-0.013645952
12	0xbb796d3c	-0.0038059494
13	0x3aace00a	0.0013189327
14	0xbb233685	-0.0024904322
15	0x3b295a88	0.0025841314
16	0x3bd40ddf	0.00647138
17	0xbb3a9679	-0.0028471036
18	0xbc284159	-0.010269486
19	0xbc3f858a	-0.011689553
20	0xbbe7b8da	-0.0070715966
21	0x3ccad10d	0.024757886
22	0x3cafa041	0.02143872
23	0x3c932543	0.017962104
24	0x3c288429	0.010285416
25	0xbc815387	-0.0157869
26	0xbc23d641	-0.009999813
27	0x3afa8e97	0.0019115981
28	0x3c63b674	0.013898481
29	0x3bfafa7c	0.0076592546
30	0x3bd51f97	0.00650401
31	0xbaa90bb0	-0.001289716
32	0xbc4285bb	-0.011872704
33	0xbc88aa49	-0.01668276
34	0xbc4f8fb8	-0.012668543
35	0x3c052794	0.008127112
36	0x3c180669	0.009278872
37	0x3c814c7a	0.015783537
38	0x3cba8283	0.022767311
39	0x3c52d626	0.01286844
40	0xbc4e8e41	-0.012607158
41	0xbc03e287	-0.008049614
42	0x3bdf71c5	0.0068189823
43	0x3c046209	0.008080014
44	0xbbde9058	-0.0067921095
45	0x3b1d39ae	0.0023990679
46	0x3c2eb136	0.010662368
47	0xbbc336e5	-0.0059574717
48	0xbc0954a1	-0.0083819935
49	0xbca34c1a	-0.019933749
50	0xbc68d1ae	-0.014210148
51	0xbcaa18e7	-0.020763827
52	0xbc9b7248	-0.018975392
53	0xbc0be5d7	-0.008538685
54	0xbce0e88b	-0.027454635
55	0xbcc5c8ad	-0.024143541
56	0x372957cc	1.0093627e-05
57	0xbc245773	-0.010030615
58	0xbba54570	-0.005043678
59	0x3bc560e1	0.0060235118
60	0xbbd06a06	-0.006360295
61	0xbc4887da	-0.012239421
62	0xbbfd5cb8	-0.007732
63	0x3c0ed6f1	0.008718238
64	0x3c5e2957	0.013559661
65	0x3ae44e69	0.0017418388
66	0x3b974ecb	0.004617547
67	0x3c49cae4	0.012316439
68	0x3b00266a	0.0019554147
69	0x3ad512ac	0.0016256175
70	0x3cd5a860	0.026081264
71	0x3c2b564f	0.010457589
72	0x3c8221a8	0.01588519
73	0x3ca1b425	0.01973922
74	0x3c4650b1	0.012104199
75	0xbb3b4284	-0.0028573582
76	0x39e871c5	0.00044335253
77	0xbb293b85	-0.002582283
78	0xbbbe0603	-0.0057990565
79	0xbadac4f9	-0.0016690783
80	0xbb23400f	-0.0024910008
81	0x3b2e21ce	0.0026570442
82	0xbbee98bc	-0.007281391
83	0xbb1a1511	-0.0023511092
84	0x3c91c5e6	0.01779456
85	0x3b43ef31	0.0029897208
86	0x3bc34cbe	0.005960076
87	0x3baa5ada	0.0051988186
88	0x3b3dd9fe	0.0028969045
89	0x3bb8dbd1	0.0056414385
90	0x3bbad0ee	0.005701176
91	0xbc4168bd	-0.011804757
92	0xbc3ea0fb	-0.01163506
93	0xbc620ae6	-0.013796544
94	0xbc71a616	-0.014749071
95	0xbc450df8	-0.012027256
96	0xbc474967	-0.012163497
97	0xbbec05d7	-0.0072028446
98	0xbb91fc0b	-0.0044550947
99	0xbb90056b	-0.004395177
100	0xbbe66822	-0.0070314566
101	0x3aac4685	0.0013143575
102	0xbbe9dc2a	-0.0071368413
103	0x3cb15121	0.02164513
104	0xbadd3d2c	-0.0016879193
105	0x3c2d6a83	0.010584476
106	0x3c2e07ad	0.010621947
107	0xbb4abd3e	-0.003093555
108	0xba78cb1b	-0.00094907143
109	0x3b474be3	0.0030410222
110	0x3a763cdb	0.00093932234
111	0xbb1d6e29	-0.002402196
112	0x3baa6c68	0.0052009113
113	0xbb426e2d	-0.002966772
114	0xbc4259c6	-0.011862224
115	0xbc01a69c	-0.007913258
116	0xba32e0b6	-0.00068236457
117	0xbbbf0433	-0.005829358
118	0xbc2d049c	-0.010560181
119	0xba99b730	-0.0011727568
120	0xbbef596b	-0.0073043606
121	0xbc288d80	-0.0102876425
122	0xbc5fd183	-0.013660791
123	0x3aac596d	0.001314921
124	0xbbfcb6b7	-0.007712211
125	0xbc14540b	-0.0090532405
126	0xbbdf2533	-0.0068098544
127	0xbb9d369b	-0.0047977692
128	0xbb34afcf	-0.002757061
129	0x3a7eda08	0.000972182
130	0xbb215bdb	-0.00246214
131	0xbb53aba9	-0.0032298362
132	0x3ac26cc2	0.0014833438
133	0xbbe8ea6d	-0.007108024
134	0xbc87c0ce	-0.016571429
135	0xbc2d6914	-0.010584135
136	0xbbe399db	-0.0069458312
137	0x3c0c06ab	0.008546512
138	0xbb5c9ea9	-0.0033663905
139	0xbbad2325	-0.0052837306
140	0xbad65cfc	-0.0016354616
141	0x389435d5	7.067217e-05
142	0x3b1643ca	0.002292859
143	0x3b54da07	0.0032478587
144	0xba7c38fc	-0.00096215284
145	0xbc6ad53a	-0.014333064
146	0xbc89fee8	-0.016845182
147	0xbb214362	-0.0024606814
148	0xbb85a378	-0.004078325
149	0xbb2be1d5	-0.0026227136
150	0x392b12eb	0.00016314878
151	0xbb66b38d	-0.0035202235
152	0xbb9d8849	-0.004807506
153	0xbb849426	-0.004045981
154	0x3c80990a	0.015697975
155	0x3acff56d	0.0015865989
156	0x3b71d9b1	0.0036903436
157	0xbb20caf1	-0.0024535025
158	0xbc228025	-0.009918247
159	0xbb2dda79	-0.0026527925
160	0xbc0c3339	-0.008557134
161	0x3b9cb525	0.0047823363
162	0x3c13eb80	0.009028316
163	0x3bb6d203	0.0055792346
164	0xbbe1da67	-0.0068924907
165	0xbbd9ede0	-0.0066506714
166	0xbbcea41c	-0.0063061845
167	0xbb26f4d6	-0.0025475523
168	0x3baa2747	0.0051926705
169	0x3cd3d301	0.02585745
170	0x3ad13d33	0.0015963673
171	0xbbc466a8	-0.005993683
172	0xb9bc223b	-0.00035883658
173	0xbb912ece	-0.0044306284
174	0xba96c883	-0.0011503849
175	0x3c6ddff0	0.014518723
176	0x3b944a8a	0.0045254873
177	0xbaebf91a	-0.0018003315
178	0xbc5168b7	-0.012781314
179	0xbc286442	-0.01027781
180	0xbb94289c	-0.0045214426
181	0xbbc3aa4d	-0.005971229
182	0x3c85f409	0.016351717
183	0x39853bfd	0.00025412432
184	0xbb1bf482	-0.002379686
185	0xbc29baf4	-0.0103595145
186	0xbc15812d	-0.009125036
187	0xbb553ab1	-0.0032536204
188	0xbbad8dc8	-0.0052964427
189	0x3bdb1a74	0.006686503
190	0x3b464735	0.0030254845
191	0x3c767f98	0.015045069
192	0x3c47a8cc	0.01218624
193	0xbb0cf001	-0.0021505358
194	0xbc1f75ff	-0.009732722
195	0xbc0040f4	-0.007827986
196	0xbc6802ef	-0.014160856
197	0xbc2a7969	-0.010404923
198	0xbc2d33fe	-0.010571478
199	0xbc49e2ae	-0.012322111
200	0xbc906fcf	-0.01763144
201	0xbc04ac14	-0.008097667
202	0xbae1cdda	-0.0017227486
203	0xbc89316d	-0.0167472
204	0xbbea016d	-0.0071412832
205	0x3a515ecf	0.0007986845
206	0xbc57da3d	-0.013174591
207	0xbbf85f74	-0.0075797383
208	0x3872c110	5.78771e-05
209	0xbb361b9a	-0.0027787448
210	0xbc607ad9	-0.013701164
211	0xbbb9bedd	-0.0056685046
212	0xbc217bf2	-0.009856211
213	0xbc0fa108	-0.00876642
214	0xbc8fd6fa	-0.017558564
215	0xbc16f85b	-0.009214486
216	0xba82fdca	-0.0009993848
217	0x3bfb1096	0.0076618893
218	0x3bfbbf5c	0.007682724
219	0xbb7fd9c2	-0.0039039706
220	0xbbf99ace	-0.007617331
221	0xbb95df6c	-0.004573753
222	0xbc3f01f4	-0.0116581805
223	0xbba95f13	-0.0051688044
224	0xbb71f0d0	-0.0036917217
225	0xbbb982ff	-0.005661368
226	0xbc025f07	-0.007957227
227	0xbbfc2de2	-0.0076958993
228	0xbb4dae73	-0.0031384497
229	0xbc0afb97	-0.008482835
230	0xbaf3025b	-0.0018540131
231	0xbb31f5a2	-0.0027154465
232	0xbba49fed	-0.0050239475
233	0xbbfb0165	-0.0076600784
234	0x38135667	3.5128e-05
235	0xbbdc33ce	-0.006720043
236	0xbb528369	-0.0032121784
237	0xbc85a85b	-0.01631563
238	0x3ba36b13	0.0049871295
239	0x3c082ddb	0.008311714
240	0x3c541e02	0.012946608
241	0x3bbb8187	0.005722228
242	0x3c3b7478	0.0114413425
243	0xbc62adc9	-0.013835379
244	0xbc38d81a	-0.011281991
245	0x3ae91cb2	0.0017785041
246	0xbbe2789d	-0.006911351
247	0xbc517cd9	-0.012786114
248	0xbc1b5f98	-0.009483241
249	0x3c553990	0.013014212
250	0xbb17a525	-0.0023139205
251	0xbbd890e2	-0.0066090683
252	0x3acc6308	0.0015593478
253	0xbc35c892	-0.011095183
254	0xbc7aa077	-0.015297047
255	0xbc04b452	-0.008099632

actor.bias f4 [5]
0	0xbc195f2b	-0.009361069
1	0x3bc0e3da	0.005886537
2	0x3bac9989	0.0052673263
3	0x3b6cdf29	0.0036143756
4	0x3ad8d211	0.0016542097

critic.weight f4 [1, 3136]
0	0x3ca9b166	0.020714473
1	0x3da2645b	0.079292975
2	0x3d79739c	0.06090127
3	0x3da5f092	0.08102526
4	0x3d10e1da	0.03537164
5	0xbc577706	-0.013150936
6	0x3b75e5f5	0.0037521098
7	0xbd62e646	-0.055395387
8	0xbc40224c	-0.011726927
9	0x3b95d03f	0.004571944
10	0x3d50d041	0.050979856
11	0xbd99e04e	-0.07513486
12	0xbc98a4cd	-0.01863327
13	0xbbc1055a	-0.0058905305
14	0xbd228eb9	-0.039686892
15	0x3cc1d7ec	0.02366253
16	0xbc672325	-0.0141075
17	0x3d6299e3	0.05532254
18	0x3d3268d9	0.04355702
19	0xbce22787	-0.027606739
20	0x3c888db5	0.016669134
21	0xbd68fb52	-0.056880303
22	0xbb8621e2	-0.0040933946
23	0x3a836767	0.0010025323
24	0xbb146189	-0.0022641143
25	0xbd46145a	-0.048359253
26	0xbd1113c9	-0.03541926
27	0x3ad833b3	0.00164949
28	0x3a8b4615	0.0010625744
29	0x3be9ffb5	0.0071410784
30	0xbc30499c	-0.010759737
31	0x3cb3938f	0.021920947
32	0x3c14f851	0.009092406
33	0xbc2c2819	-0.010507607
34	0xbc986810	-0.018604308
35	0xbcf7bebe	-0.03024232
36	0xbcf020d2	-0.029312525
37	0x3ca20386	0.01977707
38	0xbd265fe3	-0.04061879
39	0x3b43d3cf	0.0029880886
40	0x3c52de38	0.012870364
41	0x3d4201b0	0.04736489
42	0xbcc975ca	-0.024592299
43	0xbcb008f0	-0.021488637
44	0xbd30f44e	-0.043201737
45	0x3ced1822	0.028942171
46	0xbd2a314c	-0.04155092
47	0xbb5f4908	-0.003407063
48	0x3cf0eb7a	0.029409159
49	0x3ca8ef72	0.020621989
50	0xbd5349d9	-0.0515841
51	0x3c240bd6	0.0100125875
52	0x3dd8bf8e	0.10583411
53	0x3d805480	0.06266117
54	0x3d176255	0.03695901
55	0x3d083aee	0.033259325
56	0x3d805b0f	0.06267368
57	0xbb5c3da8	-0.0033606086
58	0xbd085f19	-0.033293817
59	0xbd8cbd77	-0.06872075
60	0x3d1af83b	0.037834387
61	0x3d27cb47	0.040965345
62	0x3c8e5dd7	0.01737873
63	0xbc7ce6ce	-0.0154358875
64	0x3a1395e8	0.0005629943
65	0x3a58129d	0.00082425197
66	0xbc875416	-0.016519587
67	0x3b951f50	0.004550852
68	0xbd2a0b03	-0.041514408
69	0xbc18866e	-0.009309394
70	0xbba01852	-0.0048857117
71	0xbd6f3b1e	-0.058405988
72	0xbdc67035	-0.096893705
73	0x3ddbfa76	0.10741131
74	0x3d2b1e54	0.04177697
75	0xbd259ee5	-0.040434737
76	0xbc02e165	-0.007988309
77	0xb9968baf	-0.00028714302
78	0x3c284246	0.010269707
79	0xbcafaf98	-0.021446034
80	0x3af5759d	0.0018727068
81	0xbc5fc468	-0.013657667
82	0x3c259b69	0.010107853
83	0x3cbbb739	0.022914516
84	0xbc859780	-0.016307592
85	0xbd45ee20	-0.048322797
86	0xbd3b89ea	-0.045785822
87	0x3c331cd1	0.010932163
88	0xbd0718f6	-0.03298279
89	0xbd10c86a	-0.03534738
90	0x3c5c7894	0.013456482
91	0x3d147dde	0.03625285
92	0x3d8e5e6e	0.06951605
93	0x3d8bcd27	0.06826239
94	0x3d356220	0.044283032
95	0x3ca1d8f7	0.019756777
96	0x3d5e3205	0.05424692
97	0xbd0d197d	-0.034448136
98	0x3d226da5	0.039655346
99	0x3be34436	0.0069356216
100	0xbc9ccbc8	-0.01914014
101	0xbc97503a	-0.018470872
102	0xbca1cff0	-0.019752473
103	0x3bc4bab9	0.0060037044
104	0xbd020af1	-0.031748716
105	0x3d2cdb47	0.042201307
106	0xbc9e22ad	-0.019303644
107	0xbd064935	-0.03278466
108	0xbd8e9342	-0.06961681
109	0xbce26cb0	-0.027639717
110	0xbc9cdc95	-0.01914815
111	0x3ce09eae	0.027419414
112	0x3d83d460	0.06436992
113	0x3d417b35	0.04723664
114	0x3c53e8cc	0.012933921
115	0xbcfcca27	-0.030858112
116	0x3b33a97a	0.0027414248
117	0x3d5fc4e2	0.05463112
118	0xbd40e94e	-0.047097497
119	0x3c43d537	0.01195269
120	0x3c69fb6d	0.014281136
121	0x3ce9aa74	0.028523661
122	0x3ccd2a05	0.02504445
123	0x3ce5df96	0.028060716
124	0x3d81f79b	0.06346055
125	0x3d258ebf	0.040419336
126	0x3c744019	0.01490786
127	0x3d3ddeb5	0.046354968
128	0x3cfce1f1	0.030869456
129	0x3da658da	0.08122416
130	0x3d7d5de2	0.06185711
131	0x3d49a7f7	0.04923245
132	0x3db4f43f	0.08835649
133	0x3c3fb610	0.011701122
134	0x3c10a254	0.008827765
135	0x3d31c424	0.043399945
136	0xbcb6c55a	-0.022310901
137	0x3d3c7edc	0.04601942
138	0x3d1c5a0f	0.038171824
139	0x3ceea331	0.02913055
140	0xbc3ff02f	-0.011714979
141	0xbd335117	-0.043778505
142	0xbc5e09c7	-0.013552136
143	0xbd720986	-0.059091114
144	0xbc35dec4	-0.011100475
145	0x3b1cf8a6	0.0023951917
146	0x3c71e20a	0.014763365
147	0x3d010cb0	0.03150624
148	0xbb7b914d	-0.0038386167
149	0xbc2a92a9	-0.010410943
150	0xbc0c5f2a	-0.008567611
151	0xbc838c1b	-0.016058018
152	0x3c27022f	0.010193392
153	0xbcfd9e68	-0.030959323
154	0xbd173f93	-0.036925863
155	0x3ba13dee	0.0049207127
156	0x3c00f280	0.0078703165
157	0xbc47c573	-0.012193072
158	0xbd4dd8ac	-0.050255463
159	0x3d206b9f	0.039165135
160	0xbcba7c7d	-0.022764439
161	0x3bf27293	0.007398912
162	0x3d984de3	0.07436731
163	0x3d3015c9	0.042989526
164	0xbd109f56	-0.035308205
165	0xbd27e793	-0.04099233
166	0xbca24c19	-0.019811677
167	0xbc8bea2a	-0.017079432
168	0x3ccd7c3c	0.025083654
169	0xbc1af204	-0.009457115
170	0xbd221c2a	-0.03957764
171	0x3b997c08	0.004683975
172	0xbbb06d78	-0.0053841434
173	0xbd0b53ec	-0.03401558
174	0x3d91c8fb	0.07118412
175	0xbcfefda2	-0.0311268
176	0xbd1749e7	-0.036935713
177	0x3c4372d7	0.011929235
178	0x3cc0f491	0.023554118
179	0x3d333a84	0.043756977
180	0x3c7cd159	0.015430772
181	0x3d9d152b	0.07670053
182	0xbab1b9d8	-0.0013559414
183	0x3d881212	0.06644072
184	0x3d508a71	0.050913278
185	0x3c55cd69	0.013049462
186	0x3bd718f3	0.0065642535
187	0x3cd5a096	0.02607755
188	0x3c84cef1	0.016211959
189	0xbc9af439	-0.018915283
190	0x3c6d936b	0.014500479
191	0x3b1db26d	0.002406265
192	0xbd5ab0b1	-0.053391162
193	0x3b8dfa18	0.004332792
194	0x3bd99f66	0.006641316
195	0x3bef1d49	0.0072971922
196	0xba4284d8	-0.0007420308
197	0x3d49d1fc	0.049272522
198	0x3d8ef643	0.069805644
199	0x3cd6974e	0.026195195
200	0xbd2c2fd4	-0.0420378
201	0x3bc6930b	0.0060600094
202	0x3d42233a	0.047396876
203	0xbcf63807	-0.030056013
204	0xbc29ac38	-0.010356002
205	0x3d2b74a5	0.041859288
206	0xbcfe2a32	-0.03102598
207	0xbd807a8c	-0.06273374
208	0x3d48a4c8	0.048985273
209	0xbc0b33fa	-0.008496279
210	0x3d0431b3	0.03227396
211	0x3d81f036	0.06344645
212	0xbd094e27	-0.033521798
213	0x3d1b4391	0.037906233
214	0x3b3e7775	0.00290629
215	0xbda32244	-0.0796552
216	0xba6a4310	-0.00089363847
217	0xbcf348ba	-0.029697765
218	0xbc7f0d13	-0.015567082
219	0x3cf73797	0.030177874
220	0x3d2bc66d	0.04193728
221	0xbd5c2346	-0.053744577
222	0xbba0f084	-0.004911484
223	0x3dafed09	0.08590133
224	0xbc82b788	-0.015956655
225	0x3d2a47fd	0.04157256
226	0xbb5d71f5	-0.0033789848
227	0xbba45aad	-0.005015692
228	0x3bdb835f	0.0066990103
229	0xbc8da3a2	-0.01728994
230	0x3d347888	0.04406026
231	0xbcb7dab0	-0.022443146
232	0x3c9a48d6	0.018833559
233	0x3c20e850	0.009821013
234	0xbd8f2871	-0.069901355
235	0xbc109e3d	-0.008826789
236	0xbc37edbd	-0.011226115
237	0xbd2550c4	-0.040360227
238	0xbd42c734	-0.047553256
239	0xbd029db3	-0.031888675
240	0x3cd2a59f	0.02571374
241	0xbc87d6c5	-0.016581902
242	0xbd2366e8	-0.03989306
243	0x3d197483	0.03746463
244	0xbcec846f	-0.028871743
245	0x3d181099	0.037125204
246	0x3c3bd030	0.01146321
247	0x3d2381b9	0.039918635
248	0x3d2e25f4	0.042516664
249	0x3c1aca99	0.009447717
250	0xbc43ccec	-0.011950713
251	0xbc0953c6	-0.00838179
252	0xbbae74dc	-0.0053239893
253	0x3d643a2f	0.05571955
254	0x3b8480c1	0.004043669
255	0x3cbae7ff	0.022815702
