PARALLEL/models/PRED_GROUP_POLICY_BOTH_INDIV_RWD_500.ckpt (torch, 307342 bytes, 9 tensors)

network.0.weight f4 [32, 5, 3, 3]
000000 8e 59 de 3d 93 0f b0 3d 78 b7 08 bd 57 7f ff bd
       0.10856925 0.085967205 -0.033378094 -0.1247546
000010 3e 28 db bc ff 74 aa bd de ba 95 3d 60 da ff bc
       -0.026752587 -0.083230965 0.07311033 -0.031232059
000020 79 3e f4 bd 4f 9e b5 3c 55 56 e5 3d 30 72 53 3e
       -0.11925978 0.022170214 0.11198107 0.20649028
000030 46 30 0c 3e 59 a0 ff 3d 09 68 3f bd 20 c4 26 3e
       0.1369029 0.12481756 -0.046730075 0.16285753
000040 f1 10 89 bd 81 e1 66 3e 61 5b 2a be 52 e0 11 bd
       -0.066926844 0.2254696 -0.16636421 -0.03561432
000050 ea ed 27 3b 13 99 14 bd ea f9 86 bc 4c c1 d3 3d
       0.0025623986 -0.036278795 -0.01647659 0.10339603
000060 97 a6 05 3b 88 ec 1d 3d 2c 8a f6 3c fb 1d 62 3d
       0.0020393485 0.038555652 0.030095182 0.055204373
000070 de 2a 0e 3e ab 35 9c bc 34 a2 a5 3d eb 2c 39 3e
       0.1388354 -0.01906856 0.080875784 0.18083541
000080 e5 5a dd 3d b7 e9 08 3e 55 ea 17 bd 38 2d d3 3d
       0.108083524 0.13370405 -0.03708871 0.10311359
000090 20 f8 c3 bc c2 8f ce 3d 09 72 f4 bd 53 25 ef 3d
       -0.023922026 0.100860134 -0.11935813 0.11677041
0000a0 b0 04 f4 3d 40 66 d9 3d 02 3a f4 bd e2 40 2e 3d
       0.119149566 0.10615206 -0.119251266 0.042542346
0000b0 d5 16 d5 bd 22 cd df 3d d2 a2 8e bd d3 23 37 3d
       -0.104047455 0.10927798 -0.06964649 0.0447119
0000c0 b2 5e f1 3d 2f c4 b5 3d 0d c8 a1 3d 98 e1 9a 3d
       0.1178564 0.0887531 0.07899485 0.0756256
0000d0 43 7f a2 3d 1c 94 c1 3d 6e f0 80 be a9 df ce bd
       0.079344295 0.09452078 -0.25183433 -0.101012535
0000e0 f3 f2 2a 3b 22 ae 41 be 72 e3 0e be eb 8f e8 bd
       0.002608475 -0.18914083 -0.13953951 -0.11355575
0000f0 49 81 0f 3d dd 0a 2f bd e5 ce db bd 23 51 bb bc
       0.035035405 -0.04273497 -0.107328214 -0.022865837
000100 15 92 f7 3b e7 c7 e3 bd e5 1a 09 bc c2 5f a6 3d
       0.007555256 -0.11122113 -0.008368229 0.08123733
000110 e1 22 c5 bd 22 09 f2 3d 26 fe 12 3e 68 87 93 3d
       -0.09625793 0.11818148 0.14354762 0.07203561
000120 e3 68 88 3d 5c d0 11 be 3a e1 37 be 05 cd e3 3d
       0.066606306 -0.14239639 -0.17957011 0.11123089
000130 44 8f 0b 3d 78 d9 f3 bc 16 d4 05 be 5d d2 51 be
       0.034072176 -0.029766783 -0.13069186 -0.20490403
000140 df c4 13 be 6a c0 4a bd 11 75 04 3e 4b d9 06 bd
       -0.14430569 -0.049499907 0.12935282 -0.03292207
000150 5e ea fe 3c 12 1e ea 3d c6 bc 30 3e d0 89 98 3d
       0.031117614 0.11431517 0.17259511 0.07448161
000160 51 06 e3 bd 6b d2 d0 3d fd 32 fe bd 2a 06 f5 bc
       -0.11085189 0.10196384 -0.12412069 -0.029910166
000170 e9 83 b5 3d 99 6c ac 3d ed a7 1f be 9f 84 9c 3d
       0.088630505 0.08419151 -0.15591402 0.07642483
000180 95 60 fa bc 5d 2f 09 be fd 82 25 be de 77 ed bd
       -0.030563632 -0.13396974 -0.1616325 -0.115951285
000190 d0 be be bd 74 c2 8a 3c b1 1f 07 be b6 73 8a bd
       -0.09313738 0.016938426 -0.13195683 -0.06760351
0001a0 12 ea 5c 3e 16 ce c5 bc 45 6f c9 3b 94 78 83 3e
       0.21573666 -0.024146121 0.0061472976 0.2567793
0001b0 f9 60 03 3b c1 d6 bf bb 3d b3 98 3c e3 ec 00 3e
       0.0020046814 -0.005854458 0.018640155 0.12590365
0001c0 17 68 90 3d 6d bd 01 be 2a 93 40 3d 9d f4 fa 3c
       0.070511036 -0.12669916 0.047015347 0.030634219
0001d0 b8 38 8c 3d ae 02 57 bc 5f c4 b5 3d 84 a7 ee bc
       0.06846756 -0.0131231975 0.088753454 -0.029132612
0001e0 f0 07 43 3d a0 a5 89 bd 0a fe 08 3d 06 09 fc bd
       0.04761499 -0.067210436 0.033445396 -0.123064086
0001f0 90 ea 41 ba 6c 58 a4 3b 8f fa c6 bc fa dd 1e 3e
       -0.0007397318 0.0050154235 -0.024289398 0.15514365
000200 46 74 14 3e 47 e4 13 3e 9a 66 6b 3d 20 ff c8 3d
       0.1449748 0.1444255 0.057470895 0.09814286
000210 14 9f c8 3d 71 9c b4 bd f4 11 06 3e fc ec d7 3d
       0.09795967 -0.08818901 0.13092786 0.10543248
000220 60 0c b9 39 2a 76 30 3d c7 ca 02 3e 7e f6 11 3e
       0.0003529517 0.04308144 0.12772666 0.14254186
000230 56 0f 48 bd bc bd 2c bd 31 a7 5b bd c9 1a a8 3c
       -0.04884275 -0.042173132 -0.053626243 0.020520585
000240 9c c1 b4 3d af 0c 11 be c9 cf 17 3e 50 1b a4 bc
       0.088259906 -0.14164995 0.14825357 -0.020032555
000250 74 c1 95 bc 4a 8d d2 3d 46 57 be bd 92 f6 76 bd
       -0.018280722 0.10280855 -0.0929399 -0.06029374
000260 61 69 da 3c 54 17 d0 bc 7a 3d 2c be 13 54 a6 3d
       0.026661577 -0.025401749 -0.16820326 0.08121505
000270 cc 40 fe 3d 6d 6e e3 3d ea bd d9 bd de 44 5c bd
       0.12414703 0.111050464 -0.10631926 -0.053776614
000280 d2 66 47 bd a8 cc f2 bd 98 96 18 bd 90 b9 db bd
       -0.04868204 -0.11855441 -0.037252992 -0.107287526
000290 a6 c9 06 bd f2 44 0e bd bb 91 80 be 16 ac 7c 3c
       -0.03290715 -0.03473372 -0.25111184 0.015421888
0002a0 f1 2f 3d be e4 88 56 be 4e cb 16 3d 52 37 22 3d
       -0.1847532 -0.20950657 0.03681498 0.03960354
0002b0 57 ad 70 3d 77 e2 7f bc d1 e1 78 bd 4a fd c7 3d
       0.05875906 -0.015617958 -0.06076223 0.09765108
0002c0 47 1d 61 bb 16 64 09 be 8b 08 3f 3d 91 6a a3 3b
       -0.0034349726 -0.13417086 0.046639007 0.004987069
0002d0 c2 79 ea 3b 28 c2 50 3b cf 12 3f bc a7 4b 2c 3c
       0.007155628 0.0031854007 -0.011662199 0.010516084
0002e0 9e 05 62 bd 4d d3 0a 3e c2 c5 c4 3d 1f 84 98 3d
       -0.05518114 0.13557167 0.09608032 0.07447075
0002f0 09 31 b7 bc ab 1e c5 3d 01 f0 f8 3d 40 d6 01 3d
       -0.022362249 0.0962499 0.12155152 0.031698465
000300 80 72 81 3e c5 bf d8 3d 35 70 43 3e b1 d3 cd 3d
       0.2528267 0.10583452 0.19085772 0.100501426
000310 64 be 59 3e 1b 95 f6 3d 15 6c f9 bc 15 31 32 bd
       0.21264035 0.12040158 -0.030447045 -0.04350384
000320 f8 12 59 bd fc 37 ab bd 29 cf 4f bd aa 67 e2 3b
       -0.052996606 -0.083602875 -0.050734673 0.0069093304
000330 dc b4 bd bd ac fa 1e bd 21 bb d4 bd 11 21 ec 3c
       -0.09263012 -0.038813278 -0.103872545 0.028824361
000340 49 09 42 3e 24 6f dc 3d 89 5a 23 3e 8a 54 fc 3d
       0.18948855 0.10763386 0.15952505 0.12320812
000350 78 5d 81 3d c0 aa 34 3e 08 3f 5a 3e 8a 90 e4 3d
       0.06316656 0.17643261 0.21313107 0.11160381
000360 f0 e6 b3 3d 79 a9 16 be 9b 64 a6 3d ed b9 14 3e
       0.08784282 -0.14713086 0.08124658 0.1452405
000370 dc a7 dd bd e2 81 f5 bd dc 49 ca bd 58 bd e1 3c
       -0.10823032 -0.11987664 -0.09877369 0.027556106
000380 57 20 e5 bd c5 52 22 bd 89 e1 69 bd 1a b2 df 3d
       -0.11187809 -0.039629716 -0.057099853 0.10922642
000390 f9 d2 87 3d b2 fa 8f 3d 27 ed 8e 3c a5 4f a9 3d
       0.06632037 0.07030238 0.017447067 0.08267144
0003a0 f1 c0 65 bb 4a 5c 8b bd 04 1e 00 3e 8c c6 27 3e
       -0.003505763 -0.06804712 0.1251145 0.16384333
0003b0 d3 7b f1 3d ca fc 71 3e 52 b7 c0 3d b0 cd 97 39
       0.11791196 0.23631588 0.094099656 0.00028954213
0003c0 22 32 2f be c9 57 e1 bc a3 f5 62 bc de 71 c2 3d
       -0.17108968 -0.02750768 -0.01385251 0.09494375
0003d0 61 22 cb bd cd ea 47 bc 7f 46 3a bd be 10 af bd
       -0.09918667 -0.012201977 -0.045477387 -0.08548115
0003e0 ae 05 c3 bc 1b ad 0e 3e 1b 06 b9 bd cb 63 7c bc
       -0.02380642 0.13933222 -0.09034368 -0.015404652
0003f0 78 94 eb 3d 6e 6e 41 3e c0 0a df 3c 4f 89 38 3e
       0.115029275 0.18889782 0.027226806 0.18021129

network.0.bias f4 [32]
000000 8e 1b a0 3d fe a9 75 bc 7d d3 91 bc fd cb 9b 3d
       0.07817756 -0.014994143 -0.01780104 0.07607267
000010 2d 84 ad bd 0a f2 01 be b2 f4 a1 bd 56 48 63 3b
       -0.08472476 -0.12689987 -0.07908 0.0034680567
000020 28 4d c2 3d 15 89 1a 3d ea 80 74 3c fb c3 cf bc
       0.09487373 0.037728388 0.014923314 -0.025362005
000030 86 0e c4 bd 96 bd 17 3c 8b 4b 96 bd c8 5d 7c bd
       -0.095730826 0.009261509 -0.073386274 -0.061612874
000040 79 28 03 be 56 81 ad 3c 18 d7 df bd e1 b5 9b 3b
       -0.12808408 0.021179836 -0.10929698 0.0047519063
000050 0e 2e 91 bb f5 40 1d bd d3 f0 10 3e e3 2e d8 3d
       -0.004430539 -0.038392026 0.14154367 0.10555818
000060 1a 20 0e bd bc cf 72 3c c2 41 08 3e 10 97 0a 3d
       -0.034698583 0.014820036 0.13306335 0.03383547
000070 67 25 08 3e 5c 3c fd bd 81 da b1 3d 05 be 90 3d
       0.13295518 -0.12365028 0.086842544 0.07067493

network.2.weight f4 [64, 32, 3, 3]
000000 7e 9f 29 3d 22 9e 5b ba cf cd 75 3c e2 d1 22 3c
       0.04141187 -0.00083777506 0.015002682 0.009937735
000010 a5 08 05 bc 9b ec aa 3d af d8 79 bc 57 39 17 bd
       -0.008119737 0.0834591 -0.015249415 -0.036919918
000020 6f 37 29 3d b3 af e4 bc 4c 1b 49 bd 0e 40 38 3d
       0.04131263 -0.027915811 -0.049098298 0.044982962
000030 57 9b a3 bd be d0 e3 3c 99 bb 9f bb a8 9f a7 3c
       -0.07988613 0.027809497 -0.0048746583 0.020461872
000040 3d 61 25 bd 1a 6e 00 3d 6a 05 da 3c d2 c4 9d bc
       -0.040375937 0.031355 0.02661391 -0.01925889
000050 6e 2c d7 3d 69 9f b0 bc 40 4f 2a 3d d1 81 c7 3c
       0.10506521 -0.021560388 0.041579485 0.024353893
000060 4a 73 c1 bd 23 28 96 bd 04 f5 37 bc 55 38 2e bd
       -0.09445818 -0.07331874 -0.01122785 -0.04253419
000070 15 cc 3d bd cb a7 3c 3c 14 29 37 bc 67 84 c8 bd
       -0.046337206 0.011514614 -0.011179227 -0.09790879
000080 e8 b3 58 bc 4f 8b 66 bd f0 ae 82 bd ba 85 7b 3d
       -0.013226487 -0.0562852 -0.06381023 0.06140683
000090 c9 84 4c 3d a6 cd 83 3c 9a 3c b1 3d f0 a4 8d 3d
       0.04993132 0.016089272 0.08654137 0.06916225
0000a0 02 6a 00 3e e9 6b a7 3c 14 a5 a9 3d 2a 0b d2 3d
       0.12540439 0.020437198 0.08283439 0.102560356
0000b0 b6 c5 78 3d 4a 11 56 bd e1 ef 6e 3d 4e 83 d1 3a
       0.060735427 -0.052262582 0.058334235 0.0015984566
0000c0 7a 0c df bc 33 76 5b 3d 81 61 d1 3c 8f 73 8e 3d
       -0.027227629 0.05357952 0.025559189 0.06955635
0000d0 69 35 e0 3d b1 1e 90 3d 31 be 82 3d 0b 1c 5b 3d
       0.10947687 0.07037104 0.063839324 0.05349354
0000e0 d2 bc 6e 3d 8a 32 e4 3c 28 1c 8a bc cb 21 58 3d
       0.05828554 0.02785613 -0.01685913 0.052766602
0000f0 71 b7 95 bd 8f b1 c3 3b 3f 91 7f bd 5f e2 4a 3b
       -0.07310379 0.0059720944 -0.062394377 0.0030957682
000100 b5 ee 4d 3d 81 74 bb bd 29 71 8f 3c ac d9 97 3d
       0.050276477 -0.09153081 0.017510014 0.074145645
000110 3f 60 37 bc ad 0d 5e 3d 6c d5 74 3d c1 d2 bc 3d
       -0.01119238 0.05421226 0.059773847 0.092198856
000120 50 6f 05 bc 84 35 f6 3c 8b 23 80 bc 28 3a b5 3d
       -0.008144215 0.030054815 -0.015641948 0.08848983
000130 f2 c1 72 3d df f0 b4 3d f9 8c bb 3c 90 72 c7 bc
       0.059266992 0.08835005 0.02289437 -0.02434662
000140 db 8c 92 3c 7e 15 cd bc d6 fc bb 3c b6 cd 9c bc
       0.01788943 -0.025034662 0.02294771 -0.01914106
000150 12 46 29 bd 8d 9a 41 3d 23 1c 50 bc 66 91 75 3c
       -0.04132659 0.04726653 -0.012702021 0.014988279
000160 1e 54 c5 bd 1a 22 3b 3c cf 8d 44 3d 35 43 3a 3d
       -0.09635185 0.011421705 0.0479868 0.04547425
000170 b0 f8 80 bd 4b f1 60 3d f0 43 05 bd 74 f9 a9 bc
       -0.062974334 0.054917615 -0.032535493 -0.020748831
000180 12 8d b3 3d 2e f9 81 3d 80 4b 6f bb b9 0c 13 bd
       0.087671414 0.063463554 -0.0036513507 -0.035900805
000190 cb d6 05 3d bf 56 49 3c e5 6b e9 bc ce 7f 9a bd
       0.032675546 0.012288748 -0.028493831 -0.07543908
0001a0 0d 99 0f bc 40 ff 0f bd 57 57 98 bd ea b6 a8 bd
       -0.0087645175 -0.035155535 -0.07438534 -0.08238013
0001b0 8f 47 3f 3c d9 5f 72 3d 8a d8 87 bc b6 00 13 3c
       0.011674776 0.05917344 -0.016582746 0.0089723375
0001c0 60 a9 d2 ba 95 12 33 bc 75 0b 65 bd ae 84 9c bd
       -0.0016072206 -0.010929723 -0.05591913 -0.07642494
0001d0 bb ed ce bd e2 1d 46 bb 1d 2d 23 3d 6b d7 72 3d
       -0.10103937 -0.0030230214 0.039837945 0.05928747
0001e0 f2 50 43 3d 86 f7 5f bb 12 e8 1f bd 11 a3 95 bb
       0.047684617 -0.0034174635 -0.03903968 -0.004566558
0001f0 f3 12 00 bb 74 17 96 3d 0d f1 88 3d d2 81 53 3d
       -0.0019542545 0.07328692 0.06686602 0.05163748
000200 4c da 17 3d 3a fe be bc 33 75 1c 3d d5 ae ac 3d
       0.03707342 -0.023314584 0.038197707 0.08431784
000210 36 4f 8a 3d a7 4b 31 ba 8a a9 7a 3d 46 75 39 3d
       0.067533895 -0.0006763287 0.06119684 0.045277856
000220 10 d1 27 3d 9a 4d bb 3d b4 2e a3 3c f7 29 89 bd
       0.040970862 0.09145661 0.01991973 -0.06697457
000230 80 3e a8 3d 1e d5 2e bd ce 98 9c bd bd 82 91 bd
       0.08215046 -0.042683713 -0.07646333 -0.071050145
000240 bf fb bc 3b 89 17 4f 3c 66 73 95 3d 4c ad 4d 3d
       0.005767315 0.012639889 0.07297401 0.050214097
000250 12 99 e0 3c 93 c9 8d 3d 96 8f b4 3d 98 b9 0a 3c
       0.02741674 0.06923213 0.08816449 0.008467101
000260 c1 db eb bc be 41 44 bd 5c 89 0e 3d e8 ec 95 bc
       -0.02879131 -0.04791426 0.034798965 -0.018301442
000270 ca 48 40 bc ce 03 ae bc 6c 4c f8 bc 56 c8 a8 3c
       -0.011736104 -0.021242049 -0.030309878 0.02060334
000280 c5 ed 3d bd 10 d3 f5 bb 32 89 53 3d 20 8e 0d bb
       -0.046369333 -0.0075019673 0.05164451 -0.0021599606
000290 8d 2d 62 bb 63 cd be 3d 06 49 06 3d 03 29 9f 3d
       -0.0034512014 0.09316518 0.032784484 0.07771494
0002a0 f9 89 70 bb 88 b8 81 3d 57 db 51 bd 36 ad 5c 3c
       -0.0036703332 0.06334025 -0.05123457 0.013469031
0002b0 0a c4 50 bd 2e 24 67 bd 46 0b 04 bd 96 17 89 bc
       -0.050968207 -0.056430988 -0.032237314 -0.01673488
0002c0 da 0b 25 3d 9e 26 93 3c a4 2e 3a 3c 24 47 9c 3a
       0.040294506 0.01796275 0.011363659 0.0011923057
0002d0 c9 2b 92 bd 74 ac 3e bd 2a c4 aa 3a cb 15 22 bc
       -0.071372576 -0.046551183 0.0013028432 -0.009892891
0002e0 5e 34 e3 bb f8 52 44 3d 5a d1 cd bc 6a 5c c9 bd
       -0.006933733 0.047930688 -0.02512424 -0.0983208
0002f0 bb 72 5e bc 14 8e db bd 77 14 5c bd 8d d5 54 bd
       -0.013577159 -0.107204586 -0.053730454 -0.05196147
000300 ee 4e 8f 3c 9e 2e 2f 3d ab 34 bf bc 37 9b a3 3d
       0.017493691 0.042769067 -0.023340544 0.07988589
000310 fb 79 05 3d ee f4 08 3b b9 c1 c7 bc 3b 79 40 bd
       0.032587033 0.0020897943 -0.024384366 -0.046990614
000320 f4 33 d3 3c 79 a3 77 bd ea 2e 0f 3d 2b 55 ad ba
       0.02578161 -0.060458634 0.03495685 -0.0013224235
000330 8a 75 51 bd 83 d5 e9 bc be ff 86 3b bf e2 6c bd
       -0.051137485 -0.028544193 0.0041198423 -0.05783343
000340 b0 1e 5d 3d 85 da 5e 3d 53 38 0e bd 82 12 74 3c
       0.053984344 0.054407615 -0.034721684 0.014896991
000350 4a c3 12 bd a9 cb 55 bd b1 d4 22 bd 1d 40 ab bd
       -0.035830773 -0.05219618 -0.03975362 -0.08361838
000360 b0 f9 88 bd 31 85 ce bb 6b 42 38 3c 36 79 a1 3d
       -0.06688249 -0.0063024987 0.011246304 0.07884447
000370 35 10 2a 3c 35 39 05 3c 55 d9 70 3d 27 d3 04 bd
       0.010379841 0.008131315 0.058801014 -0.032427933
000380 ba e9 14 3d 18 e4 bf bb 53 f7 52 bc e1 eb 6d 3c
       0.03635571 -0.0058560483 -0.0128763495 0.01452157
000390 74 6c e8 3b df 08 26 3d 2e 68 21 3d e0 a8 87 bd
       0.0070930067 0.040535804 0.039405994 -0.06624007
0003a0 20 68 0c bc cd 45 58 bd f3 c2 95 bb 8f 60 84 3c
       -0.008569747 -0.052800942 -0.004570359 0.016159324
0003b0 6d d3 5b bd 94 8d d7 ba 5d f2 13 bd 99 ae 08 bd
       -0.05366843 -0.0016445392 -0.036119808 -0.033369634
0003c0 5f 20 5a bd d6 89 8b 3c c3 ec 77 3c 15 81 63 3d
       -0.053253528 0.017033499 0.015132132 0.055543024
0003d0 80 f1 b3 bb 1a 47 37 bd 04 88 84 3d 4e 4f 7b 3c
       -0.0054914355 -0.044745542 0.064712554 0.015338732
0003e0 9e 6f 87 3d 72 0b 47 3d 6d 78 da 3b 1d 9c 7c bb
       0.06613086 0.0485949 0.006667188 -0.00385452
0003f0 2c b0 5c 3c 14 5b 2e 3d 4c dd d1 3c b8 01 ff 3b
       0.013469737 0.042567328 0.025618218 0.0077821873

network.2.bias f4 [64]
000000 b1 62 52 3c 6b c9 92 bc 1e f2 1e 3d 67 00 af 3c
       0.012840913 -0.01791831 0.03880512 0.021362497
000010 d3 51 8d 3d ed ef d9 3a d3 d8 5b 3d 04 a7 89 3d
       0.06900372 0.001662729 0.053673577 0.06721309
000020 da 05 f2 bc 43 78 e0 3c 15 ae fb 3c f5 4a b4 3c
       -0.029543806 0.027401095 0.030722657 0.022008399
000030 d0 f7 cd 3b 6d f8 4c bc 5c 87 2a 3d c8 24 c4 39
       0.006285645 -0.012510401 0.041632995 0.00037411437
000040 9e db 84 3c 1d 60 c4 bc f6 72 34 3c f6 e1 bb 3c
       0.016218003 -0.023971612 0.011013737 0.022934895
000050 7b 29 03 3d a8 ca 38 bd ff 26 02 bd de 51 44 3d
       0.03202198 -0.045115143 -0.03177547 0.047929637
000060 87 a0 15 3d 2f fa 47 3d 43 30 01 bd d6 ca 2c bd
       0.036530044 0.048822578 -0.031540167 -0.042185627
000070 97 f1 43 3d 49 66 c0 bc ec 25 92 3c 27 9b 0f 3d
       0.04783782 -0.023486273 0.017840348 0.035060074
000080 b7 79 4a 3c 31 be 81 3c 2d f6 70 3d 6c 81 ed bb
       0.012358121 0.01583776 0.05882852 -0.0072480943
000090 a6 ec 8b bc d2 da 12 3c 53 41 29 bc bb f3 53 bc
       -0.017080616 0.008963304 -0.010330516 -0.012936528
0000a0 dc 12 62 3c 9b ef 83 3d 77 69 60 3d 13 a9 89 b9
       0.013798442 0.064421855 0.05478808 -0.00026256646
0000b0 42 b0 0f bd 12 68 d8 bc 6d 76 74 3c f3 9d 01 3d
       -0.035080202 -0.026416812 0.014920813 0.031644773
0000c0 5d e5 36 3b 56 2a 46 bd 33 59 73 3c a1 c2 5d 3c
       0.0027907707 -0.04838022 0.01485281 0.013535173
0000d0 d6 a8 43 bc f7 b3 4b bc 9b 3d 3b 3d 36 71 72 bc
       -0.011942109 -0.012433044 0.04571305 -0.014797499
0000e0 b5 33 a1 3c 0e 61 e8 bc ef 93 a9 bc b8 7a 77 3d
       0.019677976 -0.028366592 -0.020700423 0.060419768
0000f0 34 51 99 ba f7 b1 f2 bc 15 11 45 3d 5b 0e a0 3c
       -0.0011697174 -0.029625876 0.048111994 0.019538095

network.4.weight f4 [64, 64, 3, 3]
000000 0e da 86 bc 8d 86 c8 3c 73 73 53 bc ea 19 29 39
       -0.016461398 0.024478221 -0.012905943 0.0001612675
000010 9c 41 0d 3d cf c2 51 3d 7f 7b c1 bb c0 4d 15 3c
       0.034486398 0.051211175 -0.0059046145 0.009112775
000020 b6 9a 37 bc 54 73 fe 3c a5 dd 39 3d a9 59 40 bc
       -0.01120632 0.031060852 0.045377392 -0.011740127
000030 03 b8 5d 3c bf 5d 8b 3d b1 9e be 3c de f2 dd 3b
       0.013532641 0.0680499 0.02326903 0.006773337
000040 10 08 57 3d 2f a1 f6 3b bf 9b 3a 3b 9b f3 4f 3c
       0.052497923 0.007526539 0.002847418 0.012692357
000050 ff bc 1d 3d ab cb 0d 3d 2e e9 b3 3c 2b 91 0c 3d
       0.03851032 0.03461806 0.021961775 0.03431813
000060 9c d8 30 3c 34 29 e3 3c b4 8d 9c 3c bb 01 40 bb
       0.010793831 0.027729608 0.019110538 -0.0029297906
000070 cc a4 87 3c bd 50 b4 bb 02 86 ec 3c 1c 8e 84 3c
       0.016558073 -0.005502789 0.028872494 0.016181044
000080 09 f0 48 bc f8 cc ed 3c ec 10 00 3d 95 3e 7c 3c
       -0.01226426 0.0290284 0.031266138 0.01539578
000090 42 82 5c bc 39 03 dc bc e0 12 ff 3c 2d 0f ff bc
       -0.01345879 -0.026857005 0.03113693 -0.031135166
0000a0 b2 0a c3 3b c8 7b 49 bd e1 30 72 bd ec 37 37 bd
       0.0059522027 -0.049190313 -0.059128646 -0.044731066
0000b0 ea ac 19 bd 5f 3e b6 3b 37 55 03 bd 0d 0b 61 bd
       -0.03751842 0.0055616344 -0.03206369 -0.05494218
0000c0 73 92 e8 3c 4f 3f 8c bd 58 b7 9f bc ec b8 9a 3c
       0.028390145 -0.06848013 -0.019496605 0.018887006
0000d0 09 ad 6e bd b3 70 8c 3c cf 7a b0 bc 26 74 24 3d
       -0.058270488 0.017143583 -0.021542935 0.04014983
0000e0 1c 48 e0 3c 93 1d 08 bd 2e c1 0d bc 5d cb a1 bc
       0.027378134 -0.03323133 -0.008652015 -0.019750291
0000f0 a2 51 2b 3c ea 3e 91 39 a4 fa 35 3c ae 0b 97 bc
       0.0104564745 0.0002770343 0.011107121 -0.018438186
000100 7a bb 71 3c 2b c5 f6 3c 83 6d 1d bd 2e 1c eb bc
       0.014754171 0.030123314 -0.038434517 -0.02869996
000110 5c cf 7a bc d0 b9 d6 bc 11 ce f8 ba 71 0f 50 bd
       -0.015308227 -0.02621165 -0.0018982311 -0.050795976
000120 e9 b4 46 bc 1f 3f 1b 3d 40 d5 22 bd 20 d1 0f 3d
       -0.012128093 0.037901994 -0.039754152 0.035111547
000130 ec 9d a1 3d 2a 20 ad 3b dd ad 91 3d 7e 58 87 3c
       0.07891449 0.0052833753 0.0711324 0.016521689
000140 f8 98 f0 3b 7a 06 2c bd 32 ad a2 3c 3d 8b 56 3d
       0.007342454 -0.041998364 0.019857977 0.05237888
000150 ad de 80 3c 3a 7f 08 3d 66 98 20 3d 44 cb 0d bc
       0.01573118 0.033324458 0.03920784 -0.008654419
000160 50 e5 1b bd 24 a5 5c 3c 64 42 c1 3c 81 ef 41 3d
       -0.038060486 0.013467107 0.023591228 0.04734755
000170 1f 09 b7 3c 0f f8 65 3d 57 af 60 3d 39 4e ff 3c
       0.022343216 0.05614477 0.054854717 0.03116523
000180 e3 95 11 bc 4e 91 55 bb a8 95 16 3d 5f 8e 57 3d
       -0.008885833 -0.003258783 0.036763817 0.05262601
000190 da f0 32 bd af c0 35 bb 7b f0 37 bd 41 8f c0 bc
       -0.043686725 -0.0027733257 -0.044907074 -0.023505809
0001a0 40 dd 5b 3c 16 fa 55 bd 86 73 01 bd 82 93 e4 bc
       0.013419449 -0.052240454 -0.031604312 -0.027902368
0001b0 1b 27 80 bd 57 bb bc bc 3b 0e 12 3c 1c 22 00 3c
       -0.06257459 -0.02303855 0.008914526 0.007820632
0001c0 2b 63 55 bd 74 0b 91 3c 69 e3 aa bc 22 70 8c bd
       -0.052096527 0.017705657 -0.02086039 -0.06857325
0001d0 f4 37 9b bc 19 93 5f 3c d6 35 4e bc 94 d2 1a 3d
       -0.018947579 0.013645911 -0.012586078 0.03779848
0001e0 f6 ba 87 bd 39 c2 a1 bd c9 bc 8f bd 19 d1 2b bd
       -0.06627457 -0.07898373 -0.0701843 -0.041947458
0001f0 98 c1 e1 bc fd 20 b1 3c bf 70 dc 3c 5c df 01 3c
       -0.027558133 0.021622175 0.02690923 0.007926788
000200 15 64 c0 bc 8b 16 0d b8 14 56 7b bd e9 7c 5b 3c
       -0.023485223 -3.3638014e-05 -0.061361387 0.01339648
000210 7e 14 58 bd 79 2f e5 3b b1 00 25 bd d8 1c 3a 3d
       -0.052753918 0.0069941846 -0.040283863 0.045437664
000220 3f 5b 49 3d 94 a2 0a bd cf 8c 85 3c c0 78 18 3d
       0.049159285 -0.033846453 0.016302494 0.03722453
000230 22 38 e7 bc fd 25 ac ba 48 d2 d6 bc 61 8d 96 3c
       -0.028225008 -0.001313388 -0.026223317 0.018377962
000240 d9 3a 9c 3c dc 5d 16 bc 51 52 4e 3b 1f 2e 97 3c
       0.01907103 -0.009177651 0.003148217 0.01845461
000250 8c d8 d7 3c 47 af 9a bb 85 85 9a bd 11 19 5a bd
       0.026348375 -0.0047206017 -0.07544998 -0.05324656
000260 82 f6 f7 3c 16 e2 9d 3c c6 54 78 bc 2a 60 27 bc
       0.030268911 0.019272845 -0.01515693 -0.010215798
000270 b4 cf b1 bc 91 a6 89 bc 59 ba 18 3d 8f 3b e2 bc
       -0.021705486 -0.016803058 0.03728709 -0.02761629
000280 1d 36 8c bd 67 d6 1d 3c 1e 3d c7 3c a2 e4 b6 ba
       -0.06846259 0.009633637 0.024321135 -0.0013953636
000290 f7 cf a8 bc 35 98 d5 bc 18 f4 ce 3c 9f 98 79 3d
       -0.020606978 -0.026073555 0.025262877 0.060936566
0002a0 e3 01 2c bc 40 f6 3e bd c8 2a 21 3b 23 5e eb 3c
       -0.010498497 -0.04662156 0.002459215 0.028731411
0002b0 20 fd 50 bd 8e 17 98 bc 16 3c da 3c 09 6c 85 3c
       -0.05102265 -0.01856592 0.02663998 0.016286867
0002c0 82 fa a3 3b 11 eb 17 3d 1e ad 45 3d f1 ea 96 3b
       0.005004228 0.03708941 0.0482608 0.004605644
0002d0 b6 e7 f1 3c 02 23 e1 3c e8 8b c9 3b 0f 7e b0 bc
       0.029529434 0.027482513 0.0061507113 -0.021544484
0002e0 8e 2c 44 3c 1c c7 17 bd 77 66 9b bc e9 a2 93 bb
       0.011973513 -0.03705512 -0.018969757 -0.0045055044
0002f0 b8 89 ab b9 ac ea 66 3b 78 96 fa bc 6b 71 64 bd
       -0.0003271827 0.003523509 -0.030589327 -0.055772226
000300 f6 ad dc bc 8e d9 25 bd 5f 7a 56 3d b1 aa 2d 3d
       -0.02693842 -0.04049068 0.052362796 0.042399112
000310 8c 9d 10 bd 59 9c 0a bc ec a8 92 bc 99 5b 23 3d
       -0.0353065 -0.008460128 -0.017902814 0.039882276
000320 ba 5c 9b 3c 48 b7 20 bc 84 2f f6 3b 6d 5f 55 bd
       0.018965114 -0.009809323 0.0075129885 -0.05209296
000330 3b 0d 4e 3d bd 12 3d ba b0 d2 e5 bc 2d e3 6b 3a
       0.050305586 -0.000721257 -0.028054565 0.00089983904
000340 27 3b 99 bc 7f 0a 07 bc ed 0e c5 3c 70 4b 25 bc
       -0.018704964 -0.008242249 0.024054969 -0.0100887865
000350 a0 2b c6 bc 41 aa 22 3d ac 92 0d 3d 73 75 92 3c
       -0.024190724 0.039713148 0.034563705 0.01787827
000360 f5 6e 4d 3d 0d cd c8 3c 0e fc 0d 3d 3f c7 a8 3c
       0.050154645 0.024511838 0.034664206 0.02060282
000370 47 ff aa 3c 18 dc 20 bd a5 01 80 3d b7 89 67 3d
       0.020873679 -0.039272398 0.06250314 0.05652782
000380 8c 90 b6 bc 87 d6 98 bc 26 f5 6f bd 55 38 50 bb
       -0.022285722 -0.018656982 -0.0585834 -0.0031771858
000390 91 2b 41 3d 8b b6 48 3d 80 0b 10 3d 8c 44 ad bd
       0.04716069 0.04900221 0.035167217 -0.0846034
0003a0 c1 ec cb bc 98 4f 90 bc 73 bf 8c bc b8 d9 00 3c
       -0.024893166 -0.017616078 -0.017181134 0.007864408
0003b0 7e ec ef bc f6 4e eb 3b 53 25 49 3d 70 74 e6 3c
       -0.029287573 0.0071810437 0.04910786 0.028131694
0003c0 83 10 be bc 1b c5 bd 3b f0 a8 8b bb 10 75 89 3d
       -0.023201233 0.005791319 -0.0042620823 0.06711781
0003d0 26 3b 9b 3c 22 d6 b7 bc e2 24 c0 3d 16 77 fa 3a
       0.018949103 -0.022440974 0.09382035 0.0019108977
0003e0 4b 86 7d 3d 75 d2 35 3d 0a 92 ad bb b0 e9 5a bd
       0.06189565 0.04439016 -0.00529695 -0.053445518
0003f0 3d 39 62 bc 43 1e 86 3c 66 ee c2 3c 8b 1e 91 bc
       -0.013807592 0.016371852 0.023795318 -0.01771476

network.4.bias f4 [64]
000000 50 25 6e 3c c8 19 d2 bc 85 bd b6 3c 5c c0 f7 bc
       0.014535263 -0.02564706 0.022307167 -0.030243091
000010 db b1 0c 3d be 0b 09 3d fd b5 1c bd f4 16 40 bc
       0.034349304 0.033458464 -0.038259495 -0.011724222
000020 c4 14 4f 3c 39 46 2c bd b7 ad dc bb 0d df 19 bd
       0.012639228 -0.042059157 -0.0067345756 -0.037566233
000030 c2 9e d4 bc 92 ff 51 3a d1 ba 36 3c 2e de 08 3d
       -0.025954608 0.00080108 0.011152939 0.033415012
000040 23 e6 ab 3c 02 72 29 3b f8 97 b0 bc 6c 31 8d bc
       0.020983761 0.0025855307 -0.02155684 -0.01723548
000050 fa 4a 0e 3c f0 e3 94 bc 58 5a 09 3d ae 36 15 bd
       0.008684868 -0.018175095 0.033533424 -0.0364291
000060 25 55 54 bc 9e e5 c5 bc 19 26 9e 3b 41 00 df bc
       -0.012959753 -0.024157342 0.004826319 -0.0272218
000070 2a 8e 00 3d 3c 7c db 3c 20 89 62 bc 7e 1f 07 3d
       0.03138558 0.026792638 -0.013826638 0.032989018
000080 bb df f6 3c 74 87 16 3d 3b 3b e9 bb fc f4 97 bc
       0.03013598 0.036750272 -0.0071176565 -0.018549435
000090 ad 57 bb bc 78 32 d6 3c 92 56 ac bc c2 d5 16 3d
       -0.022868956 0.026147112 -0.021037374 0.03682495
0000a0 7d 4f 26 3d 9c 5c 64 3c 7b f1 09 3d 22 b6 7a 3c
       0.04060315 0.013938095 0.03367756 0.015302213
0000b0 4d 85 15 bd e8 ce 06 3d 44 b4 1c 3d d4 f3 63 3b
       -0.03650408 0.032912165 0.038257852 0.0034782784
0000c0 c9 2e 4f 3c de 3c d0 bc e4 26 fb bc e0 4f 63 3c
       0.012645432 -0.025419649 -0.030658193 0.013874024
0000d0 e1 14 0c 3d 0d 6b 89 3c a3 3f 17 bc 89 cc 8a bb
       0.0341996 0.016774679 -0.009231481 -0.0042358083
0000e0 23 42 64 3c 45 2e 18 bd 00 53 ba 3b 40 65 94 bc
       0.013931784 -0.0371535 0.005686164 -0.018114686
0000f0 fd 41 42 ba df 7e 84 bc 9d ee 0e bd b1 41 fc 3c
       -0.0007410346 -0.016173778 -0.034895528 0.030793043

actor.weight f4 [5, 3136]
000000 b5 6a 7d 3c 6b de ec 3b e9 13 b6 bb 17 57 b6 ba
       0.0154673355 0.0072286627 -0.0055565727 -0.0013911453
000010 f6 29 da 3b c8 ee 8e 3c ae 7d 74 3c 06 51 46 3c
       0.006657834 0.017447844 0.0149225425 0.012104278
000020 4e 01 8d 3c 50 dd c1 3b 8a 35 86 bb 30 f5 ac bb
       0.017212536 0.005916275 -0.004095738 -0.005278252
000030 3e ca 54 3c c7 0e c7 3c ce 46 4c 3b dd 0e 96 3c
       0.012987671 0.024299039 0.0031170133 0.018317634
000040 2d b4 d1 3b 90 4f b2 bb b1 50 be bb 0e 01 ca 3b
       0.0063996525 -0.0054416135 -0.005807959 0.0061646765
000050 27 b7 b4 3c ea 83 e1 bb ac 31 1d ba 76 5b 27 3b
       0.02205999 -0.0068821805 -0.00059964764 0.0025536693
000060 aa 40 3f 3c e4 40 05 bc 64 60 eb ba fd 42 97 b9
       0.011673132 -0.008133147 -0.0017957804 -0.00028850875
000070 36 e7 b7 ba b4 25 29 bc 46 d8 29 bc 41 03 40 3a
       -0.0014030698 -0.0103239305 -0.010366505 0.00073247036
000080 0d ba 8c b9 5e c4 78 bc ac dd 4e bc 64 33 dc 3b
       -0.000268415 -0.015183536 -0.012626093 0.0067199934
000090 7b bb e2 ba 5d 9f 5f bc d2 ee 1c bc c3 81 b4 3b
       -0.0017298305 -0.013648835 -0.009578424 0.005508633
0000a0 8c ed 0d ba f8 1c fc bb b7 98 27 3c 52 db 90 ba
       -0.00054141204 -0.007693883 0.010229281 -0.0011051691
0000b0 32 7e 20 3a 5b d1 76 ba 49 a0 4b 3c 7f a2 1c 3c
       0.000612232 -0.00094153517 0.012428352 0.009560226
0000c0 ef d6 14 3c 5c 03 d2 bb 7a a6 a0 3c 2b e8 f4 3b
       0.009084447 -0.006409092 0.019610632 0.0074739656
0000d0 5e db 9e 36 11 2a 00 bc 86 96 c4 3c 44 fc 33 bb
       4.7343046e-06 -0.007822529 0.023997556 -0.0027463594
0000e0 14 fd 93 3c 29 09 93 3c 61 0b 84 3c d1 ef 21 3b
       0.018065013 0.017948704 0.016118707 0.0024709592
0000f0 0a 24 2c 3c b8 6a 03 3d 4b de c4 3c 34 c1 fd 3c
       0.010506639 0.032084197 0.024031779 0.030975915
000100 72 87 5c 3c 87 4a 6f 3b f1 74 48 bc a7 bb 16 3c
       0.013460027 0.0036512928 -0.012234912 0.009200013
000110 a6 74 70 3c 7e a8 c6 3c 05 9d 95 3b 42 f6 d8 3b
       0.014676249 0.024250265 0.0045658373 0.006621153
000120 d7 af c2 3b f5 ba 0c bc 86 fe ce bb 25 bb 37 3c
       0.005941372 -0.008589496 -0.0063169627 0.011214052
000130 88 f7 e5 3c d6 35 0e bc 06 f8 73 bc bc 7a 0c 3b
       0.028072134 -0.008679828 -0.014890676 0.002143546
000140 9e cf 1a 3c de f4 81 3c fe 09 33 bc 78 cf 66 3a
       0.009448914 0.015863832 -0.010927675 0.0008804719
000150 57 2d af bc ef 79 d6 bc c1 4f 1b bc 2d 1e 2f bc
       -0.021383924 -0.02618119 -0.009479464 -0.010688347
000160 46 c6 87 bc d4 0d 8e bc 66 b7 f5 bc 4f 6c dc bc
       -0.016574036 -0.017340578 -0.029994678 -0.026907114
000170 49 62 64 bc 0d 6e e4 bc 79 9b 9e bc b6 64 80 bc
       -0.013939449 -0.027884508 -0.019361245 -0.015673023
000180 27 c1 4b bc bb 46 c1 bc f0 b6 84 3c a2 87 bd bc
       -0.012436188 -0.023593297 0.016200513 -0.023135964
000190 57 c4 5e bc f4 8a 68 3a 70 0a 64 3b ee 9c 96 3c
       -0.013596616 0.0008870803 0.003479626 0.018385377
0001a0 5e a1 7f 3c b0 5a f8 bc 14 cb 3d ba 9b 06 a0 bc
       0.015602438 -0.03031668 -0.0007240039 -0.0195344
0001b0 30 ca b5 3a 7a f1 5b bb da da eb bb 8e a9 5c 3c
       0.0013869461 -0.003356068 -0.00719772 0.013468159
0001c0 db 73 bc 3b e1 69 f9 bc 73 b1 ed 36 7b 31 9a ba
       0.0057511157 -0.030445995 7.083808e-06 -0.0011764014
0001d0 42 77 2a 3b b4 ee 35 3a 39 a1 2f 3c 81 e1 af 3c
       0.0026011025 0.00069401716 0.010719591 0.021469833
0001e0 be 64 96 bb a1 83 36 bc 56 4a ab 3b d2 55 0b 3d
       -0.004589646 -0.011139781 0.0052273674 0.03401739
0001f0 f9 ec ce bb d3 f2 71 bc 28 6b 48 3c e6 bf c1 3b
       -0.0063148704 -0.014767366 0.012232579 0.0059127687
000200 c2 78 05 bc f3 31 44 3c c2 89 1b 3d 30 63 ae 3c
       -0.008146467 0.011974799 0.037973173 0.02128753
000210 c7 93 22 bc fe 91 d3 bc 4b 59 8b 3c 4f 61 f3 3b
       -0.009922928 -0.02582645 0.017010352 0.0074273716
000220 a6 a8 26 3b 9e 5e d2 bc ba 6e 29 bb 80 3e a8 3b
       0.0025430112 -0.025679883 -0.0025853352 0.0051344037
000230 72 14 94 bc 17 6a 2a 3a dd 9a 9f 3c b7 66 92 3a
       -0.018076155 0.0006500794 0.019483024 0.0011169527
000240 72 f2 48 bc d8 67 b0 ba 5b fe 82 3c c6 33 dd 3c
       -0.012264835 -0.0013458682 0.015990427 0.027002227
000250 a7 90 c8 3c 38 a8 1f 3c 5f 92 9f bc 49 40 cd 3c
       0.024483038 0.009744696 -0.019478975 0.025055068
000260 65 15 20 3d a7 81 d5 3c ec 33 e9 3b 35 b6 a0 3b
       0.039082903 0.0260628 0.0071167853 0.0049045333
000270 63 56 5e bc a6 94 3d bc 56 22 81 3c 60 ab b4 3c
       -0.013570401 -0.011571085 0.015763443 0.022054374
000280 87 a7 01 3d 44 a2 de 3c 51 86 de 3b 6d 27 0c 3c
       0.031653907 0.027176984 0.006790914 0.008554322
000290 83 93 93 bc 38 e3 ae 3a 79 de 58 3c e7 cf 91 3c
       -0.018014675 0.0013342863 0.013236635 0.01779933
0002a0 26 17 0b 3c 49 05 37 3c 23 8d 0b 3c c6 c8 0f bc
       0.008489406 0.011170694 0.008517536 -0.008775895
0002b0 64 5a 25 3c 8c 7b e9 3b d1 5e df 3c 63 42 b1 bc
       0.010092352 0.0071253236 0.027266892 -0.021638101
0002c0 50 14 dd bc 5d 2d 03 3c e4 04 59 3c e7 65 a6 3c
       -0.026987225 0.008006421 0.013245795 0.020312263
0002d0 5e eb e5 ba 7e 80 e3 3b c7 bc 02 bd f6 42 f2 bc
       -0.0017541458 0.0069428077 -0.031918313 -0.029572945
0002e0 6d ce b2 bc 25 ae 7c bc 6a c2 3b bc 62 3b d2 bc
       -0.021826947 -0.015422379 -0.011459926 -0.025663082
0002f0 6b db a7 bc 4f 10 aa bc 47 ce c5 bc ec 86 ae bc
       -0.020490369 -0.02075973 -0.024146212 -0.02130457
000300 10 18 af bc 0e 9f 00 bc 6b d9 96 bc 45 a8 80 bc
       -0.021373779 -0.007850422 -0.01841422 -0.015705237
000310 c6 6c 3c 3c ec 23 1e bc 24 86 cf 3a 33 e4 0d bc
       0.011500543 -0.009652119 0.0015832824 -0.008660364
000320 54 03 30 3c ee 18 35 3c e6 89 85 3c ab 76 68 3c
       0.010742981 0.011053307 0.016301107 0.014188449
000330 0e 3d 3a 3b e6 b7 87 ba 77 1f 9c bb a9 38 1d 3c
       0.002841774 -0.0010354489 -0.004764493 0.009596028
000340 d8 ac 65 3c eb af 79 3c 04 db 1c ba 0c 75 c7 bb
       0.01401826 0.015239696 -0.00059835636 -0.006086951
000350 7e 32 b7 3a eb eb 89 b9 74 9f 35 3c 16 3c 80 3c
       0.001397684 -0.0002630645 0.01108538 0.015653651
000360 68 79 06 3c 40 b1 83 bc 20 c9 35 bc 01 7d c2 bb
       0.008207656 -0.01607573 -0.011095315 -0.005935312
000370 36 0d 9f bb ce bc b8 bb 6a 2e a7 ba e8 de 15 3b
       -0.00485387 -0.0056377416 -0.0012754921 0.0022868458
000380 61 4a 30 bc 69 cb 96 bc 84 8e 20 bc 93 49 d6 bb
       -0.010759921 -0.01840754 -0.009799603 -0.0065395324
000390 2e a0 06 bd 1c e1 85 bb ce 29 c4 bb a5 92 2e bc
       -0.032867603 -0.004085673 -0.005986429 -0.01065508
0003a0 4b 2a 1a bc fa 89 a0 3a 04 ff 1c 3c d6 0d 05 ba
       -0.0094094975 0.0012248151 0.009582285 -0.0005075609
0003b0 ea 98 ae bb 67 e5 23 3b 1e 16 21 3b c0 2d 21 3c
       -0.0053282874 0.002500856 0.0024579833 0.009837568
0003c0 03 94 26 3c 3b 53 08 3c 35 9f cb 3b 0c 6e bc 3b
       0.010167125 0.008320625 0.0062140473 0.0057504233
0003d0 9c b5 eb 3b 66 66 ce 3b c6 6e b5 ba 99 34 10 3a
       0.0071932804 0.006298828 -0.0013842217 0.0005501002
0003e0 d5 ae 9b bb d6 6c 28 3b d6 1e a7 3a 32 88 9e bb
       -0.004751066 0.0025699637 0.0012750279 -0.004838013
0003f0 18 97 7c 3b 1f 87 72 3b ff 67 e2 ba c5 8e af bc
       0.0038542207 0.0037006808 -0.0017273425 -0.021430383

actor.bias f4 [5]
000000 3c 04 fe 3a 80 33 e2 3b 2d 68 ae 3a a2 d9 a6 bc
       0.0019379924 0.006903112 0.0013306193 -0.020367447
000010 f1 88 cb 3b
       0.006211393

critic.weight f4 [1, 3136]
000000 3c 1f 46 3c e2 71 83 3d b2 4b 28 3d e2 5c 28 3c
       0.012092408 0.06418206 0.041087814 0.010276051
000010 cd db 44 3d 52 ba 18 3d ff ca 8f 3d 4a 7d a3 bc
       0.04806118 0.037287064 0.0702114 -0.019957203
000020 e4 79 29 3d 14 ac 85 3d b6 9d a0 3c 5f 61 2e 3b
       0.04137601 0.06526962 0.019606452 0.002660833
000030 d1 27 10 3d 45 31 57 3d 76 06 3b 3d e6 15 26 bd
       0.035194222 0.05253722 0.04566046 -0.040548228
000040 96 88 0e bd 77 d7 02 bc f6 53 5b bd 38 8e 56 3d
       -0.034798227 -0.007985941 -0.05354687 0.052381724
000050 5c f7 34 3d 16 61 ae 3c e8 34 b4 bc 9b 7b a5 3c
       0.044181213 0.021286529 -0.021997884 0.020200541
000060 6f 6c 76 3c aa f8 6d bc a1 4f 96 3c 16 6a 21 bd
       0.015040501 -0.014524618 0.018348517 -0.039407812
000070 1c ee 54 3c b1 65 60 3d 42 84 ae 3d 97 30 1c 3d
       0.012996223 0.05478448 0.0852132 0.038132276
000080 e2 8f b5 3c 0a cc 5b 3c df 67 68 3c 10 61 38 3b
       0.022163335 0.013415346 0.014184921 0.0028134026
000090 1d 76 af 3b d5 ca 1e bd c4 7e a5 bc 33 0b fa 3b
       0.0053546564 -0.038767654 -0.020202048 0.0076307296
0000a0 2e 6b 08 3a f5 0a 18 bc 25 32 52 3c 6b 71 61 3d
       0.00052039593 -0.009279956 0.012829338 0.055039804
0000b0 84 72 b7 3d 43 08 30 3d be ae 91 bc f8 c5 54 bb
       0.08957389 0.04297663 -0.017783519 -0.0032466631
0000c0 46 86 1a 3d e7 dd e8 3c e5 35 94 3b 78 0c 68 bc
       0.03772571 0.028426124 0.0045230263 -0.014163129
0000d0 c8 08 54 bc 8b c0 91 bd 5a b1 8c 3c b2 77 44 3d
       -0.012941547 -0.07116803 0.017174412 0.047965713
0000e0 99 d0 49 3d 3b 90 f6 3d 83 d3 d0 3d 21 a8 b3 3c
       0.0492712 0.120392285 0.10196593 0.021930756
0000f0 79 9d cd 3c e3 2a fe 3d 36 0b 0a 3e 83 41 c3 3d
       0.025099503 0.12410524 0.13480839 0.0953398
000100 a2 26 0d 3e 50 b8 0a 3d af 26 bf 3c 1f ed 9a 3d
       0.13784268 0.03386718 0.023333875 0.075647585
000110 06 49 a2 3d fa e2 f1 3d 4e c4 0d 3e bc 01 7d 3d
       0.07924084 0.118108705 0.13844416 0.061769232
000120 c8 30 7b 3d 16 ce c0 3d 84 92 5c 3d 22 23 4b 3d
       0.06132582 0.09414308 0.053850666 0.049594052
000130 40 ca 88 3d f3 17 a7 3b 2a e1 70 3d 87 15 6a 3d
       0.06679201 0.0050992905 0.058808483 0.057149436
000140 6b fa a3 3c df e6 03 3d a0 dc c7 3c 8f 7b 25 3c
       0.02001687 0.032202598 0.024397194 0.010100259
000150 96 18 a6 3c ac c7 f6 3a dc 98 88 3c 45 b7 eb 3b
       0.020275395 0.0018827817 0.016674452 0.0071934783
000160 62 df bd bb 4a 95 f3 bc 3b ba 43 bd 12 a1 be b9
       -0.0057944516 -0.029734273 -0.047785025 -0.0003635963
000170 46 c7 89 3d ec 9f 31 bc 79 71 c0 bc 5f c3 03 bd
       0.067274615 -0.010841351 -0.023491608 -0.032168742
000180 94 12 d5 bd c6 30 3c bd c7 c6 6a bd 45 5d b3 bd
       -0.10403934 -0.04594495 -0.057318475 -0.08758024
000190 95 d5 8a bd 72 67 1a bc d2 a5 10 bd c2 58 e9 bd
       -0.06779019 -0.009424077 -0.03531439 -0.11393882
0001a0 5f a6 bf bc d4 eb a0 bc 3e 7d 86 3c d9 62 f8 3a
       -0.023394762 -0.019643702 0.016417142 0.0018950357
0001b0 eb 93 35 3c 58 fa ad bc 5b 52 91 bc 15 7b 33 b9
       0.01108263 -0.021237537 -0.017739465 -0.00017116622
0001c0 5b 17 0d 3b 64 2c 81 3b d1 41 f6 bc 81 cb 5e bd
       0.0021528814 0.0039420594 -0.03006068 -0.054393295
0001d0 8a 07 60 3d 66 0e a2 3c 69 c6 58 3d 25 7a 82 3d
       0.05469469 0.019782256 0.052923594 0.063709535
0001e0 dc 5b 40 3c 77 d9 b1 bc 63 c6 d3 bd 28 6d d7 3c
       0.011740651 -0.02171014 -0.10340574 0.026297167
0001f0 4e b6 1d 3d 80 96 68 bc f1 a4 be 3c cf 15 0d bc
       0.038503937 -0.014196038 0.02327201 -0.008611157
000200 0d 66 25 3d b9 5a c9 3c fe 83 a3 bc 35 88 87 bc
       0.040380526 0.024579393 -0.0199604 -0.01654444
000210 8f e3 c9 bc 19 32 9a 3a 82 3c ae bb 6a a1 be 3c
       -0.024644641 0.0011764198 -0.0053172717 0.023270328
000220 db f7 29 3d 8c 99 54 bc 91 87 f6 bc f1 e2 84 3c
       0.04149614 -0.012976062 -0.03009394 0.016221495
000230 f4 50 af 3d 15 83 c8 3c dd 59 c0 bc 22 bd 0a bb
       0.085603625 0.024476567 -0.02348035 -0.002116986
000240 c5 85 36 3c 6b 58 de 3c 71 74 3c bc 95 9d 87 3c
       0.011140292 0.02714177 -0.011502371 0.016554633
000250 3d e7 7d 3d 3e 9c 50 3d 4b f8 13 bc d4 10 10 bd
       0.061988104 0.050930254 -0.009031366 -0.0351723
000260 b7 5a 89 3c e9 95 b5 3d dc ad 0a 3e 28 79 d9 3d
       0.016766889 0.08866484 0.13542885 0.10618812
000270 57 8e f1 3d 5e fc 9b 3d 02 2e a1 3d 61 f3 28 3d
       0.11794727 0.076164946 0.078701034 0.04124773
000280 82 31 07 3e 77 66 1f 3e 5e 32 35 3d 3c fd a4 3d
       0.1320248 0.15566431 0.044237487 0.08056113
000290 d3 c0 93 3d 67 56 c9 3d 8f 43 c1 3d 61 5d 8b 3d
       0.07214513 0.09830933 0.09436714 0.0680492
0002a0 a4 be 6f 3d 34 2a 7d 3d 87 16 44 3d 47 14 3f 3d
       0.05853142 0.061807826 0.047873046 0.046650197
0002b0 8f 77 0e 3d 00 8a 5f 3d b0 aa 80 3d 7d e4 fa 3c
       0.03478199 0.054574966 0.06282556 0.03062653
0002c0 c4 e0 7e 3d 4d 7f 33 3d 7f a6 87 3d 5a ff ce 3c
       0.062226072 0.043822575 0.066235535 0.025268245
0002d0 de 26 16 3d d5 4a b1 3b 98 73 e5 3c 63 19 b0 3d
       0.03665816 0.005410532 0.028009221 0.08598592
0002e0 ab 10 e1 3d aa db 94 3d 2f a2 69 3b 46 09 f7 3c
       0.10989507 0.0726846 0.0035649647 0.03015579
0002f0 47 4f 71 bd 47 e8 fc 3a f2 b0 2d 3d b9 19 b6 bc
       -0.058913495 0.0019295298 0.042405076 -0.022229062
000300 d4 13 d9 bc a4 20 31 bd 93 9f 75 bc ab fe 01 bd
       -0.026498713 -0.04324402 -0.014991659 -0.03173701
000310 b9 4c 11 bc 77 9e 86 3d 11 95 d2 ba 7a b9 02 3d
       -0.00886839 0.065731935 -0.0016066154 0.031915165
000320 e3 9d 9b 3d 6b 18 91 3d 3f 54 34 3c a5 b6 1a 3d
       0.07598474 0.070847355 0.011006414 0.03777184
000330 15 8b 93 3d d4 7e 3b 3c 30 22 37 3d 8c 21 5a 3d
       0.07204262 0.011443812 0.044710338 0.05325465
000340 38 d6 21 3c 88 74 8a 3d 49 53 d2 38 b3 b7 d8 bb
       0.009877734 0.06760508 0.000100290934 -0.0066136955
000350 cf e4 43 3d 36 1b 84 bc 29 6e 6a 3d 8b b1 2d 3d
       0.04782563 -0.016126256 0.057233963 0.042405646
000360 4b 55 85 bc 74 f1 c9 bc 66 c1 8e bd 72 70 cb bc
       -0.016276022 -0.024651267 -0.069704816 -0.024833892
000370 22 35 f6 bd d4 2a f9 bb e8 f4 3d ba 58 39 94 bb
       -0.12021853 -0.0076039825 -0.00072462717 -0.0045234375
000380 fe e2 8e bd cb 67 d3 bc 7c bd 09 bd c0 89 d7 bb
       -0.06976889 -0.025806328 -0.033627972 -0.0065777004
000390 76 0d 95 bd 88 f5 f0 3b b6 c2 25 3c d4 3e 28 bd
       -0.07277958 0.0073534884 0.0101172235 -0.041075543
0003a0 12 51 d5 bc fd 71 d3 3c 60 e6 1a bc 5b 54 01 bd
       -0.026039634 0.02581119 -0.00945434 -0.03157459
0003b0 f2 b6 93 bc 73 e1 42 3c 12 28 a9 3a d0 86 15 3c
       -0.018031571 0.011894572 0.0012905619 0.00912638
0003c0 6d 57 d0 3c a0 50 3d 3d d8 64 02 3d 19 6e cf 3c
       0.025432313 0.046219468 0.031834453 0.025321053
0003d0 8d c8 99 3c 8e cc 00 3d b1 cd d0 3c 06 1a 94 3d
       0.018772388 0.03144508 0.025488706 0.07231526
0003e0 44 c3 b3 3d 6c 17 86 3d f8 a1 fc 3b 57 ce c6 3c
       0.08777478 0.06547436 0.007709738 0.024268312
0003f0 7e c7 13 bd 42 8b c7 bd ae 3e b1 bd 71 26 99 bd
       -0.036078922 -0.09743358 -0.08654533 -0.07478035
