PARALLEL/models/PRED_GROUP_POLICY_BOTH_6600.ckpt (torch, 307152 bytes, 9 tensors)

network.0.weight f4 [32, 5, 3, 3]
00000000: 889a 28bf 9a7b a6be c0a4 08be 8203 603e
00000010: 6160 c0bd a300 67be 5440 23be 6dc3 0abe
00000020: 03b9 68be cf28 1dbe 135d c9be 6bfe f5be
00000030: a97e d6be 69b3 fe3d f39f c7be 0b5e 49be
00000040: 9cf2 fcbe f9fa 32bf cc04 cfbd a3a0 b6be
00000050: e476 9cbd 2084 a83e e24e b23e b64c 96bd
00000060: a8b4 563f 49b6 d9be 0222 5a3e d117 0d3d
00000070: 2890 56bf fbaf 04bd 9ef0 19bf d651 18bf
00000080: b0b1 a13e f5b0 193f fda0 bcbe d0da fcbe
00000090: d309 16bf bfe8 fb3d 4049 7e3e a1d8 1ebe
000000a0: c737 c7bd 3813 eebe fb65 203d bc20 32be
000000b0: 16be 033e 5e9f 4abe 4890 7dbe 8cd3 06be
000000c0: f16c 58be eaab 94be 371e b2be e29d 83be
000000d0: 1e26 edbe 0871 c7be ec69 2ebd a680 c7bc
000000e0: 54ef 51be 5c0e 35bd 2203 08bf 9472 36bf
000000f0: 3433 64be 1cba 10bf e750 f1be d4c5 a3be
00000100: 8549 2a3d 1697 88bd 8745 0e3d 5850 8b3e
00000110: 81f6 aabe b43c f0bd 3375 be3d 0d44 e93d
00000120: 45fd 173e f5d3 edbc 9d52 dcbe 2957 4dbe
00000130: 9edf 513e 9b00 b7be 52da 96be 4405 a0be
00000140: 6b9a 82be cbc6 f1be 84b0 bd3d d1a5 f6bd
00000150: 148a c4bd 8eae 1ebf 3fec c3be 9cdd ddbd
00000160: 9e57 f6bd f8c8 ebbd c3ee 81be 9654 3cbe
00000170: ba23 aabe 4b59 efbe 8e68 edbd 0689 9ebd
00000180: dd6f 49bc 10be 823d 9a22 583e dbac 04be
00000190: 162e b9be 73cd 6a3e ccdc 1cbf 0d1a 883e
000001a0: b403 013f d4b4 a33d 3ad4 623e bd20 2b3f
000001b0: 653a 6b3e ba5b ce3e 19d1 de3d 05a4 86be
000001c0: dda8 d2be eabb f8bd fef2 0abc 849a f3be
000001d0: 7524 36be 3f22 b63e 5ba5 78bf 0a2e 2cbf
000001e0: b224 473e f0c1 23bf 5eba a23e 9624 7cbf
000001f0: 9fe5 8abe 9f03 74bf 79ca 563e d754 793e
00000200: f0b5 fb3d fc38 303e 2a6f df3d fff4 393e
00000210: 7998 bd3d b4c9 cfbe f42d 6fbd 236c ec3d
00000220: 089e c53d ea7b 283e 231a 06bd 3508 49bd
00000230: ccb4 b8bd cd11 a939 04cb 9b3d 82fc 77bd
00000240: 4c90 0e3f ca02 6ebd 44d2 c9be 91d8 ff3e
00000250: b8df a33e 0147 133f 27a0 863e 05ef 3f3f
00000260: b2e2 5c3f 31bf ed3d 802a 8f3d 988c 60bd
00000270: cc1c f43d da7f 633e b093 173e 9b62 713b
00000280: 917c 283e 8af7 d6bd b699 e6be b955 71bf
00000290: 0e22 5abf 1dee 3bbf 31ae 5dbf 793e 7bbf
000002a0: 93f0 13bf 793c 7abf f60b 47bf 34a4 f53d
000002b0: 019e 143e 3742 2f3d 0424 57be db3f 933c
000002c0: 094f a13d 28ea dc3e 2ec4 15be a9d8 d63c
000002d0: 357d 05bf e754 103e db8b 12be d166 c83d
000002e0: 4945 9e3d 739d 99be 0092 6dbe 25a4 a6bd
000002f0: e0ea 4f3a af11 5cbf 1bf1 08bf df10 53bc
00000300: d577 933e fc54 0fbf 0980 823e b4ed 35be
00000310: 7781 03bf 99aa 10bf 8ccb af3e 7e8d c23e
00000320: 71a4 5cbf 8178 0bbf 28b7 dfbe fd0d 39be
00000330: d9cc 183e 960a 43be 24b7 ce3c bc46 0f3f
00000340: 7ffe 9bbd 8aab 06be a3b0 ac3e 8fb2 2abf
00000350: 5cc9 e9bd c880 8ebe 85e8 2abf c621 31bf
00000360: 85bb 16be c3a7 0ebe dccb c23e b7fe b7be
00000370: 33ef 8d3e 3e6a a83e 4151 76be 47ad 4e3e
00000380: 5903 9bbe c8b4 e1bd c585 a4be d066 04bf
00000390: 7631 acbe 85b6 60be 1a86 86be 8bec aebe
000003a0: d54c a0bd 6269 be3d 4a77 983e 8013 b93d
000003b0: f76a 13bf a86b c0be 1a2a 27bf bb4c 663e
000003c0: 7c83 b33e c84e 0a3f d972 4abf f946 4b3e
000003d0: 047f 3e3d 94f4 883e a7af 93bc 27af 3fbe
000003e0: 76bf e8bd 1251 c73e 79ff e7bd 48bd d73d
000003f0: f566 0a3f 6e4d 1bbf 9575 35bf 2db4 503e
-0.65860796 -0.32516176 -0.13344097 0.21876338 -0.09393383 -0.22558837 -0.15942508 -0.13551112
-0.22726826 -0.15347598 -0.39328822 -0.48045668 -0.4189351 0.124365635 -0.3898922 -0.19664781
-0.49403846 -0.69914204 -0.10108337 -0.3566943 -0.07639864 0.32913303 0.34825808 -0.0733885
0.8386941 -0.42521885 0.21302035 0.03444654 -0.83813715 -0.03239439 -0.6013278 -0.5949987
0.31580877 0.6003564 -0.36841574 -0.4938569 -0.5860874 0.12300252 0.2483263 -0.15512325
-0.097274356 -0.46499038 0.039159756 -0.173953 0.12865481 -0.19787356 -0.2476207 -0.13166636
-0.21135308 -0.2903741 -0.34788677 -0.25706393 -0.46318144 -0.38953424 -0.042581484 -0.024353337
-0.20501453 -0.044203147 -0.5312978 -0.7126858 -0.22285157 -0.5653398 -0.47132036 -0.31986868
0.04157402 -0.06669442 0.034734275 0.27209735 -0.33391193 -0.11730328 0.09299698 0.11389933
0.14842708 -0.029031733 -0.4303178 -0.2005278 0.2049546 -0.3574265 -0.2946344 -0.31254017
-0.25508437 -0.4722198 0.09262183 -0.12043346 -0.09596649 -0.619851 -0.3826618 -0.10833284
-0.120284304 -0.11512941 -0.25377473 -0.18391642 -0.33230382 -0.46747813 -0.11592208 -0.07740979
-0.012294737 0.06383908 0.2110695 -0.12956564 -0.36167973 0.22929935 -0.6127441 0.26582375
0.50396276 0.079934746 0.2215127 0.6684683 0.22971494 0.40304357 0.10879726 -0.26297012
-0.41144457 -0.12145217 -0.008480785 -0.47578824 -0.17787345 0.35573003 -0.9712731 -0.6725775
0.19447592 -0.639678 0.31782812 -0.98493326 -0.27128312 -0.95318025 0.20975675 0.2434877
0.12290561 0.17209238 0.10909875 0.18159865 0.092575975 -0.40583575 -0.058393434 0.11544063
0.09649283 0.1645352 -0.03273977 -0.049080092 -0.09018859 0.00032247455 0.076070815 -0.060543545
0.5568893 -0.05810813 -0.39418232 0.49969915 0.3200662 0.5753022 0.26294062 0.7497409
0.8628341 0.116087325 0.06990528 -0.05482158 0.11919555 0.2221674 0.14802432 0.0036832455
0.16453768 -0.10496433 -0.45039147 -0.9427143 -0.85208213 -0.7341021 -0.8659392 -0.981422
-0.5778896 -0.97748524 -0.77752626 0.1199421 0.14513399 0.042787757 -0.21009833 0.017974785
0.07876403 0.43147397 -0.14625618 0.026226358 -0.52144176 0.14094888 -0.14311163 0.09785236
0.07728059 -0.30002937 -0.23200226 -0.08136777 0.00079314224 -0.85964483 -0.534929 -0.01288244
0.28802362 -0.5598905 0.25488308 -0.17766458 -0.5136942 -0.5651031 0.3433498 0.37998575
-0.8618842 -0.5448075 -0.43694425 -0.18071742 0.14921893 -0.19047007 0.025233813 0.5596731
-0.07616901 -0.13151374 0.33728513 -0.6667871 -0.114153594 -0.27832627 -0.66761047 -0.6919216
-0.1471997 -0.13931184 0.38046157 -0.3593652 0.27721557 0.32893556 -0.24054433 0.20183288
-0.30275992 -0.110208094 -0.32133308 -0.5171938 -0.33631486 -0.21944626 -0.26274186 -0.34164843
-0.078271545 0.09297444 0.2977851 0.090369225 -0.5758509 -0.37582135 -0.65298617 0.22490208
0.35061252 0.5402646 -0.79081494 0.19851293 0.04650785 0.26749098 -0.018028094 -0.18719159
-0.11364643 0.3892904 -0.113280244 0.105341494 0.5406335 -0.60665023 -0.7088254 0.20381232

network.0.bias f4 [32]
00000000: c729 8abe e8b0 05bf 2137 72be f9a0 f5bd
00000010: 9037 fbbe a514 40bf 129b 22be bffd 86be
00000020: e64d 6fbc f37c f8be e275 acbe 1878 ebbe
00000030: 9a28 81be c4c0 e6be 4616 45be 5584 3abf
00000040: 6079 30bf ff58 23bf 60cd 8dbe 4220 76bd
00000050: e74b 40bf 7109 e7be 930a d9be e0ef 9bbe
00000060: e58f 09bf 0d02 f5be 8c3b b7be f84a e8be
00000070: 54b4 27bf 5fb7 35bf a8a7 c8be 27f3 34be
-0.26985 -0.5222306 -0.23653843 -0.11993594 -0.49065828 -0.750315 -0.15879467 -0.26365468
-0.014605975 -0.4853283 -0.33683687 -0.45990062 -0.2522629 -0.45068944 -0.19246778 -0.7285817
-0.68935204 -0.6380767 -0.2769575 -0.060089357 -0.7511582 -0.4512439 -0.4239088 -0.30456448
-0.5373519 -0.47853127 -0.35787618 -0.45369697 -0.65509534 -0.7098293 -0.39190412 -0.1767088

network.2.weight f4 [64, 32, 3, 3]
00000000: ca26 3d3e b89b 8bbe e5b9 353f e33f cbbd
00000010: 96ce f5be ec84 3cbe 5b4e 52bd 046a 3cbe
00000020: 717f 7cbd 8813 17be dac4 0abe bf91 6dbe
00000030: c41a 4b3e 1f2b 6f3d c1d7 abbe 92ce 8d3e
00000040: 5b75 dcbd 68e9 a73d 8622 26bf e498 febe
00000050: d6bc 683e 0bfa f43c 2104 34be 3793 3cbe
00000060: eb1c 32bd 5b55 9c3e 6a0c b8be d42c 31bf
00000070: d2a5 a5bd b9fb 2ebe 6f83 43be 67c0 0b3e
00000080: 0890 3dbf 09b1 92be eeae 8e3e d2c0 4bbe
00000090: 7e6e 813e efa0 96be c8d3 98be e208 0f3f
000000a0: 0ecc 39be 26a3 b63d ef02 1bbf ce0d 59bf
000000b0: a378 0cbe 0a8c 9d3e cfde b23d 5e47 1dbe
000000c0: 3b70 44be c87a f9be 4367 7dbd 3ec7 fe3d
000000d0: c05c 21bd e968 a3bc 7982 9f3d de69 a63c
000000e0: 4e0a 8fbe 4ffc 41bc d9ad b4be 27de 4ebe
000000f0: 5305 ee3c 65fe 493d 9941 47be d042 3dbe
00000100: 631d 9a3e d0e6 17bf 47dd 253d 741c 3ebf
00000110: 90c2 14bd a03b 74bc 471f 8ebe 563d 763e
00000120: 7c77 5f3e 03ee 48bf 48da 9a3e 3f0a 03bf
00000130: 6212 22be 42ca 2ebe 7ee6 063d 21a1 aabd
00000140: ba3e 6f3e 90f8 6fbd fdc3 9ebe 9df9 103e
00000150: d4ea b83c f853 db3e 42f2 743e 74e7 163f
00000160: 4642 efbe de19 4dbe 0aa1 11bd c615 cb3b
00000170: 647e 7ebb a9f0 22bb cfd5 2fbc 69b1 eebd
00000180: 1f2b c8bb d312 1d3d 5d04 9ebb 8fdb 483e
00000190: 02bf 49be 22e1 ff3d 598e 8c3d f535 88bd
000001a0: e0dd e13e e9c6 cebd 446f a63d 3cc3 353e
000001b0: be33 a6be 01ec 0fbe 8adb d33e c3e6 90be
000001c0: 3fce 55be 48e8 7f3d b2a6 e13e 8c66 a1be
000001d0: 3cf5 4abc aefe 46bd 1f61 c03c cd70 e3bd
000001e0: ac18 bdbc 9650 10bd 0ffa 7fbd 7d1d fb3c
000001f0: 8cbe fdbd 274a ecbd b35a dcbc af19 7bbb
00000200: bc08 4f3c ce15 b13c e0b3 3dbd af59 22bb
00000210: 2a1e 2cbd 3749 50bd 6fe3 fbbc 22e1 d2bd
00000220: c8c1 c03d 69a0 23bd 0304 87bc 5d7f 2e3d
00000230: 308d 1cbe 5cc5 02be b853 163b 54e6 d3bd
00000240: 5fc8 c43e 06fb 7a3e b04e 8bbe b263 6abe
00000250: 3ace 193c 854f 37be b1e3 463f 6d16 1abe
00000260: ddf0 e6be 5be2 8e39 abb4 fbbd 0884 fe3d
00000270: 3392 f2be 31be edbe 3a7f 01bf 54bb 36bf
00000280: 93ad 363e 8ac6 2a3d d7dd d2bc b532 cb3e
00000290: ea37 dcbd 3d41 fa3d 0667 e3bd 954f 1e3f
000002a0: cde0 1f3e 41b7 003f f4b9 5dbe 3f78 45be
000002b0: f1fb 3fbe 62c8 81bd c42f 52be d2bd 16bd
000002c0: 9151 3a3e 3db1 07be 1108 a7be e152 29bf
000002d0: e88f a0be 6927 65bf ee1f 17bf 2a4a 09bf
000002e0: 520d 413e 546c 8cbe 69b2 a0be 9183 8fbe
000002f0: af32 62be 123e 0ebf 4ef1 4abf ed1c ab3e
00000300: 1a99 00bf cd8c a0be f22c 97bf 6d59 263e
00000310: 1884 21bf d4ca 12bf 9ff2 a4be 3720 30be
00000320: 942e 0cbf 8b5a 193d 4ddb dc3d c887 2cbe
00000330: cf1a 46be 7dfa 2b3e 1a06 973e f25a 69be
00000340: 2ea1 af3b 4cad 15bf 449d a6bd 3cd1 c8be
00000350: 1f33 cdbe 5073 f8be 8dff 0e3d 23fc 1bbe
00000360: c8d7 b1bd a059 16bd 4097 2abe 680f 083e
00000370: 4dd7 5ebe 15e0 56bd 1e37 12bd ba14 f3bd
00000380: e36c 87be f0d2 ccbe 41ea 693e b9d8 b3be
00000390: c23d 43be d937 9abe 1792 f6be 3eb8 f5bd
000003a0: 47f1 9bbe 421b 47be d19b 3c3e f852 debe
000003b0: bb29 1ebe 70b4 863e 2cce 453e 278b 1bbf
000003c0: 0720 6d3e 0f91 1b3e 612a f1be 25f6 70be
000003d0: 91ae d23e b510 8ebe fae5 113f 1bb8 59bd
000003e0: 091e 073f 51eb 583e ec41 1abe b75a dcbe
000003f0: 0cac 323e b970 d8be 1b16 683e cdaa 543e
0.18471828 -0.2726724 0.7098678 -0.09924295 -0.48009175 -0.1841008 -0.051344257 -0.18399817
-0.061644975 -0.14753544 -0.13551655 -0.23200129 0.19834429 0.058390733 -0.33563045 0.27696663
-0.10764571 0.081988156 -0.6489643 -0.4972602 0.22728285 0.029904386 -0.175797 -0.18415533
-0.04348461 0.3053387 -0.3594697 -0.6920903 -0.08088268 -0.17088212 -0.19093107 0.13647614
-0.740479 -0.28650692 0.27867836 -0.19897774 0.2527961 -0.29419658 -0.29849076 0.5587293
-0.18144247 0.08917837 -0.6055135 -0.8478669 -0.13717894 0.30770904 0.087339036 -0.15359256
-0.19183438 -0.48726487 -0.061866056 0.12440346 -0.039395094 -0.019947486 0.077885576 0.020314153
-0.2793755 -0.01183994 -0.35288885 -0.20201932 0.029055273 0.049314875 -0.19458617 -0.18482518
0.30100545 -0.59336567 0.04049423 -0.74262166 -0.03631836 -0.014906794 -0.27758238 0.24046835
0.21822923 -0.7848818 0.3024466 -0.5118751 -0.15827325 -0.17069343 0.03293466 -0.08331514
0.23363772 -0.058586657 -0.31008902 0.1415772 0.022572912 0.428375 0.23920539 0.5894692
-0.4673025 -0.20029399 -0.03555397 0.006197664 -0.003883266 -0.0024862683 -0.010732128 -0.11654932
-0.006108656 0.03834803 -0.0048222975 0.19615005 -0.1970177 0.124941126 0.06863088 -0.066509165
0.4411459 -0.10096533 0.08126691 0.17750257 -0.3246135 -0.14054872 0.41378433 -0.28301057
-0.20879458 0.06247738 0.4407249 -0.3152355 -0.01238757 -0.048582725 0.023483811 -0.111054994
-0.023083054 -0.035233103 -0.062494334 0.03065371 -0.123898596 -0.11537581 -0.026898718 -0.003831487
0.01263636 0.021616843 -0.04631412 -0.0024772694 -0.042020954 -0.050851073 -0.030748097 -0.10296847
0.09411961 -0.0399479 -0.016481405 0.04260193 -0.15288234 -0.12770599 0.0022938084 -0.10346666
0.3843412 0.2450982 -0.2720847 -0.22889593 0.009387547 -0.17901428 0.7769118 -0.15047617
-0.4510564 0.00027253 -0.12290319 0.12427527 -0.47377166 -0.46434167 -0.5058476 -0.7137959
0.17839651 0.041693248 -0.025740547 0.39687124 -0.10752852 0.122194745 -0.111036345 0.6184018
0.15613098 0.50279623 -0.21652967 -0.19284151 -0.18748452 -0.06337048 -0.20526034 -0.03680212
0.18195178 -0.13251205 -0.32623342 -0.6614209 -0.31359792 -0.8951326 -0.59033096 -0.5362879
0.18852738 -0.27426398 -0.31386116 -0.28030065 -0.22089647 -0.5556346 -0.7927445 0.33420506
-0.50233614 -0.31357422 -1.1810591 0.1624505 -0.63092184 -0.5734074 -0.32216355 -0.17199789
-0.5475857 0.037439864 0.10784016 -0.16848671 -0.19346164 0.16794772 0.29496843 -0.22788599
0.0053597903 -0.58467555 -0.08135465 -0.39222133 -0.40078065 -0.48525476 0.03491168 -0.15232901
-0.08683735 -0.036706567 -0.1665926 0.13287127 -0.21761818 -0.052459795 -0.035697095 -0.11869188
-0.2645026 -0.40004683 0.22843267 -0.35126284 -0.19066527 -0.30120733 -0.48158333 -0.11998032
-0.30457518 -0.19443992 0.18418814 -0.43422675 -0.15445606 0.26309538 0.1931693 -0.60759205
0.23156749 0.15192054 -0.47102645 -0.23531397 0.4114881 -0.2774712 0.5699154 -0.053154092
0.52780205 0.21183516 -0.1506421 -0.4303796 0.17448443 -0.422735 0.22664683 0.2076828

network.2.bias f4 [64]
00000000: 2388 a5be 7df0 1fbf 4736 06bf 7599 c5be
00000010: 7ae8 debe 2a4d c53e 07e0 a4be 6ec3 10be
00000020: eeca b4bd 5889 d2be ce40 95be b22e 01bf
00000030: 46c8 a5be c5ce 34bf 6f24 0ebe fd1d d8bd
00000040: 131b b0be 5520 6abe 718c aa3c 1b63 f6be
00000050: fb6b 3cbe 92fa 28be 920e 04be 3d4f 95bd
00000060: 07a6 a43d 39fa 11be 4b52 fdbd 90b5 7abe
00000070: b2ba c8be 145d 97be 42b9 e5be 3b7f 05be
00000080: e69e 0d3e 40a7 5fbe be90 e6be 37d2 19bf
00000090: 25bd 2fbe b067 ebbe e258 3bbe 5076 66be
000000a0: cb27 a0be 1b9b 683c 6f14 d73c 105a fbbd
000000b0: 6c2b efbe d7a9 11be 8c89 a0be 5125 0dbe
000000c0: e9b3 3ebe 42ce 4abe 0473 c4be c2a7 87be
000000d0: 1010 d2be 22c7 75be 6897 ccbd 1149 c2be
000000e0: a93c d2be 266a babd 61b4 b4be 666e 81be
000000f0: f44d 23be db94 22be 34f0 ebbe 6fdb d6be
-0.32330427 -0.6247633 -0.5242657 -0.3859364 -0.4353674 0.38535434 -0.3220217 -0.1413705
-0.08827768 -0.4112041 -0.29151005 -0.50461876 -0.3237936 -0.70628005 -0.13881086 -0.10552595
-0.34395656 -0.22863896 0.02081892 -0.48122486 -0.18400566 -0.16501835 -0.12896183 -0.07290504
0.0803948 -0.14255609 -0.12369212 -0.24483323 -0.39204937 -0.295632 -0.44867903 -0.13036816
0.13830146 -0.21841145 -0.45032305 -0.6008639 -0.17161997 -0.45977545 -0.18295625 -0.2250607
-0.3128036 0.014197136 0.02625486 -0.122730374 -0.46712816 -0.14224945 -0.3135494 -0.13783766
-0.18623318 -0.19805244 -0.38369 -0.26495177 -0.4102788 -0.24001744 -0.09989816 -0.3794637
-0.41061905 -0.091022775 -0.35293868 -0.2527954 -0.15947706 -0.15877096 -0.46081698 -0.4196429

network.4.weight f4 [64, 64, 3, 3]
00000000: 7a9b 6ebe 00ac 843e d620 8dbe 9b1c a53e
00000010: f532 d7be e69a 7dbe 807e 7d3d c9bd 94bd
00000020: 44e9 633e bdca 4cbf d544 103d 7538 ba3e
00000030: 5af9 103d b5bd e9be 2aa1 2a3e 6a70 50bf
00000040: d8ec 773e ca57 bdbe c4e4 6c3d d4fe 223b
00000050: ecbe a03d 3e27 c73d 6392 0dbf e92a 7e3e
00000060: 615a 29bf 3711 c1be 6565 043e 0d9d 6abc
00000070: 4b34 19be fc95 4bbd b2eb 883e b1fa 96be
00000080: 654a 823e 21d2 413e a3be 1dbe ee4d ecbd
00000090: f81b 9e3d b8cf 2cbf 30f6 e83d ac6c d4be
000000a0: 4ecd 113d d47c 173e edb3 10bf 12e5 12be
000000b0: 2892 1abe 88dc 23bc 1c2b ce3c 3dc5 99be
000000c0: 66eb d8bd 59cc c8be fbb5 02bf 62c8 39bf
000000d0: 1ad2 47bf 1ec7 8ebe 8261 0abd 7f27 afbe
000000e0: 8863 7dbe 172a 583c b140 c6bd fc74 1a3f
000000f0: d441 98be ddbe 823e 7111 c6bc a798 6bbe
00000100: 0de0 a1be dc9d b63e 2ae5 45bf 71ba adbd
00000110: 8be9 15be 8324 72bf adbb 91be abb1 f83e
00000120: 352a 7cbf 8ac2 cebe 368a 333e e893 203e
00000130: 0eb5 50bf e63a a63c e312 90bf c307 72bf
00000140: a79d cf3e 541f 023e dd2e 6fbe 2702 c1be
00000150: bd09 40be 6281 fcbc 34ab cd3d cedd 233e
00000160: d375 a6be 4a58 80be bdbc 54be 0a16 3ebe
00000170: 04fc 01bf 3d1f 26bf 71ff 00bf f0e7 e03e
00000180: 947a 99be 8ecf f1be 9c8a 813f 41c0 05bf
00000190: e715 1ebe 617e 133f 0a82 793c 3473 21bf
000001a0: 57f5 21be 0e74 0ebf c7dc 96be b4d1 2abe
000001b0: 41e5 a2be 4a07 b7be 8a06 dfbe 4a3b d73d
000001c0: 191b 08be 0adc aebe f309 9d3d 4ffb a83b
000001d0: 44cf 523e 86c7 babe 8e83 7a3e bc20 be3d
000001e0: 3de7 a3be 493c 58bd 757f 9d3e 8ba9 aebe
000001f0: 98f5 46bf 746e b43e 24d7 95bd 7e20 83bd
00000200: 8e11 aebd a930 483e fbbd 25bd 80c2 b9bd
00000210: c88d cbbd b6a0 bcbd d9b3 bebc 6617 ef3c
00000220: a950 a53c b2d7 f2bb 0bd5 a63c f6a7 6b3c
00000230: 74b4 8dbc dab0 67bb ac84 edbc 121b b5bb
00000240: cd23 dbbe 321c ea3e f738 0d3e 2087 e6bd
00000250: 45f3 2b3e c4b7 0fbf 17f8 6ebe d78c c3be
00000260: 1c68 983e 5522 80bf 850b 0dbf c23c 0d3c
00000270: 5ddb 01bf 729b 10bf 5e4a d0be d9cd 93bd
00000280: 68a8 19be 11ae 9e3e 9d19 fe3d 6278 4d3d
00000290: bcd4 2c3e 2297 00bf 5b0a ae3e 2ef6 7abe
000002a0: 04bc 6ebe 9dba a7be 87a5 30bf d60f efbe
000002b0: ddb3 873e 50db 7fbd 2d80 03bf a0d9 61bf
000002c0: f86a 0fbe bd53 0dbe 132a 4dbf 0456 94be
000002d0: a8fb 133e e2c4 1abe a42f 283e 7478 d4be
000002e0: 495e c3be a349 8dbd 647e e5bd b564 2ebe
000002f0: 90e1 e4bd b9b2 31bf df5b 3d3d ec0c 553f
00000300: 33e1 06be b473 ccbe df64 f03e e083 5ebe
00000310: 87ef 40be 529c ac3d ab52 a0be 7c6d 90be
00000320: 57ca 5dbc 08e0 72be c09e 66bf 8458 86be
00000330: f260 5b3e 2901 11bf 5434 bbbc 01ba 95be
00000340: a794 f2bd 4293 133d 50b3 853e fa93 aa3e
00000350: 851f 9d3e 09af 273d ba21 9a3e 34cc ce3d
00000360: aefe f0be 8b19 13bf e193 423e cf47 98be
00000370: 7061 c1bd 85bc 7dbf fb21 9cbe 6920 ee3e
00000380: dbd8 eebd 8129 41bc 3211 12be 6979 a5bc
00000390: 2561 e83b cdef e7bd 2235 a7bd d558 fabd
000003a0: b285 afbd 8213 c33d 0bfe e93c 733d 1cbd
000003b0: deb5 883c adf9 1fbd b43d a03c cf1d f63c
000003c0: 0153 49bc c0d8 e1bc a0f6 a6bb d584 19be
000003d0: 2d50 c2be a9bf fb3e 5b4a fabe ae6c aabe
000003e0: 11a9 9abe fa90 c33d 5c56 f83e b77f a0be
000003f0: d609 22bf b010 4fbd cf6b 9a3e 5c39 2cbf
-0.23301497 0.25912476 -0.27564114 0.32248387 -0.42031065 -0.2476612 0.061888218 -0.07262761
0.22256953 -0.79996854 0.035221893 0.36371198 0.03539405 -0.45652547 0.16663042 -0.8142153
0.24211442 -0.3698104 0.057835355 0.0024871128 0.078489155 0.09724282 -0.55301493 0.24821056
-0.6615353 -0.37708446 0.12929304 -0.01431967 -0.14961354 -0.049703583 0.2674232 -0.29488137
0.25447384 0.18927814 -0.15404753 -0.115383014 0.07720178 -0.67504454 0.113750815 -0.4148916
0.035596184 0.14793712 -0.56524545 -0.14345196 -0.15094817 -0.010001309 0.02516704 -0.30033293
-0.10591774 -0.39218405 -0.5105893 -0.72571385 -0.78054965 -0.2788629 -0.033784397 -0.3420982
-0.24745 0.013193629 -0.09680308 0.60334754 -0.29737723 0.25536242 -0.024178239 -0.23007451
-0.3161625 0.35667312 -0.773028 -0.084828265 -0.14639871 -0.9458696 -0.28463498 0.4857305
-0.985019 -0.40382797 0.17533192 0.15681422 -0.8152627 0.020291757 -1.1255764 -0.94543093
0.40549967 0.12707263 -0.2335772 -0.37696955 -0.18753715 -0.030823413 0.1004242 0.1600258
-0.32511768 -0.2506736 -0.20775123 -0.18563095 -0.5077517 -0.64891416 -0.5038977 0.43926954
-0.29976332 -0.47228664 1.0120425 -0.5224648 -0.15438043 0.57614714 0.015228758 -0.6306641
-0.15816246 -0.55645835 -0.29465315 -0.16681558 -0.31815532 -0.3574775 -0.43559676 0.10509355
-0.13291587 -0.3415225 0.07667913 0.0051569114 0.20586878 -0.3648035 0.24464247 0.09283587
-0.32012358 -0.052791867 0.30761304 -0.34113726 -0.77718496 0.3524052 -0.073164254 -0.06402682
-0.08499442 0.19549812 -0.040464383 -0.09070301 -0.09939152 -0.09210341 -0.023279117 0.029185962
0.020180063 -0.007410967 0.020365259 0.014383307 -0.01729796 -0.0035353214 -0.028993927 -0.0055269087
-0.4280075 0.45724636 0.13791262 -0.11256242 0.16792019 -0.5613978 -0.23336826 -0.3819339
0.2976693 -1.0010477 -0.550957 0.008620443 -0.50725347 -0.5648719 -0.40681738 -0.07216997
-0.15005648 0.30992177 0.12407229 0.050163634 0.16878027 -0.5023061 0.33992276 -0.24507973
-0.2331391 -0.32759562 -0.69002575 -0.4669177 0.26504412 -0.062465012 -0.51367456 -0.88222694
-0.14005649 -0.13801475 -0.80142325 -0.28971875 0.14451468 -0.15114167 0.16424423 -0.41498148
-0.3815787 -0.06898811 -0.11205748 -0.17030604 -0.11175835 -0.69413334 0.046230193 0.8322284
-0.13171844 -0.39932024 0.4695196 -0.21729994 -0.18841372 0.08428253 -0.3131307 -0.2820853
-0.013537011 -0.23718274 -0.90085983 -0.26239407 0.214237 -0.56642395 -0.0228521 -0.29243472
-0.118447594 0.036029108 0.26113367 0.33316022 0.3068811 0.04093841 0.30103856 0.100975424
-0.47069305 -0.5746085 0.19001724 -0.29742286 -0.09442413 -0.9911578 -0.30494675 0.46509102
-0.11662456 -0.01178968 -0.14264372 -0.020199494 0.0070916587 -0.11325035 -0.08164431 -0.122239746
-0.08570422 0.09525205 0.02856352 -0.03814454 0.016688284 -0.03905647 0.019560672 0.03004351
-0.012287856 -0.027569175 -0.005095318 -0.14992078 -0.37951794 0.49169663 -0.48884854 -0.3328604
-0.30207112 0.095491365 0.48503387 -0.3134744 -0.6329626 -0.050553024 0.30160376 -0.67275023

network.4.bias f4 [64]
00000000: 26b4 6bbe 34dd 7bbe 9988 8abe bc0a bfbe
00000010: e62a 13be 3892 ddbe d293 aebd e762 f3bd
00000020: a1f7 26bf 6564 0cbf 7909 5abe 3a74 2ebe
00000030: ca8e f3bd 4a85 fdbb a416 38bf b854 fabe
00000040: a729 08bf a081 25be 46ea 61bf 608b e0bd
00000050: af6a 8cbe 90ca 41bf 5cd4 13bf 92ee d4be
00000060: 0116 1bbf 21b3 4fbf 21f6 c7be 8d71 08bf
00000070: f7a4 98be 391e 15bf 2a6d efbe 5a36 3abf
00000080: 5353 22bf 3730 e4be f3fb 2fbe fabc 01bf
00000090: 04e8 37bf 8f47 1bbf 01f5 67bf 8ec1 bcbd
000000a0: 173d 13bf dbc0 21be 57df e5be 78b7 4c3c
000000b0: 64a2 00bf f8de 0fbf 0a43 98bd e4c2 03bf
000000c0: 34f3 26bf 2c16 c93d 55be a6be 23bc d0bd
000000d0: fdf3 bfbe 2d67 f1be 354d 81be 1825 f2bd
000000e0: 844f 0dbf 705f 01bf 4ebd 72be 7d4b 95bd
000000f0: 5a22 1dbf d808 89be 67be e6be ec00 a5be
-0.2301794 -0.24596101 -0.2705734 -0.37312877 -0.14371833 -0.4327562 -0.08524288 -0.118840985
-0.652216 -0.5484069 -0.21292676 -0.17036524 -0.11892469 -0.0077368366 -0.71909547 -0.4889276
-0.53188556 -0.1616273 -0.882481 -0.10964084 -0.27425143 -0.7569971 -0.5774591 -0.41588265
-0.6058045 -0.81132704 -0.3905497 -0.53298265 -0.29813358 -0.5824924 -0.46762973 -0.72739184
-0.6340839 -0.44568035 -0.17185955 -0.5067898 -0.718384 -0.60656065 -0.9060822 -0.09216605
-0.5751509 -0.15796225 -0.44896957 0.012494914 -0.5024779 -0.561996 -0.07434662 -0.51469254
-0.6521485 0.09818682 -0.32567087 -0.10192134 -0.37490836 -0.4714903 -0.25254217 -0.11823481
-0.55199456 -0.5053625 -0.23705027 -0.07289789 -0.6138054 -0.2676456 -0.4506714 -0.32227266

actor.weight f4 [5, 3136]
00000000: b884 293f abff cc3e 67c4 0a3f baea cd3e
00000010: b6a1 193f 564f 323f aa13 d93c 6128 893e
00000020: e4ce b93e 792a 893d 0fea 9a3e beee 263f
00000030: 4926 bb3e 114b 043f adb7 4d3f b7ce df3e
00000040: e3a5 c43e a581 0a3d ce5e f13e 7de4 ca3e
00000050: 71fd c63e c992 e53e 9c7f bf3e e13b 053e
00000060: 89de cf3d ee43 603e a747 9c3e 32a4 a3be
00000070: b6fe 583e 9f1a 283f dd55 903e 0ee5 5d3e
00000080: 5c2b f83e 65ae 893e 0c5f 4f3f d215 b43e
00000090: a318 8a3e cf95 2abb 9454 e43d 4367 fd3e
000000a0: f69a b63e 913a 7f3e 98cf ea3d 819d e63e
000000b0: b6a4 873c 3f8d cc3e fd2e 003f d06f 033e
000000c0: 6401 683e 182f 9d3e 4335 f33e 3ef0 753f
000000d0: ae38 013f ec0c 013f 7bd0 083f 270a 0f3e
000000e0: 9559 9e3e dbe1 873f b6bf 013f adca 113f
000000f0: 1b57 f83e 5dcd 613f 40d7 0b3f eb61 783f
00000100: 374f 0a3f c2f8 183f c100 433e af17 b4bd
00000110: b372 14bd fe46 ce3e e601 653e c399 b13f
00000120: be3d d23e 000d 573f 4b63 1d3f 9ebb df3d
00000130: 35d3 763c 8386 423e 1203 673f 15f2 9a3e
00000140: 76b9 963f 491d 4d3f 309c 5e3e 00af e53e
00000150: 7723 b63e da24 b43e a503 1d3f 588b e83e
00000160: 9d70 503e 2ee3 9abe 9e23 473d df73 0d3f
00000170: 002e b63d 09ef 2b3d f68b 4f3e 3331 9a3d
00000180: 192e b73e 1be3 073f 221d da3e 8af4 5e3e
00000190: c0d0 2ebe 2be9 7c3e c562 b23e d427 3abe
000001a0: c438 133f a397 d83e 6a15 253e edd7 bd3e
000001b0: 5bc4 aa3e c80b 0a3f f64a ffbb fa8e 2f3e
000001c0: c220 893e dace d43e d21b c03e e4b4 c03e
000001d0: 45e8 053f 3e93 4d3f 3062 8f3e 4dc5 843e
000001e0: 9380 0f3e ea64 ee3e 10cd ec3e 3aff 033e
000001f0: 7b2b ff3e c126 b83e f118 b63e c40b 6d3e
00000200: 937e 6f3e a5bb ef3e 63e0 353e 856e bd3e
00000210: 0cc6 c03e e135 e73e 41fe 5e3e 49b3 da3d
00000220: 528c ba3e c387 803e 680f 6d3e 55d0 3a3f
00000230: 92d2 563f a6a6 e23e a108 e83e 96e0 05be
00000240: bd34 1f3f ef8e 573f 950d 3f3d 7e01 4d3f
00000250: dc63 2b3f 6c80 e63e 754b 873f 8e97 523f
00000260: 6405 d93e 8d90 fcbd 4685 4c3f 0c52 543f
00000270: 556a 543f 4bff f73d 0109 153e 9d88 403f
00000280: 894b ab3e d989 033f 3e73 8c3f c604 ec3d
00000290: 327b 453f 5724 bdbb 852e df3e 6596 f13d
000002a0: 6167 633f bf17 5d3e 6120 033f acbe 083f
000002b0: 1d4e 863e 109e 14be 4bb1 e33e 5064 7a3f
000002c0: 5fb2 ef3e 61d3 353e 72af 223f 9a0d 0a3f
000002d0: 2509 f93e bd5b 2b3e d161 183f 3cf1 2b3f
000002e0: f90f da3d 841a 1e3f ae72 193f cf14 ab3e
000002f0: e71e e63d 1bd3 183e ef40 623f b419 b13f
00000300: 7bbf 863e 5877 033f 8c51 3d3e d9eb 643f
00000310: e8a3 ea3e e138 813e 432a dd3e 5cf0 f93e
00000320: 167b c43d d86c 4a3f 8158 b3bd ef31 ae3e
00000330: a6a5 c23e c83d 193f f6af 133f cbbf 153d
00000340: 2cb1 77be 4a87 a5be cfdf 193e e1b9 c13e
00000350: fb85 123f a3ae 8b3e 4964 7e3e 46ca e83e
00000360: 37cb df3e de4f c33e 0caa 113f dd3e f83e
00000370: 9553 a33d 07e7 b93d f852 153e 6957 be3e
00000380: 6230 e83e 2d97 e93e df06 173f e96b 633e
00000390: 52f3 2c3f 8b4f f73e a68a 703e 8879 e53d
000003a0: 6a74 bd3e 6e81 1a3f 3b77 aa3e 7e0c dc3e
000003b0: 639e f93e 4b15 5c3e 4a76 9f3e dc6c 1e3f
000003c0: 6f7a 173f b49c c23e c5fe 1d3d 61fa 1d3f
000003d0: 5e07 8f3e 874f 0cbe 9875 ee3e bd3b 6c3e
000003e0: ad9b 603e 26aa 33bd d9e9 b53d 1264 ab3d
000003f0: 3f36 e83d 3c4f 433f 3012 343f b6ac 353f
0.6621814 0.4003881 0.54205936 0.40218145 0.60012376 0.6965231 0.026498634 0.2678862
0.36290658 0.06697554 0.30256698 0.6520804 0.36552647 0.5167704 0.8035839 0.43712398
0.38407812 0.033815045 0.47142643 0.39627448 0.38865235 0.4483855 0.37402046 0.13011123
0.10149867 0.21900913 0.30523416 -0.3196121 0.21190915 0.6566562 0.28190508 0.21669409
0.4847058 0.26890865 0.81004405 0.35172898 0.2697192 -0.0026029234 0.111489445 0.49492845
0.356651 0.24924685 0.114653766 0.4504204 0.016558032 0.39951512 0.500717 0.12835622
0.2265678 0.30699992 0.47501573 0.96069705 0.5047711 0.5041034 0.53443116 0.13968717
0.3092772 1.0615801 0.5068315 0.56949884 0.48503956 0.88203984 0.5462532 0.9702441
0.5402712 0.59754574 0.19043256 -0.0879358 -0.0362422 0.40288538 0.22364005 1.3875049
0.4106273 0.8400421 0.61479634 0.10924457 0.015065004 0.18996625 0.9023906 0.3026282
1.1775348 0.8012281 0.21739268 0.44860077 0.35573933 0.35184366 0.61333686 0.4541881
0.20355459 -0.3025145 0.04861795 0.5525493 0.088954926 0.04197601 0.20268235 0.07528915
0.35777357 0.5308091 0.42600352 0.21772972 -0.1707182 0.24698322 0.3484098 -0.18179256
0.5750849 0.4230319 0.1612145 0.370788 0.33352932 0.53924227 -0.0077909185 0.17144385
0.26782805 0.41564065 0.37521225 0.3763801 0.5230754 0.803028 0.280046 0.2593178
0.14013891 0.46561366 0.462502 0.1289033 0.4983786 0.35967067 0.35565904 0.2314902
0.23388128 0.4682285 0.17761378 0.36998382 0.37651098 0.45158294 0.21776678 0.10678727
0.3643518 0.25103578 0.23150408 0.7297414 0.83915055 0.44267768 0.45319083 -0.13073954
0.6218985 0.84202474 0.046643812 0.800804 0.6694925 0.45019853 1.0569903 0.82262504
0.42386925 -0.123322584 0.7989086 0.82937694 0.8297475 0.1210924 0.14554216 0.75208455
0.33456066 0.51382214 1.0972669 0.11524348 0.77141106 -0.0057721543 0.4359018 0.117962636
0.8882962 0.2159109 0.5122128 0.5341594 0.2623147 -0.14513421 0.444712 0.97809315
0.46815774 0.17756416 0.6354896 0.53927004 0.4863979 0.16734214 0.59524256 0.6716497
0.10647578 0.6175921 0.5994061 0.33414313 0.11236363 0.1492428 0.8838033 1.3835969
0.26317963 0.5135398 0.18488139 0.89422375 0.45828176 0.25238708 0.43196306 0.48816192
0.09593789 0.7907233 -0.08757115 0.3402247 0.38017005 0.59859896 0.5769037 0.03655986
-0.2418868 -0.3232978 0.15026782 0.37837127 0.5723569 0.27281675 0.24842943 0.45466822
0.43709728 0.3814687 0.56900096 0.4848546 0.079749264 0.09077268 0.14582431 0.37176064
0.45349413 0.4562315 0.5899486 0.22209133 0.6755878 0.48302874 0.2349039 0.11204821
0.3700288 0.60353744 0.3329409 0.4297828 0.48753652 0.21492498 0.31144935 0.61884856
0.59171194 0.3801018 0.038573045 0.6171017 0.27935308 -0.13702212 0.46574092 0.23069663
0.21934386 -0.043863438 0.088824935 0.08368696 0.113384716 0.7629278 0.7034025 0.7096666

actor.bias f4 [5]
00000000: 8823 713d 042f 453a a746 c33e 3124 de3d
00000010: c4c8 9b3d
0.058871776 0.00075219595 0.3813984 0.10846747 0.076066524

critic.weight f4 [1, 3136]
00000000: 3b6d 39bf 6c0d 07bf 9ac4 a5bd 6039 223f
00000010: 27c6 793e 4ae6 6e3e 5b16 69be 71b9 bfbd
00000020: 90e0 923d f626 893c 2850 4abd 5b0b 2a3e
00000030: 60a4 c73d 274c 37bd 0fed 3abd 5c4c 5ebe
00000040: 997b f73d 24d8 04bd 4d66 41bd 6793 a5bd
00000050: 6199 29be 3acb ae3d c3b0 eebe 5221 d7be
00000060: 476a d2be e0c9 cf3d 8ef1 1e3e f22a 543e
00000070: d696 d7be 0cfe 5abe dd60 013e e830 97bc
00000080: c0e7 0d3e 6296 c13d 4eb1 82bd 0c5f fa3e
00000090: 1c44 61be c019 943d 1dd4 6dbd 0067 1d3d
000000a0: 496b 913d 6118 8b3e 7e5c d33c 0058 32be
000000b0: a8cd 0d3e ddd8 133e b787 233d 5663 d43e
000000c0: adca 4f3d 1090 85be 54d3 2ebe bad3 37bf
000000d0: 88db 9d3e b441 9fbe 044a fcbe 10f5 7bbe
000000e0: 59b6 743e 8b93 e5bd 400a 04bf ac2f dabc
000000f0: 3d52 273e a9ea a93e f745 a2be 6563 acbe
00000100: d19b 293e 357f 043f 6e24 273f d06f ff3e
00000110: 352f 823e 2901 863e 3c82 a83e 1c19 20bf
00000120: d451 96bd 7738 20bf 5f6f 1cbd 06b1 56bd
00000130: e45e 873d 28a0 80be 06d0 d1be f084 bcbe
00000140: b971 c8be a1ea ee3c 628f 18bc 52bb cabe
00000150: b99e 343f b8f0 093f 83cf ee3b 36b1 21bb
00000160: 01bf 9b3e 11f2 06bb c4b8 083e fa98 373e
00000170: 8f60 2b3f 3b01 913d c815 e83e 682a 9b3e
00000180: e73b 5c3e 6c50 c0bd d15b 4cbd 3531 6ebd
00000190: be6a 613d 8c5f cbbe cfad 033e dedf b9bd
000001a0: c666 9abe 775f a53b 3dfb b2bc 55b5 9fbd
000001b0: 788c 8bbe 12a8 60be a25e 1cbd 5e2b 20be
000001c0: 152a 04bd d8ba 64bd 3a18 073e 32c0 c7bd
000001d0: 5e37 debd 206a 00be fdcb 8ebe ae50 6fbe
000001e0: 8796 97bd 9a82 973d 9242 6c3d b7c9 62be
000001f0: 7777 333e 3123 acba be87 953e 9f45 8a3c
00000200: 89d6 dfbd 9ef4 e6bd 78f6 f63d 8d8f 963e
00000210: 8a45 d13e 5361 65be 7fa7 a63d 7b0a 613c
00000220: 8b66 253d 1f24 423e cfdb d9bd c002 a0be
00000230: 92b4 dcbd 183a 2abe e468 7c3e d6f4 473e
00000240: bbb7 033e eee1 373e 449b 12be 491a 24bf
00000250: 4d9d 1dbf 8f91 18bf 806f 66bf 51db 88bf
00000260: a4e3 053f 73db 9e3d 7d05 7fbd 5520 b43d
00000270: 816a 243f 658c 053e d054 c5bd 69be 68bc
00000280: 3a1b c33d 5674 9e3c 4c05 3d3f 32f5 47bd
00000290: 0cee d23d 9cff 1fbe c7ad 07bd 4f4a 13bd
000002a0: 2a67 09bf 5a47 3d3e adaf 203e 6e4f 85bd
000002b0: 957e 21bf e537 1e3f 785f ca3e ea71 79bf
000002c0: 1f11 f43c 24cc f43d 2585 91bd 2240 afbe
000002d0: 4396 4bbf 3f37 423d 5865 31bd feb3 42be
000002e0: b6ea 803e 951b 19be deed b3be 7a91 ca3e
000002f0: 1642 7dbd 0765 a53d 951d 193f 4df9 bc3e
00000300: 7540 1bbd f5d9 5f3e 8354 a3be cc5c 4ebe
00000310: 2c7a 7c3e 9e1a 77be 2a18 ba3d 61f2 99be
00000320: 84a3 2cbd 3438 033d 6f79 6c3e 0cdb 943e
00000330: 6dfe 913e 89d7 933e 4e67 bcbc c953 283d
00000340: 5866 533e 222f 463e 02e2 a8bd 7435 d8bd
00000350: 548f 113b a7d7 8e3d f085 34be 6f16 0ebe
00000360: 5610 813e 71bd 173e 7f35 da3d 81bf 44be
00000370: 59e9 88bc 4d2b 19be 6548 863e 644f ae3d
00000380: 9c4e 2c3e dda6 063e c00e 203d b941 963d
00000390: 6c3e 2dbd 401c 14be eda6 a03e ba25 6fbe
000003a0: 774f 1dbe 477c 06be 6f28 4d3d ee29 08bf
000003b0: 5993 9ebe cabc 71bd 3c2e a93e 22f8 f53e
000003c0: 90ec 7e3e 72b9 76bd 5da5 3ebe 6d03 303e
000003d0: ef6f d53e 1fc1 e33c eb89 b43e 2b77 d1bd
000003e0: 75bc 91bd b696 4fbe 1fda 363e 5a1f 10be
000003f0: 9b2d 00be 3453 14bd b1db 133e e43f f7bd
-0.724323 -0.52754855 -0.080941394 0.633688 0.24391995 0.23330036 -0.22762434 -0.09361542
0.07171738 0.01674221 -0.04939285 0.16605894 0.09748149 -0.04475036 -0.045636233 -0.21708816
0.12084121 -0.03243269 -0.047216702 -0.080847554 -0.16562416 0.08534856 -0.46619233 -0.4201761
-0.41096708 0.101459265 0.15521833 0.20719507 -0.42107266 -0.21385974 0.12634607 -0.018455938
0.13857937 0.09452511 -0.063814744 0.4890064 -0.21998638 0.07231474 -0.058063615 0.038428307
0.07100541 0.27167037 0.02580094 -0.17416382 0.13847983 0.14438196 0.03992435 0.41482037
0.050730396 -0.26086473 -0.17072803 -0.71807444 0.30831552 -0.31104815 -0.4927522 -0.24605203
0.23897685 -0.11209782 -0.5157814 -0.02663406 0.16339965 0.33186844 -0.31694004 -0.33669582
0.16563345 0.517566 0.6528996 0.49889994 0.2542664 0.2617276 0.3291186 -0.62538314
-0.07339826 -0.6258616 -0.03819215 -0.052414916 0.06609896 -0.2512219 -0.40979022 -0.36820173
-0.39149264 0.029164614 -0.009311529 -0.3959604 0.7055469 0.5388293 0.007287921 -0.0024672276
0.30419162 -0.002059106 0.13351732 0.1792945 0.6694421 0.07080313 0.45329118 0.3030579
0.21507226 -0.09390339 -0.04989225 -0.058152396 0.055033438 -0.39721334 0.12859271 -0.090759024
-0.30156535 0.0050467807 -0.021848315 -0.07798258 -0.27255607 -0.21939114 -0.038176186 -0.15641543
-0.032266695 -0.05584225 0.13192835 -0.09753455 -0.10850404 -0.12540483 -0.27890006 -0.2337062
-0.07401758 0.07397957 0.057680674 -0.2214726 0.17526041 -0.0013133046 0.29205126 0.016878901
-0.10929591 -0.11277126 0.12058729 0.29406396 0.40873367 -0.22400407 0.08137416 0.013735409
0.040380996 0.18959092 -0.10637628 -0.31252098 -0.107766286 -0.16623724 0.24649388 0.19526991
0.12863056 0.17957279 -0.14317042 -0.6410261 -0.61568147 -0.59597105 -0.90013885 -1.069193
0.5230048 0.077567 -0.062261093 0.08795229 0.6422501 0.13041838 -0.09635317 -0.014205554
0.095266774 0.019342583 0.7383621 -0.04881782 0.1029931 -0.15624851 -0.03312471 -0.035959538
-0.5367304 0.1848425 0.15692015 -0.06509291 -0.63083774 0.6180404 0.39525962 -0.97439444
0.02979332 0.11952999 -0.071054734 -0.34228617 -0.79526156 0.047415968 -0.04330954 -0.19013974
0.2517907 -0.14951928 -0.35142416 0.39564115 -0.061830603 0.0807591 0.59810764 0.3690895
-0.037903268 0.21860488 -0.31900415 -0.20152587 0.2465598 -0.24131247 0.0908664 -0.30067733
-0.04214813 0.03203602 0.23093198 0.2907337 0.28514424 0.28875378 -0.022998478 0.04109553
0.2064451 0.19353917 -0.082462326 -0.105570704 0.0022210674 0.06974726 -0.17629218 -0.13875745
0.25207776 0.1481836 0.10654735 -0.19213678 -0.016712831 -0.14957924 0.26227108 0.08511236
0.16826862 0.13149591 0.039076567 0.07336754 -0.04229586 -0.14463902 0.31377354 -0.23354235
-0.15362345 -0.13133346 0.05008739 -0.5318898 -0.30971792 -0.059017934 0.33043087 0.48040873
0.24894929 -0.06023545 -0.18617769 0.17188807 0.4168696 0.027802048 0.35261473 -0.102278076
-0.071160235 -0.20272335 0.17856644 -0.1407446 -0.12517397 -0.03621216 0.14439274 -0.12072733
