PARALLEL/models/PRED_GROUP_POLICY_BOTH_9100.ckpt (torch, 307152 bytes, 9 tensors)

network.0.weight f4 [32, 5, 3, 3]
00000000: 8e3a aabe 6737 a5be d0fd 3ebe f76b 1abe
00000010: 1cbb 1fbe 3965 e9be bc2b b3be 38e0 c0be
00000020: 1cd8 03bf 7282 403e 0719 fcbe e9dc 0fbf
00000030: 191b bcbd 3d18 403e 4316 a9be 21d9 bcbd
00000040: fa01 cbbe 5d8c 03bf ec1e 0cbe 9ada d1be
00000050: 5784 4b3d 1540 b03c 5503 2a3e df06 bd3d
00000060: 31fd 153f 12d4 eebe 1c83 6d3d 080e 933e
00000070: c1ee 68bf e02b b6be bba7 0ebf 0fc6 32bf
00000080: 03b3 d43e b11b cd3e ffea e7be 6cc2 15bf
00000090: 24e4 30bf 6a1c 483e d0a5 2b3d dff4 48be
000000a0: ee3d cfba 2a73 e9be 79c0 b03e 9795 c4be
000000b0: 7abb 933e 5e9f 4abe 4890 7dbe 8cd3 06be
000000c0: f16c 58be eaab 94be 371e b2be e29d 83be
000000d0: 1e26 edbe 0871 c7be ec69 2ebd a680 c7bc
000000e0: 54ef 51be 5c0e 35bd 2203 08bf 9472 36bf
000000f0: 3433 64be 1cba 10bf e750 f1be d4c5 a3be
00000100: 8549 2a3d 1697 88bd 8745 0e3d 5850 8b3e
00000110: 81f6 aabe b43c f0bd 3375 be3d 0d44 e93d
00000120: 45fd 173e f5d3 edbc 9d52 dcbe 2957 4dbe
00000130: 9edf 513e 9b00 b7be 52da 96be 4405 a0be
00000140: 6b9a 82be cbc6 f1be 84b0 bd3d d1a5 f6bd
00000150: 148a c4bd 8eae 1ebf 3fec c3be 9cdd ddbd
00000160: 9e57 f6bd f8c8 ebbd 2959 6dbe 4609 62be
00000170: a8e6 34be f0eb c0be 13d9 fdbe 655f 03be
00000180: 46c3 95bd 6ca9 eebd 23bb dc3d ef77 47be
00000190: f656 b4be 3b0c a83e a675 f1be 2ab0 cf3e
000001a0: 42c7 f23e 8ae1 2a3e 5f97 a63e 9f1c 463f
000001b0: 65b8 633e 8f83 d03e b42c 77bd c471 77be
000001c0: 36af 623d 349e e6bd 51bf d73e 97e9 bbbe
000001d0: a8fd 67bf 692d 953e 533e e4be b205 62bf
000001e0: 21d6 a73e d0ff 4abf d37c d33e 5660 92bf
000001f0: 8b7a e03d 9806 8fbf 40d5 a23e 96b2 f33e
00000200: 0319 aa3e ed2e 35be 1e07 853e e55b b43d
00000210: f518 ae3d 839e f2be 16ca d2bd e32b ca3d
00000220: 1998 333e c0ad 413e d690 05be ee64 a8bd
00000230: a77b b7bd 53af 97bd bb3c 8f3d 16f3 d8bd
00000240: 7aff 3b3f 8693 23be d9a8 d6be 453d 0c3f
00000250: 0ebd e13e 50b1 293f e89e 9e3e 1c5a 643f
00000260: 4d24 763f 6d73 93bd a39e 843e 7947 4e3b
00000270: f68a 4a3c 3962 353e efd8 ce3d dd6a 2cbd
00000280: 1ed5 503e 428f a33d 32fc 96be 949d afbf
00000290: 0e27 55bf ab1b 2abf 1af0 65bf 8828 86bf
000002a0: af24 08bf d067 51bf 9a86 95bf d63c 5bbd
000002b0: 7b09 cbbd 22e1 dabd b346 53be 89c8 ad3c
000002c0: 3a6e ed3d 7c58 cf3e 6ccb 163c 1737 df3d
000002d0: 1582 d8be 91fe 29bd 31aa d7be 45fb 7a3e
000002e0: 2347 4a3e de24 11bf 0778 afbe 5978 0dbe
000002f0: b3aa 23be 06f2 88bf f14c 61bf 9477 303e
00000300: c026 02be 1a05 5fbf 59b9 a73e 1c06 bfbe
00000310: 0054 f3be 4e26 c3be b7ee 923e 867e 323f
00000320: f32e 6abf 2fe6 e4be 7eaf 24bf 53f8 a4be
00000330: 0e4c 22be 5ca9 bebe 41c0 86be 2340 033f
00000340: 7416 9fbd 2dbc 0bbc 3df7 583e 243a 62bf
00000350: d477 1abe 0c2e 4d3d f734 40bf 7f89 42bf
00000360: ba44 0f3e d11d 15be 6860 d13e efb5 cbbe
00000370: 0a73 803e 85b3 883e 86c6 6abe b0db ee3d
00000380: 5903 9bbe 1e23 66bd 71f8 03be 1688 bebe
00000390: 85e6 55be deed 833c 5d5b acbe 8d01 b1bd
000003a0: 3966 08bf 2807 653e 31a8 a33e 408e 91be
000003b0: b062 82bf 9a18 e7be d59f 2dbe 4c81 173f
000003c0: 5105 ea3e d3c9 3c3f efc5 87bf 6537 343e
000003d0: 2ce2 ff3c 9efb db3e caa5 7d3e 173b 44be
000003e0: 6a9f 8ebe b184 db3e b265 263e 529d 15be
000003f0: c19e 123f 2f4e 17bf d2cb 3fbf af5b ba3e
-0.332478 -0.3226883 -0.1865151 -0.15080248 -0.1559872 -0.4558504 -0.34994304 -0.37671065
-0.5150163 0.18799761 -0.49237844 -0.5619646 -0.09184856 0.18759246 -0.33024797 -0.092211016
-0.39649945 -0.5138605 -0.13683671 -0.40987092 0.049686756 0.021514932 0.16602834 0.09229826
0.58589464 -0.46646172 0.057986364 0.28721642 -0.9098931 -0.3558035 -0.55724686 -0.69833463
0.41542825 0.4006019 -0.45296475 -0.5849979 -0.69098115 0.19542089 0.041906178 -0.19624661
-0.0015811303 -0.45595676 0.34521845 -0.38395378 0.2885397 -0.19787356 -0.2476207 -0.13166636
-0.21135308 -0.2903741 -0.34788677 -0.25706393 -0.46318144 -0.38953424 -0.042581484 -0.024353337
-0.20501453 -0.044203147 -0.5312978 -0.7126858 -0.22285157 -0.5653398 -0.47132036 -0.31986868
0.04157402 -0.06669442 0.034734275 0.27209735 -0.33391193 -0.11730328 0.09299698 0.11389933
0.14842708 -0.029031733 -0.4303178 -0.2005278 0.2049546 -0.3574265 -0.2946344 -0.31254017
-0.25508437 -0.4722198 0.09262183 -0.12043346 -0.09596649 -0.619851 -0.3826618 -0.10833284
-0.120284304 -0.11512941 -0.23178543 -0.2207385 -0.17666113 -0.37680006 -0.49579677 -0.12829359
-0.07312636 -0.116534084 0.10777881 -0.19479345 -0.35222596 0.3282183 -0.4716007 0.4056409
0.47417647 0.16687599 0.32537362 0.7738742 0.2223831 0.4072537 -0.060345367 -0.24164492
0.055342875 -0.112606436 0.4213815 -0.36701652 -0.90621424 0.29136208 -0.445788 -0.8828994
0.32780555 -0.7929659 0.4130617 -1.1435649 0.10960873 -1.1173887 0.31803322 0.47597188
0.33222207 -0.17693682 0.25981992 0.0880659 0.08500854 -0.4738656 -0.10292451 0.09871652
0.1753849 0.18913937 -0.13043532 -0.08222376 -0.08959132 -0.07406487 0.06994005 -0.1059324
0.734367 -0.15974244 -0.41925696 0.5478099 0.4408955 0.6628618 0.3098061 0.89199996
0.9614914 -0.0719975 0.2590228 0.0031475706 0.012362232 0.1771325 0.100999705 -0.0420941
0.20393798 0.07986309 -0.29489285 -1.3719964 -0.8326272 -0.6644847 -0.8981949 -1.0481119
-0.53180975 -0.8179903 -1.1681702 -0.053524815 -0.09913918 -0.10687472 -0.20632438 0.021213787
0.1159329 0.40497196 0.009203773 0.108991794 -0.42286745 -0.04150254 -0.42122033 0.24509914
0.19753699 -0.5669688 -0.3427126 -0.1381544 -0.15983085 -1.069886 -0.8800803 0.17233115
-0.12710094 -0.8711716 0.32758597 -0.3730935 -0.47525024 -0.38115162 0.2869775 0.6972431
-0.9147789 -0.44706866 -0.6433028 -0.32220706 -0.15849325 -0.37238586 -0.26318553 0.5126974
-0.077679545 -0.008528751 0.21188064 -0.88369966 -0.15084773 0.05009274 -0.7508082 -0.7599105
0.13991061 -0.14562155 0.40893865 -0.39787242 0.25087768 0.26699463 -0.22927293 0.11662996
-0.30275992 -0.056185834 -0.12887742 -0.372132 -0.20888717 0.016104635 -0.33663455 -0.08642874
-0.5328098 0.22366011 0.31964257 -0.2842884 -1.0186367 -0.45135957 -0.16955502 0.59181666
0.4570718 0.7374546 -1.060728 0.17599256 0.031235777 0.42965406 0.24770275 -0.19163166
-0.27855998 0.42874673 0.16249731 -0.14610794 0.5727349 -0.59103674 -0.7492038 0.36398074

network.0.bias f4 [32]
00000000: ca83 2fbf e8b0 05bf f8fe bebe 1ff2 2cbe
00000010: 56e1 21bf da24 3dbf 9265 d5bd ecf2 ccbe
00000020: e73c 17be 7a06 3bbf e275 acbe f489 23bf
00000030: 3613 43bf c4c0 e6be 4616 45be 5584 3abf
00000040: 6079 30bf 9b98 43bf a89b 09bf 3b3d 41be
00000050: 2dfb 1fbf bb6d f8be ce36 10bf 2ec7 9dbe
00000060: e58f 09bf 0d02 f5be 015a ebbe f95e 02bf
00000070: 372f 37bf 500a 51bf 35d6 01bf 0bef 9ebe
-0.6856047 -0.5222306 -0.373039 -0.16889237 -0.6323446 -0.73884356 -0.104197636 -0.40029085
-0.14769326 -0.7305676 -0.33683687 -0.63882375 -0.7620119 -0.45068944 -0.19246778 -0.7285817
-0.68935204 -0.7640473 -0.5375314 -0.18871014 -0.6249264 -0.48521218 -0.56333625 -0.30816025
-0.5373519 -0.47853127 -0.45967105 -0.50926167 -0.7155642 -0.8165636 -0.5071748 -0.3104175

network.2.weight f4 [64, 32, 3, 3]
00000000: f30b 003e 1a47 2cbf 864a 803f 6ac7 e4be
00000010: 38d9 cbbe f5d2 babe 35c7 60be 6443 4abe
00000020: 9647 6c3d 8813 17be dac4 0abe bf91 6dbe
00000030: c41a 4b3e 1f2b 6f3d c1d7 abbe 92ce 8d3e
00000040: 5b75 dcbd 68e9 a73d 8823 83be df33 aebe
00000050: 1995 473d 939a 07be 4fca 233e b0fb b6be
00000060: 8e60 a83d d32e fb3e f3c3 a33b beed 14bf
00000070: 1fb5 81be b5ab 0abf 5e74 0cbe 9392 8c3e
00000080: 958e a6be c84d 71bf 965c 673e 22eb acbe
00000090: 16bc 053f f142 243d caf1 acbe b25a f23e
000000a0: 71fb 5f3e 2b6a 3e3e 539f 5abf 75c2 10bf
000000b0: 17a7 ee3b b02a 873e 9f68 9a3e 3e35 aebe
000000c0: a1a3 fdbe 3e7b 07bf 9525 223e 4c38 fa3e
000000d0: e043 32be aad5 e3bd 4fe3 30be 25a4 c1be
000000e0: 4a1c 12be 551c 1d3e 716b 30bf 2718 59be
000000f0: 4dec 6f3d db47 343e c708 76be 4fd4 44be
00000100: bae3 2b3f bcd4 03bf ac52 1a3e d792 5bbf
00000110: cd62 e23c 8344 acbd 68c3 debe df33 973e
00000120: 0925 e3bc 1a37 c5be a348 5e3e cb09 60bf
00000130: ad8f 81be acd3 f13d a0ef 59be f56a 573d
00000140: aba1 cb3e a879 f33d f58d 16bf d671 25be
00000150: 1dcd ff3d acce 033f 3db0 503e 321b 413f
00000160: 2128 97be c1ad 3ebd 0aa1 11bd c615 cb3b
00000170: 647e 7ebb a9f0 22bb cfd5 2fbc 69b1 eebd
00000180: 1f2b c8bb d312 1d3d 5d04 9ebb e1ab 183f
00000190: 6a1e 87bd fb29 20be d1a8 7cbd 26d7 8fbe
000001a0: 5738 263f b6fb 30be ca0d 653e 92ef 923e
000001b0: c908 0fbf c725 bebe 6c4a 7b3e c08c f1be
000001c0: ca78 61be 8fa2 68bd 34b2 a13e 62f1 89be
000001d0: 02e0 44bd aefe 46bd 1f61 c03c cd70 e3bd
000001e0: ac18 bdbc 9650 10bd 0ffa 7fbd 7d1d fb3c
000001f0: 8cbe fdbd 274a ecbd b35a dcbc af19 7bbb
00000200: bc08 4f3c ce15 b13c e0b3 3dbd af59 22bb
00000210: 2a1e 2cbd 3749 50bd 6fe3 fbbc 22e1 d2bd
00000220: c8c1 c03d 69a0 23bd 0304 87bc 5d7f 2e3d
00000230: 308d 1cbe 5cc5 02be b853 163b 54e6 d3bd
00000240: 5fc8 c43e 06fb 7a3e b04e 8bbe b263 6abe
00000250: 3ace 193c 854f 37be b1e3 463f 6d16 1abe
00000260: ddf0 e6be c0b9 1ebe 178e 01bf bcbb cd3e
00000270: 64ba abbe a250 8bbf 4097 63bf edae 51bf
00000280: d42c e7bd fc23 a83d 2ee2 383e a4e5 283f
00000290: 583c d9be c13f 763c e828 14be 10be 343f
000002a0: 50d0 bfbc 8b21 6d3f dd69 8b3e 99bb 173d
000002b0: f3bd eebe ada4 4a3e 5d86 3e3e e430 2b3c
000002c0: b03b 123e 780c a9be 968d 193b 10f8 41bf
000002d0: a7ee ccbd d55b 54bf 88be 12bf e227 f7bd
000002e0: 8f83 bb3e 6b50 90be 68ad 29bc b5dd fc3d
000002f0: c053 04bf 8ff8 41bf 1a59 47bf 6814 e33e
00000300: 40e3 17bf 5017 67be 6d15 b0bf 38e9 0d3f
00000310: 50ec fdbd bbe3 4abf 9ea3 85be 0475 18be
00000320: fdd5 b6be 6f33 9ebd 4364 3e3e 506f ea3c
00000330: 6885 8ebd 1756 193e ede9 14bd 3350 0cbf
00000340: 1f97 103d be43 73bf c32e 61be 8a7c 02bf
00000350: 7ac7 6b3d b7d8 82bf 96c8 afbc 9834 fcbd
00000360: c8d7 b1bd a059 16bd 4097 2abe 680f 083e
00000370: 4dd7 5ebe 15e0 56bd 1e37 12bd ba14 f3bd
00000380: e36c 87be f0d2 ccbe 41ea 693e b9d8 b3be
00000390: c23d 43be d937 9abe 1792 f6be 3eb8 f5bd
000003a0: 47f1 9bbe 421b 47be 94b2 24be 7127 20bf
000003b0: de8b 2a3d 8faf 5e3e 755f a6bd a7e0 c2be
000003c0: 7f33 843e 8ff0 383f f674 84be 46e1 05bc
000003d0: 4d21 f73b 8af9 c6be 14ef 033f e6e4 31bc
000003e0: 20fa 563f 1ecf 343f 1a6a f4be eba4 fabe
000003f0: 0cac 323e b970 d8be 1b16 683e cdaa 543e
0.12504558 -0.6729599 1.0022743 -0.4468339 -0.39814162 -0.36489072 -0.21950991 -0.1975227
0.057685457 -0.14753544 -0.13551655 -0.23200129 0.19834429 0.058390733 -0.33563045 0.27696663
-0.10764571 0.081988156 -0.25613046 -0.3402395 0.048726175 -0.13242559 0.15995143 -0.35738897
0.08221541 0.49059162 0.004997724 -0.58175266 -0.25333497 -0.54168254 -0.13716266 0.27455577
-0.32530656 -0.9425931 0.22593912 -0.33773142 0.5224012 0.040102903 -0.3377822 0.4733482
0.21873261 0.18595187 -0.8539936 -0.5654672 0.0072831023 0.26399755 0.30157945 -0.34024996
-0.495389 -0.5292243 0.15834649 0.48871076 -0.17408705 -0.111247376 -0.17274211 -0.37820545
-0.14268604 0.15342839 -0.6891394 -0.2120062 0.058574963 0.17605536 -0.24026786 -0.19221614
0.6714436 -0.5149648 0.150706 -0.85770935 0.027635003 -0.08411505 -0.43508458 0.29531762
-0.02772762 -0.38518602 0.21707396 -0.8751494 -0.25304928 0.11807951 -0.21282816 0.052592237
0.3977178 0.118884385 -0.5881036 -0.16156706 0.12490294 0.5148723 0.2037973 0.7543212
-0.29522803 -0.046552423 -0.03555397 0.006197664 -0.003883266 -0.0024862683 -0.010732128 -0.11654932
-0.006108656 0.03834803 -0.0048222975 0.59637266 -0.06597598 -0.15641014 -0.061684433 -0.28093833
0.6492972 -0.1728352 0.22368541 0.28698403 -0.5587278 -0.37138197 0.24540108 -0.47177696
-0.22018734 -0.056795653 0.3158127 -0.26941973 -0.048065193 -0.048582725 0.023483811 -0.111054994
-0.023083054 -0.035233103 -0.062494334 0.03065371 -0.123898596 -0.11537581 -0.026898718 -0.003831487
0.01263636 0.021616843 -0.04631412 -0.0024772694 -0.042020954 -0.050851073 -0.030748097 -0.10296847
0.09411961 -0.0399479 -0.016481405 0.04260193 -0.15288234 -0.12770599 0.0022938084 -0.10346666
0.3843412 0.2450982 -0.2720847 -0.22889593 0.009387547 -0.17901428 0.7769118 -0.15047617
-0.4510564 -0.15500546 -0.50607437 0.40182292 -0.33540642 -1.0883982 -0.88902664 -0.8190754
-0.11287847 0.082099885 0.1805503 0.65975404 -0.4242885 0.015029849 -0.1446873 0.7060251
-0.02341476 0.9262931 0.27229205 0.03704414 -0.46629295 0.19789381 0.18605943 0.010448668
0.14280581 -0.33017325 0.002343034 -0.7576914 -0.10006457 -0.82952625 -0.5732198 -0.12068154
0.3662381 -0.28186354 -0.010356285 0.12346975 -0.5169029 -0.75769895 -0.77870333 0.44351506
-0.5933113 -0.22567487 -1.3756539 0.5543399 -0.12398589 -0.7925374 -0.26101393 -0.14888388
-0.35710135 -0.07724654 0.18592934 0.028617531 -0.06959039 0.14974247 -0.0363559 -0.54809874
0.03530037 -0.9502524 -0.21990494 -0.5097128 0.057563283 -1.0222386 -0.021457952 -0.12314719
-0.08683735 -0.036706567 -0.1665926 0.13287127 -0.21761818 -0.052459795 -0.035697095 -0.11869188
-0.2645026 -0.40004683 0.22843267 -0.35126284 -0.19066527 -0.30120733 -0.48158333 -0.11998032
-0.30457518 -0.19443992 -0.16083747 -0.6256018 0.041637294 0.21746658 -0.08123676 -0.3806202
0.25820538 0.72242063 -0.25870484 -0.008171385 0.0075418116 -0.38862258 0.5153668 -0.010857796
0.8397541 0.70628536 -0.477372 -0.48953947 0.17448443 -0.422735 0.22664683 0.2076828

network.2.bias f4 [64]
00000000: 30a4 cdbe 1c69 59bf d4b0 6abf f735 45bf
00000010: c7a4 ccbe 4daf 033f b2c9 fcbe 38da 32be
00000020: bd7c 77bd 7079 00bf 3f07 fcbe 4a24 1ebf
00000030: ad5f 94be 0b06 4abf 178f b0be 9b79 ddbd
00000040: dbf0 0abf 9644 6ebe 07a8 483e 52d7 68bf
00000050: 138c adbe fcc9 70be 7ba8 7abe 8d2e 09ba
00000060: 1702 a03e a820 29be 7000 0cbe 9923 8dbe
00000070: 0b29 24bf 223d 0dbf 7238 0fbe a017 b7bd
00000080: 015e 853e e20f cfbe 6035 2abf b721 b8be
00000090: d781 20be b067 ebbe 14f7 babe 65b7 c4be
000000a0: cfb7 d9be ef68 7dbe 9f69 f4bc c936 94be
000000b0: 7e78 d4be 41d0 7dbd 7d49 06bf a1e5 7cbd
000000c0: 48fe 71be 5274 cabe 0473 c4be 30fe a6be
000000d0: 3388 dfbe 9221 10bf c751 20be 3e75 d0be
000000e0: 9c20 fcbe 2148 edbd cbd5 99be 04de e2be
000000f0: 4c42 5abe db94 22be 096b 16bf 6b13 c1be
-0.40164328 -0.8492601 -0.9167607 -0.7703547 -0.39969465 0.5143936 -0.4937263 -0.17466056
-0.060421694 -0.501853 -0.49224278 -0.6177412 -0.28979245 -0.7891547 -0.3448417 -0.1081421
-0.54273766 -0.23268351 0.19595347 -0.9095355 -0.3389593 -0.23514551 -0.24478333 -0.0005233072
0.31251594 -0.16516364 -0.13672042 -0.2756622 -0.64125127 -0.55171406 -0.13986376 -0.08940053
0.26048282 -0.40441805 -0.66487694 -0.35963222 -0.1567453 -0.45977545 -0.3651663 -0.3842117
-0.42523047 -0.2474706 -0.02983552 -0.28948048 -0.41498178 -0.061966185 -0.52455884 -0.06174243
-0.23632157 -0.3954187 -0.38369 -0.32615805 -0.436586 -0.56301224 -0.15656196 -0.4071445
-0.4924363 -0.11586023 -0.30045924 -0.4431001 -0.21314353 -0.15877096 -0.5875707 -0.37710127

network.4.weight f4 [64, 64, 3, 3]
00000000: 00b8 9cbe ee91 da3e 75e6 5fbe f15a be3c
00000010: 1573 95be 9c89 81bd 1527 883e 6d86 7bbe
00000020: 8661 16be 162f 54bf eaea 75be 8fc5 c73e
00000030: 4b67 a9be c225 31bf cfca b63e b31a b8bf
00000040: 8e87 213e d0e6 24bc 3273 9e3e 320d 37be
00000050: 2201 133e b5c3 663d 9c57 1abf 3745 503e
00000060: eae6 2fbf 479f 9abe 8e08 3e3e fdf8 9fbe
00000070: 6f1f 2fbe ad6e a6bd 784d 8d3e 4e92 b3be
00000080: 5987 873e 8726 003f aad7 a2be f7b3 a7bd
00000090: 8535 bb3d 202b 82bf 16c9 3e3d 20a7 30bf
000000a0: 9e0e 09bf b9ed 723e aa06 8abd 88d7 663e
000000b0: 9aab fbbe 9447 1f3e 977c 303e d0f4 2fbe
000000c0: 807b c83d a763 eabe a46b bebe 9fc9 11bf
000000d0: 1071 87bf 6614 9dbd c25e f9bc 67a1 e6bd
000000e0: 4295 3a3e 7002 54bc 675f 1cbc a31a 163f
000000f0: ea42 cdbe 1878 0abb 3292 e3bd 53b1 2bbe
00000100: 9660 bbbe bcef ba3e 11f3 7bbf 775e 9cbe
00000110: 4d96 c03e 4a6a 7abf 0668 19be 67e4 0a3f
00000120: 8ebe 8fbf 77f7 dfbe 6de5 e83d 2550 b33d
00000130: 3653 95bf 11f0 8c3d 2544 87bf 4718 adbf
00000140: 309c fd3e cf0e 333c 3258 acbe db23 bdbd
00000150: 25ac 03bd e36a dd3d 7788 e8be 6c93 413e
00000160: 685e 12bf 7e28 f8be 9564 c7be 476a 4d3e
00000170: b0b7 cabe e2be 44bf 4b48 bebe b728 a63e
00000180: 83b7 93bd b443 f73d c6c4 4c3f e9e4 01bf
00000190: ce1a 8abd 7619 bc3e f838 9ebc ae5a 2ebf
000001a0: a24f 78be 4df8 17bf caae 113e dad3 66bd
000001b0: 6f7d 9a3d 5936 04be cfbd 7cbe 557e 1f3b
000001c0: 05f4 82bb 66f5 d4bd 42ad 1fbe 22ec cfbd
000001d0: 64f0 bfbe b92e 0cbf 9c4b 35be 0494 74be
000001e0: 5462 5dbf 5fa3 b83e a7fb 183f bcba d4be
000001f0: 59cc 29bf 3e90 8b3e f57d e6bd bea3 3f3e
00000200: 6ef6 96be cad9 bb3e e2b9 87be b198 cebd
00000210: a730 2abf 7035 513c 0334 a93d 6617 ef3c
00000220: a950 a53c b2d7 f2bb 0bd5 a63c f6a7 6b3c
00000230: 74b4 8dbc dab0 67bb ac84 edbc 121b b5bb
00000240: dc80 cabe a29c 3f3f 4aa7 163f 8c14 10be
00000250: 0201 4b3d 3000 3ebf 455e b5bc a077 f6be
00000260: e616 4d3d bd15 7abf fe15 923d 3653 efbd
00000270: c3a3 a3be 4633 b7be 0954 b3be ae02 12be
00000280: 7d22 31be 0742 3d3e 816c 073e aa8f 913d
00000290: 4165 9e3c 33e8 40bf b39e a43e a9c6 e6be
000002a0: 7618 10bf 1a20 34bf dbc8 37bf 0a0a 09bf
000002b0: 5210 8e3e 70d6 c4bc 335c c3be 595c 49bf
000002c0: 80f8 4bbd e4f5 49be 8758 37bf cec2 0ebf
000002d0: 0f73 58be 68f8 a4be c2d6 823d 1f3d bcbe
000002e0: b0ec 1bbe 4552 123e 6526 46be d0cd debe
000002f0: fa0b ad3e 4f8a 3abf 9e02 d83d 1b65 853f
00000300: 55fe b0be 54ee 1abf 9f5d 86be 98b1 ddbe
00000310: 4636 dfbe 1e68 ec3e 146e 8dbe 2f3a 03bf
00000320: 79b1 123e 6f80 22bd cd90 92bf ab6a afbe
00000330: adb5 803e 1199 42bf 97a5 053f 9f97 e5bd
00000340: ca1f 73be 6edf ebbc 8c33 c03e 7bae c13e
00000350: 4aaa ea3e be24 82be c65e 433e a74b 0a3e
00000360: e3bb 23bf d1e1 27bf 18eb 0d3f 87ce 59be
00000370: a0e1 1e3d 0192 83bf e6c6 9bbe 1d0d 3c3e
00000380: 286b a7bd 8129 41bc 3211 12be 6979 a5bc
00000390: 2561 e83b cdef e7bd 2235 a7bd d558 fabd
000003a0: b285 afbd 8213 c33d 0bfe e93c 733d 1cbd
000003b0: deb5 883c adf9 1fbd b43d a03c cf1d f63c
000003c0: 0153 49bc c0d8 e1bc a0f6 a6bb 882b f83e
000003d0: 32b9 17be 75e7 ef3e 9432 36bf 3c96 19be
000003e0: d87f 0dbf 3d70 d13e 8d9f 563f 21f4 ffbe
000003f0: 8993 3cbf 6452 b2bd cf2b c53e 2cc2 0ebe
-0.3060913 0.4268946 -0.21865256 0.023236724 -0.29189363 -0.06325075 0.26592317 -0.24562998
-0.1468564 -0.8288435 -0.24015394 0.39017913 -0.3308662 -0.6919824 0.35701606 -1.4383148
0.15774366 -0.010064796 0.30947262 -0.17876127 0.14355901 0.056338985 -0.6028993 0.20338903
-0.6871172 -0.30199644 0.18557951 -0.3124465 -0.17101835 -0.081265785 0.27598166 -0.3507256
0.2647045 0.5005879 -0.31805164 -0.081886224 0.091410674 -1.0169411 0.04657849 -0.6900501
-0.5353793 0.23723496 -0.06739552 0.22543156 -0.4915436 0.15554649 0.17235027 -0.17183232
0.09789181 -0.45779154 -0.37191498 -0.56948274 -1.0581379 -0.07669906 -0.030440692 -0.11261254
0.18221 -0.012940034 -0.00954423 0.58634394 -0.40090114 -0.002112871 -0.11111869 -0.16766863
-0.36597127 0.36511028 -0.98417765 -0.3054082 0.3761467 -0.97818434 -0.14981088 0.54254764
-1.1230028 -0.43743488 0.113718845 0.08755521 -1.1666019 0.068817265 -1.0567671 -1.3523034
0.49533224 0.010928824 -0.33661038 -0.092353545 -0.03214659 0.10811403 -0.45416614 0.18903893
-0.571753 -0.48468393 -0.38943925 0.20060073 -0.39593267 -0.76853764 -0.3716453 0.32452938
-0.072127365 0.1207346 0.7998775 -0.50739914 -0.06743394 0.36738175 -0.019314274 -0.68107116
-0.24249128 -0.5936325 0.14226833 -0.05635438 0.07543456 -0.12911357 -0.24681781 0.0024336774
-0.0039963746 -0.103983685 -0.15593436 -0.10152461 -0.3748809 -0.54758793 -0.17704624 -0.23884588
-0.8647816 0.36062142 0.5975899 -0.41548717 -0.66327435 0.27258486 -0.11254493 0.18714806
-0.29484886 0.36689597 -0.26509005 -0.10087717 -0.6648049 0.012769088 0.082618736 0.029185962
0.020180063 -0.007410967 0.020365259 0.014383307 -0.01729796 -0.0035353214 -0.028993927 -0.0055269087
-0.39551437 0.7484838 0.5884901 -0.14070338 0.049561508 -0.74219036 -0.022139678 -0.48138142
0.050070666 -0.9768942 0.07133101 -0.11685793 -0.31960878 -0.35781306 -0.3502505 -0.14258835
-0.17298312 0.18482219 0.13224985 0.0710748 0.019335391 -0.7535431 0.32152328 -0.4507344
-0.56287324 -0.70361483 -0.71790856 -0.53530943 0.27746826 -0.024028033 -0.3815628 -0.78656536
-0.049797535 -0.19722706 -0.71619457 -0.55766 -0.21137641 -0.3222077 0.06388618 -0.36765382
-0.15227008 0.14289196 -0.19350584 -0.43516397 0.337982 -0.7286729 0.10547374 1.042148
-0.3456904 -0.6051991 -0.26243302 -0.43299556 -0.43596095 0.46173185 -0.27623045 -0.51260656
0.14325513 -0.039673265 -1.145044 -0.3426107 0.25138608 -0.7601481 0.52205795 -0.1121056
-0.23742595 -0.028793063 0.37539327 0.3782843 0.45833045 -0.25418657 0.19079122 0.13505422
-0.6395857 -0.65578943 0.5543685 -0.2127019 0.03878939 -1.0278932 -0.30425185 0.18364377
-0.08174735 -0.01178968 -0.14264372 -0.020199494 0.0070916587 -0.11325035 -0.08164431 -0.122239746
-0.08570422 0.09525205 0.02856352 -0.03814454 0.016688284 -0.03905647 0.019560672 0.03004351
-0.012287856 -0.027569175 -0.005095318 0.48470712 -0.1481674 0.46856275 -0.71170926 -0.14998716
-0.552732 0.40905944 0.83837205 -0.49990943 -0.7366262 -0.08707121 0.38509986 -0.13941258

network.4.bias f4 [64]
00000000: 5516 47be 53f7 98be b0b7 ddbe 6b96 b5be
00000010: 7a87 7fbe 6ecb 02bf 8185 28be 3ef2 c6be
00000020: 2757 34bf 6564 0cbf 7e1f aabe d227 b2bd
00000030: c901 10be f2c2 5ebe 6cc5 21bf 9770 08bf
00000040: 0c48 28bf fb26 a8be bc87 95bf 608b e0bd
00000050: 26fb a6be 290c 68bf 13eb 0fbf 92ee d4be
00000060: 7d69 3dbf 9c32 6abf 388d b0be 8d71 08bf
00000070: 6405 9fbe e1c1 f5be df41 24bf cd29 82bf
00000080: 4028 33bf 8d25 f3be c166 fdbd be79 42bf
00000090: c061 6fbf a62f 44bf 06bb 8ebf 8ec1 bcbd
000000a0: 860a 1fbf dbc0 21be 8382 babe 4496 b8bb
000000b0: d02e 0dbf 8403 39bf 9b99 c4bd 786e 6abf
000000c0: 03df 1fbf d095 313e 8bda 1dbf f1b1 fb3c
000000d0: cad0 ecbe f191 15bf 9b93 ffbe 6bab c1be
000000e0: cef6 b6be 489d 1dbf aece 88be bcd3 93be
000000f0: 935e 08bf 6b0b b9be 50fd 02bf 0af3 98be
-0.19442113 -0.29876193 -0.43304205 -0.35466322 -0.24954024 -0.5109166 -0.16457178 -0.3885669
-0.70445484 -0.5484069 -0.33227152 -0.08699001 -0.14063181 -0.21754053 -0.63191867 -0.532968
-0.65734935 -0.3284224 -1.1682048 -0.10964084 -0.32613486 -0.90643555 -0.5621807 -0.41588265
-0.7398909 -0.91483474 -0.3448274 -0.53298265 -0.310588 -0.4799948 -0.6416301 -1.0169007
-0.6998329 -0.47489586 -0.123731144 -0.75967014 -0.9350853 -0.76635206 -1.1150825 -0.09216605
-0.6212543 -0.15796225 -0.36427698 -0.0056331474 -0.55149555 -0.7227099 -0.095996104 -0.9157481
-0.62449664 0.17342305 -0.61661595 0.030724498 -0.46253043 -0.58425814 -0.49917302 -0.37826094
-0.35735172 -0.6156812 -0.26720184 -0.28872478 -0.5326931 -0.36141524 -0.51167774 -0.29872924

actor.weight f4 [5, 3136]
00000000: 1c45 653f 68f7 0f3f ae9e 633f f47d 473f
00000010: 8c55 8f3f b2a3 563f aa13 d93c 6000 433f
00000020: a43b 333e c2fd ad3e 97f8 823e 82c1 663f
00000030: 7709 4f3f 1530 063f b6b6 a93f 260e 503f
00000040: 3b9e 033f 7072 433e b249 413f a5e6 6a3f
00000050: e7e2 023f 38df 1b3f abe3 df3e 6d83 6c3f
00000060: 76d4 893e 2c20 473f 9417 9d3e 32a4 a3be
00000070: 4de8 253e bda0 103f 6107 eb3e 65a8 ed3e
00000080: dab6 0c3f ba0c 363f ab22 5b3f adea 173f
00000090: 0854 f93e 35c3 0a3f 8acf cc3e b7b8 653f
000000a0: 24e5 543f 6a55 af3e 2f72 443e 7db1 c33e
000000b0: 1db9 f83e 3c63 ec3e b9e1 183f 47b4 1a3e
000000c0: 6401 683e 5a79 c83e 9fc3 243f 2d95 953f
000000d0: aeb2 4c3f d665 463f b58b 823f b2a3 383e
000000e0: 1868 aa3e 7974 903f b44e 0c3f c07a 103f
000000f0: 58d5 353f 1d18 5a3f 40d7 0b3f e166 6a3f
00000100: 8248 133f 605d 493f 034a 953e 18d6 313e
00000110: 547c e7bd fe46 ce3e e601 653e e8e6 ba3f
00000120: 0438 1e3f aa53 6c3f 94df 453f 2c5c 943e
00000130: 35d3 763c 6d5f 453e d849 673f 87cf bb3e
00000140: 9cfa 983f a7a0 483f 309c 5e3e 39dd 003f
00000150: 79b5 f93e ac76 b43e 30ab fc3e 7564 cc3e
00000160: 6ee9 123e 2ee3 9abe 9e23 473d 8dec 193f
00000170: dc59 7a3d d4e2 4b3d 5244 683e 062c 9d3d
00000180: 90dc aa3e 50ed 083f d501 58bd 4ba9 0c3f
00000190: 3a7c e63e 95b5 9e3e 6369 053f 3258 20bf
000001a0: 7744 263f 90d0 353f ab57 c43e 69bf 023f
000001b0: 36f8 0e3f 10fb 1e3f 5bba 2a3e 5b6d a93e
000001c0: b43a 653f bc30 cc3e 6901 fd3e ce28 0d3f
000001d0: 1136 163f 9844 5b3f c927 bc3e b115 4e3f
000001e0: 489c 7a3e e2fd 133f 02b1 4f3f 7206 1fbe
000001f0: 31f9 103d 527c 9e3e 70c0 173f 4fac c63e
00000200: 6662 3c3f 3fcb 2e3f 9ce1 f43e dd25 a73e
00000210: 9aa9 0b3f 3217 933e 7fd1 df3e 6906 1e3f
00000220: de8c 363e 6fa2 a93e d1cc c63e 16eb 403f
00000230: cad7 503f 9911 b93e 4118 433f 0055 493c
00000240: 3beb 063f 5ab1 593f 1511 963e 4709 603f
00000250: 3621 523f 9ae6 073f 5780 a83f 51ba 703f
00000260: e65b 523f 8d90 fcbd b5d3 733f 79a8 7a3f
00000270: d545 843f 99cc 4d3e 0109 153e 9d88 403f
00000280: 894b ab3e 2e53 db3e e58b 8e3f 31da 363e
00000290: 4c33 cc3e 1eeb d93d 852e df3e 5a5f 173e
000002a0: d59f 403f b778 783e 9e7c 373f d936 283f
000002b0: 17ae 0c3f aa77 e83d 8d11 0d3f 7aef 8d3f
000002c0: ac52 063f 61d3 353e 76c9 293f 3e56 093f
000002d0: 2509 f93e 3725 573e 73ab 173f 708e 1e3f
000002e0: 982d 063e a3e2 1b3f ae72 193f cf14 ab3e
000002f0: 32f0 5c3e 90a5 3b3e 9c61 883f a42b b03f
00000300: 096b 023f ac69 613e 5048 693e 2c43 873f
00000310: 043a 1f3f 2a47 b03e 88ca 333f fb1e d23e
00000320: c54c 5d3e 0c8f 863f bfb0 a03d b833 a93e
00000330: 9172 873f 7dd0 7a3f a2d4 863f 5b86 803d
00000340: 5ae8 2abe fbea 6abe 4c3d 833e 24e8 163f
00000350: fd39 4a3f 5578 133f fbd6 233f 79f5 df3e
00000360: 6134 013f eb7a 1f3f e1f6 4e3f d2fb 0f3f
00000370: 7d82 193f 687f e33e e4e4 443f 88d6 923e
00000380: 236f e73e 7946 243f b41a 4d3f 6245 443f
00000390: e52e 4d3f c5ac 083f c12c f43d 4afd a53e
000003a0: 1938 f03e 39e9 3d3f c8dd 083f 072f 243f
000003b0: 134e 503f 3341 ba3e a92e 653f c72e 5e3f
000003c0: 53d7 633f 65f6 203f beb1 8a3e e0b2 6e3f
000003d0: e166 b93e 874f 0cbe 9875 ee3e bd3b 6c3e
000003e0: ad9b 603e 26aa 33bd d9e9 b53d 1264 ab3d
000003f0: 3f36 e83d 3c4f 433f bacb ee3e 48e7 413f
0.8955858 0.56236887 0.88914 0.77926564 1.1197982 0.8384353 0.026498634 0.7617245
0.1750322 0.33982664 0.25580284 0.9013902 0.8087382 0.5241712 1.3258884 0.8127159
0.51413316 0.19086623 0.75503075 0.91758186 0.51127476 0.6088748 0.43728384 0.9238804
0.26919907 0.77783465 0.3068205 -0.3196121 0.16201897 0.5649527 0.45904067 0.46417537
0.5496651 0.7111317 0.85599774 0.5934246 0.48696923 0.5420411 0.4000209 0.8973498
0.8316214 0.34244853 0.19184183 0.3822135 0.4857873 0.4616946 0.59719425 0.15107833
0.2265678 0.39155084 0.64360994 1.168615 0.79960144 0.7749914 1.0198885 0.18031195
0.33282542 1.1285545 0.5480759 0.564373 0.7102866 0.85193044 0.5462532 0.9156323
0.57532513 0.78658104 0.2915803 0.17366827 -0.113030106 0.40288538 0.22364005 1.4601717
0.61804223 0.9231516 0.7729428 0.28976572 0.015065004 0.19274683 0.9034705 0.36681768
1.195148 0.78370136 0.21739268 0.5033756 0.48771265 0.3524679 0.49349356 0.39920393
0.14346859 -0.3025145 0.04861795 0.6012657 0.061120853 0.049776867 0.22682312 0.076744124
0.333714 0.5348711 -0.052736122 0.5494582 0.45016652 0.3099791 0.5211393 -0.62634575
0.6494822 0.71021366 0.38348135 0.5107332 0.5584749 0.6210184 0.16672651 0.33091244
0.895427 0.3988093 0.49415138 0.5514039 0.5867625 0.8565154 0.36749104 0.8050185
0.24473679 0.5780927 0.8112947 -0.15529802 0.035393897 0.30954224 0.5927801 0.38803336
0.73587644 0.6827888 0.47828376 0.32646075 0.54555666 0.28728634 0.4371452 0.6172853
0.17827174 0.3313174 0.38828138 0.7535871 0.8157927 0.36146238 0.76208884 0.012288332
0.52702683 0.8503624 0.29309908 0.87514156 0.82081926 0.53086245 1.3164166 0.94034296
0.82171476 -0.123322584 0.95244914 0.9791332 1.0333811 0.20097579 0.14554216 0.75208455
0.33456066 0.428369 1.1136442 0.17856671 0.39882886 0.10640548 0.4359018 0.14782467
0.75243884 0.24264799 0.71674526 0.6570869 0.5495314 0.11350949 0.55104905 1.1088707
0.524699 0.17756416 0.6632303 0.5364722 0.4863979 0.2101029 0.59245986 0.6193609
0.1310333 0.60892695 0.5994061 0.33414313 0.21576002 0.18324876 1.0654788 1.3763318
0.5094457 0.22012967 0.22781491 1.0567374 0.621979 0.34429294 0.70230913 0.4103926
0.21611317 1.0512404 0.07846212 0.3304727 1.0581838 0.9797438 1.053364 0.06275626
-0.16690198 -0.229412 0.25632703 0.5894797 0.78994733 0.5760549 0.6399991 0.43741968
0.5047055 0.6229693 0.8084546 0.5624362 0.59964734 0.4443314 0.7691176 0.286793
0.45201978 0.6417003 0.8011887 0.7666837 0.8014968 0.53388625 0.11922599 0.32419807
0.469178 0.74183995 0.5346341 0.6413426 0.8136913 0.36377868 0.8952432 0.86790127
0.89000434 0.6287597 0.27088732 0.9324169 0.36211303 -0.13702212 0.46574092 0.23069663
0.21934386 -0.043863438 0.088824935 0.08368696 0.113384716 0.7629278 0.46639806 0.7574353

actor.bias f4 [5]
00000000: 265f a53d 5c17 263e 7bc5 c13e 14fd f93d
00000010: a528 013d
0.08074789 0.16219848 0.37845978 0.12206474 0.031532902

critic.weight f4 [1, 3136]
00000000: d02e 58bf 98e7 12bf bda4 a23d 58ce 0a3f
00000010: 6ed2 c03e d035 4a3e 5b16 69be f43d 24be
00000020: 676c 903e 5782 f03d 729d 44bb 29a3 fc3d
00000030: 02a6 173e 0756 47bd 7210 2d3c 6e60 223e
00000040: fe86 363e 26b3 873d b518 743d 7e10 853e
00000050: 9db3 573e 3364 0a3e a427 a5be 19c9 22bf
00000060: b8fb bebe 24bf d4be 1a3d a53e f22a 543e
00000070: e642 5abe dc29 c2be 6d5f 123e ea69 9f3d
00000080: e16d 183e 42ab e53d ce29 e4bd 23be ac3e
00000090: 92ba a23e 99ea 8b3e d16c 77ba 0b87 523e
000000a0: ddcf a73e 77e3 733e 16d8 8ebe df24 2abe
000000b0: f5a3 023e 134e 0d3e da69 9ebe 4cd6 f33e
000000c0: adca 4f3d 50c2 ddbe 03be b3bd 0747 65bf
000000d0: 9a54 03bd 513d 85bd fd39 7bbe 929d 76be
000000e0: 59b6 743e 8b79 11be 34b9 04bf 7179 403d
000000f0: 220c 1d3e a9ea a93e f745 a2be a9ce 97be
00000100: 3174 0d3e c988 ae3e 41e9 183f e5fa 0e3f
00000110: 16ff ac3e 2901 863e 3c82 a83e 3af8 08bf
00000120: 5f73 a63c 6dc0 16bf 40a4 8cbc 02d6 a83d
00000130: e45e 873d e585 80be 6d78 abbe 7678 cfbe
00000140: 6888 d0be 8465 80bc 628f 18bc ee6a d2be
00000150: d8d9 2a3f 80ff 123f b63b d3ba 38ab 903d
00000160: bacf 8a3e 11f2 06bb c4b8 083e 0cc7 053e
00000170: 2825 393f a411 c83d 9de1 043f 5bbf 913e
00000180: 7c00 723e c3b3 d5bd 9413 9c3e 8392 203e
00000190: c5e3 443d cb39 1b3d 9ed8 3f3e 4cb2 fa3d
000001a0: c59b 2f3e 5bdf 293d a896 bc3d 0b1d eb3a
000001b0: 8f7a 533d a9b6 7bbd acf6 c23d df67 0ebe
000001c0: 2d60 66bd 34cd 1b3e 7640 fd3d 50fc 4c3c
000001d0: fa94 abbd 6dcc 753e 2c44 82be 1649 5cbe
000001e0: 76dc 91bd d7d7 4dbd 1921 e7bd e997 d33d
000001f0: 4201 8c3c 2c9a 303e 8fe8 c73d a2ca aabc
00000200: 3e23 e9bd b50c 8e3d 1aae 703d 93bf e13d
00000210: 6a5f af3e 7a1c e6bd bd3a 103e bae8 cc3c
00000220: 8a0c eb3d 6590 9e3e bea2 30be 57fe 0fbf
00000230: dab9 473e 8dea b1be d0d8 15be 8861 87be
00000240: 66f4 fc3c 8225 6e3e a2fb bc3d 152b f1be
00000250: fb41 1abf f9b0 37bf cf7c 93bf 38fc 84bf
00000260: 6529 1f3f 73db 9e3d 8c2c dd3e 1790 063e
00000270: b7d1 2b3f 38f0 623d d054 c5bd 69be 68bc
00000280: 3a1b c33d e9a7 8e3e 6f31 193f bf87 b73e
00000290: 9b04 9a3e 2b90 593c c7ad 07bd 7a48 80bc
000002a0: 2405 59be 4af1 413f 4c27 b33e 0334 cbbd
000002b0: 0449 99be 4e7d f83e 4441 5a3f 0a21 7abf
000002c0: 11ac d4bc 24cc f43d d56f e3bd ecf2 98be
000002d0: 4396 4bbf 6c54 9d3c 08e7 7b3c 468b 81be
000002e0: 8de9 573e ac7b 67bd deed b3be 7a91 ca3e
000002f0: 7416 1bbe 40f3 b33e d2ec 0d3f fc68 313f
00000300: a906 043e 062f c93e ef94 41bd 6895 29be
00000310: df8f a43e 2c7e 06be 876e d63e 7aa2 153e
00000320: 11f2 63bd d76a 50be 123e 583e 66e2 de3d
00000330: 2ccd 043e 15ac aa3e d892 713e 9d0e 0e3f
00000340: da94 5b3e ecbc 183e 5e5b d73c ed66 43bd
00000350: 17ef ef3d 5bba a83d e659 dd3e 755e d63e
00000360: 92f8 a33e bc24 593e 9ff5 c33e 7fe6 02be
00000370: 81b8 bbbb 83b5 923c 8857 2c3e 986a e0bd
00000380: 3f2c 173e cec8 bd3d d255 adbd 9920 1ebd
00000390: f859 8abd 0919 34bd 2c3d a83e 559f 9bbe
000003a0: 13a7 60bd b242 a63d 038e b53d b465 c2be
000003b0: ca30 8cbe 6e2d 5ebe 87c7 0b3f 8a65 2e3f
000003c0: 39af 483e e784 b83d 5b24 ddbe 7de9 ba3e
000003d0: 9249 f23e 1fc1 e33c eb89 b43e 2b77 d1bd
000003e0: 75bc 91bd b696 4fbe 1fda 363e 5a1f 10be
000003f0: 9b2d 00be 3453 14bd 2acb a73e 3eba 823c
-0.8444643 -0.57384634 0.079415776 0.54221106 0.37660545 0.1974709 -0.22762434 -0.16039258
0.28207704 0.1174361 -0.0030001071 0.12335808 0.1480942 -0.048666026 0.010563003 0.15857098
0.17824933 0.06625967 0.059593875 0.25989145 0.21064611 0.13514785 -0.32256806 -0.635881
-0.3730142 -0.4155208 0.3227318 0.20719507 -0.21314582 -0.3792256 0.14294215 0.077838734
0.14885665 0.112143055 -0.11140786 0.33738813 0.31782967 0.2732742 -0.0009438517 0.20559327
0.32775775 0.2381724 -0.27899235 -0.16615628 0.12757857 0.13799314 -0.30940133 0.47624433
0.050730396 -0.4331231 -0.08776476 -0.89561504 -0.032063104 -0.06505836 -0.2453384 -0.24083546
0.23897685 -0.14206521 -0.518451 0.046990816 0.1533666 0.33186844 -0.31694004 -0.29649857
0.13813855 0.34088734 0.5973092 0.55851585 0.33788365 0.2617276 0.3291186 -0.53503764
0.020318685 -0.5888737 -0.017168164 0.08243944 0.06609896 -0.25102153 -0.33490315 -0.40521592
-0.4072907 -0.015673406 -0.009311529 -0.41097206 0.66738653 0.5742111 -0.0016115818 0.070639074
0.27111608 -0.002059106 0.13351732 0.13064212 0.7232232 0.0976899 0.5190676 0.28466305
0.23632997 -0.104346775 0.30483687 0.1568089 0.04806878 0.037896913 0.18734977 0.12241039
0.17149265 0.041472774 0.09208423 0.0017937733 0.051630553 -0.061453495 0.09519705 -0.13906811
-0.056244064 0.15214998 0.123658106 0.012511328 -0.083780244 0.24003763 -0.25442636 -0.21512255
-0.07122128 -0.05025467 -0.1128561 0.10331709 0.017090444 0.17246312 0.09761154 -0.020848576
-0.11383675 0.069360174 0.058759786 0.11022868 0.34252483 -0.112359 0.14084907 0.025013316
0.11477001 0.3096954 -0.17249581 -0.56247467 0.1950449 -0.3474926 -0.14633489 -0.26441598
0.030878257 0.23256496 0.09227683 -0.4710318 -0.6025693 -0.71754414 -1.1522464 -1.0389471
0.6217254 0.077567 0.4319805 0.13140903 0.67116874 0.05540487 -0.09635317 -0.014205554
0.095266774 0.2786248 0.59841055 0.35845754 0.3008164 0.013279001 -0.03312471 -0.01565956
-0.21193367 0.757588 0.3499092 -0.0992203 -0.2993852 0.485331 0.8525584 -0.97706664
-0.025960954 0.11952999 -0.11105315 -0.29872835 -0.79526156 0.019205295 0.015374906 -0.2530157
0.21085186 -0.056514427 -0.35142416 0.39564115 -0.15145284 0.35146523 0.55439484 0.6930082
0.12893166 0.3929369 -0.047261175 -0.165609 0.32141015 -0.13134068 0.418812 0.14612761
-0.055650774 -0.20353256 0.21117428 0.10883026 0.12968892 0.33334413 0.23591173 0.5549105
0.21443501 0.14915818 0.026288684 -0.04770558 0.11715525 0.082386695 0.4323265 0.4186894
0.32025582 0.2120542 0.38273332 -0.1278324 -0.0057287817 0.017908817 0.16830266 -0.10957831
0.14762972 0.09266816 -0.084636346 -0.038605306 -0.067554414 -0.043969188 0.3285917 -0.30394998
-0.054846834 0.0811819 0.08864977 -0.37968218 -0.27380973 -0.21697018 0.5460133 0.68123686
0.19598092 0.09009724 -0.431918 0.36506262 0.47321755 0.027802048 0.35261473 -0.102278076
-0.071160235 -0.20272335 0.17856644 -0.1407446 -0.12517397 -0.03621216 0.3277219 0.015957948
