PARALLEL/models/PRED_GROUP_POLICY_BOTH_8900.ckpt (torch, 307152 bytes, 9 tensors)

network.0.weight f4 [32, 5, 3, 3]
00000000: 87a8 d3be feb2 a0be 964b 6cbe cee2 bebd
00000010: 02ba 00be 58bb e3be 3ff3 a0be a6c9 a0be
00000020: b0e7 e5be 0226 683e 96b7 f7be e9dc 0fbf
00000030: e1d4 bebb b90e 313e a701 d2be 2474 ebbd
00000040: cea5 cfbe 5d8c 03bf ec1e 0cbe 9ada d1be
00000050: 94c8 543d fc31 363d a12b 3e3e ce5e f23d
00000060: e45c 1d3f 12d4 eebe 52e3 de3d ef15 963e
00000070: c1ee 68bf e02b b6be bba7 0ebf 0fc6 32bf
00000080: 2122 b43e 85b8 dd3e ffea e7be 6cc2 15bf
00000090: 24e4 30bf 3264 5a3e e8ec 773d dff4 48be
000000a0: ab6e 28bd 2a73 e9be 79c0 b03e 9795 c4be
000000b0: 03ea a43e 5e9f 4abe 4890 7dbe 8cd3 06be
000000c0: f16c 58be eaab 94be 371e b2be e29d 83be
000000d0: 1e26 edbe 0871 c7be ec69 2ebd a680 c7bc
000000e0: 54ef 51be 5c0e 35bd 2203 08bf 9472 36bf
000000f0: 3433 64be 1cba 10bf e750 f1be d4c5 a3be
00000100: 8549 2a3d 1697 88bd 8745 0e3d 5850 8b3e
00000110: 81f6 aabe b43c f0bd 3375 be3d 0d44 e93d
00000120: 45fd 173e f5d3 edbc 9d52 dcbe 2957 4dbe
00000130: 9edf 513e 9b00 b7be 52da 96be 4405 a0be
00000140: 6b9a 82be cbc6 f1be 84b0 bd3d d1a5 f6bd
00000150: 148a c4bd 8eae 1ebf 3fec c3be 9cdd ddbd
00000160: 9e57 f6bd f8c8 ebbd c86f 80be ab1f 3fbe
00000170: 8cfb 15be ae46 d1be ab13 edbe 4888 1abe
00000180: 6320 d9bc d6b5 87bd 4f30 043e 340a 36be
00000190: c863 aabe 2f4f 793e a6c5 f0be 7b5b eb3e
000001a0: 9a9e f03e 72d9 ae3d 2931 a33e d315 453f
000001b0: 9e91 893e 24b0 9f3e 410d cebd 6fc6 a9be
000001c0: b01f 173d 6cac 7a3c 2a86 aa3e 240b a2be
000001d0: c669 4fbf 6ea3 a73e 20c8 bdbe 3f6f 72bf
000001e0: de3a 813e dec2 40bf b15d c83e af25 81bf
000001f0: 739d 043e 2584 88bf e0f7 8c3e d7b6 ce3e
00000200: 0d00 c33e 9f1b 8abd 7f8e 933e a5c5 ef3d
00000210: b9f7 373e 839e f2be 16ca d2bd 8993 0d3e
00000220: 5e50 253e d30d 583e 3163 b8bd 9fe2 7ebd
00000230: 3cbf 82bd 091f 92bc f7c3 a03d 6c92 21bd
00000240: 99d2 463f b79e 14be d9a8 d6be 6dd5 143f
00000250: cc14 e03e 1327 373f bc71 663e 75eb 5a3f
00000260: db2a 6d3f 1a66 443d a708 563e ac20 d93c
00000270: bfd5 1c3d 8733 213e dae2 4a3d 820c c7bc
00000280: d47a bf3d e7ac 69bd 4bdf 95be 1ee4 a7bf
00000290: c905 48bf aa06 23bf 9276 64bf a45e 83bf
000002a0: c416 10bf e213 67bf 1ba0 95bf c1cd 5dbd
000002b0: 58d2 a7bd 9435 74bd a398 09be d48f 963d
000002c0: c6f7 583d f848 c13e dab0 313c 7170 653d
000002d0: 1582 d8be 74ae 83bd e48c e0be 16ca 203e
000002e0: 1c02 083e 9481 17bf 6d74 8ebe b1b5 06be
000002f0: 435c 06be 0213 60bf 3301 46bf 4219 0d3d
00000300: ee84 05be 49eb 56bf e1e4 d53e e5d8 b9be
00000310: 08b3 00bf 4a6a c5be 6df4 973e 038c 0c3f
00000320: ce47 67bf a4f1 c1be c314 23bf f8da 79be
00000330: 9b5b 30be 02d7 53be 0ed3 7cbe 198e 063f
00000340: 770d 86bd 02e2 60be f107 303e b765 6dbf
00000350: 050c f0bd daa6 103e f12a 35bf cffd 5cbf
00000360: c3de b13d deb1 07be d2c4 fe3e a8b7 dbbe
00000370: 334c 593e 6782 8b3e 86c6 6abe b0db ee3d
00000380: 5903 9bbe a40b 49bd 50be 15be c13c bdbe
00000390: b1eb 86be 8f73 cabc e064 c1be eacd e4bd
000003a0: 2a28 d7be ef69 563e 6c14 aa3e 9ffe 8bbe
000003b0: b062 82bf 74ab bebe ca6d 9bbe 7620 0e3f
000003c0: dc85 f33e 5e34 323f efc5 87bf 2fb7 2f3e
000003d0: b439 e83d 3ce9 d43e ddf5 863e a9bf 3bbe
000003e0: ed56 21be e5aa 033f 4827 0b3e 621d f0bd
000003f0: 2a0a 213f 42bf 00bf 41b4 3dbf 43df a33e
-0.41339514 -0.3138656 -0.23075709 -0.09320603 -0.12570956 -0.4447887 -0.31435582 -0.31403846
-0.44903326 0.22670749 -0.48382252 -0.5619646 -0.005823717 0.17290772 -0.41016886 -0.114967614
-0.40556186 -0.5138605 -0.13683671 -0.40987092 0.0519491 0.044481263 0.1857133 0.11834489
0.61469865 -0.46646172 0.10883202 0.2931361 -0.9098931 -0.3558035 -0.55724686 -0.69833463
0.35182288 0.4330484 -0.45296475 -0.5849979 -0.69098115 0.21327284 0.060528666 -0.19624661
-0.041121166 -0.45595676 0.34521845 -0.38395378 0.32209787 -0.19787356 -0.2476207 -0.13166636
-0.21135308 -0.2903741 -0.34788677 -0.25706393 -0.46318144 -0.38953424 -0.042581484 -0.024353337
-0.20501453 -0.044203147 -0.5312978 -0.7126858 -0.22285157 -0.5653398 -0.47132036 -0.31986868
0.04157402 -0.06669442 0.034734275 0.27209735 -0.33391193 -0.11730328 0.09299698 0.11389933
0.14842708 -0.029031733 -0.4303178 -0.2005278 0.2049546 -0.3574265 -0.2946344 -0.31254017
-0.25508437 -0.4722198 0.09262183 -0.12043346 -0.09596649 -0.619851 -0.3826618 -0.10833284
-0.120284304 -0.11512941 -0.25085282 -0.18664424 -0.14646739 -0.40874237 -0.46304068 -0.1509105
-0.026504701 -0.06626479 0.12909053 -0.1777733 -0.33279252 0.24346612 -0.47025794 0.45968232
0.46996003 0.08537568 0.31873444 0.76986426 0.2686891 0.31189072 -0.10061122 -0.33159205
0.036895454 0.015299898 0.33305484 -0.31649125 -0.8102077 0.32741874 -0.37066746 -0.94701
0.25240225 -0.75297344 0.3913398 -1.0089625 0.12950687 -1.0665327 0.27532864 0.4037387
0.38085976 -0.067435496 0.28819653 0.117076196 0.17965592 -0.4738656 -0.10292451 0.13825811
0.16143939 0.21099024 -0.09003294 -0.06222784 -0.06384131 -0.017837064 0.07849877 -0.03944628
0.77665097 -0.1451367 -0.41925696 0.5813816 0.43765867 0.71544 0.22504324 0.8551553
0.9264352 0.047948934 0.20901738 0.026504837 0.03828978 0.15742312 0.04953275 -0.024297956
0.093495995 -0.05704966 -0.29271922 -1.3116491 -0.7813383 -0.63682044 -0.89243424 -1.0263257
-0.5628474 -0.90264714 -1.1689485 -0.0541513 -0.08194417 -0.05962141 -0.13437133 0.07351652
0.05297067 0.37750983 0.010845387 0.056015436 -0.42286745 -0.06429759 -0.4385749 0.1570209
0.13282055 -0.59182096 -0.278232 -0.13155247 -0.13121133 -0.87529004 -0.7734558 0.034447916
-0.1303899 -0.83952767 0.41776183 -0.3629829 -0.5027318 -0.38557655 0.2967867 0.5490114
-0.9034394 -0.3787967 -0.63703555 -0.24399936 -0.17222445 -0.20687488 -0.24689886 0.52560574
-0.06545537 -0.21961215 0.1719053 -0.9273333 -0.117210425 0.14126149 -0.7076865 -0.8632478
0.086850666 -0.13251445 0.49759537 -0.42913556 0.21220474 0.27247927 -0.22927293 0.11662996
-0.30275992 -0.049083367 -0.1462338 -0.36960414 -0.26351693 -0.024713306 -0.37772274 -0.111720875
-0.4202283 0.20938848 0.33218706 -0.27342698 -1.0186367 -0.37240183 -0.303572 0.5551828
0.47563064 0.69611156 -1.060728 0.17159723 0.11339131 0.41584194 0.26359454 -0.18334831
-0.15755816 0.5143264 0.13589203 -0.11724354 0.62906134 -0.50291836 -0.7410317 0.32006273

network.0.bias f4 [32]
00000000: 9874 27bf e8b0 05bf aadc aebe a875 10be
00000010: 779a 2cbf e292 3fbf 4424 08be 33f5 d5be
00000020: 6238 06be 79ce 44bf e275 acbe f670 04bf
00000030: 526f 31bf c4c0 e6be 4616 45be 5584 3abf
00000040: 6079 30bf 995a 41bf befd 0abf c569 42bd
00000050: 5269 31bf 4d4c ebbe e48e 14bf d85e b9be
00000060: e58f 09bf 0d02 f5be 98cb cabe 0e5c e6be
00000070: 372f 37bf 500a 51bf 9f85 0fbf 70a8 9abe
-0.6541228 -0.5222306 -0.34152728 -0.14107382 -0.67423195 -0.748335 -0.13295084 -0.41788635
-0.13107446 -0.7687755 -0.33683687 -0.51734865 -0.69310486 -0.45068944 -0.19246778 -0.7285817
-0.68935204 -0.75528866 -0.5429343 -0.04746415 -0.6930133 -0.4595665 -0.58030534 -0.36205173
-0.5373519 -0.47853127 -0.39608455 -0.44992107 -0.7155642 -0.8165636 -0.56063265 -0.30206633

network.2.weight f4 [64, 32, 3, 3]
00000000: e90c fc3d 1a47 2cbf f61f 813f 3c6e e1be
00000010: bd36 b9be fa59 9abe fc68 8fbe 95f5 3dbe
00000020: 4f6e 633d 8813 17be dac4 0abe bf91 6dbe
00000030: c41a 4b3e 1f2b 6f3d c1d7 abbe 92ce 8d3e
00000040: 5b75 dcbd 68e9 a73d 3b2d 9abe 8e5e cbbe
00000050: 9168 9f3d a422 fabd 299d 5c3e 70a9 8abe
00000060: 302a 263e f59d ea3e e243 8abc f9c9 0cbf
00000070: d235 07be c142 e0be bc65 4dbd 2e0e cb3e
00000080: bc80 a3be 6d9b 52bf 3d23 8b3e 263c 9bbe
00000090: 5c41 df3e 7cef 48bc 7e5f d3be 7e55 bf3e
000000a0: 6688 9e3e 8e4c e63d 375d 57bf 999f 20bf
000000b0: 1e72 b0bc d662 433e bf76 bb3e d50c a5be
000000c0: 86a5 00bf b6a7 01bf 4816 153e c0fe 173f
000000d0: 3100 75bd 9970 8fbd 4e59 e9bd 2683 8cbe
000000e0: 1d57 b5bd 6eef 343e 1eda 39bf 9162 80be
000000f0: 2b88 6f3d 3f37 333e 7d7d 6ebe f107 c1bd
00000100: 7ea3 113f 459f 16bf 33f8 573e 7297 65bf
00000110: 8139 183d 88ad 66be 586c e3be acca 893e
00000120: 1050 0cbe d8db a4be 267b 7d3e 2465 55bf
00000130: d41d 2fbe 4a11 babc 5c05 0dbe 161e 093e
00000140: 69be 043f d413 d13c f58d 16bf 4ba6 31be
00000150: 2151 223e d38b 033f 98c3 7c3e 11b8 303f
00000160: 08a9 b8be f437 56bd 0aa1 11bd c615 cb3b
00000170: 647e 7ebb a9f0 22bb cfd5 2fbc 69b1 eebd
00000180: 1f2b c8bb d312 1d3d 5d04 9ebb 943c 0a3f
00000190: db36 fbbd ca55 edbd f980 78bd 691f 82be
000001a0: 5b55 233f 1823 47be 9887 b73e 4709 d73e
000001b0: c908 0fbf c725 bebe 6c4a 7b3e c08c f1be
000001c0: ca78 61be 8fa2 68bd f32d ac3e 6180 88be
000001d0: 02e0 44bd aefe 46bd 1f61 c03c cd70 e3bd
000001e0: ac18 bdbc 9650 10bd 0ffa 7fbd 7d1d fb3c
000001f0: 8cbe fdbd 274a ecbd b35a dcbc af19 7bbb
00000200: bc08 4f3c ce15 b13c e0b3 3dbd af59 22bb
00000210: 2a1e 2cbd 3749 50bd 6fe3 fbbc 22e1 d2bd
00000220: c8c1 c03d 69a0 23bd 0304 87bc 5d7f 2e3d
00000230: 308d 1cbe 5cc5 02be b853 163b 54e6 d3bd
00000240: 5fc8 c43e 06fb 7a3e b04e 8bbe b263 6abe
00000250: 3ace 193c 854f 37be b1e3 463f 6d16 1abe
00000260: ddf0 e6be 4e41 c2bd f06e ecbe 14c9 cd3e
00000270: 8bba cabe 1e72 76bf e34d 5ebf 9236 51bf
00000280: 2d72 4bbe 8343 183e 231b f83d 4238 193f
00000290: d354 d4be 05a8 d13c 0d7e 37be 6ac3 3d3f
000002a0: 71f5 aabc f871 713f 5d37 a93e bbaa dcbd
000002b0: 639e e3be a647 763e 783c 533e 7f70 ba3c
000002c0: 51a0 d73d 4207 82be b7f8 233d 6732 26bf
000002d0: d043 80bd a00f 46bf fe44 0dbf 0322 38be
000002e0: 6dba 913e 8a9a 7cbe afd2 efbc 731b 4e3e
000002f0: 2373 00bf d2b9 06bf b9a7 2abf 2bc4 0f3f
00000300: 4a7d 2ebf 5155 97be a5b6 acbf 181d 103f
00000310: 4eaa 6abd 3a0d 38bf 9ea3 85be 0475 18be
00000320: 38b4 cfbe ec6f 59bd 4364 3e3e 43d3 a2bb
00000330: 4a21 d4bd fe4a cf3d 2793 e93c c4b9 f5be
00000340: 0b8f 88bd 2f9d 4dbf fa8a 9fbe 622e c8be
00000350: 29a3 1a3d 9ab5 6ebf 4f94 3c3d 4d5b c9bd
00000360: c8d7 b1bd a059 16bd 4097 2abe 680f 083e
00000370: 4dd7 5ebe 15e0 56bd 1e37 12bd ba14 f3bd
00000380: e36c 87be f0d2 ccbe 41ea 693e b9d8 b3be
00000390: c23d 43be d937 9abe 1792 f6be 3eb8 f5bd
000003a0: 47f1 9bbe 421b 47be 8b22 6abd 240c 25bf
000003b0: f052 42bd d0c9 8b3e 8fc9 343c ae18 9cbe
000003c0: 5983 a13e 2e13 353f c8cf bbbe c7ac 3e3d
000003d0: c447 52bd 51e4 d1be b713 103f 78ec 46bc
000003e0: 39bd 573f aac2 363f eb84 c8be 962c 04bf
000003f0: 0cac 323e b970 d8be 1b16 683e cdaa 543e
0.1230715 -0.6729599 1.0087879 -0.44029415 -0.36174574 -0.30146772 -0.28009784 -0.18550713
0.05552512 -0.14753544 -0.13551655 -0.23200129 0.19834429 0.058390733 -0.33563045 0.27696663
-0.10764571 0.081988156 -0.30112633 -0.39720577 0.07783616 -0.122136384 0.21544327 -0.27082396
0.16227031 0.45823637 -0.016878072 -0.54995686 -0.13204125 -0.4380093 -0.05014585 0.39659256
-0.31934154 -0.8226841 0.27175322 -0.30319327 0.43604553 -0.012264129 -0.41283792 0.37369913
0.3096344 0.112450704 -0.8412661 -0.62743527 -0.02153879 0.19080672 0.36614034 -0.32236353
-0.5025257 -0.5064653 0.14559281 0.5937309 -0.059814636 -0.07003898 -0.11393987 -0.27443808
-0.08854506 0.1766946 -0.72598445 -0.250752 0.05847947 0.17501543 -0.23290057 -0.09425343
0.56890094 -0.58836776 0.21090774 -0.8968421 0.037164215 -0.22527134 -0.44418597 0.2691244
-0.13702416 -0.32198977 0.24754009 -0.83357453 -0.17101222 -0.022713322 -0.13771576 0.13390383
0.5185304 0.02552215 -0.5881036 -0.17348592 0.1585126 0.5138523 0.24683988 0.69030863
-0.3606646 -0.052299455 -0.03555397 0.006197664 -0.003883266 -0.0024862683 -0.010732128 -0.11654932
-0.006108656 0.03834803 -0.0048222975 0.53998685 -0.12266322 -0.115886286 -0.060669873 -0.2541459
0.6380212 -0.19446981 0.35845637 0.41999266 -0.5587278 -0.37138197 0.24540108 -0.47177696
-0.22018734 -0.056795653 0.33628806 -0.26660445 -0.048065193 -0.048582725 0.023483811 -0.111054994
-0.023083054 -0.035233103 -0.062494334 0.03065371 -0.123898596 -0.11537581 -0.026898718 -0.003831487
0.01263636 0.021616843 -0.04631412 -0.0024772694 -0.042020954 -0.050851073 -0.030748097 -0.10296847
0.09411961 -0.0399479 -0.016481405 0.04260193 -0.15288234 -0.12770599 0.0022938084 -0.10346666
0.3843412 0.2450982 -0.2720847 -0.22889593 0.009387547 -0.17901428 0.7769118 -0.15047617
-0.4510564 -0.09485112 -0.4617839 0.40192473 -0.39595446 -0.9626788 -0.86837596 -0.8172389
-0.19867773 0.14869504 0.12114551 0.5985147 -0.41470966 0.025592813 -0.17919178 0.74126303
-0.020868989 0.9431453 0.3305005 -0.10774752 -0.44456777 0.24050769 0.20628536 0.02275872
0.10528625 -0.25396162 0.040032115 -0.6492066 -0.06262934 -0.7736759 -0.551834 -0.17981724
0.28462544 -0.24668327 -0.029275266 0.20127659 -0.50175685 -0.5262729 -0.66662174 0.56158704
-0.68159926 -0.2955728 -1.3493239 0.56294394 -0.05729132 -0.7189518 -0.26101393 -0.14888388
-0.40567183 -0.053085253 0.18592934 -0.004969032 -0.10357912 0.101217255 0.02851255 -0.4799329
-0.06667908 -0.8031797 -0.31160718 -0.39097887 0.037753258 -0.9324585 0.046039876 -0.09831867
-0.08683735 -0.036706567 -0.1665926 0.13287127 -0.21761818 -0.052459795 -0.035697095 -0.11869188
-0.2645026 -0.40004683 0.22843267 -0.35126284 -0.19066527 -0.30120733 -0.48158333 -0.11998032
-0.30457518 -0.19443992 -0.05716185 -0.6447165 -0.047442377 0.27302408 0.011034383 -0.3048758
0.31545523 0.7073239 -0.36681962 0.046551492 -0.051337972 -0.40994504 0.5628008 -0.0121413395
0.84273106 0.71390784 -0.39163908 -0.5163053 0.17448443 -0.422735 0.22664683 0.2076828

network.2.bias f4 [64]
00000000: a0b1 99be 698e 67bf 37dd 5ebf aee9 3abf
00000010: 41e6 d5be 9871 0e3f 66d5 e4be ba67 68be
00000020: b6df 953c 2fbd 12bf 7e1e 01bf 97f2 08bf
00000030: dfab 35be d180 36bf 58dc 69be 9b79 ddbd
00000040: f488 07bf c4d3 4abe 3ac1 4b3e 7176 71bf
00000050: aac3 c3be c563 74be daaf 96be 14fe 16bc
00000060: 12aa 933e a820 29be 7000 0cbe 4888 80be
00000070: f0bb 26bf 0893 07bf 0e26 04be 5f03 9fbd
00000080: 7e3c 793e 02cc b2be afa2 26bf dd41 b6be
00000090: a0de c7bd b067 ebbe 4bd7 9abe 1c32 d4be
000000a0: 36cb b6be 93ba ebbd 6b2f 723c f78d 36be
000000b0: f6e1 09bf cb85 54bd 9d9b 01bf c727 953c
000000c0: 4d92 80be eb8f a7be 0473 c4be e7d9 8fbe
000000d0: 940e cebe 6efa 0abf 77a1 00be dbde c4be
000000e0: dc42 00bf 223c febd 7cde 9cbe 9c98 d6be
000000f0: 7953 67be db94 22be 3229 eebe 8c1f dfbe
-0.3001833 -0.90451676 -0.870563 -0.73012817 -0.41777232 0.5564208 -0.4469406 -0.22695819
0.01829515 -0.5731992 -0.5043715 -0.5349516 -0.17741345 -0.7129031 -0.2283796 -0.1081421
-0.5294335 -0.19807345 0.19897929 -0.9432135 -0.38235217 -0.23866184 -0.2943104 -0.00921585
0.2884069 -0.16516364 -0.13672042 -0.25103974 -0.6513052 -0.52958727 -0.12905142 -0.07764315
0.24339482 -0.3492127 -0.65091985 -0.35597125 -0.09759259 -0.45977545 -0.3024238 -0.4144448
-0.35701913 -0.115101956 0.014781813 -0.17827593 -0.53860414 -0.051885407 -0.5062807 0.018207444
-0.2511162 -0.32726988 -0.38369 -0.28095934 -0.40245497 -0.54288375 -0.12561594 -0.38451275
-0.5010202 -0.12413813 -0.30638492 -0.41913307 -0.22590436 -0.15877096 -0.46515805 -0.43578756

network.4.weight f4 [64, 64, 3, 3]
00000000: 34bd c0be 740f 913e 6b00 2cbe 428c a43d
00000010: 8f01 8dbe 9c2c bdbd 350d a93e 4e7d 61be
00000020: 19f2 6ebe 9eaf 40bf 8e1b 8bbe af2e bc3e
00000030: 33b2 87be 1bd7 2bbf 44c2 e83e 7c05 a0bf
00000040: 28fa 913e 8b7b 053c ac4e 863e a91d 41be
00000050: 874b f03d a11d 0e3e 03df 00bf 843d 733e
00000060: fef9 28bf e481 efbe 0a5d 4d3e 1a38 bbbe
00000070: f70c 30be 76b2 1cbc 06a4 7d3e b6bc 86be
00000080: 679e 943e 3a5d f03e cc79 9ebe f7b3 a7bd
00000090: e447 fc3c 539b 85bf de74 d9bc 6f4d 22bf
000000a0: d668 10bf 33cd 633e 3e1a 45be 0695 f53d
000000b0: dc6e c7be 292e 5c3e a052 743e 27b3 10be
000000c0: ccab f33d 9eb9 dcbe 1738 b5be 9ae0 09bf
000000d0: 5620 8bbf 7830 f3bc a897 89bd e80e eabd
000000e0: a83b 413e 8cec 40bd 2206 c53c 8a27 283f
000000f0: b044 acbe 07e2 85bd 2a01 97bd 4d58 1fbe
00000100: 9690 d0be e539 d33e 185e 6bbf 885b b0be
00000110: 00c2 b83e e612 6dbf 7b79 43be ce16 0c3f
00000120: 9cab 98bf 4207 ffbe 473a 063d 8df0 153e
00000130: 7cfe 8bbf ae4c 823d b86a 86bf ea2a abbf
00000140: f726 053f dad8 a73d cf54 5fbe f786 19be
00000150: 6e9b 0bbd 9b94 203e cef2 adbe dfe3 3b3e
00000160: 06d6 07bf d502 b4be 5bb1 b3be 9c05 293e
00000170: 379b f6be 2d11 45bf 7032 c1be e03c 8f3e
00000180: bc12 2fbe 008c 583e 34e9 4d3f 9991 29bf
00000190: 03d8 63bd cc19 c03e 9716 a93c 0996 26bf
000001a0: 0033 92be 1d4a 18bf 2ea6 1f3e 9ff3 49bd
000001b0: c61c 3d3d 505a 13be 9624 a0be 4735 9e3c
000001c0: 04aa 143d 3ec5 91be b06d f8bd 2d17 593d
000001d0: 40fb acbe 7f6b d8be f017 5abe ee82 4dbe
000001e0: 9604 49bf c99d 8c3e 6a40 293f 585b cfbe
000001f0: 503c 2abf 1ab6 533e 0915 92bd 6b0b 8f3e
00000200: 41a6 81be 1067 b33e ba5c 7cbe 6b3c 26be
00000210: 91f3 1dbf e17c 163d fa94 973d 6617 ef3c
00000220: a950 a53c b2d7 f2bb 0bd5 a63c f6a7 6b3c
00000230: 74b4 8dbc dab0 67bb ac84 edbc 121b b5bb
00000240: 4017 aebe ba65 3f3f 7333 0e3f 1a90 0dbe
00000250: 5d02 443d e8fe 31bf 7db6 10bd 41e8 8fbe
00000260: 20b8 5d3d d05d 87bf ca71 f23c fe0e 2bbd
00000270: a91e 8fbe fdc4 abbe 6ea0 e1be 3134 83bd
00000280: c1ba ebbd d6dd 8f3e 6fb1 7f3e b351 bb3d
00000290: a87b f2bd 6c3e 19bf 22ce cc3e 51e5 cebe
000002a0: d33b 08bf a60d 3fbf 91c1 33bf 0a0a 09bf
000002b0: 5210 8e3e 70d6 c4bc 335c c3be 595c 49bf
000002c0: 80f8 4bbd e4f5 49be 8758 37bf cec2 0ebf
000002d0: b59c 26be 8dc1 4cbe 6af7 243e c7a8 f1be
000002e0: 5682 0abd a13a 4c3e 8355 12bd 6357 a8be
000002f0: cde1 1c3e 09d1 29bf c29b ae3d 7748 943f
00000300: 6d5d c9be 1e16 17bf 9b54 66be c326 89be
00000310: de89 9fbe f923 b43e 9dd6 a9be 4799 fabe
00000320: 3c4a e93d f121 94bd 37a5 86bf 41a3 d7be
00000330: 7b0a 8f3e f8a0 32bf ca0c ed3e 428d 5ebe
00000340: d183 84be fa3e ab3c 5375 db3e 71d6 a93e
00000350: d639 ce3e 8d17 4bbe 2e94 2a3e 81a5 493e
00000360: 4fc7 35bf 431a 26bf bc87 0a3f a455 45be
00000370: f739 813d 4a55 83bf b183 81be ec5c 763e
00000380: 6cad 1ebe 8129 41bc 3211 12be 6979 a5bc
00000390: 2561 e83b cdef e7bd 2235 a7bd d558 fabd
000003a0: b285 afbd 8213 c33d 0bfe e93c 733d 1cbd
000003b0: deb5 883c adf9 1fbd b43d a03c cf1d f63c
000003c0: 0153 49bc c0d8 e1bc a0f6 a6bb 515b 083f
000003d0: 73c1 4cbe 709f eb3e ac2a 40bf 10bf 3dbe
000003e0: 602f 16bf 7959 e13e 1fda 623f 13de e3be
000003f0: f82a 4fbf 088c 87be b507 b43e 9c93 3dbe
-0.3764435 0.28332102 -0.16797034 0.080345646 -0.27540252 -0.09237024 0.3301789 -0.22020456
-0.2333454 -0.7526797 -0.2716946 0.36754367 -0.26503143 -0.671251 0.45460713 -1.2501674
0.28511167 0.008147131 0.26231897 -0.1885897 0.11733156 0.1387849 -0.5034029 0.23753935
-0.6600646 -0.46778786 0.20055023 -0.3656624 -0.17192446 -0.009564033 0.24769601 -0.2631585
0.290271 0.46946126 -0.309523 -0.081886224 0.030795999 -1.0438026 -0.026544984 -0.63399404
-0.56409967 0.22246246 -0.19248292 0.119913146 -0.38951766 0.21501984 0.23859644 -0.14130841
0.11898002 -0.43110365 -0.35394356 -0.5385834 -1.0869243 -0.029686198 -0.06718379 -0.114286244
0.18870413 -0.04710059 0.024050776 0.6568533 -0.33646154 -0.06537252 -0.07373269 -0.15561028
-0.4073531 0.41255108 -0.9194045 -0.34444833 0.3608551 -0.9260696 -0.1908931 0.547223
-1.1927371 -0.49810225 0.03277042 0.14642544 -1.0937037 0.06362282 -1.0501318 -1.3372471
0.5201258 0.08195658 -0.21809696 -0.14992891 -0.034083776 0.15681688 -0.33974308 0.18348645
-0.5306095 -0.3515841 -0.3509625 0.16506046 -0.48165295 -0.76979333 -0.37733793 0.2797613
-0.1709699 0.21147156 0.80433965 -0.6623779 -0.055625927 0.3751968 0.020640654 -0.65072685
-0.28554535 -0.5948809 0.15590736 -0.0493046 0.04617002 -0.1438992 -0.31277913 0.019312514
0.036294952 -0.28470796 -0.12130296 0.053000618 -0.3378544 -0.42269513 -0.21298194 -0.20069477
-0.7852262 0.2746413 0.66113913 -0.40499377 -0.6649828 0.20674935 -0.071329184 0.279384
-0.25322154 0.35039568 -0.24644747 -0.16233985 -0.6169978 0.036740188 0.07401462 0.029185962
0.020180063 -0.007410967 0.020365259 0.014383307 -0.01729796 -0.0035353214 -0.028993927 -0.0055269087
-0.34002113 0.747646 0.55547255 -0.13824502 0.047853816 -0.6952958 -0.035330284 -0.28106883
0.054130673 -1.0575504 0.029595274 -0.041762345 -0.2795308 -0.33548728 -0.4406771 -0.06406439
-0.1151023 0.28098935 0.2497003 0.09146442 -0.11839992 -0.59860873 0.40001017 -0.4040933
-0.53216285 -0.746302 -0.70217234 -0.53530943 0.27746826 -0.024028033 -0.3815628 -0.78656536
-0.049797535 -0.19722706 -0.71619457 -0.55766 -0.16270716 -0.19995709 0.16110006 -0.4719908
-0.033815704 0.1994424 -0.03572608 -0.3287917 0.15320511 -0.6633459 0.08525802 1.1584615
-0.3932909 -0.59018123 -0.22493212 -0.26787385 -0.31159872 0.35183695 -0.3317155 -0.48945066
0.11391112 -0.07233036 -1.051917 -0.4211674 0.27937683 -0.6977687 0.4629882 -0.21733573
-0.25881818 0.020904053 0.4286295 0.33171418 0.402785 -0.19833203 0.16658089 0.19692041
-0.71007246 -0.6488382 0.54113364 -0.1927095 0.06309884 -1.0260403 -0.25295785 0.24058884
-0.15495843 -0.01178968 -0.14264372 -0.020199494 0.0070916587 -0.11325035 -0.08164431 -0.122239746
-0.08570422 0.09525205 0.02856352 -0.03814454 0.016688284 -0.03905647 0.019560672 0.03004351
-0.012287856 -0.027569175 -0.005095318 0.5326434 -0.1999567 0.4602008 -0.7506511 -0.18529916
-0.5866604 0.44013575 0.88614076 -0.44505367 -0.8092494 -0.26474023 0.3516213 -0.1851334

network.4.bias f4 [64]
00000000: e636 53be 087f 98be 7bf1 debe 51bd cfbe
00000010: fa4f 8abe 97d6 16bf 9df6 13be 7582 c6be
00000020: 16a9 2bbf 6564 0cbf 1d00 a7be 2ee0 cabd
00000030: 33b3 23be cea9 6dbe c0d4 23bf 2bd6 07bf
00000040: e9fd 1ebf 71ee a6be 3929 8fbf 608b e0bd
00000050: 44c3 abbe 3a15 46bf 05ca 12bf 92ee d4be
00000060: a524 2ebf 62da 64bf 0d45 a4be 8d71 08bf
00000070: 6405 9fbe c2fc 0ebf 75e9 15bf cd29 82bf
00000080: 4028 33bf cd26 d4be 00c3 e8bd fc97 2cbf
00000090: 9369 71bf f195 34bf 454a 8ebf 8ec1 bcbd
000000a0: 860a 1fbf dbc0 21be 83c9 cebe c15d 82bd
000000b0: d02e 0dbf c98e 39bf 9c43 b3bd 3199 63bf
000000c0: ab2a 26bf 4d4b 2e3e 278b 0bbf cabb 04bd
000000d0: 56ab c6be f191 15bf badc e7be 9613 8cbe
000000e0: 219d debe 5cee 29bf e9a5 9dbe 580e 6ebe
000000f0: 220e 1dbf 2928 b4be dd91 10bf 4c6b a3be
-0.20626411 -0.29784417 -0.4354361 -0.40574124 -0.27014142 -0.5892119 -0.14449544 -0.38771406
-0.6705488 -0.5484069 -0.32617274 -0.0990604 -0.15986328 -0.23209307 -0.63996506 -0.5306117
-0.62106186 -0.3260379 -1.1184455 -0.10964084 -0.33547413 -0.7737614 -0.5733951 -0.41588265
-0.68024665 -0.89395726 -0.32083932 -0.53298265 -0.310588 -0.5585443 -0.5855935 -1.0169007
-0.6998329 -0.41435853 -0.11365318 -0.6741941 -0.9430172 -0.7054129 -1.1116415 -0.09216605
-0.6212543 -0.15796225 -0.40388116 -0.063655384 -0.55149555 -0.724835 -0.0875313 -0.88905627
-0.64908856 0.17020912 -0.54509205 -0.032405652 -0.38802594 -0.58425814 -0.45285589 -0.27358693
-0.43479255 -0.6637933 -0.30790642 -0.23247659 -0.6134969 -0.3518689 -0.5647257 -0.319178

actor.weight f4 [5, 3136]
00000000: a754 653f aeb8 0e3f 729c 633f 76ad 4a3f
00000010: d412 8f3f edd7 4f3f aa13 d93c 81a0 433f
00000020: d30c 093e 5532 ca3e e3e0 883e f97d 5a3f
00000030: f1fd 173f 1530 063f 11da a03f 0645 653f
00000040: a66f d93e 1c2d a73e 29de 363f 385b 6a3f
00000050: e7e2 023f 3c35 233f e5d0 f13e 2153 5e3f
00000060: 313c 3d3e 608a 673f b9f9 ad3e 32a4 a3be
00000070: 758d 673e 10a6 023f 084c 043f cdb3 153f
00000080: 84f5 143f 3fa9 263f ab22 5b3f 2ddf cc3e
00000090: d4c2 f63e 74f4 ce3e f94d fd3e 2cb9 353f
000000a0: a38f 373f 6a55 af3e f49d c83d c8f7 a93e
000000b0: 8293 ae3e 1246 d93e b0d2 203f 65d4 393e
000000c0: 6401 683e d724 c83e c100 303f 23eb 8e3f
000000d0: 98c6 4b3f 26da 3d3f 3c0f 833f b2a3 383e
000000e0: 1868 aa3e 7974 903f b44e 0c3f c07a 103f
000000f0: 58d5 353f 1d18 5a3f 40d7 0b3f e166 6a3f
00000100: 8248 133f 605d 493f 034a 953e d4f1 073e
00000110: 547c e7bd fe46 ce3e e601 653e e8e6 ba3f
00000120: 15a2 143f abf9 693f 410e 3b3f f51e 8a3e
00000130: 35d3 763c 6d5f 453e d849 673f 87cf bb3e
00000140: 9cfa 983f a7a0 483f 309c 5e3e 39dd 003f
00000150: 79b5 f93e ac76 b43e 30ab fc3e 7564 cc3e
00000160: 6ee9 123e 2ee3 9abe 9e23 473d 8dec 193f
00000170: dc59 7a3d d4e2 4b3d 5244 683e 062c 9d3d
00000180: 90dc aa3e c8e3 f83e 8c8d 3d3c 421b 1d3f
00000190: 8417 d73e b8ff b83e a5fa 033f ad06 11bf
000001a0: 69e2 123f d81e 163f 1287 c53e adbe 113f
000001b0: 6d9c 233f dd5f 3e3f 5391 983d 03ed 9c3e
000001c0: 9aa2 343f debd e63e 7111 133f aa19 153f
000001d0: 684a 323f edda 593f 57f1 bd3e 7baf 1f3f
000001e0: 1402 7f3e 7357 0a3f 0e76 4e3f ccaf 8b3d
000001f0: 3a54 723e a6f6 a33e 2f26 0f3f 9b4f e93e
00000200: 48ef 1c3f 11b3 0e3f 7127 853e 79d7 ac3e
00000210: ee8a 0c3f 9259 c93e 0313 bb3e c5ba 113f
00000220: e6fe 493c 1007 c33e d1cc c63e 014d 3c3f
00000230: 7e34 5a3f 72c2 a03e ebdc 383f f17f 193d
00000240: 1734 033f dcf5 4d3f 3f73 e03d 00f0 573f
00000250: d47a 5e3f 5f3c 053f 6e1a a43f f190 5b3f
00000260: e65b 523f 8d90 fcbd b5d3 733f 79a8 7a3f
00000270: d545 843f 99cc 4d3e 0109 153e 9d88 403f
00000280: 894b ab3e 16fc e33e 20f6 8b3f 6a39 2c3e
00000290: 4c33 cc3e 1eeb d93d 852e df3e e812 1f3e
000002a0: 803b 413f 620c 673e 06b2 3e3f 35ae 0c3f
000002b0: 682f 083f fd2e 793d 404c 0a3f 7aef 8d3f
000002c0: ac52 063f 61d3 353e 76c9 293f 3e56 093f
000002d0: 2509 f93e bd5b 2b3e 73ab 173f 3cf1 2b3f
000002e0: f90f da3d a3e2 1b3f ae72 193f cf14 ab3e
000002f0: ac11 593e 5cdc 6a3e 074e 763f ab1e ae3f
00000300: ba70 f73e 2a49 623e e2fa 6d3e 7405 813f
00000310: bda7 303f c839 a33e bcca 1d3f 6c2a f23e
00000320: f47b 553e acc4 863f bfb0 a03d 8a1f b93e
00000330: b059 663f e3e7 773f 9725 783f 5b86 803d
00000340: 5ae8 2abe fbea 6abe 9111 9d3e a366 ff3e
00000350: 424b 2c3f 3805 0b3f 7db8 143f c2ad d93e
00000360: 6134 013f 00b7 1a3f 9334 523f 8400 153f
00000370: 4149 033f 28c2 cc3e 67c8 363f 88d6 923e
00000380: 2627 903e e92e 343f 6d61 383f d830 473f
00000390: fdbd 453f f464 073f c12c f43d 27aa 9c3e
000003a0: 2b49 0f3f 31a7 1e3f 62f0 0f3f 713d 193f
000003b0: 480b 2f3f 3341 ba3e 93b9 673f e597 5b3f
000003c0: a86f 733f 4131 103f f130 963e f193 5b3f
000003d0: e166 b93e 874f 0cbe 9875 ee3e bd3b 6c3e
000003e0: ad9b 603e 26aa 33bd d9e9 b53d 1264 ab3d
000003f0: 3f36 e83d 3c4f 433f e2ef 173f d9d0 5c3f
0.89582294 0.5575055 0.8891059 0.7917093 1.1177621 0.8118885 0.026498634 0.76416785
0.13383798 0.39491525 0.26734075 0.8534847 0.5937186 0.5241712 1.2566549 0.89558446
0.42467993 0.32651603 0.7143274 0.9154544 0.51127476 0.63753104 0.47229686 0.86845595
0.18479992 0.9044552 0.33979586 -0.3196121 0.22612555 0.5103464 0.51678514 0.5847748
0.5818713 0.65102 0.85599774 0.4001402 0.48195517 0.40420878 0.4947355 0.70985675
0.7170355 0.34244853 0.09795752 0.33196855 0.34096915 0.42436272 0.62821484 0.18147428
0.2265678 0.39090607 0.6875115 1.1165508 0.79599905 0.74160993 1.0239024 0.18031195
0.33282542 1.1285545 0.5480759 0.564373 0.7102866 0.85193044 0.5462532 0.9156323
0.57532513 0.78658104 0.2915803 0.13275844 -0.113030106 0.40288538 0.22364005 1.4601717
0.5805982 0.9139659 0.73068625 0.26976743 0.015065004 0.19274683 0.9034705 0.36681768
1.195148 0.78370136 0.21739268 0.5033756 0.48771265 0.3524679 0.49349356 0.39920393
0.14346859 -0.3025145 0.04861795 0.6012657 0.061120853 0.049776867 0.22682312 0.076744124
0.333714 0.48611283 0.011569392 0.6136972 0.42010128 0.36132598 0.5155433 -0.5665081
0.57376724 0.58640814 0.38579613 0.56931573 0.6391056 0.74365026 0.074495934 0.30649576
0.7056061 0.45066732 0.5744849 0.58242285 0.69644785 0.8509968 0.3709819 0.62377137
0.24903136 0.54039687 0.8064889 0.0682064 0.23664942 0.32024115 0.5591764 0.45568547
0.61302614 0.55741984 0.26006654 0.33758143 0.5489949 0.3932615 0.36537942 0.5692561
0.012328839 0.38091326 0.38828138 0.73555 0.85236347 0.3139835 0.72212094 0.03747553
0.5125136 0.80453277 0.109594814 0.84350586 0.8690617 0.52045244 1.2820566 0.8576804
0.82171476 -0.123322584 0.95244914 0.9791332 1.0333811 0.20097579 0.14554216 0.75208455
0.33456066 0.44528264 1.0934486 0.16818777 0.39882886 0.10640548 0.4359018 0.15534556
0.75481415 0.22563317 0.7449039 0.5495332 0.53197336 0.060835827 0.540226 1.1088707
0.524699 0.17756416 0.6632303 0.5364722 0.4863979 0.16734214 0.59245986 0.6716497
0.10647578 0.60892695 0.5994061 0.33414313 0.21198148 0.22935623 0.9621281 1.3603109
0.4832819 0.22098222 0.23240235 1.0079789 0.6900595 0.3188002 0.61637473 0.4729799
0.20848066 1.052877 0.07846212 0.36156875 0.899806 0.96838206 0.9693236 0.06275626
-0.16690198 -0.229412 0.30677465 0.49882993 0.67302334 0.5430484 0.58094007 0.4251538
0.5047055 0.60435486 0.8211147 0.5820391 0.5128365 0.3999188 0.7139954 0.286793
0.28154868 0.7038408 0.7202366 0.77808905 0.77243024 0.5288842 0.11922599 0.30598566
0.5597102 0.61973864 0.5622617 0.5985938 0.6837659 0.36377868 0.9051754 0.8577865
0.9509225 0.56325155 0.29334214 0.85772616 0.36211303 -0.13702212 0.46574092 0.23069663
0.21934386 -0.043863438 0.088824935 0.08368696 0.113384716 0.7629278 0.5935041 0.86256176

actor.bias f4 [5]
00000000: 976e 813d cfa5 253e b274 a73e 7771 243e
00000010: b185 563d
0.063199215 0.16176532 0.3270622 0.16058908 0.05237359

critic.weight f4 [1, 3136]
00000000: df51 58bf d43e 13bf 8eef a13d 58e1 103f
00000010: 3f02 a33e 5d2b 613e 5b16 69be b800 4cbe
00000020: a628 c83d 1c7b b23d ef53 353d c0b9 313e
00000030: c23a 9a3e 0756 47bd 3dca b1bd 3b89 d93d
00000040: 61cc 523e cba8 e03d 9334 bb3d 3159 893e
00000050: 9db3 573e 5701 ba3d 5636 d2be 90f0 18bf
00000060: 310f 9dbe 8f0d efbe 74b0 6e3e f22a 543e
00000070: a5df d83c 5a08 aabe 2255 1d3e a855 5d3d
00000080: 4620 743e db12 0e3e ce29 e4bd 4bfb de3e
00000090: 3ead 9c3e 0393 1d3e e2e4 f9bc 71d1 1f3e
000000a0: c0c7 913e 77e3 733e 48fe 66be 66ce 9fbd
000000b0: 1c99 ac3d 8904 8e3e b9f4 a3be f991 e63e
000000c0: adca 4f3d eb17 e3be 9b14 61be 6114 5cbf
000000d0: edb4 6ebd eb9a 99bd a131 95be 929d 76be
000000e0: 59b6 743e 8b79 11be 34b9 04bf 7179 403d
000000f0: 220c 1d3e a9ea a93e f745 a2be a9ce 97be
00000100: 3174 0d3e c988 ae3e 41e9 183f 8110 173f
00000110: 16ff ac3e 2901 863e 3c82 a83e 3af8 08bf
00000120: c5b1 20bd 53bf 0cbf 40a4 8cbc 98ab b43d
00000130: e45e 873d e585 80be 6d78 abbe 7678 cfbe
00000140: 6888 d0be 8465 80bc 628f 18bc ee6a d2be
00000150: d8d9 2a3f 80ff 123f b63b d3ba 38ab 903d
00000160: bacf 8a3e 11f2 06bb c4b8 083e 0cc7 053e
00000170: 2825 393f a411 c83d 9de1 043f 5bbf 913e
00000180: 7c00 723e d552 30bd 4e4b be3e d1a0 183e
00000190: be9c 0c3e 4e10 8bbe 487e 883e 1147 0c3e
000001a0: b76d 733e df1c b63d 471f 5b3c 623b 103c
000001b0: c511 f0bc 7c38 acbd 9ed7 fe3d c128 06be
000001c0: 9fce cd3d 22a3 7c3d 9f5c 073e cd74 2b3d
000001d0: c076 9bbd 1f27 833e d26a c2be d5af a1be
000001e0: 9149 f13c 4260 053d 8880 1abe d7cd f8bd
000001f0: 0bc5 4ebc 5809 003e d4a3 103e a939 713d
00000200: 0763 7dbc ade4 fa3d e65b b73d 725e 0b3e
00000210: 3235 9c3e 2f13 b3bd 0ca3 1a3e 75ff a8bc
00000220: 5849 313e 2ff0 a93e bea2 30be 810a 1fbf
00000230: c2fa f73d f435 c3be 3811 81bd a0c2 68be
00000240: 527e d63c 8d19 9e3e f520 683e 3aa1 2bbf
00000250: 4d22 e4be 207b 3cbf 9239 90bf beea 87bf
00000260: 6529 1f3f 73db 9e3d 8c2c dd3e 1790 063e
00000270: b7d1 2b3f 38f0 623d d054 c5bd 69be 68bc
00000280: 3a1b c33d 6291 713e e90b 1e3f 8b84 883e
00000290: 9b04 9a3e 2b90 593c c7ad 07bd 55c0 8dbd
000002a0: 8c72 f6bd 8c79 333f 46ac a93e 261a a6bd
000002b0: 1343 96be 3272 1d3f 6f3a 5d3f 0a21 7abf
000002c0: 11ac d4bc 24cc f43d d56f e3bd ecf2 98be
000002d0: 4396 4bbf 3f37 423d 08e7 7b3c feb3 42be
000002e0: b6ea 803e ac7b 67bd deed b3be 7a91 ca3e
000002f0: 4275 03be 8b89 a83e 1c0a 0f3f 8c5b 163f
00000300: 05f8 253b fd53 f43e e7fc 39be 25c3 aabe
00000310: 868e 043e 4905 4cbd 51b8 083f a55a 973c
00000320: d049 84bd 2150 5bbe 123e 583e af5b a93d
00000330: 5790 083e b85d 8c3e 6422 8d3e 9d0e 0e3f
00000340: da94 5b3e ecbc 183e fc5a 85bb c72c c33c
00000350: e48c 153e dcdc 933d b3a1 753e 7183 ad3e
00000360: 92f8 a33e 9c33 123e 369f ba3e 14df febd
00000370: e0ed 233d 7f5c 493d b686 fe3d 986a e0bd
00000380: d8a5 1f3e 892e 2e3e 8e27 cbbd a701 2dbb
00000390: 1e9d 25bd 8637 01bd 2c3d a83e a2d2 93be
000003a0: 2246 e6bd 26c8 cb3c 08a9 1b3d cf26 f1be
000003b0: 34cb 2bbe 6e2d 5ebe a345 f73e 0134 313f
000003c0: 0363 263e ee97 d53c babf 26bf 3fa1 c23e
000003d0: 9249 f23e 1fc1 e33c eb89 b43e 2b77 d1bd
000003e0: 75bc 91bd b696 4fbe 1fda 363e 5a1f 10be
000003f0: 9b2d 00be 3453 14bd f1d5 913e 6720 2cbe
-0.84499925 -0.57517743 0.079070196 0.5659385 0.3183765 0.21989198 -0.22762434 -0.19922149
0.09773378 0.087148875 0.0442695 0.17356014 0.30122954 -0.048666026 -0.08681152 0.10621878
0.20585777 0.10969695 0.09140887 0.2682586 0.21064611 0.09082287 -0.4105708 -0.5974207
-0.30675653 -0.46690032 0.23309499 0.20719507 0.02647383 -0.33209497 0.15364507 0.054036766
0.23840436 0.1387438 -0.11140786 0.43551096 0.30600923 0.15388112 -0.030504648 0.1560724
0.2847271 0.2381724 -0.22557938 -0.07803039 0.08427641 0.27737835 -0.32022646 0.45033243
0.050730396 -0.44354185 -0.21980517 -0.85968596 -0.058278013 -0.075002514 -0.29139426 -0.24083546
0.23897685 -0.14206521 -0.518451 0.046990816 0.1533666 0.33186844 -0.31694004 -0.29649857
0.13813855 0.34088734 0.5973092 0.5900956 0.33788365 0.2617276 0.3291186 -0.53503764
-0.039232034 -0.5497944 -0.017168164 0.088217914 0.06609896 -0.25102153 -0.33490315 -0.40521592
-0.4072907 -0.015673406 -0.009311529 -0.41097206 0.66738653 0.5742111 -0.0016115818 0.070639074
0.27111608 -0.002059106 0.13351732 0.13064212 0.7232232 0.0976899 0.5190676 0.28466305
0.23632997 -0.043047745 0.37166828 0.14905097 0.13731667 -0.27160877 0.26658845 0.13698985
0.23772322 0.088922255 0.013374156 0.0088032205 -0.029305348 -0.08409211 0.124434695 -0.13101484
0.100491755 0.061679013 0.13218926 0.041859437 -0.07591009 0.25615785 -0.37972122 -0.31579462
0.029454025 0.0325625 -0.15088093 -0.12148636 -0.012620221 0.12503564 0.14124995 0.05889288
-0.0154655045 0.12250648 0.08953075 0.13610247 0.30509335 -0.08743893 0.1510126 -0.020629624
0.17313135 0.33191058 -0.17249581 -0.621254 0.12108375 -0.381271 -0.06302112 -0.22730494
0.026183281 0.3087887 0.22668822 -0.6704289 -0.4455742 -0.73625374 -1.1267569 -1.0618513
0.6217254 0.077567 0.4319805 0.13140903 0.67116874 0.05540487 -0.09635317 -0.014205554
0.095266774 0.23590615 0.61736923 0.26663622 0.3008164 0.013279001 -0.03312471 -0.0692145
-0.12033567 0.7010734 0.33139247 -0.08110456 -0.2934805 0.61502373 0.8641729 -0.97706664
-0.025960954 0.11952999 -0.11105315 -0.29872835 -0.79526156 0.047415968 0.015374906 -0.19013974
0.2517907 -0.056514427 -0.35142416 0.39564115 -0.12837699 0.32917437 0.558748 0.5873344
0.0025324833 0.47720328 -0.18162881 -0.33352008 0.12944993 -0.049809728 0.53406245 0.01847584
-0.06459391 -0.21417286 0.21117428 0.082694404 0.13336311 0.27415252 0.275653 0.5549105
0.21443501 0.14915818 -0.004069684 0.023825062 0.14604527 0.0721986 0.23987465 0.33889344
0.32025582 0.142775 0.36449593 -0.124448925 0.040021777 0.049160477 0.12428038 -0.10957831
0.15590608 0.17009939 -0.09919654 -0.002639869 -0.04043304 -0.031547092 0.3285917 -0.28871638
-0.112438455 0.024875712 0.038002998 -0.4709992 -0.16776735 -0.21697018 0.48295316 0.69219977
0.16248707 0.026073422 -0.651363 0.38013646 0.47321755 0.027802048 0.35261473 -0.102278076
-0.071160235 -0.20272335 0.17856644 -0.1407446 -0.12517397 -0.03621216 0.28483537 -0.16809236
