PARALLEL/models/PRED_GROUP_POLICY_BOTH_INDIV_RWD_ROUND2_1800.ckpt (torch, 307454 bytes, 9 tensors)

network.0.weight f4 [32, 5, 3, 3]
000000 1a 5a b8 3d 71 f3 fa 3c 8b 55 71 3d 0f f6 c0 3d
       0.090015605 0.03063366 0.05891947 0.09421932
000010 60 5e 05 3e 9d 12 31 3c 59 f2 f2 3d d8 20 a7 3d
       0.13024282 0.01080766 0.118626304 0.08160561
000020 fe e0 ce bc f8 64 11 3e b8 28 06 3e eb df 06 be
       -0.025253769 0.14198673 0.1310147 -0.13171355
000030 15 b1 86 3e 63 54 09 be 60 de e1 bd 3d 27 79 3e
       0.26306978 -0.13411097 -0.11028743 0.24331374
000040 ad d7 7c 3e 22 a2 1c 3e 52 aa cf 3d bd 91 28 3d
       0.24691649 0.15296224 0.10139908 0.04115461
000050 01 f2 20 3e 45 b4 37 3e b4 12 99 bd 8f 0f 19 3e
       0.15717317 0.17939861 -0.074742705 0.14947341
000060 33 19 0f bd 5f cd c8 bd 7d 98 97 3c fe 3b 43 be
       -0.03493614 -0.098047964 0.01850533 -0.19065854
000070 f9 2e d0 bd cd bd ea 3d 3c 3c 8c 3d 58 ab 0a be
       -0.10165209 0.11461983 0.06847426 -0.13541925
000080 71 17 11 be 90 c1 0b be 8c 58 10 3d 93 04 50 be
       -0.14169098 -0.13648057 0.035240695 -0.20314245
000090 94 c6 bd 3d b5 19 bf bc e9 3e c7 bc 47 34 93 bd
       0.092663914 -0.023327688 -0.02432199 -0.071877055
0000a0 91 67 cd 3d e5 38 8f 3c d9 dd ea bb 3b 42 a9 bd
       0.10029519 0.017483184 -0.0071675596 -0.082645856
0000b0 36 ef fd 38 96 27 84 bc 37 86 5e bd 6d 6e bf bd
       0.000121085366 -0.016132157 -0.054327216 -0.09347234
0000c0 65 0d 98 3d d3 36 b0 bd d8 d6 02 be cf 0c 6b 3c
       0.0742443 -0.08604207 -0.12777269 0.0143463155
0000d0 00 e4 42 3d 29 82 b9 bd 77 c7 24 3e 42 0f 42 bd
       0.04758072 -0.09058029 0.16091715 -0.047377832
0000e0 a5 cf 40 3e 71 7d 66 3e 43 da 2f 3e f0 ed 32 3e
       0.1882921 0.2250879 0.17173104 0.17473578
0000f0 a2 a4 3f 3d d1 5e ed 3c f2 58 7a 3d e5 9b a4 bc
       0.046787865 0.028975876 0.06111998 -0.020093868
000100 b9 db a4 bd a0 76 fe bd e3 a3 79 bd 60 d2 07 3d
       -0.08049721 -0.1242497 -0.06094731 0.033159614
000110 68 1f 0f be 27 88 69 3d 00 e7 17 bb 0a 35 59 be
       -0.13976824 0.05701461 -0.0023178458 -0.21211639
000120 4d ad 35 be 3b 70 b2 3d 01 12 e1 bd 03 10 a9 bd
       -0.1774189 0.087128125 -0.10989762 -0.08255007
000130 f6 79 01 3e 77 00 73 bc 26 fa 14 3d 00 30 aa 3c
       0.1264418 -0.014831654 0.036371373 0.020774841
000140 ee ef 07 3d dd 3e ab 3b b2 4b 88 3d 59 d4 24 be
       0.0331878 0.0052259997 0.06655063 -0.16096629
000150 8d 4a a1 3d de 41 9b 3c a8 34 14 3e cc 34 14 be
       0.078755476 0.018952306 0.14473212 -0.14473265
000160 2e 7d c7 3d 2e f2 d3 bb 9b fb fb bd d0 dd a8 bd
       0.09740673 -0.006468079 -0.12303849 -0.082454324
000170 d7 fc 04 be cd cb 02 3e 2e 70 d2 bd fa e8 48 3d
       -0.12987076 0.12773056 -0.10275303 0.04905031
000180 0d 36 b7 3d 16 3b a9 bc 38 8f ac 3d 0c c8 23 3e
       0.08945856 -0.020658057 0.08425754 0.1599428
000190 46 1d 79 3e ff ce 27 3e d5 c9 a3 bb d1 e0 3f 3e
       0.24327573 0.16387556 -0.0049984255 0.18738104
0001a0 c0 24 be bc b4 be af bd 17 39 14 be 57 f3 4b be
       -0.023210883 -0.085812956 -0.14474903 -0.19917046
0001b0 a7 04 2a be 3c c2 f9 bc 7e 6e b6 bd 50 6a b5 3d
       -0.16603337 -0.030488126 -0.089077935 0.08858168
0001c0 8b 1d 0a bd 3c aa 19 be f0 fb ff bd 6f b4 e7 bc
       -0.03371958 -0.15006346 -0.12499225 -0.02828428
0001d0 12 b3 96 bd 30 89 e2 3d b7 f6 45 bc c8 49 fc bb
       -0.07358374 0.11061323 -0.012082747 -0.007699225
0001e0 2d 44 7e 3d 8d 46 0f bd bc 21 3f bc 5f 78 ac bd
       0.062076736 -0.03497939 -0.011665758 -0.084213965
0001f0 7a 50 1e 3e a5 d5 12 3e 9c e1 06 3e 9b 44 ed bd
       0.15460387 0.14339311 0.13172 -0.11585351
000200 f1 8d 63 3b c7 5e 8e bc 7d 9b f5 3c b0 7b c5 bd
       0.0034722055 -0.017379178 0.02998137 -0.09642732
000210 2f 89 8a 3d b9 e1 09 bd 17 a6 19 3d 3b e0 45 3d
       0.06764447 -0.03366253 0.03751191 0.048309546
000220 74 78 8d 3d 76 b0 b8 bd 44 3f b5 3c 5c 75 12 3e
       0.0690774 -0.09018032 0.022124894 0.14302582
000230 aa f0 76 bd 50 f0 55 3d 3a f8 35 bc 4c e0 f5 bd
       -0.06028811 0.052231133 -0.011106545 -0.12005672
000240 ba 6d 30 be 53 07 66 3e 5a 89 69 3e b0 e5 00 be
       -0.17229357 0.22463731 0.22806302 -0.12587619
000250 a9 45 80 3e dd fb 66 bc c8 08 34 3e 4b 1f cf bd
       0.25053146 -0.014098135 0.17581475 -0.101133905
000260 20 46 25 3d fd 75 85 bd 21 af 06 be f4 c9 31 be
       0.04035008 -0.06516645 -0.13152744 -0.17362195
000270 1a 57 32 be 4e be 42 bd eb dc 3e bd 49 b6 19 3b
       -0.17416039 -0.04754477 -0.046597403 0.0023454598
000280 d0 d8 05 3d 09 95 e2 3b 7e 56 f2 3d fe a8 cd 3c
       0.03267747 0.006914739 0.11832903 0.025104996
000290 5e ef bf 3d 29 45 49 3d fb a8 d2 3c fa 99 29 bd
       0.093718275 0.049138222 0.025715342 -0.04140661
0002a0 68 8e cc 3d 2e 8e c4 3b bc 45 60 bd 6e 04 0c bc
       0.09988099 0.0059983945 -0.054754004 -0.008545978
0002b0 88 e4 16 3b 19 4b 6c 3d ab 55 3e be d0 cd 58 be
       0.0023024399 0.057688806 -0.18587367 -0.21172261
0002c0 eb 16 13 be 10 6a 18 3d 61 b3 26 be 34 d1 ce 3b
       -0.14364211 0.037210524 -0.16279365 0.00631156
0002d0 88 98 8d 3d e1 82 d3 bd b0 9a 93 3c 00 84 91 bc
       0.06913859 -0.103276975 0.018018097 -0.017763138
0002e0 1b d4 87 bd a7 7a b4 bd 23 9c d3 3d 8f 14 7e 3c
       -0.06632253 -0.088124566 0.10332515 0.015507831
0002f0 65 ed a0 3d 46 21 5f be cc a1 15 ba 3f 8b 2c bd
       0.078577794 -0.21790037 -0.00057080085 -0.042124983
000300 39 c7 86 3d 5a 10 f5 3d 85 a2 c6 bd fa c3 52 be
       0.065809675 0.119660094 -0.09698967 -0.20582572
000310 3d f0 fe bd 1d d1 c0 bd 35 03 c1 3d fb da 95 bc
       -0.124481656 -0.09414885 0.0942444 -0.018292895
000320 69 b8 55 bd 08 5f 3b 3b ea 7e ff 3d 76 b9 d2 3c
       -0.05217782 0.0028590579 0.12475379 0.0257232
000330 e9 45 83 bd c2 17 16 3e 74 79 03 bd 40 cd 92 be
       -0.06409819 0.146575 -0.03209825 -0.28672218
000340 7d 67 54 3b a5 8e 9e be 1a 54 05 be d8 fe 45 3d
       0.0032410317 -0.30968204 -0.13020363 0.04833874
000350 54 c4 c4 bb f2 57 48 3e 26 e2 5a 3d 0a f3 5b 3d
       -0.0060048494 0.19564798 0.05343833 0.053698577
000360 b0 96 04 be fe 16 35 3d 20 67 ad 3d c0 63 07 bd
       -0.12948108 0.04421138 0.08466935 -0.033054113
000370 92 3c 5e bc 57 b3 e3 bd 0a fb 8e 3d d5 61 04 3d
       -0.013564246 -0.11118191 0.06981476 0.032319862
000380 25 93 99 bc 00 e2 cb 3d 9f 77 ce 3d d1 d7 26 3d
       -0.018746922 0.099552155 0.1008141 0.040733162
000390 23 1c 00 3e aa 2c 6f 3c dd 78 e9 3c 3b 31 16 bd
       0.12510733 0.014598051 0.028500015 -0.036668044
0003a0 32 79 f5 3d d4 05 0a bd 2f d3 06 3e 97 90 6b 3e
       0.11986007 -0.033696964 0.13166498 0.23004375
0003b0 28 c9 38 3e 10 53 d4 3d 0c be 40 3e 35 80 39 3e
       0.18045485 0.103674054 0.18822497 0.18115313
0003c0 e6 9f 14 be c8 b5 88 bd b8 2f 1c 3d ac a1 83 bc
       -0.14514121 -0.06675297 0.038131446 -0.016068302
0003d0 66 cc 55 bd dd 95 de bd 09 4c ae 3d f5 7f f7 3d
       -0.052196883 -0.10868428 0.08510596 0.12084953
0003e0 50 6d e1 bc 21 22 ea 3d f3 5b cd 3d 66 b6 df 3c
       -0.027517945 0.11432291 0.100273035 0.027308654
0003f0 58 cd 18 bd 13 29 f7 3d 43 49 65 3b 35 fb 46 3c
       -0.037305206 0.12068381 0.0034986294 0.012144853

network.0.bias f4 [32]
000000 e1 51 e2 bd d6 82 f2 3d 00 52 ff bd 35 44 d1 3d
       -0.110507734 0.11841361 -0.12466812 0.102180876
000010 40 d2 99 3d 6e f1 b1 bc 07 21 c6 3c b4 05 f6 bc
       0.07510805 -0.021721568 0.02418567 -0.030032016
000020 8d 86 81 3c cb 6e b8 bd 29 76 d9 bc 6b ca 6b 3c
       0.01581123 -0.09005507 -0.026545601 0.014391522
000030 b0 63 16 3c d6 25 96 bd 1a e7 ec 3d 7b 95 d3 3d
       0.009179041 -0.073314354 0.115675166 0.103312455
000040 ea 60 08 bd 49 7b fb 3d 98 80 03 3d 00 e4 9d 3d
       -0.03329555 0.12279374 0.03210506 0.07709503
000050 01 ae 85 3d 63 d1 e7 bd ca 3f b0 3d e6 0b 1a 3c
       0.06527329 -0.11319234 0.08605917 0.009402251
000060 ec ae bd 3d 42 6d ed bd f3 ae 78 bd 63 6d bb 3d
       0.09261879 -0.11593105 -0.06071372 0.09151723
000070 4f 9e fd bb ae 95 6c 3d cd ea 48 bd 69 1e f2 3c
       -0.007739819 0.057759933 -0.04905205 0.029555516

network.2.weight f4 [64, 32, 3, 3]
000000 aa 6e 99 bd 95 6a f9 bb 14 fc 6b bd 28 75 af bd
       -0.074918106 -0.0076115825 -0.057613447 -0.08567268
000010 b7 c3 a4 ba 1f 3e 09 3d fc 37 5c 3c 94 18 42 bd
       -0.0012570535 0.03350651 0.013441082 -0.04738672
000020 c2 95 a4 3c 46 9b 33 3d ce 1a a6 3c 4f e8 e4 3d
       0.020090941 0.043849252 0.020276453 0.11177122
000030 a0 30 5e bc e2 78 f3 3d 5a c7 26 bd de b3 1a bc
       -0.013561398 0.11888291 -0.04071746 -0.009442298
000040 a8 0f 4c 3d f7 a0 22 3d 1b e6 a3 ba 1d 58 89 3d
       0.04981962 0.03970429 -0.001250449 0.067062594
000050 ee 15 23 3d 50 af 2f bc 64 2e a5 3c 9c 73 2d 3b
       0.039815836 -0.01072295 0.020163722 0.0026466614
000060 42 33 79 ba 36 11 81 3d 91 3a 22 3d 9c e9 a5 bc
       -0.0009506234 0.06302111 0.039606635 -0.020252995
000070 b7 fd 32 3c c5 24 81 bc 7c c2 68 3d 08 5e 61 bc
       0.010924748 -0.015764603 0.0568261 -0.013755329
000080 10 a5 8e bc da e5 88 3d d9 0c 01 bd 1a 5a eb 3c
       -0.017412692 0.06684466 -0.031506393 0.028729487
000090 e5 95 90 bd 0f 53 a7 bd 9a ec 14 3d 48 58 ad bd
       -0.0705984 -0.08170139 0.036358453 -0.08464104
0000a0 d1 e8 56 bd 8e 35 32 be b5 2c 43 bc 8d 28 c0 bc
       -0.052468125 -0.17403242 -0.011912514 -0.023456836
0000b0 08 f5 07 bd 36 31 75 bd 69 ed 27 3d 71 ed 95 3d
       -0.033192664 -0.059861384 0.040997896 0.07320679
0000c0 bf 2d 8a 3b fe 06 0b bc 60 a3 3d 3d 71 3e 46 bc
       0.004216879 -0.008485554 0.046298385 -0.012099848
0000d0 10 07 43 bc 9d 94 45 3d 26 d2 8e 3c 87 96 a0 3d
       -0.011903539 0.04823743 0.017434191 0.07841211
0000e0 02 ec 26 b9 75 86 9e bc 99 33 9b 3c 8a 1c a1 bc
       -0.00015918913 -0.019351223 0.018945502 -0.019666929
0000f0 66 0d a2 bc 35 03 5b 3d 3c de 7d 3d 09 04 8d bc
       -0.01978178 0.053469855 0.061979517 -0.017213838
000100 bf ba a5 3d 6a c3 06 be 0a 4f df bc 35 2d 3c 3d
       0.080922596 -0.13160482 -0.027259368 0.04594155
000110 a0 33 84 3d 2b 5e 6f bc 92 45 f5 ba cc 9e a1 bd
       0.06455159 -0.014609854 -0.001871275 -0.07891616
000120 99 53 a9 3b 2d df 78 ba b2 59 0a be 3b b1 17 3c
       0.0051674363 -0.0009493705 -0.13510779 0.009258564
000130 18 16 32 bc 81 ca 53 3d 12 82 04 bd fa b2 e2 39
       -0.010869525 0.051706795 -0.032350607 0.00043239427
000140 a3 90 29 bd e0 47 aa 3c ad 6e 54 bc 3e 3e 36 bc
       -0.041397702 0.020786226 -0.01296584 -0.011123238
000150 95 04 07 bd 83 d5 cc bc 9d 06 ea bc 5e b4 07 3c
       -0.032963354 -0.025004154 -0.028567607 0.008282749
000160 89 d4 85 3d 4a 99 7a 3c 3e b4 1f bd 1f d9 2d bc
       0.065346785 0.015295336 -0.03899025 -0.010610848
000170 50 18 c8 bc f6 4a 62 bd 9d 42 a0 bd 2b a2 31 3d
       -0.024425656 -0.05524727 -0.078252055 0.043367546
000180 5c 41 6e bd e3 f9 9b bd 13 90 4d bd 1c c1 37 bc
       -0.0581678 -0.076160215 -0.050186228 -0.011215474
000190 ae 95 54 3b 96 c4 6e bd 8f 38 be 3d 5f f7 dc bc
       0.003243785 -0.058292948 0.092881314 -0.026973424
0001a0 15 44 44 ba 4a d1 a9 3c 66 63 10 bd 5d be 23 bc
       -0.00074869517 0.02072968 -0.035251044 -0.009994117
0001b0 06 da 9d 3c 49 24 e0 3c 5b 71 ee 3a 8d 32 70 3d
       0.019269 0.027361052 0.0018191742 0.05864196
0001c0 5e 1a 42 3d 09 15 31 3d 16 c5 3f bc 5a f6 40 bd
       0.047388427 0.04323295 -0.011704704 -0.04710994
0001d0 7b 9e 5a bd 7f 90 9d b9 fa 2f b2 bb 28 b4 a2 bd
       -0.053373795 -0.00030053032 -0.005437848 -0.07944518
0001e0 b5 ae aa 3d 20 c0 16 3d 2e 85 9b 3d d0 f0 3c 3d
       0.08334104 0.03680432 0.075937614 0.046128094
0001f0 5d 27 35 3d 4b 64 62 bc 9e 0b 8c bb 36 c0 ab 3c
       0.044226993 -0.013817857 -0.004273846 0.020965677
000200 58 b5 f8 bc 4f 2b c0 bc bb fd e5 3b 7f 18 14 3d
       -0.030359909 -0.023458151 0.0070187724 0.036156174
000210 cf b0 28 bb 39 37 02 bd 79 d3 15 3d 27 95 7f 3c
       -0.0025740152 -0.031790946 0.03657863 0.0155995255
000220 c0 41 33 bd 48 9a 6d bc 14 17 39 bd ed 24 a7 3c
       -0.043763876 -0.014502116 -0.045188025 0.02040335
000230 20 d3 8d 3d 0d 23 bd 3c 8f 8b 83 3d c0 9f ed bc
       0.069250345 0.023088003 0.06423103 -0.029006839
000240 62 6c 32 bd a3 ad 0a bd 5c 4f 5d bd 5f b3 19 bc
       -0.043560393 -0.033857 -0.05403076 -0.009381144
000250 c7 d2 8c 3c 29 a6 05 bc dc ed d4 3d a6 82 4e bd
       0.01719035 -0.008157291 0.103969306 -0.050417565
000260 98 5e f0 b9 8b a4 a2 bd 60 9a 3a 3c 7e a0 bf bc
       -0.00045846845 -0.0794154 0.011389345 -0.023391958
000270 af 73 4e bd 17 e0 c4 3c de 8f 98 bc de ed 16 3d
       -0.050403293 0.024032636 -0.018623289 0.03684794
000280 ed a7 6c b9 77 c2 a5 3c 48 17 4c 3c fe ec bf bc
       -0.00022569271 0.02023433 0.012456723 -0.023428436
000290 9c db 01 be 39 31 7d 3c cd 04 70 bd bb 87 ca bd
       -0.1268143 0.01545363 -0.05859833 -0.0988917
0002a0 36 ef 6e bc 56 04 71 bc c3 31 ad 3c 89 18 f7 3d
       -0.0145833995 -0.014710506 0.021141892 0.120652266
0002b0 fd 10 4d bc b1 13 0c bd 84 98 9d 3d 8d ee 35 3d
       -0.012516257 -0.034198467 0.07695106 0.044416953
0002c0 c9 dc 22 3d a0 5d 92 bb c9 8c c3 bc 7e b2 5b bd
       0.03976134 -0.0044667274 -0.023870843 -0.05363702
0002d0 c7 4f c4 38 2c f0 8b 3c 5d d6 8f bd 0a b4 82 3d
       9.360868e-05 0.017082296 -0.070233084 0.06381996
0002e0 cb ae c5 3c 4d 87 ff bb 09 e0 9e bc 8e 88 32 bd
       0.0241312 -0.0077981115 -0.019393938 -0.04358726
0002f0 3d 0c 9d 3b 25 b2 4f bb 83 b6 e1 3d 5c 96 af 3c
       0.0047927187 -0.0031691876 0.110211395 0.021434002
000300 46 45 d3 bc 8b 8f 20 3c 34 be b0 3d 93 f2 b4 3d
       -0.025789868 0.009799848 0.08630028 0.0883533
000310 49 da d1 bc ff bb 79 3c 65 38 40 bc f7 f7 99 bc
       -0.025616782 0.015242576 -0.0117321955 -0.018794997
000320 b4 e8 10 be 9b 9e 13 3b 45 30 f0 3c 62 a6 75 3c
       -0.14151269 0.0022524956 0.029319892 0.014993282
000330 b1 ee d8 bc de f7 22 bd c7 39 9e bd 87 23 67 bd
       -0.026481004 -0.039787166 -0.07725864 -0.056430366
000340 48 69 fc ba 21 11 0a bd ac 4b 89 3d 62 37 87 bb
       -0.001925745 -0.03370774 0.067038864 -0.004126475
000350 00 90 9d 3d 01 69 4f 3d 81 39 c9 bc 15 ab 82 3c
       0.076934814 0.05063725 -0.024563553 0.015950719
000360 27 c9 ca 3b 87 67 9b bd 3b 3f 19 3c c6 b2 21 bb
       0.00618853 -0.07588106 0.009353454 -0.0024673208
000370 f9 60 ff 3b 90 59 62 bd b8 21 10 bd a3 83 3c 3d
       0.0077935425 -0.055261195 -0.035188407 0.046023976
000380 da 07 12 bd bd b6 24 3d f6 e5 df 3d 89 a6 0a bb
       -0.03565202 0.040213335 0.109325334 -0.0021156392
000390 05 05 7c 3d c2 6b 47 3d c4 57 bb 3d 57 f8 9b 3d
       0.061528224 0.04868675 0.09147599 0.076157264
0003a0 8e 91 9e bd ab 15 c6 bc 24 7c b2 bc 49 33 88 bc
       -0.07742606 -0.024180254 -0.02178771 -0.016626017
0003b0 e9 68 1a 3b e1 2e c5 3c 91 33 d0 3c 39 54 1f 3c
       0.0023561066 0.024070205 0.025415214 0.00972467
0003c0 74 cf 84 3d 6f 52 ab bd 56 1b d2 3b 92 34 a7 bd
       0.06484881 -0.08365332 0.00641195 -0.08164324
0003d0 27 35 82 3c 83 34 3c bd 2e 63 9c bb 5f 77 da bd
       0.015894486 -0.045948517 -0.0047725653 -0.106672995
0003e0 2d 0f f1 ba e2 17 09 bd a4 34 ff bc 5c b6 74 bd
       -0.0018391364 -0.033470042 -0.03115303 -0.059744224
0003f0 24 fb 24 3d 34 10 76 bc fe 4d 8b 3c fd 43 71 3d
       0.04027857 -0.015018512 0.017004963 0.05890273

network.2.bias f4 [64]
000000 64 fe f2 3c d6 50 58 3d 31 d7 26 3d 2b ca 30 bc
       0.029662319 0.052811466 0.040732566 -0.010790388
000010 30 62 80 bd bf e2 96 bc dd 52 15 bd e4 4b 80 3b
       -0.06268728 -0.018418668 -0.036455978 0.003915297
000020 f9 66 22 bd bd 35 4d 3d 62 ad d5 bc c8 b1 22 3d
       -0.039648984 0.050100077 -0.026083652 0.039720327
000030 bd 87 27 3d d8 e3 86 bc 45 f2 c7 bb b1 5b 3b 3c
       0.040900934 -0.016466066 -0.006101879 0.011435435
000040 87 50 bd 3b 74 a4 a7 bc b6 e9 52 bd 9b 94 75 bd
       0.005777422 -0.02046416 -0.051492415 -0.059956174
000050 13 87 a0 bc 9e ce 61 bd d1 05 0c 3c cc e2 b6 bc
       -0.019595658 -0.055128686 0.008546309 -0.022324942
000060 66 f6 fd bc 3b 24 3d 3d 20 2d fa 3c fc 6e c6 3c
       -0.031001281 0.04617713 0.030539095 0.024222843
000070 85 e1 5b bd 18 73 2b bd 23 0c 35 bd eb 29 99 ba
       -0.05368187 -0.04185781 -0.044201028 -0.0011685466
000080 e4 dc 53 bd f9 bb 52 3d fe f9 b3 bc b8 8f e0 3c
       -0.05172433 0.051448796 -0.021969792 0.02741228
000090 fc 3e 1a bd 1a 56 01 3d 1d 5d 35 bc e6 1b f8 3c
       -0.037657723 0.031576253 -0.011069563 0.03028674
0000a0 2a ff 48 3d db 1e 0b bd da 9e 54 3c 0d 22 41 3d
       0.04907147 -0.033964973 0.012977326 0.047151614
0000b0 d0 17 0b 3d b4 23 0a 3c 7c c3 a1 bc 35 49 4f 3c
       0.033958256 0.008431364 -0.019746535 0.012651731
0000c0 fb 38 97 3c 8c 97 18 3d 42 43 8f 3b 9c 15 15 bd
       0.018459788 0.0372539 0.0043720314 -0.03639756
0000d0 e4 b8 bd 3a 1d 9f 4f 3c 64 b6 81 3c 40 2d ec bc
       0.0014474657 0.012672213 0.015834041 -0.02883017
0000e0 8c 3e 0d 3d 38 a0 62 3d 12 e3 f7 3b 2d eb ba bc
       0.034483477 0.055328578 0.0075649107 -0.022817219
0000f0 79 25 6e bd a7 ff 06 bd 5c 6b 34 3d 01 a9 87 3c
       -0.058141205 -0.032958653 0.0440477 0.01656008

network.4.weight f4 [64, 64, 3, 3]
000000 af 98 e0 3c 4c 6e 9b bd c1 a7 75 bb 5c b6 00 3d
       0.027416555 -0.07589397 -0.0037484022 0.03142391
000010 26 e5 13 3d da 78 9b 3d e7 58 f1 bc 48 42 26 bc
       0.036107205 0.0759141 -0.029461337 -0.010147639
000020 b3 3d 1c bc ac 70 4f 3d 28 c5 88 bc 26 f7 16 bd
       -0.009536195 0.05064456 -0.016695574 -0.036856793
000030 00 87 c7 bc 8b 62 cf bc 85 39 76 3d c8 fc 5d bc
       -0.024356365 -0.025315544 0.06011345 -0.013549037
000040 4d 60 59 bd f3 93 07 3d 87 fb 64 3d a1 64 28 3c
       -0.053070355 0.03310008 0.055903938 0.010277898
000050 2a de 3a bb a8 ce 91 ba 56 68 e0 3c 06 bc 35 3d
       -0.0028513768 -0.001112421 0.027393501 0.044368766
000060 1d d8 07 3d f9 dd 64 3c 8f b7 3b 3d 91 91 87 3c
       0.033165086 0.013968938 0.045829352 0.016548904
000070 fb 07 22 bb f3 f3 41 bc bf 76 bc 3d 73 3f 66 3d
       -0.0024723995 -0.011837947 0.092023365 0.056212854
000080 fd 2f 1d 3d de b6 26 3c b5 37 55 bd f9 7c 4f bd
       0.038375843 0.010175435 -0.05205508 -0.050656293
000090 c3 09 bd bc a1 ed b6 3c 8d 59 b8 bb 74 cb 2d bd
       -0.023075944 0.022330107 -0.0056259097 -0.042430356
0000a0 12 b8 fb 3c 06 93 01 bd 6d 4b 16 3a 8c 34 0a bd
       0.03072742 -0.031634353 0.0005733285 -0.03374152
0000b0 67 a4 27 3c ee 29 19 3d 7f ae 05 3b 23 1c 03 3d
       0.010232068 0.037393503 0.0020398197 0.032009255
0000c0 8c 9e 65 bb 97 7a 7b 3d f1 76 b1 3c 33 ed 7f 3d
       -0.0035037128 0.061396208 0.021663161 0.06248207
0000d0 3b ad cd bc 28 ec 3e bc d8 84 9c 3c 20 3f 15 ba
       -0.025107017 -0.011652984 0.019106314 -0.0005693305
0000e0 4f 67 04 bd 74 12 d2 bb 51 3f d5 b8 2d 70 e3 b9
       -0.032325085 -0.006410891 -0.00010168425 -0.0004338039
0000f0 93 e1 7f 3d 5c 8a 09 3b 24 d5 4e 3d c0 6e 43 3d
       0.062470984 0.002098701 0.050496235 0.04771304
000100 50 4c ad 3c 27 69 47 bc 17 19 83 3d e9 97 c6 bc
       0.021154553 -0.012171066 0.0640127 -0.024242358
000110 20 4e 2b 3c 82 48 4c bc 42 c1 be bc 35 91 91 bd
       0.010455638 -0.012468459 -0.023285512 -0.07107774
000120 3b ee 83 bd 0c 78 77 bd 98 c0 0d 3d 89 6e 4d bd
       -0.06441923 -0.06041722 0.0346075 -0.050154243
000130 3d e6 3f bb c4 f3 ec 3c 05 12 81 3c 4a 5c 1a bd
       -0.002928152 0.02892483 0.015755663 -0.03768567
000140 e3 60 19 bd ce d8 10 3d a3 1b bc bc e6 d2 c8 3b
       -0.037445914 0.03536301 -0.022962397 0.0061286567
000150 e8 8a 0f bd df 8c 55 bd cb f3 d3 bc aa ef f5 3c
       -0.03504458 -0.0521363 -0.025873085 0.030021507
000160 7e 60 2b 3d 62 31 a9 3d b9 31 cc 3d f1 ed c2 bc
       0.04184007 0.08261372 0.09970421 -0.0237951
000170 46 8c 16 bd 4c f4 dd bb bc bf ca bc 58 fd 27 bd
       -0.03675487 -0.006773507 -0.02474963 -0.04101309
000180 f3 e8 8f 3c 09 83 b6 bc de 74 73 bd 97 cd 8c 3c
       0.017567134 -0.02227928 -0.059437625 0.017187877
000190 e7 d5 29 bc d4 b7 67 bd ac fa 99 3d 51 44 78 bd
       -0.01036594 -0.056571797 0.07518515 -0.060612027
0001a0 ce 48 86 3d 7f 21 06 3d ff 0d b0 3c 5d de f5 3c
       0.06556855 0.032746788 0.021491049 0.030013258
0001b0 92 b4 af bc b6 7a a8 bd 88 f9 39 bd ef 21 da bc
       -0.021448407 -0.0822653 -0.045403987 -0.026627509
0001c0 c3 51 8e 3c f1 33 86 3d 4d 01 58 bd 18 8f 32 bd
       0.017372971 0.06552876 -0.052735616 -0.043593496
0001d0 99 f4 79 bd 7e e9 2e 3d 96 e1 38 3c 17 1a ba 3c
       -0.061024282 0.042703144 0.011284253 0.022717519
0001e0 d9 78 90 bc b9 92 da 3a 09 cf 6b 3d db 78 04 bd
       -0.01763575 0.0016675807 0.05757049 -0.03234182
0001f0 67 41 70 3d fd 0a 81 3d 8a 57 46 3c 41 87 c3 bd
       0.058656123 0.06300924 0.012105832 -0.09547282
000200 38 db 52 3a 14 cb 33 bd c1 99 1b bd 19 f0 af bc
       0.00080435304 -0.043894842 -0.037988428 -0.021476792
000210 80 77 9e bd c1 49 fa 3c 0b d3 0e bd a1 b9 a4 3c
       -0.077376366 0.030552747 -0.034869235 0.020108046
000220 72 7e 4d bd 2e 40 3b 3c fa ca 0b bc bf 39 f4 3c
       -0.050169416 0.011428876 -0.00853228 0.029812692
000230 c1 66 37 3d b5 0a 1e 3d 9d 61 72 bd 93 ae d7 bc
       0.044775728 0.03858443 -0.059175123 -0.02632836
000240 cf fb 88 3d 13 06 9e bd 4d fd aa 3b c9 1a 0e 3d
       0.06688654 -0.07716002 0.005218184 0.034693513
000250 bd fb eb bb 87 79 8b bd 16 9a 05 bd 00 32 9b 3b
       -0.0072016404 -0.06810289 -0.03261765 0.004736185
000260 78 34 2c bd 34 3f e0 bb d2 d4 b2 bc b8 d2 57 3d
       -0.042042226 -0.006843472 -0.021829996 0.05269119
000270 1d fc 87 3d 1b a1 77 39 be 27 77 3d 3e 02 75 3c
       0.06639884 0.00023615772 0.060340635 0.014954148
000280 21 b8 7c 3d fa 33 5f 3d c6 1a 7e 3d 8a f5 8e bd
       0.061699037 0.054492928 0.062037252 -0.069804266
000290 1b 18 a7 3c a3 a5 32 3c 23 54 2b 3d fe e7 bb 3d
       0.020397237 0.010903749 0.041828286 0.091751084
0002a0 b6 ed fa bb 79 7e 5c bc 43 69 a6 bd ec 7b 55 3d
       -0.007657732 -0.013457888 -0.08125546 0.052120134
0002b0 83 78 17 bc 22 ab 63 bd 6c 81 13 3d 14 40 7c 3d
       -0.009245041 -0.055583127 0.0360121 0.061584547
0002c0 32 45 30 3d a4 e6 d3 3b 56 01 9e 3c 66 d9 a2 3d
       0.04303474 0.0064667035 0.019287746 0.07951622
0002d0 2d bb 99 bb 38 0f 0e 3d 2b 66 b4 3b 8a 41 18 3d
       -0.0046915025 0.034682482 0.0055053434 0.037171878
0002e0 ab 9d 98 bc f8 f9 10 bc 6f 05 20 3c 1f b8 eb bd
       -0.01862987 -0.00884866 0.0097669205 -0.11509728
0002f0 66 ef c1 3a 50 10 9e 3d 32 14 1c 3d 38 fe 9a bd
       0.0014796078 0.07717955 0.038105197 -0.0756802
000300 fb a5 0e 3d af ff b3 3c 21 99 64 3d 87 3e 94 bc
       0.03482626 0.021972505 0.055810098 -0.018096222
000310 5c a6 1f 3d 23 76 cb 3c 83 fe b0 3d b4 7d 85 bd
       0.038977012 0.024836605 0.08642294 -0.065181166
000320 c8 51 4f bc ec 85 9d 3c 35 e0 30 3b a5 64 54 3d
       -0.0126537755 0.019228898 0.0026989107 0.051853795
000330 5b 40 43 3b 44 65 cb bc ea 19 b8 bd a5 06 60 bd
       0.0029792998 -0.02482856 -0.08989318 -0.054693837
000340 5a 15 2c 3e c1 5d df bd 3c 29 43 bc ab c5 be 3d
       0.1680502 -0.10906554 -0.0119116865 0.09315046
000350 71 32 16 bd 55 3f 25 3d 0d 15 b6 3c af f8 93 bc
       -0.0366692 0.0403436 0.022226835 -0.018062918
000360 7e 5d 49 bc 90 97 cb bc f4 f6 cc 3b be 51 7b 3d
       -0.012290357 -0.024852544 0.006255025 0.061357252
000370 0c 0c 88 3d 08 93 78 3d 03 35 dd bc 41 96 9d 39
       0.06642923 0.060687095 -0.027002817 0.0003005732
000380 63 06 c1 3c 46 20 b2 bc c4 55 2a 3d 8d 01 1f bd
       0.023562616 -0.021743905 0.0415857 -0.03881984
000390 7e 24 06 bc 6c 1a a3 3c c7 b5 28 bd 6b c2 80 bc
       -0.008187411 0.01991006 -0.04118898 -0.015717706
0003a0 4f d9 8a bc e6 6b 16 3d eb e1 40 3d 84 dd 34 bd
       -0.016949324 0.036723994 0.047090452 -0.044156566
0003b0 58 25 bc 3c 28 e9 2f 3d db 33 76 bd f1 ab 63 3c
       0.022967026 0.042946965 -0.060108047 0.0138959745
0003c0 55 86 48 3d ff c7 8d 3c bb fb 9e bd 96 ed 46 3d
       0.048956234 0.01730728 -0.077628575 0.048566423
0003d0 37 a8 91 bd d9 24 31 3d 6c 7d af bc 22 a3 99 bd
       -0.071121626 0.04324803 -0.02142211 -0.07501818
0003e0 6b 7c e3 bc 9d 65 48 3d 3f 85 4e bd 47 d5 ca 3b
       -0.027769288 0.04892503 -0.050420042 0.0061899754
0003f0 3b 99 0c 3c ea 10 92 3d 7f d8 af bc c1 ea 01 3d
       0.008581455 0.07132132 -0.021465538 0.03171802

network.4.bias f4 [64]
000000 8c 59 0f 3d 67 6d ff 3a d7 9c ac bb cf 9d 23 3d
       0.034997508 0.001948756 -0.00526772 0.03994542
000010 cb d9 d8 bb 03 ac d8 bb 15 3e 0d 3d 66 2c ea bb
       -0.00661776 -0.0066123023 0.034483034 -0.007146406
000020 73 7a e4 3a df 3e c0 3c 83 88 7d 3b 0e 1b 99 bc
       0.0017431512 0.02346748 0.0038686104 -0.018689658
000030 aa 57 0b 3c f2 86 d7 bc 0c 80 23 bb f1 a7 25 3d
       0.008504787 -0.026309464 -0.0024948148 0.040443365
000040 2c 61 18 3d fa 72 e5 ba 85 0d 20 3d 00 12 2e 3c
       0.037202045 -0.0017505579 0.039075393 0.010624409
000050 dd c7 51 3b 57 2d a2 3c 33 52 e5 3c 20 bf bc 3c
       0.0032009997 0.01979701 0.027993297 0.023040354
000060 1a 36 74 bc 66 3d d8 bc b1 5c 79 3c 72 c0 bb 3c
       -0.014905477 -0.026396465 0.015219853 0.022918914
000070 d7 03 0e bd c8 f7 06 3d 5b 16 2e 3c 8f 9b 04 bd
       -0.03467163 0.032951146 0.010625447 -0.032374915
000080 7c d1 c0 3c 35 49 74 3c e7 91 5b bc ba 32 5d 3d
       0.02353739 0.014910032 -0.013401485 0.054003455
000090 76 a1 bf bc 70 da 23 3d 66 17 e7 bc 69 03 c7 bc
       -0.02339242 0.04000324 -0.0282094 -0.024293618
0000a0 b0 ab 18 bd 72 d3 24 bc e2 dc 01 3d 3a d7 b4 bc
       -0.03727311 -0.010060178 0.03170479 -0.022075284
0000b0 a8 53 41 bd 0d 53 a8 bb d8 3a c2 3c af 53 a3 bc
       -0.04719892 -0.0051368535 0.0237097 -0.019937364
0000c0 14 3d cd bc 79 b3 10 3d 44 b9 56 3d 70 65 4b 3c
       -0.025053538 0.03532741 0.052422777 0.012414321
0000d0 e4 06 33 bd 91 90 ef bc ae 6b 4d 3c f2 12 2a 3c
       -0.043707743 -0.02924374 0.01253788 0.0103804935
0000e0 be 2f 12 3d 82 e7 72 3c cf cc 9d 3c b3 79 34 3b
       0.03569006 0.014825704 0.0192627 0.0027538359
0000f0 65 ed 41 3d 79 72 5a 3c e1 77 42 bd a4 4a 55 3b
       0.047345538 0.0133329565 -0.047477607 0.003254571

actor.weight f4 [5, 3136]
000000 7a b5 a4 bc 37 f1 d8 bc 7c e3 33 bd 4a b3 30 bd
       -0.020106066 -0.026482208 -0.043918118 -0.043139733
000010 6a de 78 bc 44 81 ca bc 6b 0a ed 3c ee db 83 3c
       -0.015189746 -0.024719842 0.028935632 0.016096082
000020 5f 25 95 3b 7f 8c dc 3c 90 9d 4d bc f2 e7 af bc
       0.004551574 0.026922463 -0.012549773 -0.021472905
000030 28 79 01 bc 3b e7 95 3a 8d a0 4c 3c f2 45 df 3c
       -0.007902421 0.001143671 0.01248945 0.027255032
000040 52 e3 ad 3c ba bd 20 bc f3 41 f4 bb 3d 5d 64 b9
       0.021226559 -0.009810859 -0.007454151 -0.00021778508
000050 7e 38 05 bc 0d 43 27 3d 04 af 14 3d c1 67 e7 3c
       -0.008131145 0.04083543 0.03629972 0.028247716
000060 4d 8b e2 3c 33 12 c0 3b 4b 2b fb 3b a1 59 1d 3c
       0.027654314 0.0058615445 0.007665073 0.009603889
000070 2e a4 92 3c d0 d9 2f 3c 5d 52 66 3c 9e cc 06 bb
       0.017900553 0.010733083 0.014057723 -0.0020568739
000080 4e 59 00 bc ed 3e 97 bb 0e 60 2d 3a e1 44 90 bc
       -0.007833792 -0.0046156556 0.00066137395 -0.017610969
000090 18 52 04 3d 86 bf 14 3d 2e b5 28 3d 58 e5 5c 3c
       0.032304853 0.036315463 0.04118841 0.013482414
0000a0 23 79 a2 bb f2 6d dc bb 7b 71 b4 bb 64 5b 1a 3b
       -0.0049582883 -0.0067269737 -0.005506692 0.0023553008
0000b0 b4 64 96 bb 22 17 ba 3c d5 47 01 3c 0a b8 99 3b
       -0.0045896415 0.022716109 0.007890661 0.0046911286
0000c0 ba 24 4c bc 5f 72 47 bd 8c 85 b0 3b 2a 93 37 bd
       -0.012459928 -0.048693057 0.005387014 -0.04481808
0000d0 27 50 81 bd 3f 8b a8 bc cb 64 30 bb 44 39 79 bc
       -0.06314116 -0.02057421 -0.0026915546 -0.015211407
0000e0 ea 2f 10 3b 10 73 a3 3c e0 73 b1 3b 4e 1e fd 3c
       0.0022001215 0.019952327 0.0054154247 0.03089824
0000f0 5b 11 f6 3b 5e cd 8d bc 15 94 8e bc d5 97 a6 3c
       0.007509393 -0.01730984 -0.017404595 0.020336071
000100 ed 14 02 3d 76 3b b5 3c a2 be 9c 3c b4 db 9f 3c
       0.031758238 0.02212308 0.01913387 0.019513942
000110 d1 77 70 3c 84 8a 62 3c 1f 87 40 3d f6 b5 e0 3c
       0.014677004 0.01382697 0.04700386 0.027430516
000120 1c 96 cb 3c f3 ca e6 3c 43 09 9d 3c 83 6d 01 3c
       0.024851851 0.028172946 0.019169455 0.007899645
000130 9a 13 d8 3c aa 22 c1 bb 6b b4 c2 bc 88 13 80 3b
       0.026376534 -0.005894025 -0.02376767 0.0039085783
000140 93 bf 9b 3b 9a c8 50 3c a4 72 64 bb 67 87 c4 3b
       0.004753062 0.01274314 -0.003485837 0.0059975865
000150 a7 16 7b 3d ff 34 f6 3c a5 d6 d6 bc f6 39 c8 ba
       0.0613009 0.030054567 -0.026225397 -0.0015276063
000160 9d 87 0d 3b a5 31 c6 3b 4d 63 08 b9 ea 7e b5 bb
       0.0021595724 0.0060483986 -0.00013006963 -0.005538811
000170 a5 8e 3a bc df aa cb bb e9 b8 5d bb c3 47 3f 3c
       -0.011386548 -0.006215438 -0.003383214 0.011674824
000180 09 76 80 3c 48 68 48 3c 05 cd 85 3b f6 6f 97 ba
       0.015681284 0.012231894 0.004083278 -0.0011553753
000190 b1 10 95 bb 68 de 2a 3c fc 7a a3 b9 2a a9 9c 3c
       -0.004549109 0.010429002 -0.00031181413 0.019123632
0001a0 b9 33 a2 bb 04 19 72 3c ee 63 7d 3c d3 c2 0c 3c
       -0.0049500135 0.014776472 0.01546572 0.008591372
0001b0 5c d9 f5 3b e2 0b 3a 3c cb 29 38 3b c0 54 7f bb
       0.007502718 0.011355372 0.0028101082 -0.0038960427
0001c0 48 a1 d5 3b 98 ce 9e bb 61 fa ad bc a0 47 0f bc
       0.0065194704 -0.0048464052 -0.021237554 -0.008745104
0001d0 2d 5e 6b 3c 5f 80 11 bc 7c 3c 26 bc 12 73 12 3c
       0.014365715 -0.008880704 -0.010146257 0.008938568
0001e0 cb bb 8b 38 23 c0 f5 bb 72 26 01 bd 69 92 29 bc
       6.663016e-05 -0.007499711 -0.031530805 -0.010349848
0001f0 89 85 0b bc b0 0a da 3b e5 c1 1f bc 1a e4 65 bb
       -0.008515724 0.006654106 -0.009750818 -0.0035078586
000200 eb 13 9b 3b 55 75 ee 3b d0 b4 82 ba 52 2d 89 bb
       0.004732599 0.0072771707 -0.0009972099 -0.004186311
000210 eb dd 9e ba 71 dd f1 bb 0e 54 4e bc 11 69 5c bb
       -0.001212058 -0.007381134 -0.012593282 -0.003363196
000220 62 ff fa 3b bf ce 83 3c f1 fb 2a bc 77 ec 25 bc
       0.0076598385 0.016089795 -0.010436044 -0.010127178
000230 17 fb 82 3c 81 3f 7a 3c de 84 38 3c ec a3 9c 3a
       0.01598887 0.01527393 0.011262147 0.0011950708
000240 74 69 d8 bb ff a2 5c bc a8 75 7a bc 47 0e 75 3c
       -0.006604368 -0.013466596 -0.0152868405 0.014957017
000250 0d 59 8b bc 1b 9e dc ba 1c 8c 68 3a b5 bc 33 3c
       -0.017010236 -0.0016831787 0.00088709756 0.010970284
000260 10 63 6e 3c 21 f5 7f bb 69 eb e1 3b 14 ff 75 3c
       0.0145499855 -0.003905602 0.006894518 0.015014429
000270 db 7a 62 3a 17 47 a8 3a 95 a4 87 b9 a4 36 09 3c
       0.0008639523 0.0012838569 -0.0002587183 0.008374844
000280 94 40 42 bc 77 8b 4c 3c 6a ad 9a 3c 95 18 29 3b
       -0.011856217 0.012484423 0.018881518 0.0025802006
000290 f6 82 2a 3c bc 59 59 3b a2 aa bc bb de 11 39 bb
       0.0104072 0.0033165058 -0.0057576457 -0.002823941
0002a0 73 16 15 3d 12 89 27 3d 97 b4 85 3c 3a 48 14 bb
       0.036398362 0.040902205 0.016321464 -0.0022626058
0002b0 60 d1 e2 3b 03 86 38 3c ee 3e 75 3c 9e 81 8e 3c
       0.006921932 0.01126242 0.014968617 0.01739579
0002c0 36 55 98 3a 39 e7 00 bc 17 ad 4e bc 33 0a 84 3b
       0.0011622075 -0.007867628 -0.01261451 0.004029536
0002d0 e9 9f 1f 3b d7 ee 04 3a 02 30 d7 3c 3c 40 01 3c
       0.0024356788 0.00050709903 0.02626801 0.00788885
0002e0 e4 7c 0c 3b 14 d4 ba bb 13 08 97 bb 7e b7 4b 3b
       0.0021436745 -0.005701551 -0.004609117 0.0031084712
0002f0 a7 fa e0 bb 78 75 be 3c dd 4a 4e 3c ee 5c f7 3c
       -0.0068658176 0.023249373 0.012591091 0.03019568
000300 f6 7f 35 3c d8 82 f7 3a 55 a0 48 bc 43 e5 61 bc
       0.011077872 0.0018883599 -0.012245257 -0.01378757
000310 d3 5b 2e bc d0 b7 36 bc 07 b0 03 bd 41 9c a0 bc
       -0.01064201 -0.011152223 -0.032150295 -0.019605758
000320 d5 6e 0b bb bb ba 8f b8 4f 6e 09 3b 7a 02 b4 bb
       -0.0021275778 -6.8535526e-05 0.002097029 -0.0054934593
000330 f4 a2 2b 3b dc a1 a5 3c 94 b2 f0 bb 68 bc 0a bc
       0.0026189657 0.020218782 -0.007345507 -0.008467771
000340 93 52 ac 3b ce e5 7f bc 96 c6 ea 3c 51 a1 54 3c
       0.005258867 -0.015618755 0.028659146 0.012977914
000350 6e ad ce 3b f0 ed c5 bb bf 39 b4 bc 44 b7 e1 3c
       0.0063072955 -0.0060403273 -0.022000192 0.027553208
000360 68 91 c1 3c e8 ad d4 3c a5 93 9f 3c ba 96 16 3c
       0.023628905 0.025961831 0.019479582 0.009191209
000370 ed 81 12 bc a1 58 bf 3c 9a ab 18 3b 58 76 c2 ba
       -0.0089421095 0.023357691 0.0023295642 -0.0014836295
000380 21 72 ce 3b 72 64 09 3c 0d 73 98 3b ee ed fc bb
       0.0063002263 0.008385764 0.004652387 -0.007718793
000390 fd 39 14 bc e5 97 b0 bc dd 96 0d bc 5f 40 10 bc
       -0.009047029 -0.021556804 -0.008641926 -0.00880441
0003a0 1d ca f8 3c 35 c2 ff 3b 4a ba e9 bc d1 79 99 3c
       0.030369813 0.0078051337 -0.028531212 0.018734844
0003b0 95 f9 d4 ba 36 fc 8d bc f0 c4 2b bc ac e0 81 3c
       -0.0016248698 -0.017332178 -0.010483965 0.015854202
0003c0 e5 69 05 3d 3d 2b 41 3d eb 81 b2 3c 4b 40 42 bb
       0.032571692 0.047160376 0.021790465 -0.0029640372
0003d0 eb 92 f0 3b cd dc 20 3b 79 7f 6e bb e0 9f 0c bc
       0.0073417327 0.002454567 -0.0036391898 -0.008583039
0003e0 b9 43 fc 3a 4d 0a c0 3c 0b 2c 1b 3c 48 20 0f bc
       0.0019246257 0.023442412 0.00947095 -0.008735724
0003f0 24 3b 03 3c 99 ae 8d bc 3a 77 ec bc 5d 74 bd bb
       0.008009706 -0.017295169 -0.028865445 -0.005781694

actor.bias f4 [5]
000000 2c 60 da bb 79 c5 bc 3b e1 5d 04 3c 62 85 e9 3b
       -0.0066642966 0.0057608453 0.008079023 0.007126496
000010 f9 54 fe 3a
       0.0019403986

critic.weight f4 [1, 3136]
000000 f8 e8 2a bc 10 9a b9 3d 8a 00 9f 3d f4 c0 cf 3d
       -0.010431521 0.09062588 0.07763775 0.10144225
000010 86 6b 4e 3d 00 2b 26 3a 9e 47 c2 bb a1 2a df bd
       0.05039551 0.0006338805 -0.0059289476 -0.10896803
000020 0d 44 09 bd 32 89 9f 3c 06 78 4f 3d 79 c0 a4 bd
       -0.033512164 0.0194746 0.050651573 -0.08044524
000030 4f 0f fb bc 1b 50 95 bb 83 b7 01 bd 54 ea 38 3d
       -0.030646948 -0.0045566685 -0.03166915 0.045145348
000040 f7 58 09 bb 4a 9b 61 3d 17 51 dc 3c 12 54 57 bd
       -0.0020957568 0.055079736 0.026894135 -0.05257041
000050 43 1a 7d 3c 0e 30 ee bc ae b1 a5 3c 01 b3 9e 3c
       0.015448156 -0.029075649 0.020226326 0.019372465
000060 f3 11 a1 3c 18 10 16 bd d6 a4 ef bc 0d a3 74 3c
       0.01966188 -0.036636442 -0.029253405 0.014931452
000070 8d fe b8 3c 77 9d 58 3c 49 7a c4 3c 57 69 45 3d
       0.022582317 0.013221136 0.023984091 0.048196163
000080 fb bd 7f 3c fd dc 47 bc 72 88 cb bb 49 9e d1 3b
       0.01560926 -0.012198684 -0.006211334 0.006397043
000090 b5 e4 b3 bc 68 2e f6 3c db b6 d3 bc 70 84 c6 bc
       -0.021959642 0.030051425 -0.025844028 -0.024233073
0000a0 c6 3e e2 3c 57 5a 7b 3d 80 69 7d bc 44 b2 84 bc
       0.027617823 0.06136545 -0.015467048 -0.016198285
0000b0 90 fc 36 bd 5e 63 b5 3c e7 4b 5b bd bb 31 81 3b
       -0.044674456 0.022142109 -0.053539183 0.003942696
0000c0 53 9a 1c 3d 69 39 75 bd db 3c bd bd e5 4b e0 3c
       0.038233113 -0.059869204 -0.09240123 0.02737994
0000d0 99 bf fa 3d 28 05 b0 3d 8a f8 7d 3d 0a a5 5a 3d
       0.122435756 0.085947335 0.062004603 0.05338005
0000e0 a0 46 45 3d 38 9b d2 bc ad c5 93 bd b9 f3 a6 bd
       0.048163056 -0.02570878 -0.07215438 -0.08151955
0000f0 d2 30 d7 3c 7c 04 ef 3c b3 1e e2 3a f2 15 e1 bc
       0.026268397 0.029176943 0.0017251581 -0.027476285
000100 07 9b 4b 3c 22 fb f6 3c 73 c7 91 3b ad 14 e7 3c
       0.012427098 0.030149046 0.004448825 0.028208101
000110 61 c3 29 bd ca 27 32 bc 55 46 17 3d 6d dc d4 bc
       -0.041446093 -0.010873744 0.03693231 -0.025984013
000120 6d 5c ab bd 71 7f 0b 3e 25 a1 81 3d b9 ab e8 bc
       -0.08367238 0.13622834 0.06329564 -0.028402196
000130 e5 88 23 3c c9 dd 87 bc 18 f2 8d bb cd 9d 8a 3b
       0.009981369 -0.016585248 -0.0043318383 0.004230237
000140 1b 0c 24 bb fd 38 cd 3b 6b 9b 76 3c 43 26 e4 3c
       -0.002503163 0.006262897 0.015051703 0.027850276
000150 53 51 23 bd d1 b6 18 bd 8e b8 3f bd 1c 0b eb bb
       -0.03987248 -0.037283722 -0.046806864 -0.007172955
000160 d9 d4 17 bd a5 de 10 bd 2e 72 94 3b d9 42 1f 3d
       -0.03706822 -0.03536858 0.004530213 0.03888211
000170 ad a6 97 3d 86 16 a1 3d 93 cf 84 3d f1 96 1c 3d
       0.07404838 0.07865624 0.06484904 0.038229886
000180 61 c1 9d 3d ca b2 78 3a 30 1c 43 3d 85 72 45 3c
       0.077029 0.0009487091 0.047634304 0.012051229
000190 6f 3c a7 bc b5 97 dd bc f5 46 0b bd 82 ac 48 3b
       -0.02041456 -0.027049879 -0.034003217 0.00306204
0001a0 d5 22 2b bd 85 85 66 3d c1 fe be bb 98 b7 d4 bc
       -0.041781265 0.056279678 -0.005828709 -0.02596645
0001b0 4c 6c 7f bd 65 d0 9f bc 25 d3 6a bc 11 ba 01 3d
       -0.06235914 -0.01950855 -0.014332567 0.031671587
0001c0 56 9a 9d 3d 8c 3b 84 3d 48 18 1f 3d 41 cc ff bb
       0.07695453 0.0645667 0.038841516 -0.0078063314
0001d0 ac 6a cb 3c 12 a4 b7 3d b7 83 c2 bc dc a7 c3 3b
       0.024831139 0.08966841 -0.023744447 0.005970938
0001e0 c3 93 42 3b c5 96 ac 3c 20 48 d4 3c a4 4b 55 3d
       0.0029690124 0.021067986 0.025913298 0.05207409
0001f0 e9 74 bf 3d 6a d7 77 3d b4 90 88 3c b1 91 2c 3d
       0.09348471 0.06050817 0.016670562 0.04213113
000200 71 99 0e 3d a8 79 b3 3d ad 6c 99 3d fe 66 7e 3d
       0.034814302 0.087634385 0.074914314 0.06210994
000210 de 6c b4 3d 96 d0 7f 3c 2a 59 51 3c 18 c3 87 3d
       0.08809827 0.015613696 0.012777606 0.06629008
000220 8e 54 14 bc bb cf 7c 3d 16 a7 a0 3c 65 76 bd 3b
       -0.0090533625 0.061721545 0.019610923 0.005781936
000230 5c 1d 12 bd 44 b8 63 bd b2 fa 1e bd 42 67 bf bd
       -0.03567253 -0.05559565 -0.0388133 -0.09345867
000240 ef d6 24 bd 3a 78 15 bc 83 1e 2e 3c 4d a6 34 3d
       -0.04024404 -0.0091229025 0.010627392 0.04410391
000250 85 7d fc bb dd fc 9f bc 2f 13 ff bc 3b 70 48 bc
       -0.007705393 -0.019529754 -0.031137077 -0.012233789
000260 81 ce b0 bc 44 0b 04 bd 2b 05 18 bd 4a bf 19 3c
       -0.021582844 -0.032237306 -0.037114304 0.009383986
000270 de cf 59 3c 2d 2e 9a bc 3f 88 71 bd 9d 53 85 3c
       0.013294188 -0.018820846 -0.058967825 0.016275221
000280 47 dd b9 bc 81 8d 3a 3c 0c 7f b1 3d 2f a2 2e 3d
       -0.022688521 0.011386276 0.086668104 0.04263514
000290 d6 3d 3d bd bd e3 64 bd f2 76 4d bc 5a 32 7a bc
       -0.04620155 -0.05588125 -0.012540566 -0.015270794
0002a0 18 41 97 3d 39 38 c7 3a c7 cd 42 bd aa 81 31 3b
       0.073854625 0.0015199251 -0.047559526 0.0027085342
0002b0 cb e9 c8 ba 71 8c cd bc cf 88 bd 3d bc 85 00 bd
       -0.0015328465 -0.025091382 0.0925461 -0.03137754
0002c0 b2 f1 f4 bc 40 84 19 3b 2d 5a bf 3c fc 1b 33 3d
       -0.029900406 0.0023424774 0.023358429 0.04372786
0002d0 31 51 0c 3d fc 58 b7 3d 9e b8 f3 3a 75 7f 86 3d
       0.034257118 0.08952519 0.0018594449 0.06567279
0002e0 ee 24 39 3d a8 12 24 3c 3f 2c 90 3c ac 19 11 3d
       0.045201235 0.010014214 0.017599223 0.035424873
0002f0 dc 7d b1 3c 8f 26 ae bc da 68 78 bb eb 31 64 bb
       0.02166646 -0.02125862 -0.0037904293 -0.0034819792
000300 1f ba 4f bd 29 37 6f 3c 0e b7 5c 39 70 82 41 3b
       -0.05071461 0.014600554 0.00021049028 0.002952721
000310 a1 e4 06 bd e4 c0 76 3d 9b 89 a5 3d 12 1d 25 3d
       -0.03293288 0.06024255 0.08082887 0.040310927
000320 45 02 29 bd 61 7f 20 bc 23 02 19 3d 32 42 ae bd
       -0.04126193 -0.0097959945 0.037355553 -0.085087195
000330 24 5d 30 bc 4d 4f 58 3d e4 7b c6 bc 7f 13 8d bd
       -0.010764394 0.052810002 -0.024228998 -0.06888484
000340 a5 36 4c 3d 73 60 58 bc c9 3b e1 3c ff 52 89 3d
       0.0498568 -0.013206589 0.027494328 0.067052834
000350 d1 5c 08 bd b2 07 29 3d 1a 6c 36 3c ae 54 d2 bd
       -0.03329164 0.041267104 0.011134172 -0.102700576
000360 46 48 3a 3c ef f7 7d bc 6b cb 72 bc 0e 27 43 3d
       0.01136977 -0.0155010065 -0.014819006 0.047644667
000370 7e 55 4a 3d 88 87 69 bd 5e 00 2f 3c 88 ec ec 3d
       0.049397938 -0.05701402 0.01068124 0.11568552
000380 61 db 14 bc 9e ca 5c 3d 6c df 78 3c f8 9b f3 bc
       -0.009085507 0.05390417 0.015189987 -0.029737458
000390 f4 ea 4f bc 2a 86 47 bd 1f 32 85 3d 00 77 2a bd
       -0.0126902945 -0.048711933 0.065037005 -0.041617393
0003a0 5c 77 11 3d c6 1f 38 bc 6d cf 26 bd 9a 37 cd bc
       0.03551422 -0.011238044 -0.04072516 -0.025050927
0003b0 e4 d2 bb bc b8 fc 48 bd 17 ba 23 bd 56 6d 4d bd
       -0.022927709 -0.049069136 -0.03997239 -0.0501531
0003c0 f0 b3 ea 3c ca 1c af 3b cd 68 c2 bc 8c 0a 5a 3d
       0.028650254 0.005344008 -0.023731614 0.053232715
0003d0 3f 3b 93 bd b4 12 31 3d 51 76 ac 3c 5d 72 84 3d
       -0.07189035 0.043230727 0.021052511 0.064671256
0003e0 4e 6a 95 3d 9a f3 a6 3b 61 01 5b 3a 4f 8c 49 bc
       0.07295667 0.0050949575 0.00083543925 -0.012301519
0003f0 20 92 67 bc 9a 35 2e 3d 26 ee 6c 3c 11 7f ee 3c
       -0.01413396 0.042531587 0.014461076 0.029113324
