PARALLEL/models/PRED_GROUP_POLICY_BOTH_INDIV_RWD_ROUND2bis_1000.ckpt (torch, 307496 bytes, 9 tensors)

network.0.weight f4 [32, 5, 3, 3]
0	0x3dcf1405	0.1011124
1	0x3dacbe36	0.08434717
2	0xbd1bcbe2	-0.038036235
3	0xbddafe68	-0.106930554
4	0xbc76f15c	-0.015072193
5	0xbdb9c8d5	-0.09071509
6	0x3d754919	0.059884164
7	0xbd625204	-0.055253997
8	0xbe148d66	-0.14507064
9	0xb8c6438a	-9.453956e-05
10	0x3e2cc638	0.1687249
11	0x3e624c66	0.22099456
12	0x3e1d16bf	0.15340708
13	0x3e04eb41	0.12980367
14	0xbcd37d67	-0.025816632
15	0x3e33b6dd	0.17550226
16	0xbdae77b5	-0.08518926
17	0x3e771dc8	0.24132454
18	0xbe6f1f4e	-0.23351786
19	0xbd8183b1	-0.06323946
20	0xbd588b30	-0.052867115
21	0xbdb3f2b5	-0.08786527
22	0xbc9ea338	-0.019364938
23	0x3dbe0171	0.09277619
24	0xbc59dac4	-0.013296787
25	0x3d1b1461	0.03786123
26	0x3c9a7fb5	0.018859724
27	0x3dabff79	0.08398337
28	0x3de61a1c	0.11235449
29	0xbe08e13d	-0.13367172
30	0x3d3088ec	0.04309933
31	0x3e435ccc	0.19078368
32	0x3dd6274b	0.10456713
33	0x3e0fd496	0.14045939
34	0xbd07ef81	-0.033187393
35	0x3dc03ef0	0.093870044
36	0xbd059612	-0.03261382
37	0x3dd69a9b	0.104787074
38	0xbdb009d9	-0.08595628
39	0x3dee5346	0.11636977
40	0x3e087c0c	0.1332857
41	0x3df8f882	0.12156774
42	0xbdf2d3fc	-0.11856839
43	0x3d8d00b7	0.06884902
44	0xbe116946	-0.14200315
45	0x3dd9f406	0.10642247
46	0xbd8b6b24	-0.06807545
47	0x3d8213dd	0.06351445
48	0x3dc0b9f3	0.09410467
49	0x3d927b6f	0.07152449
50	0x3d9bbd84	0.076045066
51	0x3d9b672e	0.07588039
52	0x3dcd97a6	0.1003869
53	0x3dce08c4	0.10060266
54	0xbe892855	-0.26788583
55	0xbdeb6e0e	-0.11495601
56	0xbd9d30cd	-0.07675324
57	0xbe77da5a	-0.24204388
58	0xbe13f5c0	-0.14449215
59	0xbdeccceb	-0.115625225
60	0xbd3f6a3a	-0.046732165
61	0x3c29e801	0.010370255
62	0xbd8c154e	-0.06840001
63	0xbd14775d	-0.036246646
64	0x3d704339	0.05865786
65	0xbe206ec7	-0.15667258
66	0x3d5f7959	0.054559086
67	0x3de0a049	0.10968072
68	0xbdcd1200	-0.10013199
69	0x3e17a6dd	0.14809747
70	0x3e13762f	0.14400552
71	0x3cf39ebc	0.029738776
72	0x3df04e3b	0.11733671
73	0xbda129c5	-0.07869295
74	0xbe5d43ee	-0.21607944
75	0x3e2c5a07	0.16831218
76	0x3ce1876f	0.0275304
77	0xbd72ce77	-0.05927893
78	0xbe03bf2c	-0.12865895
79	0xbe95bb4a	-0.29244453
80	0xbe261113	-0.16217451
81	0x3c211b51	0.009833173
82	0x3df8addf	0.12142538
83	0xbd599858	-0.053123802
84	0xbc14fd46	-0.009093588
85	0x3daa0f12	0.08303656
86	0x3de08fbd	0.10964916
87	0x3d94c9e3	0.07265069
88	0xbdb6afd1	-0.08920253
89	0x3d5f1260	0.054460883
90	0xbdfac8e1	-0.12245346
91	0xbc0d337e	-0.008618234
92	0x3dc5db09	0.09660918
93	0x3df6abc3	0.1204448
94	0xbdf41118	-0.11917323
95	0x3d90b339	0.07065434
96	0x3b815086	0.0039463667
97	0xbd812d13	-0.06307425
98	0xbdd0a860	-0.10188365
99	0xbcb0d8c5	-0.021587739
100	0xbdb7885a	-0.08961554
101	0x3d0ee77f	0.03488874
102	0xbde412ae	-0.11136375
103	0x3cb5c6f8	0.022189602
104	0x3eab4062	0.33447558
105	0xbd7947ba	-0.06085942
106	0xbb398506	-0.0028308048
107	0x3ea657be	0.32488817
108	0xbd18a2a0	-0.037264466
109	0xbc4165b6	-0.011804035
110	0x3d7443fd	0.05963515
111	0x3ded43ab	0.11585172
112	0x3d5f9178	0.05458209
113	0xbe51fced	-0.2050664
114	0x3d9bc8fe	0.076066956
115	0x3c905ce8	0.017622426
116	0x3c57e751	0.013177709
117	0xbcd1524e	-0.025551941
118	0x3e1c7c03	0.15281682
119	0xbd29fd00	-0.041501045
120	0x3c4ed97b	0.012625094
121	0xbc2bda03	-0.01048899
122	0xbce4913c	-0.027901284
123	0xbe079062	-0.13238671
124	0x3d6eb74c	0.058280274
125	0xbd9153ec	-0.07096085
126	0xbdd37e2d	-0.103268005
127	0x3e32f1a6	0.17474994
128	0x3dad1c01	0.08452607
129	0x3d67a578	0.056554288
130	0x3d4da75d	0.05020844
131	0x3dae3365	0.085058965
132	0x3db70a96	0.08937566
133	0xbdb72596	-0.08942716
134	0x3e24dcec	0.160999
135	0x3dc8f8c8	0.09813076
136	0xbba91826	-0.0051603494
137	0x3d7274fe	0.059193604
138	0x3df1c8d4	0.11805883
139	0x3e0b7850	0.13620114
140	0xbd4ea964	-0.050454512
141	0xbc97357c	-0.01845812
142	0xbcc2378a	-0.023708124
143	0x3d210734	0.03931351
144	0x3dc97f17	0.098386936
145	0x3dc029ab	0.093829475
146	0x3e569d95	0.2095855
147	0x3d3e3c58	0.046444267
148	0x3dfd7c73	0.123772524
149	0x3dac1df5	0.08404151
150	0xbcf414e5	-0.02979512
151	0x3d873bc6	0.06603198
152	0xbc727409	-0.014798173
153	0x39eded88	0.00045381137
154	0xbdb9f033	-0.090790175
155	0x3c46d604	0.012135986
156	0x3e1ce356	0.15321097
157	0x3da2482a	0.079239205
158	0xbe30897a	-0.17239943
159	0xbd9c8429	-0.07642395
160	0xbda52f70	-0.080656886
161	0xbdff9f5f	-0.124815695
162	0xbce7f934	-0.028317071
163	0xbe552f00	-0.2081871
164	0xbdca13c2	-0.0986705
165	0xbe0066ac	-0.12539166
166	0xbec8dc26	-0.3923046
167	0xbd29fcfc	-0.04150103
168	0xbe79b2b5	-0.24384578
169	0xbeabd66b	-0.33562025
170	0x3c91bb90	0.017789632
171	0x3d2e8cbd	0.042614687
172	0x3d1af389	0.03782991
173	0xbce0ee0c	-0.02745726
174	0x3c290939	0.01031714
175	0x3ca3ff9d	0.020019347
176	0xbcf3911a	-0.029732276
177	0xbd799cf3	-0.060940694
178	0xbbd8bad6	-0.0066140695
179	0x3ca98039	0.020691024
180	0x3bd0ba0f	0.006369836
181	0x3955c9b4	0.00020388403
182	0xbc938de9	-0.018012004
183	0x3c4f056a	0.012635568
184	0xbd72ff19	-0.05932531
185	0x3e05de17	0.13073002
186	0x3da9b032	0.0828556
187	0x3d4da961	0.05021036
188	0xbd231a02	-0.039819725
189	0x3df89be3	0.12139108
190	0x3e1848d6	0.14871535
191	0x3c952cb7	0.018209798
192	0x3e860a38	0.2617967
193	0x3e0f2c15	0.1398166
194	0x3e615b61	0.22007515
195	0x3ddbc1e6	0.107303426
196	0x3e76f0df	0.24115323
197	0x3e277f40	0.16357136
198	0xbd9625a0	-0.07331395
199	0xbdc70401	-0.097175606
200	0xbdb75bb0	-0.08953035
201	0xbe018030	-0.12646556
202	0xbdac892d	-0.08424602
203	0xbce60219	-0.028077172
204	0xbe062eb8	-0.1310376
205	0xbd5446aa	-0.051825203
206	0xbdff28b4	-0.124589354
207	0xbd44f3c3	-0.04808403
208	0x3e34c521	0.17653324
209	0x3d8e4410	0.06946576
210	0x3e051c38	0.12999046
211	0x3e02683c	0.12735075
212	0x3c87c8c7	0.01657523
213	0x3e2b9312	0.16755322
214	0x3e5ea595	0.21742852
215	0x3dd1a7f2	0.10237111
216	0x3d5fc1f4	0.054628327
217	0xbdccb643	-0.09995701
218	0x3dc0ddbf	0.09417295
219	0x3e14b4d6	0.14522108
220	0xbdcf9951	-0.10136665
221	0xbd9343e4	-0.071906835
222	0xbdba32f3	-0.09091749
223	0x3d3510a7	0.044205334
224	0xbda31413	-0.07962813
225	0xbc61223d	-0.013741073
226	0xbd27b8a3	-0.040947568
227	0x3e09d959	0.13461818
228	0x3d82e346	0.06391005
229	0x3d45be04	0.048276916
230	0x3aad1166	0.0013204038
231	0x3db7e0d4	0.089784294
232	0xbccd33a5	-0.02504904
233	0xbdaadfe2	-0.083434835
234	0x3e0132fb	0.12617104
235	0x3e39bbd8	0.18138063
236	0x3e03d425	0.12873895
237	0x3e7d5b63	0.24741893
238	0x3e330270	0.17481399
239	0xbc1fe507	-0.009759194
240	0xbe553977	-0.20822702
241	0x3d0dd685	0.03462841
242	0x3b4fed5b	0.0031727168
243	0x3d1fa27e	0.038973324
244	0xbe36ef64	-0.17864758
245	0xbd540eec	-0.051772043
246	0xbd8c9216	-0.06863801
247	0xbde60577	-0.11231511
248	0xbb9c7764	-0.0047749747
249	0x3e46f8ed	0.19430895
250	0xbce96b37	-0.028493507
251	0xbce5524b	-0.027993342
252	0x3df663bc	0.120307416
253	0x3e4ab88f	0.19796966
254	0xbdb33ee8	-0.08752233
255	0x3e21a687	0.15786181

network.0.bias f4 [32]
0	0x3d8d1f1d	0.068907
1	0xbc292be2	-0.010325404
2	0x3b191dfa	0.0023363815
3	0x3d918f14	0.07107368
4	0xbdbdfd37	-0.092768125
5	0xbe031214	-0.12799865
6	0xbdb07b07	-0.086172156
7	0x3aaccdb2	0.001318386
8	0x3db1c018	0.08679217
9	0x3d0d78ef	0.03453916
10	0x3c231cab	0.009955565
11	0xbce7e66a	-0.028308112
12	0xbdb69bb1	-0.089164145
13	0x3cc745a0	0.024325192
14	0xbd96645f	-0.07343363
15	0xbd375685	-0.044760246
16	0xbe0049cc	-0.12528151
17	0x3bdc4b3a	0.006722835
18	0xbdc7fad7	-0.09764641
19	0x3c4b4bdb	0.012408222
20	0x3be19ca3	0.0068851276
21	0xbd24d5a8	-0.04024282
22	0x3e1246f6	0.14284882
23	0x3de713b2	0.112830535
24	0xbc0c4caa	-0.0085632
25	0x3cd4d501	0.025980474
26	0x3e150ff1	0.14556862
27	0x3c4cd02a	0.012500802
28	0x3e051c22	0.12999013
29	0xbe0313b0	-0.12800479
30	0x3d8f778e	0.07005225
31	0x3d8a22e8	0.06744939

network.2.weight f4 [64, 32, 3, 3]
0	0x3cd3f2b7	0.025872571
1	0xbc87e070	-0.016586512
2	0x3cb79e6a	0.022414405
3	0x3ab806ac	0.0014040074
4	0xbcb4d8c5	-0.02207602
5	0x3d915c08	0.07097632
6	0xbc2e3759	-0.010633313
7	0xbc9abeda	-0.018889833
8	0x3d33c4ef	0.043888982
9	0xbd9499dd	-0.072559096
10	0xbdac7b3e	-0.08421944
11	0x3d3fc694	0.04682024
12	0xbe1c272f	-0.15249322
13	0xbcb340cd	-0.021881485
14	0xbcdc1540	-0.026865602
15	0xbd079c12	-0.033107825
16	0xbdb515a9	-0.08842022
17	0x3c98ed4c	0.01866784
18	0x3da1ac67	0.07894211
19	0xbcb24869	-0.021763043
20	0x3d74a8b0	0.059731185
21	0x3ccef205	0.025261888
22	0x3dad385b	0.084580146
23	0xbd183d58	-0.037167877
24	0xbd45fb64	-0.048335448
25	0xbdb71bbe	-0.08940838
26	0xbd8cc69c	-0.06873819
27	0xbd571b93	-0.05251653
28	0xbdd1c09e	-0.10241817
29	0xbaa40dac	-0.0012516282
30	0x3b1cd066	0.0023927926
31	0xbe33d61f	-0.1756215
32	0x3a07fffa	0.0005187985
33	0xbd87b957	-0.06627148
34	0xbdeaec3e	-0.11470841
35	0x3dc38df7	0.09548562
36	0x3d1e1323	0.03859247
37	0x3ba43553	0.0050112396
38	0x3d8109a2	0.063006654
39	0x3d6e3fa0	0.058166146
40	0x3dffbc9f	0.124871485
41	0x3cb94d92	0.022619996
42	0x3d737af7	0.05944344
43	0x3dd78515	0.1052343
44	0x3d1a9a99	0.037745092
45	0xbd93d783	-0.0721884
46	0x3d813900	0.063097
47	0xbc952410	-0.018205673
48	0xbd232502	-0.039830215
49	0x3d76baa3	0.060236584
50	0x3d4ded92	0.050275393
51	0x3d822c59	0.06356115
52	0x3e04ae8b	0.12957208
53	0x3dc82d6d	0.09774289
54	0x3daeb18a	0.08529957
55	0x3d77358d	0.060353804
56	0x3d824def	0.06362521
57	0x3d87f39a	0.0663826
58	0x3c8c5c02	0.017133716
59	0x3d8b2fde	0.06796239
60	0xbd3296af	-0.043600734
61	0xbd917493	-0.07102313
62	0xbdfafe2c	-0.12255511
63	0xbc77dfe4	-0.015129063
64	0x3dad0592	0.08448328
65	0xbde355ac	-0.11100325
66	0x3c513dc8	0.012771077
67	0x3dc536e0	0.09629607
68	0xbc7ce374	-0.015435088
69	0x3d2c682d	0.042091537
70	0x3d8e60f1	0.06952084
71	0x3dd9b9af	0.106311195
72	0x3bc3f808	0.0059804954
73	0x3cd32224	0.025773115
74	0x3b808b9a	0.003922892
75	0x3de0d452	0.10977997
76	0x3d7fbd55	0.06243642
77	0x3df6bf85	0.12048248
78	0x3d2401a8	0.040040642
79	0xbcb5944d	-0.022165442
80	0x3d3b4ecc	0.045729443
81	0xbda760a7	-0.08172732
82	0x3c4f3355	0.012646516
83	0xbc24b752	-0.010053473
84	0xbd8aa15a	-0.067690566
85	0xbc5659bb	-0.013082917
86	0xbcc868d7	-0.024464054
87	0x3c96e98c	0.01842191
88	0xbe1c14dd	-0.15242334
89	0x3d257692	0.04039628
90	0x3cf2f20a	0.029656429
91	0x3d00d8ba	0.031456687
92	0xbdc326d0	-0.09528887
93	0x3d489158	0.048966736
94	0xbd78b32d	-0.06071775
95	0xbe01d7b7	-0.12679945
96	0x3dc50a5a	0.09621115
97	0x3d843229	0.0645488
98	0xbccc6001	-0.024948122
99	0xbd82498d	-0.06361685
100	0x3d125281	0.035723213
101	0x3ca37182	0.019951586
102	0xbe0346e7	-0.12820016
103	0xbda5dcaf	-0.08098733
104	0xbcc320f6	-0.023819428
105	0xbde4df0e	-0.11175357
106	0xbddda842	-0.10823108
107	0xbdd76f45	-0.1051927
108	0xbd0c84e4	-0.034306422
109	0x3d27b63e	0.040945284
110	0xbd10a71f	-0.03531563
111	0xbd07f30f	-0.033190783
112	0xbc8d9bcd	-0.017286206
113	0xbc64fdb8	-0.013976507
114	0xbe175964	-0.14780194
115	0xbe10e7aa	-0.14150873
116	0xbda7d7d9	-0.081954665
117	0xbcae4408	-0.021272674
118	0x3d48d361	0.04902971
119	0x3d616448	0.055027276
120	0xbd401656	-0.0468963
121	0xbd1d3764	-0.038382903
122	0xbd81292e	-0.063066825
123	0xbd37c8e9	-0.044869337
124	0xbd9598d6	-0.07304542
125	0x3d2a2b21	0.041545037
126	0x3cb9dff8	0.022689804
127	0x3d0deb0d	0.03464799
128	0x3d3aff5e	0.045653693
129	0xbcdf6245	-0.027268538
130	0x3cca6309	0.024705427
131	0x3dc4bc95	0.09606282
132	0x3db96b9a	0.090537265
133	0x3ccc7264	0.02495689
134	0x3d8b19e4	0.067920476
135	0x3d8984d2	0.067147866
136	0x3d84d311	0.0648557
137	0x3e1b220d	0.15149708
138	0xbc55169b	-0.013005878
139	0xbd740d50	-0.05958301
140	0x3e1badc4	0.15203005
141	0xbe0811f0	-0.13288093
142	0xbda81742	-0.08207561
143	0xbd664352	-0.056216545
144	0xbc5bec81	-0.013423086
145	0x3c0f7a89	0.008757242
146	0x3dd67822	0.10472132
147	0x3d6e4f16	0.05818089
148	0x3c90f07e	0.0176928
149	0x3ddce9a0	0.10786748
150	0x3ddd7134	0.108126074
151	0xbc23ea70	-0.010004625
152	0xbbdb75f5	-0.006697411
153	0xbddb5993	-0.10710444
154	0x3d010866	0.03150215
155	0xbd6229ef	-0.055215772
156	0xbd7fdd07	-0.062466647
157	0xbda4cbf3	-0.08046713
158	0xbdae1a5d	-0.08501122
159	0x3b61fc0f	0.0034482514
160	0xbda07a38	-0.078358114
161	0xbd181bef	-0.037136015
162	0x3da71dad	0.08159957
163	0x3cbca167	0.023026181
164	0x3d1f05c9	0.038823877
165	0x3ddb9904	0.10722545
166	0xbc105d9a	-0.008811379
167	0x3de85c68	0.1134575
168	0xbce55c62	-0.027998153
169	0x3c97f816	0.018550914
170	0xbdfb0283	-0.122563384
171	0x3b3e9a93	0.0029083833
172	0xbc9b70c3	-0.018974667
173	0xbd9948e8	-0.07484609
174	0xbd5677fb	-0.052360516
175	0xbce69896	-0.02814893
176	0x3d5556d6	0.052084766
177	0x3b5158bf	0.0031943766
178	0xbb65046a	-0.0034945258
179	0x3c979c66	0.018507194
180	0xbe046323	-0.12928443
181	0xbdb502e3	-0.08838441
182	0xbd178918	-0.036995977
183	0xbaecf889	-0.001807944
184	0xbdbeb79a	-0.09312363
185	0xba7b5704	-0.00095878565
186	0xbdada8e5	-0.0847948
187	0xbe17a4eb	-0.14809005
188	0xbd909712	-0.070600644
189	0xbdddbc64	-0.10826948
190	0xbe0b4018	-0.13598669
191	0xbd634a0a	-0.05549053
192	0x3d7476eb	0.05968372
193	0x3d9bc997	0.076068096
194	0xbd5eac43	-0.0543635
195	0x3df7ec61	0.121056326
196	0x3dc77634	0.09739342
197	0x3c5d2bc8	0.013499208
198	0xbd0f8ea1	-0.03504813
199	0xbd42a311	-0.047518793
200	0xbb867608	-0.004103426
201	0xbdaad968	-0.08342248
202	0x3caba590	0.02095297
203	0xbd690f07	-0.056899097
204	0xbe0a48c6	-0.13504323
205	0xbd88d42a	-0.06681092
206	0xbc8f59b2	-0.017498825
207	0xbdd72608	-0.10505301
208	0x3ce0d41c	0.027444892
209	0x3dceb41a	0.100929454
210	0xbe0679b7	-0.13132368
211	0xbd853f43	-0.06506207
212	0xbd8d419c	-0.068972796
213	0xbddaa43f	-0.10675859
214	0xbda4af16	-0.080412075
215	0xbe075455	-0.13215764
216	0xbe0d9468	-0.13826144
217	0xbd719e31	-0.058988754
218	0xbd9e4044	-0.077271014
219	0x3d3594ff	0.044331547
220	0xbd0be16a	-0.03415052
221	0xbd25bb4c	-0.040461823
222	0x3d0806a3	0.033209454
223	0xbdc127cc	-0.09431419
224	0x3ca848c9	0.02054252
225	0x39a9f786	0.0003241861
226	0x3ba03ad1	0.004889824
227	0xbd221bb5	-0.039577205
228	0xbd24cbf8	-0.040233582
229	0x3d84ad53	0.064783715
230	0x3b83cae1	0.004021988
231	0xbde98646	-0.11402564
232	0xbd0b4d13	-0.03400905
233	0xbd8cd9b3	-0.0687746
234	0xbd269b1b	-0.040675264
235	0xbc8ed432	-0.017435167
236	0xbdede43e	-0.11615799
237	0xbca383ca	-0.019960303
238	0xbd9d2de5	-0.07674769
239	0xbd9e2c51	-0.077232964
240	0xbdbc9dcb	-0.09209784
241	0xbc177325	-0.009243761
242	0xbaee6f45	-0.001819112
243	0x3dbf237e	0.093329415
244	0xbd60d8a1	-0.054894093
245	0xbd37fbd5	-0.0449179
246	0x3dc2dfe9	0.09515364
247	0x3cd016fe	0.025401589
248	0x3d8e85df	0.06959128
249	0x3d89c130	0.06726301
250	0x3d1052cd	0.035235215
251	0xbbd51e20	-0.0065038353
252	0x3c85e912	0.016346488
253	0x3cf06011	0.029342683
254	0x3d4438a8	0.047905594
255	0x3c2dfe7e	0.010619758

network.2.bias f4 [64]
0	0xbb423416	-0.0029633096
1	0xbc387060	-0.011257261
2	0x3d1f3f01	0.038878445
3	0x3cae77a8	0.02129729
4	0x3d99258d	0.07477865
5	0xbbbb1be5	-0.0057101124
6	0x3d99d73f	0.07511758
7	0x3d8c0bfc	0.06838223
8	0xbc97f8ef	-0.018551318
9	0x3ca8de78	0.020613894
10	0x3d0cb3d3	0.03435118
11	0x3c43d409	0.011952409
12	0xb75f0b9a	-1.3294537e-05
13	0xbc2dc033	-0.010604906
14	0x3d64d398	0.055865854
15	0x3ba90ea1	0.0051592146
16	0xba822c78	-0.0009931466
17	0xbc9febbd	-0.019521588
18	0xbcbd4c09	-0.023107545
19	0x3cc4e1e9	0.024033504
20	0x3cf0c15e	0.02938908
21	0xbd8dd0cd	-0.06924591
22	0xbcef7463	-0.029230302
23	0x3d7b9ee3	0.061430823
24	0x3d341994	0.043969706
25	0x3cf0770c	0.029353641
26	0xbd29d0d1	-0.04145891
27	0xbd85a910	-0.06526387
28	0x3d6e2bdc	0.058147296
29	0xbc5714f7	-0.013127557
30	0xba4faeea	-0.00079224876
31	0x3d2ed65f	0.04268491
32	0x3c4624a9	0.012093701
33	0x3d084a1f	0.033273812
34	0x3d3fa9a3	0.046792638
35	0x3ba41d5f	0.005008384
36	0xbcfa8898	-0.030582711
37	0x3cc5d77a	0.024150599
38	0x3a08e820	0.00052225776
39	0xbc2d77b6	-0.010587623
40	0x3aa22474	0.0012370483
41	0x3d8829ac	0.06648573
42	0x3d942882	0.07234289
43	0xbb7396c2	-0.0037168716
44	0xbd15c5ce	-0.036565594
45	0xbd11e913	-0.035622668
46	0x3cabdf80	0.020980597
47	0x3d00f2f1	0.031481687
48	0x3b4640b4	0.0030250968
49	0xbd2ab7fd	-0.04167937
50	0x3c7d9455	0.01547726
51	0x3c926b2a	0.017873365
52	0xbd0189d4	-0.031625584
53	0xbc3f1bf9	-0.011664384
54	0x3d74407e	0.059631817
55	0xbd220f05	-0.039565105
56	0x3ccf6b69	0.025319772
57	0xbcfcb435	-0.030847648
58	0xbc32ed1d	-0.01092079
59	0x3d5f7f5c	0.05456482
60	0xbd07cef8	-0.033156365
61	0xbce9aab8	-0.028523788
62	0x3d8ee9b7	0.06978171
63	0x3cd33ede	0.025786813

network.4.weight f4 [64, 64, 3, 3]
0	0xbd46d022	-0.048538335
1	0x3cce61b3	0.025193071
2	0x3ac3b8c0	0.0014932379
3	0x3c665ee8	0.014060713
4	0x3d4d51eb	0.05012695
5	0x3db3fb0e	0.08788119
6	0xbb3caee3	-0.0028790764
7	0x3bfbe3a5	0.0076870495
8	0xba27fdf2	-0.0006408385
9	0x386a3ca5	5.5846427e-05
10	0x3dc28060	0.09497142
11	0x3d90ecf9	0.07076449
12	0x3d3efce3	0.04662789
13	0x3e1a29a6	0.1505495
14	0x3da1b1c2	0.07895233
15	0x3d2edf2f	0.042693313
16	0x3dbeeb14	0.09322181
17	0xbc315ffa	-0.010826105
18	0x3c2d07a8	0.010560907
19	0x3d692198	0.056916803
20	0x3db251b5	0.08706991
21	0x3d8bd411	0.06827558
22	0x3da26314	0.07929054
23	0x3dc371d0	0.095431924
24	0x3ce778e7	0.028255893
25	0x3d2fef29	0.04295269
26	0x3d05e653	0.032690357
27	0xbcbae4c3	-0.02281416
28	0x3d87a42d	0.06623111
29	0x3d93d7db	0.072189055
30	0x3d3620b5	0.044464786
31	0x3d7fcb8a	0.06244997
32	0x3d5c6bd1	0.05381376
33	0x3d4f9ee2	0.05068863
34	0x3d21c813	0.039497446
35	0x3cb50770	0.022098273
36	0xbbb05198	-0.0053808205
37	0xbd37363f	-0.044729467
38	0x3bbc2d62	0.0057427147
39	0xbd3a9691	-0.045553748
40	0xbcfe5f1c	-0.031051211
41	0xbd77b5bf	-0.06047606
42	0xbdeede7e	-0.11663531
43	0xbd9f6a34	-0.077839285
44	0xbd92ef80	-0.07174587
45	0x3d4f0d61	0.05054987
46	0xbdef9495	-0.11698262
47	0xbdbf4a09	-0.09340293
48	0x3d38a791	0.04508168
49	0xbe0e9e23	-0.13927512
50	0xbd563194	-0.052293375
51	0x3d06bb93	0.03289373
52	0xbd93b27f	-0.0721178
53	0x3d5d90f5	0.05409332
54	0x3d16edcd	0.03684788
55	0x3dee735e	0.11643098
56	0x3cf63ec8	0.030059233
57	0xbcd20b11	-0.025640042
58	0xbb71016c	-0.003677453
59	0xbd7e2714	-0.062048987
60	0xbd1ec585	-0.038762588
61	0xbd7f7def	-0.06237596
62	0xbdb52b44	-0.08846143
63	0xbb0ebc4e	-0.0021779719
64	0xbc67dc06	-0.014151579
65	0xbb46b043	-0.0030317463
66	0xbd7791bc	-0.060441718
67	0xbdd0b894	-0.101914555
68	0xbdbaf02d	-0.09127841
69	0xbd23a70b	-0.039954226
70	0xbccbb4a2	-0.024866406
71	0xbdc57e42	-0.096432224
72	0xbca25818	-0.019817397
73	0x3de7567e	0.11295794
74	0x3dada605	0.08478931
75	0x3d45abab	0.04825942
76	0x3e1cf498	0.1532768
77	0x3dcb61fa	0.09930797
78	0x3dcfbc25	0.101433076
79	0x3d97fa21	0.07420755
80	0x3c2d5c71	0.010581122
81	0xbcda4290	-0.026643068
82	0x3cf765af	0.030199854
83	0x3d366944	0.044533983
84	0xb8e8eb29	-0.00011106424
85	0xbcbf5b7e	-0.023359057
86	0xbcaf6ccd	-0.021414185
87	0xbcf4e790	-0.029895574
88	0xbde7b64c	-0.11314067
89	0xbd9829eb	-0.0742987
90	0x3d844f2c	0.06460413
91	0x3df7031f	0.12061142
92	0x3d8621e1	0.06549431
93	0x3dbaf3f1	0.091285594
94	0x3dc12a93	0.094319485
95	0x3d4c9e4a	0.049955644
96	0x3c7c13ed	0.01538561
97	0x3c60ca3f	0.013720094
98	0x3c01229f	0.0078817895
99	0x3da6524a	0.08121164
100	0xbd8dd885	-0.069260634
101	0xbd2faab7	-0.042887416
102	0xbd7f7ac1	-0.062372927
103	0xbe10446f	-0.14088605
104	0xbdba599d	-0.090991236
105	0xbdade6d1	-0.0849129
106	0xbdadd587	-0.08487993
107	0xbd57a2c3	-0.052645456
108	0xbc61d07c	-0.013782617
109	0xbdd55102	-0.10415842
110	0xbd7cd1b5	-0.06172343
111	0x3d0b115b	0.0339521
112	0xbe281271	-0.16413285
113	0xbc902880	-0.017597437
114	0xbc905ac5	-0.017621407
115	0xbe00506a	-0.12530676
116	0xbb517e23	-0.0031966052
117	0x3c17ac0f	0.009257331
118	0xbd9f7374	-0.07785693
119	0xbd059cee	-0.032620363
120	0xbd3c1c15	-0.04592522
121	0xbe130a58	-0.14359415
122	0xbdb027fe	-0.08601378
123	0xbd455173	-0.04817338
124	0xbd1bd61d	-0.03804599
125	0x3cabf927	0.020992829
126	0x3e15583d	0.14584441
127	0x3d654d18	0.055981725
128	0xbd0a1fd8	-0.033721775
129	0x3d6ac266	0.0573143
130	0xbdb94713	-0.090467595
131	0xbd424d0d	-0.047436763
132	0xbd8f4fef	-0.06997668
133	0xbda3fa77	-0.08006757
134	0xbddc2be9	-0.10750563
135	0x3c3b9f60	0.011451572
136	0x3de2ab73	0.110678576
137	0xbc9212f5	-0.017831305
138	0x3c888216	0.016663592
139	0x3d96255b	0.07331344
140	0xbbb75d56	-0.0055958433
141	0x3c914e8a	0.017737646
142	0xbbff2023	-0.0077858134
143	0x3c5588c4	0.013033096
144	0x3d01cd53	0.031689953
145	0xbd2f828c	-0.04284911
146	0xbcd4d482	-0.025980238
147	0x3cf6c1b9	0.030121671
148	0xba45fc8b	-0.00075525854
149	0xbc857193	-0.016289508
150	0xbdf2597b	-0.11833473
151	0xbde2e43f	-0.11078691
152	0x3be8ee4f	0.0071084867
153	0x3d0786d5	0.03308757
154	0xbc18aeb9	-0.009319001
155	0xbc3e5c8c	-0.011618745
156	0xbdd3c387	-0.10340028
157	0xbd90832e	-0.070562705
158	0xbcd6cb6a	-0.026220042
159	0xbd1606e1	-0.036627654
160	0xbd76c7af	-0.060249027
161	0xbcff121a	-0.031136561
162	0x3d4884b9	0.0489547
163	0xbc9c5846	-0.01908506
164	0x3b2f53eb	0.00267529
165	0xbbb91db1	-0.0056492914
166	0x3cb8070e	0.022464301
167	0x3dc3cc32	0.095604315
168	0xbd0460e3	-0.03231896
169	0xbdc170f2	-0.09445371
170	0xbcac4b7c	-0.021032088
171	0x3cbfd705	0.023417959
172	0xbd47fbe2	-0.0488242
173	0x3c965c03	0.018354421
174	0x3d6c0a61	0.057627086
175	0x3d10c6c3	0.035345804
176	0x3ce8859f	0.028384028
177	0x3da707ed	0.081558086
178	0x3dbb351b	0.091409884
179	0x3cf43274	0.029809214
180	0x3d1f876e	0.038947515
181	0x3d7e156f	0.06203216
182	0x3ca62d70	0.020285338
183	0x3c180c72	0.009280311
184	0x3d984f2b	0.07436975
185	0xbbe0249e	-0.0068403026
186	0xbd34a91a	-0.04410658
187	0xbcb9592f	-0.022625534
188	0xbcd65407	-0.026163114
189	0x3bced8a8	0.0063124485
190	0xbd4203d7	-0.047366943
191	0xbd950c38	-0.07277721
192	0xbb8c061d	-0.0042731897
193	0xbd9729d5	-0.07381026
194	0x3cd02b05	0.025411138
195	0x3cf2ead5	0.029652992
196	0xbcf0b28f	-0.029382018
197	0xbc96f19f	-0.01842576
198	0xbd710f64	-0.05885257
199	0x3d7ee2af	0.0622279
200	0x3d429c25	0.047512192
201	0xbd018485	-0.03162052
202	0x3d5a0a38	0.0532324
203	0xbd5b88f6	-0.053597413
204	0x3db39bce	0.08769952
205	0x3da06040	0.07830858
206	0xbccdc6ee	-0.025119271
207	0xbc53b250	-0.012920931
208	0x3cfd20e9	0.030899482
209	0xbb1ec542	-0.0024226462
210	0x3d1011c3	0.03517319
211	0x3c9b0d2e	0.018927183
212	0x3c3bce70	0.011462793
213	0x3d7a9e4a	0.061186112
214	0x3d5dd6e7	0.054160025
215	0x3c7d5af5	0.01546358
216	0x3dc09615	0.09403626
217	0x3d91dbc8	0.07121998
218	0x3dc6c9e1	0.09706474
219	0x3d8d65e6	0.06904201
220	0x3db50e1b	0.08840581
221	0x3c89bdce	0.016814139
222	0x3df656f0	0.12028301
223	0x3dd622a4	0.10455826
224	0xbc8d405c	-0.017242603
225	0x3c95b3bf	0.018274186
226	0xbd8645ce	-0.06556283
227	0x3c432030	0.01190953
228	0x3c66bd84	0.01408327
229	0x3b976a5e	0.0046208343
230	0xbbf87928	-0.0075828023
231	0xbe02b901	-0.12765886
232	0xbda577d4	-0.08079496
233	0xbd28ae80	-0.04118204
234	0x3c004bfc	0.007830616
235	0x3c07379f	0.008253007
236	0xbc87b9bb	-0.016568055
237	0x3cb72180	0.022354841
238	0x3db48700	0.08814812
239	0x3db9abf4	0.090660006
240	0xbcebd3cd	-0.028787518
241	0xbc00a102	-0.007850887
242	0xbce230a5	-0.027611086
243	0x3db9db91	0.09075082
244	0xbcc9b04f	-0.024620203
245	0xbbf69b3f	-0.007525831
246	0x3dcb5ba6	0.0992959
247	0x3cc74849	0.02432646
248	0x3dd278db	0.102769576
249	0x3d96cc9d	0.07363246
250	0x3acf2bc3	0.0015805889
251	0xbd7b0e6c	-0.06129305
252	0x3d274721	0.04083932
253	0x3d7c3bcd	0.061580468
254	0x3ddb7b52	0.10716881
255	0x3d8a515b	0.067537986

network.4.bias f4 [64]
0	0x3c697e60	0.014251322
1	0xbd352787	-0.04422715
2	0x3c56c7d0	0.013109162
3	0xbcfda7b7	-0.030963762
4	0x3d0256c1	0.031821016
5	0x3d389208	0.04506114
6	0xbd0caca6	-0.034344338
7	0xbc4016f4	-0.011724222
8	0x3bc38720	0.005967036
9	0xbd65e0d2	-0.05612261
10	0xbc00c3c3	-0.007859173
11	0xbd0b31ad	-0.03398292
12	0xbc309160	-0.010776848
13	0xbc0a1229	-0.008427181
14	0x3c9d1f9c	0.019180112
15	0x3d02216d	0.03177016
16	0x3d04eee9	0.032454405
17	0xb95b0c7a	-0.00020890115
18	0xbcbfecbc	-0.023428313
19	0xbc4b0e8b	-0.012393604
20	0x3ce3bea0	0.027800858
21	0xbb941c86	-0.004520002
22	0x3d184b2c	0.037181064
23	0xbd562669	-0.052282725
24	0xbbefa8eb	-0.0073138378
25	0xbccf9b53	-0.025342619
26	0xb8225aca	-3.8708364e-05
27	0xbbfe80fd	-0.0077668414
28	0x3d2a5262	0.041582473
29	0x3d2460ca	0.040131368
30	0xbbaf2a28	-0.0053456016
31	0x3d0521bc	0.032502875
32	0x3cfd06b2	0.030886982
33	0x3d12e760	0.035865188
34	0xbc7c66c0	-0.015405357
35	0xbc2362c0	-0.009972274
36	0xbcc64f8b	-0.02420785
37	0x3d2ec05c	0.042663917
38	0xbc9bee46	-0.019034516
39	0x3cc3b24a	0.023888726
40	0x3d6c689b	0.057716947
41	0xbba2ff12	-0.0049742544
42	0x3d048cf9	0.032361005
43	0x3cefb64a	0.029261727
44	0xbd4ab00b	-0.049484294
45	0x3cd3b7ba	0.025844444
46	0x3d1346cc	0.03595619
47	0xbb24704f	-0.0025091355
48	0x3c61067a	0.013734454
49	0xbce5b492	-0.028040204
50	0xbd19951a	-0.03749571
51	0xbc0d1196	-0.00861015
52	0x3d41082d	0.047126938
53	0x3d13e8a3	0.03611053
54	0x3a218c8c	0.0006162606
55	0x3c399583	0.01132715
56	0x3ce2581f	0.02762991
57	0xbc9932f1	-0.018701049
58	0x3a2dd88d	0.0006631695
59	0xbcb0c119	-0.021576451
60	0xbb43ce75	-0.0029877697
61	0xbc692554	-0.014230091
62	0xbd00fc74	-0.031490758
63	0x3d409bb1	0.04702348

actor.weight f4 [5, 3136]
0	0x3d3802e8	0.044924647
1	0x3ce81f92	0.028335366
2	0x3d7b524e	0.06135779
3	0x3c7d4f28	0.015460767
4	0x3c1663ab	0.009179036
5	0x3d2ee3be	0.04269766
6	0x3c8368b1	0.016041132
7	0x3d6fc5ec	0.058538362
8	0x3d843944	0.06456235
9	0x3d4a88ee	0.049446993
10	0xbd3ace6d	-0.04560702
11	0xbc64f125	-0.013973509
12	0x3b9cb705	0.00478256
13	0x3d011ba8	0.031520516
14	0xbd054427	-0.0325357
15	0xb9e966b5	-0.00044517746
16	0xbb0cac39	-0.0021464957
17	0xbd660f3d	-0.056166876
18	0xbd198e01	-0.03748894
19	0x3c4c940e	0.012486471
20	0x3d587855	0.052849133
21	0x3acdc83f	0.0015699937
22	0xbb33944a	-0.002740162
23	0xbcb1793e	-0.021664258
24	0xbcf87d82	-0.030333284
25	0xbc5cba58	-0.013472162
26	0xbd6226e9	-0.05521289
27	0xbc3af5be	-0.011411129
28	0x3c7e55d2	0.015523391
29	0x3be3200b	0.00693131
30	0xbc81c55a	-0.015841175
31	0x3c1a73f2	0.009427058
32	0x3cabd17d	0.020973915
33	0xbbe79112	-0.0070668543
34	0xbd1e3794	-0.038627222
35	0x3cb07de3	0.021544402
36	0x3c8d2037	0.017227275
37	0x3b4a4413	0.003086333
38	0x3cd74251	0.02627674
39	0x3d3f4ff0	0.046707094
40	0x3cd77f87	0.026305927
41	0x3aa889ef	0.001285849
42	0xbbccad78	-0.006246265
43	0x3c623b41	0.013808073
44	0x3d1d9e5c	0.0384811
45	0x3cf45a60	0.02982825
46	0x3d06f486	0.03294804
47	0x3cc1796e	0.023617472
48	0x3ca92559	0.020647692
49	0x3d75cc13	0.060009073
50	0x3d836199	0.064151
51	0x3deb8872	0.11500634
52	0x3d5e7e19	0.054319475
53	0xbcb9a402	-0.022661213
54	0x3d5b768a	0.053579845
55	0x3ae04869	0.0017111424
56	0x3d498158	0.049195617
57	0x3d8dc9cc	0.06923255
58	0x3dc93276	0.09824078
59	0x3c23c79d	0.009996322
60	0x3c05a730	0.008157536
61	0x3d2325c9	0.039830957
62	0xbbce86d0	-0.006302692
63	0x3d8a1e5c	0.06744072
64	0x3d5396cc	0.051657483
65	0x3d487e60	0.048948646
66	0x3b01fca3	0.001983442
67	0x3c29b915	0.010359068
68	0x3c87e8f5	0.016590575
69	0x3d4dea98	0.050272554
70	0xbd7801d5	-0.060548622
71	0xbd5fa5c9	-0.054601464
72	0xbd48ee78	-0.049055547
73	0xbbf6b648	-0.007529054
74	0xbd1c7164	-0.038194075
75	0xbcc25ce8	-0.023725942
76	0xbd06f461	-0.0329479
77	0xbb2d444f	-0.002643842
78	0xbc7d1de0	-0.015449017
79	0x39cec20f	0.00039435967
80	0x3bbccb7d	0.0057615624
81	0x3d20d337	0.03926393
82	0x3bf1ae94	0.0073755477
83	0xbd2c1d6a	-0.04202024
84	0xbc11356a	-0.008862833
85	0xbbcebfa7	-0.006309468
86	0xbc84d90c	-0.016216777
87	0x3c8fe62f	0.017565815
88	0x3cc601b5	0.024170736
89	0x3c874f59	0.016517328
90	0xbd24c384	-0.04022552
91	0xbc10bd64	-0.008834217
92	0x3d100f83	0.035171043
93	0xbbf4e09c	-0.0074730646
94	0x3c6f9a2a	0.014624158
95	0x3cddba41	0.027066352
96	0x3cc44450	0.023958355
97	0xbc758246	-0.014984673
98	0xbbb09a3e	-0.005389481
99	0xbce52441	-0.027971389
100	0xbcd20206	-0.02563573
101	0x3c2c6ae2	0.01052353
102	0x3b69d0e6	0.0035677492
103	0xbc8edc4a	-0.017439026
104	0xbd382802	-0.04496003
105	0xbd08742d	-0.03331392
106	0xbb85b1b7	-0.004080023
107	0xbba1092e	-0.0049144244
108	0x3ce66d2a	0.028128225
109	0x3c93173b	0.017955413
110	0xbcebe837	-0.028797252
111	0xbd34af81	-0.044112686
112	0x3d0ead2a	0.03483311
113	0xbd079dd1	-0.03310949
114	0xbc334e79	-0.010944002
115	0xbcf3feb7	-0.029784543
116	0xbc241199	-0.010013961
117	0xbd01d0e4	-0.031693354
118	0xbd478e48	-0.048719674
119	0x3cf4255e	0.029802974
120	0xbd5eda2f	-0.054407295
121	0xbd5faaa2	-0.054606088
122	0xbd0180a1	-0.03161681
123	0xbb6b610b	-0.0035915996
124	0xbcd36c06	-0.025808346
125	0xbd10bb47	-0.03533485
126	0x3c9de06c	0.019272052
127	0xb8a2d452	-7.76431e-05
128	0xbd34713d	-0.044053305
129	0xbc7b960d	-0.015355599
130	0x3c1f1d76	0.009711614
131	0x3cfff701	0.03124571
132	0xb9d7a8e2	-0.00041133823
133	0xbc3cae15	-0.011516114
134	0x3ba2216a	0.004947831
135	0xbc5d1709	-0.013494262
136	0xbc0d069b	-0.008607532
137	0xbd1e70ed	-0.038681913
138	0x3ca0423d	0.019562835
139	0x3c95e89e	0.018299397
140	0x3d2ad9e1	0.04171169
141	0x3ba4a157	0.005024116
142	0x3cb7bb77	0.022428257
143	0x3c866f77	0.016410572
144	0x3c5cd06d	0.013477427
145	0x3d54960c	0.05190091
146	0x3d063d42	0.032773264
147	0x3d64c457	0.055851307
148	0x3dc5c515	0.09656731
149	0x3da2b682	0.07944967
150	0xbbed916b	-0.007250001
151	0x3ba7428f	0.00510437
152	0x3d0895e9	0.03334609
153	0x3ca11890	0.019665033
154	0x3d23541c	0.039875135
155	0x3d8f0153	0.069826744
156	0x3d295994	0.041345194
157	0xbc72827a	-0.014801616
158	0xbb838ce3	-0.0040145977
159	0x3cb8be75	0.022551754
160	0x3cc24bfe	0.023717877
161	0x3d654482	0.055973537
162	0x3d45ae19	0.048261736
163	0x3d475488	0.0486646
164	0xbd182c2d	-0.037151504
165	0x3c588a1f	0.013216524
166	0x3d261a3e	0.04055237
167	0x3d531c02	0.051540382
168	0xbd174994	-0.036935404
169	0xbc564094	-0.01307692
170	0xbc150b4e	-0.0090969335
171	0xbcab734c	-0.020929001
172	0xbc18ed3e	-0.009333907
173	0xbb792aa6	-0.0038019805
174	0x3a3b3f81	0.00071429467
175	0x3c07c497	0.008286617
176	0x3c6d65b4	0.01448958
177	0x3bd34cf3	0.006448382
178	0x3d24946d	0.040180612
179	0x3d434f2d	0.04768293
180	0x3bcbeb80	0.006223142
181	0xbcb8b7b9	-0.022548543
182	0x3ca48684	0.020083673
183	0x3cd8389c	0.026394181
184	0xbb9c7070	-0.004774146
185	0x3cced3ac	0.025247417
186	0x3d0431cf	0.032274064
187	0x3c6ca9c5	0.014444773
188	0xbc4751fa	-0.012165541
189	0x3ceedf9a	0.029159356
190	0x3cf76abf	0.030202268
191	0x3c89d36e	0.01682445
192	0x3d092b8e	0.033488803
193	0x3d327ad2	0.04357416
194	0x3cf15711	0.029460462
195	0x3a8d94b9	0.0010801769
196	0x3d51c894	0.051216677
197	0x3cf142f4	0.029450871
198	0x3c9aa5a8	0.01887782
199	0x3cd65abf	0.026166318
200	0xbdab9293	-0.08377566
201	0x3bbd4f84	0.0057773013
202	0xbd19895f	-0.037484523
203	0x3d906c09	0.07051856
204	0x3c26acc5	0.010173027
205	0xbd1e0623	-0.03858007
206	0x3cde8249	0.027161734
207	0xbd225dee	-0.03964036
208	0xbdc40d6d	-0.09572873
209	0xbcd46a76	-0.02592967
210	0xbdb1e6dd	-0.08686612
211	0x3c75ade7	0.014995075
212	0x3d433363	0.047656428
213	0x3cac477f	0.021030186
214	0xbd260f03	-0.04054166
215	0x3b1b8a4b	0.0023733552
216	0x3c61e705	0.0137879895
217	0xbbec382f	-0.007208846
218	0xbd08021b	-0.033205133
219	0xbcc1cb85	-0.023656616
220	0xbd412ca8	-0.04716173
221	0x3c42e493	0.011895317
222	0x3b4403d1	0.0029909501
223	0x3bc09dce	0.005878187
224	0xbc94d5a7	-0.018168284
225	0xbd115cf6	-0.035489045
226	0xbbc608a5	-0.006043511
227	0x3d34b47e	0.044117443
228	0xbaa74d8c	-0.00127642
229	0xbc40d575	-0.011769642
230	0xbc973e81	-0.018462421
231	0xbb838bbf	-0.0040144618
232	0x3c6d9d98	0.014502905
233	0xbca5bf9f	-0.020232974
234	0x3ce04bdf	0.027379928
235	0xbc995ae0	-0.01872009
236	0xbd4d020b	-0.050050776
237	0x3bf035a6	0.007330614
238	0x3c265715	0.010152598
239	0xbc98d5ce	-0.018656638
240	0x3c33bfcd	0.010971022
241	0x3b5502e1	0.0032502937
242	0x3c1d6c49	0.009608337
243	0x3bfc0971	0.007691555
244	0xbc9a5cdd	-0.018843109
245	0xbb6b094b	-0.0035863693
246	0xbcac277c	-0.021014921
247	0xbb8885dd	-0.0041663484
248	0x3c86435c	0.016389541
249	0x3c1426b6	0.0090424325
250	0x3b7c3546	0.0038483902
251	0xbabf14fb	-0.0014578396
252	0xbc3d7395	-0.011563201
253	0xbc7b94b5	-0.015355279
254	0xbc8f3993	-0.017483508
255	0xbc31c8a8	-0.010851063

actor.bias f4 [5]
0	0xbcaf305d	-0.021385366
1	0x3cc11306	0.023568641
2	0x381f8dd1	3.804063e-05
3	0xbc218c39	-0.009860092
4	0x3ca81fbe	0.020522948

critic.weight f4 [1, 3136]
0	0xbd001cbd	-0.031277407
1	0x3d3c4a14	0.045969084
2	0x3daac6a8	0.08338672
3	0x3d40cc8d	0.047070075
4	0x3d224a54	0.039621666
5	0x3d4918cd	0.049095917
6	0x3c8389d7	0.016056938
7	0xbc748c1e	-0.014925985
8	0x3d84be49	0.064816065
9	0x3dac2c49	0.08406884
10	0x3c87f752	0.016597424
11	0xba227bd9	-0.00061982643
12	0x3d952977	0.072832994
13	0x3df0c0e4	0.11755541
14	0x3db04c46	0.08608298
15	0xbd86cf55	-0.06582514
16	0xbdaaba06	-0.083362624
17	0xbc894857	-0.016758127
18	0xbdb30e38	-0.087429464
19	0x3d955d23	0.07293155
20	0x3de3241d	0.110908724
21	0xbb9d5842	-0.004801781
22	0xba661cde	-0.0008778105
23	0x3ce658f2	0.028118584
24	0x3cb7f4db	0.022455623
25	0xbd6b14c1	-0.05739284
26	0x3d0a6616	0.033788763
27	0x3cdebebc	0.027190559
28	0x3d5d03d7	0.05395874
29	0x3dc5a634	0.09650841
30	0x3d9afe06	0.075679824
31	0x3d11c5c2	0.035588987
32	0x3db410da	0.08792277
33	0x3e014e26	0.12627468
34	0x3dff9dbc	0.12481257
35	0x3c60be3b	0.0137172295
36	0x3c650cac	0.013980072
37	0xbd5ad9de	-0.05343043
38	0xbd69a10f	-0.057038363
39	0xbcaff150	-0.021477371
40	0x3d00e1da	0.03146539
41	0x3d75c6c5	0.060004015
42	0x3d03c8d2	0.03217394
43	0x3dbbb868	0.09166032
44	0x3e01b83a	0.12667933
45	0x3d8ae1e8	0.067813694
46	0x3c7a9279	0.015293711
47	0x3d6432e9	0.055712614
48	0x3daef607	0.0854302
49	0x3d064823	0.03278364
50	0x386fe666	5.7196616e-05
51	0xba80bd4e	-0.0009822042
52	0xbd21b4a2	-0.039478905
53	0xbe1e5945	-0.15463741
54	0x3c54223c	0.012947615
55	0x3c907df6	0.017638188
56	0x3c8c94ed	0.017160857
57	0x3dcef361	0.101050146
58	0x3ded371b	0.11582776
59	0x3d0c6adf	0.034281608
60	0x3cfc6cca	0.030813593
61	0x3e07cbe6	0.13261375
62	0x3e19477b	0.14968674
63	0x3e02e375	0.1278208
64	0x3e373708	0.17892087
65	0xbc03e7a0	-0.008050829
66	0xbc404e5d	-0.011737433
67	0x3dbb55a9	0.09147198
68	0x3dcb5601	0.09928513
69	0x3d74faa3	0.05980934
70	0x3e4cb69f	0.1999154
71	0x3dd5f0cc	0.10446319
72	0x3d02feed	0.031981397
73	0x3da8b679	0.08237929
74	0x3d9b1dbc	0.07574031
75	0x3cf3ffd8	0.029785082
76	0x3dcd840c	0.100349516
77	0xbd1569db	-0.036477905
78	0x3dc99666	0.09843139
79	0x3db45ee8	0.088071644
80	0x3d76a1e5	0.06021299
81	0xbc997c4e	-0.01873603
82	0x3d7bdb0e	0.061488204
83	0x3d89d368	0.06729776
84	0x3d743d3f	0.05962872
85	0x3d400da2	0.046888
86	0x3d1d4245	0.038393278
87	0x3cb087dd	0.02154916
88	0x3cef47ce	0.029209044
89	0x3d575cdd	0.052578796
90	0x3d252c65	0.04032554
91	0x3cf25c27	0.029584957
92	0x3dc00e98	0.093777835
93	0x3c6e40c4	0.0145418085
94	0x3b40a910	0.0029397644
95	0x3ba0facf	0.004912711
96	0xbd08e07c	-0.03341721
97	0x3cffb329	0.03121336
98	0xbbb85252	-0.0056250477
99	0xbdcd6ff6	-0.100311205
100	0xbe538d2b	-0.2065932
101	0xbcb5a0b6	-0.02217136
102	0xbdb0e18a	-0.08636768
103	0xbe2c8fb7	-0.16851698
104	0xbc8bcd39	-0.017065631
105	0x3caff6f1	0.021480056
106	0x3d58ed49	0.052960668
107	0xbd230ccd	-0.03980713
108	0xbc7593eb	-0.01498888
109	0xbd1f3ece	-0.038878255
110	0xbd0e5837	-0.034752097
111	0x3ba23507	0.004950169
112	0x3cd2c88d	0.025730396
113	0x3cbc6d0e	0.02300122
114	0xbd70a1cc	-0.05874805
115	0xbe0542e0	-0.13013792
116	0x3cb20933	0.021732902
117	0x3cc5fbff	0.024168013
118	0x3daa2002	0.08306886
119	0x3d7f3572	0.06230683
120	0xbc5c382c	-0.013441127
121	0xbdb862a2	-0.09003188
122	0xbe15e806	-0.14639291
123	0x3d240a80	0.040049076
124	0x3d3191f4	0.043352082
125	0xbb9e6c4d	-0.004834688
126	0x3c88804b	0.016662737
127	0xbd19a374	-0.037509397
128	0xbb5db8b7	-0.0033832022
129	0xbb1c6ada	-0.00238674
130	0xbb9ad5f0	-0.0047252104
131	0xbcb454be	-0.022013064
132	0xbd13caa4	-0.036081925
133	0xbcdba13d	-0.026810283
134	0xbd45d2a8	-0.0482966
135	0xbc794948	-0.0152152255
136	0x3cfcfcd2	0.030882273
137	0x3bd756e1	0.006571636
138	0xbd0c6d65	-0.034284014
139	0x3c91b69e	0.017787274
140	0x3da85a61	0.082203634
141	0xbc4bca7f	-0.012438416
142	0xbd41b0cb	-0.047287744
143	0x3c62d66d	0.013845068
144	0x3d703226	0.058641575
145	0x3d92e9bc	0.071734875
146	0x3d32389a	0.04351101
147	0xbc78f8d1	-0.015196041
148	0x3d474d2f	0.048657592
149	0x3d8a10b8	0.0674147
150	0xbc54e65f	-0.012994378
151	0xbd84cbe9	-0.06484205
152	0xbcb8ba01	-0.022549631
153	0x3d4db423	0.05022062
154	0x3e23e75a	0.16006222
155	0x3de8091f	0.11329865
156	0x3e06d2cf	0.13166355
157	0x3dcf5f0e	0.10125552
158	0x3dc20e14	0.094753414
159	0x3d1c0fa6	0.03810086
160	0x3e007695	0.12545235
161	0x3e523207	0.20526896
162	0x3d39c0de	0.045349948
163	0x3d9e3fdd	0.07727025
164	0x3dbebf96	0.09313886
165	0x3dd46b1c	0.10371992
166	0x3db67041	0.089081295
167	0x3cfe58c8	0.031048194
168	0x3e1fadf7	0.15593706
169	0x3deb1ece	0.11480485
170	0x3d1129bd	0.035440195
171	0x3d4df442	0.05028177
172	0x3d929122	0.07156588
173	0x3d17b746	0.037040018
174	0x3dbfb1eb	0.09360107
175	0x3c45a28c	0.01206268
176	0x3d830048	0.06396538
177	0x3d6dafd4	0.05802901
178	0x3da3bb85	0.07994751
179	0x3d7d0507	0.061772373
180	0x3dc6e5e2	0.097118154
181	0x3d808b22	0.062765375
182	0x3d02df41	0.031951193
183	0x3de6750a	0.11252792
184	0x3dfdad9c	0.12386629
185	0x3d953d84	0.07287124
186	0x3d601ba0	0.054713845
187	0x3df694d1	0.12040103
188	0x3cec914d	0.028877879
189	0xbb0ed563	-0.002179467
190	0x3db648de	0.08900617
191	0xbc35d458	-0.01109799
192	0xbc76d810	-0.015066162
193	0x3c1007d5	0.00879093
194	0x3d7b261a	0.061315633
195	0x3d0e8c02	0.03480149
196	0xbd8100ca	-0.062989786
197	0xbd30c3da	-0.04315553
198	0xbc4b34fb	-0.012402768
199	0x3d74eecf	0.059798058
200	0x3dbd6533	0.09247818
201	0x3d9057f3	0.07048025
202	0xbbb05989	-0.005381767
203	0x3d96269c	0.07331583
204	0x3dcfe695	0.10151402
205	0xbd7f9fc4	-0.062408224
206	0xbd3d88e6	-0.046273135
207	0x3d55778c	0.052115962
208	0x3c148d70	0.009066924
209	0x3dcceb88	0.100058615
210	0xbc9e1ecb	-0.019301793
211	0xbd17dd0d	-0.037076045
212	0x3de5a4dc	0.11213085
213	0x3ccb7e87	0.024840606
214	0x3e0c2082	0.13684276
215	0x3d472c4b	0.048626225
216	0xbc7b3d07	-0.015334374
217	0xbda92fe6	-0.08261089
218	0xbdba2e81	-0.09090901
219	0x3c1ce1b0	0.0095752925
220	0xbdde9703	-0.10868647
221	0xbc0aba5e	-0.008467285
222	0xbcf2d860	-0.029644191
223	0x3cf09771	0.029369088
224	0xbd9da8c7	-0.07698207
225	0x3d317765	0.043326754
226	0xbb0cdb0c	-0.0021492867
227	0x3b2f4212	0.0026742262
228	0xbc8b1150	-0.016976029
229	0x3d18764a	0.037222184
230	0x3c0d02b1	0.008606599
231	0xbd59ac43	-0.053142797
232	0xbaf58e59	-0.001873444
233	0x3d6e25d5	0.05814155
234	0xbd2c07b7	-0.041999545
235	0xbdbf604c	-0.09344539
236	0xbd1565d4	-0.036474064
237	0x3c9b637b	0.018968334
238	0xbc517040	-0.01278311
239	0xbc7a52ff	-0.015278577
240	0xbc3f4979	-0.011675232
241	0x3cc721d9	0.024308132
242	0x3c8a3eac	0.016875587
243	0x3b8f079d	0.0043649212
244	0x3d093a70	0.033502996
245	0x3d2f4dfa	0.042798974
246	0x3cef83c0	0.029237628
247	0x3dbe4b67	0.092917256
248	0x3df9f90d	0.12205706
249	0x3db57d40	0.0886178
250	0x3bea989d	0.007159306
251	0x3d241689	0.040060554
252	0xbd69259e	-0.05692064
253	0xbdd65424	-0.10465267
254	0xbdcd7bae	-0.10033356
255	0xbdbb3b91	-0.09142221
