PARALLEL/models/PRED_GROUP_POLICY_BOTH_INDIV_RWD_ROUND2_1000.ckpt (torch, 307454 bytes, 9 tensors)

network.0.weight f4 [32, 5, 3, 3]
00000000: fd72 c63d 952f 203d 737b 8d3d 5a41 c83d
00000010: 2b9c 0e3e 745a 9b3c 897e f53d 24d3 cb3d
00000020: 09b8 d9bc 64aa f53d f868 df3d a092 fcbd
00000030: 0f4b 823e 4863 f2bd c262 08be b510 683e
00000040: bb15 7a3e 95d1 143e 73da ad3d 3d11 4d3d
00000050: 6e3d 0b3e 1d0f 253e 1047 8abd 0b8d 3e3e
00000060: 8190 4abd 9779 90bd 9610 373d eabe 2dbe
00000070: a07b b0bd f3c9 c73d 393a 983d 6df0 0fbe
00000080: 3b50 08be 1106 08be b796 053d 57a8 1cbe
00000090: 277b bc3d c555 b4bc f129 143b 9603 98bd
000000a0: 3958 ce3d f0df 943c 3817 3cbc d30e b6bd
000000b0: 962e 41bc 3526 a2bc 2b26 66bd a75b c9bd
000000c0: 7f21 a63d f643 a6bd 4b5c 05be 7099 e13b
000000d0: ed2a 433d 5c40 debd 3bc2 153e 28f7 81bd
000000e0: 66aa 2a3e 7a0d 6e3e fb6a 2b3e 732b 233e
000000f0: 5080 5d3d 9687 093d 4b00 8f3c 51ed aebc
00000100: 1b49 0cbd 0289 f5bd 4674 53bd 5320 7b3d
00000110: e64f e1bd eaca 9f3d 9601 ef3c b05a 4cbe
00000120: fc82 47be ca6d ad3d 00fa f0bd a3d3 c2bd
00000130: 0e49 e43d d738 00bd 99d5 fb3c a34d fc3b
00000140: 30bc ba3c f10d 1e3c 69ee 9c3d e3a4 10be
00000150: 2dcf ab3d bce2 983c c323 173e 3a1e e9bd
00000160: 33d0 db3d 2648 93bc bce0 e6bd 6ad4 96bd
00000170: b7c4 02be b287 0c3e 1e8a c9bd 3207 813d
00000180: 6349 be3d 80cc 84bc 2c5b b03d 0481 223e
00000190: 1096 763e 2f2a 283e 7240 013d 0ce9 363e
000001a0: c8e7 34bd be14 14be 39df f0bd c2be 32be
000001b0: f141 0fbe a85b 113b c573 52bd 0820 aa3d
000001c0: e2fc 1dbd 471a 0abe d7a8 12be 56ba a3bd
000001d0: 72fc a2bd e0a5 da3d fe76 2dbc 93d6 40bc
000001e0: 5298 173d c735 2cbd 7571 b03c ee26 e3bd
000001f0: c478 0d3e 5245 033e d2f0 073e db87 b2bd
00000200: 5ac9 f1bb 9c21 41bb 0e72 ec3c c423 d1bd
00000210: 82a6 a63d 878b 4dbd 2294 383d e854 4a3d
00000220: ceed 893d 09e0 cebd 0422 933c d108 133e
00000230: 97a6 5cbd 5bb1 523d 8561 91bb 5ba8 f0bd
00000240: 9e0d 2bbe 6dec 623e 33ce 653e f406 04be
00000250: 3553 7c3e 70a6 a2bc d8db 333e 627b bdbd
00000260: 9096 6d3d 1a0a 5ebd b3d6 dabd 314b 0abe
00000270: 227e 1abe 25d2 d0bc c9ef 883b 3916 7f3c
00000280: d8a9 933c 877f 8ebc ede6 fc3d db69 813c
00000290: a6d3 b33d 8c81 373d 002a ff3b aa56 23bd
000002a0: 99d2 b33d 2797 10bb 855a 44bd 10f8 f3b7
000002b0: 89a9 733c 14c1 833d 5bef 2cbe d97b 5abe
000002c0: e457 11be f2b7 2f3d 040c 23be 48e6 68ba
000002d0: 20cc 883d 3227 d6bd 4aa0 a73c a547 fdbc
000002e0: d075 c9bd 3197 cbbd 8ffb d33d bf24 423c
000002f0: a7f9 c93d 792e 2fbe c0e8 873b 2573 7dbd
00000300: 16c9 103d 8e04 e53d 8e7a d1bd 6450 38be
00000310: cd1d e6bd c771 babd 56c6 af3d ce98 63bd
00000320: 3e3c 86bd fe3c ebba 1c63 bb3d 37cb df3c
00000330: 945b 8ebd bea7 1d3e 1820 aebc 661c 8cbe
00000340: 7ffd bb3c a480 89be 9e48 d9bd c011 373d
00000350: 06df 38bc 5ac2 413e f9ee 323d c944 3d3d
00000360: d9de 0fbe 6a78 1a3d afe5 a53d df68 a2bc
00000370: 9eea 0bbc 8a37 cbbd 8b5c 653d 39c4 b53c
00000380: e4d4 10bc d3f7 ca3d 6b80 d03d 5af6 243d
00000390: 4611 fd3d f64c 4c3c b9a5 c33c 7501 15bd
000003a0: 7a57 fc3d 1e0a 09bd 762f 0a3e 3f2d 6d3e
000003b0: 2b42 323e efad d43d ac68 343e 7bfa 373e
000003c0: 9820 0ebe ae72 7fbd 52b6 4f3c 5d85 3a3c
000003d0: dcd4 b3bc ac84 93bd c437 d93d 49f3 093e
000003e0: 06ae 2ebc 28f9 b23d e745 503d c0d5 abbb
000003f0: a461 1dbd 2996 e93d fab8 3bbb 0644 143c
0.09689901 0.039107878 0.06908312 0.0977809 0.13926761 0.01896403 0.11987025 0.09952381
-0.026577013 0.1199539 0.10908693 -0.12332654 0.2544789 -0.11835343 -0.13318923 0.22662623
0.24422352 0.14533074 0.084889315 0.050065268 0.13597652 0.16119047 -0.06751835 0.18608491
-0.049454216 -0.070544414 0.044693552 -0.16967359 -0.086173296 0.09755316 0.0743298 -0.14056559
-0.13311855 -0.13283564 0.032614436 -0.15298592 0.09203177 -0.022013554 0.0022608007 -0.07422559
0.10075421 0.018173188 -0.011480145 -0.08889546 -0.011790892 -0.01979361 -0.056188744 -0.098319344
0.081118576 -0.08118431 -0.13023488 0.0068847463 0.04764836 -0.10852119 0.14624874 -0.063459694
0.16666564 0.23247328 0.16740029 0.15934543 0.054077446 0.03357657 0.017456194 -0.021353396
-0.034249406 -0.11989023 -0.05162456 0.061310124 -0.110015675 0.07802375 0.02917556 -0.1995647
-0.1948356 0.08468206 -0.11766434 -0.09513023 0.111467466 -0.031304207 0.0307415 0.0076996847
0.022794813 0.009646879 0.07662661 -0.141254 0.08389125 0.018662803 0.14759736 -0.113827184
0.1073307 -0.017978739 -0.112733334 -0.073647335 -0.12770353 0.13723639 -0.09840797 0.063002005
0.09291341 -0.016210794 0.0861114 0.15869528 0.24080682 0.16422342 0.0315556 0.17862338
-0.044166356 -0.14461038 -0.11761326 -0.17455581 -0.13989998 0.0022179876 -0.051379938 0.08306891
-0.038571246 -0.13486587 -0.1432222 -0.07994525 -0.07958306 0.106761694 -0.010587452 -0.0117699085
0.0370105 -0.042043474 0.021538476 -0.110914096 0.138156 0.12819412 0.1327546 -0.087173186
-0.0073787393 -0.0029469496 0.02886298 -0.102119 0.081372276 -0.05018189 0.045063145 0.04939738
0.06734811 -0.10101325 0.017960556 0.14358832 -0.05386981 0.05143867 -0.004436674 -0.11750861
-0.16704413 0.22160502 0.2244194 -0.12893277 0.24641116 -0.019854754 0.17564332 -0.09252049
0.058004916 -0.054208852 -0.10685482 -0.13505246 -0.15087178 -0.02549083 0.0041789752 0.015569263
0.018025324 -0.017394794 0.12348733 0.015797546 0.08780603 0.04480128 0.007786989 -0.03987757
0.08780403 -0.002206275 -0.04793789 -2.908337e-05 0.014871963 0.06433311 -0.16888182 -0.21336307
-0.14193684 0.042900033 -0.15922552 -0.0008884412 0.06679559 -0.10456695 0.020462174 -0.030917952
-0.09836924 -0.09940947 0.10350715 0.011849581 0.098620705 -0.17107572 0.004147619 -0.06187739
0.03534802 0.11182509 -0.102284536 -0.17999417 -0.11236153 -0.091037326 0.085827515 -0.055565648
-0.06554459 -0.0017947254 0.09149763 0.02731858 -0.06951061 0.1539602 -0.021255538 -0.27365416
0.022948025 -0.26855958 -0.10609554 0.044694662 -0.011283642 0.18921795 0.043684933 0.046208177
-0.14049853 0.037712492 0.08100449 -0.019825397 -0.008539824 -0.099227026 0.05599646 0.022188293
-0.00883982 0.0991055 0.10180744 0.040274 0.1235681 0.012469521 0.023882734 -0.036378343
0.12321372 -0.033456914 0.13494667 0.23161791 0.17408054 0.10384738 0.17618054 0.17966644
-0.13879621 -0.062365226 0.012677746 0.011384335 -0.021952085 -0.072030395 0.106063396 0.13471712
-0.010661608 0.08738929 0.050847914 -0.005243987 -0.038423195 0.11405594 -0.002864419 0.009049421

network.0.bias f4 [32]
00000000: c234 dbbd 9372 ea3d 7239 f2bd 5257 d13d
00000010: 2dc1 913d 3947 abbc 8dcb c83c d6cd 21bd
00000020: 1dc0 cf3c 7ad2 b2bd fa6c b3bc ca67 ef3c
00000030: 243b 6d3c 9de9 82bd 2dc4 003e 8933 cf3d
00000040: 90b0 dbbc ab2d fb3d 75f0 1a3d 9635 843d
00000050: 87dc 8c3d 1dc0 dfbd 5df1 cd3d 1b8d ce3b
00000060: b641 c73d a362 eebd fe90 73bd 3bca c73d
00000070: 49cf ffbb 8755 913d 1e79 47bd c99c 443d
-0.10703422 0.114476345 -0.11827363 0.10221733 0.071169235 -0.020907985 0.024511123 -0.03950294
0.025360161 -0.087315515 -0.02190255 0.029224295 0.014479432 -0.063922144 0.12574835 0.101172514
-0.02681759 0.1226457 0.037826974 0.06455533 0.06878 -0.109253146 0.10055802 0.006303442
0.0972933 -0.11639907 -0.059464447 0.09755369 -0.0078066927 0.07096391 -0.04869949 0.048001084

network.2.weight f4 [64, 32, 3, 3]
00000000: fc3c 45bd ad2e b3bc 709c 49bd 71dd 98bd
00000010: bb11 93ba 991d ec3c e85f 4f3c 5c73 00bd
00000020: c5b0 e63c 0f50 173d 5eee 0c3d f80a d33d
00000030: 5205 efbb e875 d43d 6acd d6bc c7b0 e9ba
00000040: 35c2 d83c b8cd 443d 966a a83b 356f 9c3d
00000050: 1789 283d 96be be3a 2ef3 453d 45d9 de3b
00000060: 3e48 94bb c927 803d ccab 5abb 42b2 a0bc
00000070: d295 ed3b 1fd4 f2bc 704a 6e3d 99ac 68bc
00000080: 61ac cabc 2bd8 4f3d df51 18bd fde3 8d3c
00000090: b6bc a0bd cdc3 7dbd dce8 a13c 5b7f adbd
000000a0: 5290 3bbd e7b0 0cbe 357a 0fbb 6325 03bd
000000b0: 1b72 e8bc 147e 14bd 0566 373d 2000 873d
000000c0: 6d64 cd3a 0a6b 143c b7ff 423d 502b 29bc
000000d0: 0d27 8ebc ca27 4f3d aa63 173c 1f85 763d
000000e0: 8d23 dc3a eacd b3bc 7342 dc3b 40a6 c0bc
000000f0: 5ae0 e1bc 5a00 3c3d 9433 3c3d df5a 9bbc
00000100: 1c5d 963d cec4 c3bd ed26 e3bc 00a9 1d3d
00000110: 9441 8b3d f0c5 86bc 15da f33b 1953 65bd
00000120: 6b89 c63c 309e 933c f445 d1bd c0d0 12bb
00000130: 296a 433b 484b 4b3d 942a 1abd 0451 ba3b
00000140: 9360 31bd ca34 d33b 6d3f 17ba a557 bebb
00000150: b00c 16bd 86a0 bfbc 5581 eebc abb7 903a
00000160: 9991 733d b853 933c 0268 97bb 2f50 173d
00000170: b382 c2bc 88d9 5abd df9e 6dbd 7f6f 513d
00000180: 8f99 69bd 222e 77bd ab23 31bd a422 bfbc
00000190: d22e df3b e136 3cbb 541c ac3d a7d2 acbc
000001a0: bb1c 9a3c 84cf 7b3b 28b4 1fbd 877e 7bbc
000001b0: 2915 313b 3125 883c 0ba8 9cba 1ef7 613d
000001c0: 7a18 443d 97da 2f3d 9fc9 a3bc 6bb4 dcbc
000001d0: 9bd3 6fbd 3c8f 733b 1196 673c 2eb7 58bd
000001e0: 5100 933d 4a22 1c3d da6d 8b3d 24e3 173d
000001f0: 3655 263d 49d9 5bbc c5b0 f3bb 3f1a a43c
00000200: ba91 ccbc 55ca dcbc a3ec 273c 4154 153d
00000210: 18ad 11bc be89 d3bc 2a2b de3c 371b 8a3c
00000220: 426d 59bd a523 2ebc 4abc 2abd dfef 3d3c
00000230: 8fc5 763d 5d01 b13c 37df 6a3d 3f49 07bd
00000240: b50b 24bd bb8f 8fbc f9af ecbb ae1d 9abc
00000250: c62c c23c 3a11 9e3c b34c c03d b86b 3ebd
00000260: 0198 01bc 56b3 93bd f0f4 023d 0d63 dabb
00000270: 569a ffbc efbe d13c 86bc b43c 9f20 333d
00000280: bef9 b8bb f539 d33c cd57 613c e1f7 23bc
00000290: c9f5 cfbd c3ea b23c 5309 25bd f547 72bd
000002a0: 5a12 29bd a48e 3cbc f9ba af39 bf4a d73d
000002b0: 5cce 723b 0f34 4bbd 7a3c 913d cacf 1b3d
000002c0: 5409 3e3d c6a5 b0bc 45e0 c7bc a82f 13bd
000002d0: 5f2c e2bb 5a02 7b3c 140a 42bd c2ef 513d
000002e0: ac26 243c f9b8 1b39 2d36 e6bc 04fa 28bd
000002f0: 8915 8b3a 5c6d d53b 3578 bf3d 6be9 c33c
00000300: af55 f0bc b120 703a d82c a53d 5818 873d
00000310: c2be ccbc 110a 513c 0971 98bc 9cc8 9abc
00000320: de63 dabd 19c8 8cbc edae 0e3d ba44 083d
00000330: 56c5 ffbc 30ff 18bd 46fe 8ebd c9e8 01bd
00000340: 3c35 163b 152a 1ebc 6877 8d3d 7d30 b4bc
00000350: c8b2 8a3d e920 f83c e149 c9bc c902 b0bb
00000360: 46e7 8f3c a69f 71bd 3e5a b43c 9a41 f03b
00000370: f0f2 993c e307 0ebd cafc 21bd 1285 253d
00000380: dced 03bd ba8e 573d b4d1 9a3d 4998 d3ba
00000390: ee87 713d 6f97 2e3d 3aee a43d 8778 6d3d
000003a0: 0f2b 8fbd 9e09 20bd 32fc 9fbc 4737 9cbc
000003b0: f8bf 76bc be8e b83c 62d6 e03c 184c 70b9
000003c0: 90b0 1a3d 1538 9bbd d221 3ebc aa27 11bd
000003d0: 1aa1 ab3c 0448 45bd ddcc 873c c0fc 9ebd
000003e0: 3801 f33b 74f3 c0bc c1ff acbc 632f 5dbd
000003f0: 1b5e 3a3d e0c2 bcbb 4f01 9d3c b69a 433d
-0.048153862 -0.021872843 -0.049221456 -0.074641116 -0.0011220494 0.028822707 0.012657143 -0.031360015
0.028160462 0.036941584 0.034407012 0.103048265 -0.0072943354 0.10374051 -0.026220996 -0.0017829173
0.026459793 0.04804775 0.005139659 0.076383986 0.041146364 0.0014552649 0.048327617 0.006800803
-0.0045252135 0.062575884 -0.003336656 -0.01961625 0.007250526 -0.029642163 0.058176458 -0.014201307
-0.0247404 0.050743263 -0.037187453 0.017320627 -0.07848494 -0.06195431 0.019764356 -0.08471557
-0.04579193 -0.13739358 -0.002189291 -0.032018077 -0.028374722 -0.03625305 0.044775028 0.06591821
0.0015670188 0.009058723 0.04760715 -0.010325268 -0.017352605 0.050575055 0.00924007 0.060185548
0.0016795263 -0.021948773 0.0067217886 -0.023516774 -0.0275728 0.045898773 0.045947626 -0.01896423
0.07341978 -0.09559022 -0.027728522 0.03849125 0.067996174 -0.016451806 0.007441769 -0.05598745
0.024235448 0.018019766 -0.102184206 -0.0022402257 0.0029817915 0.04963234 -0.037638262 0.0056859273
-0.04330499 0.006445502 -0.0005769644 -0.005808788 -0.036633193 -0.023391973 -0.029114405 0.0011041065
0.059465025 0.017984256 -0.004620553 0.036941703 -0.023743963 -0.05343011 -0.05801284 0.05113172
-0.05703121 -0.06034673 -0.043246906 -0.023331948 0.0068110013 -0.0028719234 0.08403841 -0.02109654
0.018812528 0.003842325 -0.03899017 -0.015349991 0.002702067 0.016619297 -0.0011951936 0.05516731
0.047874905 0.042933073 -0.019993601 -0.026941499 -0.058551412 0.0037164232 0.0141349 -0.05290907
0.07177795 0.038118638 0.06808062 0.037081853 0.040608607 -0.013418504 -0.007436844 0.020032046
-0.024971832 -0.026951948 0.01024929 0.036457304 -0.008891366 -0.025822517 0.027120192 0.01685868
-0.053082712 -0.0106286155 -0.041683473 0.011592834 0.060247 0.021607095 0.05734178 -0.033028837
-0.040050227 -0.01752459 -0.007223126 -0.01881298 0.02370299 0.019295324 0.09389629 -0.046489447
-0.007909776 -0.0721194 0.03197187 -0.00666464 -0.031201523 0.02560374 0.022062551 0.04373228
-0.005645006 0.025784472 0.0137538435 -0.010007829 -0.10154302 0.021840459 -0.040292095 -0.059150655
-0.041277267 -0.011508618 0.00033517907 0.105123036 0.003704927 -0.049610194 0.07091613 0.03803996
0.046395615 -0.021563422 -0.024398932 -0.03593412 -0.006902262 0.015320385 -0.047372892 0.05125404
0.010018986 0.0001485086 -0.028102005 -0.04125406 0.0010611276 0.006513281 0.093490995 0.023915013
-0.029337732 0.0009160145 0.08065194 0.0659644 -0.024993304 0.012758748 -0.018608587 -0.018894486
-0.106635794 -0.017185258 0.03483479 0.033268668 -0.031222027 -0.03735274 -0.069820926 -0.03171614
0.0022919914 -0.009653588 0.069075406 -0.021995777 0.06772381 0.03028913 -0.024571361 -0.0053714258
0.017566334 -0.058990143 0.022015687 0.007332039 0.0187926 -0.03467549 -0.03954772 0.04041011
-0.032209262 0.05262635 0.07559529 -0.0016143407 0.058967523 0.042624887 0.080532506 0.057976272
-0.06990635 -0.03907167 -0.019529436 -0.019069327 -0.015060417 0.022529002 0.027445976 -0.0002291653
0.03776604 -0.07579056 -0.011604743 -0.035438217 0.020950843 -0.048164383 0.016577179 -0.07763052
0.007415917 -0.023553587 -0.021118047 -0.05400027 0.045499902 -0.0057605356 0.019165663 0.047754966

network.2.bias f4 [64]
00000000: 5f25 e93c fd42 543d 2da3 2c3d 6278 81bc
00000010: 3062 80bd 9ec4 8bbc f92c 10bd f794 7d3b
00000020: 7e1e 1bbd 6b0c 493d f2c9 c4bc bbcb 2c3d
00000030: bbba 1e3d 8255 9fbc 93d4 16bc 0748 833c
00000040: 1d6b ca3b 7ecc b1bc 7683 60bd bf68 6fbd
00000050: 7f1b 9ebc 7405 53bd 567e 183c e5fd 8bbc
00000060: ec35 f9bc 531a 463d 529e 223d 8548 cd3c
00000070: c2e9 64bd 3436 2cbd 58fc 35bd 42c2 c53a
00000080: d09f 59bd 212a 4d3d 64ce c8bc 20dd d33c
00000090: 0dcb 25bd 5113 e53c 0857 0fbc 8afe c13c
000000a0: 1ef5 3c3d eab0 01bd 2d86 703c 057c 353d
000000b0: dffb 053d 5c71 3e3c 0243 aabc 2073 633c
000000c0: b864 823c 2289 323d 580f 073c f103 20bd
000000d0: da49 92bb 73e8 893c 634c 723c 4c7c e3bc
000000e0: a7c4 1e3d a7df 513d 3413 f63b 2406 debc
000000f0: 4a62 62bd d02e 11bd 9971 373d 403c 843c
0.028460203 0.051821698 0.042147804 -0.015804473 -0.06268728 -0.017061528 -0.03519914 0.0038693526
-0.037870876 0.04908411 -0.024022076 0.04218648 0.0387523 -0.019449953 -0.009205955 0.016025556
0.0061773197 -0.021703955 -0.05481287 -0.058449503 -0.01930022 -0.051518872 0.009307465 -0.01708884
-0.03042122 0.04836495 0.039701767 0.025058994 -0.05588699 -0.04204388 -0.044430107 0.00150878
-0.053130925 0.050089005 -0.024512477 0.025862277 -0.040476847 0.027963312 -0.008748777 0.023680944
0.0461322 -0.03166286 0.0146804275 0.044307727 0.032710906 0.011623707 -0.020783905 0.013882428
0.015917167 0.04358781 0.008243404 -0.03906626 -0.00446437 0.016834473 0.01478872 -0.02776923
0.03876176 0.051238682 0.0075096134 -0.027102537 -0.055269517 -0.035445035 0.04478607 0.01614201

network.4.weight f4 [64, 64, 3, 3]
00000000: c23a 643c aead 73bd 0d76 003b 8a6b 4e3c
00000010: 1546 ee3c 0383 393d 588d a5bc cc7a d5bc
00000020: 6287 89bc 869c e63c 9e07 89bb ba0a dabc
00000030: 69a9 9dbc 2a12 d3bc 2ebe 433d be99 343b
00000040: 2efa 5cbd f33e be3c 6e14 403d 4ece 743c
00000050: 4989 bbbb a3ac 26bc c65a 793c 1036 dc3c
00000060: 6bea 013d 88d9 f73a 132d 003d 6bbe 453b
00000070: b0e4 cd3b 4c32 e9bb 70fc a63d 1529 403d
00000080: 0c53 003d 3643 4fbc c3f6 09bd 0103 3dbd
00000090: c309 bdbc a1ed b63c 8d59 b8bb 74cb 2dbd
000000a0: 12b8 fb3c 0693 01bd 6d4b 163a 8c34 0abd
000000b0: 67a4 273c 135e 263d 1962 0f3c 35c5 de3c
000000c0: ab0e 6cbb 669b 513d 6628 4d3c bb36 613d
000000d0: 6a16 d4bc 85c5 44bc 7251 c13c 90e1 0b3c
000000e0: a183 0abd 9c9f e7bb cf1f f0bb e014 873a
000000f0: e8e0 5e3d 1d35 a0bb ba4e 223d 16a9 193d
00000100: 8fb5 b83c 0546 d23b 3e8a 6b3d a8d9 e6bc
00000110: 5bc3 c6ba c073 b3bc 420d 46bc fd28 78bd
00000120: 5084 89bd 03ea 7cbd 44c6 0a3d 2d3d 0fbd
00000130: 034b 853c 14a1 033d c516 ab3c d43a e7bc
00000140: b5b1 16bd a395 0b3d 7159 74bc 10c3 2c3a
00000150: bba9 0fbd a230 6bbd 1bd2 0ebd 6731 2b3d
00000160: b0ac 003d 79e0 8f3d d592 b33d d916 1cbc
00000170: 440b 99bc f8c2 fdbc 0d8a dabb 1905 4ebd
00000180: 0006 4c3c ce71 4dbc 4c01 dabc 57da 4d3c
00000190: 7d67 0f3c 085b 2ebd 7d1a 4f3d c8c6 cabc
000001a0: 437a 513d cb20 a83c 5287 aa3c a468 d63c
000001b0: 49e4 b2bc 9a1e 8abd 16e2 3bbd 1d23 b4bc
000001c0: b9f5 b93b 213e 6f3d a941 0ebd 3dd0 e7bc
000001d0: 719c 69bd e3d6 153d e0ea 613c 403b c63c
000001e0: 32f5 b3bc dc8a f6bb bbe6 303d c8c3 03bd
000001f0: 4014 463d fb8d 463d 62b1 95bb 2f2a a6bd
00000200: 6033 31bc fcde c6bb 0ea4 0dbd ca9c 12bd
00000210: 4814 0abd e57b c33c 6a0a 0bbd 27dd bc3c
00000220: d6ff 12bd 9519 933c cfbe 2ebc 96f4 9d3c
00000230: 82a5 213d 2248 1b3d eefa e7bc e30d a0bc
00000240: d4e4 533d 1c4d 8fbd b000 bb3b 2482 103d
00000250: b8a0 05bb ccc7 90bd d4b0 71bc 7508 d93b
00000260: 655d 2bbd 5a6c 43bc 5d9c 81bc 4e51 493d
00000270: 05bc 733d 2804 f0bb e585 373d d29e 143c
00000280: beb0 4f3d d56c 443d 6c0b 343d 2b14 41bd
00000290: adca 1f3d f632 67bc d7b4 083d feb8 813d
000002a0: c245 03bc 44be ba3b be49 5fbd 6f42 433d
000002b0: 1da2 1bba b056 60bd 1a09 dd3c c19d 6c3d
000002c0: eaa3 1b3d a582 92bb 3ca6 713a 7608 7a3d
000002d0: 4b62 cd3b bf00 2a3d b1d6 ba3c 9604 153d
000002e0: 8765 dfbc 5b6c a9bb c09a 2d3c ce0c a6bd
000002f0: 6fab 7f3c 0047 923d 3624 403d a41a 64bd
00000300: 454e 733c bae3 453c d4cf 173d e91a a3bc
00000310: e8fd ff3c 6d78 b33c 5309 983d a1dd 31bd
00000320: 3658 dcbb 4c2f 16bb dba5 213c b41b 0d3d
00000330: 79f3 61bb 3987 b5bc b87e 7abd 54dc 39bd
00000340: a9bd 1d3e b0b7 b3bd 4c3c aebc 54b1 8a3d
00000350: b3ad a0bb 1f0d 143d 9467 f63c 173e 10bc
00000360: d20e 80bc ed9b 80bc 0463 843c b88e 603d
00000370: cd78 653d 0166 663d f9a8 04bd 5317 a3bc
00000380: fa9c 2c3c 7d3d 43bc a67f c53c 790a 10bd
00000390: c545 42bb 4414 3d3c 575a 80bc 2c49 01bd
000003a0: db9f 73bc dec6 ef3c d463 053d 2ee9 2abd
000003b0: dfd1 003d 2c77 8f3c 7834 51bd 59e9 ac3a
000003c0: 051f 203d 31e5 ad3c 5958 54bd c455 193d
000003d0: 7cbf 6cbd 3977 233d 28c7 aabc 10fe 4bbd
000003e0: 38f8 d2bc 644b 383d 3616 10bd 59b9 533a
000003f0: 640f 153c 90e7 8c3d 89cc 17bc de37 c33c
0.013930025 -0.059491806 0.0019601614 0.0125988815 0.029086152 0.045290958 -0.020209 -0.02605953
-0.016788188 0.028150808 -0.0041818162 -0.026616443 -0.01924582 -0.025765497 0.04778879 0.0027557458
-0.053949527 0.023223376 0.046894483 0.014941765 -0.005723153 -0.010172996 0.015219396 0.026881248
0.0317177 0.0018909434 0.031292986 0.0030173312 0.006283365 -0.0071165916 0.081536174 0.04691418
0.0313292 -0.012650302 -0.033682596 -0.046145443 -0.023075944 0.022330107 -0.0056259097 -0.042430356
0.03072742 -0.031634353 0.0005733285 -0.03374152 0.010232068 0.04061706 0.008751416 0.027193645
-0.0036019485 0.05117359 0.012521839 0.054983836 -0.025889594 -0.012009983 0.023598406 0.008537665
-0.033816937 -0.0070685875 -0.0073280106 0.0010305904 0.054413706 -0.004889144 0.03962586 0.03751477
0.022547511 0.0064170384 0.057504885 -0.028179958 -0.0015164422 -0.02190578 -0.012088122 -0.060585964
-0.0671469 -0.06174661 0.033880487 -0.03497045 0.01627112 0.032136038 0.02088488 -0.028226294
-0.03679057 0.03407825 -0.014913903 0.0006590346 -0.035073977 -0.057419427 -0.03486834 0.04179516
0.031414688 0.07025237 0.0876824 -0.009526932 -0.01868213 -0.030976757 -0.006669289 -0.05029783
0.012452602 -0.01253934 -0.026611947 0.012564263 0.008752701 -0.042567283 0.05056237 -0.02475299
0.05114199 0.02052345 0.020816479 0.026172943 -0.02183737 -0.06744118 -0.04586991 -0.0219894
0.0056750444 0.05840886 -0.034730587 -0.028297538 -0.05703396 0.036581885 0.013788909 0.024198174
-0.021967504 -0.0075238775 0.04318879 -0.032169133 0.048359156 0.048475247 -0.004568265 -0.08113515
-0.010815471 -0.0060690623 -0.034580283 -0.035794057 -0.033710748 0.023862788 -0.03394548 0.023054672
-0.035888515 0.017956534 -0.0106656095 0.019281667 0.03946448 0.037910588 -0.028317895 -0.019537872
0.0517319 -0.06997129 0.005706869 0.03528036 -0.0020389985 -0.07069358 -0.014751632 0.0066233226
-0.041837115 -0.0119276885 -0.01582163 0.049149804 0.05950548 -0.007324714 0.044805426 0.009071069
0.050705664 0.047955353 0.043956205 -0.047138374 0.039011646 -0.014111271 0.033375587 0.063341126
-0.008012237 0.005698951 -0.054513685 0.047670778 -0.00059369375 -0.05477017 0.026981879 0.057767633
0.037998118 -0.0044711404 0.0009218191 0.061043225 0.006267821 0.041504618 0.022807451 0.036381327
-0.027270092 -0.0051703877 0.010595977 -0.08107911 0.015604838 0.071424484 0.046909533 -0.05568947
0.014850204 0.01207822 0.037063435 -0.019910293 0.031249002 0.02190801 0.074236535 -0.043424252
-0.0067243828 -0.0022916375 0.009866203 0.034450248 -0.0034477396 -0.022159206 -0.061156005 -0.045376137
0.15404381 -0.0877527 -0.021268986 0.06772104 -0.004903519 0.036145326 0.030078687 -0.008803866
-0.015632067 -0.015699351 0.016160496 0.054823607 0.056023408 0.056249622 -0.032387707 -0.019908583
0.010535473 -0.011916515 0.02410872 -0.035166238 -0.0029643637 0.011540476 -0.015668077 -0.031563923
-0.0148696555 0.029269632 0.032565907 -0.041726284 0.03145015 0.01751288 -0.05107543 0.0013192102
0.039092083 0.021227451 -0.051842067 0.037435308 -0.0577998 0.03990862 -0.020846918 -0.04980284
-0.025753126 0.044993773 -0.035177432 0.000807663 0.009097908 0.068801045 -0.009265074 0.02383035

network.4.bias f4 [64]
00000000: 708c fd3c bcae 6dbb 6d7b d6bb d695 1d3d
00000010: a899 3ebc 14dc 01bc 81c9 e43c 4ed9 e2bb
00000020: 24ab 143b 9da3 8b3c 443e f4ba 8cf5 abbc
00000030: 6156 643c a005 a7bc fc7a 24bc 0245 0f3d
00000040: 2980 073d 36b8 1cbc d259 233d 253a 513c
00000050: cb94 c93b 9c4d 823c 083f f03c 439f a03c
00000060: 1a36 74bc 040a 0bbd 3894 123c ca97 9d3c
00000070: d703 0ebd 09f8 043d 557b 553c de15 06bd
00000080: ef52 ac3c 106e 883c 3a50 a5bc 10d8 3f3d
00000090: 3f67 e9bc 9920 153d 95c8 0ebd 9c81 02bd
000000a0: 35fc f9bc 97a1 89bb d2f1 e13c 4487 b1bc
000000b0: 23d2 1ebd a0ac c3bb 61b0 e33c 59ea 8ebc
000000c0: c04a adbc a0d3 003d 6dd5 4a3d d259 323c
000000d0: 44ae 18bd 5a72 d0bc 7623 1b3c 622d 633c
000000e0: 557d f93c b176 463c f1f2 423c b061 29bb
000000f0: 1e5d 323d 0898 423c e21b 3bbd 9e96 d13a
0.030950755 -0.003626748 -0.006545475 0.038472973 -0.011633314 -0.007926006 0.027928116 -0.0069228774
0.0022685016 0.01704579 -0.0018634279 -0.02099111 0.01393661 -0.020388424 -0.010039087 0.03497792
0.033081207 -0.009565404 0.03988058 0.01277021 0.0061517707 0.015906148 0.02932693 0.019607192
-0.014905477 -0.0339451 0.008946471 0.019237418 -0.03467163 0.032463107 0.013029893 -0.032735698
0.02103564 0.016654044 -0.020179857 0.046836913 -0.028491614 0.03640804 -0.03485926 -0.031861886
-0.03051577 -0.004200171 0.02758113 -0.021670945 -0.03877462 -0.0059715062 0.027794065 -0.01744573
-0.021153808 0.03145182 0.049519945 0.010885673 -0.037275568 -0.025445152 0.009468904 0.013865801
0.03045527 0.012113259 0.011898742 -0.002584558 0.043545835 0.011877067 -0.045680888 0.0015990322

actor.weight f4 [5, 3136]
00000000: 37e8 72bc 9232 aebc 2b7e 4cbc 1596 82bc
00000010: 2a9e a0bc a3d3 a3bc fb21 df3b e136 03bc
00000020: f9cc 613b 9126 bc3b 0117 eebb 2022 61bc
00000030: dc48 81bb 5b16 b93a 5d0f 3cbb 5a1d 453b
00000040: 2b63 d53b 9a82 4abb 6b55 1bbc 948e 41bc
00000050: bc41 eebb 5cbb da3c b78b b73c 6dd7 893c
00000060: 8a49 263c 0515 89bc ad8f 26bc 02e8 a93a
00000070: 9852 563c 9a74 c43b c5dc 923b c7fa 2ebb
00000080: 9f83 66bc 334f 8ebc 27ca 58bc 3d93 f73b
00000090: ef45 0d3c 297d 7e3c c0e0 b73c 407d 603c
000000a0: 8640 4ebc bd3c 06bc 7e37 683b 4cef fc3b
000000b0: 2abf f7bb c095 123b 7f4b 293c 80f5 edbb
000000c0: f8fa 18bc 788e 9fbc 90ff 71bc aaf3 bcbc
000000d0: 4019 a3bc e0a7 14bc 23dc e0bc 15e4 c0bc
000000e0: b48b c3ba 9482 2abc 5396 8cbb 1d10 033c
000000f0: 2c62 91bb e853 38bc 6708 04bc 38cf 2c3c
00000100: b2fa 823c 92c5 073b 34cb 993b 383d 483c
00000110: 1024 173b abf4 e33a 2bec f83c aa1c 583c
00000120: 1d70 933c a39c 993c 388d 3a3c ecb4 3abb
00000130: 2ef4 f339 5317 a2bb 4858 02bc c350 4ebb
00000140: 6716 93bb 49e1 543a 2696 efbb d170 b0ba
00000150: f533 963c c543 b33a 0b8d 8a3b b5b6 9f3b
00000160: afc6 183b d0e4 b13b 7038 b33b 880f 47bc
00000170: c25c 46bc 6c2d 6bbc e1a2 69bc f016 23bc
00000180: e9a1 23bc a51a 19bc 31b6 97bb 9e85 92bb
00000190: 8076 debb cf96 e53a 3a58 eabb fe1f ae3c
000001a0: fc21 1bbb 3776 2d3c 4d08 323c e4e9 33bb
000001b0: c41c 5fba 79c5 3c3b 8881 dc39 1a4f 3bbb
000001c0: ca05 a03b 47dd 80bb b4ea 51bc 7d22 1cbc
000001d0: f08d f9ba 6e20 f7bb bf7c 2ebc c13b 5abb
000001e0: e345 1bbc e6e8 4cbc 21db 73bc 61a0 cf39
000001f0: 93ad e3bb 3b8a eabb 3f38 02bc 11a1 b6bb
00000200: 04ea f9ba d823 f83a e52a 0fbb df79 3cbb
00000210: 34a4 ee3a 3742 f0bb 58c0 86bc 89ea fbbb
00000220: aa35 92bb f412 1d3c dd0d 1cbb 909e 6cbb
00000230: 4cbe c03a 27e5 593b 5c7a b73b a9a6 833b
00000240: 728f 71ba 7b00 61bc 85cb 62bc 59fd 18bb
00000250: a190 8cbb 479f d5ba f135 2b3a 14e0 01bb
00000260: 1df8 79bb 947c 87bb be89 973c 3fd8 df3a
00000270: 07dc 8b3b 79fb ffba 6e90 10bc bcf6 2abb
00000280: 6c5c 11bc 65c4 973b ea3c 123c 5ec8 b63b
00000290: b664 c6bb 2d93 e0bb 74e8 d3bb 56d9 46bb
000002a0: de0a 9b3b b2df c93c 6bad a23a 3bff debb
000002b0: 7998 c6ba f8b8 adbb cd0c 10bb bc9b 483c
000002c0: c698 173b 2863 76bb abaf 71bc d1b9 33bc
000002d0: b0ce abbb 1b16 cfbb b35a 713c ca19 9aba
000002e0: c728 81bb 73d9 34bc d089 19bc 30bf 6abb
000002f0: 1440 b8bb fca2 d83b 97d2 3b3b 086f 743c
00000300: d11d 603c 27e3 1dbb 9166 26bc 1279 0cbc
00000310: ce51 67bc ec8a 3bbc 2bdb 3cbc bb2b 45bc
00000320: af8a 8bbc 6dac 02bc 0095 f9ba ffff 88bc
00000330: 5399 f0bb ea7a 953a bce8 4fbc 849d fbbb
00000340: 0266 bfb9 4978 61bb 0e7c 65bc 24c9 c4bb
00000350: 894b 17bc edad 26bc fa18 95bc 9f9d 28bc
00000360: 96e4 83ba 7115 0c3c 9302 023c 9310 aabb
00000370: 378c ffbb 87ac 93bb a56c 52bc f489 bcbb
00000380: 86c3 88bb 4567 e6bb 75d3 1abc e0bf f9bb
00000390: 6407 2ebb 1f89 13bc 3717 edba 7cf1 85bb
000003a0: cb51 d3bb ee9c 09bc 1a07 d439 7624 b2bb
000003b0: 06ad 85bb 51f9 77bc a780 833b 4d45 f23b
000003c0: 805f 4f3c be91 bc3b 8c12 3d3c 693a 62bc
000003d0: 430b 29bc c93b 063b 9e37 d5bb 9836 59bc
000003e0: d592 1cbc 3b5b 383c dd93 44bb 92eb 00bc
000003f0: 70b3 a23b b2b4 3bbc 7323 71bc 0463 1abc
-0.014825872 -0.021264348 -0.012481253 -0.015940705 -0.019606669 -0.019998377 0.0068094707 -0.00800869
0.0034454449 0.005741902 -0.007265926 -0.013741046 -0.003945453 0.0014121042 -0.002869568 0.003007731
0.006512066 -0.0030900599 -0.009480814 -0.011813778 -0.0072710197 0.026700668 0.022405488 0.016826356
0.010149369 -0.016733656 -0.010166091 0.001296282 0.013081215 0.0059953453 0.004481884 -0.0026699768
-0.014069467 -0.01737175 -0.013231791 0.007555394 0.0086226305 0.01553277 0.022446036 0.013701737
-0.012588626 -0.008193192 0.0035433467 0.007718956 -0.0075606303 0.002236709 0.010332941 -0.007261932
-0.009337179 -0.019477114 -0.0147704035 -0.023065407 -0.019909501 -0.009073228 -0.02744872 -0.023546258
-0.0014918954 -0.010407109 -0.004290381 0.007999447 -0.004436752 -0.011250474 -0.008058644 0.010547452
0.015988681 0.0020717126 0.004693413 0.012221627 0.0023062266 0.0017391642 0.030386051 0.013190428
0.017997796 0.018751448 0.011386208 -0.0028489185 0.000465305 -0.004946628 -0.007955618 -0.0031481243
-0.0044887546 0.00081207283 -0.0073116003 -0.0013461356 0.018335322 0.0013676813 0.0042282394 0.0048740753
0.0023311784 0.005428888 0.0054693744 -0.012149699 -0.012107076 -0.014354091 -0.014260025 -0.009954199
-0.009987333 -0.009344731 -0.004629873 -0.004471495 -0.0067890286 0.0017516258 -0.0071516307 0.02125549
-0.002367138 0.010587267 0.010866237 -0.0027452642 -0.00085110613 0.0028804226 0.00042058178 -0.0028581084
0.0048835026 -0.0039326283 -0.012812305 -0.009529707 -0.0019039493 -0.0075417077 -0.010649859 -0.0033299776
-0.0094771115 -0.012506699 -0.014883787 0.00039601608 -0.006948182 -0.0071575916 -0.00794798 -0.0055734
-0.0019066934 0.0018931581 -0.0021845635 -0.0028759164 0.0018206895 -0.007332112 -0.016449139 -0.007687871
-0.0044619637 0.009587038 -0.0023811974 -0.0036105253 0.001470515 0.0033248158 0.005599303 0.00401767
-0.00092147954 -0.013733025 -0.013842468 -0.0023344366 -0.004289702 -0.0016298079 0.000653117 -0.00198174
-0.0038142272 -0.004134724 0.018498298 0.0017077996 0.0042681727 -0.0019529901 -0.008823497 -0.0026087007
-0.008872133 0.0046315663 0.008925656 0.005578085 -0.006054486 -0.006853482 -0.0064669196 -0.0030341945
0.00473152 0.024642799 0.0012411302 -0.006805328 -0.0015151642 -0.005301591 -0.0021980286 0.012244161
0.0023131832 -0.0037595723 -0.014751355 -0.010969595 -0.005243145 -0.006319774 0.014731097 -0.0011756953
-0.0039416286 -0.011038172 -0.009371236 -0.0035819523 -0.005622873 0.006611226 0.0028659457 0.01491905
0.013678984 -0.0024091692 -0.01015629 -0.008573787 -0.014118625 -0.011446696 -0.011526863 -0.012034352
-0.017033903 -0.00797568 -0.0019041598 -0.016723631 -0.0073424964 0.0011404429 -0.012689766 -0.0076786894
-0.0003650636 -0.003440397 -0.014006628 -0.006005423 -0.009234318 -0.010173303 -0.018200386 -0.010291486
-0.0010062631 0.008550034 0.007935184 -0.005189964 -0.0077986973 -0.004506651 -0.012843286 -0.00575375
-0.004173699 -0.0070313537 -0.009449829 -0.0076217502 -0.0026554698 -0.00900486 -0.0018088584 -0.004087625
-0.0064489595 -0.008399231 0.00040441082 -0.0054364754 -0.004079464 -0.015135125 0.0040131393 0.007393515
0.012657046 0.0057546785 0.011540066 -0.013807871 -0.010317626 0.0020482412 -0.006506874 -0.013257645
-0.009556492 0.01125222 -0.002999536 -0.007868664 0.0049652383 -0.011456655 -0.014717924 -0.009423021

actor.bias f4 [5]
00000000: d3de 1bbc d4d6 a23b 6256 8e3b 4bc3 253b
00000010: be95 9d3b
-0.009513575 0.004969457 0.0043437937 0.0025293406 0.0048091104

critic.weight f4 [1, 3136]
00000000: 1755 883c c9f5 a13d dd93 7e3d 5bda a93d
00000010: a79f 143d f855 50bc 3408 333b ffd6 77bd
00000020: 2987 7abc 3742 553b db67 353d ed59 9bbd
00000030: 8032 88bc cec5 edba f3a3 0abd d230 d83c
00000040: 44e0 93bc d73a 3a3d 4dab 273d 5ffe 02bd
00000050: 9791 993c fc2a 33bd 80c3 be3b 3093 86b9
00000060: 1698 71b9 cb90 1fbd 8cef febc 0553 d73b
00000070: c634 803c f2f3 483c 9a5c 11bc 5915 e23c
00000080: e6e5 7b3c 0260 83bb 4d5b bcbc 613a c1bc
00000090: a314 f3bc feef c13c a5a4 2cbd 3288 1e3c
000000a0: 3227 9e3c eb9e 423d 3e28 c2bc fe2d 9cbc
000000b0: a694 29bd 3bc3 f13c 8a29 26bd 339e 68bb
000000c0: 1957 ea3c 3ada 4c3c 35c8 70bd c00a 283c
000000d0: d3d1 da3d 5fbe 833d 31b6 233d e3d6 083d
000000e0: 1304 813d 5f7b 03bb 9233 29bd c0c5 a7bd
000000f0: 6c03 e03c 2aef 193d c8ad 813c 3f94 1cbc
00000100: 356d 5f3b 2a68 cc3b 9113 7ebc 0db9 caba
00000110: af5f 2fbd c4ea e0bb fa87 883c 9a80 2fbd
00000120: f086 b5bd 445a e93d d039 4b3d beb0 e4bc
00000130: c411 1b3c d5df afbb ba77 523c 7d14 4cbc
00000140: 4363 a33b 3faa 53bc e487 623c d3e3 e83c
00000150: c6b0 d2bc 4f51 39bd 34b7 3bbd 4785 233c
00000160: c364 04bd eb2e fcbc 0bb9 983c e5d1 0c3d
00000170: 3d77 8f3d dc27 8c3d 8f90 373d cfbc a43c
00000180: 52da 643d b014 e8bc a5bc 243d cd91 d93b
00000190: 2797 a0bc c45a acbc c591 b3bc fd13 e63b
000001a0: 82a6 f5bc b4e7 353d a5b9 86bc abb0 f6bc
000001b0: 6048 88bd ec2f c1bc 3950 80bc d1aa f83c
000001c0: 7c54 883d 043f 5b3d 5c52 f13c 09fd 78bc
000001d0: 3015 f03b e37d 803d ac11 22bd 506c e33b
000001e0: 50de 613c 1f83 033d 737d eb3c 9c16 063d
000001f0: b2a0 8f3d 6607 3e3d a144 733c 136a 3b3d
00000200: 64fe fd3c 799c a63d 7f41 7e3d 8d2d 4d3d
00000210: ece3 b23d 9b34 4b3c 4603 053c 7d9b 2d3d
00000220: bc70 babc 0f2d 393d 0fac 1b3d ca3f 0d3d
00000230: b592 36bc 7c45 2fbd 9d6d 34bc b96e 69bd
00000240: cd37 3dbc d16f fb3b 8a28 cd3c d5f4 ff3c
00000250: 337a c4bb 03e1 4ebc f0a8 6cbc b3c2 92bc
00000260: bf60 2c3b 73ac 01bd 6b38 02bd 40bc 933b
00000270: 7457 063c cf10 79bc d3ad 58bd 40b5 0c3d
00000280: b250 adbc 2610 523c 78f8 973d 2b5b 263d
00000290: 0325 17bd 6d68 33bd a6ea 90bc 5bb4 61bc
000002a0: 76f5 1b3d df0a 27bc eb02 27bd 0092 dd3b
000002b0: 6f2e 3cba 9909 e9bc 88c1 933d f35d 07bd
000002c0: b71c 2ebd 2d9f 703c b4e8 d63c dffd 383d
000002d0: 8f72 803c bc18 9e3d edd2 dfbb 57be 893d
000002e0: 4553 553d eb65 653c e293 df3b 8183 d23c
000002f0: c057 7c3c 01e6 a3bc ba9c 543c aaa1 d63a
00000300: 59c2 5bbd 0b6e 833b adf6 a63b f19f ab3b
00000310: 8909 adbb 012a 463d b922 8e3d b354 d73c
00000320: 67c6 37bd e70c 933b 69fe 453d 772e 06bd
00000330: d40a 41bc af6d 1d3d 96c9 0ebd 81b5 7cbd
00000340: fb65 5d3d f59e d8bb a04e 0e3d 12fb 7c3d
00000350: 1d25 27bd 6ee4 1e3d a5da 103c b161 9ebd
00000360: 5bfd 8e3b 5a32 cbbc b5f8 45bc 3d69 cd3c
00000370: 396f 393d ffc5 32bd 3175 dfba a7cb ba3d
00000380: 9824 3fbc e645 253d 785c 93bb fd8d 45bb
00000390: 6ac0 0f3c 395d 9dbc 5a3a 3c3d 64e5 9bbc
000003a0: 931d 863c 4302 263c ea74 87bd e9b1 0cbc
000003b0: 557b 86bc b9d2 35bd 112b 2bbd bee5 d3bc
000003c0: a8a2 cb3c 52dc 1fbc 1f46 f5bc 1750 413d
000003d0: 3a17 d5bc 9143 1b3d 157d 613c 512a 4d3d
000003e0: 899d 713d aff7 153c 254b ecbb 8db2 27bc
000003f0: c9b2 e5bb d202 5a3d 04fb d93b 13ea d13c
0.016642136 0.07908208 0.062152732 0.08293601 0.03628507 -0.012715809 0.0027318122 -0.06050777
-0.015291014 0.0032540688 0.044288497 -0.07585511 -0.016625643 -0.0018140615 -0.03384776 0.026390467
-0.018051274 0.04546627 0.04093485 -0.03198087 0.01874618 -0.043742165 0.0058216453 -0.00025668135
-0.00023040207 -0.038956445 -0.031120084 0.006571176 0.015650164 0.012265192 -0.008872176 0.02759807
0.015374636 -0.0040092478 -0.022992754 -0.023587408 -0.029672926 0.023674008 -0.042149205 0.009676026
0.0193058 0.047514837 -0.02370083 -0.0190649 -0.041401528 0.029512038 -0.04056696 -0.0035494685
0.028605985 0.012503201 -0.058784682 0.010256469 0.10684552 0.06432795 0.039968673 0.033408057
0.06299605 -0.0020062549 -0.041308947 -0.08192015 0.027345382 0.0375816 0.015829936 -0.009556829
0.0034092192 0.0062380033 -0.015507595 -0.0015466526 -0.04281586 -0.0068639237 0.016666401 -0.042847253
-0.08863628 0.1139417 0.04961568 -0.027916308 0.009464685 -0.005367259 0.012845928 -0.012456057
0.004986198 -0.012919008 0.013826344 0.028428948 -0.025719058 -0.045243558 -0.045829013 0.009980506
-0.032322656 -0.030784091 0.018642923 0.03437986 0.07005165 0.0684354 0.044815596 0.020109562
0.05587227 -0.028330177 0.040218968 0.0066396953 -0.019603325 -0.021039374 -0.021920094 0.0070214258
-0.029986624 0.044410422 -0.016445944 -0.030113539 -0.066544294 -0.023582421 -0.015663253 0.03035489
0.06656739 0.053526893 0.029458217 -0.015197047 0.0073267445 0.06274011 -0.039567634 0.006940402
0.013785914 0.03210747 0.028746342 0.032736406 0.07013072 0.046393774 0.014847905 0.045755457
0.031005092 0.081353135 0.06207418 0.05009227 0.08734879 0.012402679 0.008118456 0.042384613
-0.022758834 0.045208987 0.038005885 0.034484662 -0.011143376 -0.042790875 -0.011012462 -0.05699036
-0.0115489485 0.0076732417 0.025043745 0.031244675 -0.0059960126 -0.012626889 -0.014444575 -0.017915105
0.0026302782 -0.0316586 -0.031792086 0.004508525 0.008199561 -0.015201761 -0.052900147 0.03435254
-0.021156643 0.012821233 0.074204385 0.04061429 -0.03690053 -0.04380076 -0.017690014 -0.01377591
0.038075887 -0.010195463 -0.040774267 0.0067617893 -0.000717855 -0.02844696 0.072146475 -0.03304858
-0.042507853 0.014686388 0.026234008 0.045163985 0.015679626 0.077195615 -0.0068305642 0.067257576
0.052081365 0.01400135 0.006823049 0.025697472 0.015401781 -0.020007135 0.01297682 0.0016375084
-0.05365214 0.004010921 0.005095324 0.0052375724 -0.0052806777 0.0483799 0.069402166 0.026285505
-0.044866946 0.004487622 0.048338328 -0.032759156 -0.011782367 0.03843468 -0.034860216 -0.061696533
0.054052334 -0.006610746 0.03474295 0.061762877 -0.04080688 0.038792066 0.008841191 -0.07733477
0.0043636984 -0.024804283 -0.012083222 0.025074596 0.045272086 -0.043645855 -0.0017048476 0.09120875
-0.0116664395 0.040349863 -0.004497107 -0.0030144446 0.008773902 -0.019209491 0.045954086 -0.01903028
0.016371524 0.010132375 -0.066140965 -0.008587339 -0.016416231 -0.044390414 -0.04178912 -0.025866386
0.024857834 -0.009757118 -0.029940663 0.04719552 -0.026012052 0.037906233 0.013762732 0.050089184
0.058988128 0.009153291 -0.0072111064 -0.010235441 -0.0070098382 0.053225346 0.006652238 0.02562431
