PARALLEL/models/PRED_GROUP_POLICY_BOTH_4400.ckpt (torch, 307152 bytes, 9 tensors)

network.0.weight f4 [32, 5, 3, 3]
000000 b3 1b 63 be dd 8e aa be 2a 6b 41 be 66 ce 19 3e
       -0.22178535 -0.3331212 -0.18888536 0.15020141
000010 d5 4d 76 be cf f9 66 be e3 0c 19 be fc 0c ca be
       -0.24053128 -0.22556232 -0.14946322 -0.3946303
000020 69 ae 8d be 93 f2 93 bd ca 15 80 bd 97 8d 08 bf
       -0.27672127 -0.07224002 -0.06254156 -0.5334105
000030 73 64 b0 be 4f 9e 86 3d 7e 3c a1 be ef ca 8f be
       -0.34451637 0.06573164 -0.31491464 -0.28084514
000040 2e 18 dd be 9c cc 08 bf b7 20 e2 bd a9 d2 15 be
       -0.4318251 -0.5343721 -0.11041396 -0.14631142
000050 2c 61 84 3e ce 84 c3 bd 53 0c ad 3e 94 3d bc be
       0.25855386 -0.09546815 0.33798465 -0.3676573
000060 33 38 2f 3f be ca 94 3d 21 77 51 3e 0c ce 30 be
       0.6844513 0.072652325 0.204556 -0.172661
000070 3f c7 ce be e2 66 2f 3e 50 44 99 be e8 27 db be
       -0.40386388 0.1712909 -0.2993493 -0.42803884
000080 73 3a 56 bd 32 f0 ae 3e d3 03 99 bd 54 64 97 bd
       -0.052301835 0.3416763 -0.074714325 -0.07392183
000090 12 fb 19 bf 00 60 41 bc ec ba 31 3c 27 81 c0 3d
       -0.6014873 -0.011802673 0.010847788 0.09399634
0000a0 f2 80 86 bd e3 9c f8 be 15 f9 dc bd cf ab c2 be
       -0.06567563 -0.48557195 -0.10789696 -0.38021705
0000b0 a3 6a 04 bd 22 26 91 bd 61 53 80 be 8e 17 48 bd
       -0.03232826 -0.070873514 -0.25063613 -0.04885059
0000c0 e2 c9 ff bd 7f 53 91 be 3e 10 a5 be a8 51 35 be
       -0.12489678 -0.28384015 -0.32238954 -0.1770693
0000d0 39 a5 b2 be ea 47 98 be 50 9c 59 bd ac 2a 57 3d
       -0.3489168 -0.29742366 -0.053127587 0.05253093
0000e0 7c 47 15 be 9e e7 38 3d 22 03 08 bf 94 72 36 bf
       -0.1457805 0.045142762 -0.5312978 -0.7126858
0000f0 8b 18 81 be 4d 81 fc be ab 72 c4 be d4 c5 a3 be
       -0.25214037 -0.493174 -0.38368735 -0.31986868
000100 ff 30 5b 3e 16 97 88 bd 50 b6 a0 bc f9 0a 9c 3e
       0.2140541 -0.06669442 -0.019618183 0.3047712
000110 81 f6 aa be ef f1 87 bd bb ab 10 3d dc 4d 86 3e
       -0.33391193 -0.06637942 0.035320025 0.26231277
000120 66 ce 7c 3e d4 88 19 3d 9d 52 dc be bc 9b 38 be
       0.2468811 0.037484005 -0.4303178 -0.18028158
000130 d0 c0 7c 3e 9b 00 b7 be 54 06 63 be 44 05 a0 be
       0.24682927 -0.3574265 -0.22170383 -0.31254017
000140 6b 9a 82 be cb c6 f1 be 8e 5a 08 3e 0d c0 ae bd
       -0.25508437 -0.4722198 0.13315794 -0.085327245
000150 1d 7f 9c bd 8e ae 1e bf 55 87 b5 be cc c8 00 3c
       -0.076414324 -0.619851 -0.35454813 0.007860374
000160 e4 b6 f5 bd 6f 0a e5 bd 84 e6 26 3b 0f 29 11 be
       -0.11997774 -0.11183631 0.0025466988 -0.14175819
000170 3a ae 20 be a6 c2 84 be 8c a3 34 bd 91 64 8c bd
       -0.15691462 -0.25929755 -0.044101283 -0.06855119
000180 d0 f3 2c bd 33 ce b9 bd 23 81 44 3d 04 85 4e be
       -0.042224705 -0.090725325 0.047974717 -0.20167929
000190 14 d4 05 bf 13 c3 85 3c fb 70 d0 be 44 06 c8 3e
       -0.5227673 0.01632837 -0.40711197 0.3906728
0001a0 f5 dd db 3e ea 5a fb 3c dd b7 72 3e e8 5a 0c 3f
       0.42942777 0.030683 0.23702951 0.5482621
0001b0 93 d0 5c 3e cc e8 7d 3e 8e f9 52 3e 16 a9 db be
       0.2156394 0.24795836 0.2060301 -0.4290244
0001c0 35 b1 ba be 75 88 44 be 12 42 7a bb 02 67 72 be
       -0.36463323 -0.19192679 -0.0038186354 -0.23672107
0001d0 8b 12 32 3e 98 0e 0f 3e ef 56 14 bf e9 21 4a bf
       0.17389886 0.13970411 -0.5794515 -0.7895799
0001e0 7f 0f 9d 3e 6f b2 38 bf 26 09 00 bd 39 30 29 bf
       0.30675885 -0.7214727 -0.031258725 -0.66089207
0001f0 ae 44 b1 be bc 7c 86 bf 58 b0 5a 3e 18 27 42 3d
       -0.3462271 -1.0506816 0.21356332 0.047400564
000200 22 68 8a be bf fc a3 bd 3d 91 d1 bd 34 96 05 3e
       -0.27032572 -0.08007192 -0.1023278 0.13045579
000210 26 58 06 bd e9 2c e2 bd f3 e6 74 3d 1e dd 83 3d
       -0.03279891 -0.11043722 0.059790563 0.06438659
000220 94 52 0d 3d 06 71 fb 3d e8 9f c6 bd f2 57 37 3c
       0.03450258 0.12277417 -0.096984684 0.011190401
000230 e1 ab 9b 3b 01 a1 17 3d 7a 56 51 3d 58 a7 f5 bb
       0.004750714 0.03701878 0.05110786 -0.0074967556
000240 e7 94 ae 3e cf d0 03 3d 43 72 ec be 62 1f fb 3e
       0.34097978 0.032181557 -0.46180925 0.4904738
000250 68 43 89 3e bb 53 0b 3f 61 fa d9 3e 1a ae 14 3f
       0.2680924 0.5442464 0.42573836 0.5807816
000260 f8 8f 41 3f 0e 0e d2 3c 1e 42 25 3e 09 ff e2 3d
       0.75610304 0.025641467 0.16138503 0.110838
000270 bc 4e ea bd 1b 72 01 3e 40 35 12 3e a7 19 90 3d
       -0.11440799 0.12641184 0.14278126 0.07036143
000280 de 5f 5d 3e 7d af e3 3c 1a 71 29 bf ee 7c 0d bf
       0.21618602 0.02779364 -0.66188204 -0.5526875
000290 8f 60 0f bf d7 16 71 bf 32 53 2b bf db 89 64 bf
       -0.5600671 -0.94175476 -0.6692382 -0.8927285
0002a0 f0 f8 cb be 20 bf 4f bf 5d 0f e8 be f1 34 2e 3e
       -0.39838362 -0.8115101 -0.4532422 0.17012383
0002b0 16 51 05 3e c2 d8 fa 3d e1 30 1b be 0a 11 25 be
       0.13019213 0.122483745 -0.15155365 -0.16119781
0002c0 76 c3 2f be 93 33 3f 3e 39 a2 00 be ff d2 3c be
       -0.17164406 0.18672018 -0.12561883 -0.18439864
0002d0 9d f4 92 be 47 8f 05 3d 54 85 87 bd e3 6e 53 3e
       -0.2870225 0.032607343 -0.06617227 0.20647769
0002e0 45 27 b0 bc 7a 89 ca be 48 bb 9f be 76 83 8f 3d
       -0.0215031 -0.3955801 -0.31197572 0.07007496
0002f0 04 aa b7 bd 14 4b cd be 14 0c a7 be 31 f8 b9 3d
       -0.08967975 -0.40096343 -0.32626402 0.09080542
000300 d0 4e b9 3e c1 aa 7b be e0 28 36 3e 1b 1d 4e bd
       0.36192942 -0.24576856 0.1778903 -0.050320726
000310 64 0f 72 be d1 66 0d bf 5d c4 82 3e 32 31 a4 3e
       -0.23638684 -0.5523501 0.25540438 0.32068783
000320 12 06 82 be 77 d2 0c 3c b5 2d 05 be 0c c6 15 be
       -0.25395256 0.008595101 -0.13005717 -0.1462633
000330 24 98 ba 3e 0d 08 c6 3d d6 f2 a6 bd db d6 0f 3f
       0.364442 0.09669504 -0.08151786 0.5618722
000340 21 de ca 3c f5 d0 f2 bd dd e0 98 3e bb cf 02 bf
       0.024764122 -0.11856262 0.29859057 -0.5109822
000350 cf 82 31 be 1d b1 e9 be 78 e1 80 be 31 4a b5 be
       -0.17335056 -0.4564294 -0.2517202 -0.35408166
000360 d4 78 87 be 3b 5c 5c 3e 2c 7f 36 3e 46 64 de bd
       -0.26459372 0.21519558 0.1782195 -0.108589694
000370 f0 6c 7c 3e 01 d4 95 3e c2 b0 32 bd 54 fc 50 3e
       0.24650931 0.2926331 -0.0436256 0.20408756
000380 78 36 62 be b2 1a b8 3d c6 93 cf be 78 99 38 be
       -0.2209109 0.08989467 -0.4054243 -0.18027294
000390 b1 f8 11 be 5d 85 bf bd 4c 29 e2 bd 4f 26 68 be
       -0.14255024 -0.09351609 -0.11043033 -0.22670864
0003a0 ba 44 94 bd c5 20 0b 3b a2 e2 04 3f b7 1a 90 be
       -0.07239671 0.002122925 0.51908314 -0.28145382
0003b0 e4 f4 26 bf 58 6a a5 be cb 69 b3 be be 40 04 3e
       -0.65217423 -0.32307696 -0.3504165 0.12915322
0003c0 55 e0 0e 3f 86 fb a4 3e d5 e2 dd be 41 c2 3d 3e
       0.55811054 0.32223147 -0.43337122 0.18531133
0003d0 bb f0 15 3d e7 0e c9 3e 69 dc bc 3d 68 31 e9 3c
       0.03660653 0.39269182 0.092217274 0.028465942
0003e0 ac 8d c6 be 48 04 ab 3e a3 6b bf be 9e d7 74 3c
       -0.38779962 0.33401704 -0.37386808 0.014943985
0003f0 e9 0d f0 3e 9c 7a ad be df 8f 56 bf 0e fb 10 3f
       0.46885613 -0.33882606 -0.8381328 0.5663308

network.0.bias f4 [32]
000000 fd 10 84 be 2e c0 be be 4b b5 55 be 74 c7 94 bd
       -0.2579421 -0.37255996 -0.20869939 -0.07264605
000010 57 ac b0 be 4f 58 03 bf 15 5f cd bd 66 02 49 be
       -0.34506485 -0.51306623 -0.10027901 -0.19629821
000020 f1 39 93 3d c4 41 f1 be e2 75 ac be ca db 9b be
       0.07188786 -0.47120488 -0.33683687 -0.30441123
000030 bb cd bc be c4 c0 e6 be 46 16 45 be 55 84 3a bf
       -0.3687571 -0.45068944 -0.19246778 -0.7285817
000040 a1 13 a4 be 1d 32 e6 be 42 44 81 be 82 ee 62 bd
       -0.32046226 -0.44960108 -0.2524739 -0.05540324
000050 81 d1 0d bf 0b 10 c4 be 58 f5 61 be 75 db a8 be
       -0.553978 -0.3829349 -0.22066247 -0.32979932
000060 e5 8f 09 bf 1f f9 c6 be e8 1f 90 be b6 0f bf be
       -0.5373519 -0.3886194 -0.28149343 -0.37316674
000070 4d cc 9d be 50 0f e1 be 24 02 8c be d6 0c 44 be
       -0.30819932 -0.43956995 -0.27345383 -0.19145522

network.2.weight f4 [64, 32, 3, 3]
000000 5d 37 0d 3e 5b 34 a9 be 8c fc ca 3e 57 d7 8e 3e
       0.1379065 -0.33047757 0.39645803 0.27898666
000010 5f 41 57 be 2f 52 ea bd 46 c8 ba 3c 03 54 33 3d
       -0.21021031 -0.114414565 0.022800576 0.04378129
000020 24 f9 57 be 89 ae 9c be 70 cb dd bd 53 c7 8e bd
       -0.21091133 -0.3060191 -0.10829818 -0.06971612
000030 48 fd b9 3d 97 31 52 3b 26 ed a3 be e5 28 26 3e
       0.09081513 0.0032073015 -0.32016867 0.16226538
000040 b9 ab 09 be 5b 1a 13 3d 3f 54 01 bf b4 aa 64 be
       -0.13444413 0.035913806 -0.50519174 -0.22330743
000050 ae c4 66 bd b9 7c ae bd b0 97 48 be 60 24 02 bd
       -0.056339912 -0.08519883 -0.19589114 -0.03177297
000060 d8 07 8d 3e 07 23 0f bd f9 61 98 be 9b ef e4 be
       0.27545047 -0.034945514 -0.29762247 -0.44714054
000070 44 25 bd 3d d6 89 73 be ef 8d ad bd 80 a7 16 3e
       0.092356235 -0.23783049 -0.08474337 0.14712334
000080 78 89 37 be 0b f8 22 be ea 95 c6 3e cb 33 b1 bc
       -0.17923534 -0.15914933 0.3878625 -0.021631142
000090 66 cb 46 3e 18 45 81 3c c2 21 8c be 95 27 a7 3e
       0.19413528 0.015780017 -0.27369505 0.32647386
0000a0 00 cb 16 be be e8 0f be c7 a1 eb be 40 97 2a bf
       -0.14725876 -0.14053628 -0.46021864 -0.6663704
0000b0 79 65 6d be 7d c2 8d be ff 8b 8a be 19 25 0b be
       -0.2318324 -0.27687445 -0.27059934 -0.1358837
0000c0 e0 8d ab bb 50 19 05 3e 98 64 84 be 78 f7 28 3e
       -0.0052354187 0.12997937 -0.25857997 0.16500652
0000d0 bd bb a1 be 9b 44 f3 bd 1e 1d 6b 3d a9 95 59 3b
       -0.31588545 -0.1187832 0.057400815 0.0033200777
0000e0 b3 83 9b be 57 ec 4e bd b6 35 82 bd ba 0c c8 bd
       -0.30373916 -0.05051836 -0.06357901 -0.097680524
0000f0 ef cf a5 3e a2 dd 18 3e 6c 91 99 be 71 e2 61 bd
       0.32385203 0.14928296 -0.2999376 -0.055147592
000100 17 ac fa 3e 08 ae 9c be 09 e8 a2 3d ce 66 26 bf
       0.4895942 -0.30601525 0.079544134 -0.6500062
000110 6c 63 0d bd a8 37 22 3e 4a ed 2e be 8e bf 8f be
       -0.034518644 0.15841544 -0.17082706 -0.28075832
000120 be 1f 0c bd ef fe 47 be d7 8c 78 3e bc 33 16 bf
       -0.03420996 -0.19530843 0.24272476 -0.5867269
000130 da 4d 1d be 40 a9 fe bd 7f 44 48 3e ee 66 a8 bd
       -0.1536173 -0.124346256 0.19557379 -0.08222757
000140 3c 62 8f 3d ac e0 c4 bc ba 19 3e be 77 0e 3e 3e
       0.070011586 -0.024032913 -0.18564501 0.18560205
000150 c8 d4 56 3d b7 8b 60 3e 6c d9 5e 3d be bb ab 3e
       0.052449018 0.21928297 0.05440657 0.33541673
000160 5a fe ec be 34 82 8c bd 0a a1 11 bd c6 15 cb 3b
       -0.46287805 -0.06860772 -0.03555397 0.006197664
000170 64 7e 7e bb a9 f0 22 bb cf d5 2f bc 69 b1 ee bd
       -0.003883266 -0.0024862683 -0.010732128 -0.11654932
000180 1f 2b c8 bb d3 12 1d 3d 5d 04 9e bb e1 2d a7 3e
       -0.006108656 0.03834803 -0.0048222975 0.3265219
000190 12 4e 0b 3e 44 75 8f 3d 91 a8 9b 3e 40 aa b7 3c
       0.13604 0.070047885 0.30402043 0.022420049
0001a0 f6 79 a5 3d 41 c5 11 3d d4 8f 82 bd 4c d6 00 3d
       0.08079903 0.035588507 -0.06375089 0.03145437
0001b0 11 fb 81 be 6c e1 e5 bd 59 b2 9e 3e 66 d7 a3 3e
       -0.2538686 -0.112246364 0.30995443 0.32000273
0001c0 87 f0 8c 3e 40 9d 61 3e 92 f7 87 be 50 33 92 bd
       0.27527258 0.22032642 -0.2655607 -0.07138693
0001d0 fa 37 fc 3d ae fe 46 bd 1f 61 c0 3c cd 70 e3 bd
       0.12315364 -0.048582725 0.023483811 -0.111054994
0001e0 ac 18 bd bc 96 50 10 bd 0f fa 7f bd 7d 1d fb 3c
       -0.023083054 -0.035233103 -0.062494334 0.03065371
0001f0 8c be fd bd 27 4a ec bd b3 5a dc bc af 19 7b bb
       -0.123898596 -0.11537581 -0.026898718 -0.003831487
000200 bc 08 4f 3c ce 15 b1 3c e0 b3 3d bd af 59 22 bb
       0.01263636 0.021616843 -0.04631412 -0.0024772694
000210 2a 1e 2c bd 37 49 50 bd 6f e3 fb bc 22 e1 d2 bd
       -0.042020954 -0.050851073 -0.030748097 -0.10296847
000220 c8 c1 c0 3d 69 a0 23 bd 03 04 87 bc 5d 7f 2e 3d
       0.09411961 -0.0399479 -0.016481405 0.04260193
000230 30 8d 1c be 5c c5 02 be b8 53 16 3b 54 e6 d3 bd
       -0.15288234 -0.12770599 0.0022938084 -0.10346666
000240 82 48 91 3d c1 49 9e 3c 59 b4 89 bd f5 8f 1d 3b
       0.07093908 0.019322278 -0.06723852 0.0024042104
000250 d7 9a 45 be 17 87 11 be ba ed c4 3d 9d d0 0d be
       -0.19297348 -0.14211689 0.09615655 -0.13849111
000260 50 28 ba be b0 3a 47 bd 5e 60 a9 be e8 86 2d bd
       -0.3635888 -0.048639953 -0.33081335 -0.042364985
000270 b8 7b c6 be d5 c1 a0 be d9 85 da bd 22 5b a0 be
       -0.38766265 -0.31397882 -0.10670061 -0.3131953
000280 a8 3f 5b bd 01 a7 2b 3e 13 39 51 be c1 93 19 3e
       -0.053527504 0.16762926 -0.20431928 0.1499777
000290 db 6a 1e be c7 08 1d 3d 67 61 45 be b9 af 0f 3d
       -0.1547045 0.03833845 -0.19275437 0.03507969
0002a0 8e d9 62 bd 95 ec 09 3c bf d2 9e be 78 0b cc 3a
       -0.055383258 0.008418222 -0.31020162 0.0015567383
0002b0 5d ba 13 3e 83 6a 87 3d a2 d3 5b be f2 07 91 3d
       0.1442656 0.066121124 -0.2146745 0.070815936
0002c0 b8 ff bd 3c 21 75 31 3d a4 33 90 be cb 9d d2 be
       0.023193225 0.043324593 -0.281644 -0.4113601
0002d0 5c 8f 85 be 6f 6d 28 bf 54 7c 39 be 20 e0 9e be
       -0.26085937 -0.6579198 -0.18113834 -0.3103037
0002e0 16 63 2c 3e b9 26 d7 be 5d d1 cf be 82 a9 6c be
       0.16834673 -0.4202173 -0.4058942 -0.23111537
0002f0 ca cd 04 bf 9e c2 60 be 4c 74 16 be 61 8c 03 3e
       -0.5187651 -0.2194924 -0.14692801 0.12846519
000300 2c 40 bc be 6c f6 15 be 1c 25 48 bf 2c 39 46 3d
       -0.3676771 -0.14644784 -0.78181624 0.048394367
000310 5c 87 45 bd 88 e3 ac be a1 56 23 3e fd fc 11 bd
       -0.048224792 -0.33767343 0.15951015 -0.03564166
000320 36 91 22 be af 72 c7 be 12 10 46 bc 7b a4 15 bd
       -0.15875706 -0.38954684 -0.012088792 -0.036533814
000330 d2 b6 01 bf f7 c1 0a be 98 93 f3 bd 9a 65 24 be
       -0.50669587 -0.13550554 -0.11893386 -0.16054383
000340 3b a3 6f be c6 92 bd be 5a ec 2a bd f5 71 60 be
       -0.23402111 -0.37026042 -0.04172931 -0.21918471
000350 de ee 04 bf f8 c4 8b be 3a be d7 bd 6e a7 d3 bd
       -0.5192698 -0.27298713 -0.1053433 -0.10334669
000360 c8 d7 b1 bd a0 59 16 bd 40 97 2a be 68 0f 08 3e
       -0.08683735 -0.036706567 -0.1665926 0.13287127
000370 4d d7 5e be 15 e0 56 bd 1e 37 12 bd ba 14 f3 bd
       -0.21761818 -0.052459795 -0.035697095 -0.11869188
000380 e3 6c 87 be 97 91 dd be a5 b7 94 3e b9 d8 b3 be
       -0.2645026 -0.4327514 0.2904636 -0.35126284
000390 87 f0 5b be 4c 6c 93 be eb b6 05 bf 74 e1 b0 bd
       -0.21478473 -0.2879356 -0.52232236 -0.08636752
0003a0 80 06 8c be 42 1b 47 be 79 36 45 3e 63 7b 2a be
       -0.2734871 -0.19443992 0.19259061 -0.16648631
0003b0 79 40 28 bd 76 a1 e0 3d 2e 96 8b 3e 80 73 7d be
       -0.04107711 0.10968296 0.27263016 -0.24751091
0003c0 3e 88 a2 3e b3 94 b0 3d 1c e0 04 bf 13 99 26 3e
       0.3174457 0.08622112 -0.51904464 0.1626933
0003d0 e8 94 df 3e d4 15 5d be 9e 26 bc 3e 6f a6 95 3e
       0.43668294 -0.21590358 0.36748213 0.2922854
0003e0 21 1d 4e 3e 07 00 ff bd 63 ff 24 be c6 5e a9 be
       0.201283 -0.12451177 -0.16113047 -0.3308012
0003f0 cc bc 0d bd ed d3 f1 be 43 37 2a 3e 54 e6 29 3e
       -0.03460388 -0.47232 0.16622643 0.1659177

network.2.bias f4 [64]
000000 ee 12 c2 bd 72 80 13 bf 52 01 e9 be 65 9b 83 be
       -0.09476267 -0.57617867 -0.4550882 -0.25704494
000010 cb 9d 81 be c0 36 bb 3d 79 f5 89 be 10 b6 22 bd
       -0.253157 0.09141302 -0.26945093 -0.03972441
000020 3d 08 02 be 7e 61 3a be 74 b6 09 be a1 64 5b be
       -0.12698455 -0.18201253 -0.13448507 -0.21425106
000030 29 92 f7 be ab f2 f2 be 1f a3 90 bd fd 1d d8 bd
       -0.483537 -0.47450766 -0.07062363 -0.10552595
000040 c7 7e f7 bd 8b a1 43 be 3b 53 c9 3c 28 9c 05 be
       -0.12084728 -0.19104593 0.02457582 -0.1304785
000050 9f f3 5d be bf 5a 1d be 9b 44 41 be c9 e3 bd bd
       -0.21674965 -0.15366648 -0.18873827 -0.09271962
000060 14 45 e2 bd 5c df 05 be 4b 52 fd bd 8c d1 5b be
       -0.11048332 -0.13073486 -0.12369212 -0.21466655
000070 8f bd 8c be 20 36 04 be 51 e3 a2 be 05 d3 6c bd
       -0.27488372 -0.12911272 -0.31814054 -0.05781843
000080 3c f3 04 bd 46 05 94 be ea c2 d8 be b0 18 96 be
       -0.03245853 -0.28910273 -0.42336208 -0.2931571
000090 04 66 90 bc c8 91 d8 be b1 01 c7 bd c1 ab 23 be
       -0.01762677 -0.42298722 -0.097171195 -0.15983488
0000a0 cf e9 21 be 2c 05 d0 bd b1 6a da bd 25 1e c4 bd
       -0.15811847 -0.101572365 -0.10664881 -0.09576062
0000b0 1f 57 cc be c0 c1 25 be 09 c6 55 be ef 09 28 be
       -0.39910218 -0.16187191 -0.20876326 -0.1641004
0000c0 a6 69 71 be 6d 96 7b bd 04 73 c4 be 86 c3 33 be
       -0.23575458 -0.061422754 -0.38369 -0.17555055
0000d0 76 16 b0 bd 66 17 35 be 58 71 c9 be f4 33 e9 be
       -0.08598034 -0.17684707 -0.39344287 -0.4554745
0000e0 02 40 c9 be 54 f0 08 be 09 b0 9a be a8 14 d9 bc
       -0.39306647 -0.13372928 -0.3021243 -0.026499107
0000f0 e0 9a ca bd 60 bf 03 be 99 b0 23 be 61 74 8a be
       -0.09892821 -0.12865973 -0.15985335 -0.27041915

network.4.weight f4 [64, 64, 3, 3]
000000 b0 0d 13 be a0 35 8b 3e cb 1f aa bd 52 64 17 3e
       -0.1436069 0.2718935 -0.08306845 0.14784363
000010 8b 7d 13 be 08 95 04 be 10 8c de 3e 24 ce 31 3e
       -0.1440336 -0.12947476 0.43466234 0.17363793
000020 a6 5d 1d 3e 1f 0a 27 bf b2 29 e3 3d 2b 0f a0 3e
       0.15367755 -0.6524982 0.11091937 0.31261572
000030 83 2e 54 3d 80 fd ab be 69 02 d3 3c 9e 8e 86 be
       0.05180217 -0.33591843 0.025757985 -0.26280683
000040 b0 6e 8d bd f6 d1 1f be 02 7d 66 3d c3 88 93 3e
       -0.069058776 -0.15607437 0.05627156 0.28815278
000050 da 4d 8e 3e f2 e8 20 bd 12 11 eb bc 9a 93 9d 3d
       0.2779377 -0.039284654 -0.028694663 0.076941684
000060 8f e8 c0 be ba 52 67 be 05 b0 31 bd 24 d5 00 bd
       -0.37677428 -0.22590151 -0.043380756 -0.031453267
000070 45 85 15 3c df 50 ab 3a 54 fe a0 3e 68 86 9e be
       0.009126012 0.0013070366 0.31444037 -0.3096192
000080 3d f3 91 be 7d ab ad 3d e2 c8 2f 3d 11 4e 5d 3d
       -0.2850589 0.084799744 0.042916186 0.054029528
000090 14 b8 4d 3e 0e 4a ad be 5b 72 18 3e 92 0e 5d be
       0.20089751 -0.33845562 0.14887373 -0.2158759
0000a0 01 7f a5 3e c7 7f 9e 3d bc a9 81 be 7b d5 5d bd
       0.3232346 0.07739215 -0.2532481 -0.05415867
0000b0 b9 36 b9 bb 8d 3a b7 3c 0f 6d 24 3e ce 51 8c be
       -0.0056522754 0.022366786 0.16057228 -0.27406162
0000c0 e7 96 bc bc 7d a9 12 3d 46 dc d7 be ec dd a1 be
       -0.023021175 0.035806168 -0.42160243 -0.31614625
0000d0 f1 21 a0 be 73 e0 88 be 08 b8 ee bd 9d 95 14 be
       -0.31275895 -0.2673374 -0.11656195 -0.14510198
0000e0 4c 46 5b be 68 34 89 bd 0a 22 e2 be 3b a8 a7 3e
       -0.21413535 -0.06699449 -0.44166595 0.32745537
0000f0 87 28 8f be 39 34 4f 3e d3 36 fe be e6 7e 1b be
       -0.27960607 0.20234765 -0.49651203 -0.15185127
000100 41 ef bb be ef 49 fc 3e 14 19 09 bf 57 74 c9 bb
       -0.36705974 0.49275157 -0.5355389 -0.006147902
000110 c8 12 88 be b3 3f 26 bf 25 ca 1c 3e 1f cb 87 3e
       -0.2657683 -0.6494095 0.15311487 0.26522157
000120 77 e4 73 bf d0 ce 49 bd 4b bc 9a 3e 53 e1 b5 be
       -0.95270485 -0.049269497 0.3022178 -0.3552347
000130 bf c9 16 bf 99 7f 01 3d b2 bf d6 be b6 e2 16 bf
       -0.5890159 0.031615827 -0.41943127 -0.58939683
000140 31 75 50 3e 64 a5 50 3d 25 02 4c 3c 79 bf 04 bf
       0.20357205 0.05093898 0.012451683 -0.51854664
000150 dc f9 8d be 92 bf 75 3c 14 8e 46 3e ec 82 17 3e
       -0.2772969 0.014999287 0.19390136 0.14796036
000160 a3 48 42 be f7 88 60 be 67 85 8c be d0 46 e6 bd
       -0.18973021 -0.21927248 -0.27445528 -0.11243975
000170 68 4c a9 be 9e c6 62 be 19 0f 83 be ae 00 ca 3e
       -0.33066106 -0.22146079 -0.25597456 0.39453644
000180 b3 4c c5 be fd 98 ae be 07 3b 5c 3f a4 3c 91 be
       -0.3853508 -0.34101096 0.8602757 -0.28366578
000190 34 3b 63 be 9d 7d bf 3e 25 f5 fb 38 36 da 38 bf
       -0.22190553 0.37400523 0.000120142744 -0.72207963
0001a0 7f 03 d0 bc 63 61 35 bf bc 77 da be ba c5 16 be
       -0.025392292 -0.70851725 -0.42669475 -0.14723864
0001b0 eb 3e c4 be ea 0d da be 44 02 12 bf 39 6d 0d 3e
       -0.38329253 -0.4258874 -0.5703471 0.13811196
0001c0 52 3a 27 3d 8f 8e 1e be cf 89 5c bd 09 fa 73 3d
       0.040827103 -0.1548407 -0.053842362 0.059564624
0001d0 f7 b0 c8 bc 62 2b 17 bf 49 84 a7 3e c6 e7 48 bd
       -0.024498446 -0.5905057 0.32718113 -0.04904916
0001e0 ca 26 14 be bb d5 22 be 28 72 59 bd ee 57 e4 bd
       -0.14467922 -0.15901844 -0.053087384 -0.11149584
0001f0 e4 3b 6d bf 4f 9f 00 3f a0 1d ac 3c cf 3a 58 bc
       -0.9266951 0.50243086 0.02101022 -0.013197615
000200 19 28 26 bd bb 2b d9 bc 37 35 83 3c 2a e9 cd 3b
       -0.040565584 -0.02651011 0.016016586 0.006283899
000210 81 80 5e 3a 89 bc 8e bc a0 64 03 3d 66 17 ef 3c
       0.00084877765 -0.017423885 0.032078385 0.029185962
000220 a9 50 a5 3c b2 d7 f2 bb 0b d5 a6 3c f6 a7 6b 3c
       0.020180063 -0.007410967 0.020365259 0.014383307
000230 74 b4 8d bc da b0 67 bb ac 84 ed bc 12 1b b5 bb
       -0.01729796 -0.0035353214 -0.028993927 -0.0055269087
000240 53 cc f5 bd 1c 7d e7 3e a4 02 63 bd aa a5 c1 bd
       -0.120018624 0.45212638 -0.05542244 -0.09455426
000250 53 39 e5 bc bc 80 a0 be ce f3 97 be 30 73 cd be
       -0.027981436 -0.31348217 -0.29678196 -0.40126944
000260 53 23 9b bd 75 40 44 bf cc ae e6 be 01 53 b2 3d
       -0.07575097 -0.76660854 -0.45055234 0.08707238
000270 ef 23 b1 be cd 09 8d be 29 22 4c be c7 de 20 bd
       -0.34597728 -0.2754654 -0.19934906 -0.039274957
000280 ba 7a 9a be 66 26 fe 3d 85 3b 89 3e 57 e2 36 3b
       -0.30171758 0.12409668 0.26803222 0.0027905905
000290 00 b8 fc 3c 48 5f b9 be ef 30 e7 3d b5 b0 34 bd
       0.030849457 -0.36205506 0.1128863 -0.044113833
0002a0 3e eb ea be ec f6 00 be 96 06 1f bf ab 7d 9c be
       -0.458826 -0.12594193 -0.62119424 -0.30564627
0002b0 18 9e b4 3e fa 74 d2 bd 6d 86 ff be 54 fe 42 bf
       0.35276866 -0.10276218 -0.49907246 -0.76169324
0002c0 3f 65 08 bf ec 36 f3 bd ec c3 e2 be 5c f6 a5 be
       -0.5327949 -0.1187571 -0.44290102 -0.3241452
0002d0 ee 02 7b 3e 9d cb 0c 3e 07 7b cd 3d 4b 2b 86 be
       0.24512836 0.13749547 0.10033231 -0.26204905
0002e0 2f 1d 02 be 86 6e ca be 88 cc a9 3e b3 46 61 3c
       -0.12706445 -0.39537448 0.33163857 0.013749766
0002f0 76 43 24 3e 7b 44 a2 be b1 5a d9 bd 60 de 2a 3f
       0.1604136 -0.3169287 -0.10613001 0.6674557
000300 b5 c5 be bd 33 62 73 be 6c 02 82 3e 79 e6 dc bc
       -0.093150534 -0.23767929 0.25392473 -0.026965367
000310 56 97 83 3d 74 c4 74 be 3d 5a 96 be f0 50 4a be
       0.064253494 -0.23903066 -0.2936572 -0.19757438
000320 cb 3d 4e be 33 ce 5b 3d 7c 5e fd be 0b 02 a7 be
       -0.2014076 0.053663444 -0.49486148 -0.32618746
000330 13 bc 7f 3e 25 d8 c1 be 46 80 9b bd 14 aa ec bd
       0.24974088 -0.37860218 -0.075928256 -0.11555877
000340 75 0f c0 3d 6b ee f6 3c 31 8f 5f 3e c7 f2 e2 3d
       0.09377948 0.030142983 0.21831967 0.11081462
000350 c9 be 24 3e fe 87 2b be 7e e5 ae 3d 30 28 8d 3e
       0.16088404 -0.16751096 0.08539866 0.27569723
000360 0a 91 26 be b1 f8 1b bf 09 0c b4 3e c6 09 12 bd
       -0.16266266 -0.6092635 0.35165432 -0.035653852
000370 fe d1 19 be 50 0c 46 bf 66 c2 86 be 0c d6 7e 3e
       -0.15021512 -0.7736254 -0.2632019 0.2488634
000380 76 9a f5 bd 81 29 41 bc 32 11 12 be 69 79 a5 bc
       -0.11992352 -0.01178968 -0.14264372 -0.020199494
000390 25 61 e8 3b cd ef e7 bd 22 35 a7 bd d5 58 fa bd
       0.0070916587 -0.11325035 -0.08164431 -0.122239746
0003a0 b2 85 af bd 82 13 c3 3d 0b fe e9 3c 73 3d 1c bd
       -0.08570422 0.09525205 0.02856352 -0.03814454
0003b0 de b5 88 3c ad f9 1f bd b4 3d a0 3c cf 1d f6 3c
       0.016688284 -0.03905647 0.019560672 0.03004351
0003c0 01 53 49 bc c0 d8 e1 bc a0 f6 a6 bb 5d 10 65 be
       -0.012287856 -0.027569175 -0.005095318 -0.22369523
0003d0 65 3e ef be 69 fd 1e be 85 16 11 3e ec 50 ca be
       -0.4672729 -0.15526356 0.14168747 -0.39514863
0003e0 65 9b 99 be d2 1b b6 bd db e7 c8 3e ec 16 66 be
       -0.3000137 -0.08892025 0.39239392 -0.22469682
0003f0 8f be b9 be 4e e3 75 3e 01 b9 b8 3d 8f bb 21 bf
       -0.36278197 0.24012491 0.09019662 -0.63176817

network.4.bias f4 [64]
000000 c2 f5 bd bd a1 f8 19 be ed 4b 27 be 08 35 75 be
       -0.0927539 -0.1503625 -0.16337557 -0.23946011
000010 54 45 1f be 10 ce a8 be a9 e3 9a bd 98 2c e0 bd
       -0.1555379 -0.32969713 -0.07562954 -0.109460056
000020 7b c6 28 bf ca d8 fa be 66 29 16 be 1a 94 d9 bd
       -0.6592786 -0.48993522 -0.1466423 -0.10623951
000030 16 72 5f be eb c3 e2 bd 40 23 dd be 6e 09 14 bf
       -0.21820864 -0.11072525 -0.43190956 -0.5782689
000040 42 32 d5 be e3 cb 33 be a5 1a 41 bf 6f 6c a5 bd
       -0.41639906 -0.17558245 -0.7543128 -0.08077323
000050 c4 41 58 be be 84 c2 be 53 53 fe be 92 ee d4 be
       -0.21118838 -0.379919 -0.49672946 -0.41588265
000060 ea 9f 1b bf 44 99 0e bf 3f e9 ef bd 6c 9d 91 be
       -0.60790884 -0.55702615 -0.1171441 -0.28440416
000070 4a 3c 43 be b7 b2 11 bf f9 9e bd be da 27 2f bf
       -0.19065967 -0.5691332 -0.3703535 -0.68420184
000080 a8 b0 00 bf c7 e1 c6 be c4 3c 18 be 50 dc cb be
       -0.50269556 -0.3884413 -0.1486693 -0.39816523
000090 4f 55 2d bf e9 8c fc be 70 4c 1e bf 8e c1 bc bd
       -0.67708296 -0.49326256 -0.61835384 -0.09216605
0000a0 68 e7 8d be a5 99 12 be e5 cf 38 be 6a 5b ae bd
       -0.2771561 -0.14316423 -0.18048055 -0.085135296
0000b0 17 f6 24 be 69 72 a0 be 6b 99 8d bd 0c 21 ec be
       -0.16109501 -0.31337288 -0.06914028 -0.46118963
0000c0 d3 d0 cd be cc 71 d4 3c be af 0f be c8 1e 9f bd
       -0.40198383 0.025933169 -0.14031884 -0.07769543
0000d0 ea 61 3c be c9 01 d5 be 6b 05 be be 9b ad e2 bd
       -0.18396726 -0.41602924 -0.3711351 -0.11068269
0000e0 53 d0 1b bf 9e 4c ba be da e9 5a be 89 ed 1f be
       -0.6086475 -0.3638658 -0.2137827 -0.15617956
0000f0 85 6e ac be ed 2e 84 be 16 3f 10 bf 94 19 5c be
       -0.3367807 -0.25817052 -0.5634626 -0.21494132

actor.weight f4 [5, 3136]
000000 ef 6c 97 3e 68 25 b3 3e 6c 58 3d 3e af 24 d0 3d
       0.29575297 0.34989476 0.18490762 0.10163247
000010 27 d9 8f 3d 37 42 9d 3e 46 83 8b 3d f3 9a a4 bd
       0.070238404 0.3071458 0.06812148 -0.08037367
000020 2f 66 97 3e 7a d6 e9 bc ef 1e 74 3e df fc 03 3e
       0.29570147 -0.028544653 0.23839925 0.12889431
000030 8f 92 8a 3e f7 b2 1b 3e af 0b d4 3e fc 74 2d be
       0.2706494 0.15204988 0.41415164 -0.16939157
000040 12 52 17 3e c0 38 0a 3e 92 f7 8c 3e 86 71 14 3e
       0.14777401 0.13498211 0.2753263 0.14496431
000050 0a 4f ed 3d 98 4d b1 3e b6 4a 0a 3e 32 ff 6c 3e
       0.11587341 0.34629512 0.13505062 0.23144224
000060 3b 67 18 bb 42 ab 1a 3e c6 9d 4c 3e c5 01 9e be
       -0.002325489 0.15104392 0.19982061 -0.30860725
000070 80 22 d2 3d d1 30 94 3e 94 76 19 3e 56 a2 ec 3d
       0.102604866 0.28943494 0.1498664 0.115544006
000080 5b 0a 11 3e f4 fa 51 3e 6a 81 30 3f 33 cb f9 3e
       0.14164107 0.20505887 0.6894747 0.4878784
000090 ad b6 be 3e 4b dc 6a 3e 46 4f 92 3c 63 6f 93 3d
       0.37248746 0.22935598 0.017860066 0.0719898
0000a0 ae 1a 93 3d 86 78 00 3f 70 6a 88 3e 2b 78 92 3e
       0.07182823 0.50183904 0.26643705 0.28607306
0000b0 48 8e cc bc 10 3e 14 3f 0a 04 4e 3e 63 93 d9 bd
       -0.024970189 0.579072 0.20118728 -0.10623815
0000c0 71 e3 bc 3c ab 18 8b 3d 4b 0d 83 3e de 70 26 3f
       0.023057671 0.067918144 0.2559608 0.6501597
0000d0 61 e8 68 3e 8a 6c 97 3d 88 f8 84 3e 2e 91 5a bd
       0.22744896 0.07393749 0.25970864 -0.05336111
0000e0 35 1f 81 3d e9 08 2a 3f 3f b6 bc 3d 13 7c ac 3d
       0.063047804 0.66419846 0.09214448 0.08422103
0000f0 4e c0 12 3e c4 4c 49 3f cb fc ea 3e d8 ce 45 3f
       0.14331171 0.7863276 0.4589599 0.77268744
000100 68 0a 1d 3e 68 9b aa 3e 2c cb 9d bd f1 25 96 3e
       0.15336001 0.3332169 -0.077047676 0.29325822
000110 77 49 60 bd c1 9e 84 3e 10 ad d0 3d 43 6e 52 3f
       -0.05475756 0.2590237 0.10189259 0.82199496
000120 6f c5 b2 3e c7 83 14 3f 0e cf 52 3e e7 95 34 3d
       0.34916255 0.58013576 0.20586798 0.04408827
000130 d0 78 18 3e 3a fe 89 bd 71 c1 4a 3d 5f ce 8e 3d
       0.14889836 -0.06737943 0.049500886 0.06972956
000140 62 8a 18 3f 89 84 1c 3f 79 53 83 3e ce 20 82 3e
       0.59586155 0.6113973 0.25649622 0.25415653
000150 6f 5c 06 3f ed b8 e7 bc fa 74 39 3e 4d cf 19 3e
       0.5248479 -0.028286422 0.1811103 0.15020485
000160 7a 29 d9 3d 12 12 92 be 1f e7 67 3d 4d 42 fe 3e
       0.10603614 -0.28529412 0.0566169 0.49659958
000170 aa e8 78 3e af 9b 2f 3e 08 1e 7d 3d 8c 93 55 3e
       0.24307504 0.17149232 0.06179622 0.20857066
000180 cd 15 ab 3e 62 9b d2 3e d1 b7 d7 3d 30 9a 6a 3e
       0.3341507 0.41134173 0.10533107 0.2291038
000190 29 b1 c4 3d a9 fd 24 3e 90 eb be 3e 78 e6 00 3d
       0.09604103 0.16112389 0.37289095 0.031469792
0001a0 ea dd b4 3e 95 03 da 3e c5 3c 33 3e 46 4e 91 3e
       0.35325557 0.42580858 0.1750365 0.2838003
0001b0 a2 61 a6 3d 71 27 0e 3e 33 29 0c be 68 2f 0b 3e
       0.08124091 0.13882233 -0.13687591 0.13592303
0001c0 ee 56 19 3e b2 b7 bc 3d 0b 73 7b bd 57 61 9b 3e
       0.14974567 0.092147246 -0.06138901 0.30347702
0001d0 89 32 e2 3d 30 73 c4 3e a9 12 72 bc b3 11 a1 3b
       0.11044795 0.3836913 -0.014774957 0.00491544
0001e0 fe 06 28 3e 4d d0 48 3e 57 5d ac 3e 72 07 68 3e
       0.16408917 0.1961071 0.33664963 0.2265909
0001f0 3a 02 a1 3e b1 d0 fb 3d 43 78 fe 3d ba 68 56 3e
       0.3144701 0.12295664 0.12425282 0.20938388
000200 a7 aa c4 3d 2d 1e c6 3e ab f1 12 3e c5 5c 87 3e
       0.09602862 0.38694897 0.14350002 0.26437965
000210 e8 3b a5 bb 5b e4 6e 3d 06 54 53 3e c4 cd 8d 3e
       -0.005042542 0.058323245 0.20637521 0.2769605
000220 48 a7 a5 3e 6c df ef bd 7f 9e 28 3e 06 93 53 3f
       0.32354188 -0.11712536 0.16466711 0.82646215
000230 33 8d 52 3f 96 21 bf 3e 48 3c 0e 3f d0 46 97 3d
       0.822467 0.37330312 0.5556073 0.07386553
000240 cb 6b a3 3e 08 64 c4 3e f1 21 25 3e 58 b5 98 3e
       0.31918177 0.38357568 0.16126229 0.29825854
000250 42 c2 ba 3e 2e 5f a3 3e 24 2e 68 3f 4b ce d9 3e
       0.36476332 0.31908554 0.90695405 0.42540202
000260 24 1e 0e 3e 5f f6 9c b9 e0 76 1c 3f 91 5b 2e 3e
       0.13878685 -0.000299382 0.6111889 0.17027117
000270 74 ff 25 3f 98 c5 9b 3e 75 56 18 3e 8f cd 1c 3f
       0.64842916 0.3042419 0.1487673 0.6125116
000280 0e 3a 20 3e 5c 4c 80 3e a9 60 68 3f 02 2a ab 3d
       0.15647146 0.25058258 0.9077249 0.08357622
000290 48 40 9b 3e 15 20 09 be 11 dc d8 3e d3 08 c5 3e
       0.3032248 -0.13391145 0.42355397 0.38483295
0002a0 0b a4 d1 3e 41 7d 00 3e 1e 66 9c 3e 04 19 90 3e
       0.40945467 0.1254778 0.3054666 0.28144085
0002b0 75 4b 39 3e fc 2d 8d be de f5 ee 3e 22 be 6a 3e
       0.18095191 -0.27574146 0.46671957 0.22924092
0002c0 24 58 18 3e 4f 05 b2 3d d5 e6 46 3e 6d e6 b5 3e
       0.14877373 0.08692419 0.19423993 0.35527363
0002d0 72 29 75 3e c8 e7 18 bc fa fe d8 3e 66 a9 2c 3f
       0.23941591 -0.009332605 0.42382032 0.6744598
0002e0 f1 18 11 be 66 92 b8 3e d2 74 1f 3f cc 09 aa 3e
       -0.1416967 0.36049193 0.6228763 0.332106
0002f0 3b b3 53 3e db 7a 45 3e 5e ae 43 3f 8e 75 52 3f
       0.2067384 0.19285147 0.7643794 0.82210624
000300 85 a0 03 3e 93 dc e6 bb 27 2d de 3d fa 39 80 3e
       0.12854202 -0.0070453375 0.10848456 0.25044233
000310 0b a6 59 3e 20 37 91 3d a0 fe c0 3e b6 0b a0 3e
       0.21254747 0.070905924 0.37694263 0.31258935
000320 da b8 7a 3e b4 6a 32 3f d2 a5 d6 bd d2 8a 18 3e
       0.24484578 0.69694066 -0.104808465 0.14896706
000330 1e d4 40 3e 25 db d4 3e ee ba 99 3e 83 00 8a be
       0.18830916 0.41573444 0.3002543 -0.26953515
000340 39 25 18 bd 4b 27 7d be d0 bf 30 3e bb 73 0f 3e
       -0.037144873 -0.2472202 0.1726067 0.14008991
000350 63 8d ba 3e 6f 5d 36 3e 30 f6 18 3e bb 65 57 3e
       0.36435995 0.1780908 0.14937663 0.21034901
000360 05 a8 f8 3e d8 80 5a 3d 15 26 f4 3c 89 58 de 3e
       0.4856569 0.05334553 0.029803315 0.43426922
000370 39 89 a4 3d 28 68 21 be 39 a8 a3 3e a5 77 15 3e
       0.08033986 -0.15762389 0.3196428 0.14596422
000380 51 ce 3c 3e 3b 7d 85 3d 77 e0 a0 3c 01 39 94 3e
       0.18438078 0.065180264 0.019638283 0.2894974
000390 8f 27 31 3f 7b 72 20 3f 6a 40 8d 3e 46 ef 02 3e
       0.69200987 0.62674683 0.27588207 0.12786588
0003a0 a1 de 6a 3e 18 ea ce 3e 6e 72 90 3e bf fa c2 3e
       0.22936489 0.40412974 0.28212303 0.3808193
0003b0 a3 b5 71 3e 05 4d d6 3d 7d 77 4e 3e 4c 2f a4 3e
       0.23604445 0.10463909 0.20162769 0.32067335
0003c0 6f 79 ff 3e 1f e5 76 3d 2d e4 1b be b2 7e 1f 3e
       0.49897334 0.0602771 -0.15223761 0.15575674
0003d0 e2 e2 18 3e 21 81 45 be 74 2f 0a 3f b8 aa 9f 3e
       0.14930299 -0.1928754 0.5397866 0.31184936
0003e0 73 c6 83 3e e6 7e 2b bd 3d bb 78 3d 5b b2 1d 3e
       0.25737342 -0.041869067 0.06072544 0.15400068
0003f0 3f 36 e8 3d 3c 4f 43 3f e4 5d bc 3e 6f 69 cf 3e
       0.113384716 0.7629278 0.36790383 0.40510127

actor.bias f4 [5]
000000 3e 50 c2 bc ed 68 b0 3d 38 61 56 3e b9 e7 cc 3d
       -0.023719903 0.08613763 0.20935524 0.10005135
000010 76 76 11 3b
       0.0022195852

critic.weight f4 [1, 3136]
000000 4c c1 ba be f4 28 d7 be 21 51 a0 be 25 4e 1f 3e
       -0.364756 -0.42023432 -0.31311896 0.15557154
000010 b3 dc 38 3e 2a c6 eb 3d 6e 6d b7 bc 8c c1 78 3e
       0.1805294 0.11512406 -0.022391047 0.24292582
000020 01 fe 1b 3e 4f cd f8 bc 78 a1 28 be ec c5 5e 3d
       0.15233614 -0.030371336 -0.16467845 0.05438797
000030 b7 f5 0d b9 60 2e 5e 3d c0 cb ce 3c ae 13 88 be
       -0.00013538344 0.054243445 0.02524364 -0.26577514
000040 9c 0a 28 3e 8e 78 42 3d d8 ef 7e bd 57 88 0b be
       0.16410297 0.04747825 -0.06224045 -0.13626228
000050 12 2b 53 be cf f7 b4 be 87 57 a4 be aa 58 92 bd
       -0.20621899 -0.35345313 -0.32098028 -0.071458176
000060 9e c3 64 be 4e b4 17 3e c0 12 88 3e 35 4d 1e bd
       -0.22340247 0.14814875 0.26576805 -0.03864785
000070 ff 23 c9 be 33 bf 08 be 22 63 e6 bc 8c b8 86 bd
       -0.39285275 -0.13354187 -0.028123442 -0.06578168
000080 22 ca e2 3c 13 a4 24 3d d6 2e 75 be 6f a0 db 3e
       0.027684275 0.040195536 -0.23943648 0.4289584
000090 44 63 13 be cd c3 13 3c 03 ac b6 3c ae f7 d9 3d
       -0.14393336 0.0090188505 0.022298818 0.10642944
0000a0 85 64 66 be 74 8d 57 bd a3 de 06 3f 35 eb 2f be
       -0.22499283 -0.052625135 0.52683467 -0.17179568
0000b0 72 71 0f 3e 9a fe 76 3d 84 7c dc 3c bd 0e 69 3d
       0.1400812 0.0603014 0.026914842 0.05689882
0000c0 94 b7 80 be 83 2e 39 be 7e ab 29 be 0a e9 3d bf
       -0.2514006 -0.18084149 -0.16569325 -0.74183714
0000d0 b3 b5 5d 3e 5c 87 ed bd cc c1 ef be 53 d8 99 be
       0.21651344 -0.115980834 -0.46827543 -0.30047855
0000e0 c2 b6 04 3f e9 b0 a2 3d f3 d6 df be c6 18 ab 3e
       0.51841366 0.07943899 -0.4371868 0.33417338
0000f0 f9 bc 36 3e c6 d6 38 3e 50 8a 08 be 36 d9 cb 3c
       0.17845525 0.1805068 -0.13334012 0.024883848
000100 eb 5d 33 3e bb 20 6a 3e ec 30 db 3e da 30 1b 3f
       0.17516296 0.22864048 0.42810762 0.60621417
000110 8b df 4d 3e b1 60 b0 3d 6e 82 a1 3d 61 58 38 be
       0.20104806 0.086121924 0.078862056 -0.18002464
000120 85 09 52 3e 65 c9 cb bd 41 4f 82 3e 9f c0 1c be
       0.20511444 -0.09950522 0.2545109 -0.15307854
000130 09 ca 7a be 27 3d 2c 3e 2e 70 c8 be a4 d5 2e be
       -0.24491133 0.16820203 -0.39148086 -0.17073685
000140 ac c8 85 be 0d fa b4 bd 09 cc 71 bd 64 1e ac be
       -0.26129663 -0.08836756 -0.059032474 -0.33616936
000150 72 77 f0 3e e9 9c ff 3e c8 56 f5 3d c0 c5 18 3e
       0.4696613 0.499244 0.11979443 0.14919186
000160 f6 96 86 3e 61 ad 83 bc 42 1c 5f bd 96 6e 83 3e
       0.2628705 -0.016073884 -0.054470308 0.25670308
000170 5d 0e 85 3e 32 f4 bb bd 6a 2e 00 3e 3a ad 39 3e
       0.2598752 -0.09177436 0.12517706 0.18132487
000180 d5 57 b7 3e e5 35 2f be e1 31 96 be 55 aa 37 3e
       0.35809198 -0.17110403 -0.2933493 0.1793607
000190 10 3d 5d be 5e ff 0e bf 6c 28 93 be e9 92 8f be
       -0.21605325 -0.5585841 -0.28741777 -0.2804177
0001a0 98 92 7c be 25 1b dd 3d 1a 4b d0 3d 7e b9 f7 3c
       -0.24665296 0.10796193 0.101705745 0.030239817
0001b0 bd 89 a1 bd c8 08 29 be 70 ff f7 3d 76 fd 32 3e
       -0.078875996 -0.16507256 0.12109268 0.174795
0001c0 8f 26 91 3d 4e 6c 31 be eb 56 08 3e 5b ba d9 3d
       0.070874326 -0.17326471 0.13314407 0.106312476
0001d0 60 6f 00 3d a3 28 9f be 82 38 15 be 05 e5 8c 3c
       0.031356215 -0.3108569 -0.14572337 0.017199049
0001e0 ac 4d 39 be 97 5b 60 3d 87 fa 2b 3e da 40 a0 3e
       -0.18096036 0.054774847 0.16794787 0.31299478
0001f0 52 22 e8 3d 27 e0 d8 bd 0b 86 82 3d bd 74 0f 3d
       0.11334671 -0.10589629 0.06373223 0.03502344
000200 d3 3d c8 3c 3a 35 a3 3d e7 2f 80 3e f4 1d ad 3d
       0.024443543 0.079691365 0.25036547 0.08452979
000210 53 53 d4 3e b8 62 32 bd d6 03 97 be 80 1a 83 bc
       0.4146982 -0.043551177 -0.29495114 -0.016003847
000220 29 97 5d bd 6a ee d4 3d 5f 2c 36 be 17 26 61 be
       -0.054099236 0.103970364 -0.17790364 -0.21987186
000230 33 87 02 3e 46 b9 16 3e 13 4d 22 be 08 85 ba 3e
       0.12746887 0.14719114 -0.15849714 0.3642962
000240 db fd ab 3e 8c b6 f3 3d 73 10 56 3e 72 7e 1c bf
       0.33592114 0.119000524 0.20904712 -0.6113044
000250 93 9c 09 bf 60 79 b0 be 55 b1 41 bf bb 84 89 bf
       -0.5375454 -0.34467602 -0.7566121 -1.0743631
000260 c3 a0 c5 bd 17 97 92 3e 0d 29 24 3e b2 cf 7f bd
       -0.096498035 0.28630897 0.16031285 -0.062453933
000270 05 c9 cc 3e 29 0d 1f be 4e 0c e8 bc 62 33 c6 bc
       0.39997116 -0.15532364 -0.02832618 -0.024194423
000280 07 06 51 3e 5a c8 b7 3c 7a e9 22 3f 80 16 51 3c
       0.20412455 0.022434402 0.63637507 0.012761712
000290 cb b3 88 3e 4f ba 55 be b6 b2 79 bd d6 62 d3 3e
       0.2669967 -0.20871852 -0.060961448 0.41286343
0002a0 e9 f5 a9 be c0 06 1b 3e 90 c4 a4 3e 13 ac 95 be
       -0.33195427 0.15139294 0.32181215 -0.29232845
0002b0 53 58 a7 be d2 49 76 3e 4f 71 96 3e 95 4f 1a bf
       -0.32684574 0.24051598 0.29383323 -0.6027768
0002c0 02 3d 40 bd 26 05 d7 3b 1b 6c 2f 3e 3f c3 0e be
       -0.04693318 0.006561893 0.17131083 -0.13941668
0002d0 d5 47 12 bf ca e5 82 3e cb 18 d1 3c 93 f1 8e be
       -0.57140857 0.2556594 0.025524518 -0.27918682
0002e0 8b c8 8e 3e e1 51 92 3d 77 62 aa bb 84 80 ab 3e
       0.27887377 0.071445234 -0.005199726 0.33496487
0002f0 4d ae 1f 3e 61 bc c1 be 23 5a 0d 3f 1d b7 88 3e
       0.15593834 -0.37839034 0.5521566 0.26702204
000300 fc 56 2a 3c 53 a8 c2 3d 65 7e 40 3e b7 4f 3b 3e
       0.010396715 0.095047615 0.18798216 0.18292128
000310 57 45 af bd 30 33 18 be 07 a0 d0 3b 70 e3 19 be
       -0.085581474 -0.14863276 0.006366733 -0.15028167
000320 23 cc 1c 3e 7f af ae be 46 17 38 3d bc 94 a2 3e
       0.15312247 -0.34118268 0.04494407 0.317541
000330 62 92 90 bc 9e fa a1 3e 5b 59 45 3d 9f 7e 61 bd
       -0.017647926 0.31636518 0.04818092 -0.055052396
000340 98 5a f7 bd 29 1f 63 3e c0 b1 1f be ef 14 eb bd
       -0.12077826 0.22179855 -0.1559515 -0.11478602
000350 b8 4c a9 3d 73 0b 99 3c 97 f5 e2 3d 68 e0 b2 be
       0.08266586 0.018682217 0.11081999 -0.34936833
000360 0c 81 ec 3c 45 17 27 3e 61 62 81 3e 2d 19 bc bd
       0.028870128 0.1631747 0.2527037 -0.091844894
000370 96 c0 6a be 2d d9 00 bc ef cc f3 3d e7 7c 0a 3e
       -0.22925028 -0.007864279 0.11904322 0.13524209
000380 c5 c0 31 3e 03 ad 57 3e 8b c1 19 39 a0 82 5a 3d
       0.17358692 0.21062092 0.00014663317 0.05334723
000390 26 b9 c3 bd c7 7b 18 be bc 86 b3 3e 98 4c 4c bd
       -0.09556799 -0.14890967 0.35063732 -0.049877733
0003a0 85 57 2e be 1d 92 82 bd 2d ff 61 3d ee d4 00 bf
       -0.17025574 -0.06375525 0.055174995 -0.50324905
0003b0 bd 94 a8 be 0b 42 6b be d7 82 ba 3d 3e 0f 22 bd
       -0.32925978 -0.22974412 0.09106987 -0.039565317
0003c0 e7 97 00 bd 9b fa 4e bd ab ac 1c 3e 08 4b 87 3e
       -0.031394865 -0.050531965 0.15300243 0.26424432
0003d0 f2 70 b7 3e ca cf 89 3d a9 8c c7 3e e8 05 de bc
       0.35828358 0.06729086 0.38974503 -0.027102426
0003e0 f6 68 ee bd b5 e7 7b be 31 4a 54 3e f1 95 5b bd
       -0.116411135 -0.24600108 0.20731427 -0.053609792
0003f0 9b 2d 00 be 34 53 14 bd 27 ac 11 3e e8 2c 9f bd
       -0.12517397 -0.03621216 0.14225827 -0.07772237
