PARALLEL/models/PRED_GROUP_POLICY_BOTH_2500.ckpt (torch, 307152 bytes, 9 tensors)

network.0.weight f4 [32, 5, 3, 3]
0	0x3d8f4958	0.06996411
1	0xbde3f089	-0.11129863
2	0xbdf408b3	-0.11915722
3	0xbe9f9f24	-0.31176102
4	0xbf0d7ae0	-0.5526562
5	0xbe8c1d14	-0.27365935
6	0xbe09aef9	-0.13445653
7	0xbe7fa22d	-0.24964209
8	0xbe1f24b1	-0.1554134
9	0xbbe29603	-0.0069148554
10	0xbe3d446a	-0.18483129
11	0xbefe3bb6	-0.4965493
12	0xbe851e4c	-0.25999677
13	0x3c9520f8	0.018204197
14	0xbddf82b5	-0.10913602
15	0xbe9621cf	-0.2932267
16	0xbf343e4c	-0.7040756
17	0xbe227c11	-0.1586764
18	0xbc224418	-0.00990393
19	0x3d5cea3d	0.053934325
20	0x3e01966e	0.1265504
21	0xbe110d15	-0.14165147
22	0x3e4d403c	0.20044035
23	0xbe3f48e0	-0.18680143
24	0x3e82945f	0.25503823
25	0x3e8638c4	0.26215184
26	0x3e8c3c2e	0.27389663
27	0xbe0b69c7	-0.1361457
28	0xbd6c3cd6	-0.057675205
29	0xbdba89c3	-0.09108307
30	0xbdb5494d	-0.08851872
31	0xbec3594b	-0.38154063
32	0x3e8e16df	0.27751824
33	0x3eb5e378	0.35525107
34	0xbb16add2	-0.0022991789
35	0x3c681957	0.014166198
36	0xbf076de4	-0.52902055
37	0xbe7edcb1	-0.24888875
38	0xbe1c7c1b	-0.15281717
39	0x3ee5c54d	0.4487709
40	0xbde1622c	-0.11005053
41	0xbe79655e	-0.24355075
42	0xbdf01cd2	-0.11724247
43	0xbe32dca0	-0.17466974
44	0xbdb1c18e	-0.08679496
45	0x3d25d0f6	0.040482484
46	0xbdfc8c6d	-0.123314716
47	0x3cf44ffe	0.0298233
48	0x3db2f57d	0.087382294
49	0xbe1a78d2	-0.15085152
50	0xbdddbe5b	-0.10827323
51	0xbd1f5bad	-0.03890579
52	0xbb88e6d0	-0.0041779056
53	0xbdfd529d	-0.12369273
54	0xbe2c7ed4	-0.16845256
55	0xbe94da13	-0.29072627
56	0xbe8aa738	-0.27080703
57	0x3d20d820	0.039268613
58	0xbefc0e26	-0.49229544
59	0xbf33d4e5	-0.70246726
60	0xbe88aeee	-0.2669596
61	0xbefd0d6e	-0.4942431
62	0xbe32858d	-0.17433758
63	0xbe84c13c	-0.25928676
64	0x3e7062d0	0.23475194
65	0x3da86785	0.0822287
66	0xbbc42326	-0.0059856353
67	0x3d03a89d	0.032143224
68	0xbeb074c6	-0.3446409
69	0xbdb7dd99	-0.08977813
70	0x3e0c0d7d	0.1367702
71	0x3ec394f1	0.3819957
72	0x3e9da3e8	0.30789113
73	0x3c34a940	0.0110266805
74	0xbe9a8d33	-0.3018585
75	0x3d5bc064	0.053650275
76	0x3d6c10b7	0.057633128
77	0xbec73c9b	-0.38913426
78	0x3ddeb212	0.10873808
79	0xbe551990	-0.20810533
80	0xbe0e534b	-0.13898961
81	0xbeb34b6f	-0.3501849
82	0xbd7349cc	-0.05939655
83	0xbe8c27be	-0.2737407
84	0xbed50fe3	-0.41613683
85	0xbf12d7b6	-0.573604
86	0xbe92731e	-0.28603452
87	0x3e72160c	0.23641223
88	0xbd1a4a5a	-0.037668563
89	0x3dee8d82	0.11648084
90	0x3d884b81	0.06655026
91	0xbca4db12	-0.020123992
92	0xbe2f9415	-0.17146333
93	0xbd9e8824	-0.077408105
94	0x3d04d745	0.03243186
95	0xbdac544d	-0.084145166
96	0x3d337097	0.043808546
97	0xbc4032d3	-0.011730867
98	0x3d23245c	0.039829597
99	0xbe6f8ebc	-0.23394293
100	0xbe8367c4	-0.25665104
101	0xbd9c94df	-0.076455824
102	0xbdb886f5	-0.09010116
103	0x3eaa76da	0.33293802
104	0x3ea52fd9	0.32263067
105	0xbd8ab3b3	-0.06772556
106	0x3eb43ddb	0.35203442
107	0x3ecf70a8	0.40515637
108	0x3e2f9519	0.1714672
109	0x3db19ff4	0.08673087
110	0x3ea847d0	0.3286729
111	0xbec5b71c	-0.38616264
112	0xbe437287	-0.19086657
113	0x3e31154e	0.17293283
114	0xbc51626d	-0.012779814
115	0xbd3500c3	-0.04419018
116	0x3dfd2700	0.12360954
117	0x3d886241	0.066593654
118	0xbee4eb2f	-0.4471068
119	0xbf360200	-0.710968
120	0x3e120a03	0.14261632
121	0xbee951a4	-0.455701
122	0x3deecaea	0.116597965
123	0xbf0f9f47	-0.5610241
124	0xbed9a6ad	-0.42509976
125	0xbf5e8b36	-0.8693117
126	0x3db3acc3	0.08773186
127	0xbdfc92b5	-0.1233267
128	0xbe8086f1	-0.25102952
129	0xbe067a4e	-0.13132593
130	0x3cda7163	0.026665395
131	0x3e89fec4	0.26952183
132	0xbd1e050d	-0.038579036
133	0xbde94327	-0.113897614
134	0xbe09b80c	-0.13449115
135	0x3ce88fcb	0.028388878
136	0xbc03bbb5	-0.008040358
137	0x3e18021e	0.14844558
138	0xbddde666	-0.10834961
139	0x3b59089f	0.003311671
140	0xbdf4b11b	-0.11947843
141	0x3d7962cc	0.060885236
142	0x3c8d048b	0.01721408
143	0xbca29ef7	-0.019851191
144	0x3ea36c92	0.3191877
145	0xbca39c9b	-0.019972136
146	0xbeec7243	-0.46180925
147	0x3ef7bc84	0.48386014
148	0x3e2cc1c5	0.16870792
149	0x3f0accfd	0.5421904
150	0x3e41c1cc	0.18921584
151	0x3f087178	0.5329814
152	0x3f0a7ee4	0.5409987
153	0x3c46e31d	0.012139109
154	0xbdb86155	-0.090029396
155	0x3ddca363	0.10773351
156	0xbc046ef4	-0.008083094
157	0xbd2d6ce3	-0.04234017
158	0x3da794bf	0.08182668
159	0xbe0faabc	-0.14029974
160	0x3dd355ec	0.10319123
161	0x3d6c62ab	0.057711285
162	0xbe82df12	-0.25560814
163	0xbf0ce847	-0.5504193
164	0xbee0ce27	-0.43907282
165	0xbf540fd7	-0.8283667
166	0xbf35fe62	-0.7109128
167	0xbf4cefb3	-0.8005325
168	0xbeba5960	-0.36396313
169	0xbf2b8715	-0.67002994
170	0xbeb7a4a5	-0.358678
171	0xbc066943	-0.008203807
172	0x3d11d424	0.035602704
173	0xbcf054c6	-0.029337298
174	0xbcca19ce	-0.024670508
175	0xbe113402	-0.14179996
176	0xbc1e0ebb	-0.009647067
177	0x3d72ec87	0.0593076
178	0x3d054552	0.032536812
179	0xbdd75353	-0.1051394
180	0xbe16bb66	-0.14719924
181	0xbe039fd7	-0.12853943
182	0xbd264e83	-0.04060222
183	0x3d47bf5e	0.048766486
184	0xbe71038d	-0.23536511
185	0xbe745ac6	-0.23862752
186	0xbe380239	-0.17969598
187	0x3d7bc528	0.06146732
188	0xbddfa0bb	-0.10919329
189	0xbe5a3ea3	-0.21312957
190	0xbebcebbb	-0.36898598
191	0x3e0f31bc	0.13983816
192	0x3e9d442a	0.30716068
193	0x3d1f5b4c	0.038905427
194	0x3efbce7d	0.49180976
195	0xbe6d886b	-0.2319657
196	0xbedfd6c7	-0.4371855
197	0xbeb303f9	-0.34963968
198	0xbe299194	-0.1655944
199	0x3dbf5250	0.09341872
200	0xbec3e4e7	-0.38260576
201	0x3e52af63	0.20574717
202	0xbde6c872	-0.11268701
203	0x3e38b732	0.18038633
204	0x3e719a50	0.23594022
205	0x3e589536	0.2115067
206	0x3dd43471	0.10361565
207	0x3e9dc8f2	0.30817372
208	0x3e0f1359	0.13972224
209	0x3dfc0916	0.123064205
210	0x3e7766c9	0.24160303
211	0xbefea351	-0.49733976
212	0xbdf47e9e	-0.11938213
213	0xbdbe46c2	-0.0929084
214	0xbd1c4664	-0.038153067
215	0xbef86169	-0.48511818
216	0xbdc5713c	-0.09640738
217	0x3e5b4fe5	0.21417196
218	0x3e3ef488	0.18647969
219	0xbe913a03	-0.28364572
220	0xbdc503e4	-0.09619883
221	0x3e61c3ca	0.22047344
222	0xbe21afb7	-0.15789686
223	0xbe115406	-0.14192209
224	0xbe3a1e20	-0.18175554
225	0x3dc16a70	0.094441295
226	0xbea7b0be	-0.3275203
227	0xbe097504	-0.13423544
228	0xbd944ae6	-0.07240848
229	0xbe8e7b82	-0.27828604
230	0xbe4172d8	-0.18891466
231	0xbda54027	-0.08068877
232	0xbe026bf3	-0.12736492
233	0xbd1c3e04	-0.03814508
234	0x3ea20e13	0.31651363
235	0xbbb71c1e	-0.0055880686
236	0xbee45eea	-0.44603664
237	0xbe613a50	-0.219949
238	0xbf01267b	-0.5044934
239	0xbe92b066	-0.28650206
240	0x3e2e70bc	0.17035192
241	0x3eb1f77f	0.34759137
242	0xbe6c357d	-0.23067279
243	0xbc97036d	-0.01843425
244	0x3e32e7ab	0.17471187
245	0x3e622f14	0.22088271
246	0x3da7863b	0.08179899
247	0x3dae1593	0.08500209
248	0xbf20d294	-0.62821317
249	0x3e3e1fca	0.18566814
250	0xbe4a7203	-0.19770055
251	0xbde05566	-0.109537885
252	0x3e47ae66	0.19500121
253	0xbdb670ea	-0.089082554
254	0xbf1d5ea4	-0.61472535
255	0x3ef51f82	0.478756

network.0.bias f4 [32]
0	0xbe204b30	-0.15653682
1	0xbca04196	-0.019562524
2	0xbdf93f0a	-0.12170227
3	0xbd0b778c	-0.034049556
4	0xbe903886	-0.28168124
5	0xbed5896d	-0.4170641
6	0xbe08dd4a	-0.13365665
7	0xbe35bbc7	-0.17747413
8	0x3d8c00b8	0.068360746
9	0xbeae0401	-0.3398743
10	0xbe9cd9dd	-0.30634966
11	0xbdd1cd80	-0.10244274
12	0xbe61cbe8	-0.2205044
13	0xbe89bee3	-0.26903448
14	0xbe451646	-0.19246778
15	0xbf096a02	-0.5367738
16	0xbe34e6b5	-0.17666133
17	0xbeaef6e4	-0.34172738
18	0xbd85abe9	-0.0652693
19	0xba396253	-0.00070718414
20	0xbeaf950e	-0.34293407
21	0xbe8af803	-0.27142343
22	0xbdc8b564	-0.098002225
23	0xbe511ed8	-0.20421922
24	0xbe96caa5	-0.2945148
25	0xbdc38020	-0.09545922
26	0xbde8d980	-0.1136961
27	0xbe7a1b7a	-0.24424544
28	0xbe394f6b	-0.18096702
29	0xbe801ad4	-0.25020468
30	0xbe23ad15	-0.15983994
31	0xbdbaf881	-0.091294296

network.2.weight f4 [64, 32, 3, 3]
0	0xbd887067	-0.06662064
1	0xbdeb6059	-0.11492986
2	0x3bc48605	0.0059974217
3	0xbcd54104	-0.026031978
4	0x3d2585b1	0.0404107
5	0x3b83f223	0.0040266677
6	0x3c49eac2	0.012324037
7	0xbda3b013	-0.07992568
8	0xbd75b1a6	-0.059983872
9	0xbd4ce7c8	-0.05002573
10	0xbdaa5c14	-0.08318344
11	0xbc13f4aa	-0.0090305
12	0xbc69f312	-0.014279144
13	0xbcf78e1c	-0.03021913
14	0xbb96b327	-0.0045989933
15	0xbcb86175	-0.022507409
16	0xbb57964b	-0.0032895978
17	0xbd539236	-0.05165311
18	0xbdcb78a3	-0.09935119
19	0xbd58666e	-0.05283206
20	0xbd74a66f	-0.059729036
21	0xbd48984b	-0.048973363
22	0xbdd47dbb	-0.10375544
23	0xbd9db6c7	-0.07700878
24	0xbd602d07	-0.05473044
25	0xbc540c1f	-0.012942343
26	0xbdfa5283	-0.12222769
27	0xbca21af7	-0.019788248
28	0x3c07bd66	0.008284902
29	0x3cfb335d	0.03066414
30	0xbe055744	-0.1302157
31	0xbd0d6ed3	-0.03452952
32	0xbd537438	-0.051624507
33	0xbddc0867	-0.1074379
34	0xbca89a50	-0.020581394
35	0xbc720319	-0.014771246
36	0xbcdd2267	-0.026993943
37	0xbd70069c	-0.058600053
38	0xbd1a7c7a	-0.037716366
39	0xbd0312f5	-0.0320005
40	0xbdf37173	-0.11886873
41	0x3c9ee55f	0.019396482
42	0xbdf321ec	-0.118717045
43	0xbd9398e1	-0.07206894
44	0x3c4d68f9	0.012537234
45	0x3b917013	0.004438409
46	0x3be62800	0.0070238113
47	0xbdd50a7f	-0.104023926
48	0x3af41acf	0.0018623712
49	0xbcefd21d	-0.029274995
50	0xbdd31146	-0.10306029
51	0x3e0313bc	0.12800497
52	0xbdac607d	-0.08416841
53	0xbc6947d6	-0.014238318
54	0xbd4ba0e1	-0.049713973
55	0xbd3110b7	-0.04322883
56	0xbd807d0a	-0.06273849
57	0xbdab3cd9	-0.08361215
58	0xb8efda14	-0.00011437028
59	0xbd57c2da	-0.05267606
60	0xbbb95651	-0.0056560417
61	0xbdbb7e77	-0.09154981
62	0xbdf8e9dd	-0.12153981
63	0x3c16c479	0.009202116
64	0xbc751457	-0.014958463
65	0x3c2dec5b	0.010615434
66	0x3cf41a64	0.02979774
67	0xbd272efd	-0.040816296
68	0xbc0d623c	-0.008629378
69	0xbceb6303	-0.028733736
70	0xbc7a8b3f	-0.015291988
71	0xbd62d966	-0.05538311
72	0xbdc5b73a	-0.09654088
73	0xbde9fdbe	-0.114253506
74	0xbd3ee4e6	-0.046605013
75	0xbdc399d9	-0.095508285
76	0xbe139756	-0.14413199
77	0xbd98738a	-0.07443912
78	0x3b49a6c7	0.0030769573
79	0xbc484f0f	-0.01222588
80	0xbd8ff996	-0.070300266
81	0xbd54d378	-0.051959485
82	0xbd03b177	-0.032151666
83	0x3d10abe4	0.035320178
84	0xbcb9b231	-0.022667976
85	0xbdbc835d	-0.09204743
86	0xbb626433	-0.0034544587
87	0x3d28ba9c	0.04119359
88	0xbdc990f5	-0.098421015
89	0xbc5fba95	-0.0136553245
90	0xbd11a10a	-0.03555397
91	0x3bcb15c6	0.006197664
92	0xbb7e7e64	-0.003883266
93	0xbb22f0a9	-0.0024862683
94	0xbc2fd5cf	-0.010732128
95	0xbdeeb169	-0.11654932
96	0xbbc82b1f	-0.006108656
97	0x3d1d12d3	0.03834803
98	0xbb9e045d	-0.0048222975
99	0xba56e727	-0.00081978965
100	0xbdf13457	-0.11777561
101	0xbd3d2c49	-0.04618481
102	0x3c438ab6	0.011934927
103	0xbd66b852	-0.056328125
104	0xbb55fe51	-0.0032652805
105	0xbcced3a9	-0.025247412
106	0xbcb0a600	-0.02156353
107	0xbb9b432d	-0.0047382326
108	0xbd35dc23	-0.04439939
109	0x3c27595d	0.010214177
110	0x3ca7b8f2	0.020473931
111	0xbd54e070	-0.051971853
112	0xbd8e135c	-0.06937286
113	0x3cbbfd3f	0.022947906
114	0xbd39b739	-0.04534075
115	0xbd04dca5	-0.032436986
116	0xbd89981f	-0.06718468
117	0xbd54b992	-0.051934786
118	0xbc106e96	-0.008815428
119	0xbda46be4	-0.08028391
120	0xbd5a0a78	-0.05323264
121	0xbd105096	-0.035233103
122	0xbd7ffa0f	-0.062494334
123	0xbd07895f	-0.03308999
124	0xbdfca41a	-0.123359874
125	0xbe2a2884	-0.16617018
126	0xbcdc5ab3	-0.026898718
127	0xbb7b19af	-0.003831487
128	0x3c4f08bc	0.01263636
129	0x3cb115ce	0.021616843
130	0xbd3db3e0	-0.04631412
131	0xbb2259af	-0.0024772694
132	0xbd2c1e2a	-0.042020954
133	0xbd504937	-0.050851073
134	0xbcfbe36f	-0.030748097
135	0xbdc26ef2	-0.094938174
136	0xbc544295	-0.0129553275
137	0xbd621c04	-0.0552025
138	0xbd2764a3	-0.04086746
139	0x3cd4af65	0.02596254
140	0xbe05712f	-0.13031457
141	0xbe02e403	-0.12782292
142	0x3b1653b8	0.0022938084
143	0xbdd3e654	-0.10346666
144	0xbdb7f8ab	-0.089829765
145	0xbdcadd82	-0.099055305
146	0x3c33ea9e	0.01098123
147	0xbd6357d7	-0.055503692
148	0xbd8e3f53	-0.06945672
149	0xbaf2b401	-0.001851678
150	0xbc97f18c	-0.018547796
151	0x3c1f579a	0.009725476
152	0xbc9aa7b8	-0.018878803
153	0xbdb0615a	-0.08612318
154	0xbd111bbc	-0.03542684
155	0xbd935354	-0.07193628
156	0xbde808cc	-0.11329803
157	0x3cf97ba2	0.03045446
158	0xbd130143	-0.035889875
159	0xbe2a799a	-0.1664795
160	0xbd1a6cb4	-0.037701324
161	0xbdf8e9b9	-0.12153954
162	0xbd9cf25b	-0.07663413
163	0xbddcbb9a	-0.1077797
164	0xbc7f717a	-0.01559102
165	0xbd9389b8	-0.07204002
166	0xbd870c6a	-0.06594165
167	0xbd3a1f1c	-0.045439824
168	0xbdbd2cfb	-0.09237095
169	0xbe04a0a9	-0.12951912
170	0xbe056f45	-0.13030727
171	0xbd8d0063	-0.068848394
172	0xbd4e7165	-0.05040111
173	0xbd73f222	-0.059557088
174	0xbc453c07	-0.012038237
175	0xbd04d4cb	-0.032429498
176	0xbcc70169	-0.024292665
177	0xbcb113ac	-0.021615826
178	0xbcce8520	-0.025209963
179	0xbd4e6dcd	-0.050397683
180	0xbdb73836	-0.08946268
181	0xbd09b65c	-0.033621177
182	0xbd854d6f	-0.0650891
183	0xbd54b642	-0.051931627
184	0xbdc8852c	-0.097910255
185	0xbdb6a9d4	-0.08919111
186	0xbddb3dac	-0.10705122
187	0xbd8ccaef	-0.06874644
188	0xbdbe6af5	-0.09297744
189	0xbd8fc29a	-0.07019539
190	0x3cc7d7a5	0.02439482
191	0x3cbb24ec	0.022844754
192	0xbcd9a794	-0.026569165
193	0xbb4041eb	-0.0029336165
194	0xbd13fdb3	-0.03613062
195	0xbcd0244f	-0.025407938
196	0xbde0faa2	-0.109853044
197	0xbd2f8561	-0.04285181
198	0xbdccfb9d	-0.10008929
199	0xbdcb756c	-0.09934506
200	0xbd6987ac	-0.057014152
201	0xbdfddd4f	-0.12395727
202	0xbd9d728d	-0.076878645
203	0xbdf8e40f	-0.12152874
204	0xbd648074	-0.055786565
205	0xbe0a2805	-0.13491829
206	0xbd8df709	-0.06931884
207	0xbbf583e4	-0.007492529
208	0xbd76d83b	-0.060264807
209	0xbd97b95a	-0.074084
210	0x3c98b072	0.018638823
211	0xbde45ab1	-0.111501105
212	0xbdda1809	-0.106491156
213	0xbdcd6610	-0.100292325
214	0x3d2efbf7	0.04272076
215	0xbd74096f	-0.05957931
216	0xbdc96594	-0.098338276
217	0xbd68f081	-0.056869987
218	0xbd24acd7	-0.040203895
219	0xbd28a557	-0.041173305
220	0xbdd58e0e	-0.104274854
221	0x3c944a08	0.018101707
222	0xbd3a899e	-0.0455414
223	0xbcbec274	-0.023286082
224	0xbd34162b	-0.043966454
225	0xbdb90842	-0.09034778
226	0xbd92b7ff	-0.07164001
227	0x3c3b4e26	0.011432206
228	0x3d34a7fb	0.04410551
229	0xbc9b7c2a	-0.018980104
230	0xbdb92077	-0.09039395
231	0x3d3de580	0.046361446
232	0x3c6c8595	0.014436145
233	0xbcf2e7e2	-0.029651586
234	0xbd11dadb	-0.035609107
235	0x3c27c025	0.010238682
236	0xbde2daa3	-0.11076858
237	0x3cb3a1a6	0.021927666
238	0xbdac4ae5	-0.084127225
239	0xbdbd3cd8	-0.09240121
240	0xbd4d9893	-0.050194334
241	0xbc87a185	-0.01655651
242	0xbdd7e2f8	-0.10541338
243	0x3c46c72e	0.012132449
244	0xbc73ddd5	-0.014884432
245	0xbca072b6	-0.019585948
246	0xbc01fe6f	-0.007934197
247	0xbd11325c	-0.035448417
248	0x3cdca779	0.026935326
249	0x3b6ff42a	0.003661404
250	0x3c7c1062	0.015384765
251	0x3c056688	0.008142121
252	0xbd9c720c	-0.0763894
253	0xbd711154	-0.058854416
254	0xbb82d2a6	-0.0039923964
255	0xbd8294ff	-0.06376075

network.2.bias f4 [64]
0	0xbd39d75e	-0.045371406
1	0xbeb1b8b1	-0.3471122
2	0xbe1e42b5	-0.15455134
3	0xbe1c3da2	-0.15257886
4	0x3c482518	0.012215875
5	0xbd7c40a0	-0.06158507
6	0xbe4bf286	-0.19916734
7	0xbe298ed4	-0.16558391
8	0xbd5c2e33	-0.053754997
9	0xbd8eae02	-0.06966783
10	0xbe178b47	-0.14799224
11	0xbe018a93	-0.12650518
12	0xbe427919	-0.18991508
13	0xbea1e10c	-0.3161701
14	0xbd2d8bd9	-0.042369697
15	0xbdb35e70	-0.08758247
16	0xbe52328b	-0.20527093
17	0xbd27fe2f	-0.041013893
18	0x3d421fb3	0.047393512
19	0xbd659ae3	-0.056055915
20	0xbe41e36c	-0.18934411
21	0xbde9f1a0	-0.114230394
22	0xbe01eec6	-0.12688741
23	0xbd93e55c	-0.07221481
24	0xbdf8ef2f	-0.12154996
25	0xbe05df5c	-0.13073486
26	0xbdf06237	-0.11737483
27	0xbb4d1f49	-0.0031299165
28	0xbe94a266	-0.2903015
29	0xbddabfe0	-0.106811285
30	0xbe6519bb	-0.22373097
31	0xbdfc1592	-0.12308802
32	0xbde08b58	-0.10964078
33	0xbe7c19c9	-0.24619211
34	0xbeae9301	-0.3409653
35	0xbe06716a	-0.13129202
36	0xbd98a840	-0.07453966
37	0xbec22ea4	-0.3792621
38	0xbdc3769d	-0.09544108
39	0xbde34da3	-0.110987924
40	0xbe11ce39	-0.14238824
41	0xbe2f1061	-0.17096092
42	0xbd81b10e	-0.063325986
43	0xbd93d222	-0.07217814
44	0xbe5b884b	-0.2143871
45	0xbc572087	-0.013130314
46	0xbe03708f	-0.12835906
47	0xbe9ce43c	-0.3064288
48	0xbe33d492	-0.17561558
49	0xbde2b94f	-0.11070501
50	0xbeb16b79	-0.34652308
51	0xbe1f96a5	-0.1558481
52	0xbd9cb823	-0.07652309
53	0xbd6520f9	-0.05593965
54	0xbe0b9891	-0.13632418
55	0xbe5313f6	-0.20613083
56	0xbea4119c	-0.32044685
57	0xbe4f854c	-0.20265692
58	0xbddcd689	-0.10783107
59	0xbcfa02db	-0.03051894
60	0xbcc37455	-0.023859182
61	0xbda3fc87	-0.0800715
62	0xbdc6e51a	-0.097116664
63	0xbe0ec8ee	-0.13943836

network.4.weight f4 [64, 64, 3, 3]
0	0x3c44c127	0.012008942
1	0x3d1fe8d9	0.03904042
2	0xbb21359b	-0.0024598602
3	0xbcfa954c	-0.030588768
4	0xbc9224e7	-0.017839862
5	0xbd247e80	-0.040159702
6	0x3c95218c	0.018204473
7	0x3d1d9d9a	0.03848038
8	0xbd593dc5	-0.053037424
9	0xbeaef0e6	-0.34168166
10	0xbdc31a90	-0.09526551
11	0x3e51f28f	0.20502685
12	0xbd8d4207	-0.06897359
13	0xbed6660f	-0.4187474
14	0xbb0ac83d	-0.002117648
15	0x3caf71ca	0.021416564
16	0xba78733d	-0.0009477621
17	0xbe133455	-0.14375432
18	0x3dc1ba49	0.09459359
19	0x3dfed913	0.12443747
20	0x3e40e421	0.18837024
21	0xbcf25b67	-0.0295846
22	0xbd88175a	-0.06645079
23	0xbe7a216a	-0.24426809
24	0xbe2a79ce	-0.16648027
25	0xbe925fd6	-0.28588742
26	0xbd9634d4	-0.07334295
27	0xbde6343f	-0.11240434
28	0xbd08c4a3	-0.033390652
29	0x3c826f72	0.015922282
30	0x3d80c347	0.06287246
31	0xbdad2898	-0.08455008
32	0xbbe59df6	-0.007007356
33	0x3cc9ef3c	0.024650209
34	0xbda769da	-0.081744865
35	0xbdeaa476	-0.1145715
36	0xbe1a3fc0	-0.15063381
37	0xbd80509a	-0.062653735
38	0xbe561ec6	-0.20910177
39	0xbe845d3b	-0.2585238
40	0x3e874aa4	0.26424134
41	0x3de6a423	0.11261775
42	0xbe1e1e29	-0.15441193
43	0xbebc3081	-0.36755756
44	0x3e0aceac	0.13555402
45	0xbd545e3f	-0.051847693
46	0x3d4a0154	0.049317673
47	0xbe8a13e8	-0.26968312
48	0xbdf59182	-0.11990644
49	0x3cc8354d	0.024439478
50	0xbeae2264	-0.34010613
51	0xbea3bdc8	-0.3198073
52	0xbe33097a	-0.17484084
53	0xbef2cdb1	-0.47422555
54	0xbeac369c	-0.33635414
55	0xbdf73d87	-0.12072282
56	0xbdda54cc	-0.10660705
57	0xbe2281cf	-0.1586983
58	0xbece875f	-0.40337655
59	0xbbf8454a	-0.0075766193
60	0xbdc0d4e8	-0.09415609
61	0x3d7eb778	0.06218669
62	0xbeb4b113	-0.35291347
63	0xbe281901	-0.16415788
64	0x3b3b3e9b	0.0028571251
65	0x3e8522e2	0.26003176
66	0xbed98679	-0.42485407
67	0x3dc78994	0.09743038
68	0x3d85c9d1	0.06532634
69	0xbeadc375	-0.33938184
70	0xbe03ecab	-0.1288325
71	0x3eabf32b	0.3358396
72	0xbee36c08	-0.4441836
73	0xbe5dd278	-0.21662319
74	0x3e1d3785	0.1535321
75	0xbe89fdc7	-0.2695143
76	0xbf0cfcaf	-0.55073065
77	0x3c3946b5	0.011308362
78	0xbed97a68	-0.424762
79	0xbee8b59e	-0.45451063
80	0x3e2fe5f6	0.17177567
81	0xbbb11a90	-0.005404778
82	0x3d8320bb	0.06402727
83	0xbdb9800c	-0.09057626
84	0xbd98ded5	-0.07464377
85	0x3dfeecfc	0.12447545
86	0x3e3c4d4c	0.18388861
87	0x3e0a62d1	0.13514258
88	0xbd03cc14	-0.032177046
89	0x3d1ede06	0.038785957
90	0x3dd13f14	0.10217109
91	0xbe1f239b	-0.15540926
92	0xbe50c11b	-0.20386164
93	0xbdd22dfd	-0.10262678
94	0xbe9315c4	-0.28727543
95	0x3e10e5b7	0.1415013
96	0xbdbb70fd	-0.0915241
97	0xbec5aeb0	-0.38609838
98	0x3eded14f	0.43519065
99	0xbe5e0058	-0.21679819
100	0xbe4370be	-0.19085976
101	0x3dd27aa8	0.10277301
102	0x3d05888b	0.03260092
103	0xbe6f9aab	-0.23398845
104	0xbcc01ea7	-0.023452116
105	0xbe98e5c8	-0.2986281
106	0xbe73742d	-0.23774786
107	0x3e47d47e	0.19514653
108	0xbe5774e4	-0.21040684
109	0xbc8a90ec	-0.016914807
110	0xbe84ce12	-0.2593847
111	0x3e575c39	0.21031274
112	0xbd90d57e	-0.070719704
113	0x3cf72ade	0.030171808
114	0x3cb57ca4	0.02215416
115	0xbcdb10bf	-0.026741384
116	0xbe174e8a	-0.14776054
117	0xbdd46c06	-0.10372166
118	0x3ed1ec94	0.41000807
119	0xbb30e5ac	-0.0026992364
120	0xbe204f88	-0.15655339
121	0xbe99f0c2	-0.30066496
122	0x3d8458d7	0.06462257
123	0xbb40a2a4	-0.0029393816
124	0xbed3c0f3	-0.41358146
125	0xbc478ae6	-0.012179112
126	0x3cac1da0	0.02101022
127	0xbc583acf	-0.013197615
128	0xbd262819	-0.040565584
129	0xbcd92bbb	-0.02651011
130	0x3c833537	0.016016586
131	0x3bcde92a	0.006283899
132	0x3a5e8081	0.00084877765
133	0xbc8ebc89	-0.017423885
134	0x3d0364a0	0.032078385
135	0x3cef1766	0.029185962
136	0x3ca550a9	0.020180063
137	0xbbf2d7b2	-0.007410967
138	0x3ca6d50b	0.020365259
139	0x3c6ba7f6	0.014383307
140	0xbc8db474	-0.01729796
141	0xbb67b0da	-0.0035353214
142	0xbced84ac	-0.028993927
143	0xbbb51b12	-0.0055269087
144	0xbd5a7cbd	-0.053341616
145	0x3e84acc9	0.25913075
146	0xbd8d9051	-0.06912292
147	0xbe3a12ac	-0.18171185
148	0xbe041158	-0.12897241
149	0x3d0a0252	0.03369362
150	0xbe9e503e	-0.30920595
151	0xbba4f3e3	-0.0050339564
152	0xbc0986f4	-0.008393992
153	0xbf0c26b3	-0.5474655
154	0xbed8800d	-0.42285195
155	0xbd856044	-0.06512502
156	0xbe9fd2d2	-0.3121553
157	0xbe960264	-0.292987
158	0xbd0dc7a8	-0.034614235
159	0xbe07ece8	-0.13273966
160	0xbed7509e	-0.42053694
161	0x3db7afdd	0.0896909
162	0x3d2720e6	0.04080286
163	0xbb896f53	-0.004194179
164	0x3e4fc8f0	0.20291495
165	0xbf0d3bc4	-0.5516932
166	0x3e1c6881	0.1527424
167	0xbc76189a	-0.015020514
168	0xbed3c73d	-0.41362944
169	0xbe15f035	-0.14642413
170	0xbe9928f3	-0.29914054
171	0xbd91f1f4	-0.07126227
172	0x3dc201a0	0.09472966
173	0xbe98d862	-0.29852587
174	0xbf167be6	-0.58782804
175	0xbf01e706	-0.5074314
176	0xbc256017	-0.01009371
177	0xbe43f3ca	-0.19135967
178	0xbe472789	-0.19448675
179	0x3d87ce61	0.066311605
180	0xbe325cf5	-0.17418273
181	0xbe8218d8	-0.2540958
182	0xbda011ac	-0.07815871
183	0xbe1230a0	-0.14276361
184	0xbe5a05b7	-0.21291243
185	0xbe953696	-0.29143208
186	0x3e4a9019	0.19781531
187	0xbe3d77f5	-0.18502791
188	0x3d09f9e2	0.033685572
189	0x3c08efa5	0.008357917
190	0xbbb6d9d1	-0.005580165
191	0x3cb9d6d3	0.022685444
192	0xbb9def7f	-0.00481981
193	0xbca952ef	-0.020669429
194	0x3ccf73f1	0.02532384
195	0x3cffedb4	0.031241275
196	0xbb88a0bb	-0.004169551
197	0xbc1706a7	-0.009217895
198	0xbc46324e	-0.0120969545
199	0xbe359d5d	-0.1773581
200	0xbe7af017	-0.2450565
201	0xbe587a53	-0.21140413
202	0xbefa0d8b	-0.48838457
203	0xbeb0f63e	-0.34562868
204	0x3d839856	0.0642554
205	0xbea26cff	-0.31723782
206	0xbcb87fd3	-0.022521889
207	0x3c85ee96	0.016349118
208	0x3c8eb976	0.017422419
209	0xbd0857b8	-0.03328678
210	0x3ea3d57c	0.31998813
211	0x3d119237	0.035539832
212	0x3df4fa4f	0.11961805
213	0xbe44f6b4	-0.19234735
214	0x3e1a1f15	0.1505092
215	0x3e1ce635	0.15322192
216	0xbd56ca0a	-0.052438773
217	0xbf015500	-0.50520325
218	0x3e0e6a6a	0.13907781
219	0xbe84f112	-0.25965172
220	0xbe38e89e	-0.18057486
221	0xbf11539f	-0.5676822
222	0xbde6eac8	-0.1127525
223	0x3e56bbc6	0.20970067
224	0x3c7e0712	0.015504615
225	0xbc412981	-0.01178968
226	0xbe121132	-0.14264372
227	0xbca57969	-0.020199494
228	0x3be86125	0.0070916587
229	0xbde7efcd	-0.11325035
230	0xbda73522	-0.08164431
231	0xbdfa58d5	-0.122239746
232	0xbdaf85b2	-0.08570422
233	0x3dc31382	0.09525205
234	0x3ce9fe0b	0.02856352
235	0xbd1c3d73	-0.03814454
236	0x3c88b5de	0.016688284
237	0xbd1ff9ad	-0.03905647
238	0x3ca03db4	0.019560672
239	0x3cf61dcf	0.03004351
240	0xbc495301	-0.012287856
241	0xbce1d8c0	-0.027569175
242	0xbba6f6a0	-0.005095318
243	0x3d960873	0.0732583
244	0xbf1c780f	-0.61120695
245	0xbddd48bd	-0.10804889
246	0x3eae54c9	0.3404906
247	0xbdf72fab	-0.12069639
248	0xbe444c2f	-0.19169687
249	0x3d9e6841	0.077347286
250	0x3ed988dc	0.42487228
251	0xbe211716	-0.15731463
252	0xbe5e7b49	-0.21726717
253	0x3e1681f4	0.1469801
254	0x3d6cd4dc	0.057820186
255	0xbe8462e0	-0.25856686

network.4.bias f4 [64]
0	0xbd8ef94f	-0.069811456
1	0xbdd048c0	-0.10170126
2	0xbe06413d	-0.13110824
3	0xbdbf662a	-0.09345658
4	0xbdce83b8	-0.10083717
5	0xbdf82305	-0.121160544
6	0xbe2c36d8	-0.16817796
7	0xbdcc43dd	-0.099738814
8	0xbf05d292	-0.5227443
9	0xbe815e48	-0.25267243
10	0xbdf70ca9	-0.120629616
11	0xbdd613e4	-0.104530126
12	0xbd9bb53a	-0.076029256
13	0xbdcc897b	-0.0998716
14	0xbef46984	-0.47736752
15	0xbec2097b	-0.37897858
16	0xbe55819d	-0.20850225
17	0xbdade90f	-0.08491718
18	0xbefee456	-0.49783581
19	0xbda56c6f	-0.08077323
20	0xbdb64723	-0.08900287
21	0xbeb32351	-0.34987882
22	0xbef0b8dc	-0.47016037
23	0xbea6c978	-0.32575583
24	0xbe9ba638	-0.30400252
25	0xbebf3327	-0.37343714
26	0xbe67463f	-0.2258539
27	0xbde41284	-0.11136344
28	0xbe1639f5	-0.14670546
29	0xbe17a074	-0.14807302
30	0xbea7136f	-0.32632014
31	0xbef826bf	-0.4846706
32	0xbe986b05	-0.2976915
33	0xbe4e41e3	-0.20142321
34	0xbe0de490	-0.13856721
35	0xbe33d65d	-0.17562242
36	0xbed72d1c	-0.42026603
37	0xbe5f01e8	-0.21778071
38	0xbecba430	-0.39773703
39	0xbd9c93a8	-0.07645351
40	0xbddaf770	-0.10691726
41	0xbe08ef26	-0.13372478
42	0xbdff9cfa	-0.12481113
43	0xbd8121ec	-0.06305298
44	0xbe18e499	-0.14930953
45	0xbe680abf	-0.2266035
46	0xbdb90213	-0.09033599
47	0xbe5f6592	-0.2181609
48	0xbec92797	-0.39288017
49	0xbd45596d	-0.048180986
50	0xbdff8146	-0.12475829
51	0xbda71ea6	-0.081601426
52	0xbdecdef3	-0.11565962
53	0xbde8a5d5	-0.11359755
54	0xbe1d4538	-0.15358436
55	0xbd808361	-0.062750585
56	0xbe9ee26e	-0.31032127
57	0xbd621bfb	-0.055202466
58	0xbdb520cf	-0.08844148
59	0xbd0b3ad2	-0.033991642
60	0xbdec3038	-0.115326345
61	0xbd62049a	-0.05518017
62	0xbe5ac852	-0.21365479
63	0xbd7c5e33	-0.061613273

actor.weight f4 [5, 3136]
0	0x3d7dda58	0.061975807
1	0x3e919e55	0.2844111
2	0xbdcd3c88	-0.10021311
3	0xbdc243e0	-0.094856024
4	0x3e6f6a1c	0.23380321
5	0x3ce6abf5	0.028158167
6	0x3e11fb7c	0.1425609
7	0xbd0bf365	-0.034167666
8	0x3e6cea80	0.2313633
9	0xbdf38359	-0.11890287
10	0xbdac0cca	-0.08400877
11	0x3e208ec2	0.15679458
12	0x3d4affa0	0.04956019
13	0x3e62924a	0.22126117
14	0x3de05313	0.10953345
15	0xbe06508c	-0.13116664
16	0xbcea01e7	-0.02856536
17	0xbb640dd9	-0.0034798293
18	0x3d4263c5	0.04745843
19	0xbdbc809c	-0.09204218
20	0x3dc2bac2	0.095082775
21	0x3dad3655	0.08457629
22	0x3cc5621f	0.02409464
23	0x3da6571c	0.081220835
24	0xbe9463c8	-0.28982377
25	0x3d6036f6	0.054739915
26	0xbdc34be3	-0.095359586
27	0xbe51cffe	-0.20489499
28	0x3d4e5f76	0.050384007
29	0x3e4b3182	0.19843104
30	0x3e109822	0.14120534
31	0x3d22afad	0.03971832
32	0x3e59c8ef	0.21268056
33	0x3d10c669	0.03534547
34	0x3ea45306	0.32094592
35	0x3dbf22a0	0.09332776
36	0x3ea9a962	0.3313704
37	0x3e56292d	0.20914145
38	0xbe4309df	-0.19046734
39	0x3ce2959d	0.027659232
40	0xbc3cce01	-0.0115237245
41	0x3e9cc55f	0.30619332
42	0x3efcc3fc	0.49368274
43	0x3e684c18	0.22685277
44	0x3d9e9b71	0.07744492
45	0xbc421966	-0.011846876
46	0xbda40d96	-0.08010404
47	0xbe96aa8d	-0.29426995
48	0xbdfb29d0	-0.122638345
49	0xbde6f843	-0.11277821
50	0x3d5550f8	0.05207917
51	0x3e8c635b	0.27419552
52	0x3c6efe16	0.014586946
53	0xbd5d87b3	-0.05408449
54	0x3e2269b4	0.15860635
55	0x3d050107	0.032471683
56	0xbe102941	-0.14078237
57	0x3e9f0a79	0.31062678
58	0x3e188e1f	0.14897965
59	0x3d702d2f	0.05863684
60	0xbc525cef	-0.01283954
61	0x3ed0b060	0.40759563
62	0x3e811ddd	0.25218096
63	0x3f04e19f	0.5190677
64	0x3c06e76d	0.008233887
65	0x3ea18d3e	0.31553072
66	0xbc772049	-0.015083381
67	0x3e195c94	0.14976722
68	0xbd0b8d0f	-0.03407007
69	0x3d53a27d	0.051668633
70	0xbe2c1ade	-0.16807124
71	0x3eb219e5	0.3478538
72	0x3dad075b	0.084486686
73	0x3ec56814	0.38555968
74	0x3d7572db	0.059923988
75	0x3e0e5b66	0.13902053
76	0x3d767be5	0.06017675
77	0xbcaa780f	-0.020809202
78	0x3d12d3c6	0.035846494
79	0x3ce60b51	0.028081568
80	0x3e29d214	0.16584045
81	0x3ee442d1	0.44582227
82	0x3da3139b	0.07962724
83	0x3e9d55a2	0.30729395
84	0x3eaec4c5	0.34134498
85	0x3de120da	0.10992594
86	0x3dbcc265	0.09216765
87	0x3e7a41cd	0.24439164
88	0x3d32175d	0.043479312
89	0xbe969b0b	-0.29415163
90	0x3c265898	0.010152958
91	0x3f034e3e	0.51291263
92	0x3e2d909c	0.16949695
93	0x3d52c705	0.05145933
94	0x3d765095	0.060135443
95	0x3ea415ae	0.3204779
96	0x3e398cf7	0.1812018
97	0x3e24a029	0.16076721
98	0x3d078b80	0.033092022
99	0x3dc0c9cb	0.09413489
100	0xbd909923	-0.070604585
101	0xbe5295d4	-0.20564967
102	0x3e0f15fa	0.13973227
103	0x3ea8965f	0.32927224
104	0x3e0ba3f8	0.13636768
105	0x3debccb9	0.11513657
106	0x3d1c15db	0.03810678
107	0xbc4cc3b6	-0.012497833
108	0x3c2d7e77	0.010589234
109	0x3cbb11b4	0.02283559
110	0x3e679e50	0.22618985
111	0x3e131ba1	0.14366008
112	0xbdaffa9e	-0.08592723
113	0x3cdda840	0.027057767
114	0xbe0d987b	-0.13827698
115	0x3e979109	0.2960284
116	0x3dbb20fd	0.091371514
117	0x3ea8b0fd	0.3294753
118	0xbd99c845	-0.075089015
119	0x3e1bf308	0.15229428
120	0xbb99b0fb	-0.004690287
121	0xbd6a9029	-0.057266388
122	0x3e11d393	0.14240865
123	0x3cd56e29	0.026053505
124	0x3ea53e9a	0.32274324
125	0xbe0cbc21	-0.1374364
126	0x3e0d7daa	0.13817468
127	0x3df7480b	0.12074288
128	0x3de2d7b6	0.110763
129	0x3e07561d	0.13216443
130	0x3dcc76ca	0.09983595
131	0x3db00c01	0.085960396
132	0xbdf7f0a4	-0.121064454
133	0x3db11b62	0.08647801
134	0x3e208421	0.15675403
135	0x3d8f58dd	0.06999371
136	0x3dfc83bb	0.12329813
137	0x3dbb0ae5	0.09132937
138	0x3de402a4	0.11133316
139	0x3e13f2d0	0.14448094
140	0x3e808bc7	0.25106642
141	0x3ea757e8	0.32684255
142	0x3e93f153	0.28895053
143	0x3f051bbb	0.5199544
144	0x3e089ce1	0.13341095
145	0x3e87c1e6	0.2651512
146	0x3e365828	0.17807066
147	0x3dd385cc	0.10328254
148	0x3e24b6ea	0.16085401
149	0xbbf24e33	-0.007394576
150	0x3f13239c	0.5747621
151	0x3ead2f82	0.33825308
152	0xbdd12784	-0.10212615
153	0xbe84dca5	-0.25949588
154	0x3e43ff6e	0.19140407
155	0x3d5b44c7	0.053532388
156	0x3ee72bb8	0.45150542
157	0x3e8bf1a4	0.27332795
158	0x3e04ff4d	0.12988015
159	0x3e90d9af	0.2829108
160	0x3caedbb6	0.021345
161	0x3df7abd5	0.12093321
162	0x3f193dbd	0.5985983
163	0xbdce71f8	-0.100803316
164	0x3e35d01e	0.17755172
165	0x3b4b7dbf	0.0031050292
166	0x3eb00079	0.3437536
167	0xbd595f79	-0.053069565
168	0x3db2dd64	0.08733633
169	0x3e7f721e	0.24945876
170	0x3e4b7686	0.19869432
171	0x3e9b29fe	0.30305475
172	0x3e1b1c41	0.15147497
173	0xbd607727	-0.054801133
174	0x3ecd7cce	0.4013428
175	0x3e73b72f	0.23800348
176	0xbd360008	-0.044433624
177	0x3da11c87	0.07866769
178	0x3d61afba	0.055099227
179	0x3e6ecd57	0.23320518
180	0x3e31c4fb	0.17360298
181	0xbe1422da	-0.1446642
182	0x3e97d3c8	0.29653764
183	0x3eaaf4ca	0.33389884
184	0xbe0b1b01	-0.1358452
185	0x3e27d1e4	0.1638866
186	0x3ef0e40b	0.47048983
187	0xbbe2a054	-0.0069160853
188	0x3ce8366f	0.028346268
189	0xbcd93b9f	-0.026517687
190	0x3ecb073f	0.39653966
191	0x3e8915ab	0.26774344
192	0x3daac99e	0.08339237
193	0x3dac4a2f	0.08412587
194	0xbe3deadc	-0.18546623
195	0x3e12bc13	0.14329557
196	0x3dfc3908	0.12315565
197	0xbd49e39a	-0.049289323
198	0x3e845c70	0.25851774
199	0x3de8c0b4	0.1136488
200	0x3ea2cb7a	0.31795865
201	0x3ed2c5ad	0.4116644
202	0x3e41f212	0.18939999
203	0x3d5ba0b8	0.05362007
204	0x3d405570	0.04695648
205	0x3ea91f65	0.33031765
206	0x3ea8b543	0.32950792
207	0xbeafcc8f	-0.34335753
208	0x3ddbc1b1	0.10730303
209	0xbee555fd	-0.44792166
210	0x3da8be31	0.08239401
211	0xbe2ae023	-0.16687064
212	0x3e8209d3	0.2539812
213	0x3e4700ec	0.19433945
214	0x3dcd78af	0.10032784
215	0x3e8bd6ba	0.2731226
216	0x3edc6958	0.4304912
217	0x3dac3651	0.084087975
218	0xbcbeb1ae	-0.023278084
219	0x3e94e2af	0.29079196
220	0x3dfad69f	0.12247967
221	0x3e4412ad	0.19147749
222	0x3e8a5f76	0.27025956
223	0x3e9a906e	0.30188316
224	0x3dbb7161	0.09152485
225	0x3e2ff354	0.17182666
226	0xbdbbd0d9	-0.09170694
227	0x3e90d7fb	0.2828978
228	0x3e9b7ebd	0.3037013
229	0x3e893ba4	0.26803315
230	0x3ecbfad8	0.39839816
231	0x3db1b32b	0.08676752
232	0x3da7e229	0.081974335
233	0xbde6794f	-0.112536065
234	0x3e6f3711	0.2336085
235	0x3e0b134c	0.1358158
236	0x3dd12fbb	0.10214182
237	0x3df67ce4	0.1203554
238	0x3e21ea06	0.15811929
239	0xbb406d67	-0.0029362084
240	0x3e84d798	0.25945735
241	0x3d23a1c4	0.039949194
242	0x3d4518a1	0.04811919
243	0x3d52b7cf	0.051444825
244	0xbd17e65b	-0.03708492
245	0xbe1f9206	-0.15583047
246	0x3efed15e	0.4976911
247	0x3c23720e	0.009975923
248	0x3e0b7c20	0.13621569
249	0xbe757aca	-0.23972622
250	0xbe205e7b	-0.15661041
251	0x3e1bd14e	0.15216562
252	0x3d3ab9b2	0.04558725
253	0x3f04bbf8	0.5184932
254	0x3eb3d391	0.3512235
255	0xbe3ba079	-0.18322934

actor.bias f4 [5]
0	0xbc92d4a3	-0.017923659
1	0x3df1439c	0.117804736
2	0x3c51bd9d	0.012801555
3	0x3e2ec91d	0.17068906
4	0xbd0d2952	-0.034463234

critic.weight f4 [1, 3136]
0	0xbe8b5549	-0.27213505
1	0xbf0039f2	-0.5008842
2	0xbe4ca359	-0.19984187
3	0xbdb1708a	-0.08664043
4	0x3dc2a824	0.095047265
5	0x3d8b3a08	0.06798178
6	0xbca1a958	-0.01973407
7	0x3e985cd4	0.29758322
8	0x3e0bc8c8	0.1365081
9	0xbcf0bd05	-0.029387007
10	0xbe305457	-0.17219673
11	0xbdde6a56	-0.10860126
12	0xbe8712db	-0.26381573
13	0xbe199357	-0.14997612
14	0xbe707237	-0.2348107
15	0xbeb2052e	-0.34769577
16	0xbdb92a8a	-0.09041317
17	0x3dbea453	0.09308686
18	0xbdd50681	-0.10401631
19	0xbe9c1ca0	-0.3049059
20	0xbed8d5c0	-0.42350578
21	0xbec7ee80	-0.3904915
22	0xbe41551d	-0.18880124
23	0xbdbc2b7e	-0.09187983
24	0x3d8bfd68	0.06835443
25	0x3d7da16e	0.06192153
26	0x3c3c09a6	0.01147691
27	0x3d36dae8	0.04464236
28	0xbdd6a193	-0.104800366
29	0xbe68e53b	-0.22743694
30	0xbd93aa50	-0.07210219
31	0x3d290926	0.04126849
32	0xbd00b2b6	-0.031420432
33	0xbb7dfcd7	-0.003875544
34	0xbe42b57e	-0.19014546
35	0x3c057c45	0.008147304
36	0xbe2c3dcc	-0.16820449
37	0xbe10e94b	-0.14151494
38	0x3da2a26f	0.07941138
39	0xbd4d3cc7	-0.05010679
40	0xbe8a3b60	-0.26998425
41	0x3e8e35ce	0.27775425
42	0x3e3453a3	0.1761003
43	0xbee4c029	-0.44677857
44	0xbd66e478	-0.05637023
45	0x3da036ad	0.078229286
46	0x3ce888c4	0.028385527
47	0x3bf4deb5	0.007472838
48	0x3cb7b36a	0.022424418
49	0xbdf1b919	-0.11802883
50	0xbd8a7ed7	-0.06762474
51	0xbeeabb24	-0.45845902
52	0xbe980280	-0.29689407
53	0xbe476bc8	-0.19474709
54	0xbea01895	-0.31268755
55	0xbedecd1f	-0.4351587
56	0x3e986582	0.29764944
57	0x3eaf1181	0.34193042
58	0xbe4670e4	-0.19379002
59	0xbe030688	-0.1279546
60	0x3e56e3e2	0.20985368
61	0x3e3dcd99	0.1853546
62	0xbea4fb5b	-0.3222302
63	0xbe93ad93	-0.28843364
64	0xbdbe9321	-0.09305406
65	0xbac20750	-0.0014803205
66	0xbe5901b7	-0.2119206
67	0x3e703357	0.23457085
68	0xbddaadae	-0.10677658
69	0x3d969498	0.07352561
70	0xbe929111	-0.28626302
71	0xbe0f67dd	-0.14004464
72	0xbcc8d792	-0.024516854
73	0xbe157184	-0.14594084
74	0x3d9b3e4e	0.07580243
75	0xbea6247e	-0.32449716
76	0xbeca4cfa	-0.39511853
77	0x3e64ea41	0.22354986
78	0xbe8960f2	-0.26831776
79	0xbebffd37	-0.37497875
80	0xbe72ebcf	-0.23722766
81	0x3c7f3a11	0.015577809
82	0xbd66662c	-0.056249782
83	0xbe3cb640	-0.18428898
84	0x3e3069e0	0.17227888
85	0x3e8ac9ff	0.27107236
86	0x3da14c67	0.07875901
87	0xbd1ad2ec	-0.037798807
88	0x3e17192d	0.14755698
89	0x3e406622	0.1878896
90	0xbc1c465e	-0.009538261
91	0x3d966d65	0.07345084
92	0x3d42945b	0.047504764
93	0xbdd7cfe6	-0.105377
94	0xbe37b504	-0.17940146
95	0xbe909e4f	-0.2824578
96	0x3d82cd78	0.06386846
97	0xbdcb05e9	-0.09913237
98	0xbdb31d38	-0.087458074
99	0x3d9624b2	0.07331218
100	0xbe7956e4	-0.24349552
101	0x3e08d5f5	0.13362868
102	0x3de2786d	0.11058126
103	0xbe514fee	-0.20440647
104	0xbda85d4e	-0.082209215
105	0xbd2e4c49	-0.04255322
106	0x3db0c2a8	0.08630878
107	0x3cad6de7	0.02117057
108	0xbe08d290	-0.13361573
109	0xbea2eea2	-0.31822687
110	0x3d99831a	0.07495709
111	0xbe73901e	-0.23785445
112	0x3e3da2b0	0.18519092
113	0xbe164732	-0.14675596
114	0x3d98d28f	0.07462036
115	0x3e00a585	0.1256314
116	0xbc71589f	-0.014730602
117	0xbdac4e20	-0.08413339
118	0xbcb8dc0c	-0.022565864
119	0x3db9acee	0.09066187
120	0xbe064a5e	-0.13114306
121	0xbdf3a93f	-0.118975155
122	0x3e3722aa	0.17884317
123	0x3ceec8e2	0.029148523
124	0xbd36b31c	-0.044604406
125	0x3d98f6f3	0.07468977
126	0x3e2e0301	0.16993333
127	0x3e0a8a06	0.13529214
128	0xbdb38420	-0.08765435
129	0x3e2340d6	0.15942702
130	0x3e8ba8ab	0.2727712
131	0x3e4383d2	0.19093254
132	0x3e5c6681	0.21523477
133	0xbd44d544	-0.04805495
134	0xbd94e9b5	-0.072711386
135	0xbc7ea033	-0.015541124
136	0x3d9f9714	0.07792488
137	0x3d17bbba	0.037044264
138	0xbd322bbb	-0.043498736
139	0xbc5b5547	-0.013387031
140	0xbc8d6507	-0.017260088
141	0xbc79a6b2	-0.015237497
142	0xbe53171e	-0.20614287
143	0xbd2bcb13	-0.041941714
144	0x3d48aa87	0.048990753
145	0xbe273a8d	-0.16330929
146	0xbd997e50	-0.07494795
147	0xbef70eff	-0.4825363
148	0xbed8887e	-0.42291635
149	0xbdf18e77	-0.11794751
150	0xbecf75f6	-0.40519685
151	0xbf16bd7d	-0.58882886
152	0xbee5bf75	-0.44872633
153	0x3dc03c81	0.0938654
154	0x3e9374b4	0.28799975
155	0x3dd3e5b7	0.10346549
156	0x3e2afd0e	0.16698095
157	0xbe10e244	-0.14148813
158	0x3e833d6e	0.25632805
159	0xbd707c0a	-0.058712043
160	0x3da06623	0.07831981
161	0xbdf3ca35	-0.11903802
162	0x3f11ab47	0.56901973
163	0x3e1d6dc7	0.15373908
164	0x3d39ff51	0.045409504
165	0xbeb47bc6	-0.35250682
166	0x3dbb65b9	0.091502614
167	0x3daa2f3e	0.08309792
168	0xbe974ddc	-0.2955159
169	0xbd5df433	-0.054187965
170	0xbc96dd29	-0.018416004
171	0xbe8924f6	-0.2678601
172	0xbeca030d	-0.39455453
173	0xbe75d6a3	-0.24007659
174	0x3eb7232d	0.35769024
175	0xbf049efd	-0.51805097
176	0x3cf69f8e	0.030105378
177	0xbd70802a	-0.058715977
178	0x3e2a843d	0.16652007
179	0x3c8e9321	0.01740414
180	0xbe9a2e79	-0.3011358
181	0x3e7bf952	0.24606827
182	0x3da5909f	0.08084225
183	0x3e47623d	0.19471069
184	0xbd1f277c	-0.038856015
185	0x3eb2fc8e	0.3495831
186	0xbe11d92d	-0.14243002
187	0x3ddbb83a	0.10728498
188	0x3d5c6384	0.053805843
189	0xbeb49400	-0.35269165
190	0x3d769a1d	0.060205568
191	0x3eca1f47	0.39476988
192	0x3d9d240a	0.076728895
193	0x3d269f4a	0.040679254
194	0x3e8cd66d	0.27507344
195	0x3d96d50e	0.07364856
196	0xbce42421	-0.027849259
197	0xbdcde5c6	-0.100535914
198	0x3d90b251	0.07065261
199	0x3e4f9515	0.20271714
200	0x3ac32d8e	0.0014890896
201	0xbed2270d	-0.41045418
202	0xbd97b5b4	-0.07407704
203	0x3e60fade	0.21970698
204	0x3d0a1c98	0.033718675
205	0x3eaf166c	0.34196794
206	0x3ddd7fe1	0.108154066
207	0xbcf5ff18	-0.030028865
208	0x3e6bf53b	0.23042767
209	0x3e409bf8	0.18809497
210	0xbdec4229	-0.115360565
211	0xbe036784	-0.12832457
212	0x3e50b58a	0.20381752
213	0x3e0ccc13	0.13749723
214	0xbd742b78	-0.059611768
215	0xbeb7561e	-0.3580789
216	0xbeb42491	-0.35184148
217	0xbdac3d8a	-0.08410175
218	0xbd63e862	-0.05564154
219	0xbc193d3c	-0.009352978
220	0x3d67b7f4	0.056571916
221	0xbdc247b8	-0.094863355
222	0xbe37bdd6	-0.1794351
223	0xbe71ab81	-0.2360058
224	0x3e09d27e	0.13459203
225	0x3d636348	0.055514604
226	0x3d4d6b01	0.050150875
227	0x3e274a45	0.16336925
228	0x3d82eeb1	0.06393183
229	0xbdaae049	-0.0834356
230	0x3f16d21d	0.5891436
231	0x3d2a9c1a	0.041652776
232	0x3db7c4ed	0.089731075
233	0x3e0c97fd	0.13729854
234	0x3e847a88	0.25874734
235	0xbdfe4eb9	-0.12417359
236	0xbe5b8559	-0.21437587
237	0xbec9105e	-0.392703
238	0x3d8dcd49	0.06923921
239	0x3dfde64d	0.12397442
240	0x3c802f20	0.015647471
241	0x3d10ed45	0.035382528
242	0x3c1ef07d	0.009700892
243	0xbcf5ea2b	-0.030018887
244	0xbe612e5c	-0.21990341
245	0x3e9801e1	0.29688933
246	0x3e4127ef	0.1886289
247	0x3e68500d	0.22686787
248	0xbe819a8f	-0.2531323
249	0xbe368be8	-0.17826807
250	0x3dad1f8e	0.08453284
251	0x3b3e0a53	0.0028997853
252	0xbe141ff8	-0.1446532
253	0xbbdad814	-0.0066785906
254	0x3e4127f0	0.18862891
255	0xbd99940b	-0.0749894
