PARALLEL/models/PRED_GROUP_POLICY_BOTH_INDIV_RWD_2800.ckpt (torch, 307356 bytes, 9 tensors)

network.0.weight f4 [32, 5, 3, 3]
0	0x3dd25094	0.10269275
1	0x3daefd51	0.0854441
2	0xbd2358ae	-0.039879493
3	0xbdf42210	-0.119205594
4	0xbca621a2	-0.02027971
5	0xbdb3fb41	-0.08788157
6	0x3d6cba67	0.057794955
7	0xbd22074f	-0.03955775
8	0xbe0b01d7	-0.1357492
9	0x3c83f4bc	0.01610791
10	0x3e0bb593	0.13643484
11	0x3e6f362d	0.2336051
12	0x3e1cdad2	0.15317848
13	0x3e09717a	0.13422194
14	0xbd39bb27	-0.045344498
15	0x3e150be4	0.14555317
16	0xbd217ce2	-0.03942574
17	0x3e771463	0.2412887
18	0xbe38f7c9	-0.18063273
19	0xbd66b533	-0.05632515
20	0xbcbb5ec4	-0.022872336
21	0xbd817cab	-0.06322607
22	0xbd324abc	-0.043528304
23	0x3d9f201a	0.07769795
24	0xbd14bd83	-0.036313545
25	0x3cedf117	0.029045625
26	0x3baff863	0.005370186
27	0x3dd50cf3	0.104028605
28	0x3dc1c53d	0.09461448
29	0xbe0b9e07	-0.13634501
30	0x3d81ad69	0.063319035
31	0x3e42742d	0.1898963
32	0x3dcdce3b	0.10049101
33	0x3dd01b83	0.101614974
34	0xbd03e977	-0.03220507
35	0x3d7b8ed9	0.061415527
36	0xbcc0bbbe	-0.023527022
37	0x3dde75a0	0.10862279
38	0xbdbcf07a	-0.09225555
39	0x3df7a299	0.1209156
40	0x3e08bd9f	0.13353585
41	0x3e0493e4	0.12947041
42	0xbdeeee85	-0.11666588
43	0x3d6bc23a	0.057558276
44	0xbda35dd6	-0.07976882
45	0x3dd806e6	0.10548191
46	0xbd8f0cda	-0.06984873
47	0x3d4fa0c1	0.050690416
48	0x3dd32052	0.10308899
49	0x3da7b54a	0.08188875
50	0x3d9bc88b	0.0760661
51	0x3d9be7d3	0.07612576
52	0x3d99c1bc	0.07507655
53	0x3dbb15d1	0.091350205
54	0xbe79f046	-0.24408063
55	0xbdf8f155	-0.121554054
56	0xbdaba32f	-0.08380734
57	0xbe7510cb	-0.23932187
58	0xbe193362	-0.14961007
59	0xbe142fdc	-0.14471382
60	0x3bf69079	0.0075245467
61	0xbd6e3e82	-0.05816508
62	0xbd945b9a	-0.07244034
63	0xbd12dcd9	-0.035855148
64	0x3d265844	0.04061152
65	0xbe330a21	-0.17484333
66	0x3d2c8121	0.042115334
67	0x3dbac687	0.09119897
68	0xbdd4ceb2	-0.103909865
69	0x3dfc5f60	0.12322879
70	0x3e111859	0.14169444
71	0x3cfbb60c	0.030726455
72	0x3ded9e5a	0.11602469
73	0xbe0b9646	-0.13631544
74	0xbe39580d	-0.18099995
75	0x3e214cec	0.15752
76	0x3b76f889	0.003768476
77	0xbd6e97d4	-0.058250263
78	0xbdf1a779	-0.11799521
79	0xbe83167e	-0.25603098
80	0xbe26181c	-0.16220134
81	0xbd0d323e	-0.034471743
82	0x3ddf82c0	0.109136105
83	0xbcdd52e8	-0.027017072
84	0xbbfe1d0e	-0.0077549284
85	0x3d91d585	0.07120804
86	0x3e0d0a1f	0.13773392
87	0x3d9ee7f3	0.077590846
88	0xbdef491a	-0.11683865
89	0x3d6437f6	0.05571743
90	0xbde17c03	-0.110099815
91	0xbbf1c551	-0.0073782583
92	0x3dc4dbbd	0.09612224
93	0x3dc48fa7	0.09597712
94	0xbe0aa6fc	-0.13540262
95	0x3d4d43c1	0.050113443
96	0xbc3e2c55	-0.011607249
97	0xbdc2918e	-0.095004186
98	0xbe092b92	-0.13395527
99	0xbdacdcdb	-0.08440562
100	0xbdb560a4	-0.08856323
101	0x3c0c4826	0.008562123
102	0xbe3355a2	-0.17513135
103	0x3c8f01c8	0.017456904
104	0x3ea0776a	0.31341106
105	0x3c97c1eb	0.018525084
106	0xbd851bc5	-0.06499437
107	0x3ea033b7	0.31289455
108	0xbbc12803	-0.0058946623
109	0x3be63a55	0.0070259967
110	0x3db08234	0.08618584
111	0x3e101db5	0.14073832
112	0x3d9f5fac	0.0778192
113	0xbe3b03d8	-0.18263185
114	0x3da7b5d5	0.081889786
115	0x3c834ad0	0.016026884
116	0xbbb4fdc2	-0.0055234144
117	0xbd0e455d	-0.03473412
118	0x3e01c0be	0.12671182
119	0xbce6ed35	-0.028189281
120	0x3d6183a0	0.055057168
121	0xbcd8655e	-0.026415523
122	0xbd228ea0	-0.0396868
123	0xbe058851	-0.13040282
124	0x3cfe6322	0.03105313
125	0xbdabc48d	-0.083870985
126	0xbdf046b6	-0.11732237
127	0x3e0ee8ae	0.13955948
128	0x3e16bdba	0.14720812
129	0x3dc2a4ce	0.0950409
130	0x3d74c1b9	0.05975506
131	0x3d8bfc57	0.068352394
132	0x3ddcd709	0.10783202
133	0xbd94145c	-0.07230446
134	0x3e164284	0.14673811
135	0x3dcd379a	0.10020371
136	0xbb876cbd	-0.0041328357
137	0x3d5f9dab	0.054593723
138	0x3de43d3d	0.11144493
139	0x3dfdde9c	0.12395975
140	0xbd1fb5a3	-0.03899158
141	0xbca882e2	-0.020570222
142	0xbd1560a1	-0.036469106
143	0x3d5ff378	0.05467555
144	0x3dc8c2e2	0.09802796
145	0x3ceaaa89	0.02864577
146	0x3e4d8e68	0.20073855
147	0x3d704dba	0.058667876
148	0x3d854bca	0.06508596
149	0x3df19600	0.11796188
150	0xbd07bcfc	-0.033139214
151	0x3d587070	0.052841604
152	0x3cdfa26b	0.027299127
153	0xbc970bcc	-0.018438242
154	0xbdb5c8b1	-0.088761695
155	0x3d0f129a	0.03492985
156	0x3e12d08d	0.14337368
157	0x3dbafd73	0.09130373
158	0xbdec12a6	-0.115269944
159	0xbd5b06e3	-0.053473365
160	0xbd8f9198	-0.07010192
161	0xbdd48309	-0.103765555
162	0xbd510001	-0.051025394
163	0xbe69b70c	-0.22823733
164	0xbde1c3c7	-0.1102367
165	0xbdecacee	-0.11556421
166	0xbec82cae	-0.39096588
167	0xbd2ca788	-0.042151958
168	0xbe8501d7	-0.25977966
169	0xbea72b73	-0.32650337
170	0x3cbddb84	0.023175962
171	0x3d33dae6	0.04390993
172	0x3d912d37	0.07088702
173	0xbbf78ca7	-0.007554609
174	0xbc9cca2e	-0.019139376
175	0x3d5cf7b4	0.053947166
176	0xbd25a667	-0.040441897
177	0xbdf6d988	-0.120532095
178	0x3c86cce8	0.016455129
179	0x3bc93c71	0.0061412384
180	0x3c300a6c	0.010744672
181	0x3b98f677	0.004668053
182	0xbc77cf43	-0.015125099
183	0x3b21da11	0.0024696628
184	0xbd833168	-0.06405908
185	0x3dfe865f	0.12427973
186	0x3dbce161	0.09222675
187	0x3d961da7	0.073298745
188	0xbce06371	-0.027391167
189	0x3df9f9ec	0.12205872
190	0x3df90231	0.12158621
191	0x3cc3df4b	0.023910185
192	0x3e879b8b	0.26485857
193	0x3df8f94e	0.12156926
194	0x3e50ad22	0.20378545
195	0x3df79c22	0.12090327
196	0x3e705afe	0.23472211
197	0x3e1492d1	0.14509131
198	0xbd4047d5	-0.046943504
199	0xbd7717db	-0.060325485
200	0xbd81beee	-0.06335245
201	0xbde3a6ac	-0.111157745
202	0xbd985bd4	-0.0743939
203	0xbcaa2268	-0.02076836
204	0xbde86d59	-0.113489814
205	0xbd816d52	-0.06319679
206	0xbe08447a	-0.13307372
207	0xbcbe1de1	-0.023207607
208	0x3e3d7aa4	0.18503815
209	0x3dbe521b	0.09293004
210	0x3e11f8ec	0.14255112
211	0x3e02e3d9	0.1278223
212	0x3c7a0f3c	0.015262421
213	0x3e3215e5	0.17391165
214	0x3e594134	0.2121628
215	0x3db8dcc3	0.09026482
216	0x3db04f28	0.08608848
217	0xbdd6f093	-0.10495105
218	0x3db79720	0.08964372
219	0x3e297cbc	0.16551489
220	0xbdab8bce	-0.08376275
221	0xbd851fa7	-0.06500178
222	0xbdac6925	-0.08418492
223	0x3d34e8e2	0.044167407
224	0xbdc8d958	-0.0980708
225	0xbd146d7d	-0.03623723
226	0xbd67c9b4	-0.056588843
227	0x3df9cfb0	0.12197816
228	0x3d8c5ecd	0.06854019
229	0x3d62301e	0.05522167
230	0x3b154fe0	0.0022783205
231	0x3dbd1e9b	0.09234353
232	0xbbb58cf9	-0.005540487
233	0xbd9769d3	-0.07393231
234	0x3dfb731b	0.12277814
235	0x3e205f3f	0.15661334
236	0x3e15ee53	0.14641695
237	0x3e787f5c	0.24267334
238	0x3e1f2e77	0.15545069
239	0x3d1b8ee9	0.037978087
240	0xbe36fc2b	-0.17869632
241	0xbc5e1819	-0.01355555
242	0x3d1a942b	0.03773896
243	0x3d7735db	0.060354095
244	0xbe185532	-0.1487625
245	0xbd285e7f	-0.041105743
246	0xbdd20f80	-0.10256863
247	0xbe0b4644	-0.13601023
248	0x3d03df01	0.032195095
249	0x3e415fec	0.18884248
250	0xbcae5d60	-0.021284759
251	0x3c2feceb	0.010737638
252	0x3e03f2d0	0.12885594
253	0x3e4d36e7	0.20040475
254	0xbd1ca3bd	-0.03824209
255	0x3e0d8fb4	0.1382435

network.0.bias f4 [32]
0	0x3d8ed8e2	0.06974961
1	0xbc90662e	-0.017626848
2	0xbc3c3d3b	-0.011489208
3	0x3d930d71	0.07180298
4	0xbdb57792	-0.08860697
5	0xbe02c3dd	-0.12770028
6	0xbdb2ddc0	-0.08733702
7	0xbbae82a8	-0.005325634
8	0x3db41409	0.08792884
9	0x3ceccad1	0.028905304
10	0x3b89e338	0.004207995
11	0xbcb6d9c5	-0.022320637
12	0xbdb2ff7e	-0.087401375
13	0x3cafe887	0.021473182
14	0xbda0d76a	-0.07853587
15	0xbd42c573	-0.047551583
16	0xbe03e1d0	-0.1287911
17	0x3be4b53e	0.0069796136
18	0xbdcaf65d	-0.09910271
19	0x3aae884c	0.0013315766
20	0x3c15929d	0.009129194
21	0xbd2120cd	-0.039337922
22	0x3e15ba4d	0.1462185
23	0x3de1c070	0.11023033
24	0xbc8d1428	-0.017221525
25	0x3c9ba107	0.018997682
26	0x3e1645c6	0.14675054
27	0x3c5a334f	0.013317897
28	0x3e0c63b5	0.1370991
29	0xbe0b0f22	-0.13579991
30	0x3db9ae86	0.09066491
31	0x3d7f2375	0.062289674

network.2.weight f4 [64, 32, 3, 3]
0	0x3ced6efb	0.028983584
1	0xbc5da1ae	-0.013527317
2	0x3c31af49	0.010845014
3	0x3c1083df	0.008820503
4	0xbca671db	-0.020317962
5	0x3d976712	0.07392706
6	0xbbf9d5d5	-0.0076243677
7	0xbd1b3adb	-0.037897926
8	0x3d113dfe	0.03545951
9	0xbcec9283	-0.028878456
10	0xbd015651	-0.03157646
11	0x3d724040	0.059143305
12	0xbdd4ba6d	-0.103871204
13	0x3c4c392c	0.012464803
14	0xbc2bb9bf	-0.010481297
15	0x3c0fb07d	0.008770105
16	0xbd38dddc	-0.045133457
17	0x3d22b556	0.039723717
18	0x3d734dfd	0.059400547
19	0xbc7d06a6	-0.01544348
20	0x3ddbdaff	0.107351296
21	0x3bc8696b	0.0061160824
22	0x3dc92669	0.09821779
23	0xbc0bb151	-0.008526162
24	0xbd77a2cf	-0.060458
25	0xbd6054a5	-0.054768223
26	0xbd656a04	-0.056009308
27	0xbd322370	-0.043490827
28	0xbd42f1be	-0.047593825
29	0x3cc9b8f9	0.024624335
30	0xba47ca9a	-0.00076214375
31	0xbe0cd11b	-0.13751642
32	0x3b3ffa42	0.0029293452
33	0xbd7f08e9	-0.062264357
34	0xbdad2503	-0.08454325
35	0x3db8c1d6	0.09021346
36	0x3d484372	0.048892446
37	0x3b673e9a	0.0035285116
38	0x3d85d605	0.065349616
39	0x3d8c69ba	0.06856103
40	0x3e027a8c	0.1274206
41	0x3c31c42b	0.010849993
42	0x3d91d67b	0.07120987
43	0x3dd52231	0.10406912
44	0x3d1e7ce2	0.038693316
45	0xbd896fc7	-0.06710773
46	0x3d0a6137	0.033784118
47	0xbca57eab	-0.020202002
48	0xbcd53551	-0.0260264
49	0x3d56e63c	0.052465662
50	0x3c98e884	0.01866556
51	0x3daf254f	0.08552038
52	0x3e024634	0.12722093
53	0x3d9e6c72	0.07735528
54	0x3da4f33f	0.08054208
55	0x3d68ae0c	0.05680661
56	0x3d6cdbe7	0.057826903
57	0x3d693c9c	0.056942567
58	0x3bb59257	0.0055411267
59	0x3d2df2cf	0.04246789
60	0xbc94f019	-0.018180894
61	0xbd3cc203	-0.04608346
62	0xbd99ade0	-0.07503867
63	0xbcc0deed	-0.0235438
64	0x3d6068f4	0.05478759
65	0xbdac4ff5	-0.08413688
66	0x3d09f293	0.033678602
67	0x3dbc5e58	0.09197682
68	0xbc1ef74f	-0.009702518
69	0x3d722604	0.059118286
70	0x3d8b4d04	0.06801799
71	0x3dbc7986	0.09202866
72	0xbb05fb42	-0.002044395
73	0x3cffc63b	0.031222453
74	0xbc6fad51	-0.014628724
75	0x3dd2e5b0	0.10297716
76	0x3d8d42bd	0.06897495
77	0x3ddf5ba1	0.10906149
78	0x3d2502b1	0.04028577
79	0xbc96b664	-0.018397518
80	0x3d220052	0.039551087
81	0xbd20c221	-0.039247636
82	0x3cd6d290	0.02622345
83	0x3c648b31	0.013949201
84	0xbd60da77	-0.054895844
85	0x3cf59ad9	0.029981064
86	0x3bd05be9	0.006358613
87	0x3c8b0af0	0.016972989
88	0xbe170dbc	-0.14751333
89	0x3d2607ee	0.040534906
90	0x3d154084	0.03643848
91	0x3d0c80dc	0.034302577
92	0xbd91cdf2	-0.07119359
93	0x3d3df3fa	0.046375252
94	0xbd7a7071	-0.06114239
95	0xbdd535f8	-0.10410684
96	0x3daaaaf4	0.08333388
97	0x3d811842	0.06303455
98	0xbd1e8ff1	-0.038711492
99	0xbdae1267	-0.08499604
100	0x3cf8de32	0.030379388
101	0x3ba1de00	0.0049397945
102	0xbda1fcc8	-0.07909542
103	0xbd9dfc4f	-0.0771414
104	0xbcefaf76	-0.029258471
105	0xbdad1c81	-0.08452702
106	0xbd955966	-0.07292442
107	0xbdb310e4	-0.08743456
108	0x3c67b422	0.014142068
109	0x3d895b5a	0.06706877
110	0xbca7292e	-0.020405378
111	0xba452e49	-0.00075218506
112	0x3c32ae75	0.010905852
113	0xbc2447ee	-0.010026915
114	0xbe105b62	-0.1409736
115	0xbdd868ff	-0.105669014
116	0xbda72000	-0.081604004
117	0xbd402440	-0.04690957
118	0x3c9fff9f	0.01953107
119	0x3d1ec91f	0.038766023
120	0x3cb5b70e	0.022182014
121	0xbc0c64b4	-0.008568931
122	0xbd459b8b	-0.04824404
123	0xbc8d49fc	-0.017247193
124	0xbd543307	-0.051806476
125	0x3d3b19d5	0.045678932
126	0x3d74b1ca	0.059739865
127	0x3d137ea0	0.03600943
128	0x3ca5fe97	0.020263
129	0xbbe0508d	-0.00684554
130	0x3d26db36	0.0407364
131	0x3da7d171	0.08194245
132	0x3db52c5d	0.08846352
133	0x3d11f2f1	0.035632078
134	0x3d953d83	0.07287123
135	0x3dd2955b	0.102823935
136	0x3d707374	0.058703855
137	0x3dea6042	0.11444141
138	0x3cbb071d	0.02283054
139	0xbd81a76c	-0.06330761
140	0x3e0826bf	0.1329603
141	0xbd9f8e00	-0.07790756
142	0xbd5c9ff9	-0.0538635
143	0xbc89ef4e	-0.016837742
144	0x3cb7ca53	0.022435343
145	0x3cd40b0e	0.025884178
146	0x3dba2f0f	0.09091007
147	0x3d831262	0.063999906
148	0x3d1525ba	0.036412932
149	0x3dc2f8a0	0.09520078
150	0x3dcc367d	0.0997133
151	0x3b1b5e59	0.0023707359
152	0xbcc237c0	-0.023708224
153	0xbd57cc18	-0.052684873
154	0x3d5ccfed	0.05390923
155	0xbd12db04	-0.0358534
156	0xbd81af12	-0.0633222
157	0xbd4bc136	-0.049744807
158	0xbd9733ec	-0.0738295
159	0x3d028ffc	0.031875595
160	0xbd8023cc	-0.06256828
161	0xbd166061	-0.036713008
162	0x3d47da27	0.04879203
163	0x3c1857bb	0.00929826
164	0x3d03df59	0.032195423
165	0x3d962461	0.073311575
166	0x3c000caa	0.007815519
167	0x3de6e3ba	0.11273904
168	0xbc8e40da	-0.017364908
169	0x3cd848cb	0.026401898
170	0xbdb11524	-0.086466104
171	0x3ce947da	0.028476644
172	0xbb5ce51c	-0.0033705896
173	0xbd4152d9	-0.04719815
174	0xbccc667c	-0.024951212
175	0xbcc887b5	-0.024478773
176	0x3d3ea8d8	0.04654774
177	0x3d08426c	0.03326647
178	0xbbf529cb	-0.0074817888
179	0xbaf7c0cf	-0.0018902066
180	0xbd41e601	-0.04733849
181	0xbd8ebe31	-0.0696987
182	0xbcc94598	-0.024569318
183	0x3a91e091	0.0011129548
184	0xbd48afe0	-0.048995852
185	0x3c876011	0.0165253
186	0xbd8fa899	-0.07014579
187	0xbe248318	-0.16065633
188	0xbd6bdd4e	-0.0575841
189	0xbdf2a9e6	-0.11848812
190	0xbdb70b89	-0.08937747
191	0xbda5ecc1	-0.08101798
192	0x3d81f9d2	0.063464776
193	0x3da7722c	0.081760734
194	0xbd2b53e8	-0.041828066
195	0x3e107b8e	0.14109632
196	0x3dbdfdcb	0.09276923
197	0x3ba61122	0.0050679604
198	0xbca7a525	-0.02046449
199	0xbd2a39fa	-0.041559197
200	0x3c9e0c69	0.019293027
201	0xbd8f243b	-0.06989332
202	0x3c45f296	0.012081763
203	0xbd5d9360	-0.054095626
204	0xbdc25bc7	-0.094901614
205	0xbd0db1ca	-0.03459338
206	0xbbd00475	-0.0063481876
207	0xbd5369cd	-0.05161457
208	0x3da47365	0.08029822
209	0x3dd5113a	0.10403676
210	0xbdb0c72e	-0.086317405
211	0xbd531333	-0.05153198
212	0xbd3a343d	-0.045459975
213	0xbd94a7a1	-0.07258535
214	0xbd9dbe3e	-0.077023014
215	0xbdd45c4e	-0.10369168
216	0xbdc84063	-0.09777906
217	0xbd256fc4	-0.04038979
218	0xbd0a773d	-0.03380512
219	0x3d946407	0.07245641
220	0xbc9ba6c0	-0.019000411
221	0xbc982a80	-0.018574953
222	0x3d543336	0.05180665
223	0xbd95a261	-0.07306362
224	0x3c62d618	0.013844989
225	0x3bc766cb	0.006085252
226	0xbb187c51	-0.0023267458
227	0xbc9cef00	-0.019156933
228	0xbc930b4f	-0.017949728
229	0x3d80116c	0.06253323
230	0x3c3a8149	0.011383363
231	0xbdb793f4	-0.08963767
232	0xbc9bcd9f	-0.019018946
233	0xbd83138d	-0.064002134
234	0xbcb8e36c	-0.02256938
235	0x39831c69	0.00025007434
236	0xbd8dd30a	-0.06925018
237	0xbc059984	-0.008154277
238	0xbd865a17	-0.06560152
239	0xbd78238c	-0.060580775
240	0xbd99c194	-0.07507625
241	0x3adaaf74	0.0016684369
242	0x3b37c748	0.0028042365
243	0x3da81a4c	0.08208141
244	0x3be72002	0.007053376
245	0xbd0481ce	-0.032350354
246	0x3dc72fa1	0.09725881
247	0x3cf9dfc7	0.030502213
248	0x3d87436d	0.06604657
249	0x3d85e0bf	0.065370075
250	0x3cfa378e	0.030544069
251	0xbd0b44c4	-0.034001127
252	0x3d092d4b	0.03349046
253	0x3d359a1c	0.044336423
254	0x3d03d127	0.032181885
255	0x3ca1ccc8	0.019750968

network.2.bias f4 [64]
0	0x3bfce9fd	0.0077183233
1	0xbc76eca5	-0.015071069
2	0x3d2bf4c0	0.04198146
3	0x3cb81c5f	0.022474466
4	0x3d905158	0.07046765
5	0xbbd7f812	-0.0065908516
6	0x3d992f80	0.07479763
7	0x3d777dd5	0.060422737
8	0xbcc109fd	-0.023564333
9	0x3c8f6046	0.017501961
10	0x3d115f28	0.03549114
11	0x3c304ff5	0.010761251
12	0xbb974391	-0.004616209
13	0xbca3738c	-0.019952558
14	0x3d61a09f	0.05508482
15	0x3c0eaac7	0.008707709
16	0xbb798b59	-0.0038077442
17	0xbcc85428	-0.024454191
18	0xbc8b5364	-0.017007537
19	0x3cd44211	0.02591041
20	0x3ceab722	0.028651778
21	0xbd87a10d	-0.06622515
22	0xbcfad3d8	-0.030618593
23	0x3d7f12c4	0.062273756
24	0x3d2a2ff7	0.04154965
25	0x3ce3282e	0.02772912
26	0xbd32a63a	-0.043615557
27	0xbd7b2491	-0.06131417
28	0x3d49f129	0.049302254
29	0xbcb8f0e6	-0.022575807
30	0xbbc88115	-0.0061189034
31	0x3d6c50b5	0.057694156
32	0x3bdd4d0a	0.0067535685
33	0x3d0b7c7a	0.034054257
34	0x3d42359f	0.04741442
35	0xb72035bd	-9.549255e-06
36	0xbcdc0d85	-0.026861915
37	0x3d0116ef	0.03151601
38	0x3c78bae6	0.015181279
39	0xbc46b103	-0.012127164
40	0x3c557ad8	0.0130297765
41	0x3d8096c5	0.06278757
42	0x3d8d11dd	0.06888173
43	0xbc0bc824	-0.008531604
44	0xbd167c2e	-0.03673952
45	0xbd109175	-0.03529497
46	0x3bf0ebe2	0.007352338
47	0x3d077bc5	0.03307702
48	0xba2ff14c	-0.0006711676
49	0xbd400510	-0.046879828
50	0x3cac952b	0.021067223
51	0x3ca18956	0.019718807
52	0xbcff316c	-0.031151496
53	0xbc0e16da	-0.00867244
54	0x3d698724	0.057013646
55	0xbd11dbf2	-0.035610147
56	0x3cdc2a09	0.026875513
57	0xbcc9f1e8	-0.024651483
58	0xbc0ff07a	-0.008785361
59	0x3d53d352	0.051715203
60	0xbcd14aed	-0.025548423
61	0xbcf9c109	-0.030487554
62	0x3d978bad	0.07399688
63	0x3cb32a57	0.021870775

network.4.weight f4 [64, 64, 3, 3]
0	0xbd09ae64	-0.033613577
1	0x3d0e83d7	0.0347937
2	0x3c86d608	0.01645948
3	0xbbfe1aaf	-0.007754646
4	0x3d1d0189	0.038331542
5	0x3d7a3fae	0.061095886
6	0xbc1766df	-0.009240835
7	0xbc13c0be	-0.009018121
8	0xbceb673b	-0.028735748
9	0x3cae4679	0.021273838
10	0x3dc0fbd3	0.09423032
11	0x3d93afc7	0.07211261
12	0x3d11c8e5	0.03559198
13	0x3e0f4086	0.13989457
14	0x3d8ddff0	0.06927478
15	0x3cb3db0e	0.02195504
16	0x3d9ba763	0.07600286
17	0xbd150c42	-0.036388643
18	0x3c9d2b10	0.019185573
19	0x3d4388cb	0.047737878
20	0x3dce0221	0.10059
21	0x3d6754b4	0.056477264
22	0x3d7b8fa2	0.061416276
23	0x3daf69c9	0.08565099
24	0x3c85b11d	0.016319806
25	0x3d003dc2	0.031308897
26	0x3c93b392	0.018029962
27	0xba6d76d0	-0.0009058537
28	0x3d6ade47	0.057340886
29	0x3da9077c	0.08253381
30	0x3d16432f	0.036685165
31	0x3d39b6a1	0.045340184
32	0x3d3240f8	0.04351899
33	0x3d1197e2	0.035545237
34	0x3ca9d3ef	0.02073094
35	0xb8d7bc33	-0.00010287054
36	0xbbcba527	-0.006214756
37	0xbd2aba55	-0.041681606
38	0x3cd9030e	0.026490714
39	0xbd44c9d3	-0.048044037
40	0xbcc752d6	-0.024331491
41	0xbd48670e	-0.048926406
42	0xbdd16164	-0.10223654
43	0xbd937beb	-0.0720137
44	0xbd97d6aa	-0.07413991
45	0x3cfc00d3	0.030762112
46	0xbdb4393f	-0.08799981
47	0xbdb3b2b8	-0.08774322
48	0x3d1c46b3	0.03815336
49	0xbe00a307	-0.1256219
50	0xbd1e6820	-0.03867352
51	0x3d21e1e4	0.039522067
52	0xbd873cd5	-0.066034
53	0x3d95a2e5	0.0730646
54	0x3d117f0b	0.03552155
55	0x3dc7d188	0.09756762
56	0x3d3f738d	0.046741057
57	0xbcbd3ef4	-0.023101307
58	0x3ac4b372	0.0015007092
59	0xbd2f2ccb	-0.042767327
60	0xbd05c0af	-0.03265446
61	0xbd313093	-0.043259215
62	0xbda93495	-0.08261982
63	0x3afe5a98	0.0019405661
64	0x3ad7434c	0.0016423254
65	0x3afde431	0.0019370375
66	0xbd1df2e3	-0.038561713
67	0xbd857e0c	-0.06518182
68	0xbd98a057	-0.074524574
69	0xbcc265da	-0.023730207
70	0x397f2f2e	0.00024336271
71	0xbd6d6287	-0.05795529
72	0x3bc03c9d	0.0058666007
73	0x3dd3d96d	0.10344205
74	0x3dbd01c7	0.092288546
75	0x3d3a51e5	0.045488257
76	0x3e0f6913	0.14004926
77	0x3dbd856b	0.09253963
78	0x3db1e718	0.08686656
79	0x3d737bd2	0.059444256
80	0xbc56fcdc	-0.01312181
81	0xbcbbbaf8	-0.022916302
82	0x3d0af5dd	0.03392588
83	0x3d3049d4	0.043039158
84	0x3ce8df03	0.028426653
85	0x3b9625c1	0.0045821373
86	0xbc8aeea4	-0.016959496
87	0x3a18f63e	0.0005835033
88	0xbd958274	-0.073002726
89	0xbce199db	-0.027539184
90	0x3d92ed7d	0.071742035
91	0x3de7aaf9	0.11311907
92	0x3da7ae46	0.08187537
93	0x3da414f1	0.08011807
94	0x3dad7fbc	0.08471629
95	0x3d4c6b1e	0.049906842
96	0xbbf61952	-0.0075103426
97	0xbbf51b9a	-0.007480097
98	0xbc575666	-0.013143158
99	0x3da6f412	0.081520215
100	0xbd6ef4bd	-0.05833887
101	0xbd3f837d	-0.046756256
102	0xbd34affb	-0.04411314
103	0xbddab410	-0.106788754
104	0xbd868523	-0.065683626
105	0xbd8fde0b	-0.07024773
106	0xbd79046c	-0.060795233
107	0xbd09cff2	-0.033645578
108	0xbcfc0957	-0.030766172
109	0xbd9e7b5c	-0.07738373
110	0xbd497dcc	-0.049192235
111	0x3cd9bfef	0.026580779
112	0xbe0b4707	-0.13601314
113	0xbc49be69	-0.012313464
114	0xbc3f3c1e	-0.011672048
115	0xbdedfae0	-0.11620116
116	0x3c41ae1f	0.011821299
117	0x3c461ff8	0.012092583
118	0xbd900699	-0.070325084
119	0xbc22c0a3	-0.0099336235
120	0xbd508874	-0.05091138
121	0xbdf6ef6d	-0.120573856
122	0xbdae3c13	-0.08507552
123	0xbd0acaa4	-0.03388466
124	0xbcab3e11	-0.020903619
125	0x3d1b5e1d	0.03793155
126	0x3e04ca30	0.12967753
127	0x3d86f9b1	0.065905936
128	0xbc325d68	-0.010886528
129	0x3d3fea1f	0.046854135
130	0xbda94276	-0.082646295
131	0xbc5734cb	-0.013135145
132	0xbd910c44	-0.070824176
133	0xbd9b8042	-0.075928226
134	0xbd9c9675	-0.07645885
135	0x3cada58d	0.021197105
136	0x3dc48dc5	0.09597353
137	0xbba074ff	-0.0048967595
138	0x3c2ba561	0.010476441
139	0x3d8415a9	0.06449444
140	0xbbaa717d	-0.005201517
141	0xbbe51f9b	-0.006992293
142	0xbcbe7ca7	-0.023252798
143	0xbbf13e3d	-0.0073621557
144	0xb91777e5	-0.00014445146
145	0xbd6abb86	-0.057307743
146	0xbd36b0e9	-0.04460231
147	0x3c8c50e9	0.017128425
148	0xbb975e1b	-0.0046193725
149	0xbcfbbe2c	-0.03073033
150	0xbdcae00f	-0.09906017
151	0xbdc8639c	-0.09784624
152	0x3c98a4aa	0.018633205
153	0x3d1474b2	0.0362441
154	0xbc3363d6	-0.010949096
155	0xbba4032a	-0.00500526
156	0xbd887cdf	-0.06664442
157	0xbd4a7ec7	-0.04943731
158	0x3a8a2fd9	0.0010542824
159	0xbcbc6ab7	-0.023000104
160	0xbd35804b	-0.044311803
161	0x3ae0f392	0.0017162433
162	0x3c67ff3c	0.014159974
163	0xbd006356	-0.031344734
164	0xbc340299	-0.010986947
165	0xbc6b2e24	-0.0143542625
166	0x3c3439c5	0.011000101
167	0x3da1ec91	0.079064496
168	0xbbb711b0	-0.0055868253
169	0xbdb28a5f	-0.087177984
170	0xbaf6ad73	-0.0018820002
171	0x3d1f2903	0.03885747
172	0xbcc684e2	-0.024233285
173	0x3d599fb1	0.05313081
174	0x3d0fd86b	0.0351185
175	0x3ce4fab2	0.027951572
176	0x3caaa7d4	0.02083198
177	0x3d8cf70b	0.06883057
178	0x3dabfe57	0.08398121
179	0x3ca7437b	0.02041792
180	0x3d172023	0.036895882
181	0x3d6742d9	0.056460235
182	0x3c95a5b7	0.018267496
183	0xb90d63e1	-0.00013484016
184	0x3d83cef8	0.064359605
185	0xbc5f4d94	-0.013629336
186	0xbd375a23	-0.044763695
187	0xbcd2c34e	-0.025727894
188	0xbd7d36fe	-0.061820023
189	0x36f579e5	7.3157594e-06
190	0xbd4931f5	-0.04911991
191	0xbda898bd	-0.082322575
192	0xbcac5981	-0.021038773
193	0xbd83b6c7	-0.064313464
194	0x3c6c7cb1	0.014434026
195	0x3d1fc1a3	0.039003026
196	0xbbcb0ca1	-0.006196574
197	0x3c8b3dcb	0.016997239
198	0xbc885ae6	-0.016644906
199	0x3d8bbdf3	0.06823339
200	0x3d8a82e1	0.067632444
201	0xbd0558c1	-0.032555345
202	0x3ccf2a11	0.025288614
203	0xbd86daff	-0.06584739
204	0x3d80f5f1	0.062969096
205	0x3d6ce9cb	0.05784015
206	0xbd425aad	-0.047449756
207	0x3c007c2b	0.007842104
208	0x3c8a7af8	0.01690434
209	0x3c1a9fdc	0.0094375275
210	0x3d0279ea	0.031854548
211	0x3c1b6089	0.009483465
212	0x3b9c69a5	0.004773336
213	0x3d249361	0.040179614
214	0x3d21421f	0.0393697
215	0xbbe78ee4	-0.0070665944
216	0x3dd00260	0.10156703
217	0x3da9d11c	0.082918376
218	0x3e059354	0.13044482
219	0x3d84d0e5	0.06485156
220	0x3d9f8e09	0.07790763
221	0x3cd6046f	0.026125161
222	0x3dd1dbc0	0.10246992
223	0x3daac7d0	0.083388925
224	0xbd0464db	-0.032322746
225	0x3ba84ad8	0.005135875
226	0xbd86c620	-0.06580758
227	0xbba99fae	-0.005176506
228	0x3ca4b70f	0.02010682
229	0x3c75a55b	0.014993037
230	0xbb54a736	-0.0032448298
231	0xbddc7812	-0.10765089
232	0xbd8147ab	-0.06312498
233	0xbd2e8582	-0.04260779
234	0xbc865b64	-0.016401
235	0x3acb92c0	0.0015531406
236	0xbcaef053	-0.02135483
237	0x3cc9c2f4	0.024629094
238	0x3dafbf7e	0.08581446
239	0x3db790e0	0.089631796
240	0xbd29d405	-0.041461963
241	0xbcadf2e0	-0.021233976
242	0xbd185b4c	-0.037196442
243	0x3d8fcf18	0.07021922
244	0xbc84437a	-0.016145457
245	0xbcfa4011	-0.030548127
246	0x3dcf4f21	0.101225145
247	0x3cc8ef65	0.024528215
248	0x3ddadc75	0.1068658
249	0x3d833fd5	0.06408659
250	0x3a082ae6	0.00051943806
251	0xbd6bc9bc	-0.057565436
252	0x3d506b6b	0.05088369
253	0x3d90a7c2	0.07063247
254	0x3e07aec7	0.13250266
255	0x3d59de0c	0.053190276

network.4.bias f4 [64]
0	0x3c3236b8	0.010877304
1	0xbc85494d	-0.016270304
2	0x3c950c64	0.018194385
3	0xbcf82d34	-0.030294992
4	0x3cf96567	0.03044386
5	0x3d068135	0.032838065
6	0xbd184f5d	-0.03718506
7	0xbc4016f4	-0.011724222
8	0x3ccd3808	0.025051132
9	0xbd836ed1	-0.06417621
10	0xbc1b7600	-0.009488583
11	0xbd02ca6e	-0.031931333
12	0xbcdb4b04	-0.026769169
13	0xbc40ae89	-0.011760362
14	0x3c172744	0.00922567
15	0x3cdf8088	0.027282968
16	0x3cdbf210	0.026848823
17	0x397f8c7b	0.00024371028
18	0xbcbfecbc	-0.023428313
19	0xbc59fb5c	-0.013304558
20	0x3c98d66f	0.018656937
21	0xbc59cc05	-0.013293271
22	0x3d0d6ddf	0.03452861
23	0xbd4d5862	-0.050133117
24	0xbc0cdfad	-0.00859825
25	0xbcfb0a1f	-0.030644475
26	0xbb2cab17	-0.0026347095
27	0xbcfe2354	-0.031022705
28	0x3d242cc6	0.04008176
29	0x3d07e495	0.033176977
30	0xbc086e6b	-0.008327107
31	0x3d014158	0.031556457
32	0x3cca5c0e	0.024702098
33	0x3cdb47ff	0.026767729
34	0xbbaf301a	-0.0053463103
35	0xbc795445	-0.015217845
36	0xbd0508e2	-0.032479174
37	0x3c80a137	0.015701873
38	0xbcfbec7e	-0.030752417
39	0x3d0a44a6	0.033756875
40	0x3d36db47	0.044642713
41	0x3b9cfd70	0.0047909543
42	0x3d024996	0.03180846
43	0x3cba3f0e	0.022735145
44	0xbd26e897	-0.04074916
45	0x3cdc3748	0.026881829
46	0x3d0f4a9d	0.034983266
47	0xbb535c07	-0.0032250897
48	0x3919a9f5	0.00014654531
49	0xbce5b492	-0.028040204
50	0xbd286319	-0.041110132
51	0xbc279b0b	-0.010229836
52	0x3d083abf	0.03325915
53	0x3c91e250	0.01780811
54	0x3b21f03c	0.0024709841
55	0x3bedc09c	0.007255627
56	0x3c33a877	0.010965458
57	0xbd183784	-0.03716232
58	0xba6f36f0	-0.0009125313
59	0xbcdc1641	-0.02686608
60	0xbb43ce75	-0.0029877697
61	0xbc4f0765	-0.01263604
62	0xbd2d4e02	-0.042310722
63	0x3d336e9c	0.043806657

actor.weight f4 [5, 3136]
0	0x3d118f07	0.035536792
1	0x3ce26e87	0.027640594
2	0x3c9e84fa	0.019350518
3	0x3a736415	0.0009284628
4	0x3c8be28e	0.017075803
5	0x3d53ea01	0.051736835
6	0x3c73525f	0.014851182
7	0x3d0ef722	0.034903653
8	0x3d3758b2	0.04476232
9	0x3ca95508	0.020670429
10	0xbd195ebb	-0.037443858
11	0xbc660f5c	-0.014041748
12	0xbbb7439e	-0.0055927774
13	0x3c5a37f6	0.013319006
14	0xbd1bb298	-0.038012117
15	0xbc689305	-0.014195208
16	0xbd071fe5	-0.0329894
17	0xbd4fecf9	-0.050763104
18	0xbd3b4560	-0.045720458
19	0x3986b67c	0.00025694433
20	0x3d0dc3d6	0.03461059
21	0xbb7f9304	-0.003899754
22	0xbc0a3b83	-0.00843704
23	0xbd10b492	-0.035328455
24	0xbd0f8621	-0.035040025
25	0xbbbd57b8	-0.005778279
26	0xbd3efa65	-0.046625514
27	0xbc6ef125	-0.0145838605
28	0x3c24d9dc	0.010061707
29	0x3a986bb9	0.0011628784
30	0xbcdf1ec9	-0.02723636
31	0x3c1a6df0	0.009425625
32	0x3cab77c5	0.020931134
33	0xbc1b9daf	-0.009498044
34	0xbd1bfd3e	-0.038083307
35	0x3c20f3e8	0.009823777
36	0xbac4c920	-0.0015013553
37	0xbbb7ad58	-0.005605381
38	0x3ce9a124	0.02851922
39	0x3d3318bc	0.04372476
40	0x3ca252fa	0.019814957
41	0xbb83fdf8	-0.004028078
42	0xbcda7331	-0.026666256
43	0xbc28862e	-0.010285897
44	0x3cb4dc1a	0.022077609
45	0x3cb85109	0.022499578
46	0x3ce88a5e	0.028386291
47	0x3c8d6bff	0.01726341
48	0x3bde1758	0.006777685
49	0x3d288426	0.04114165
50	0x3d710a87	0.05884793
51	0x3d4a7c38	0.04943487
52	0x3d01bf24	0.031676427
53	0xba1fde0c	-0.0006098456
54	0x3d4b229b	0.04959355
55	0xbd069a95	-0.032862265
56	0x3d23fcfe	0.040036194
57	0x3d4e50ec	0.050370142
58	0x3d59ca22	0.053171284
59	0x3adc5786	0.0016810752
60	0x3ca1ea4e	0.019765045
61	0x3d3c36a2	0.04595054
62	0xbc93b766	-0.018031787
63	0x3d414a94	0.047190264
64	0x3d0546a2	0.032538064
65	0x3c904ca9	0.01761468
66	0xbba16bcc	-0.0049261805
67	0x3c95e28a	0.018296499
68	0x3c1ec700	0.009691
69	0x3d2ad7d8	0.04170975
70	0xbd87d6be	-0.06632756
71	0xbd85c88b	-0.06532391
72	0xbd955107	-0.07290845
73	0xbc879415	-0.016550103
74	0xbd226198	-0.039643854
75	0xbbf4eb0a	-0.007474308
76	0xbd361327	-0.04445186
77	0xbc08c87d	-0.008348581
78	0xbcc2a4c9	-0.023760216
79	0xbcbef1c6	-0.023308646
80	0x3c188187	0.0093082255
81	0x3d2ee26c	0.0426964
82	0x3bec8432	0.0072179073
83	0xbd26b6e8	-0.040701777
84	0xbbe7e2ce	-0.007076598
85	0xbc7212be	-0.014774976
86	0xbd00cfbd	-0.031448115
87	0x3c997589	0.018732803
88	0x3cd654f2	0.026163552
89	0x3c9aa403	0.018877035
90	0xbd16cb6b	-0.03681509
91	0xbbae5f0e	-0.00532139
92	0x3d051be4	0.0324973
93	0xbc8ec360	-0.017427146
94	0x3c942275	0.018082837
95	0x3ce99ecf	0.028518109
96	0x3ce102bf	0.02746713
97	0xbc80b32c	-0.015710436
98	0x3bdca13e	0.0067330888
99	0xbd2be3ef	-0.04196542
100	0xbd443453	-0.047901463
101	0xbcf429f5	-0.029805163
102	0xbcd206cc	-0.025638007
103	0xbcdb08ad	-0.026737535
104	0xbcfb0901	-0.030643942
105	0xbd393bf6	-0.0452232
106	0xbcdec747	-0.027194632
107	0xbd2ae14d	-0.04171877
108	0x3b7602e9	0.0037538356
109	0xb9d0c600	-0.00039820373
110	0xbd25fb40	-0.040522814
111	0xbcd03c3c	-0.025419347
112	0x389efbe5	7.580946e-05
113	0xbd5cf33d	-0.053942908
114	0xbcfc6996	-0.030812066
115	0xbd09a97a	-0.03360889
116	0xbce66359	-0.028123545
117	0xbcb2821c	-0.021790557
118	0xbd2375f4	-0.03990741
119	0xbb9bc1af	-0.0047533135
120	0xbd758500	-0.05994129
121	0xbd7896bf	-0.060690638
122	0xbc9cc93f	-0.01913893
123	0x3b930f6a	0.0044879215
124	0xbc687f44	-0.014190499
125	0xbcc0c55f	-0.023531614
126	0x3c5100f1	0.012756572
127	0xbc59fd30	-0.0133049935
128	0xbd42e179	-0.04757831
129	0xbbbe0530	-0.0057989582
130	0x3ca463c1	0.020067098
131	0x3d0f7469	0.035023127
132	0x3b894945	0.0041896426
133	0xbb7db6b1	-0.003871363
134	0x3bbbad37	0.005727436
135	0xbcb9138d	-0.02259233
136	0xbcbd1764	-0.023082443
137	0xbd2aee19	-0.041730974
138	0x3c8933a5	0.016748259
139	0x3ca6d1bb	0.02036368
140	0x3cebd5fa	0.028788555
141	0x3c44a003	0.01200104
142	0x3c525422	0.012837442
143	0xbb11bd78	-0.0022238176
144	0x3c35d2a5	0.011097585
145	0x3d4acbf8	0.049510926
146	0x3d05ceef	0.03266805
147	0x3d3c56fe	0.0459814
148	0x3d3fe327	0.04684749
149	0x3d3ed725	0.046591897
150	0xbc29168b	-0.010320316
151	0x3bc501d4	0.006012181
152	0x3cdc8761	0.026920022
153	0xbc401967	-0.011724806
154	0x3cec895c	0.028874092
155	0x3cee226d	0.02906915
156	0x3bba3720	0.005682841
157	0xbcbd0244	-0.02307237
158	0xbbc406f9	-0.0059822765
159	0x3c8df276	0.017327528
160	0x3c19191b	0.0093443645
161	0x3d3e8714	0.04651554
162	0x3cccd1fc	0.025002472
163	0x3c422788	0.011850245
164	0xbd1e1c78	-0.03860137
165	0x3c306f83	0.010768774
166	0x3cc607b6	0.024173599
167	0x3d0b0278	0.0339379
168	0xbd1789c8	-0.036996633
169	0xbc7b8316	-0.015351078
170	0xbcb36bd7	-0.021902008
171	0xbc1dacc3	-0.009623709
172	0xba231b53	-0.0006222028
173	0xbb8e4d69	-0.004342724
174	0x3b84c48b	0.00405175
175	0xbaee4f83	-0.0018181655
176	0xba0834de	-0.0005195866
177	0x3b13d512	0.002255742
178	0x3d2c88f3	0.042122792
179	0x3d4b82fa	0.049685456
180	0x3c09d311	0.008412139
181	0xbca090e8	-0.019600347
182	0x3c7a1470	0.015263662
183	0x3c60860f	0.013703837
184	0xbbf7f237	-0.007566716
185	0x3cde92eb	0.027169665
186	0x3d0e2843	0.034706365
187	0x3c83f571	0.016108247
188	0xbc115491	-0.00887026
189	0x3c83f2cd	0.016106987
190	0x3cb57a1f	0.022152958
191	0x3c563d6e	0.013076169
192	0x3d062ede	0.03275954
193	0x3d347eab	0.044066112
194	0x3ced1e3d	0.028945083
195	0x3bc497bd	0.005999534
196	0x3cf14140	0.029450059
197	0x3b7b930b	0.0038387205
198	0xbcda565e	-0.026652511
199	0xbbb547a6	-0.005532223
200	0xbd44eaa0	-0.04807532
201	0xbadb0f88	-0.0016713003
202	0xbd30a37f	-0.043124672
203	0x3d46bbb6	0.04851886
204	0x3bb72d3f	0.0055901106
205	0xbd28b38c	-0.041186854
206	0x3c1187e1	0.008882494
207	0xbd08381f	-0.033256646
208	0xbdaf419d	-0.085574366
209	0xbcbdc535	-0.023165325
210	0xbd68e395	-0.056857664
211	0x3c60fb1e	0.013731746
212	0x3ce19a49	0.02753939
213	0x3b178fc7	0.002312647
214	0xbd4d50d4	-0.05012591
215	0x3cb1244d	0.021623755
216	0x3b9ca9df	0.0047809924
217	0xbcc17db6	-0.023619514
218	0xbd6b69ef	-0.057474073
219	0xbd2b74a6	-0.04185929
220	0xbd2ffc9e	-0.042965524
221	0x3c95e781	0.018298866
222	0x3b755f4b	0.0037440832
223	0xbbc4a8e3	-0.006001578
224	0xbcb6fb73	-0.022336697
225	0xbd4c0d40	-0.049817324
226	0xbcb6c347	-0.022309912
227	0x3d2dac0c	0.042400405
228	0x3ba0a66b	0.004902651
229	0xbc28dad2	-0.010306077
230	0xbcc843d7	-0.024446411
231	0xbc5ac672	-0.013352977
232	0xbb30659f	-0.002691604
233	0xbd20b1c9	-0.03923205
234	0x3c838371	0.016053887
235	0xbcda6404	-0.02665902
236	0xbd57ddd4	-0.052701786
237	0xbb048399	-0.002022004
238	0xbbd85fdf	-0.0066032256
239	0xbd108847	-0.035286214
240	0xbbec26a6	-0.0072067557
241	0xbcc05495	-0.023477832
242	0xbb8c072e	-0.004273317
243	0xbbe9101b	-0.0071125156
244	0xbd2f44e2	-0.0427903
245	0xbb9ed895	-0.004847596
246	0xbc516b89	-0.012781986
247	0xba297230	-0.00064638536
248	0x3c2f9ddd	0.01071879
249	0x3c127568	0.008939125
250	0xbc396f61	-0.011318059
251	0xbcb03aaf	-0.021512358
252	0xbc3ed00e	-0.011646284
253	0xba7f8495	-0.0009747234
254	0xbc2d6e21	-0.010585339
255	0xbc076da4	-0.008265886

actor.bias f4 [5]
0	0xbd11018f	-0.035401877
1	0x3c45024b	0.0120244725
2	0xbc0ebc33	-0.008711862
3	0xba7527ba	-0.0009351928
4	0x3cdfcf31	0.027320476

critic.weight f4 [1, 3136]
0	0xbc779ae7	-0.015112615
1	0x3d9ce8c6	0.076615855
2	0x3d5ebb6f	0.05437797
3	0x3cb9889b	0.022648146
4	0x3c5217e2	0.012823077
5	0x3c2c000d	0.010498059
6	0x3d63a0e9	0.055573378
7	0x3b9a24f5	0.0047041127
8	0x3d6e40bc	0.058167204
9	0x3d9afd96	0.07567899
10	0x3d076d37	0.03306314
11	0x3badaf92	0.0053004706
12	0x3d89e079	0.06732268
13	0x3da7ff05	0.08202938
14	0x3d421709	0.04738525
15	0xbda1f242	-0.07907535
16	0xbd576288	-0.0525842
17	0xbbef26a4	-0.0072983075
18	0xbd8e310d	-0.069429494
19	0x3d1ba1b9	0.037996028
20	0x3d9356f2	0.07194318
21	0x3d03b1b7	0.032151904
22	0x3aa847eb	0.0012838816
23	0x3d9234a2	0.07138945
24	0x3d594c8f	0.053051528
25	0xbd4acecb	-0.04951362
26	0x3d34ee50	0.044172585
27	0x3c32dc78	0.010916822
28	0x3d653065	0.055954356
29	0x3dfa0d57	0.122095756
30	0x3e1004e7	0.1406437
31	0x3dbdd49f	0.0926907
32	0x3d4f6cef	0.050640997
33	0x3dd6d436	0.10489695
34	0x3dcf5577	0.10123723
35	0x3c484b6f	0.012225016
36	0x39a2d8b9	0.0003106052
37	0xbd6942a0	-0.056948304
38	0xbd30d793	-0.043174338
39	0xbc7c6923	-0.015405926
40	0x3d00d5a4	0.031453744
41	0x3d714c45	0.058910627
42	0x3c97418b	0.01846387
43	0x3d8f4561	0.06995655
44	0x3dfdbe57	0.1238982
45	0x3d993067	0.07479935
46	0x3c45b012	0.012065904
47	0x3d261dcc	0.04055576
48	0x3dbdcb1b	0.09267255
49	0x3d342f9f	0.043990728
50	0x3cc3f287	0.023919357
51	0xbc82dab4	-0.015973426
52	0xbd4fbff3	-0.050720166
53	0xbe20e476	-0.15712151
54	0xbd355ddf	-0.044278976
55	0x3ce5a6b2	0.028033588
56	0x3d5534e6	0.0520524
57	0x3e002568	0.1251427
58	0x3dae2d1e	0.08504699
59	0x3c99e79d	0.0187872
60	0x3b92f022	0.0044841925
61	0x3def75d5	0.116923966
62	0x3e05f799	0.13082732
63	0x3dfd7ab7	0.123769216
64	0x3e1122a5	0.14173372
65	0x3b77d10b	0.0037813808
66	0x3b6e9ec3	0.0036410547
67	0x3d7e3d74	0.062070325
68	0x3dba735c	0.09104034
69	0x3e0567d4	0.13027889
70	0x3e331d27	0.1749159
71	0x3dd3bd1b	0.103388034
72	0x3d5a86b4	0.05335112
73	0x3de8d359	0.11368436
74	0x3dc34f6a	0.095366314
75	0x3d8893cd	0.06668816
76	0x3dd64d2b	0.10463937
77	0x3cb4c1e7	0.022065116
78	0x3df1ecba	0.1181273
79	0x3dd6e786	0.10493378
80	0x3d781be9	0.060573492
81	0x3c897a77	0.016782029
82	0x3d6d269f	0.05789816
83	0x3d7d008e	0.061768107
84	0x3d6c58fd	0.057702053
85	0x3d4bd229	0.04976097
86	0x3d69c41d	0.057071794
87	0x3d1ea6ed	0.03873341
88	0x3d168555	0.03674825
89	0x3d3f17db	0.04665361
90	0x3d09e9c4	0.033670202
91	0x3cf030e6	0.029320192
92	0x3dc1bfb6	0.09460394
93	0x3c9a6f60	0.018851936
94	0x3c8c6302	0.017137054
95	0x3c71754f	0.014737441
96	0xbd1b74bb	-0.03795312
97	0x3ce46d93	0.02788428
98	0xbd163530	-0.036671817
99	0xbd8a1c41	-0.0674367
100	0xbd4a3fdd	-0.04937731
101	0x3b914e56	0.004434387
102	0xbcaca58e	-0.021075036
103	0xbdf6a7aa	-0.12043698
104	0xbd21e2f2	-0.039523073
105	0xbbba6c73	-0.0056891977
106	0x3d337da7	0.043821003
107	0x3ca6b75a	0.0203511
108	0x3c78abbf	0.015177666
109	0xbc5dbfa4	-0.01353446
110	0xbd0807f7	-0.03321072
111	0xbbfbecf8	-0.007688161
112	0x3c8d5128	0.017250612
113	0x3cb0328e	0.021508481
114	0xbd086e27	-0.033308174
115	0xbdb2567a	-0.087079
116	0x3d635f3e	0.055510752
117	0x3cac96bf	0.021067975
118	0x3d9ce7e5	0.07661418
119	0x3d8d4919	0.06898708
120	0x3bea7c5e	0.007155939
121	0xbd702266	-0.058626555
122	0xbe106f39	-0.14104928
123	0x3cff7abe	0.031186458
124	0x3d08c702	0.033392914
125	0xbc63b8b4	-0.013899017
126	0x3cdf1cc1	0.02723539
127	0xbc1b7e7c	-0.009490605
128	0x3c5ee79a	0.013605023
129	0xbc025045	-0.007953708
130	0xbd3a667b	-0.04550789
131	0xbd3f24bf	-0.046665903
132	0xbd21df94	-0.03951986
133	0xbc850e5e	-0.016242202
134	0xbca15802	-0.019695286
135	0x3bfe9a4c	0.0077698585
136	0x3cf98135	0.030457119
137	0xbd10f731	-0.03539199
138	0xbd36a933	-0.044594955
139	0x3ccb5f47	0.024825705
140	0x3daf2d16	0.08553521
141	0x3c59fca3	0.013304862
142	0xbcc5bec7	-0.024138821
143	0x3b834da7	0.0040070596
144	0x3ceef517	0.029169602
145	0x3d4e3f32	0.050353236
146	0x3c68fea9	0.014220872
147	0x3c85dcc4	0.01634062
148	0x3d59ed13	0.053204607
149	0x3d0d1df2	0.034452386
150	0xbd11c00f	-0.035583552
151	0xbda9d58f	-0.08292686
152	0xbc5d4a60	-0.013506502
153	0x3d90d795	0.07072369
154	0x3e1c3c2c	0.15257329
155	0x3dd696e6	0.10478
156	0x3dd7f56b	0.10544857
157	0x3da90f8a	0.08254917
158	0x3da1d8e0	0.07902694
159	0x3d35c122	0.04437364
160	0x3e0a786b	0.13522498
161	0x3e378ad6	0.17924055
162	0x3d11cd17	0.03559598
163	0x3d85a12d	0.065248825
164	0x3db0e935	0.08638231
165	0x3dbc368c	0.091900915
166	0x3dcdfc40	0.100578785
167	0x3da0ad1d	0.07845519
168	0x3e036d71	0.12834717
169	0x3de52871	0.11189354
170	0x3dab39cd	0.08360634
171	0x3d7e49ae	0.062081985
172	0x3d46136f	0.048358377
173	0x3dba5e47	0.09100013
174	0x3de30d8b	0.110865675
175	0x3d6c5795	0.057700712
176	0x3dbd96a2	0.092572466
177	0x3dc02d7f	0.09383678
178	0x3dcb0596	0.09913175
179	0x3d700678	0.05859992
180	0x3dbaead4	0.09126821
181	0x3d632278	0.055452794
182	0x3d638ab7	0.05555221
183	0x3dfd03ec	0.12354264
184	0x3e1a652c	0.15077657
185	0x3dcdcf9d	0.10049365
186	0x3d487ee4	0.048949137
187	0x3dd096f5	0.10185043
188	0x3c1a1b77	0.009405962
189	0x3c3bf53d	0.011472044
190	0x3d81e2ae	0.06342064
191	0x3bfb859e	0.0076758405
192	0x3b30017d	0.0026856356
193	0xbc208613	-0.009797591
194	0x3d24635a	0.04013381
195	0x3caa2d61	0.020773591
196	0x3c2ba392	0.01047601
197	0x3dbe5c18	0.09294909
198	0xbbbe7ad3	-0.0058129816
199	0x3d2e8dc1	0.042615656
200	0x3d9a7a3b	0.07542845
201	0x3d6a891f	0.057259675
202	0x3bb68ec8	0.00557122
203	0x3dcdef10	0.10055363
204	0x3dd376ea	0.103254154
205	0xbcf142f8	-0.029450879
206	0x3b3a1103	0.0028391487
207	0x3d699fa9	0.05703703
208	0x3c3e8268	0.011627771
209	0x3d3fb546	0.046803735
210	0xbbd0b9e9	-0.0063698185
211	0xbb3a0976	-0.0028386987
212	0x3d9b27e3	0.07575967
213	0x3cb20bf0	0.021734208
214	0x3e29660e	0.16542837
215	0x3d304cca	0.04304198
216	0xbcfb1780	-0.030650854
217	0xbd7800ba	-0.060547568
218	0xbd8cdafb	-0.06877705
219	0x3be111a7	0.0068685594
220	0xbe0ba983	-0.13638882
221	0xbc80d44a	-0.015726227
222	0xbb9eeebb	-0.0048502362
223	0x3d1aeb87	0.037822273
224	0xbd30a6f9	-0.043127988
225	0x3d18097d	0.037118424
226	0xba849d1a	-0.0010117621
227	0x3c20731a	0.009793067
228	0xbc953ab7	-0.018216474
229	0x3cfa587e	0.030559774
230	0x3b8bd445	0.004267248
231	0xbd8bf41a	-0.06833668
232	0xbc850610	-0.016238242
233	0x3d4ca088	0.049957782
234	0xbd83a795	-0.06428448
235	0xbde7459c	-0.11292574
236	0xbd7f4bf7	-0.062328305
237	0x3a6c12c5	0.00090054824
238	0xbca1f5ad	-0.019770468
239	0xbc7e0a53	-0.015505391
240	0xba746acf	-0.0009323777
241	0x3cd2f7b2	0.025752876
242	0x3ca76729	0.020434933
243	0x3c4f4bfd	0.012652394
244	0x3d3d933c	0.04628299
245	0x3d2a1271	0.041521493
246	0x3d0cdf77	0.0343928
247	0x3dced813	0.10099807
248	0x3e1991f8	0.14997089
249	0x3dfc6027	0.12323027
250	0x3d18bf8f	0.03729206
251	0x3d318279	0.04333732
252	0xbd6f9ebb	-0.058500987
253	0xbdd94ef4	-0.10610762
254	0xbda85f34	-0.082212836
255	0xbd434764	-0.047675505
