PARALLEL/models/PRED_GROUP_POLICY_BOTH_8400.ckpt (torch, 307152 bytes, 9 tensors)

network.0.weight f4 [32, 5, 3, 3]
-0.620035 -0.42885777 -0.29714003 -0.00083158107 -0.07924688 -0.28032178 -0.30460283 -0.38518783
-0.5368436 0.26569158 -0.41892192 -0.6729541 -0.07023315 0.17350432 -0.526638 -0.18632197
-0.48894796 -0.6370105 -0.06489742 -0.40987092 -0.14984028 0.14945082 0.34437966 0.1749991
0.6620748 -0.46646172 0.19598098 0.323031 -0.9098931 -0.2781079 -0.55724686 -0.69833463
0.2757127 0.33529553 -0.37763712 -0.5841892 -0.69098115 0.298327 0.12758273 -0.19624661
-0.091484524 -0.45595676 0.18574594 -0.32844722 0.36487296 -0.19787356 -0.2476207 -0.13166636
-0.21135308 -0.2903741 -0.34788677 -0.25706393 -0.46318144 -0.38953424 -0.042581484 -0.024353337
-0.20501453 -0.044203147 -0.5312978 -0.7126858 -0.22285157 -0.5653398 -0.47132036 -0.31986868
0.04157402 -0.06669442 0.034734275 0.27209735 -0.33391193 -0.11730328 0.09299698 0.11389933
0.14842708 -0.029031733 -0.4303178 -0.2005278 0.2049546 -0.3574265 -0.2946344 -0.31254017
-0.25508437 -0.4722198 0.09262183 -0.12043346 -0.09596649 -0.619851 -0.3826618 -0.10833284
-0.120284304 -0.11512941 -0.2760564 -0.1778048 -0.2595652 -0.50058144 -0.39895505 -0.21791922
-0.046253487 -0.11533126 0.16813 -0.33093256 -0.33681148 0.37198603 -0.37880963 0.31697094
0.37443233 0.06553119 0.27395618 0.644542 0.05140731 0.30256218 0.15267353 -0.21309027
-0.18887858 0.0075574224 0.22504672 -0.30343592 -0.608554 0.2935874 -0.547835 -0.8862501
0.19601035 -0.6138762 0.28577304 -0.9314108 0.06221268 -0.9857519 0.26793343 0.47908857
0.06456977 0.11147041 0.25686204 0.06530677 0.17965592 -0.4738656 -0.10292451 0.14054917
0.12920485 0.16169275 -0.12244318 -0.056577608 -0.027115105 -0.0017237754 0.054052103 -0.049091484
0.66930866 -0.15555316 -0.41925696 0.5962174 0.35069862 0.6612405 0.23605363 0.8661117
0.96255654 0.09680017 0.12678233 0.08778422 0.07296038 0.1635015 0.0736546 -0.009379341
0.17110412 0.049095105 -0.51548034 -1.2032495 -0.73602086 -0.78464603 -0.9095269 -1.0318637
-0.7444634 -0.8075738 -1.1761452 -0.11202824 -0.16052645 -0.059989747 -0.14881267 0.064175725
0.0058943536 0.35144535 0.057015326 0.04966163 -0.42286745 -0.020429129 -0.42962664 -0.09559831
-0.10922366 -0.4423775 -0.33744913 -0.12388107 -0.1278011 -0.7722332 -0.8240884 -0.016543835
-0.06724367 -0.8487855 0.4148805 -0.32348886 -0.5105143 -0.4435815 0.10798616 0.45260608
-0.9034394 -0.43347868 -0.5456324 -0.085139066 -0.055473644 -0.077248625 -0.22139053 0.2703293
-0.12441329 -0.2508883 0.35396707 -0.9543602 -0.014256606 -0.20257832 -0.69998133 -0.70251745
-0.00803436 -0.25074974 0.42168838 -0.42913556 0.1356914 0.24626766 -0.22927293 0.11662996
-0.30275992 -0.34955367 -0.42133072 -0.48957425 -0.4210936 -0.19121452 -0.4238291 -0.087500766
-0.27383816 0.16969053 0.41587391 -0.11058605 -1.0186367 -0.47381768 -0.43469244 0.45747823
0.2646942 0.56438106 -1.060728 0.25865668 0.058185924 0.35288268 0.094756514 -0.26802614
-0.14533298 0.35662603 0.10529063 -0.25603595 0.5982437 -0.6791794 -0.7380735 0.20948768
00000000: 9dba 1ebf 3f93 dbbe bd22 98be 76fe 59ba
00000010: 304c a2bd 5686 8fbe e7f4 9bbe 5737 c5be
00000020: 956e 09bf ba08 883e ef7c d6be b846 2cbf
00000030: 66d6 8fbd 1eab 313e bfd1 06bf 30cb 3ebe
00000040: 6357 fabe 1f13 23bf f0e8 84bd 9ada d1be
00000050: bb6f 19be a309 193e 8852 b03e f732 333e
00000060: bc7d 293f 12d4 eebe 3daf 483e 5264 a53e
00000070: c1ee 68bf 2964 8ebe bba7 0ebf 0fc6 32bf
00000080: 372a 8d3e dbab ab3e a759 c1be 6c8d 15bf
00000090: 24e4 30bf 51be 983e 0ca5 023e dff4 48be
000000a0: 3d5c bbbd 2a73 e9be 2f34 3e3e 3c2a a8be
000000b0: a1d0 ba3e 5e9f 4abe 4890 7dbe 8cd3 06be
000000c0: f16c 58be eaab 94be 371e b2be e29d 83be
000000d0: 1e26 edbe 0871 c7be ec69 2ebd a680 c7bc
000000e0: 54ef 51be 5c0e 35bd 2203 08bf 9472 36bf
000000f0: 3433 64be 1cba 10bf e750 f1be d4c5 a3be
00000100: 8549 2a3d 1697 88bd 8745 0e3d 5850 8b3e
00000110: 81f6 aabe b43c f0bd 3375 be3d 0d44 e93d
00000120: 45fd 173e f5d3 edbc 9d52 dcbe 2957 4dbe
00000130: 9edf 513e 9b00 b7be 52da 96be 4405 a0be
00000140: 6b9a 82be cbc6 f1be 84b0 bd3d d1a5 f6bd
00000150: 148a c4bd 8eae 1ebf 3fec c3be 9cdd ddbd
00000160: 9e57 f6bd f8c8 ebbd 4457 8dbe 7612 36be
00000170: bbe5 84be 1b26 00bf d643 ccbe 3726 5fbe
00000180: 4c74 3dbd cc32 ecbd 452a 2c3e fe6f a9be
00000190: 8e72 acbe f474 be3e 56f3 c1be 044a a23e
000001a0: 98b5 bf3e 3735 863d fc43 8c3e b400 253f
000001b0: 7990 523d 6ee9 9a3e 7356 1c3e 5634 5abe
000001c0: 6369 41be 41a4 f73b a672 663e f45b 9bbe
000001d0: 32ca 1bbf 1651 963e ea3e 0cbf 49e1 62bf
000001e0: f0b6 483e fe26 1dbf d850 923e f070 6ebf
000001f0: b9d2 7e3d 3d5a 7cbf 922e 893e 194b f53e
00000200: 283d 843d 994a e43d 6c83 833e 8ebf 853d
00000210: b9f7 373e 839e f2be 16ca d2bd 1fec 0f3e
00000220: 474e 043e c992 253e 7dc3 fabd ecbd 67bd
00000230: 7f20 debc 4ef0 e1ba bd65 5d3d 2714 49bd
00000240: d057 2b3f 5449 1fbe d9a8 d6be b4a1 183f
00000250: c58e b33e 0f47 293f 0bb8 713e 7fb9 5d3f
00000260: 1b6a 763f 2b3f c63d 3ad3 013e 37c8 b33d
00000270: 406c 953d f06c 273e 39d8 963d cfab 19bc
00000280: eb35 2f3e f317 493d 85f6 03bf 1404 9abf
00000290: dd6b 3cbf 90de 48bf c1d6 68bf 1c14 84bf
000002a0: 2795 3ebf 28bd 4ebf ed8b 96bf 106f e5bd
000002b0: 0c61 24be cfb7 75bd 5962 18be 906e 833d
000002c0: 6c25 c13b a5f0 b33e e788 693d fe69 4b3d
000002d0: 1582 d8be fd5a a7bc 06f8 dbbe 0cc9 c3bd
000002e0: a7b0 dfbd 4e7f e2be 22c6 acbe 5cb5 fdbd
000002f0: 4bde 02be 13b1 45bf 75f7 52bf f086 87bc
00000300: 0db7 89bd 024a 59bf 386b d43e 55a0 a5be
00000310: 11b1 02bf 1d1d e3be d927 dd3d fcbb e73e
00000320: ce47 67bf ebf0 ddbe 91ae 0bbf 645d aebd
00000330: 5538 63bd 8734 9ebd 33b4 62be 9a68 8a3e
00000340: 65cc febd 6e74 80be 2c3b b53e f350 74bf
00000350: 8a94 69bc b170 4fbe fa31 33bf 2fd8 33bf
00000360: 8ca2 03bc 4562 80be 8ae7 d73e a8b7 dbbe
00000370: b0f2 0a3e 972d 7c3e 86c6 6abe b0db ee3d
00000380: 5903 9bbe b3f8 b2be a9b8 d7be 7aa9 fabe
00000390: 9599 d7be bdcd 43be 2100 d9be 9a33 b3bd
000003a0: 8434 8cbe 5bc3 2d3e 6ded d43e f07a e2bd
000003b0: b062 82bf 3b98 f2be 0290 debe 963a ea3e
000003c0: 0086 873e 477b 103f efc5 87bf a66e 843e
000003d0: 5d54 6e3d 0aad b43e b40f c23d b93a 89be
000003e0: 2bd2 14be b097 b63e 9da2 d73d 2517 83be
000003f0: 8026 193f b3de 2dbf 63f2 3cbf f083 563e

network.0.bias f4 [32]
-0.56131357 -0.5222306 -0.41322857 -0.15455061 -0.7570973 -0.78124976 -0.09049804 -0.5309896
-0.1553556 -0.65278184 -0.33683687 -0.577401 -0.5670678 -0.45068944 -0.19246778 -0.7285817
-0.68935204 -0.8328193 -0.46954396 -0.1475243 -0.7037408 -0.46710297 -0.61098504 -0.3429916
-0.5373519 -0.47853127 -0.3064017 -0.48388872 -0.7155642 -0.8165636 -0.58836854 -0.34743142
00000000: 3fb2 0fbf e8b0 05bf b292 d3be 8442 1ebe
00000010: 21d1 41bf fcff 47bf 0957 b9bd efee 07bf
00000020: 8a15 1fbe b61c 27bf e275 acbe 8dd0 13bf
00000030: 5b2b 11bf c4c0 e6be 4616 45be 5584 3abf
00000040: 6079 30bf a533 55bf 1168 f0be 9c10 17be
00000050: 5b28 34bf 1f28 efbe 8469 1cbf 989c afbe
00000060: e58f 09bf 0d02 f5be afe0 9cbe 43c0 f7be
00000070: 372f 37bf 500a 51bf 529f 16bf 88e2 b1be

network.2.weight f4 [64, 32, 3, 3]
0.29324192 -0.3241256 0.94130003 -0.44092074 -0.4202042 -0.36620304 -0.07148963 -0.064031534
-0.021205496 -0.14753544 -0.13551655 -0.23200129 0.19834429 0.058390733 -0.33563045 0.27696663
-0.10764571 0.081988156 -0.6417594 -0.33148873 0.09748257 -0.05877565 0.16664164 -0.23144694
0.16822062 0.43131822 0.0025669653 -0.503464 -0.14289431 -0.28742522 -0.042910375 0.37030482
-0.34060082 -0.6616264 0.30821857 -0.18168944 0.2178921 -0.14086522 -0.45448187 0.38422748
0.27831507 0.085984215 -0.87278914 -0.74630284 0.090425864 -0.002576138 0.36543435 -0.2727605
-0.47521278 -0.5654711 0.024088759 0.53514755 0.10533777 -0.015914148 -0.050126072 -0.4207108
-0.11071616 0.10731484 -0.77792776 -0.37087098 0.11721759 0.37545684 -0.19204581 -0.22316559
0.40729636 -0.60948783 0.122504614 -0.9150001 -0.09686562 -0.3437101 -0.4889676 0.21282968
-0.08948767 -0.38719252 0.36067292 -0.66705686 -0.3075767 -0.16937658 0.015490252 0.047955688
0.4127289 -0.019121638 -0.49502495 -0.22644067 0.059780095 0.5489515 0.27544352 0.74384123
-0.3772199 0.023718601 -0.03555397 0.006197664 -0.003883266 -0.0024862683 -0.010732128 -0.11654932
-0.006108656 0.03834803 -0.0048222975 0.16639338 -0.11040554 -0.14223918 0.092013165 -0.4237874
0.5653402 -0.07502357 0.24365515 0.1645836 -0.5703929 -0.3124284 0.3055346 -0.3482206
-0.22018734 -0.08076098 0.38632464 -0.22914876 -0.105833255 -0.048582725 0.023483811 -0.111054994
-0.023083054 -0.035233103 -0.062494334 0.03065371 -0.123898596 -0.11537581 -0.026898718 -0.003831487
0.01263636 0.021616843 -0.04631412 -0.0024772694 -0.042020954 -0.050851073 -0.030748097 -0.10296847
0.09411961 -0.0399479 -0.016481405 0.04260193 -0.15288234 -0.12770599 0.0022938084 -0.10346666
0.3843412 0.2450982 -0.2720847 -0.22889593 0.009387547 -0.17901428 0.7769118 -0.15047617
-0.4510564 -0.17206421 -0.4017665 0.17462444 -0.5028185 -0.95520973 -0.75178826 -0.7997275
-0.10795277 -0.020709867 -0.10927608 0.4307575 -0.27244797 -0.03624321 -0.08669867 0.6546907
0.1001605 0.8108879 -0.018989163 -0.24741055 -0.25767642 0.22321656 -0.022275332 -0.054332845
0.12575266 -0.3727655 0.055031132 -0.80438566 -0.0253897 -0.72198427 -0.6680926 -0.20165943
0.2902751 -0.2890827 -0.08187594 0.06837201 -0.41913226 -0.42910394 -0.6923205 0.47225565
-0.5858719 -0.3008636 -1.4309179 0.633455 -0.009722663 -0.76137674 -0.27330154 -0.16666612
-0.4142378 -0.07511782 0.17227587 -0.21503107 -0.22034028 0.21537572 0.15527135 -0.43362528
-0.065271325 -0.7082678 -0.2766736 -0.5302693 -0.20894353 -0.85599685 0.14387509 -0.078791365
-0.08683735 -0.036706567 -0.1665926 0.13287127 -0.21761818 -0.052459795 -0.035697095 -0.11869188
-0.2645026 -0.40004683 0.22843267 -0.35126284 -0.19066527 -0.30120733 -0.48158333 -0.11998032
-0.30457518 -0.19443992 -0.053555854 -0.6257626 -0.21997762 0.20429716 -0.011825944 -0.3284468
0.29200676 0.7293078 -0.31453162 -0.059946276 0.14035995 -0.30665115 0.46750075 -0.21657962
0.6200115 0.6112984 -0.3630359 -0.3747838 0.17448443 -0.422735 0.22664683 0.2076828
00000000: ce23 963e caf3 a5be 0af9 703f 5dc0 e1be
00000010: 0125 d7be f77e bbbe 2869 92bd f722 83bd
00000020: 26b7 adbc 8813 17be dac4 0abe bf91 6dbe
00000030: c41a 4b3e 1f2b 6f3d c1d7 abbe 92ce 8d3e
00000040: 5b75 dcbd 68e9 a73d 584a 24bf e4b8 a9be
00000050: f1a4 c73d bcbe 70bd 1ba4 2a3e 6d00 6dbe
00000060: 0742 2c3e bed5 dc3e 883a 283b 04e3 00bf
00000070: e352 12be 6629 93be cac2 2fbd 9898 bd3e
00000080: 3b63 aebe 5960 29bf d3ce 9d3e cc0c 3abe
00000090: 1b1f 5f3e f93e 10be d9b1 e8be 77b9 c43e
000000a0: 507f 8e3e 7e18 b03d 1c6f 5fbf b40d 3fbf
000000b0: 3231 b93d 6cd4 28bb 361a bb3e 44a7 8bbe
000000c0: 174f f3be b7c2 10bf ca55 c53c 6eff 083f
000000d0: 54bb d73d 635e 82bc ff50 4dbd 6867 d7be
000000e0: 27bf e2bd e2c7 db3d 4626 47bf cde2 bdbe
000000f0: c70f f03d e13b c03e a8a7 44be 8585 64be
00000100: 2689 d03e 6507 1cbf b3e3 fa3d 723d 6abf
00000110: 7b61 c6bd c5fa afbe f659 fabe 06f0 593e
00000120: 5045 b7bd 193e c6be 1faa b83e 3dc4 2abf
00000130: b17a 9dbe 0e71 2dbe d3ca 7d3c 2f6d 443d
00000140: 3451 d33e fba4 9cbc e973 fdbe 10e0 67be
00000150: f9db 743d 1688 0c3f ef06 8d3e 616c 3e3f
00000160: f722 c1be 834d c23c 0aa1 11bd c615 cb3b
00000170: 647e 7ebb a9f0 22bb cfd5 2fbc 69b1 eebd
00000180: 1f2b c8bb d312 1d3d 5d04 9ebb 0763 2a3e
00000190: 4d1c e2bd 26a7 11be 6671 bc3d a9fa d8be
000001a0: 23ba 103f f5a5 99bd bc80 793e 9a88 283e
000001b0: 4505 12bf 9ef6 9fbe 086f 9c3e f849 b2be
000001c0: ca78 61be 0366 a5bd 58cc c53e f9a5 6abe
000001d0: 1bbf d8bd aefe 46bd 1f61 c03c cd70 e3bd
000001e0: ac18 bdbc 9650 10bd 0ffa 7fbd 7d1d fb3c
000001f0: 8cbe fdbd 274a ecbd b35a dcbc af19 7bbb
00000200: bc08 4f3c ce15 b13c e0b3 3dbd af59 22bb
00000210: 2a1e 2cbd 3749 50bd 6fe3 fbbc 22e1 d2bd
00000220: c8c1 c03d 69a0 23bd 0304 87bc 5d7f 2e3d
00000230: 308d 1cbe 5cc5 02be b853 163b 54e6 d3bd
00000240: 5fc8 c43e 06fb 7a3e b04e 8bbe b263 6abe
00000250: 3ace 193c 854f 37be b1e3 463f 6d16 1abe
00000260: ddf0 e6be 9a31 30be 57b4 cdbe c0d0 323e
00000270: b7b8 00bf a088 74bf 3275 40bf f1ba 4cbf
00000280: 5816 ddbd bda7 a9bc 23cc dfbd 3f8c dc3e
00000290: 4d7e 8bbe c373 14bd 138f b1bd cf99 273f
000002a0: f320 cd3d 5996 4f3f 298f 9bbc 3159 7dbe
000002b0: 2aee 83be e292 643e c27a b6bc 1e8c 5ebd
000002c0: 4ec5 003e 1fdb bebe 5368 613d 38ec 4dbf
000002d0: 0ffe cfbc f6d3 38bf 1e08 2bbf cf7f 4ebe
000002e0: f09e 943e a602 94be 93ae a7bd a006 8c3d
000002f0: 8198 d6be 83b3 dbbe eb3b 31bf 7ecb f13e
00000300: b3fb 15bf cb0a 9abe 5128 b7bf 1b2a 223f
00000310: ce4b 1fbc 96e9 42bf 2eee 8bbe 86aa 2abe
00000320: fa16 d4be 5fd7 99bd 1669 303e 1b31 5cbe
00000330: e2a0 61be 748b 5c3e 74ff 1e3e 2204 debe
00000340: f9ac 85bd 0a51 35bf 29a8 8dbe bbbf 07bf
00000350: 4bf5 55be 9c22 5bbf fe53 133e 5e5d a1bd
00000360: c8d7 b1bd a059 16bd 4097 2abe 680f 083e
00000370: 4dd7 5ebe 15e0 56bd 1e37 12bd ba14 f3bd
00000380: e36c 87be f0d2 ccbe 41ea 693e b9d8 b3be
00000390: c23d 43be d937 9abe 1792 f6be 3eb8 f5bd
000003a0: 47f1 9bbe 421b 47be 625d 5bbd fa31 20bf
000003b0: d041 61be 4633 513e 9bc1 41bc 2e2a a8be
000003c0: e981 953e eab3 3a3f 4a0a a1be 3a8a 75bd
000003d0: 85ba 0f3e 6101 9dbe 425c ef3e 0cc7 5dbe
000003e0: 13b9 1e3f 0d7e 1c3f d7df b9be aae3 bfbe
000003f0: 0cac 323e b970 d8be 1b16 683e cdaa 543e

network.2.bias f4 [64]
-0.25277707 -0.90429723 -0.88236356 -0.6392589 -0.4660752 0.5959592 -0.44889072 -0.2587067
-0.007735783 -0.6098441 -0.35068738 -0.48510987 -0.28745216 -0.64254344 -0.20059153 -0.1081421
-0.5041237 -0.35447696 0.16764301 -0.88874406 -0.2357445 -0.34171715 -0.26879087 -0.06913936
0.24156363 -0.16516364 -0.13672042 -0.3423854 -0.6400717 -0.3286222 -0.19369952 -0.056896027
0.12678804 -0.45012584 -0.76519436 -0.51040363 -0.15978822 -0.45977545 -0.26699045 -0.43625703
-0.41194454 -0.16548863 0.03908212 -0.15591039 -0.42597437 -0.22753012 -0.3549854 0.028945152
-0.23209825 -0.31092265 -0.38369 -0.2612454 -0.43554804 -0.4993527 -0.13986742 -0.4916543
-0.5764922 -0.08863741 -0.40330607 -0.30931908 -0.16948591 -0.15877096 -0.3341414 -0.46526393
00000000: ff6b 81be 0680 67bf 94e2 61bf 79a6 23bf
00000010: 69a1 eebe c890 183f 01d5 e5be 3475 84be
00000020: 737c fdbb be1e 1cbf 4c8d b3be 5260 f8be
00000030: ee2c 93be ba7d 24bf de67 4dbe 9b79 ddbd
00000040: 400e 01bf 017e b5be 9caa 2b3e bb84 63bf
00000050: 0267 71be 8df5 aebe f59e 89be f098 8dbd
00000060: 755c 773e a820 29be 7000 0cbe 244d afbe
00000070: bddb 23bf 2b41 a8be 2b59 46be cf0b 69bd
00000080: b9d4 013e e576 e6be c7e3 43bf d0a9 02bf
00000090: 869f 23be b067 ebbe f9b2 88be 155d dfbe
000000a0: 65ea d2be da75 29be 9314 203d f9a6 1fbe
000000b0: 5019 dabe a8fd 68be a5c0 b5be 621e ed3c
000000c0: 2aab 6dbe 4131 9fbe 0473 c4be f5c1 85be
000000d0: 2700 dfbe 28ab ffbe 6839 0fbe 1dba fbbe
000000e0: fe94 13bf 8887 b5bd 227e cebe 125f 9ebe
000000f0: b78d 2dbe db94 22be 9514 abbe 1337 eebe

network.4.weight f4 [64, 64, 3, 3]
-0.21859881 0.12662593 -0.13056432 0.30884326 -0.30719927 -0.16011037 0.30241686 -0.20738934
0.019409066 -0.80765444 -0.52041245 0.31396967 -0.10687996 -0.38419312 0.4657829 -1.0968995
0.32022133 0.21409707 0.251472 -0.1885897 0.121343955 0.21493518 -0.5383563 0.30178365
-0.6447839 -0.54455984 0.12557617 -0.18067445 -0.3002735 -0.21793793 0.28130212 -0.301815
0.39547208 0.4806148 -0.34263736 -0.07286927 0.017244382 -1.1563616 0.018641783 -0.4153214
-0.4394706 0.14808017 -0.41689685 -0.2228481 -0.22399294 0.11214797 0.18737717 -0.26598853
0.0135180075 -0.49219024 -0.3487884 -0.57954866 -0.93580645 -0.0017881467 -0.07064429 -0.15787172
0.029053656 -0.048302893 -0.057395592 0.7900129 -0.16766132 0.1854741 -0.097107336 -0.22905302
-0.41053942 0.47330272 -0.80135125 -0.0923686 0.24557231 -0.90162134 -0.28453162 0.49611884
-1.0370806 -0.36090484 0.10609644 0.1505743 -1.0381782 0.043814927 -1.1853672 -1.2967924
0.4146785 -0.05396105 -0.23667553 -0.20175068 0.06656688 0.14377815 -0.31717575 0.17665769
-0.62678796 -0.3458801 -0.3899841 0.092352584 -0.3823019 -0.8429708 -0.5439113 0.3962815
-0.3123037 -0.09160669 0.6451212 -0.6356665 0.017663768 0.5287247 -0.17969199 -0.67413414
-0.24363884 -0.5306443 -0.09794101 0.002385457 -0.082798764 0.0050047394 -0.35670802 -0.013207419
-0.080192 -0.13514292 -0.14895046 -0.0936652 -0.13384868 -0.41414377 0.0005296648 -0.18699716
-0.7418976 0.1905432 0.65754217 -0.40665945 -0.7908562 0.26283106 -0.22209764 0.27448532
-0.22611664 0.38895604 -0.06412852 -0.029500255 -0.33440813 -5.472659e-06 -0.1068026 0.029185962
0.020180063 -0.007410967 0.020365259 0.014383307 -0.01729796 -0.0035353214 -0.028993927 -0.0055269087
-0.50313765 0.7642392 0.30602238 -0.049136847 -0.066945694 -0.4212222 -0.07386581 -0.27965727
0.20289767 -1.0101753 -0.054855503 -0.025037574 -0.26516566 -0.39559543 -0.33436325 0.0824914
-0.07279203 0.25296566 0.15389039 0.09729532 -0.089105986 -0.7572915 0.4489136 -0.5091372
-0.6331789 -0.77904165 -0.44154176 -0.53530943 0.27746826 -0.024028033 -0.3815628 -0.78656536
-0.049797535 -0.19722706 -0.71619457 -0.55766 -0.065638155 -0.40077758 0.18363507 -0.2503525
-0.09917262 0.17730989 -0.1363343 -0.19736063 -0.14674804 -0.76458794 0.17892322 0.86030227
-0.29606122 -0.4105316 -0.093011506 -0.38356027 -0.31986272 0.19589126 -0.3399046 -0.29755136
0.039553054 -0.0708144 -0.942145 -0.3913031 0.4103534 -0.71786624 0.37953508 -0.21239012
-0.18601054 0.02518113 0.21638878 0.21194829 0.37455478 -0.19394346 0.054411303 0.17544885
-0.6569257 -0.6000341 0.40399083 -0.19789857 0.004458487 -1.1681309 -0.16031334 0.32514393
-0.23777938 -0.01178968 -0.14264372 -0.020199494 0.0070916587 -0.11325035 -0.08164431 -0.122239746
-0.08570422 0.09525205 0.02856352 -0.03814454 0.016688284 -0.03905647 0.019560672 0.03004351
-0.012287856 -0.027569175 -0.005095318 0.3972753 -0.18233962 0.48201662 -0.715826 -0.33335432
-0.4585353 0.4678385 0.9583031 -0.51626056 -0.79953545 -0.105061784 0.2516288 -0.23159873
00000000: 5ed8 5fbe 3aaa 013e a7b2 05be b420 9e3e
00000010: 3949 9dbe f9f3 23be 62d6 9a3e df5d 54be
00000020: c3ff 9e3c 71c2 4ebf c039 05bf a2c0 a03e
00000030: e1e3 dabd f6b4 c4be 197b ee3e 3467 8cbf
00000040: 0df4 a33e 433c 5b3e f0c0 803e a91d 41be
00000050: 2e83 f83d f817 5c3e b8d1 09bf 6383 9a3e
00000060: 8f10 25bf 4668 0bbf 0a97 003e b902 39be
00000070: 73bd 99be 1f2b 5fbe d506 903e 7f87 9abe
00000080: 517b ca3e 2513 f63e 2a6e afbe 7c3c 95bd
00000090: 1744 8d3c a803 94bf a7b6 983c 02a5 d4be
000000a0: 4a02 e1be 54a2 173e 8173 d5be 4b32 64be
000000b0: 685e 65be d6ad e53d cddf 3f3e a62f 88be
000000c0: a27a 5d3c 5c00 fcbe 6594 b2be 4d5d 14bf
000000d0: 0391 6fbf 3f60 eaba f4ad 90bd 20a9 21be
000000e0: ef01 ee3c 41d9 45bd a417 6bbd 493e 4a3f
000000f0: 69af 2bbe ecec 3d3e 36e0 c6bd e08c 6abe
00000100: 3932 d2be bc54 f23e 5b25 4dbf c02b bdbd
00000110: 4f77 7b3e a8d0 66bf 21ae 91be 4a03 fe3e
00000120: 0fbf 84bf 85c8 b8be 1749 d93d 2630 1a3e
00000130: 06e3 84bf 4877 333d 1dba 97bf 4bfd a5bf
00000140: be50 d43e 4306 5dbd 125b 72be bb97 4ebe
00000150: 3754 883d 943a 133e dc64 a2be c1e5 343e
00000160: 2d75 20bf 3217 b1be ffab c7be 5a23 bd3d
00000170: 13bd c3be efcc 57bf c53d 0bbf 69e5 ca3e
00000180: 45e6 9fbe 4a9c bbbd aa26 253f 0abb 22bf
00000190: 9bb3 903c 805a 073f 2d01 38be 0e94 2cbf
000001a0: 767c 79be 4ed8 07bf 4c95 c8bd 5455 1c3b
000001b0: 6692 a9bd ccfe a33b 6fa2 b6be ee63 58bc
000001c0: b43b a4bd e862 0abe 7886 18be 8ad3 bfbd
000001d0: a10f 09be a70a d4be 34d9 0a3a 2f7c 3fbe
000001e0: 00ed 3dbf c21d 433e af54 283f ab35 d0be
000001f0: 8d75 4abf cb91 863e 906d 63be 5789 8c3e
00000200: 1f8b 67be 3f25 c73e d055 83bd 85aa f1bc
00000210: 8b37 abbe c8a1 b7b6 52bb dabd 6617 ef3c
00000220: a950 a53c b2d7 f2bb 0bd5 a63c f6a7 6b3c
00000230: 74b4 8dbc dab0 67bb ac84 edbc 121b b5bb
00000240: a1cd 00bf 2ea5 433f f7ae 9c3e b843 49bd
00000250: d31a 89bd 70aa d7be f546 97bd 3d2f 8fbe
00000260: 68c4 4f3e 6d4d 81bf 2ab0 60bd 991b cdbc
00000270: cbc3 87be 7c8b cabe a931 abbe 40f1 a83d
00000280: fd13 95bd b784 813e 7195 1d3e c542 c73d
00000290: 337d b6bd dbdd 41bf 01d8 e53e d156 02bf
000002a0: 0318 22bf 466f 47bf c311 e2be 0a0a 09bf
000002b0: 5210 8e3e 70d6 c4bc 335c c3be 595c 49bf
000002c0: 80f8 4bbd e4f5 49be 8758 37bf cec2 0ebf
000002d0: 4c6d 86bd b832 cdbe d50a 3c3e 342e 80be
000002e0: 041b cbbd b990 353e 389b 0bbe e818 4abe
000002f0: 1e45 16be 09bc 43bf a637 373e c53c 5c3f
00000300: 5695 97be 3331 d2be d17c bebd 0362 c4be
00000310: 0cc5 a3be b897 483e fa07 aebe a758 98be
00000320: 6202 223d 2407 91bd 6a30 71bf e158 c8be
00000330: d719 d23e 15c6 37bf 6c52 c23e cc7c 59be
00000340: 8c79 3ebe a848 ce3c 0595 5d3e f908 593e
00000350: a5c5 bf3e 1d99 46be 63de 5e3d dda8 333e
00000360: 482c 28bf d69b 19bf e3d7 ce3e eca5 4abe
00000370: 8018 923b 5085 95bf 2e29 24be 4479 a63e
00000380: 707c 73be 8129 41bc 3211 12be 6979 a5bc
00000390: 2561 e83b cdef e7bd 2235 a7bd d558 fabd
000003a0: b285 afbd 8213 c33d 0bfe e93c 733d 1cbd
000003b0: deb5 883c adf9 1fbd b43d a03c cf1d f63c
000003c0: 0153 49bc c0d8 e1bc a0f6 a6bb ab67 cb3e
000003d0: 3db7 3abe e2ca f63e 5f40 37bf 6bad aabe
000003e0: 24c5 eabe 8788 ef3e 5a53 753f a729 04bf
000003f0: 5bae 4cbf a22a d7bd 7dd5 803e 3828 6dbe

network.4.bias f4 [64]
-0.21055272 -0.33077827 -0.4480051 -0.326373 -0.23890178 -0.74825 -0.1065509 -0.27571556
-0.73714286 -0.5484069 -0.2596664 -0.16692951 -0.18773058 -0.23209307 -0.66965586 -0.44632697
-0.6518541 -0.2386917 -1.0491387 -0.10964084 -0.23477003 -0.827911 -0.5720766 -0.41588265
-0.7182986 -0.8793995 -0.31960946 -0.53298265 -0.310588 -0.55305946 -0.57916206 -0.9739664
-0.6998329 -0.39070973 -0.07918091 -0.7246886 -0.89303166 -0.5131089 -1.0165857 -0.09216605
-0.6212543 -0.15796225 -0.29950476 0.009869851 -0.55149555 -0.70298994 -0.05630985 -0.85489064
-0.5988215 0.14936124 -0.46269897 -0.05320067 -0.40906996 -0.58425814 -0.52048695 -0.25358975
-0.57803196 -0.5880767 -0.32471448 -0.20870739 -0.58762956 -0.30284727 -0.5824446 -0.319178
00000000: 229b 57be c55b a9be ed60 e5be 5d1a a7be
00000010: aba2 74be 508d 3fbf 5c37 dabd 972a 8dbe
00000020: 65b5 3cbf 6564 0cbf fff2 84be 92ef 2abe
00000030: 723c 40be cea9 6dbe 916e 2bbf f884 e4be
00000040: e9df 26bf 996b 74be 2d4a 86bf 608b e0bd
00000050: 8e67 70be faf1 53bf 9d73 12bf 92ee d4be
00000060: 6be2 37bf 5320 61bf daa3 a3be 8d71 08bf
00000070: 6405 9fbe 4e95 0dbf f743 14bf dd55 79bf
00000080: 4028 33bf 1b0b c8be 9a29 a2bd 3185 39bf
00000090: b99d 64bf 1b5b 03bf 7b1f 82bf 8ec1 bcbd
000000a0: 860a 1fbf dbc0 21be b058 99be 28b5 213c
000000b0: d02e 0dbf 26f7 33bf 28a5 66bd 1dda 5abf
000000c0: 5e4c 19bf 27f2 183e e1e6 ecbe f2e8 59bd
000000d0: 9e71 d1be f191 15bf a23e 05bf 84d6 81be
000000e0: e7f9 13bf 328c 16bf fa40 a6be 64b7 55be
000000f0: e46e 16bf cc0e 9bbe 171b 15bf 4c6b a3be

actor.weight f4 [5, 3136]
0.8026414 0.4787985 0.8257965 0.6044873 1.1364148 0.8118885 0.026498634 0.6763939
0.15552865 0.4556277 0.3920416 0.8434566 0.6759492 0.5167704 1.1777875 0.6441536
0.4804587 0.3067189 0.6410842 0.76753616 0.47535294 0.7723603 0.30960616 0.6755426
0.2783464 0.72044086 0.40364787 -0.3196121 0.20203018 0.49561295 0.48995042 0.68527484
0.57095236 0.7154234 0.81004405 0.3627196 0.29464185 0.26080975 0.3300552 0.61562634
0.7240222 0.24924685 0.19265819 0.37063903 0.24000788 0.37651652 0.5226009 0.19180526
0.2265678 0.38050866 0.6576021 1.1368876 0.812094 0.5942171 1.0000132 0.18031195
0.33282542 1.1285545 0.5480759 0.564373 0.7102866 0.85193044 0.5462532 0.9156323
0.57532513 0.78658104 0.26995638 -0.0041761245 -0.113030106 0.40288538 0.22364005 1.4601717
0.58081234 0.9315008 0.6669395 0.2792956 0.015065004 0.19274683 0.9034705 0.36681768
1.195148 0.7484454 0.21739268 0.5033756 0.48771265 0.3524679 0.49349356 0.39920393
0.20216252 -0.3025145 0.04861795 0.6012657 0.061120853 0.049776867 0.22682312 0.076744124
0.333714 0.48611283 0.24606702 0.3978341 0.393613 0.3334476 0.42696813 -0.554014
0.57109016 0.4461849 0.2217462 0.45474347 0.41117376 0.73352736 0.036623545 0.09733287
0.4986898 0.4427792 0.59624475 0.45725498 0.6632473 0.7798315 0.37280676 0.5488914
0.14695172 0.5463985 0.8017677 0.2621556 0.3502812 0.24925049 0.46988502 0.40838078
0.3945049 0.5237219 0.3894394 0.3848855 0.20133246 0.30879104 0.40076935 0.3173715
0.16942137 0.3073913 0.44758523 0.8011506 0.7524218 0.23230599 0.66808593 0.054264605
0.55562687 0.73008215 0.053179868 0.8914608 0.8800518 0.49956784 1.2134663 0.83170164
0.8315679 -0.123322584 0.95244914 0.9791332 1.0361658 0.20097579 0.14554216 0.75208455
0.33456066 0.4776999 1.0933341 0.14369003 0.39882886 0.10640548 0.4359018 0.15534556
0.837922 0.16820258 0.73777646 0.55061716 0.5201267 0.023062723 0.4517954 1.1088707
0.524699 0.17756416 0.6632303 0.5364722 0.4863979 0.16734214 0.59245986 0.6716497
0.10647578 0.60892695 0.5994061 0.33414313 0.21198148 0.14185132 0.9621281 1.3102745
0.35146216 0.44613227 0.27452844 0.9385168 0.7380694 0.4442305 0.632029 0.47066894
0.20815195 1.0839595 0.07777189 0.39776695 0.65327704 0.8479832 0.82590616 0.05864524
-0.16690198 -0.229412 0.31121406 0.36596662 0.64690006 0.47718573 0.48945698 0.41798186
0.5047055 0.6066685 0.66193724 0.47371563 0.3869512 0.39568824 0.6206101 0.286793
0.31701893 0.7107504 0.7329371 0.53300273 0.7413306 0.52391434 0.11922599 0.32414445
0.4552082 0.6086056 0.38976935 0.5714568 0.5922462 0.36377868 0.84446484 0.7825508
0.78398645 0.55202395 0.21595997 0.74878603 0.36211303 -0.13702212 0.46574092 0.23069663
0.21934386 -0.043863438 0.088824935 0.08368696 0.113384716 0.7629278 0.5935041 0.86256176
00000000: e879 4d3f 1425 f53e 6667 533f aebf 1a3f
00000010: 0a76 913f edd7 4f3f aa13 d93c 2728 2d3f
00000020: e742 1f3e 0948 e93e adb9 c83e c6ec 573f
00000030: 020b 2d3f 114b 043f bec1 963f 40e7 243f
00000040: affe f53e 420a 9d3e 181e 243f 407d 443f
00000050: 7661 f33e 68b9 453f b384 9e3e 5cf0 2c3f
00000060: 6b83 8e3e d06e 383f efaa ce3e 32a4 a3be
00000070: 00e1 4e3e fbc0 fd3e c8da fa3e 2c6e 2f3f
00000080: ef29 123f fd25 373f 0c5f 4f3f 62b6 b93e
00000090: 4cdb 963e db88 853e fffc a83e b099 1d3f
000000a0: 8559 393f 913a 7f3e 3048 453e 66c4 bd3e
000000b0: a0c4 753e c6c6 c03e 2cc9 053f 9968 443e
000000c0: 6401 683e 08d2 c23e 9c58 283f 8885 913f
000000d0: 64e5 4f3f 9d1e 183f 6f00 803f b2a3 383e
000000e0: 1868 aa3e 7974 903f b44e 0c3f c07a 103f
000000f0: 58d5 353f 1d18 5a3f 40d7 0b3f e166 6a3f
00000100: 8248 133f 605d 493f b937 8a3e dfd7 88bb
00000110: 547c e7bd fe46 ce3e e601 653e e8e6 ba3f
00000120: 1eb0 143f d676 6e3f 8cbc 2a3f d5ff 8e3e
00000130: 35d3 763c 6d5f 453e d849 673f 87cf bb3e
00000140: 9cfa 983f 1e9a 3f3f 309c 5e3e 39dd 003f
00000150: 79b5 f93e ac76 b43e 30ab fc3e 7564 cc3e
00000160: b103 4f3e 2ee3 9abe 9e23 473d 8dec 193f
00000170: dc59 7a3d d4e2 4b3d 5244 683e 062c 9d3d
00000180: 90dc aa3e c8e3 f83e fef8 7b3e e9b0 cb3e
00000190: a587 c93e a5b9 aa3e 919b da3e ddd3 0dbf
000001a0: f732 123f 5972 e43e 7011 633e 23d4 e83e
000001b0: 5e85 d23e 73c8 3b3f 9202 163d 7556 c73d
000001c0: 4554 ff3e f5b3 e23e 7fa3 183f 531d ea3e
000001d0: 93ca 293f 0aa3 473f 87e0 be3e 2684 0c3f
000001e0: 837a 163e c6e0 0b3f a640 4d3f 4239 863e
000001f0: 0f58 b33e 853b 7f3e c594 f03e 4917 d13e
00000200: 8cfc c93e a312 063f 9a64 c73e b60f c53e
00000210: 192a 4e3e dc19 9e3e a431 cd3e 847e a23e
00000220: cc7c 2d3e 6462 9d3e e429 e53e 3518 4d3f
00000230: b79e 403f 9fe1 6d3e ae07 2b3f 9044 5e3d
00000240: 903d 0e3f aae6 3a3f 22d3 593d c636 643f
00000250: 134b 613f 5bc7 ff3e dd52 9b3f 66ea 543f
00000260: a2e1 543f 8d90 fcbd b5d3 733f 79a8 7a3f
00000270: 15a1 843f 99cc 4d3e 0109 153e 9d88 403f
00000280: 894b ab3e 1595 f43e 5ff2 8b3f 7b23 133e
00000290: 4c33 cc3e 1eeb d93d 852e df3e e812 1f3e
000002a0: 0e82 563f 4c3d 2c3e ebde 3c3f 3ff5 0c3f
000002b0: 0627 053f 09ee bc3c ba51 e73e 7aef 8d3f
000002c0: ac52 063f 61d3 353e 76c9 293f 3e56 093f
000002d0: 2509 f93e bd5b 2b3e 73ab 173f 3cf1 2b3f
000002e0: f90f da3d a3e2 1b3f ae72 193f cf14 ab3e
000002f0: ac11 593e 7941 113e 074e 763f 13b7 a73f
00000300: d9f2 b33e 736b e43e fe8e 8c3e a342 703f
00000310: 1ef2 3c3f 2e72 e33e a7cc 213f 85fb f03e
00000320: c925 553e 2fbf 8a3f de46 9f3d 1ca8 cb3e
00000330: 2a3d 273f 6d15 593f 966e 533f fe35 703d
00000340: 5ae8 2abe fbea 6abe 7357 9f3e fa5f bb3e
00000350: 3e9b 253f b051 f43e 1b9a fa3e b801 d63e
00000360: 6134 013f a04e 1b3f b874 293f db8a f23e
00000370: 781e c63e a697 ca3e 4ee0 1e3f 88d6 923e
00000380: 4e50 a23e bdf3 353f c4a1 3b3f de72 083f
00000390: d8c7 3d3f 401f 063f c12c f43d 43f6 a53e
000003a0: 0d11 e93e 94cd 1b3f d98f c73e fe4a 123f
000003b0: 729d 173f 3341 ba3e d92e 583f 4055 483f
000003c0: 56b3 483f 7151 0d3f 9c24 5d3e 71b0 3f3f
000003d0: e166 b93e 874f 0cbe 9875 ee3e bd3b 6c3e
000003e0: ad9b 603e 26aa 33bd d9e9 b53d 1264 ab3d
000003f0: 3f36 e83d 3c4f 433f e2ef 173f d9d0 5c3f

actor.bias f4 [5]
0.102316804 0.0677173 0.31576008 0.23230717 0.014895933
00000000: 798b d13d 5eaf 8a3d 4eab a13e eee1 6d3e
00000010: 120e 743c

critic.weight f4 [1, 3136]
-0.69298154 -0.68196905 0.095109925 0.6028344 0.35279718 0.21989198 -0.22762434 0.15017568
-0.084406026 0.12477229 0.068846054 0.16189788 0.24830139 -0.04475036 -0.08008074 -0.031633295
0.10812849 -0.0061456445 -0.020910814 0.35781425 -0.015360912 0.21859017 -0.31853274 -0.54020953
-0.5155695 -0.35146827 0.4213033 0.20719507 -0.25627404 -0.41449693 0.1843128 0.0749944
0.31940046 0.18156739 -0.063814744 0.3743542 0.3833404 0.11928218 -0.0057530003 0.26867548
0.13961844 0.27167037 -0.11004586 -0.18939127 0.17830704 0.25714085 -0.25781357 0.32829458
0.050730396 -0.43090543 -0.2564222 -0.87938607 0.05155914 -0.22672535 -0.4362571 -0.24083546
0.23897685 -0.14206521 -0.518451 0.046990816 0.1533666 0.33186844 -0.31694004 -0.29649857
0.13813855 0.34088734 0.5847841 0.55530137 0.33788365 0.2617276 0.3291186 -0.53503764
-0.086491 -0.5295947 0.011615037 0.0407525 0.06609896 -0.25102153 -0.33490315 -0.40521592
-0.4072907 0.016906304 -0.009311529 -0.41097206 0.66738653 0.5742111 -0.0016115818 0.070639074
0.33106378 -0.002059106 0.13351732 0.13064212 0.7232232 0.0976899 0.5190676 0.28466305
0.23632997 -0.043047745 0.31633213 0.14452273 0.17010146 -0.2274389 0.25298288 0.17267074
0.2050764 0.0016897751 0.10502803 -0.058106788 -0.054992307 -0.12748261 0.20744826 -0.10540179
-0.015294608 -0.0030273583 0.0293479 -0.02504397 0.109694496 -0.043913648 -0.39586028 -0.42570484
-0.046874896 -0.124291986 -0.2807899 -0.26243103 0.005033974 0.17329 0.10846176 -0.07850982
0.045375418 0.020456268 0.038990166 0.09573885 0.4259179 -0.1872911 0.14328258 -0.1380692
-0.15565622 0.27221054 -0.1498901 -0.61650723 -0.05272006 -0.4043907 -0.27381968 -0.15698314
0.011540602 0.25913832 0.11192976 -0.60191387 -0.38710263 -0.6904839 -1.1755759 -1.0581483
0.56745636 0.077567 0.4319805 0.13140903 0.65413785 0.05540487 -0.09635317 -0.014205554
0.095266774 0.2136573 0.62147236 0.1713487 0.3008164 0.013279001 -0.03312471 -0.0692145
-0.48696747 0.54937553 0.23662023 0.031183986 -0.23166837 0.63913053 0.9029651 -0.97706664
-0.025960954 0.11952999 -0.11105315 -0.29872835 -0.79526156 0.047415968 0.015374906 -0.19013974
0.2517907 -0.056514427 -0.35142416 0.39564115 -0.12837699 0.18286845 0.558748 0.5465698
-0.0761763 0.2944161 -0.24265285 -0.17387891 0.22935006 -0.11489506 0.25558496 0.05096009
-0.079812974 -0.18567552 0.17276569 0.21525349 0.29650748 0.018398672 0.18057539 0.5047371
0.21443501 0.14915818 -0.047609508 -0.013762953 0.093601145 0.081499495 0.298746 0.21080332
0.32025582 0.20398222 0.2740722 -0.119040996 0.07201989 0.07985531 0.21065126 -0.10957831
0.24075828 0.2144596 0.04208911 0.08373489 0.008137415 0.014444197 0.3285917 -0.1564747
-0.14899592 0.09411639 -0.029131977 -0.45357636 -0.26487792 -0.21697018 0.5569911 0.6967018
0.11333055 0.14280406 -0.61153156 0.39094347 0.47321755 0.027802048 0.35261473 -0.102278076
-0.071160235 -0.20272335 0.17856644 -0.1407446 -0.12517397 -0.03621216 0.28483537 -0.16809236
00000000: 3d67 31bf 8695 2ebf fec8 c23d 5b53 1a3f
00000010: d5a1 b43e 5d2b 613e 5b16 69be a7c7 193e
00000020: 11dd acbd 9d88 ff3d 29ff 8c3d 8fc8 253e
00000030: b842 7e3e 274c 37bd 5f01 a4bd ea91 01bd
00000040: 7872 dd3d 6761 c9bb 284d abbc 6e33 b73e
00000050: 56ac 7bbc 1ad6 5f3e b916 a3be 2c4b 0abf
00000060: 5dfc 03bf a6f3 b3be 11b5 d73e f22a 543e
00000070: 5a36 83be f138 d4be 7fbc 3c3e aa96 993d
00000080: 7588 a33e cdec 393e 4eb1 82bd 5bab bf3e
00000090: 3145 c43e 374a f43d aa83 bcbb d58f 893e
000000a0: 23f8 0e3e 6118 8b3e b95f e1bd c9ef 41be
000000b0: 1f96 363e f7a7 833e 2400 84be 3a16 a83e
000000c0: adca 4f3d a39f dcbe c549 83be 721f 61bf
000000d0: ad2f 533d b12a 68be 175d dfbe 929d 76be
000000e0: 59b6 743e 8b79 11be 34b9 04bf 7179 403d
000000f0: 220c 1d3e a9ea a93e f745 a2be a9ce 97be
00000100: 3174 0d3e c988 ae3e 69b4 153f 3b28 0e3f
00000110: 16ff ac3e 2901 863e 3c82 a83e 3af8 08bf
00000120: 3222 b1bd 8593 07bf ff4c 3e3c 18ec 263d
00000130: e45e 873d e585 80be 6d78 abbe 7678 cfbe
00000140: 6888 d0be 177f 8a3c 628f 18bc ee6a d2be
00000150: d8d9 2a3f 80ff 123f b63b d3ba 38ab 903d
00000160: 3181 a93e 11f2 06bb c4b8 083e 0cc7 053e
00000170: 2825 393f a411 c83d 9de1 043f 5bbf 913e
00000180: 7c00 723e d552 30bd 49f6 a13e c4fd 133e
00000190: 142f 2e3e bee5 68be f986 813e 99d0 303e
000001a0: 8cff 513e 727b dd3a f018 d73d 6201 6ebd
000001b0: 9d3f 61bd cd8a 02be 516d 543e e5dc d7bd
000001c0: 3c96 7abc a566 46bb 026b f03c 0329 cdbc
000001d0: 82a7 e03d ccde 33bd 33ae cabe fcf5 d9be
000001e0: e4ff 3fbd cc8c febd b2c3 8fbe 5c5d 86be
000001f0: 09f4 a43b ef72 313e 3321 de3d c2c9 a0bd
00000200: 93db 393d e793 a73c 27b4 1f3d bb12 c43d
00000210: e911 da3e 3dc9 3fbe abb8 123e 0362 0dbe
00000220: 5864 1fbe 2e5f 8b3e ca7c 19be 6bd3 1dbf
00000230: fdf0 57bd 4c0c cfbe 1832 8cbe 30c0 20be
00000240: cb14 3d3c c7ad 843e 6e3b e53d 0717 1abf
00000250: 5132 c6be 8ec3 30bf 4579 96bf 6771 87bf
00000260: d244 113f 73db 9e3d 8c2c dd3e 1790 063e
00000270: 9475 273f 38f0 623d d054 c5bd 69be 68bc
00000280: 3a1b c33d fbc8 5a3e d018 1f3f 0976 2f3e
00000290: 9b04 9a3e 2b90 593c c7ad 07bd 55c0 8dbd
000002a0: cd53 f9be e0a3 0c3f 934c 723e 8f75 ff3c
000002b0: 793a 6dbe 0f9e 233f b928 673f 0a21 7abf
000002c0: 11ac d4bc 24cc f43d d56f e3bd ecf2 98be
000002d0: 4396 4bbf 3f37 423d 08e7 7b3c feb3 42be
000002e0: b6ea 803e ac7b 67bd deed b3be 7a91 ca3e
000002f0: 4275 03be de41 3b3e 1c0a 0f3f 00ec 0b3f
00000300: 5202 9cbd b5bd 963e fd79 78be 500d 32be
00000310: beda 6a3e 1a4e ebbd 08dc 823e 87bb 503d
00000320: fc74 a3bd b921 3ebe 7de9 303e 696b 5c3e
00000330: d4cf 973e d0b8 963c c1e8 383e 7336 013f
00000340: da94 5b3e ecbc 183e 3002 43bd 027e 61bc
00000350: f5b1 bf3d 35e9 a63d 3cf5 983e d3dc 573e
00000360: 92f8 a33e b7e0 503e 3153 8c3e c4cb f3bd
00000370: 2a7f 933d 2e8b a33d f7b4 573e 986a e0bd
00000380: 5789 763e 4c9b 5b3e a165 2c3d 337d ab3d
00000390: cb52 053c 5aa7 6c3c 2c3d a83e e73a 20be
000003a0: 6392 18be 18c0 c03d 2fa6 eebc 293b e8be
000003b0: 149e 87be 6e2d 5ebe f896 0e3f 0d5b 323f
000003c0: d919 e83d 3a3b 123e 558d 1cbf be29 c83e
000003d0: 9249 f23e 1fc1 e33c eb89 b43e 2b77 d1bd
000003e0: 75bc 91bd b696 4fbe 1fda 363e 5a1f 10be
000003f0: 9b2d 00be 3453 14bd f1d5 913e 6720 2cbe
