PARALLEL/models/PRED_GROUP_POLICY_BOTH_4900.ckpt (torch, 307152 bytes, 9 tensors)

network.0.weight f4 [32, 5, 3, 3]
-0.3568361 -0.47943193 -0.30318582 0.16926956 -0.25479642 -0.2287245 -0.022410039 -0.33437508
-0.28189975 -0.0813125 -0.36055008 -0.57177204 -0.36322442 0.061569795 -0.35745335 -0.24208479
-0.5509158 -0.7248884 -0.12757896 -0.22697216 0.4306024 -0.060166784 0.21567081 -0.27941898
0.63911974 -0.12631063 0.0804049 -0.1128555 -0.65306145 0.067384385 -0.30895704 -0.34241912
-0.05602167 0.25221726 -0.2019482 -0.21066344 -0.6014873 0.06847597 0.059031036 0.099254034
-0.038240872 -0.48557195 -0.04342871 -0.32333326 0.12633395 -0.11356163 -0.22955751 -0.10688821
-0.21135308 -0.2903741 -0.34788677 -0.15536904 -0.38734436 -0.27561548 0.06428872 -0.021473467
-0.20501453 0.042467568 -0.5312978 -0.7126858 -0.2577876 -0.5653398 -0.4396811 -0.31986868
0.053017486 -0.06669442 0.051072523 0.28023103 -0.33391193 -0.11730328 0.15589371 0.16659217
0.1539427 -0.054141458 -0.4303178 -0.2005278 0.268703 -0.3574265 -0.2946344 -0.31254017
-0.25508437 -0.4722198 0.14197694 -0.085327245 -0.004063812 -0.619851 -0.3826618 0.007860374
-0.09310157 -0.11512941 0.06573864 -0.060349327 -0.08644397 -0.22393095 -0.01928445 0.015809473
-0.010361528 -0.1011813 0.10661721 -0.18787144 -0.5488086 0.13860899 -0.38843685 0.31939518
0.38754523 0.104085684 0.13272762 0.577589 0.12832923 0.5066083 0.1347337 -0.32249647
-0.30018604 -0.06807644 -0.0030133536 -0.099825524 0.054127228 0.20386057 -0.92182755 -0.5125744
0.3796055 -0.8221168 0.026587266 -0.764776 -0.14305599 -1.0704317 0.23924217 0.27673027
-0.29329708 0.01846327 -0.14042214 0.17671913 -0.04016879 -0.33678696 0.07843666 0.091094136
0.06806045 0.15794541 -0.062820405 0.06726776 -0.0931747 0.0030793557 0.04736345 -0.0291749
0.3938428 0.038786635 -0.39893314 0.545435 0.23972754 0.5283766 0.39818236 0.5961777
0.79038686 0.1176754 0.23038898 0.08854928 0.012203849 0.14282568 0.24783911 0.01670069
0.094009414 -0.10150419 -0.66217524 -0.6232961 -0.5872199 -0.9497035 -0.8117388 -0.82687956
-0.52130306 -0.89791477 -0.5926755 0.14534225 0.18613447 0.3310463 0.015693797 -0.16159981
-0.092338905 0.2740785 -0.053532567 -0.13289255 -0.28397322 -0.032781765 -0.026345951 0.072275884
-0.08229618 -0.3512364 -0.22008191 0.09345258 -0.083739385 -0.49921283 -0.5258448 -0.034909584
0.27528602 -0.4099181 0.16986386 -0.108355895 -0.38727182 -0.515521 0.25290206 0.33031583
-0.23455171 -0.23146485 -0.13843237 -0.08340545 0.38642648 0.039400414 -0.068638265 0.5067418
-0.061761975 -0.086483076 0.3911805 -0.5740981 -0.10518976 -0.41210034 -0.47179857 -0.6105454
-0.21426378 0.23254871 0.23805891 -0.2917731 0.2607839 0.4251475 -0.0025033215 0.18563028
-0.25261343 0.067614906 -0.45327085 -0.2538576 -0.07999751 -0.110783525 -0.009072336 -0.21611272
-0.18563315 0.0098839 0.4973897 -0.20309907 -0.7524527 -0.23849638 -0.530299 0.14145912
0.5383448 0.4021991 -0.5163247 0.3692476 0.024184994 0.18576796 -0.06131893 -0.17007759
-0.3981498 0.35452664 -0.078125276 -0.034659125 0.5064697 -0.43197712 -0.78834295 0.5598845
00000000: 39b3 b6be 1a78 f5be 2c3b 9bbe 0055 2d3e
00000010: ad74 82be c136 6abe 4295 b7bc 3633 abbe
00000020: 2a55 90be 2b87 a6bd 059a b8be a75f 12bf
00000030: 8df8 b9be 9c30 7c3d 2004 b7be 13e5 77be
00000040: d108 0dbf 4992 39bf 0fa4 02be 646b 68be
00000050: eb77 dc3e 7271 76bd cfd8 5c3e 0110 8fbe
00000060: 5a9d 233f 9357 01be 53ab a43d c920 e7bd
00000070: 092f 27bf d300 8a3d 9e2f 9ebe 8f51 afbe
00000080: fb76 65bd 9f22 813e 82cb 4ebe 28b8 57be
00000090: 12fb 19bf 213d 8c3d 87ca 713d b345 cb3d
000000a0: 76a2 1cbd e39c f8be 4ee2 31bd f08b a5be
000000b0: b05d 013e 0093 e8bd 2011 6bbe 35e8 dabd
000000c0: f16c 58be eaab 94be 371e b2be 1019 1fbe
000000d0: 0052 c6be 791d 8dbe cea9 833d 20e9 afbc
000000e0: 54ef 51be 79f2 2d3d 2203 08bf 9472 36bf
000000f0: bcfc 83be 1cba 10bf e21d e1be d4c5 a3be
00000100: dd28 593d 1697 88bd 6c31 513d 717a 8f3e
00000110: 81f6 aabe b43c f0bd 9aa2 1f3e 2397 2a3e
00000120: 28a3 1d3e 6fc3 5dbd 9d52 dcbe 2957 4dbe
00000130: 7193 893e 9b00 b7be 52da 96be 4405 a0be
00000140: 6b9a 82be cbc6 f1be 6762 113e 0dc0 aebd
00000150: ba29 85bb 8eae 1ebf 3fec c3be ccc8 003c
00000160: 09ac bebd f8c8 ebbd fba1 863d db30 77bd
00000170: 8909 b1bd 284e 65be 6cfa 9dbc de82 813c
00000180: 66c3 29bc 2438 cfbd 205a da3d 5f61 40be
00000190: b87e 0cbf 84ef 0d3e 32e1 c6be c487 a33e
000001a0: 546c c63e e02a d53d c0e9 073e dfdc 133f
000001b0: bd68 033e 15b1 013f a2f7 093e 421e a5be
000001c0: fcb1 99be a96b 8bbd af7b 45bb 5371 ccbd
000001d0: 83b4 5d3d d3c0 503e e4fc 6bbf 1338 03bf
000001e0: a75b c23e 3f76 52bf 8acd d93c 5cc8 43bf
000001f0: 457d 12be e803 89bf e6fb 743e 97af 8d3e
00000200: 092b 96be 4940 973c d2ca 0fbe dcf5 343e
00000210: 0788 24bd 576f acbe 66a3 a03d 908f ba3d
00000220: 4763 8b3d 71bc 213e fca7 80bd aec3 893d
00000230: 61d2 bebd 04cf 493b 2d00 423d 3300 efbc
00000240: c3a5 c93e bcde 1e3d f740 ccbe a1a1 0b3f
00000250: 237b 753e b043 073f 8fde cb3e 1a9f 183f
00000260: cb56 4a3f cdff f03d 17eb 6b3e 5359 b53d
00000270: a7f2 473c e540 123e 89c9 7d3e e3cf 883c
00000280: 0288 c03d 6ee1 cfbd 5184 29bf 5590 1fbf
00000290: 0b54 16bf c51f 73bf 1dce 4fbf 61ae 53bf
000002a0: 1e74 05bf bedd 65bf 95b9 17bf 99d4 143e
000002b0: 099a 3e3e e77e a93e 4790 803c 6c7a 25be
000002c0: 2e1c bdbd 0454 8c3e f744 5bbd fc14 08be
000002d0: f064 91be 2c46 06bd 77d3 d7bc 6105 943d
000002e0: e68a a8bd 42d5 b3be 275d 61be 1164 bf3d
000002f0: 8e7f abbd d398 ffbe c49d 06bf 5afd 0ebd
00000300: 4af2 8c3e c9e0 d1be cbf0 2d3e b2e9 ddbd
00000310: 7e48 c6be 2ff9 03bf 617c 813e 281f a93e
00000320: 532e 70be 1f05 6dbe 37c1 0dbe 7ad0 aabd
00000330: b1d9 c53e 5462 213d 3892 8cbd d5b9 013f
00000340: 20fa 7cbd 0a1e b1bd cf48 c83e 18f8 12bf
00000350: bb6d d7bd d1fe d2be 958f f1be b44c 1cbf
00000360: f767 5bbe 4021 6e3e b7c5 733e 4963 95be
00000370: 7885 853e efac d93e c40e 24bb dd15 3e3e
00000380: 8c56 81be af79 8a3d 1e13 e8be a0f9 81be
00000390: bcd5 a3bd 79e2 e2bd 23a4 14bc a74c 5dbe
000003a0: 9e16 3ebe 15f0 213c dda9 fe3e 34f9 4fbe
000003b0: bda0 40bf 6538 74be adc1 07bf a9da 103e
000003c0: f7d0 093f 0aed cd3e db2d 04bf 050e bd3e
000003d0: 9c1f c63c f539 3e3e 8f29 7bbd d228 2ebe
000003e0: 4ada cbbe 8484 b53e 2500 a0bd baf6 0dbd
000003f0: 00a8 013f 1b2c ddbe d8d0 49bf 9754 0f3f

network.0.bias f4 [32]
-0.3158535 -0.4631638 -0.18719326 -0.054758314 -0.40732983 -0.56373334 -0.15778928 -0.24782874
0.09343417 -0.58755326 -0.33683687 -0.31486195 -0.3677761 -0.45068944 -0.19246778 -0.7285817
-0.3920368 -0.5771263 -0.3286418 -0.052628182 -0.5608276 -0.43181077 -0.32624224 -0.21995413
-0.5373519 -0.43400806 -0.1971726 -0.40007108 -0.42093882 -0.47620726 -0.30303872 -0.2618163
00000000: 8db7 a1be ce23 edbe 97af 3fbe 414a 60bd
00000010: 898d d0be d450 10bf 8393 21be d1c6 7dbe
00000020: 6a5a bf3d e469 16bf e275 acbe 9635 a1be
00000030: 264d bcbe c4c0 e6be 4616 45be 5584 3abf
00000040: 0cb9 c8be 8dbe 13bf bd43 a8be a690 57bd
00000050: 6692 0fbf 4d16 ddbe 3909 a7be a83b 61be
00000060: e58f 09bf 4e36 debe 9de7 49be 1ed6 ccbe
00000070: 4b85 d7be 70d1 f3be e427 9bbe c90c 86be

network.2.weight f4 [64, 32, 3, 3]
0.008833007 -0.19455172 0.2996006 0.19093868 -0.34619662 -0.21694472 0.08811015 -0.02454573
-0.11758015 -0.14753544 -0.1556491 -0.16486713 0.21837136 0.058390733 -0.33563045 0.22395265
-0.10764571 0.081988156 -0.57962257 -0.29059926 -0.09873681 0.081469946 -0.28275448 -0.20397663
0.033649646 0.15407436 -0.10426337 -0.49479893 0.0852089 -0.19108672 -0.031898875 0.1337131
-0.29552555 -0.15026969 0.46093196 0.036109425 0.10575138 -0.045055732 -0.3562131 0.4303641
-0.2788653 0.055411845 -0.5086019 -0.6680315 -0.29251558 -0.13851352 -0.11945795 -0.08262879
-0.10745675 -0.0499517 -0.243184 0.2558942 0.021252135 -0.19128044 -0.0007523663 -0.070200846
-0.38979098 0.021705776 0.07785661 -0.12834266 0.32337773 0.06483881 -0.530928 -0.039547242
0.49902445 -0.38179207 0.013266697 -0.7607334 -0.02744031 0.30090567 -0.24518856 -0.15111151
-0.060292218 -0.2029815 0.18357168 -0.64812374 -0.15360427 -0.20014429 0.16353787 -0.14934884
0.07784542 0.012041783 -0.13357058 0.1370173 0.018378481 0.3351357 0.065359 0.5269735
-0.35500652 -0.14901315 -0.03555397 0.006197664 -0.003883266 -0.0024862683 -0.010732128 -0.11654932
-0.006108656 0.03834803 -0.0048222975 0.24545598 0.10748298 -0.058375232 0.23498592 0.022621296
0.29857323 -0.11829036 0.13967055 0.057992186 -0.31856564 -0.008754971 0.23024726 0.022149015
0.061029278 0.33122155 -0.22876099 -0.24936874 -0.041446287 -0.048582725 0.023483811 -0.111054994
-0.023083054 -0.035233103 -0.062494334 0.03065371 -0.123898596 -0.11537581 -0.026898718 -0.003831487
0.01263636 0.021616843 -0.04631412 -0.0024772694 -0.042020954 -0.050851073 -0.030748097 -0.10296847
0.09411961 -0.0399479 -0.016481405 0.04260193 -0.15288234 -0.12770599 0.0022938084 -0.10346666
0.17075427 0.11195418 -0.28085113 -0.033540785 -0.15183496 -0.19836703 0.46910915 -0.007436464
-0.4746233 0.004644348 -0.12587914 -0.21449523 -0.54429084 -0.34047648 -0.2461926 -0.31666732
-0.037661664 0.07154721 -0.09909802 0.21390402 -0.06981409 0.026027326 -0.18223725 -0.07966469
-0.04403292 0.045649387 -0.29010868 0.0048192833 0.27244672 0.1094857 -0.21086504 0.13044997
0.01452637 0.06627314 -0.3693184 -0.29498 -0.17540404 -0.836146 -0.28242296 -0.4189818
0.06852456 -0.282357 -0.44880268 -0.35190672 -0.33120394 -0.13056478 -0.283092 0.13010395
-0.492526 -0.25237274 -0.75785357 0.036231942 -0.14715901 -0.4320404 0.059850223 -0.18117678
-0.20545267 -0.38345802 -0.03800734 -0.08594476 -0.52781993 -0.16376351 0.053422064 -0.1566002
0.01775061 -0.35604793 -0.17587571 -0.26442882 -0.5925063 -0.47445267 -0.018673118 -0.029365443
-0.08683735 -0.036706567 -0.1665926 0.13287127 -0.21761818 -0.052459795 -0.035697095 -0.11869188
-0.2645026 -0.40004683 0.20473957 -0.35126284 -0.19066527 -0.30120733 -0.48829162 -0.11998032
-0.30457518 -0.19443992 0.3943095 -0.29098895 -0.17325325 0.08836588 0.3493029 -0.41373613
0.3398494 0.0968863 -0.43074328 0.07135725 0.35511366 -0.27472234 0.45849553 0.3733704
0.13312642 0.0973595 -0.09077599 -0.18814784 -0.05302109 -0.40346208 0.24988332 0.2767526
00000000: 51b8 103c 9138 47be 4065 993e 6e85 433e
00000010: af40 b1be c226 5ebe 1873 b43d 2014 c9bc
00000020: ddcd f0bd 8813 17be 7a62 1fbe eed2 28be
00000030: be9c 5f3e 1f2b 6f3d c1d7 abbe d853 653e
00000040: 5b75 dcbd 68e9 a73d 2562 14bf 6dc9 94be
00000050: 8636 cabd b7d9 a63d 32c5 90be 40df 50be
00000060: 36d4 093d abc5 1d3e 0988 d5bd 4956 fdbe
00000070: 0182 ae3d 3dac 43be 65a8 02bd 16ec 083e
00000080: 204f 97be 4ce0 19be 46ff eb3e 7ae7 133d
00000090: 2e94 d83d 5c8c 38bd 9061 b6be af58 dc3e
000000a0: 6fc7 8ebe 88f7 623d bc33 02bf 1d04 2bbf
000000b0: 9ac4 95be 7dd6 0dbe 5fa6 f4bd 4839 a9bd
000000c0: 4912 dcbd 279a 4cbd 3a05 79be 9104 833e
000000d0: f518 ae3c 05df 43be 733a 45ba 76c5 8fbd
000000e0: af92 c7be 50d0 b13c 4973 9f3d 426c 03be
000000f0: c491 a53e 36ca 843d e6ea 07bf 4afc 21bd
00000100: 2280 ff3e 407a c3be 8f5c 593c 6dbf 42bf
00000110: 80ca e0bc 4f10 9a3e b612 7bbe fabc 1abe
00000120: f9f4 76bd 62da 4fbe 37fa 3b3e 70eb 25bf
00000130: 704a 1dbe a0f2 4cbe 7976 273e e7ee 18be
00000140: 6b6d 9f3d e64a 453c bac6 08be 434e 0c3e
00000150: 788e 963c e896 ab3e f0da 853d bce7 063f
00000160: 6ac3 b5be e796 18be 0aa1 11bd c615 cb3b
00000170: 647e 7ebb a9f0 22bb cfd5 2fbc 69b1 eebd
00000180: 1f2b c8bb d312 1d3d 5d04 9ebb d058 7b3e
00000190: 0920 dc3d de1a 6fbd 26a0 703e 4c50 b93c
000001a0: 97de 983e 3742 f2bd cc05 0f3e 3789 6d3d
000001b0: 091b a3be 0371 0fbc f0c5 6b3e da71 b53c
000001c0: d6f9 793d df95 a93e 5240 6abe 855a 7fbe
000001d0: 95c3 29bd aefe 46bd 1f61 c03c cd70 e3bd
000001e0: ac18 bdbc 9650 10bd 0ffa 7fbd 7d1d fb3c
000001f0: 8cbe fdbd 274a ecbd b35a dcbc af19 7bbb
00000200: bc08 4f3c ce15 b13c e0b3 3dbd af59 22bb
00000210: 2a1e 2cbd 3749 50bd 6fe3 fbbc 22e1 d2bd
00000220: c8c1 c03d 69a0 23bd 0304 87bc 5d7f 2e3d
00000230: 308d 1cbe 5cc5 02be b853 163b 54e6 d3bd
00000240: 35da 2e3e 3c48 e53d b8cb 8fbe 1062 09bd
00000250: a07a 1bbe ba20 4bbe 132f f03e 95ad f3bb
00000260: d301 f3be 9d2f 983b 76e6 00be a3a4 5bbe
00000270: a556 0bbf ef52 aebe ea19 7cbe 3822 a2be
00000280: 1e43 1abd 5887 923d e7f3 cabd a809 5b3e
00000290: b1fa 8ebd 4237 d53c 679c 3abe 3e27 a3bd
000002a0: dd5b 34bd dafa 3a3d 2089 94be 14eb 9d3b
000002b0: 237e 8b3e 0a3a e03d 01ed 57be ad94 053e
000002c0: 0300 6e3c 36ba 873d 4d17 bdbe 9e07 97be
000002d0: 1e9d 33be aa0d 56bf be99 90be c884 d6be
000002e0: 9b56 8c3d 1991 90be 77c9 e5be 1e2d b4be
000002f0: 9093 a9be c6b2 05be 6ff1 90be f839 053e
00000300: 5e2c fcbe 0037 81be b102 42bf f267 143d
00000310: dab0 16be 6634 ddbe 8225 753d 6886 39be
00000320: 2f62 52be 9c54 c4be 96ad 1bbd ce03 b0bd
00000330: 351f 07bf 9fb1 27be 18d1 5a3d ce5b 20be
00000340: ba69 913c ea4b b6be c318 34be 3763 87be
00000350: 7eae 17bf 76eb f2be 5ef8 98bc cc8f f0bc
00000360: c8d7 b1bd a059 16bd 4097 2abe 680f 083e
00000370: 4dd7 5ebe 15e0 56bd 1e37 12bd ba14 f3bd
00000380: e36c 87be f0d2 ccbe 40a7 513e b9d8 b3be
00000390: c23d 43be d937 9abe 5c01 fabe 3eb8 f5bd
000003a0: 47f1 9bbe 421b 47be efe2 c93e 81fc 94be
000003b0: 4d69 31be 2cf9 b43d d4d7 b23e 39d5 d3be
000003c0: be00 ae3e 536c c63d 628a dcbe c023 923d
000003d0: 75d1 b53e 68a8 8cbe edbf ea3e 682a bf3e
000003e0: 4b52 083e 6b64 c73d c3e8 b9bd d4a9 40be
000003f0: a42c 59bd 9592 cebe 6ae1 7f3e 84b2 8d3e

network.2.bias f4 [64]
-0.060617194 -0.5468053 -0.42762107 -0.25404978 -0.25918105 0.1530005 -0.20756866 -0.078167774
-0.08578515 -0.11511651 -0.16843036 -0.27477637 -0.48033428 -0.5463564 -0.07062363 -0.10552595
-0.09578979 -0.122203484 -0.0034051128 -0.32539132 -0.1470397 -0.1260758 -0.053680766 -0.08277222
-0.13515086 -0.13073486 -0.12369212 -0.2780794 -0.28149915 -0.17649405 -0.33036157 -0.14072558
-0.044446345 -0.2584436 -0.5063907 -0.27307495 -0.0014046902 -0.43554032 -0.081409864 -0.18575291
-0.20863764 -0.140975 -0.0626603 -0.122730374 -0.3688892 -0.24652682 -0.190384 -0.118700385
-0.19827232 -0.11056626 -0.38369 -0.16158108 -0.117422335 -0.1852613 -0.33502957 -0.42061162
-0.2922323 -0.027229318 -0.24939822 -0.011314113 -0.11601454 -0.12865973 -0.29728103 -0.2812683
00000000: bc49 78bd 6ffb 0bbf 26f1 dabe d012 82be
00000010: 61b3 84be 2aac 1c3e e18c 54be 6d16 a0bd
00000020: 20b0 afbd 34c2 ebbd 0279 2cbe 7daf 8cbe
00000030: 60ee f5be 03de 0bbf 1fa3 90bd fd1d d8bd
00000040: 702d c4bd d245 fabd 5028 5fbb b199 a6be
00000050: 9391 16be 041a 01be 5de0 5bbd 7b84 a9bd
00000060: fd64 0abe 5cdf 05be 4b52 fdbd 6c60 8ebe
00000070: a820 90be dbba 34be 2725 a9be 5e1a 10be
00000080: 5f0d 36bd b852 84be d2a2 01bf 7bd0 8bbe
00000090: 951d b8ba 24ff debe 37ba a6bd 0336 3ebe
000000a0: 1ba5 55be c05b 10be 0b54 80bd 105a fbbd
000000b0: 0cdf bcbe 8771 7cbe 06f4 42be 3019 f3bd
000000c0: e607 4bbe 9070 e2bd 0473 c4be 8375 25be
000000d0: 1f7b f0bd 23b5 3dbe ff88 abbe 685a d7be
000000e0: 799f 95be 0510 dfbc 3f62 7fbe d45e 39bc
000000f0: 0899 edbd 60bf 03be 3835 98be 6602 90be

network.4.weight f4 [64, 64, 3, 3]
-0.28649035 0.19834712 -0.018864809 0.16311148 -0.26228365 0.0051445365 0.3505964 -0.008816587
0.26517022 -0.55581915 0.10103067 0.122165225 0.07102673 -0.46591243 -0.05915224 -0.48088357
0.011414094 -0.20541807 -0.026239915 0.26081574 0.28264287 -0.010253355 -0.043885138 -0.027461654
-0.70253855 -0.27350813 -0.050569925 -0.06269733 -0.00028591952 0.14323838 0.2177104 -0.3841575
-0.084501095 0.09374481 -0.0130842235 -0.0076958896 0.048599634 -0.49451435 -0.007476091 -0.4551937
0.27130556 0.03997867 -0.31447443 0.008167325 -0.24340034 0.053523414 0.102028966 -0.20109347
-0.0032051823 -0.023088591 -0.46277595 -0.3885013 -0.4435904 -0.08873299 -0.11860758 -0.23554818
-0.15639678 0.0009161564 -0.31278142 0.30185992 -0.2123654 0.334634 -0.44498608 -0.14242071
-0.44937125 0.3096397 -0.62946576 -0.08535917 -0.17144935 -0.92538196 -0.03853613 0.39685893
-0.9239756 -0.30999884 0.32421577 -0.4212585 -0.6358931 0.08094161 -0.52833253 -0.5066776
0.34102502 0.055263814 -0.041044794 -0.5192939 -0.09265932 0.05298846 0.390192 0.2069759
-0.023399675 -0.18221046 -0.24193749 -0.26361015 -0.27493808 -0.3658905 -0.2604708 0.31372723
-0.3811264 -0.35810056 0.9374861 -0.41234204 -0.1700339 0.29727355 -0.004060423 -0.64305985
-0.06733606 -0.55065733 -0.3229706 -0.2880842 -0.34787878 -0.49075133 -0.62711734 0.24709395
-0.012667728 -0.23753649 -0.0094764335 0.2316584 0.02092544 -0.66206586 0.37179694 -0.1174891
-0.12016995 0.02851975 -0.092959225 -0.14251293 -1.03072 0.49867722 0.02101022 -0.013197615
-0.040565584 -0.02651011 0.016016586 0.006283899 0.00084877765 -0.017423885 0.032078385 0.029185962
0.020180063 -0.007410967 0.020365259 0.014383307 -0.01729796 -0.0035353214 -0.028993927 -0.0055269087
-0.41311434 0.5139672 -0.105881885 -0.0975464 0.07101332 -0.4313212 -0.37973556 -0.47211865
-0.006248613 -0.704343 -0.45535463 0.043887325 -0.50382566 -0.34592018 -0.21823941 -0.20129862
-0.23574434 0.3220134 0.29894 0.038026527 -0.07226579 -0.39902693 0.22304738 0.0057485136
-0.5324795 -0.098608226 -0.7399184 -0.329657 0.46890384 -0.04275416 -0.46352097 -0.6710573
-0.43308347 -0.17110798 -0.43387988 -0.25387135 0.38246897 -0.0017728431 0.05133674 -0.3194153
-0.24488375 -0.25932747 0.22044662 -0.009748416 0.027765378 -0.3828769 -0.11737539 0.7651842
0.0051936917 -0.1341615 0.2839465 -0.08822284 0.011363862 -0.12023066 -0.13224688 -0.2309819
-0.050594546 0.13883825 -0.62334615 -0.2667941 0.13908674 -0.64039564 0.006292797 -0.11287775
0.086901374 -0.013145323 0.39877388 0.18880989 0.22853987 -0.066288136 0.23946707 0.2831874
-0.3740198 -0.7496404 0.4479918 -0.095925994 -0.16203204 -0.56112635 -0.42582873 0.2934069
-0.081859946 -0.01178968 -0.14264372 -0.020199494 0.0070916587 -0.11325035 -0.08164431 -0.122239746
-0.08570422 0.09525205 0.02856352 -0.03814454 0.016688284 -0.03905647 0.019560672 0.03004351
-0.012287856 -0.027569175 -0.005095318 -0.27818695 -0.23121627 0.025569359 -0.030975165 -0.24106124
-0.24901335 -0.023861894 0.4213539 -0.17224231 -0.43447974 0.42537552 0.05666433 -0.6670068
00000000: ddae 92be 821b 4b3e 5f8a 9abc b206 273e
00000010: 0b4a 86be 8093 a83b 5f81 b33e 7273 10bc
00000020: 64c4 873e 2a4a 0ebf 2be9 ce3d c331 fa3d
00000030: 7676 913d 138c eebe 9f49 72bd 5f36 f6be
00000040: 2e02 3b3c 1d59 52be 17f5 d6bc a489 853e
00000050: 91b6 903e b0fd 27bc e7c0 33bd 43f7 e0bc
00000060: 91d9 33bf 4209 8cbe 6922 4fbd 7567 80bd
00000070: 78e7 95b9 15ad 123e 7aef 5e3e 4bb0 c4be
00000080: e90e adbd 47fd bf3d 365f 56bc cd2d fcbb
00000090: 6910 473d fc30 fdbe fff9 f4bb 260f e9be
000000a0: 90e8 8a3e adc0 233d cb02 a1be 3ed0 053c
000000b0: f03d 79be 5e3b 5b3d 90f4 d03d 72eb 4dbe
000000c0: 090e 52bb 4924 bdbc f8f0 ecbe a4e9 c6be
000000d0: 481e e3be a4b9 b5bd 88e8 f2bd 8b33 71be
000000e0: 7a26 20be 372a 703a e324 a0be 628d 9a3e
000000f0: 5176 59be 2655 ab3e 37d5 e3be bcd6 11be
00000100: fd13 e6be 1889 9e3e ab24 21bf cad0 aebd
00000110: 6b90 2fbe d5e5 6cbf 10d8 1dbd 1831 cb3e
00000120: aa89 6cbf 2bb8 9ebe 9cff a53e 32af d7be
00000130: e4c9 22bf b7c4 a53d cd40 07bf a0b5 01bf
00000140: d59a ae3e 4f5c 623d 961e 28bd 72f0 04bf
00000150: 2bc4 bdbd 6d0a 593d 3fc7 c73e 7ef1 533e
00000160: adb0 bfbc 6195 3abe 76be 77be e9f7 86be
00000170: afc4 8cbe 0056 bbbe 6e5c 85be dba0 a03e
00000180: 0023 c3be f558 b7be 17ff 6f3f 7f1e d3be
00000190: 5e1d 2ebe 3d34 983e 4c0d 85bb 929f 24bf
000001a0: 7de7 89bd e1f7 0cbf 675c a5be c67f 93be
000001b0: 2b1d b2be c243 fbbe c38a 20bf 3206 7d3e
000001c0: 4d8c 4fbc c43c 73be 0b43 1bbc dc37 6d3e
000001d0: d46b ab3c 267d 29bf 2b5c be3e 209e f0bd
000001e0: aa1b f6bd 40a2 e93c 6861 bebd e9ee 11be
000001f0: a2ee 83bf 9f52 ff3e a01d ac3c cf3a 58bc
00000200: 1928 26bd bb2b d9bc 3735 833c 2ae9 cd3b
00000210: 8180 5e3a 89bc 8ebc a064 033d 6617 ef3c
00000220: a950 a53c b2d7 f2bb 0bd5 a63c f6a7 6b3c
00000230: 74b4 8dbc dab0 67bb ac84 edbc 121b b5bb
00000240: b983 d3be 5b93 033f 9ad8 d8bd 68c6 c7bd
00000250: 6e6f 913d 22d6 dcbe b36c c2be 89b9 f1be
00000260: 2ac1 ccbb d34f 34bf 3e24 e9be 32c3 333d
00000270: b8fa 00bf 731c b1be 277a 5fbe 3a21 4ebe
00000280: f766 71be f1de a43e aa0e 993e b4c1 1b3d
00000290: 1600 94bd 424d ccbe 8866 643e 075e bc3b
000002a0: 9450 08bf 1cf3 c9bd 4b6b 3dbf cdc8 a8be
000002b0: 2a14 f03e fc1e 2fbd 9f52 edbe 69ca 2bbf
000002c0: 1ebd ddbe ee36 2fbe 8125 debe 6dfb 81be
000002d0: f9d2 c33e be5e e8ba 7946 523d 678a a3be
000002e0: cec2 7abe 92c6 84be c2bc 613e d2b7 1fbc
000002f0: 3874 e33c 7108 c4be 8262 f0bd 1de3 433f
00000300: d82f aa3b a261 09be 7061 913e 2dae b4bd
00000310: 7e2f 3a3c 7e3b f6bd ba6b 07be 8586 6cbe
00000320: 3a3c 4fbd 9d2b 0e3e 9d93 1fbf 3c99 88be
00000330: c16c 0e3e f8f0 23bf cf33 ce3b 732c e7bd
00000340: 59f9 b13d 7b5f 57bc 172c cc3e 6157 413e
00000350: 5b06 6a3e 13c2 87bd db36 753e f0fd 903e
00000360: 867f bfbe 6fe8 3fbf 2e5f e53e d974 c4bd
00000370: baeb 25be faa5 0fbf 3906 dabe 6e39 963e
00000380: 30a6 a7bd 8129 41bc 3211 12be 6979 a5bc
00000390: 2561 e83b cdef e7bd 2235 a7bd d558 fabd
000003a0: b285 afbd 8213 c33d 0bfe e93c 733d 1cbd
000003b0: deb5 883c adf9 1fbd b43d a03c cf1d f63c
000003c0: 0153 49bc c0d8 e1bc a0f6 a6bb 856e 8ebe
000003d0: f5c3 6cbe d576 d13c a1bf fdbc c2d8 76be
000003e0: 5bfd 7ebe 057a c3bc b3bb d73e 4a60 30be
000003f0: 2174 debe d2ca d93e db18 683d f5c0 2abf

network.4.bias f4 [64]
-0.1376008 -0.20774002 -0.2226454 -0.24779385 -0.16555718 -0.28773576 -0.11903731 -0.09766828
-0.68329453 -0.48993522 -0.17761083 -0.07987126 -0.2218917 -0.11985185 -0.4774991 -0.4446696
-0.45403185 -0.15963389 -0.7778259 -0.10964084 -0.24612789 -0.6086657 -0.6290634 -0.41588265
-0.567948 -0.6998411 -0.20549148 -0.4101546 -0.2010977 -0.59765697 -0.37223458 -0.65193766
-0.4570052 -0.38226977 -0.11981987 -0.33530274 -0.6539706 -0.5073726 -0.7413594 -0.09216605
-0.3602988 -0.15796225 -0.29712397 -0.09103858 -0.12261997 -0.37273392 -0.09248357 -0.46881136
-0.547956 0.024138868 -0.23411146 -0.046102904 -0.28181753 -0.2983651 -0.29404953 -0.122562096
-0.49294412 -0.525469 -0.13461064 -0.102750264 -0.36337438 -0.19699878 -0.45095977 -0.2263306
00000000: 39e7 0cbe cdb9 54be 28fd 63be acbd 7dbe
00000010: d287 29be 1a52 93be d5c9 f3bd 4f06 c8bd
00000020: 64ec 2ebf cad8 fabe 9ddf 35be 8b93 a3bd
00000030: 9437 63be e374 f5bd c37a f4be bcab e3be
00000040: dd76 e8be 1177 23be 991f 47bf 608b e0bd
00000050: f308 7cbe 84d1 1bbf 4d0a 21bf 92ee d4be
00000060: 0a65 11bf c928 33bf 5c6c 52be c9ff d1be
00000070: 8eec 4dbe 0c00 19bf 8895 bebe 63e5 26bf
00000080: 96fc e9be ddb8 c3be 1f64 f5bd cdac abbe
00000090: 9e6a 27bf 2ce3 01bf bbc9 3dbf 8ec1 bcbd
000000a0: 1679 b8be dbc0 21be a220 98be 6f72 babd
000000b0: 2e20 fbbd fbd6 bebe 0768 bdbd 0b08 f0be
000000c0: d846 0cbf e0be c53c eaba 6fbe 66d6 3cbd
000000d0: 634a 90be 4fc3 98be a98d 96be d601 fbbd
000000e0: 2c63 fcbe 2385 06bf 5fd7 09be bb6e d2bd
000000f0: 350c babe 0cba 49be 33e4 e6be 35c3 67be

actor.weight f4 [5, 3136]
0.34741345 0.33306462 0.30373597 0.38244376 0.16033055 0.62098235 0.074529335 0.08379033
0.29021463 0.016781162 0.36155337 0.23646258 0.27818748 0.31641477 0.6641247 0.0807531
0.15432128 0.053105406 0.430055 0.208807 0.2678686 0.21391252 0.10546505 0.12505972
0.01777794 0.044485625 0.21865842 -0.30941162 0.031867247 0.32114086 0.13653488 0.13912638
0.273511 0.37629262 0.7599384 0.52292734 0.3451282 0.1866588 0.074675724 0.18371905
0.019365203 0.3476459 0.25511777 0.29521608 -0.03742646 0.6286557 0.2918117 -0.06486176
0.16983056 0.1632158 0.28092635 0.70286435 0.23668799 0.15154164 0.2469711 0.11069446
0.11413141 0.89406395 0.17751881 0.1382028 0.18779957 0.85835236 0.543503 0.721009
0.21866255 0.43849406 0.02145508 0.36504441 -0.079294726 0.42045105 0.13308232 0.83846563
0.30211455 0.50190014 0.09883538 -0.14221855 0.15884115 -0.14146192 0.31706023 0.09695431
0.66283995 0.5903743 0.25134328 0.25542673 0.40026313 0.17135407 0.19275233 0.26972833
0.08728465 -0.3915285 0.031628963 0.49659958 0.2098255 0.095800996 0.07901743 0.14710917
0.34422913 0.4765949 0.13981968 0.3379891 0.026508925 0.08382473 0.3832639 -0.029676925
0.5036331 0.33417526 0.094442144 0.3061743 0.14423458 0.27672103 -0.11372956 0.25188243
0.16911638 0.18061222 0.023918824 0.36755833 0.13979238 0.4484297 -0.106509596 -0.07692851
0.057406776 0.22091177 0.20382696 0.21223396 0.31990564 0.2077373 0.15220207 0.178794
0.22065452 0.45883444 0.2118548 0.26819384 0.027290784 0.20714699 0.18171054 0.1658346
0.44449794 0.1076841 0.2751609 0.80482733 0.75389993 0.41855705 0.4143224 0.13447417
0.2912746 0.5670969 0.2028991 0.35164332 0.31565738 0.32309955 1.024877 0.3595605
0.198063 -0.04649578 0.6511589 0.33918938 0.607385 0.19173086 0.175945 0.7507099
0.36464733 0.2282554 1.0602287 0.0005192355 0.38354272 0.07984382 0.49309212 0.24731424
0.6364474 0.10469196 0.20937073 0.099529974 -0.01943363 -0.24964665 0.62815464 0.43513772
0.23751299 -0.04359795 0.12190253 0.46031794 0.39273408 0.031632785 0.5778591 0.6716497
0.095415354 0.37079895 0.42017558 0.33436078 0.015358823 0.26577607 0.8296489 1.07262
0.17501266 0.13275309 -0.016547516 0.36898798 0.25076678 0.0872089 0.3643623 0.3873848
0.22262508 0.6942243 -0.034957483 0.32191217 0.29944625 0.28941417 0.31373578 -0.17511569
-0.12105537 -0.28836724 0.20527047 0.1229731 0.2872267 0.19645819 0.21287069 0.32788303
0.4748939 0.08047056 0.098485254 0.4254282 0.06835202 -0.18438622 0.36302367 0.28830308
0.33869424 0.1559628 0.2589134 0.29562783 0.5781665 0.5895131 0.110625364 0.23439565
0.16320337 0.5058597 0.26746947 0.2773493 0.17715809 0.11308883 0.3028994 0.32092783
0.5806496 0.05678582 -0.14425364 0.42081353 0.34572214 -0.1928754 0.48855203 0.25536793
0.20974398 -0.043863438 0.088824935 0.15400068 0.113384716 0.7629278 0.4830911 0.49044302
00000000: 2de0 b13e 7287 aa3e 4883 9b3e abcf c33e
00000010: b12d 243e b3f8 1e3f d6a2 983d 449a ab3d
00000020: 0397 943e a678 893c 861d b93e 3f23 723e
00000030: 976e 8e3e 1e01 a23e 1404 2a3f e261 a53d
00000040: 6606 1e3e 0e85 593d 2b30 dc3e 81d1 553e
00000050: 1326 893e e20b 5b3e 0ffe d73d a80f 003e
00000060: 0ba3 913c 8f36 363d fee7 5f3e 336b 9ebe
00000070: 3b87 023d 936c a43e cdcf 0b3e 2577 0e3e
00000080: a209 8c3e 6da9 c03e 538b 423f 91de 053f
00000090: a5b4 b03e 7c23 3f3e 96ef 983d d920 3c3e
000000a0: c6a3 9e3c a5fe b13e cc9e 823e 9026 973e
000000b0: 7d4c 19bd 94ef 203f 5868 953e 3ed6 84bd
000000c0: 10e8 2d3e 0b22 273e 94d5 8f3e ebee 333f
000000d0: 565e 723e bb2d 1b3e fee5 7c3e c7b3 e23d
000000e0: bbbd e93d 60e1 643f 7ec7 353e 0985 0d3e
000000f0: 884e 403e fbbc 5b3f 0323 0b3f 0c94 383f
00000100: 13e9 5f3e 4b82 e03e 90c2 af3c 1ae7 ba3e
00000110: 4665 a2bd 5c45 d73e bb46 083e afa5 563f
00000120: c2ae 9a3e 877c 003f 346a ca3d bda1 11be
00000130: 41a7 223e 65db 10be b855 a23e fb8f c63d
00000140: e1af 293f c522 173f 11b0 803e 4bc7 823e
00000150: 4aef cc3e 7177 2f3e de60 453e d519 8a3e
00000160: 4bc2 b23d 6c76 c8be 5f8d 013d 4d42 fe3e
00000170: 7fdc 563e 5033 c43d e4d3 a13d c9a3 163e
00000180: cd3e b03e 3f04 f43e e42c 0f3e e80c ad3e
00000190: 3f29 d93c 4dac ab3d 2a3b c43e 061d f3bc
000001a0: 19ee 003f 0519 ab3e e26a c13d e1c2 9c3e
000001b0: 3bb2 133e 61ae 8d3e 0beb e8bd bcf6 803e
000001c0: d82c 2d3e 69f2 383e 69f1 c33c 9b30 bc3e
000001d0: bc25 0f3e 9498 e53e b421 dabd b28c 9dbd
000001e0: 5e23 6b3d b236 623e 04b8 503e dc53 593e
000001f0: acca a33e 16b9 543e dcda 1b3e c615 373e
00000200: 42f3 613e 59ec ea3e 77f0 583e b450 893e
00000210: ec90 df3c 571e 543e 5412 3a3e 8cd0 293e
00000220: 3c95 e33e 7b89 dc3d e4e1 8c3e 2a09 4e3f
00000230: 96ff 403f 1c4d d63e 1122 d43e 99b3 093e
00000240: f221 953e 432d 113f c8c4 4f3e 980a b43e
00000250: d89d a13e 4e6d a53e 2b2f 833f 5018 b83e
00000260: 07d1 4a3e 5c72 3ebd 5ab2 263f 3baa ad3e
00000270: 957d 1b3f 1855 443e ed2a 343e 862e 403f
00000280: 0eb3 ba3e c9bb 693e 93b5 873f 4e1d 083a
00000290: b65f c43e 2885 a33d 9276 fc3e f23f 7d3e
000002a0: 38ee 223f bd68 d63d 4865 563e 5fd6 cb3d
000002b0: 4733 9fbc 5fa3 7fbe bece 203f 5fca de3e
000002c0: 9b36 733e c493 32bd 09a8 f93d cbae eb3e
000002d0: 7114 c93e 6191 013d 93ee 133f 3cf1 2b3f
000002e0: 2069 c33d 5cd9 bd3e 4121 d73e 5631 ab3e
000002f0: 93a3 7b3c cd13 883e df63 543f 9d4b 893f
00000300: 8536 333e 6df0 073e a88e 87bc feeb bc3e
00000310: 8164 803e 949a b23d b28d ba3e 4d57 c63e
00000320: d4f7 633e afb8 313f 942f 0fbd acd1 a43e
00000330: 0551 993e 182e 943e faa1 a03e 8751 33be
00000340: e1eb f7bd dfa4 93be 6c32 523e 52d9 fb3d
00000350: 610f 933e 562c 493e c6fa 593e 49e0 a73e
00000360: 4b25 f33e c0cd a43d a3b2 c93d bad1 d93e
00000370: 25fc 8b3d becf 3cbe 3dde b93e 769c 933e
00000380: 5569 ad3e b6b4 1f3e 4c90 843e 885c 973e
00000390: b802 143f 55ea 163f 8d8f e23d 6a05 703e
000003a0: c91e 273e 0580 013f c2f1 883e ba00 8e3e
000003b0: ee68 353e 1e9b e73d a115 9b3e a750 a43e
000003c0: 74a5 143f 3f98 683d 3ab7 13be df74 d73e
000003d0: 7e02 b13e 2181 45be 7e23 fa3e 96bf 823e
000003e0: 20c7 563e 26aa 33bd d9e9 b53d 5bb2 1d3e
000003f0: 3f36 e83d 3c4f 433f b757 f73e 591b fb3e

actor.bias f4 [5]
-0.062124465 0.13208391 0.22411923 0.14490958 0.026002107
00000000: 3976 7ebd 0141 073e 837f 653e 2d63 143e
00000010: 5f02 d53c

critic.weight f4 [1, 3136]
-0.39550835 -0.42045707 -0.24759856 0.24411389 0.25207055 -0.0013989074 0.008955501 0.120182514
0.2295216 -0.043872576 -0.02609427 0.08659711 -0.04296161 0.040703997 -0.21343365 -0.35235858
0.087359555 -0.016023511 0.015955007 -0.18752466 -0.12870474 -0.2660274 -0.3989665 -0.08032088
-0.16737059 0.19240852 0.23126699 0.050512318 -0.37480333 0.0705635 0.09474903 -0.038073726
0.03785011 0.01784714 -0.04103286 0.2548301 -0.2089211 0.0047571105 -0.040902164 0.087975316
-0.11488845 0.17398563 0.47117522 -0.13861133 0.06777679 0.056826178 0.2002395 0.33930668
-0.16548106 -0.16590065 -0.18814021 -0.66434807 0.13114 -0.13799132 -0.48420224 -0.33444354
0.42418167 0.0048932303 -0.40345895 0.30065757 0.1927392 0.07700156 -0.3012524 0.082503274
0.02566281 0.2250613 0.4699433 0.48469028 0.23429286 -0.015375922 0.20461962 -0.16300964
0.20090406 -0.32587245 0.24965988 -0.16265284 -0.1721365 -0.0016838151 -0.19296393 -0.17262584
-0.2873519 0.06101798 -0.059032474 -0.35473976 0.56619334 0.73798823 0.2758245 0.22491516
0.20252627 0.03954742 0.17848553 0.25670308 0.34665588 0.04924772 0.20150593 0.1686397
0.39236048 -0.21172643 -0.19520742 0.1460828 -0.24505934 -0.447477 0.027058017 0.045431893
-0.45716166 0.06675821 -0.015993146 0.09495745 -0.06774354 -0.015948402 0.3599989 0.27942738
0.0539307 -0.18491316 0.0647101 0.22541536 0.1054125 -0.14421473 -0.17917329 0.061871905
-0.09998628 0.022833707 -0.0015948446 0.09969571 0.17048667 -0.09795237 0.1318229 -0.10011387
0.24868725 0.115933985 0.17187454 0.017267674 0.50110865 -0.1520652 -0.18277343 -0.05198785
0.02444178 0.11732067 -0.32020858 -0.3891906 0.2681573 0.1947847 -0.06175156 0.28025404
0.26253372 0.13527308 0.279219 -0.63516843 -0.6185762 -0.2461236 -0.8118088 -0.8417486
0.1901186 0.20798947 0.03272293 -0.093168296 0.55196124 0.028926427 0.01833763 0.0012298232
0.10072107 0.12140097 0.7085917 -0.049184505 0.16067597 0.029704519 -0.05712468 0.38939518
-0.1107762 0.2972448 0.4138146 -0.30533245 -0.17766021 0.13428305 0.25988698 -0.48290256
0.08579534 0.24584109 0.19760093 -0.36518246 -0.62264097 0.12883127 -0.017604442 -0.19013974
0.31216708 -0.08285876 -0.3111528 0.3101944 -0.05765433 -0.23292376 0.64726174 0.45214835
-0.15097336 0.030901225 -0.04899406 0.039291132 -0.11691346 -0.1927688 0.096951835 -0.13758108
-0.14864114 -0.17422073 0.19494627 0.3077904 0.09574926 0.2835702 0.11854564 0.066530675
0.038845897 0.2752156 -0.24757832 -0.08278377 0.106136926 0.10012428 0.12284576 -0.11202277
0.13010636 0.054120857 0.20267889 -0.2595655 -0.1667556 0.035961904 -0.005453705 -0.01166312
0.16463791 0.3394481 0.07550474 0.050213665 -0.1629897 -0.09832433 0.2049778 -0.13240227
-0.08998089 -0.106494084 0.04099654 -0.4415867 -0.37667465 -0.19068816 0.07130384 0.13170628
-0.011452936 -0.02169856 0.31482798 0.19681232 0.3993868 0.06729086 0.335912 -0.06256555
-0.04894134 -0.20272335 0.17856644 -0.053609792 -0.12517397 -0.03621216 0.24533044 -0.10310105
00000000: 1280 cabe 2646 d7be 7a8a 7dbe fef8 793e
00000010: 640f 813e 8b5b b7ba 18ba 123c 4022 f63d
00000020: b607 6b3e bbb3 33bd a7c3 d5bc d359 b13d
00000030: 83f8 2fbd 3cb9 263d 5a8e 5abe 5868 b4be
00000040: 91e9 b23d bd43 83bc 13b4 823c 7706 40be
00000050: 2dcb 03be be34 88be 5645 ccbe 467f a4bd
00000060: 3263 2bbe bd06 453e 41d1 6c3e 01e6 4e3d
00000070: 39e6 bfbe 9983 903d c80b c23d 32f3 1bbd
00000080: b808 1b3d 2a34 923c 1212 28bd 1779 823e
00000090: 6aef 55be 89e1 9b3b 0789 27bd 672c b43d
000000a0: a34a ebbd 4a29 323e e13d f13e 21f0 0dbe
000000b0: 8fce 8a3d 91c2 683d 950b 4d3e 9bb9 ad3e
000000c0: de73 29be dce1 29be d4a7 40be b712 2abf
000000d0: 9049 063e 994d 0dbe 5be9 f7be 2f3c abbe
000000e0: 572e d93e 6457 a03b 2c92 cebe caef 993e
000000f0: 6d5d 453e feb2 9d3d c13d 9abe 7af7 a83d
00000100: d03a d23c 7876 663e 699c f03e 5329 f83e
00000110: 78ea 6f3e 4beb 7bbc ce87 513e 00ec 26be
00000120: cbb9 4d3e c1d8 a6be d7a6 7f3e 778e 26be
00000130: 8d44 30be 76b3 dcba 5698 45be d4c4 30be
00000140: ca1f 93be fded 793d 09cc 71bd 73a0 b5be
00000150: 0cf2 103f ccec 3c3f de38 8d3e 2950 663e
00000160: 0c63 4f3e 7afc 213d e9c4 363e 966e 833e
00000170: e17c b13e fab7 493d 9257 4e3e e3af 2c3e
00000180: 79e3 c83e d0ce 58be 74e4 47be bb96 153e
00000190: d6f0 7abe b51b e5be c6a8 dd3c cb16 3a3d
000001a0: 1811 eabe 87b8 883d 0f04 83bc 0d79 c23d
000001b0: 20bd 8abd 39a6 82bc c751 b83e 1b11 8f3e
000001c0: 70e6 5c3d e059 3dbe bb86 843d 49d3 663e
000001d0: 82e2 d73d 07ad 13be 3479 37be 656d 7d3d
000001e0: 9bc5 ccbd c10d bb3c 1b0a d1ba 442d cc3d
000001f0: 0f94 2e3e 419b c8bd 95fc 063e 8008 cdbd
00000200: dfa7 7e3e cc6e ed3d e1ff 2f3e f074 8d3c
00000210: a848 003f fbb6 1bbe f528 3bbe 36f1 54bd
00000220: 213a c83c d245 f03d 61f2 a3be fe43 c7be
00000230: ea4b 893e a475 473e 34ef 7cbd 757d 8f3e
00000240: d26a 863e 0785 0a3e cbf5 8e3e 669a 22bf
00000250: 035b 1ebf d307 7cbe b4d2 4fbf d67c 57bf
00000260: 73ae 423e 31fb 543e 7b08 063d 05cf bebd
00000270: 554d 0d3f 1df7 ec3c cc38 963c 0532 a13a
00000280: d946 ce3d 12a1 f83d 4466 353f b175 49bd
00000290: 3e88 243e e456 f33c 92fb 69bd ce5e c73e
000002a0: a2de e2bd 7830 983e 82df d33e 8954 9cbe
000002b0: 8fec 35be 7f81 093e e80f 853e 013f f7be
000002c0: 78b5 af3d c4bd 7b3e e657 4a3e 32f9 babe
000002d0: 6665 1fbf 58ec 033e 3137 90bc feb3 42be
000002e0: 5dd4 9f3e dbb1 a9bd 6b4f 9fbe cdd1 9e3e
000002f0: f226 6cbd 9183 6ebe f2b2 253f fd7f e73e
00000300: c398 1abe 9124 fd3c ffad 48bd bdef 203d
00000310: 5370 efbd 2f65 45be af8e c63d 0ee2 0cbe
00000320: 6235 18be eb66 32be ff9f 473e b496 9d3e
00000330: 3018 c43d 1d30 913e 0ec8 f23d 3c41 883d
00000340: e01c 1f3d 0fe9 8c3e 2c85 7dbe 8a8a a9bd
00000350: 515e d93d f50d cd3d 8f96 fb3d 326c e5bd
00000360: 9a3a 053e d5ad 5d3d 0e8b 4f3e c5e5 84be
00000370: fbc1 2abe ca4c 133d feb4 b2bb ac16 3fbc
00000380: d796 283e 24cc ad3e 3ba2 9a3d d8ac 4d3d
00000390: c6e6 26be 445e c9bd b3e5 513e 7694 07be
000003a0: e747 b8bd 9219 dabd fdeb 273d a717 e2be
000003b0: 80db c0be c243 43be bf07 923d 03de 063e
000003c0: 18a5 3bbc 2ec1 b1bc 2231 a13e 2b89 493e
000003d0: 6d7c cc3e cacf 893d a8fc ab3e 5e22 80bd
000003e0: b776 48bd b696 4fbe 1fda 363e f195 5bbd
000003f0: 9b2d 00be 3453 14bd e737 7b3e a526 d3bd
