PARALLEL/best_pred1_nowalls_6x8x8.pth (torch, 331302 bytes, 9 tensors)

network.0.weight f4 [32, 6, 3, 3]
-0.10348275 -0.05018076 -0.09253382 0.040800713 0.075785935 0.057460986 -0.0022357088 0.11842278
-0.12419229 0.11323918 -0.029462079 0.13252285 -0.04057774 0.012201163 0.022220913 0.10278829
0.008720481 -0.14763702 0.034766693 0.051509388 0.010533784 0.123327225 -0.09044199 -0.0016925094
0.09881212 -0.066484146 -0.0060763867 0.0023229953 -0.08819636 0.19432747 -0.021944903 -0.02978387
-0.0069772224 -0.13657516 -0.036546487 -0.12557052 0.112900116 -0.04534153 -0.0027092209 -0.003243468
-0.12897108 0.04013922 0.07271189 0.053222064 0.0046001486 -0.111488886 0.020037692 -0.023022667
0.014563402 0.08668133 -0.06558028 -0.06439005 0.016033145 0.017331272 -0.0545699 0.045425095
-0.04990396 -0.03800035 -0.031855892 0.007324705 0.025952114 0.036350228 -0.07909007 -0.06304675
-0.073223904 0.046161845 -0.107801676 -0.15402304 0.07991593 0.02189725 0.030962296 0.10921021
0.086817704 -0.0817704 0.10332447 0.025889702 -0.06350164 -0.06694264 -0.0038604522 -0.007998397
-0.08275017 -0.09205504 0.08417132 -0.057243206 -0.06410741 -0.03510154 0.19360328 0.027792672
0.12254065 0.21531284 0.029543545 -0.07176177 -0.0030525464 0.04457349 -0.08119755 0.10439497
-0.100129105 -0.0467377 -0.0040460886 -0.03976265 -0.056363855 -0.04154344 -0.051370766 -0.04782174
-0.014736381 -0.030543452 0.07674971 0.018284643 -0.050843325 -0.023782473 0.073609106 0.018511962
0.08191373 0.07784267 -0.018241702 0.01753556 0.046974137 -0.059886884 -0.025792688 0.04995924
-0.034233652 -0.017426578 -0.012388077 0.10021314 0.042846154 0.06843923 -0.028151 0.09575471
0.04798307 0.009455759 -0.11193122 -0.039290395 0.033151798 0.0057266783 0.11458139 -0.10156172
0.122273244 -0.007009003 -0.097590394 0.012181095 0.13703325 -0.010604277 0.06131978 0.0061850064
-0.10886147 0.016201392 -0.015007433 0.06830655 0.0775589 -0.088595025 -0.12521973 0.10471647
0.02108141 -0.10329609 -0.117289916 -0.026396912 -0.1024572 -0.06333232 -0.054946654 0.116882995
0.022056058 -0.12763353 0.055428717 0.10523579 0.022235977 -0.066417746 -0.1021726 0.094969444
0.060397994 0.03520362 -0.09816886 0.040402643 -0.05629399 -0.015096713 -0.098689295 -0.11623516
0.09043008 0.037149794 0.13488136 -0.101969115 -0.01835284 -0.11488151 0.023401543 -0.008334069
-0.13096039 -0.02027265 -0.11661 0.12587175 0.068473235 0.15606974 -0.024888244 -0.11117641
0.12065853 -0.14278062 -0.079104975 0.05965424 -0.03839663 -0.037312947 0.044227682 -0.1260739
0.070530474 -0.10073976 -0.034002073 -0.041391905 0.07774903 -0.05268254 -0.03958991 0.03815505
-0.13125958 -0.118004315 -0.101695955 0.09644751 -0.026268836 -0.10306163 0.10073068 -0.112945445
0.099071205 0.13653585 -0.11261873 0.10610488 -0.071367435 0.1048941 0.0358043 -0.041840743
0.05109619 -0.04682574 0.17349006 0.18586992 -0.06846898 0.098240145 0.18684897 0.08334518
-0.015858976 -0.07304016 0.14032377 -0.10212059 -0.10198675 0.029562851 -0.06541865 -0.04183413
0.07687049 0.05797091 0.048250347 -0.0772716 -0.11092295 -0.17160007 -0.14941368 -0.033017576
0.08753055 -0.10295747 -0.03731791 -0.04557577 -0.018916767 0.018267987 0.0052129393 -0.06855262
00000000: c4ee d3bd 578a 4dbd 5f82 bdbd a61e 273d
00000010: a835 9b3d 365c 6b3d f884 12bb a487 f23d
00000020: 8758 febd f1e9 e73d 755a f1bc 12b4 073e
00000030: d834 26bd 63e7 473c a208 b63c ab82 d23d
00000040: 59e0 0e3c 292e 17be 8567 0e3d 82fb 523d
00000050: e495 2c3c fc92 fc3d a639 b9bd 31d7 ddba
00000060: 025e ca3d d728 88bd 6d1c c7bb 653d 183b
00000070: 4ba0 b4bd c8fd 463e ccc5 b3bc 4dfd f3bc
00000080: 2fa1 e4bb 5cda 0bbe c5b1 15bd 8f95 00be
00000090: 2d38 e73d 0ab8 39bd 2f8d 31bb 5d90 54bb
000000a0: ff10 04be 0669 243d f9e9 943d 61ff 593d
000000b0: d8bc 963b 4954 e4bd 1626 a43c 089a bcbc
000000c0: 569b 6e3c fb85 b13d f44e 86bd eede 83bd
000000d0: f157 833c 50fa 8d3c b084 5fbd aa0f 3a3d
000000e0: 1868 4cbd 41a6 1bbd 537b 02bd 1404 f03b
000000f0: 8799 d43c fae3 143d faf9 a1bd a81e 81bd
00000100: 6af6 95bd 3414 3d3d 20c7 dcbd 37b8 1dbe
00000110: f7aa a33d dd61 b33c a4a4 fd3c 9aa9 df3d
00000120: 7bcd b13d 3d77 a7bd c89b d33d a416 d43c
00000130: 260d 82bd 3919 89bd a4ff 7cbb b50b 03bc
00000140: ec78 a9bd 5a87 bcbd 0362 ac3d da77 6abd
00000150: bf4a 83bd a2c6 0fbd f03f 463e 75ad e33c
00000160: 98f6 fa3d f87a 5c3e 4e05 f23c d6f7 92bd
00000170: 3b0d 48bb b192 363d e74a a6bd 08cd d53d
00000180: 7d10 cdbd 0870 3fbd 0d95 84bb 29de 22bd
00000190: c9dd 66bd 7429 2abd 276a 52bd bbe0 43bd
000001a0: dd70 71bc 4336 fabc f42e 9d3d adc9 953c
000001b0: 1741 50bd 76d3 c2bc 5fc0 963d 66a6 973c
000001c0: 63c2 a73d fa6b 9f3d 9f6f 95bc bca6 8f3c
000001d0: f467 403d f34b 75bd 304b d3bc 0fa2 4c3d
000001e0: 9638 0cbd 2fc2 8ebc 5cf7 4abc 8c3c cd3d
000001f0: 737f 2f3d de29 8c3d ed9c e6bc 0c1b c43d
00000200: e589 443d 54ec 1a3c 323c e5bd f7ee 20bd
00000210: 2eca 073d dca6 bb3b a6a9 ea3d 97ff cfbd
00000220: 656a fa3d c7ab e5bb 79dd c7bd 3793 473c
00000230: 7252 0c3e 90bd 2dbc 732a 7b3d 98ab ca3b
00000240: c3f2 debd c8b8 843c bce1 75bc 4ee4 8b3d
00000250: 33d7 9e3d 4f71 b5bd 9a39 00be 9775 d63d
00000260: ecb2 ac3c e78c d3bd b235 f0bd 563e d8bc
00000270: 15d5 d1bd 60b4 81bd be0f 61bd 5a60 ef3d
00000280: e8ae b43c 5db2 02be 3909 633d dd85 d73d
00000290: 3928 b63c 0706 88bd de3f d1bd 577f c23d
000002a0: e363 773d ac31 103d c10c c9bd 3e7d 253d
000002b0: 8794 66bd 3458 77bc 9d1d cabd b30c eebd
000002c0: 6833 b93d 622a 183d 571e 0a3e 2fd5 d0bd
000002d0: b258 96bc ff46 ebbd 98b4 bf3c 9e8b 08bc
000002e0: 7b1a 06be d412 a6bc 39d1 eebd 86e4 003e
000002f0: b23b 8c3d bfd0 1f3e 6ee2 cbbc 75b0 e3bd
00000300: d21b f73d 1535 12be ca01 a2bd 0158 743d
00000310: c945 1dbd 76d5 18bd 1628 353d 8419 01be
00000320: 4872 903d a650 cebd c245 0bbd 8f8a 29bd
00000330: e23a 9f3d a6c9 57bd 0829 22bd 7848 1c3d
00000340: e968 06be 3fac f1bd f845 d0bd 4686 c53d
00000350: be31 d7bc fa11 d3bd e34b ce3d f14f e7bd
00000360: d8e5 ca3d 0ed0 0b3e a6a4 e6bd 844d d93d
00000370: 1729 92bd b8d2 d63d 88a7 123d 3361 2bbd
00000380: 3d4a 513d 59cc 3fbd 61a7 313e af54 3e3e
00000390: 7739 8cbd 2132 c93d 5655 3f3e e1b0 aa3d
000003a0: afea 81bc 1496 95bd 09b1 0f3e 9a24 d1bd
000003b0: 6ede d0bd cb2d f23c 37fa 85bd 445a 2bbd
000003c0: 476e 9d3d e872 6d3d 28a2 453d 9340 9ebd
000003d0: 922b e3bd eeb7 2fbe e6ff 18be 703d 07bd
000003e0: 3843 b33d 5edb d2bd aada 18bd a9ad 3abd
000003f0: 56f7 9abc bfa6 953c 4ed1 aa3b 5165 8cbd

network.0.bias f4 [32]
-0.04840578 0.052578367 -0.03527197 0.024486583 -0.004087336 0.06524207 0.046743095 0.014167699
-0.12307904 0.0057774773 0.031230027 0.042170297 0.052373152 -0.10012316 -0.0053957035 0.100775465
-0.13441177 0.018153265 -0.06220937 0.03985244 0.051610444 0.013052025 0.02910274 0.043176815
0.09700303 -0.039712567 0.12899442 0.09291815 -0.09485719 -0.08935487 0.071410395 -0.08176507
00000000: 2445 46bd 6a5c 573d 5779 10bd 1698 c83c
00000010: 0fef 85bb a29d 853d b075 3f3d a31f 683c
00000020: dd10 fcbd fe50 bd3b 1dd6 ff3c c3ba 2c3d
00000030: 3b85 563d 5f0d cdbd 71ce b0bb 5e63 ce3d
00000040: 3da3 09be 28b6 943c 41cf 7ebd 503c 233d
00000050: 7965 533d 29d8 553c df68 ee3c 2cda 303d
00000060: 86a9 c63d a5a9 22bd 1d17 043e df4b be3d
00000070: 7d44 c2bd b0ff b6bd 9d3f 923d 7274 a7bd

network.2.weight f4 [64, 32, 3, 3]
-0.04677145 -0.041457366 0.00096371217 -0.011157051 -0.006498794 0.024514586 -0.03788222 0.060481947
-0.052091394 -0.05046168 0.058230456 -0.05535621 -0.014501139 -0.012713684 -0.026896836 0.038507484
0.012495886 -0.01669423 -0.06217051 -0.016750827 -0.0029743481 0.027386803 0.004118873 -0.03356771
-0.0027797164 -0.0053269193 -0.0059748166 -0.056266863 0.05381429 0.046152174 -0.011489091 0.057491366
-0.018648608 0.027312877 -0.03377961 0.03347631 0.01515 -0.039089434 -0.040384803 0.029850855
0.0074971365 -0.022366636 -0.028329574 -0.021029534 0.037914976 0.067227125 -0.057062685 -0.04096424
0.05690384 -0.08309851 -0.02472156 -0.05676476 0.0754039 0.06160514 -0.04852811 -0.020273654
-0.019941954 0.040993866 0.07611311 0.020139232 0.039979417 -0.022467008 0.05928898 0.012311545
-0.008384516 -0.03679443 0.0102749225 0.043999948 -0.008362526 0.038582716 0.066250056 0.024417598
-0.06667126 0.04973057 0.012252451 -0.029993745 0.040390138 0.006749857 -0.0054332106 -0.060532242
-0.0058668787 0.0181884 0.061752114 -0.0359423 -0.015874041 0.065464646 -0.0072888383 -0.01181306
0.028181216 0.04732507 0.00052697957 -0.025575312 0.04213029 0.037671514 0.008160361 0.01026935
0.006013597 0.020708073 -0.017698329 0.028162824 -0.04989028 0.01625396 0.019807741 -0.06838187
0.020211762 -0.06686407 -0.041050095 -0.0018207995 0.041876014 0.024524193 -0.030339977 0.040765546
-0.036444746 0.05606729 -0.0018653277 -0.014024212 -0.02975399 0.0056317206 -0.0482347 -0.02245539
-0.0014127612 -0.0041834093 -0.0024016227 -0.054756705 0.013492065 -0.0045609185 -0.028410763 0.043968484
-0.03849389 0.010301548 -0.030122643 0.023526268 -0.041890394 0.02506429 0.005889592 -0.005504822
0.037094325 -0.02600487 -0.050544895 0.009329106 -0.008226851 0.012743907 -0.042463962 -0.0046177213
0.056351386 0.00912347 -0.040574223 0.039986555 -0.015495962 -0.037648685 0.025367742 0.043964643
0.024094801 -0.023360891 0.051979847 0.025920456 0.010258243 0.01615527 0.023678115 0.0039396114
0.011505157 -0.041027237 -0.012193794 0.0050384197 0.053542454 0.010000919 0.021586103 -0.035795163
-0.048764076 -0.025794925 -0.0077737295 -0.0025383148 -0.017432278 0.043849796 -0.0020092637 0.033237796
0.007203636 0.018847108 0.03368902 -0.016261335 -0.027765729 0.040313847 -0.04043164 0.06403026
-0.021402178 0.00978637 0.007353742 -0.015292953 0.04687219 -0.04345223 -0.046318345 -0.03434404
-0.0005630653 -0.033723723 -0.088455796 -0.012921529 -0.06590562 -0.049374737 0.03809742 -0.05385651
0.03659533 0.009771034 -0.06645199 -0.02092137 0.024699446 0.027759682 -0.0109368125 -0.03117884
0.05228007 -0.04385865 0.019101104 0.01096618 -0.021342212 -0.058264017 0.015876785 0.033136234
-0.054221503 -0.002387359 0.011464155 0.013950825 -0.08885365 -0.035020683 -0.031727653 -0.030919354
0.036964417 -0.025533265 -0.06398208 -0.06810469 0.0113591505 -0.021093266 -0.056629606 0.058653016
-0.026107376 -0.027173266 0.006005264 0.0044857413 0.030244697 -0.018863035 -0.019102557 0.022547677
0.04764843 -0.050186954 -0.050490413 -0.04967978 -0.061346747 0.06024988 -0.0429387 0.043678146
-0.048509773 0.036052853 -0.009442356 -0.056694187 0.00445618 -0.02808273 -0.030220715 0.021980494
00000000: 6c93 3fbd 33cf 29bd a1a1 7c3a 10cc 36bc
00000010: d6f3 d4bb d0d2 c83c 632a 1bbd ebbb 773d
00000020: c95d 55bd e8b0 4ebd 0f83 6e3d 31bd 62bd
00000030: 2f96 6dbc 0e4d 50bc c156 dcbc 06ba 1d3d
00000040: 8bbb 4c3c 56c2 88bc 81a6 7ebd 0839 89bc
00000050: 48ed 42bb 4a5a e03c 9cf7 863b 4c7e 09bd
00000060: e72b 36bb 708d aebb 65c8 c3bb 1578 66bd
00000070: 5f6c 5c3d 100a 3d3d be3c 3cbc 117c 6b3d
00000080: f7c4 98bc 41bf df3c 7d5c 0abd 751e 093d
00000090: b537 783c 3e1c 20bd 896a 25bd c889 f43c
000000a0: 8aaa f53b 3c3a b7bc 6c13 e8bc 2146 acbc
000000b0: bc4c 1b3d 60ae 893d 90ba 69bd 1eca 27bd
000000c0: 0014 693d 8d2f aabd de84 cabc 2a82 68bd
000000d0: 5c6d 9a3d ac55 7c3d 69c5 46bd ef14 a6bc
000000e0: 4f5d a3bc 2fe9 273d 31e1 9b3d 08fb a43c
000000f0: 75c1 233d bb0c b8bc 00d9 723d 5db6 493c
00000100: 365f 09bc c2b5 16bd 2658 283c 4a39 343d
00000110: fa02 09bc e908 1e3d 1cae 873d 6a07 c83c
00000120: f18a 88bd 48b2 4b3d 81be 483c 71b5 f5bc
00000130: 2170 253d e82d dd3b 1309 b2bb a8f0 77bd
00000140: f23e c0bb d7ff 943c c9ef 7c3d 3c38 13bd
00000150: 470a 82bc 5412 863d 35d7 eebb 918b 41bc
00000160: 4bdc e63c efd7 413d 0025 0a3a 5183 d1bc
00000170: d090 2c3d 724d 1a3d 09b3 053c c740 283c
00000180: b50d c53b faa3 a93c 16fc 90bc b9b5 e63c
00000190: c059 4cbd 0627 853c d843 a23c cb0b 8cbd
000001a0: 2393 a53c 08f0 88bd 2524 28bd e5a7 eeba
000001b0: 2f86 2b3d f6e6 c83c 8b8b f8bc c6f9 263d
000001c0: 1647 15bd d1a6 653d 037e f4ba cfc5 65bc
000001d0: a4be f3bc 4c8a b83b c091 45bd 5ef4 b7bc
000001e0: 662c b9ba fb14 89bb 8b64 1dbb 9148 60bd
000001f0: d20d 5d3c c273 95bb b0bd e8bc 4c18 343d
00000200: c5ab 1dbd d3c7 283c c3c3 f6bc 29ba c03c
00000210: 4395 2bbd a053 cd3c 7bfd c03b cb61 b4bb
00000220: 38f0 173d 2a08 d5bc 2a08 4fbd 1bd9 183c
00000230: eac9 06bc d2cb 503c b1ee 2dbd 4150 97bb
00000240: b6d0 663d 9b7a 153c 2831 26bd f1c8 233d
00000250: c7e2 7dbc 8235 1abd 03d0 cf3c 4514 343d
00000260: 7662 c53c 575f bfbc d2e8 543d 2357 d43c
00000270: 3112 283c 0f58 843c 9bf8 c13c db17 813b
00000280: 2080 3c3c 2d0c 28bd 7bc8 47bc 5419 a53b
00000290: 554f 5b3d e5da 233c 57d5 b03c f39d 12bd
000002a0: d7bc 47bd e14f d3bc c5ba febb db59 26bb
000002b0: 23ce 8ebc d89b 333d daad 03bb 5b24 083d
000002c0: 7b0c ec3b 4065 9a3c 7ffd 093d 7e36 85bc
000002d0: f474 e3bc 2220 253d a69b 25bd 4c22 833d
000002e0: 9f53 afbc 0357 203c a9f7 f03b 4b8f 7abc
000002f0: 0efd 3f3d f7fa 31bd 4eb8 3dbd 56ac 0cbd
00000300: ac9a 13ba e321 0abd 5028 b5bd d2b4 53bc
00000310: 87f9 86bd 2a3d 4abd 0a0c 1c3d a598 5cbd
00000320: fce4 153d b016 203c fb17 88bd 4b63 abbc
00000330: 7e56 ca3c 4668 e33c 5130 33bc c46a ffbc
00000340: a023 563d 21a5 33bd eb79 9c3c 7eab 333c
00000350: ddd5 aebc 40a6 6ebd 0810 823c dcb9 073d
00000360: 5e17 5ebd 3d75 1cbb 27d4 3b3c 0092 643c
00000370: e7f8 b5bd d971 0fbd dbf4 01bd 964a fdbc
00000380: 0068 173d 232b d1bc 0909 83bd 797a 8bbd
00000390: bb1b 3a3c c9cb acbc 72f4 67bd 253e 703d
000003a0: 23df d5bc 789a debc cec7 c43b 20fd 923b
000003b0: bac3 f73c a786 9abc f77c 9cbc e8b5 b83c
000003c0: 002b 433d d690 4dbd 09cf 4ebd 067d 4bbd
000003d0: ba46 7bbd 94c8 763d 7ee0 2fbd dbe7 323d
000003e0: 2fb2 46bd 28ac 133d 1db4 1abc 2a38 68bd
000003f0: 2605 923b c10d e6bc 6f91 f7bc 7010 b43c

network.2.bias f4 [64]
-0.05614374 0.045394387 0.0073751975 -0.040983737 0.039657775 0.022520615 0.04565882 -0.028836302
0.02323079 0.035535645 0.032187905 0.0076103183 0.034205694 -0.0401662 -0.015488622 0.05090923
-0.03805994 -0.036988858 0.00063295476 0.04322625 -0.017891765 0.029279485 -0.011821168 0.0076386295
-0.006386491 -0.03183663 0.046495188 0.04528193 -0.03326581 -0.030216128 -0.027938962 -0.062413942
-0.06379054 0.023693148 0.05043643 0.028611688 -0.03257296 0.051086444 -0.030354617 -0.030851139
-0.020011712 -0.00043858515 -0.032501265 0.013534333 0.03299925 0.020962564 -0.026808845 0.029528443
0.047385007 -0.03731859 0.019349739 0.047489617 -0.04256497 0.04222704 -0.05244666 0.019555768
0.0031746523 -0.017639887 0.009962817 0.032974463 0.04308431 0.014488819 -0.005344907 -0.007697534
00000000: faf6 65bd 77ef 393d a4ab f13b 90de 27bd
00000010: 3170 223d 277d b83c be04 3b3d 1c3a ecbc
00000020: 7f4e be3c d38d 113d 77d7 033d fa5f f93b
00000030: 451b 0c3d 5085 24bd fdc3 7dbc 3286 503d
00000040: bde4 1bbd a181 17bd e0ec 253a 020e 313d
00000050: c091 92bc 88db ef3c 92ad 41bc 784d fa3b
00000060: c545 d1bb 2067 02bd bd71 3e3d 8c79 393d
00000070: bb41 08bd d087 f7bc 40e0 e4bc c3a5 7fbd
00000080: 9da4 82bd 2218 c23c 6e96 4e3d 0f63 ea3c
00000090: 396b 05bd 0540 513d 3faa f8bc 87bb fcbc
000000a0: 9aef a3bc e7f1 e5b9 0c20 05bd 1bbf 5d3c
000000b0: 392a 073d afb9 ab3c 399e dbbc a2e5 f13c
000000c0: c816 423d 61db 18bd 5883 9e3c 7984 423d
000000d0: 9b58 2ebd 43f6 2c3d 4fd2 56bd 6b33 a03c
000000e0: d40d 503b 8681 90bc 153b 233c 3b10 073d
000000f0: 2c79 303d 8362 6d3c 5424 afbb 983b fcbb

network.4.weight f4 [64, 64, 3, 3]
0.025419032 -0.0049039116 -0.022812096 -0.013074363 -0.0031566273 0.03164227 -0.0067640455 0.03392175
-0.0110704815 0.026235757 0.017524203 -0.014129139 -0.010659915 0.01916942 0.024342125 0.022222564
-0.009339114 0.041355498 0.009290104 0.015203678 -0.005153494 -0.028074738 0.0053955778 -0.03799665
-0.028524555 -0.022309992 -0.001560682 -0.025679108 -0.008444773 0.012893086 0.028467456 -0.02441365
-0.014744892 0.031139141 -0.026159974 -0.016756319 -0.03961856 0.020386828 0.027083335 0.029616375
-0.02067014 0.025214953 0.0038112567 -0.012180322 -0.043487396 -0.043058246 -0.039720602 -0.035004143
-0.033909783 -0.018184884 -0.0077547487 0.028481942 0.03303071 -0.014212366 -0.0058313413 -0.034857407
-0.035854556 -0.036264744 -0.033082426 0.017343825 -0.023138057 0.012260771 -0.021677678 -0.043507732
-0.036476173 -0.038825817 0.00929759 0.014332416 0.0082351975 0.027373929 0.011220833 0.037295867
-0.004889101 -0.006995246 0.018735552 -0.029729938 6.04433e-05 0.01658778 0.035151727 0.036906794
0.0055133887 -0.005185329 0.0076079513 0.008030661 0.00046283237 -0.012000999 0.005971864 -0.016732918
0.02450888 -0.036536913 -0.047671925 0.03723156 0.02399301 -0.015483093 0.023447592 0.022941086
-0.027460353 -0.008944047 -0.024696227 0.0006458904 -0.04488878 -0.038397893 0.03536997 0.029333029
-0.023029724 -0.031294663 0.0106897475 -0.035136495 0.013886086 -0.0007708734 -0.00185163 -0.0025325834
0.016885512 -0.007088676 -0.030624684 0.021780755 0.0024682132 -0.013289151 0.01862663 0.009867962
-0.036171384 0.025395278 0.02148009 0.025601475 0.036584932 0.024676457 -0.004539732 -0.024189286
-0.038779877 0.033920866 0.0048860423 -0.028440583 -0.00030661203 0.014671392 -0.00059014093 -0.0060919216
-0.011075844 0.022038247 0.024445407 0.025922943 -0.028962597 -0.005147754 0.0016057043 -0.012562023
0.016874166 0.02068242 0.010687424 -0.028874183 -0.009132768 -0.023418963 -0.017979326 -0.044139158
-0.0043631652 -0.037348192 0.007693124 0.032263134 -0.027099434 -0.04099451 -0.0047229207 -0.033018235
-0.0404431 -0.033051293 -0.008331655 3.0611867e-05 -0.0026497487 -0.008063932 0.013161994 0.013467965
0.017991237 -0.047528986 0.0016096396 -0.041218854 0.031601533 0.03559321 -0.013784447 0.02759941
0.0174684 0.008191434 0.032715138 -0.02378575 -0.020981302 -0.05122147 -0.008990006 -0.03915949
0.005282296 -0.016919145 0.007635062 0.025219804 -0.024708914 -0.00097309303 -0.012960309 0.0034534372
0.0320105 0.005021515 0.024044229 -0.043162007 0.017671632 0.008039664 -0.0318074 -0.037146006
-0.054330546 -0.042742077 -0.050558068 0.032803908 -0.017449027 0.0020710342 0.022141408 0.017514205
0.0038473364 -0.028686836 -0.008418771 -0.039570242 -0.039935995 -0.010949445 -0.010524194 -0.004461962
-0.021091657 -0.03288402 -0.03019457 0.029367795 -0.022915281 0.021140503 0.029334143 0.026134344
-0.0051193275 0.008092718 0.012637529 -0.03102556 0.006998438 -0.03803114 -0.016578998 0.003899159
0.030732604 -0.013917995 -0.013878871 0.029622415 0.008029581 0.0026748863 0.00019385734 -0.008738713
-0.03258434 0.007902274 -0.028394016 0.016113177 -0.05255653 0.00901999 0.012116581 -0.038746655
-0.03201848 -0.045710303 0.010592781 0.0069830925 0.001317058 0.012121205 -0.018135728 0.01321463
00000000: 933b d03c feb0 a0bb 6fe0 babc da35 56bc
00000010: 6bdf 4ebb 539b 013d eda4 ddbb 88f1 0a3d
00000020: f760 35bc 5fec d63c eb8e 8f3c e77d 67bc
00000030: eda6 2ebc 3009 9d3c 2369 c73c 180c b63c
00000040: 1503 19bc 6264 293d 8535 183c d918 793c
00000050: a4de a8bb fefc e5bc 63cd b03b 60a2 1bbd
00000060: 54ac e9bc 72c3 b6bc cc8f ccba fe5c d2bc
00000070: f25b 0abc 863d 533c 9534 e93c 23ff c7bc
00000080: 8f94 71bc 8317 ff3c 714d d6bc 8c44 89bc
00000090: 1247 22bd 4702 a73c dfdd dd3c 0a9e f23c
000000a0: 6d54 a9bc 978f ce3c 47c6 793b f98f 47bc
000000b0: d71f 32bd d85d 30bd 12b2 22bd 8160 0fbd
000000c0: fce4 0abd 77f8 94bc 8c1b febb f652 e93c
000000d0: 364b 073d fcda 68bc d614 bfbb a4c6 0ebd
000000e0: 3adc 12bd 578a 14bd 7081 07bd a314 8e3c
000000f0: 068c bdbc 67e1 483c 6395 b1bc 2a35 32bd
00000100: 0a68 15bd d207 1fbd eb54 183c 82d2 6a3c
00000110: ecec 063c 4a3f e03c 96d7 373c 8dc3 183d
00000120: c034 a0bb 6038 e5bb 4d7b 993c 338c f3bc
00000130: 8084 7d38 19e3 873c 42fb 0f3d 942b 173d
00000140: a8a9 b43b b1e9 a9bb 1f4c f93b 0993 033c
00000150: 4fa8 f239 d79f 44bc a0af c33b 7913 89bc
00000160: d9c6 c83c bba7 15bd a343 43bd 1f80 183d
00000170: fd8c c43c cdac 7dbc 2a15 c03c f2ee bb3c
00000180: 89f4 e0bc 0d8a 12bc be4f cabc f950 293a
00000190: 4cdd 37bd 1c47 1dbd 1ae0 103d d24b f03c
000001a0: d5a8 bcbc d52e 00bd 0d24 2f3c 49eb 0fbd
000001b0: 7782 633c 7014 4aba 65b2 f2ba b3f9 25bb
000001c0: 7c53 8a3c 2048 e8bb 9ee0 fabc 8e6d b23c
000001d0: bfc1 213b bdba 59bc e096 983c 3cad 213c
000001e0: 7228 14bd c209 d03c 04f7 af3c 2fba d13c
000001f0: 15da 153d 4826 ca3c 08c2 94bb 9c28 c6bc
00000200: a6d7 1ebd 9bf0 0a3d 181b a03b 3afc e8bc
00000210: c5c0 a0b9 4760 703c b0b3 1aba be9e c7bb
00000220: 7577 35bc 8e89 b43c bc41 c83c 5a5c d43c
00000230: f842 edbc 7eae a8bb 7f76 d23a f1d0 4dbc
00000240: b13b 8a3c 2e6e a93c 4e1a 2f3c 8d89 ecbc
00000250: 9ba1 15bc 20d9 bfbc 6149 93bc 43cb 34bd
00000260: e2f8 8ebb 6bfa 18bd 9a16 fc3b 5926 043d
00000270: a2ff ddbc dce9 27bd bbc2 9abb 213e 07bd
00000280: aaa7 25bd cb60 07bd 7e81 08bc 3e65 0038
00000290: 68a7 2dbb 951e 04bc 67a5 573c bda8 5c3c
000002a0: 5c62 933c c1ad 42bd 8bfa d23a 1ad5 28bd
000002b0: 9c70 013d 30ca 113d 29d8 61bc 2818 e23c
000002c0: e419 8f3c 5d35 063c 4f00 063d 55da c2bc
000002d0: fbe0 abbc 9bcd 51bd d14a 13bc b465 20bd
000002e0: 1c17 ad3b 059a 8abc 8b2f fa3b c399 ce3c
000002f0: 596a cabc 2b17 7fba 7a57 54bc 1053 623b
00000300: 711d 033d 858b a43b 67f8 c43c a5ca 30bd
00000310: 19c4 903c cbb8 033c 7a48 02bd 6926 18bd
00000320: b589 5ebd 5112 2fbd fa15 4fbd 645d 063d
00000330: 43f1 8ebc 30ba 073b e661 b53c f379 8f3c
00000340: 9823 7c3b a800 ebbc e3ee 09bc 6814 22bd
00000350: ed93 23bd 4d65 33bc ab6d 2cbc a635 92bb
00000360: 69c8 acbc 65b1 06bd 9a5a f7bc bb94 f03c
00000370: d4b8 bbbc d92e ad3c 284e f03c b117 d63c
00000380: 08c0 a7bb 5297 043c a30d 4f3c 5129 febc
00000390: 2753 e53b 8ac6 1bbd aed0 87bc 0889 7f3b
000003a0: f1c2 fb3c 4d08 64bc 3464 63bc b5aa f23c
000003b0: 818e 033c 254d 2f3b 2f46 4b39 d22c 0fbc
000003c0: 2877 05bd 8a78 013c 919a e8bc c8ff 833c
000003d0: 8445 57bd 95c8 133c a084 463c d0b4 1ebd
000003e0: cf25 03bd ba3a 3bbd 588d 2d3c 6dd2 e43b
000003f0: 22a1 ac3a 0598 463c 6191 94bc 2d82 583c

network.4.bias f4 [64]
-0.005007318 -0.025063887 -0.035429675 0.015310296 -0.00227995 -2.7231994e-05 -0.006093314 -0.013623937
-0.019463327 -0.042162504 -0.024933662 0.0036607292 -0.009718137 -0.013561799 -0.02796333 -0.012681693
0.0017649661 -0.0228869 -0.022082664 0.010334055 0.015492147 -0.004138738 0.012954529 -0.029820248
-0.02779103 0.018750755 -0.044144068 -0.03840974 -0.021370498 0.019926239 -0.011926131 -0.027965091
-0.0197022 -0.022364715 -0.012547724 0.015841119 -0.015611965 -0.015094611 -0.0073891105 -0.025880992
0.018326752 -0.010789303 0.014446648 -0.017404255 0.0043808524 0.024490485 -0.022895379 0.029986173
0.032301895 0.0007347118 -0.024828922 0.015731426 -0.00044966897 -0.009623838 -0.0015266198 -0.034196526
-0.02825408 -0.01755244 0.025520746 -0.034480505 -0.002536092 0.038281538 -0.010570846 -0.03600235
00000000: 6e14 a4bb c852 cdbc b51e 11bd 09d8 7a3c
00000010: 376b 15bb 4370 e4b7 6caa c7bb ef36 5fbc
00000020: 8e71 9fbc 97b2 2cbd ae41 ccbc d8e8 6f3b
00000030: d238 1fbc 4f32 5ebc 5a13 e5bc e0c6 4fbc
00000040: 6f56 e73a 4f7d bbbc b4e6 b4bc 2b50 293c
00000050: c6d2 7d3c 409e 87bb 3c3f 543c 9849 f4bc
00000060: 04aa e3bc 2f9b 993c 69d0 34bd 8853 1dbd
00000070: 2f11 afbc 5a3c a33c d265 43bc 0c17 e5bc
00000080: 8266 a1bc 3536 b7bc f894 4dbc 3cc5 813c
00000090: 54c9 7fbc 634f 77bc 5a20 f2bb 6004 d4bc
000000a0: fc21 963c 9ec5 30bc a2b1 6c3c 5e93 8ebc
000000b0: 418d 8f3b 45a0 c83c 178f bbbc 90a5 f53c
000000c0: fe4e 043d ad99 403a 0666 cbbc 31df 803c
000000d0: 8cc1 ebb9 4dad 1dbc dc18 c8ba a811 0cbd
000000e0: 1a75 e7bc 22ca 8fbc e210 d13c 6e3b 0dbd
000000f0: 9034 26bb 1acd 1c3d 5731 2dbc 3377 13bd

actor.weight f4 [5, 4096]
0.0043328847 0.003167836 0.0027084441 7.751127e-05 0.0022832185 0.0009691987 -6.924326e-05 0.00015606717
0.0017821688 0.0032334398 0.0027067387 0.005365396 0.0011601275 -0.0024134628 0.00012772535 -0.0013834967
-0.0036351753 0.0012114331 0.0051810625 0.0009821258 0.0072666034 -0.0018339904 0.0034421165 0.0066807237
-0.0017775255 -0.00041494204 -0.0035265156 0.009239057 0.0043310295 0.005458203 0.005891033 0.0019332238
0.0052350434 0.002947875 0.002327406 0.0023524673 -0.005277242 -0.0014865729 0.0010081354 -0.0006808615
-0.0027308736 -0.0009115851 0.0029424955 0.00082362635 0.0009466024 0.0014327031 0.00025009114 0.0015793295
0.002537653 0.005765899 -0.0018053986 0.0018103134 0.008847659 0.00015542367 0.0020172426 0.00307854
0.00026390093 -0.00052131247 0.0038501837 0.0049134074 0.0011960925 0.0017251153 0.002773726 0.0039374055
0.0020079091 0.0014606668 0.0010231246 0.0006188141 0.001880058 0.0012709518 0.001690481 -0.0004007411
0.0018082017 0.0012654874 -0.0012584624 0.001350714 0.0021138096 0.0011560536 0.0011099324 -0.0028271263
0.0012098481 0.0017829819 -0.0019669675 0.0023468307 0.00068687845 0.0011358173 0.0008949867 0.0007638887
0.00034626332 0.00054694084 0.0029369462 0.00073039636 0.0010779316 0.0008438536 0.004498298 0.003633492
0.0017634367 -0.0002819561 -0.0004721199 0.0012158192 0.0017957275 -0.002243918 0.0018472153 -0.0016023007
0.001180514 0.0015952365 -0.0019496449 0.0036850742 0.0014033227 0.0015470196 0.00094941695 -0.0025660035
0.0015507803 0.0004974158 -0.002008369 0.0038461748 -0.0036823743 0.00085624715 -0.00040870177 0.003143589
0.0013424777 -0.0005690592 0.0012549018 0.00097490515 -0.00052378286 -0.0009669192 -0.00045477037 0.0016211205
-0.0048662852 -0.005695913 -0.010634351 -0.0020722472 -0.011591048 -0.0098344935 -0.004309018 0.00019340416
0.0027590257 0.0016420047 0.001728363 -0.006661666 -0.010342442 -0.009364355 0.0010031032 -0.00012154886
0.0030620599 0.005565494 0.010731128 0.00324824 -0.0034544424 -0.0037029567 0.0026144453 9.153976e-05
0.005326535 0.0004370231 0.0037173585 0.0045684935 -0.0009314852 0.011228793 0.008893353 0.00025460872
0.0039778184 0.0067688175 0.0063528745 -0.000695412 0.0055559543 0.006815962 0.008812176 -0.00029848487
0.0022653183 0.011597448 0.0014456052 -0.0054378198 0.008914253 0.009730765 -0.0023437538 -0.00015638575
0.003257369 0.0058804117 0.007248614 -0.008888533 0.004719507 -0.005171587 -0.0042431434 0.00013976546
0.0014043355 0.0011046795 0.00043886347 0.0004982383 0.0022436588 0.0010939348 0.0008859049 -0.0008500675
0.0050855414 0.0039853686 0.0053294576 -0.0016844161 -0.003812063 -0.0041840225 -0.00055836607 -0.00032316535
0.007994987 0.00858453 0.005761042 0.002852167 0.0048918095 -0.005179169 -0.00028939827 0.0029963609
0.004271076 0.0054780194 0.0024455786 0.005565448 0.010568439 -0.002422145 0.0037087349 0.008800224
0.0052131247 0.0061748736 0.0030924901 0.0006004342 0.0004952891 -0.0025569326 0.001104632 0.017293606
-0.0012917783 0.0043868697 -0.006973386 -0.0002515755 0.004787664 0.0034977028 -0.001034163 0.006571719
-0.0002945977 -0.00014288697 -0.005193138 -0.0040707784 0.004008927 0.002576195 0.004079478 0.0073899934
-0.003292812 -0.0017028475 0.0020486217 -0.0016010079 0.001944858 0.00278327 0.0058992924 0.0061651533
0.0007847065 0.0014554091 0.001343287 0.003293363 0.0061031627 0.0025161274 0.0024181448 0.00056522945
00000000: dffa 8d3b 789b 4f3b 2780 313b 8c8d a238
00000010: 0da2 153b d311 7e3a b136 91b8 f6a5 2339
00000020: a997 e93a 1ee8 533b 8a63 313b 34d0 af3b
00000030: 6b0f 983a 302b 1ebb 03ee 0539 7256 b5ba
00000040: 1f3c 6ebb f3c8 9e3a e7c5 a93b acba 803a
00000050: b01c ee3b 8262 f0ba 2295 613b f9e9 da3b
00000060: dcfb e8ba 948c d9b9 1d1d 67bb 6a5f 173c
00000070: 4feb 8d3b bada b23b 9109 c13b 3a64 fd3a
00000080: ba8a ab3b 2331 413b 6587 183b da2b 1a3b
00000090: b7ec acbb 1cd9 c2ba 6923 843a d87b 32ba
000000a0: 75f8 32bb 71f7 6eba e2d6 403b a1e8 573a
000000b0: 6925 783a 8ac9 bb3a aa1e 8339 8101 cf3a
000000c0: c14e 263b deef bc3b 20a3 ecba 0a48 ed3a
000000d0: c6f5 103c 39f9 2239 b733 043b 55c1 493b
000000e0: 2f5c 8a39 b0a8 08ba 5d53 7c3b a600 a13b
000000f0: 34c6 9c3a 441d e23a 66c7 353b 5a05 813b
00000100: 2097 033b d873 bf3a 5d1a 863a e937 223a
00000110: 476c f63a 1196 a63a 2193 dd3a 8f1a d2b9
00000120: 2e01 ed3a b6de a53a fef2 a4ba 710a b13a
00000130: d787 0a3b b986 973a 277b 913a 4f47 39bb
00000140: c493 9e3a f2b2 e93a 3de8 00bb 49cd 193b
00000150: a20f 343a b4df 943a 8a9d 6a3a b43f 483a
00000160: ad8a b539 9460 0f3a c879 403b 1278 3f3a
00000170: 6249 8d3a 0e36 5d3a 7566 933b e11f 6e3b
00000180: 1e23 e73a 82d3 93b9 dc86 f7b9 1f5c 9f3a
00000190: 9e5e eb3a b20e 13bb 431e f23a 4a04 d2ba
000001a0: 7abb 9a3a 4117 d13a 3a8b ffba 4981 713b
000001b0: b2ef b73a 5dc5 ca3a 4be2 783a 652a 28bb
000001c0: 8d43 cb3a 0265 023a d79e 03bb 1b10 7c3b
000001d0: fd53 71bb c675 603a 0647 d6b9 ac04 4e3b
000001e0: 14f6 af3a eb2c 15ba 847b a43a c790 7f3a
000001f0: 794e 09ba d978 7dba 3f6e eeb9 c77b d43a
00000200: 5c75 9fbb c8a4 babb b33b 2ebc 8ace 07bb
00000210: 61e8 3dbc db20 21bc aa32 8dbb 89cc 4a39
00000220: c5d0 343b 8938 d73a 3d8a e23a 1b4a dabb
00000230: 5973 29bc f46c 19bc 8f7a 833a 0ce8 feb8
00000240: d7ac 483b bf5e b63b 9dd1 2f3c 6de0 543b
00000250: ed63 62bb 4ead 72bb 1d57 2b3b 09f9 bf38
00000260: 378a ae3b 3f20 e539 ed9e 733b 4db3 953b
00000270: ea2e 74ba f9f8 373c 6db5 113c 017d 8539
00000280: 5c58 823b f5cc dd3b c62b d03b 4f4c 36ba
00000290: b90e b63b 6f58 df3b f260 103c f67d 9cb9
000002a0: bc75 143b 3903 3e3c 767a bd3a bd2f b2bb
000002b0: 160d 123c c96d 1f3c aa99 19bb 7bfb 23b9
000002c0: 9579 553b 78b0 c03b c885 ed3b 36a1 11bc
000002d0: 18a6 9a3b 6b76 a9bb 110a 8bbb 018e 1239
000002e0: ae11 b83a e5ca 903a 4217 e639 359c 023a
000002f0: 590a 133b 5c62 8f3a 123c 683a 10d7 5eba
00000300: 9da4 a63b b297 823b bba2 ae3b a0c7 dcba
00000310: ced3 79bb 201a 89bb 505f 12ba 856e a9b9
00000320: 68fd 023c 21a6 0c3c 1fc7 bc3b 6ceb 3a3b
00000330: 794b a03b 05b6 a9bb 61ba 97b9 985e 443b
00000340: 62f4 8b3b f580 b33b 0046 203b 5d5e b63b
00000350: 3f27 2d3c dabc 1ebb 3f0e 733b d12e 103c
00000360: dcd2 aa3b 9856 ca3b 60ab 4a3b 7566 1d3a
00000370: 4ad6 013a 3692 27bb 4dc9 903a 52ab 8d3c
00000380: e350 a9ba bbbf 8f3b 0081 e4bb e4e5 83b9
00000390: d6e1 9c3b b739 653b c18c 87ba 9357 d73b
000003a0: 3c74 9ab9 eed3 15b9 332b aabb 2a64 85bb
000003b0: 515d 833b 61d5 283b 24ad 853b c227 f23b
000003c0: 38cc 57bb 1532 dfba 2b42 063b e9d8 d1ba
000003d0: 9bea fe3a 8667 363b da4e c13b 0e05 ca3b
000003e0: c3b4 4d3a 6dc3 be3a 3b11 b03a 76d5 573b
000003f0: 0afd c73b 9de5 243b bd79 1e3b e82b 143a

actor.bias f4 [5]
-0.0015723307 0.006188534 0.0033455326 -0.0055561108 -0.0012582244
00000000: aa16 ceba 30c9 ca3b b940 5b3b 0910 b6bb
00000010: 01eb a4ba

critic.weight f4 [1, 4096]
0.016038774 0.013648233 -0.016698966 -0.014788658 0.018873975 0.012376551 -0.0028344146 0.024062218
-0.012792639 0.015440227 -0.008527076 -0.010187272 0.007404973 0.014044556 0.02796591 -0.0023056006
-0.03764337 0.013985031 0.0021795323 0.02149819 0.0151649555 -0.005226141 -0.0010795984 0.020300755
-0.013833669 -0.014270558 0.0057108826 -0.0020525185 0.026137315 0.016163131 0.015742429 -0.041514955
-0.0021502422 0.01763664 -0.01813256 -0.011048776 -0.0067219427 0.011180896 0.033167824 -0.01518166
0.0022993102 0.016634516 0.031272803 0.0006530561 0.05135684 -0.019565746 0.002922654 0.02382736
0.05006641 0.0027456463 -0.010547618 -0.021692162 -0.0043654656 -0.02128827 0.033157747 0.020851886
-0.018782968 -0.019761484 -0.041430045 0.030526726 0.0021344973 -0.013168912 0.025509091 0.00017345606
-0.019095728 0.00058705953 0.006918895 -0.016103337 -0.041778337 0.03509966 0.004356079 -0.006456116
-0.028041067 0.008322576 0.023513818 0.026181923 -0.0035512592 0.031871654 -0.003911066 0.0046482766
-0.008136838 -0.009143127 -0.00915938 -0.009372861 -0.009275825 0.0073538804 0.004185129 0.005475147
-0.009890165 -0.0063042725 0.009879504 0.052045744 -0.007908361 -0.006713135 -0.025091086 0.024561314
0.017421726 0.044134255 -0.00579695 -0.030018313 0.03209131 -0.01456794 0.005470985 -0.009350094
-0.018000677 -0.024147661 -0.016761629 -0.022234393 0.014429634 -0.017391924 -0.0012847168 0.02072536
0.035701 -0.042324867 -0.00018902383 0.034680784 0.004278422 -0.0051654587 -0.010672232 -0.028975694
-0.0071236766 -0.009516019 -0.009093509 0.0009503445 -0.03416648 -0.019236013 0.024679953 0.0044537936
-0.011123069 0.0042437324 -0.023742124 0.03147173 0.032603826 0.01264169 0.00435574 -0.0013560773
-0.025318528 0.0102272425 0.011911841 -0.01678873 0.01432306 -0.002917401 0.03042778 -0.017232483
0.0049871565 0.020107772 -0.0100963125 -0.0026144332 0.007242364 0.0009735834 -0.004454008 -0.0123794265
0.0034394327 -0.037022572 -0.0145040285 0.004393783 0.011427182 -0.008935661 -0.0035874087 -0.011920353
0.008648899 0.0077850837 0.039797075 -0.0072143083 0.0038879716 0.0018333282 0.014699727 0.006056149
0.007879622 0.022458741 -0.0075146575 -0.023221644 -0.003932843 -0.012296943 0.03982054 0.018978974
-0.007711279 -0.014309832 -0.004617125 -0.037928276 0.021823 -0.036894664 0.027996315 0.02796128
0.011009648 0.002883544 0.0037988576 0.0023124022 -0.0072738864 -0.020058896 -0.014671308 -0.006064196
-0.011763129 0.02964772 0.006032644 0.016383594 -0.028917622 0.004212925 0.01239665 0.008173664
0.024029577 -0.006865735 -0.019267382 0.0020744314 -0.025774708 -0.030799178 -0.015208858 0.019964816
0.018542947 -0.0097051 -0.010066809 0.024598999 -0.004572226 -0.005726531 0.014622467 -0.028335517
-0.0015193268 -0.016157625 0.0462973 -0.028584013 -0.013495451 -0.029199427 0.02369147 -0.013162367
-0.0029665236 -0.03246491 -0.0104413135 -0.02533172 0.016684948 -0.015168703 0.019873396 0.022719368
0.0033971828 0.047563724 -0.0071794847 -0.022390412 -0.030840406 6.3605745e-05 0.012187397 0.004041165
-0.013728333 0.0139125725 0.024746614 -0.011445207 -0.017907863 0.0084924875 -0.038673136 -0.0006196059
0.015936388 0.041703314 0.00087153766 0.020445038 -0.021095356 -0.0047537005 0.015489319 -0.03265723
00000000: bf63 833c d79c 5f3c 45cc 88bc 214c 72bc
00000010: 989d 9a3c 04c7 4a3c 96c1 39bb 211e c53c
00000020: 3898 51bc 02f9 7c3c 26b5 0bbc 84e8 26bc
00000030: 6aa5 f23b 231b 663c c418 e53c 8f19 17bb
00000040: ef2f 1abd 7921 653c 7cd6 0e3b f91c b03c
00000050: 6f76 783c 0c40 abbb 5081 8dba c54d a63c
00000060: 9da6 62bc 0fcf 69bc 5b22 bb3b 8c83 06bb
00000070: ec1d d63c 8b68 843c 44f6 803c 960b 2abd
00000080: 14eb 0cbb b77a 903c bc8a 94bc ed05 35bc
00000090: be43 dcbb 1430 373c fcda 073d 7fbc 78bc
000000a0: 06b0 163b 1c45 883c e917 003d da31 2b3a
000000b0: 8d5b 523d 5848 a0bc ff89 3f3b 9831 c33c
000000c0: 7012 4d3d 4df0 333b ebcf 2cbc c3b3 b1bc
000000d0: 2e0c 8fbb bd64 aebc 6bd0 073d 93d1 aa3c
000000e0: bdde 99bc d6e2 a1bc 8db2 29bd 2f13 fa3c
000000f0: ece2 0b3b 6cc2 57bc 71f8 d03c c2e1 3539
00000100: a56e 9cbc e6e4 193a e6b7 e23b 25eb 83bc
00000110: c31f 2bbd a9c4 0f3d 70bd 8e3b d48d d3bb
00000120: 61b6 e5bc 6a5b 083c 0da0 c03c 797b d63c
00000130: 3ebc 68bb da8b 023d 6628 80bb 9250 983b
00000140: 5f50 05bc 0ecd 15bc 3911 16bc a190 19bc
00000150: a1f9 17bc d2f8 f03b 6823 893b dd68 b33b
00000160: 5c0a 22bc 1294 cebb a5dd 213c eb2d 553d
00000170: 1292 01bc dcf9 dbbb d28b cdbc cf34 c93c
00000180: 02b8 8e3c 1fc6 343d 57f4 bdbb f7e8 f5bc
00000190: 2d72 033d 5eae 6ebc f345 b33b 2331 19bc
000001a0: 2876 93bc 51d1 c5bc af4f 89bc e724 b6bc
000001b0: 466a 6c3c 8279 8ebc f163 a8ba 3bc8 a93c
000001c0: 363b 123d d75c 2dbd b334 46b9 700d 0e3d
000001d0: 0132 8c3b 0243 a9bb 96da 2ebc 6f5e edbc
000001e0: bb6d e9bb 14e9 1bbc f1fc 14bc 8a20 793a
000001f0: 27f2 0bbd d894 9dbc 9d2d ca3c 21f1 913b
00000200: 883d 36bc 020f 8b3b d87e c2bc 80e8 003d
00000210: 978b 053d 171f 4f3c 98ba 8e3b 67be b1ba
00000220: cd68 cfbc 2a90 273c e229 433c 8588 89bc
00000230: 45ab 6a3c de31 3fbb ae43 f93c 232b 8dbc
00000240: 4d6b a33b 0eb9 a43c 016b 25bc e956 2bbb
00000250: 5a51 ed3b 1338 7f3a edf2 91bb 14d3 4abc
00000260: 1b68 613b fba4 17bd 4ea2 6dbc b9f9 8f3b
00000270: 1339 3b3c e166 12bc bb1a 6bbb 964d 43bc
00000280: 1db4 0d3c 041a ff3b 4202 233d 0166 ecbb
00000290: 57cd 7e3b 494c f03a 20d7 703c a972 c63b
000002a0: 8819 013c 65fb b73c 843d f6bb 513b bebc
000002b0: 14df 80bb 1e79 49bc dd1a 233d cb79 9b3c
000002c0: e6ae fcbb c973 6abc 404b 97bb ae5a 1bbd
000002d0: 26c6 b23c dc1e 17bd 8758 e53c 0e0f e53c
000002e0: d061 343c d7f9 3c3b 41f6 783b ac8b 173b
000002f0: c859 eebb 8e52 a4bc ed5f 70bc 2ab6 c6bb
00000300: 24ba 40bc c6df f23c 7cad c53b e336 863c
00000310: a6e4 ecbc 940c 8a3b 521b 4b3c d5ea 053c
00000320: add9 c43c f6f9 e0bb a1d6 9dbc 2ff3 073b
00000330: 7b25 d3bc 8f4e fcbc 932e 79bc 418d a33c
00000340: 61e7 973c 2402 1fbc 42ef 24bc d783 c93c
00000350: 9dd2 95bb a0a5 bbbb 1293 6f3c e31f e8bc
00000360: 2624 c7ba ff5c 84bc 3da2 3d3d 0529 eabc
00000370: 061c 5dbc a333 efbc 9d14 c23c f8a6 57bc
00000380: 026a 42bb edf9 04bd 0b12 2bbc 7884 cfbc
00000390: dfae 883c 2786 78bc 88cd a23c f81d ba3c
000003a0: 45a3 5e3b 2ed2 423d e241 ebbb 196c b7bc
000003b0: 05a5 fcbc 1364 8538 a6ad 473c c06b 843b
000003c0: cdec 60bc 8ff1 633c 69b9 ca3c ad84 3bbc
000003d0: 83b3 92bc 1324 0b3c b967 1ebd 0c6d 22ba
000003e0: 078d 823c 18d1 2a3d e777 643a 5a7c a73c
000003f0: 2bd0 acbc eec4 9bbb eac6 7d3c 96c3 05bd
