old/tianhou/best_model_squared.pt (torch, 676826 bytes, 24 tensors)

conv.0.weight f4 [64, 5, 7, 7]
-0.0014116215 0.032821797 -0.022419468 -0.011526082 -0.028949345 -0.035359193 0.013073906 0.018767353
-0.02579269 -0.01902377 0.009584167 -0.055579234 -0.055314116 0.009952499 -0.0046281535 0.01892138
-0.045881126 -0.014552899 -0.015834989 0.038350556 -0.07419331 -0.009444185 -0.05456885 -0.03598513
-0.068980545 -0.0048808847 -0.073730394 -0.0218429 -0.0051157945 8.672183e-05 -0.072384514 -0.0013592396
-0.033384703 -0.006124819 -0.029917477 0.024547204 0.008207585 -0.0041683344 -0.04271989 0.005731181
-0.038324457 0.014595019 -0.03376772 0.047464367 -0.014469197 -0.035309356 -0.011470773 0.0606997
-0.008412451 -0.04236136 -0.028026035 -0.07567441 0.109270535 0.124372065 0.04822169 0.16601907
0.11056502 -0.0041636103 -0.1259854 0.0007724176 0.09673228 0.0986288 0.04665233 0.039194055
-0.21359378 -0.14809217 0.11216137 0.0735913 -0.09754561 -0.008061909 -0.09701586 -0.07304406
-0.08328648 0.025310691 -0.17736661 0.10033625 0.019192586 -0.086296916 -0.06992007 -0.19451118
-0.11447262 0.06179084 0.07743719 0.119414784 -0.012046369 -0.057899248 -0.023291415 0.021933613
0.117706366 0.044441167 -0.12802973 0.24168642 -0.17318216 0.014951404 0.1221871 -0.08062077
0.051947903 0.0013112221 -0.051179647 -0.035768278 0.106006585 -0.09601767 0.1708143 -0.11100498
-0.057103395 0.008644374 -0.25417355 -0.009901119 0.06033455 0.059423458 0.048839882 -0.13442086
-0.06732543 -0.028213454 -0.13097875 0.13127717 0.051355932 0.08461862 0.07727666 0.08525684
-0.032524858 -0.14834973 -0.010154231 -0.062312417 -0.04730369 -0.1515963 0.0410655 -0.07239843
-0.11550338 0.03065845 -0.038289223 0.013054449 -0.02523371 -0.037816066 0.038729385 0.026079351
-0.01012651 0.04903483 -0.21602395 0.06394048 0.12158877 0.09197089 -0.06251132 -0.09615205
-0.1163864 0.17189562 -0.015955789 -0.11688269 0.03938771 0.08584587 -0.030457322 -0.056573644
0.030439021 0.06611749 -0.11953191 -0.06265943 0.03431991 0.06609037 0.15480942 0.10890508
-0.030953875 -0.13666447 -0.03401539 0.08560298 -0.014036821 -0.07979841 0.00017209536 0.021653578
-0.12511818 -0.10229745 -0.11350577 0.050881427 0.10304697 0.02632544 -0.067002356 0.07603913
-0.08339229 -0.00794451 -0.06490324 -0.094241634 0.14673434 0.12784155 -0.2032959 -0.12422049
-0.035247713 -0.17983334 0.20220229 -0.012221616 0.14985825 -0.006298568 0.06758124 -0.043510262
0.034748457 0.12454252 -0.0003313521 0.022639891 0.12474086 0.042455338 0.019951308 0.1385761
-0.039748777 -0.12777248 -0.11981169 0.009980135 -0.114757285 0.019899348 -0.1001288 -0.015255115
-0.14027688 -0.14217545 0.043975376 0.0481441 0.07108771 0.059013955 0.009387761 -0.021086462
-0.13136443 0.011209195 -0.10476387 -0.07205406 -0.13142353 0.038738202 -0.14825118 -0.0021027268
0.08743099 -0.12345738 0.023237837 0.12636249 -0.005101485 -0.06015809 -0.111412965 0.016280316
-0.136992 0.085759036 -0.18582508 0.071443595 0.12510875 -0.014414815 0.13328007 -0.008626978
-0.069285564 -0.015972737 -0.1222 0.015813392 0.07359353 -0.030209558 0.035763282 -0.046135183
-0.019135313 -0.068908006 0.011367311 -0.043032233 -0.025903806 -0.010330418 -0.00896586 -0.02743291
00000000: 2806 b9ba 2670 063d 08a9 b7bc e4d7 3cbc
00000010: 2d27 edbc cdd4 10bd f033 563c febd 993c
00000020: 314b d3bc bdd7 9bbc e906 1d3c 0da7 63bd
00000030: 0e91 62bd ce0f 233c c4a7 97bb 0301 9b3c
00000040: d9ed 3bbd 486f 6ebc 61b8 81bc 7915 1d3d
00000050: aaf2 97bd c8bb 1abc 9683 5fbd 2565 13bd
00000060: ac45 8dbd d4ef 9fbb f6ff 96bd e2ef b2bc
00000070: 65a2 a7bb 6ede b538 553e 94bd 8328 b2ba
00000080: 66be 08bd b5b2 c8bb 7f15 f5bc 3817 c93c
00000090: 1b79 063c 8696 88bb 0dfb 2ebd a1cc bb3b
000000a0: 1bfa 1cbd f21f 6f3c 0550 0abd ff69 423d
000000b0: 3610 6dbc 8ba0 10bd e9ef 3bbc 40a0 783d
000000c0: 60d4 09bc 1b83 2dbd db96 e5bc 2ffb 9abd
000000d0: 3bc9 df3d c8b6 fe3d 1b84 453d e700 2a3e
000000e0: ea6f e23d e56e 88bb 5102 01be 117c 4a3a
000000f0: 931b c63d e5fd c93d 8316 3f3d f289 203d
00000100: 54b8 5abe 79a5 17be dcb4 e53d 09b7 963d
00000110: fec5 c7bd 1916 04bc 40b0 c6bd 2098 95bd
00000120: 1a92 aabd 5e58 cf3c 989f 35be 187d cd3d
00000130: c539 9d3c 70bc b0bd 4132 8fbd f02d 47be
00000140: 9f70 eabd 6418 7d3d 6497 9e3d bd8f f43d
00000150: 225e 45bc c327 6dbd a3cd bebc 1fae b33c
00000160: 0910 f13d f107 363d 3a1a 03be a57c 773e
00000170: aa56 31be bcf6 743c 3b3d fa3d 811c a5bd
00000180: 53c7 543d 50dd ab3a c0a1 51bd c281 12bd
00000190: fb19 d93d eaa4 c4bd f2e9 2e3e 9456 e3bd
000001a0: 40e5 69bd 22a1 0d3c 0923 82be 4e38 22bc
000001b0: 5c21 773d 0366 733d 540c 483d 9fa5 09be
000001c0: eae1 89bd e71f e7bc 4b1f 06be 866d 063e
000001d0: 995a 523d 874c ad3d 3a43 9e3d 239b ae3d
000001e0: c938 05bd fee8 17be ef5d 26bc 4e3b 7fbd
000001f0: 84c1 41bd 0f3c 1bbe 4c34 283d a145 94bd
00000200: 098d ecbd 6e27 fb3c 29d5 1cbd 54e2 553c
00000210: edb6 cebc 05e5 1abd b4a2 1e3d 5da4 d53c
00000220: a9e9 25bc bfd8 483d 6235 5dbe 3af3 823d
00000230: 8803 f93d 3c5b bc3d ef05 80bd 5eeb c4bd
00000240: fe5b eebd 6805 303e b7b5 82bc 3160 efbd
00000250: 0255 213d f6cf af3d a281 f9bc c4b9 67bd
00000260: 415b f93c 9b68 873d 25cd f4bd 9653 80bd
00000270: 0993 0c3d 635a 873d 5c86 1e3e a009 df3d
00000280: fb92 fdbc c5f1 0bbe b953 0bbd 9d50 af3d
00000290: b2fa 65bc 596d a3bd 7f74 3439 d862 b13c
000002a0: fb1e 00be 5381 d1bd b775 e8bd 0b69 503d
000002b0: 4a0a d33d 73a8 d73c 8838 89bd 67ba 9b3d
000002c0: 94c9 aabd b129 02bc fdeb 84bd c201 c1bd
000002d0: 8741 163e e5e8 023e cd2c 50be 5067 febd
000002e0: e85f 10bd 3b26 38be 1e0e 4f3e 2c3d 48bc
000002f0: 7174 193e 3864 cebb 0868 8a3d d137 32bd
00000300: 6654 0e3d 2610 ff3d 53b9 adb9 4b77 b93c
00000310: 2378 ff3d a6e5 2d3d ed70 a33c e5e6 0d3e
00000320: 9dcf 22bd cad6 02be d55f f5bd b883 233c
00000330: de05 ebbd f503 a33c 5410 cdbd 97f0 79bc
00000340: bea4 0fbe 7196 11be 861f 343d bf32 453d
00000350: 6f96 913d 9eb8 713d 20cf 193c 84bd acbc
00000360: 6684 06be c5a6 373c 718e d6bd 1491 93bd
00000370: e493 06be f3ab 1e3d 28cf 17be e7cd 09bb
00000380: 050f b33d 39d7 fcbd 475d be3c 2b65 013e
00000390: 5c2a a7bb 5468 76bd 7b2c e4bd 4c5e 853c
000003a0: a147 0cbe 6fa2 af3d ee48 3ebe 0551 923d
000003b0: 821c 003e 1e2c 6cbc 927a 083e 2b58 0dbc
000003c0: 97e5 8dbd 42d9 82bc fe43 fabd 168b 813c
000003d0: 34b8 963d 097a f7bc 857c 123d 3ff8 3cbd
000003e0: a9c1 9cbc a41f 8dbd f53d 3a3c 9142 30bd
000003f0: 3834 d4bc ea40 29bc 8be5 12bc fbba e0bc

conv.0.bias f4 [64]
-0.41069636 -0.4266157 -0.47047445 -0.3416001 -0.35380986 -0.4349838 -0.2926167 -0.35640374
-0.31606397 -0.3614044 -0.40856326 -0.4312705 -0.41067284 -0.32349235 -0.35574833 -0.4432552
-0.34846494 -0.3854484 -0.37964362 -0.31784406 -0.41791356 -0.06218123 -0.3763956 -0.41862115
-0.4131133 -0.52770996 -0.4429019 -0.33100352 -0.38357586 -0.45635208 -0.5086762 -0.36221445
-0.315124 -0.3992026 -0.26195216 -0.16472046 -0.41069517 -0.36619925 -0.49192247 -0.25513914
-0.44101223 -0.3197347 -0.40345967 -0.25880048 -0.39366797 -0.3911129 -0.35727805 -0.39958832
-0.4640831 -0.4034784 -0.31135464 -0.3871374 -0.3726957 -0.36169186 -0.42315084 -0.38947386
-0.4230224 -0.44085354 -0.33892837 -0.33522514 -0.3525568 -0.38888597 -0.31012627 -0.14314608
00000000: cb46 d2be 5f6d dabe 07e2 f0be 35e6 aebe
00000010: 9126 b5be 32b6 debe dbd1 95be 8d7a b6be
00000020: 23d3 a1be ff09 b9be 342f d1be 7dcf dcbe
00000030: b643 d2be caa0 a5be a524 b6be 58f2 e2be
00000040: ff69 b2be 7e59 c5be a660 c2be 75bc a2be
00000050: c4f8 d5be bfb1 7ebd edb6 c0be 8355 d6be
00000060: 9683 d3be 0018 07bf 0ac4 e2be 4b79 a9be
00000070: 0e64 c4be fba6 e9be 9a38 02bf 2c74 b9be
00000080: ef57 a1be 4864 ccbe 981e 86be 7bac 28be
00000090: a346 d2be 787e bbbe 43dd fbbe 99a1 82be
000000a0: 5bcc e1be 44b4 a3be 4492 cebe 7f81 84be
000000b0: d98e c9be f33f c8be 26ed b6be d796 ccbe
000000c0: 4d9c edbe b994 cebe e069 9fbe e036 c6be
000000d0: f9d1 bebe ad2f b9be 3aa7 d8be 1e69 c7be
000000e0: 6496 d8be 8eb7 e1be 0588 adbe a1a2 abbe
000000f0: 5382 b4be 101c c7be dfc8 9ebe e394 12be

conv.2.weight f4 [64]
1.0648034 0.96709436 0.93009454 1.1454496 0.86050016 1.1513486 0.80134577 0.8955344
0.8017767 1.0100265 1.1643491 1.022552 1.0876766 0.9038984 0.9971674 0.9547562
1.0264385 0.9444022 0.9297502 0.85247654 1.2880195 0.9088583 0.90852916 0.99181783
0.9787253 1.0526066 1.201203 0.91885537 0.86171174 1.1518924 1.0277505 0.9108326
0.9229813 1.0730677 0.95765996 0.83826727 1.187009 1.0793251 0.8821188 0.9024949
1.141255 0.9135689 1.0384939 0.9844909 0.93835706 0.8566958 0.8890254 0.94865537
1.0397133 0.95135677 0.98992854 0.8965036 1.047282 1.0632129 0.9548624 0.95248276
1.044867 1.1079215 1.0224795 1.0291473 1.2052562 1.2394004 0.87227654 0.7779619
00000000: 7a4b 883f 7f93 773f ad1a 6e3f 189e 923f
00000010: bd49 5c3f 645f 933f ff24 4d3f be41 653f
00000020: 3d41 4d3f 8c48 813f 6409 953f fce2 823f
00000030: fd38 8b3f e365 673f 5d46 7f3f e76a 743f
00000040: 5662 833f 58c4 713f 1c04 6e3f e73b 5a3f
00000050: d3dd a43f f0aa 683f 5e95 683f c6e7 7d3f
00000060: be8d 7a3f d0bb 863f 05c1 993f 1b3a 6b3f
00000070: 2499 5c3f 3671 933f 548d 833f 532c 693f
00000080: 8148 6c3f 485a 893f 3429 753f af98 563f
00000090: e9ef 973f 5327 8a3f 8ad2 613f e809 673f
000000a0: a514 923f a7df 693f 5eed 843f 9807 7c3f
000000b0: 2b38 703f 6a50 5b3f 2b97 633f 14db 723f
000000c0: 5315 853f 1e8c 733f f56b 7d3f 4381 653f
000000d0: 560d 863f 5c17 883f dd71 743f e9d5 733f
000000e0: 34be 853f 5fd0 8d3f 9ce0 823f 19bb 833f
000000f0: d645 9a3f aca4 9e3f 844d 5f3f 8328 473f

conv.2.bias f4 [64]
0.000630965 0.02455088 0.000532928 0.063924074 0.031460635 0.002202791 -0.011596962 -0.0091000395
0.020842327 -0.013285068 -0.021845253 -0.020065138 0.020941194 -0.05195959 -0.04194348 0.006937577
-0.014112055 -0.03841495 0.0255842 0.012547549 0.055790693 0.016001781 0.08673841 -0.009908951
0.017831955 0.018215442 -0.030543383 0.045060743 0.012362166 0.007960723 -0.003755984 -0.011337732
0.030105643 0.020839132 0.017559012 0.040597893 -0.0054030367 0.021193037 0.0030262417 -0.040952157
-0.05190181 -0.04033363 0.0259814 -0.060998786 -0.023619033 0.02898934 -0.02893787 0.08337463
0.028163072 -0.008063243 0.017799702 0.0020732423 0.0060912874 -0.00148132 0.016838063 0.013196019
-0.00088415225 0.044888563 -0.03454412 -0.0058093327 0.07342199 0.021937557 0.036870312 0.032058347
00000000: 5867 253a ed1e c93c 31b4 0b3a a0ea 823d
00000010: dedc 003d b35c 103b 2f01 3ebc 5518 15bc
00000020: 87bd aa3c 9da9 59bc d1f4 b2bc a55f a4bc
00000030: de8c ab3c 94d3 54bd edcc 2bbd 9d54 e33b
00000040: 4036 67bc ff58 1dbd f595 d13c 3c94 4d3c
00000050: c884 643d 2b16 833c e8a3 b13d 2759 22bc
00000060: 5214 923c 8d38 953c 1e36 fabc 9d91 383d
00000070: af8a 4a3c b16d 023c f426 76bb e5c1 39bc
00000080: 1ca0 f63c d4b6 aa3c ebd7 8f3c fa49 263d
00000090: f50b b1bb 059d ad3c e953 463b 73bd 27bd
000000a0: fe96 54bd e034 25bd f2d6 d43c ddd9 79bd
000000b0: b47c c1bc 0d7b ed3c 1d0f edbc 51c0 aa3d
000000c0: 3eb6 e63c b11b 04bc aed0 913c 3cdf 073b
000000d0: 6c99 c73b da28 c2ba faef 893c 1e34 583c
000000e0: 74c6 67ba 12dd 373d 237e 0dbd 375c bebb
000000f0: 455e 963d 64b6 b33c 5305 173d 9d4f 033d

conv.2.running_mean f4 [64]
-0.16083875 -0.15672962 -0.15881793 -0.13359189 -0.15446886 -0.16133703 -0.14001755 -0.13549231
-0.11026197 -0.1420837 -0.16204411 -0.15598129 -0.16080548 -0.15533027 -0.1589107 -0.15922831
-0.1422319 -0.15139496 -0.1283822 -0.14228146 -0.16160706 -0.0015571793 -0.13160823 -0.15095758
-0.1550165 -0.15887025 -0.15678145 -0.1601558 -0.16132468 -0.16087067 -0.16139294 -0.13986193
-0.13035297 -0.16057287 -0.07310751 -0.05757935 -0.16103674 -0.16224095 -0.15885116 -0.12281457
-0.15992877 -0.13295667 -0.15894912 -0.057789862 -0.10195768 -0.15948538 -0.12995602 -0.15657173
-0.1535897 -0.15971753 -0.15731826 -0.15495527 -0.15989529 -0.15125169 -0.15151678 -0.15399894
-0.14926048 -0.15922135 -0.12077132 -0.12879977 -0.16129416 -0.16251697 -0.113019824 -0.011011212
00000000: eab2 24be bb7d 20be 2ba1 22be 50cc 08be
00000010: 162d 1ebe 8935 25be c360 0fbe 7fbe 0abe
00000020: 07d1 e1bd 647e 11be e4ee 25be 8fb9 1fbe
00000030: 31aa 24be e60e 1fbe 7db9 22be bf0c 23be
00000040: 3da5 11be 4807 1bbe a076 03be 3bb2 11be
00000050: 527c 25be 441a ccba 4fc4 06be a094 1abe
00000060: a5bc 1ebe e2ae 22be 518b 20be e2ff 23be
00000070: 4c32 25be 48bb 24be 3144 25be f737 0fbe
00000080: 407b 05be 376d 24be 64b9 95bd 53d8 6bbd
00000090: d1e6 24be 7e22 26be e1a9 22be 3586 fbbd
000000a0: 5ec4 23be cb25 08be 8fc3 22be 10b5 6cbd
000000b0: 30cf d0bd 2350 23be 3113 05be 5754 20be
000000c0: 9e46 1dbe fe8c 23be 0a18 21be 98ac 1ebe
000000d0: 97bb 23be b9e1 1abe 3727 1bbe e6b1 1dbe
000000e0: bdd7 18be ec0a 23be f456 f7bd 16e4 03be
000000f0: 4c2a 25be d96a 26be f076 e7bd 5f68 34bc

conv.2.running_var f4 [64]
0.00016676626 0.0002764425 0.00024739266 0.0011053783 0.0003702323 0.0001480656 0.00088998297 0.0010230185
0.0020598718 0.00076596887 0.0001473597 0.00030890715 0.00017198756 0.000361728 0.00023521887 0.00020235032
0.000786655 0.0005874599 0.0014180723 0.00082777796 0.00012015021 0.005776808 0.0013820821 0.0004833585
0.00040367263 0.00027895026 0.00033132467 0.00018907452 0.00013903202 0.00017353393 0.00014571282 0.00094961404
0.001543248 0.0001623373 0.0030951523 0.004246539 0.00014825816 0.00013576164 0.0002309992 0.0014513987
0.00019087478 0.0012874545 0.00023204327 0.0039338497 0.0021699858 0.00022639408 0.0012849901 0.00032321044
0.00039306184 0.00020704622 0.00028651932 0.0003466457 0.00021165851 0.0004601647 0.0004693305 0.00045326608
0.0005105147 0.00022344748 0.0015157647 0.0013349324 0.00015689107 0.0001171936 0.0020295463 0.006209485
00000000: fadd 2e39 7cef 9039 7bb4 8139 57e2 903a
00000010: bd1b c239 0f42 1b39 bf4d 693a ce16 863a
00000020: eafe 063b 4dcb 483a 9184 1a39 d1f4 a139
00000030: 8f57 3439 4fa6 bd39 16a5 7639 002e 5439
00000040: 8637 4e3a c4ff 193a 9cde b93a 3dff 583a
00000050: 27f9 fb38 614b bd3b fb26 b53a 486b fd39
00000060: 06a4 d339 1240 9239 a5b5 ad39 4e42 4639
00000070: 20c9 1139 a9f6 3539 7dca 1839 85ef 783a
00000080: cf46 ca3a 1639 2a39 0ad8 4a3b 8d26 8b3b
00000090: bf75 1b39 3d5b 0e39 6038 7239 dc3c be3a
000000a0: 8f25 4839 cebf a83a a450 7339 86e7 803b
000000b0: 5236 0e3b 3364 6d39 1d6d a83a 9274 a939
000000c0: de13 ce39 8c1a 5939 f937 9639 00be b539
000000d0: a6f0 5d39 4342 f139 7910 f639 58a4 ed39
000000e0: 10d4 053a 3a4d 6a39 a0ac c63a e6f8 ae3a
000000f0: 2083 2439 d6c5 f538 2302 053b f078 cb3b

conv.3.weight f4 [64, 64, 5, 5]
-0.025771815 -0.02758923 0.06040243 0.015517091 0.13720953 -0.0018837634 -0.00031130365 0.07711991
0.036152896 -0.01744998 -0.09240567 -0.12479552 0.008112467 0.006331925 0.14143558 0.027770916
0.01455219 0.033743083 -0.11856233 0.10518033 0.010321228 -0.11833504 0.040237498 -0.018779028
-0.045364972 -0.06661808 -0.04393517 0.028104227 -0.013145603 0.004275074 0.0792225 -0.01831887
-0.061250802 0.12907627 0.008074498 -0.054395698 0.0017594541 0.07637152 -0.03931422 -0.03234036
-0.007791347 -0.037563927 -0.03529613 0.0009648406 0.07178088 0.07338884 -0.05714399 -0.02574332
0.033447832 0.05948321 -0.047880907 0.07892269 0.01064086 0.010624451 0.0017196126 0.06762321
0.028678363 -0.020355936 0.03384005 -0.03238467 -0.09622997 0.0840099 -0.039600775 -0.04872724
0.018855346 0.038178638 0.040581673 -0.004344254 0.095452346 -0.019640643 -0.024377769 0.036308587
-0.08656681 0.07235856 0.046003327 -0.026584076 0.08644059 -0.029512329 -0.14290662 0.06604267
0.06640762 0.076993406 -0.1187553 0.017445851 -0.036139384 -0.08480738 0.029989291 0.08952253
0.0314594 -0.03431329 -0.06913243 0.010409228 -0.047581896 -0.025978398 0.057142343 0.06962479
-0.013005526 0.05591877 -0.10008913 0.054324415 -0.0040540053 0.051465772 0.037814066 0.08841024
-0.006893828 0.017281812 0.018106254 0.051510688 -0.031068897 0.10299067 0.059061732 0.0007013967
0.028631086 0.004381634 -0.009358052 0.09407581 0.009247765 -0.07079769 0.0045705447 0.046301313
0.112689 0.031167094 0.008169404 0.13972741 0.045768093 0.07983122 -0.054376308 -0.004731526
0.058717158 0.006781977 0.06829259 -0.06574408 -0.07995268 0.0010255063 -0.07138127 -0.045822863
0.019979207 0.04111384 0.024293153 -0.03496023 0.047464486 0.004349291 -0.08311381 0.061728604
-0.04766499 0.0016431801 -0.11619088 0.030310703 0.0052422243 -0.091850564 0.08722777 0.06479445
-0.03577224 -0.0074188625 -0.07515056 -0.033419058 0.02757227 0.07037932 -0.058668956 0.055987682
0.036723204 0.024046993 -0.07952161 -0.03754013 0.04591093 0.046841368 -0.01059319 -0.089506276
0.027123846 -0.031381506 0.051941168 -0.080987215 -0.022709621 0.06249643 0.01772302 0.0004670806
0.045735504 0.029503573 0.022278946 0.04905796 -0.11077918 0.04951363 0.07285849 0.0707804
-0.07300483 0.025454959 0.0020971147 -0.09409922 -0.00017611966 0.13008705 -0.071961194 0.03467616
-0.024778072 0.087663524 0.045512322 -0.026397372 0.05565106 -0.06522707 -0.06606295 0.033635058
-0.07337924 -0.017387485 0.07294541 -0.027218802 -0.0031574105 0.067792766 -0.08453599 0.08302727
0.004338719 -0.09329215 -0.026446097 -0.0046218126 -0.06614793 -0.04596523 0.11003071 -0.028032042
-0.042589005 -0.08338297 -0.0019101638 -0.0019721312 0.0452652 -0.01883028 -0.005842382 -0.008623912
0.084612235 -0.009429889 -0.009426475 -0.08814508 0.03554581 -0.03391827 0.045807168 0.010058493
-0.08512817 0.03617928 0.063625015 0.012711583 -0.014854982 0.048179835 -0.08070539 0.05197114
-0.02877611 0.080903724 -0.014269961 0.04364271 0.08298355 0.043523956 0.028902559 -0.05987024
-0.047258165 -0.011437611 -0.03908621 0.06617565 0.121428415 0.13504685 0.018049465 -0.007334751
00000000: 6a1f d3bc cf02 e2bc 8a68 773d 663b 7e3c
00000010: a880 0c3e 9ce8 f6ba 7836 a3b9 0bf1 9d3d
00000020: 0f15 143d 43f3 8ebc 2f3f bdbd cb94 ffbd
00000030: 27ea 043c 097c cf3b 7dd4 103e d57f e33c
00000040: 4f6c 6e3c 3036 0a3d cfd0 f2bd c968 d73d
00000050: 5e1a 293c a459 f2bd 13d0 243d 7ad6 99bc
00000060: 9fd0 39bd 0f6f 88bd 5df5 33bd d63a e63c
00000070: a860 57bc ec15 8c3b 683f a23d 7411 96bc
00000080: 1fe2 7abd 922c 043e e64a 043c 06ce 5ebd
00000090: 7c9d e63a ac68 9c3d f307 21bd 5377 04bd
000000a0: 8e4e ffbb a2dc 19bd ad92 10bd 5bed 7c3a
000000b0: db01 933d e34c 963d d10f 6abd a8e3 d2bc
000000c0: 9800 093d aba4 733d c51e 44bd 38a2 a13d
000000d0: 0057 2e3c 2d12 2e3c a064 e13a 0a7e 8a3d
000000e0: e3ee ea3c 7ec1 a6bc dd9b 0a3d caa5 04bd
000000f0: 3814 c5bd 620d ac3d 6c34 22bd 3796 47bd
00000100: 8776 9a3c 3461 1c3d f838 263d 3e5a 8ebb
00000110: 857c c33d 6ae5 a0bc e3b3 c7bc 50b8 143d
00000120: f149 b1bd ba30 943d fc6d 3c3d d9c6 d9bc
00000130: c407 b13d d7c3 f1bc 1d56 12be 6141 873d
00000140: b800 883d b8ae 9d3d fb35 f3bd 9aea 8e3c
00000150: e406 14bd 7eaf adbd 1aac f53c 9757 b73d
00000160: 92db 003d 188c 0cbd 4e95 8dbd 778b 2a3c
00000170: 3ce5 42bd a6d0 d4bc 170e 6a3d 7197 8e3d
00000180: 2115 55bc 150b 653d 88fb ccbd 4783 5e3d
00000190: 76d7 84bb c6cd 523d ece2 1a3d 6e10 b53d
000001a0: 9fe5 e1bb 9692 8d3c 9153 943c dffc 523d
000001b0: 3384 febc c6ec d23d b7ea 713d f0dd 373a
000001c0: bd8b ea3c cf93 8f3b 8452 19bc d1aa c03d
000001d0: f083 173c 61fe 90bd 82c4 953b 72a6 3d3d
000001e0: 7ec9 e63d 2252 ff3c f7d8 053c b414 0f3e
000001f0: 5377 3b3d 8d7e a33d b1b9 5ebd eb0a 9bbb
00000200: 6781 703d 593b de3b fcdc 8b3d d5a4 86bd
00000210: 3bbe a3bd 486a 863a 5830 92bd c1b0 3bbd
00000220: 6fab a33c fc66 283d 6f02 c73c 7532 0fbd
00000230: 1f6a 423d 7f84 8e3b 9337 aabd 22d7 7c3d
00000240: 5d3c 43bd fa5f d73a 7cf5 edbd 274e f83c
00000250: f7c6 ab3b 261c bcbd 79a4 b23d f4b2 843d
00000260: ea85 12bd ee19 f3bb 89e8 99bd 6ce2 08bd
00000270: 3edf e13c 0823 903d dc4e 70bd 5753 653d
00000280: 126b 163d 33fe c43c 3adc a2bd aec3 19bd
00000290: 190d 3c3d bcdc 3f3d 0f8f 2dbc 114f b7bd
000002a0: d432 de3c e589 00bd 43c0 543d a0dc a5bd
000002b0: 8709 babc 42fc 7f3d de2f 913c 7fe2 f439
000002c0: 2755 3b3d 7ab1 f13c 5682 b63c 00f1 483d
000002d0: 32e0 e2bd cece 4a3d d536 953d 50f5 903d
000002e0: 8e83 95bd eb86 d03c bf6f 093b 18b7 c0bd
000002f0: c3ac 38b9 8a35 053e 6460 93bd 9708 0e3d
00000300: 62fb cabc ef88 b33d 216b 3a3d 4d3f d8bc
00000310: 5ef2 633d c595 85bd 034c 87bd eac4 093d
00000320: db47 96bd 3370 8ebc 6764 953d f7f9 debc
00000330: 8fec 4ebb efd6 8a3d 3521 adbd 340a aa3d
00000340: d02b 8e3b f40f bfbd 7ca5 d8bc 9372 97bb
00000350: 9178 87bd 0946 3cbd c857 e13d 74a3 e5bc
00000360: cf71 2ebd b1c4 aabd 765e faba df3e 01bb
00000370: 0168 393d f641 9abc 7471 bfbb 4f4b 0dbc
00000380: 2e49 ad3d d27f 1abc 8071 1abc 6885 b4bd
00000390: 7c98 113d e2ed 0abd 4ca0 3b3d 61cc 243c
000003a0: ae57 aebd ba30 143d d54d 823d 3e44 503c
000003b0: 4f62 73bc 3858 453d de48 a5bd b1df 543d
000003c0: e0bb ebbc dab0 a53d 8ecc 69bc b3c2 323d
000003d0: 48f3 a93d 2d46 323d 0fc5 ec3c 7f3a 75bd
000003e0: c791 41bd d164 3bbc dd18 20bd 1987 873d
000003f0: 76af f83d b949 0a3e 79dc 933c 5a58 f0bb

conv.3.bias f4 [64]
0.01690154 -0.01703321 -0.017569711 -0.020734599 -0.0036746487 0.0075982846 -0.024657262 0.020803103
0.00043268604 0.0029995434 0.0019625542 -0.015594995 0.022503281 0.010674833 0.010360305 0.010891496
0.016544104 -0.0034957319 -0.022659006 0.0038631686 -0.0073143556 -0.005312325 -0.010072219 -0.0107657015
0.0126240235 0.0032182138 -0.008822431 -0.0028705157 -0.0105980635 -0.0100431815 0.01206573 0.022207556
-0.020308146 -0.020342076 -0.0120499665 -0.0008492413 0.012203192 0.021882739 0.015155301 0.011825308
-0.0242173 -0.018199814 0.015261286 0.003924979 -0.0018999124 0.0041154223 0.021056602 0.015201253
-0.007977392 -0.015471067 -0.023034595 -0.010420423 0.009810808 0.0018854212 -0.0007268777 -0.003281205
0.01763204 -0.013928779 -0.0031109336 0.0012100762 0.015530871 -0.02079138 -0.019563649 -0.0016700455
00000000: 1975 8a3c 3b89 8bbc 5bee 8fbc 9bdb a9bc
00000010: 60d2 70bb 08fb f83b 07fe c9bc 456b aa3c
00000020: 23da e239 fd93 443b 329e 003b 2682 7fbc
00000030: cd58 b83c 7fe5 2e3c 45be 293c 3f72 323c
00000040: 8087 873c a618 65bb 619f b9bc 372d 7d3b
00000050: 43ad efbb 0313 aebb f305 25bc a062 30bc
00000060: fed4 4e3c abe8 523b f58b 10bc 431f 3cbb
00000070: 80a3 2dbc 288c 24bc 57af 453c 9fec b53c
00000080: 455d a6bc 6da4 a6bc 396d 45bc 9e9f 5eba
00000090: e6ef 473c 6e43 b33c f14d 783c f0be 413c
000000a0: 5c63 c6bc c717 95bc 790a 7a3c 1c9d 803b
000000b0: 7b06 f9ba aada 863b e57e ac3c ad0e 793c
000000c0: 9bb3 02bc 5c7a 7dbc 0cb3 bcbc 6cba 2abc
000000d0: 83bd 203c 3d20 f73a f08b 3eba 7c09 57bb
000000e0: 1171 903c 8935 64bc cee0 4bbb 6b9b 9e3a
000000f0: 3275 7e3c af52 aabc f243 a0bc 6ee5 daba

conv.4.weight f4 [64]
1.075636 1.0757873 1.0815815 1.0634625 1.0765063 1.0620087 1.1568351 1.1398867
1.0938234 1.1886708 1.1044849 1.1461262 1.065302 1.1167282 1.107592 1.0740988
1.1482238 1.0430449 1.1176347 1.0965072 1.0975796 1.1450968 1.1318591 1.055709
1.1317133 1.053192 1.0811743 1.1140679 1.0866783 1.0808821 0.94079185 1.0985241
1.1201925 1.084999 1.0286027 1.1124681 1.120375 1.0984637 1.057092 1.0983179
1.1170427 1.1104345 1.1627237 1.1223557 1.168369 1.058415 1.1203985 1.0788517
1.1035043 1.0624188 1.0910461 1.1162021 1.0700033 1.0528452 1.0461942 1.0378708
1.179565 1.063427 1.1519998 1.2181079 1.0677961 0.93951315 1.2130924 1.1337639
00000000: 71ae 893f 66b3 893f 4371 8a3f 8a1f 883f
00000010: f5ca 893f e7ef 873f 2c13 943f cfe7 913f
00000020: 6802 8c3f 5d26 983f c35f 8d3f 43b4 923f
00000030: d15b 883f f3f0 8e3f 93c5 8d3f 127c 893f
00000040: fff8 923f 7f82 853f a70e 8f3f 595a 8c3f
00000050: 7d7d 8c3f 8892 923f c2e0 903f 7921 873f
00000060: fbdb 903f ffce 863f eb63 8a3f c799 8e3f
00000070: 4618 8b3f 585a 8a3f bcd7 703f 709c 8c3f
00000080: 7862 8f3f 3fe1 8a3f 41a9 833f 5b65 8e3f
00000090: 7368 8f3f 759a 8c3f ca4e 873f ae95 8c3f
000000a0: 41fb 8e3f b822 8e3f 21d4 943f 5aa9 8f3f
000000b0: 1e8d 953f 257a 873f 3869 8f3f d017 8a3f
000000c0: a13f 8d3f 57fd 873f 66a7 8b3f b6df 8e3f
000000d0: def5 883f a2c3 863f b1e9 853f f3d8 843f
000000e0: fcfb 963f 601e 883f bb74 933f f6ea 9b3f
000000f0: 8bad 883f ef83 703f 9d46 9b3f 2d1f 913f

conv.4.bias f4 [64]
-0.4587696 -0.39846298 -0.5089006 -0.3723788 -0.42924124 -0.30266306 -0.29709 -0.47362733
-0.42852205 -0.2730269 -0.4160755 -0.31974065 -0.4502965 -0.44804674 -0.38878086 -0.46201646
-0.42111665 -0.40608606 -0.4199315 -0.47477722 -0.41274697 -0.38125926 -0.4198257 -0.40352497
-0.39594907 -0.45116565 -0.4314739 -0.3716378 -0.37152335 -0.43756628 -0.4157653 -0.38832003
-0.4261287 -0.41748276 -0.4243199 -0.4243665 -0.35811377 -0.37187058 -0.37582478 -0.4039797
-0.3530159 -0.4864798 -0.3095859 -0.49180898 -0.3569077 -0.4087654 -0.41344142 -0.3795926
-0.4257552 -0.44660679 -0.35169277 -0.424017 -0.451367 -0.4069476 -0.38141507 -0.3689944
-0.37925482 -0.44252706 -0.3476139 -0.41665113 -0.4121472 -0.3758849 -0.21123305 -0.46644092
00000000: d9e3 eabe 5703 ccbe 4f47 02bf 6fa8 bebe
00000010: 82c5 dbbe a7f6 9abe 2e1c 98be 487f f2be
00000020: 3e67 dbbe 2fca 8bbe d907 d5be 0cb5 a3be
00000030: 438d e6be 6266 e5be 490e c7be 6c8d ecbe
00000040: 9a9c d7be 83ea cfbe 4301 d7be 0016 f3be
00000050: 9253 d3be 6a34 c3be 65f3 d6be d39a cebe
00000060: d6b9 cabe 2fff e6be 26ea dcbe 4f47 bebe
00000070: 4f38 bebe b008 e0be 30df d4be e2d1 c6be
00000080: 8a2d dabe 4dc0 d5be 7540 d9be 9146 d9be
00000090: b05a b7be d265 bebe 1b6c c0be 6dd6 cebe
000000a0: 80be b4be e113 f9be 0b82 9ebe 63ce fbbe
000000b0: 9bbc b6be b349 d1be 98ae d3be f659 c2be
000000c0: 96fc d9be a5a9 e4be 1311 b4be c218 d9be
000000d0: 9319 e7be 705b d0be d648 c3be d6ec bcbe
000000e0: b02d c2be e892 e2be 73fa b1be 4c53 d5be
000000f0: f504 d3be fc73 c0be 7a4d 58be 58d1 eebe

conv.4.running_mean f4 [64]
-0.0961558 -0.35502812 -0.17999192 0.13114212 -0.1296832 -0.14315762 -0.1939434 0.003473546
-0.036493562 0.1783918 -0.3443182 -0.22128539 -0.103959545 -0.0723569 -0.10980846 -0.034601428
-0.13388267 -0.23516312 0.02037124 -0.320028 -0.060972974 -0.25382757 0.0038438507 -0.0055552428
-0.35040504 -0.080729134 -0.09230082 -0.255778 -0.22534244 -0.18466079 -0.31152955 -0.2820677
-0.1500462 -0.1964461 0.028477661 -0.36107472 -0.18744043 -0.1555297 -0.16752067 -0.0921154
-0.25448474 -0.18839984 -0.026034903 -0.15637478 -0.058637492 -0.1402947 -0.12928724 -0.13489656
-0.09735084 -0.19804555 -0.05999089 -0.15074074 -0.122394286 -0.09088121 -0.08972531 -0.3537527
-0.059957597 -0.124761425 -0.3046658 -0.14167751 0.022211215 -0.22083001 0.20144683 -0.3178145
00000000: 55ed c4bd 3fc6 b5be cd4f 38be 1f4a 063e
00000010: accb 04be e997 12be 1999 46be 6ea4 633b
00000020: 467a 15bd 57ac 363e 7a4a b0be a398 62be
00000030: bee8 d4bd db2f 94bd 42e3 e0bd 3aba 0dbd
00000040: 8a18 09be 9ace 70be 96e1 a63c b6da a3be
00000050: ccbe 79bd b0f5 81be 1de9 7b3b c108 b6bb
00000060: 4a68 b3be 5155 a5bd 3608 bdbd 56f5 82be
00000070: 2bc0 66be b817 3dbe cd80 9fbe 2d6b 90be
00000080: b6a5 19be 2b29 49be fc49 e93c c9de b8be
00000090: 62f0 3fbe 2d43 1fbe 8a8a 2bbe 00a7 bcbd
000000a0: d34b 82be e3eb 40be 2647 d5bc b620 20be
000000b0: de2d 70bd 6aa9 0fbe e063 04be 5322 0abe
000000c0: e15f c7bd 74cc 4abe 02b9 75bd c85b 1abe
000000d0: dba9 fabd ee1f babd e7c1 b7bd 131f b5be
000000e0: 1996 75bd eb82 ffbd 28fd 9bbe e913 11be
000000f0: 4bf4 b53c 4321 62be 1448 4e3e 95b8 a2be

conv.4.running_var f4 [64]
9.5240345 10.03227 9.648986 12.289611 11.194039 10.388424 13.215177 10.1066675
10.620918 22.540115 11.232283 14.981035 10.885808 11.591096 11.102956 11.7256565
10.0516815 11.054884 10.057786 11.566847 11.28781 11.528924 10.203284 10.802213
11.092349 10.239494 9.805971 10.659547 11.707854 10.015329 9.410378 11.582333
9.463577 10.120112 11.21344 13.294301 11.7173 10.136052 12.45924 11.058485
10.057483 11.08802 12.7307005 9.809835 12.603101 10.469067 10.198139 10.971733
11.210805 10.15255 11.020929 10.791903 11.381872 10.529492 9.672696 9.774273
10.221339 9.855234 13.729674 13.0385895 10.091822 11.418236 18.33754 9.589418
00000000: 7262 1841 2e84 2041 3f62 1a41 3fa2 4441
00000010: c91a 3341 fc36 2641 5d71 5341 e9b4 2141
00000020: 48ef 2941 2852 b441 6eb7 3341 52b2 6f41
00000030: 452c 2e41 2175 3941 b5a5 3141 4a9c 3b41
00000040: b0d3 2041 cee0 3041 b1ec 2041 ce11 3941
00000050: df9a 3441 7976 3841 a740 2341 ddd5 2c41
00000060: 437a 3141 f8d4 2341 42e5 1c41 818d 2a41
00000070: 5f53 3b41 ca3e 2041 e990 1641 3c51 3941
00000080: d06a 1741 fbeb 2141 406a 3341 75b5 5441
00000090: 107a 3b41 452d 2241 0c59 4741 8eef 3041
000000a0: 73eb 2041 8868 3141 f3b0 4b41 16f5 1c41
000000b0: 4da6 4941 4c81 2741 942b 2341 388c 2f41
000000c0: 755f 3341 d870 2241 ba55 3041 a2ab 2c41
000000d0: 261c 3641 cd78 2841 5dc3 1a41 6c63 1c41
000000e0: 9b8a 2341 0aaf 1d41 bfac 5b41 109e 5041
000000f0: 1a78 2141 18b1 3641 48b3 9241 426e 1941

conv.6.weight f4 [16, 64, 3, 3]
-0.0037331171 0.034199964 0.055321597 0.1334527 -0.023790544 -0.073522575 0.0705866 -0.05383233
-0.05737197 -0.08064225 0.0069644176 0.001941103 0.013286149 -0.049041755 -0.026996156 -0.06880679
-0.055088233 0.0549093 0.11035119 -0.044650964 0.089288846 0.03009465 0.04359595 -0.021242708
0.01891613 -0.034721565 -0.008048736 0.00096400385 0.08391817 -0.13456516 0.094561905 0.019945594
-0.04923856 0.039553393 -0.020240715 -0.014533787 -0.08747482 -0.03855361 -0.0463954 -0.021510681
-0.008375501 -0.008261388 0.017584132 -0.047745597 -0.03610162 -0.024683854 0.1699243 0.02674612
-0.10807862 -0.04203152 0.07938569 -0.12549344 -0.11369171 -0.0119197825 0.051281035 0.08064248
0.048177347 0.037727345 0.037280805 0.045472953 0.062978886 0.046843544 0.11411938 0.04983176
0.0543768 0.028361583 0.024678277 0.036411356 0.044339217 -0.06688387 -0.11034266 0.1059613
-0.13769521 0.024621487 0.050552227 -0.104743175 -0.05357402 -0.0012490901 -0.05145985 -0.01620151
0.049027693 -0.01853254 0.10454348 -0.030021632 0.031290766 -0.0072387843 -0.007033335 -0.0041703093
-0.010843639 0.021242388 0.027521577 -0.017988043 -0.044725727 -0.03378783 0.05975652 -0.07367326
0.011458904 0.024118407 -0.116347924 0.09559277 0.011671121 0.10856291 -0.005407988 -0.012943878
-0.005099591 0.06952933 -0.01650901 -0.020135608 0.03097703 0.035400234 -0.133282 -0.05874177
-0.03902332 -0.059879124 -0.07999261 -0.024773136 0.10062418 -0.120042294 0.12340933 -0.024470996
0.037468746 -0.039626297 -0.038682368 -0.045920946 -0.00012993532 -0.009289089 0.06211036 0.02101857
0.13652167 -0.004466779 0.003032417 0.035577197 -0.10567908 0.006707964 0.005953412 0.03072742
-0.043155193 -0.0304454 -0.071471915 -0.080791324 -0.07767064 -0.080194354 -0.041920498 -0.08586706
0.08113306 0.033138603 -0.05512168 -0.040422965 0.14336097 -0.05210225 0.08833752 -0.046558145
0.022670545 0.050858814 0.034089446 0.003251264 0.065883905 0.033333044 -0.014779354 -0.08770957
-0.0068050874 -0.052695744 0.037516396 0.015053403 -0.057816878 0.003633317 0.037722852 -0.038514677
-0.021799719 -0.01584722 0.0032054118 0.018279685 -0.0077464664 0.031010559 -0.044936985 -0.022379268
0.026994865 0.020756347 -0.084387384 -0.006754393 0.011996457 0.0391982 -0.08556712 -0.042617973
0.047385093 0.029125072 0.11953133 -0.029425247 0.0025954363 0.04459191 -0.001598581 -0.064752236
-0.03194603 -0.000802083 0.050247647 -0.11054575 0.0039661173 -0.0347265 0.004987519 0.011847368
0.07872837 -0.106710225 0.049998175 0.028784366 -0.022566626 0.04394804 -0.089492016 -0.054307688
0.023768958 -0.056390215 -0.04115728 0.0139944265 -0.0034319086 -0.079897 -0.037077308 -0.15121791
-0.012600726 0.083373874 -0.10135408 0.037296377 0.07971989 0.021744678 -0.023640532 -0.018336985
-0.078645974 0.10821904 -0.0875337 0.023311472 0.06422296 -0.019418465 0.0058513097 -0.07639034
0.033077266 0.0690795 -0.027266044 0.03396963 -0.022722723 0.077065006 -0.0067201946 0.02848778
0.010274439 -0.026936324 0.119037084 0.09544677 0.12388282 0.043327715 -0.05569162 0.059919678
0.057737544 -0.04153563 -0.027510475 0.0260065 -0.053335667 0.0015426727 -0.032612234 0.070517525
00000000: 50a7 74bb 4315 0c3d e698 623d d3a7 083e
00000010: 63e4 c2bc 0193 96bd b58f 903d 4a7f 5cbd
00000020: dffe 6abd c427 a5bd c535 e43b 9c6c fe3a
00000030: 26ae 593c 02e0 48bd 0b27 ddbc 93ea 8cbd
00000040: 33a4 61bd 93e8 603d ceff e13d eee3 36bd
00000050: 12dd b63d 0e89 f63c ab91 323d 3005 aebc
00000060: 00f6 9a3c 3338 0ebd d8de 03bc 34b5 7c3a
00000070: 4add ab3d 73cb 09be aca9 c13d f164 a33c
00000080: 5fae 49bd bd02 223d dbcf a5bc 1f1f 6ebc
00000090: 0026 b3bd 64ea 1dbd 1a09 3ebd 2b37 b0bc
000000a0: 6639 09bc c65a 07bc 990c 903c e390 43bd
000000b0: 4bdf 13bd cb35 cabc a300 2e3e ae1a db3c
000000c0: 5358 ddbd 3e29 2cbd f794 a23d 5a81 00be
000000d0: 33d7 e8bd 314b 43bc 100c 523d e227 a53d
000000e0: 9c55 453d fd87 1a3d c2b3 183d d941 3a3d
000000f0: 13fb 803d 04df 3f3d 6cb7 e93d 631c 4c3d
00000100: 35ba 5e3d 8d56 e83c 192a ca3c 1324 153d
00000110: 0a9d 353d 69fa 88bd 55fb e1bd 3d02 d93d
00000120: f9ff 0cbe 00b3 c93c da0f 4f3d 9783 d6bd
00000130: 6e70 5bbd 82b8 a3ba 90c7 52bd 07b9 84bc
00000140: 43d1 483d 8ed1 97bc e41a d63d edef f5bc
00000150: bf2a 003d 5333 edbb e477 e6bb 17a7 88bb
00000160: 85a9 31bc 8404 ae3c ee74 e13c a95b 93bc
00000170: 5332 37bd 1c65 0abd 41c3 743d 02e2 96bd
00000180: 20be 3b3c f793 c53c d247 eebd 24c6 c33d
00000190: 3b38 3f3c 3b56 de3d 7e35 b1bb 8f12 54bc
000001a0: 781a a7bb 6565 8e3d e73d 87bc 6ef3 a4bc
000001b0: 8ac3 fd3c d6ff 103d 147b 08be 369b 70bd
000001c0: ebd6 1fbd d043 75bd 2ad3 a3bd 08f1 cabc
000001d0: 0d14 ce3d bcd8 f5bd 08be fc3d 6677 c8bc
000001e0: d478 193d 2f4f 22bd 6771 1ebd 9a17 3cbd
000001f0: 3f3f 08b9 4331 18bc 6f67 7e3d 232f ac3c
00000200: 56cc 0b3e 0f5e 92bb 84bb 463b 65b9 113d
00000210: 466e d8bd 7bce db3b d714 c33b 12b8 fb3c
00000220: 80c3 30bd a268 f9bc de5f 92bd ec75 a5bd
00000230: c911 9fbd f03c a4bd d4b4 2bbd 12db afbd
00000240: 1729 a63d 58bc 073d 45c7 61bd 8d92 25bd
00000250: 38cd 123e 2b69 55bd 4dea b43d c1b3 3ebd
00000260: 94b7 b93c 5551 503d 60a1 0b3d 2913 553b
00000270: 24ee 863d 3b88 083d 1b25 72bc 13a1 b3bd
00000280: 36fd debb 7ed7 57bd cbaa 193d 8ca2 763c
00000290: 64d1 6cbd f21c 6e3b 4783 1a3d 91c1 1dbd
000002a0: 5395 b2bc 07d2 81bc e311 523b 47bf 953c
000002b0: 12d6 fdbb db09 fe3c d80f 38bd ba54 b7bc
000002c0: 5624 dd3c 3709 aa3c 4bd3 acbd f553 ddbb
000002d0: ca8c 443c 4b8e 203d d03d afbd 2f90 2ebd
000002e0: df16 423d b497 ee3c d8cc f43d 370d f1bc
000002f0: 3218 2a3b 02a6 363d 7a87 d1ba d29c 84bd
00000300: d7d9 02bd e142 52ba 7ad0 4d3d cf65 e2bd
00000310: 34f6 813b 603d 0ebd 576e a33b 771b 423c
00000320: 573c a13d e48a dabd e3ca 4c3d 31cd eb3c
00000330: a5dd b8bc dc02 343d 9747 b7bd bd71 5ebd
00000340: 1eb7 c23c 6df9 66bd 8994 28bd e148 653c
00000350: dfe9 60bb 0aa1 a3bd 60de 17bd ded8 1abe
00000360: 4773 4ebc ecbf aa3d ba92 cfbd 16c4 183d
00000370: 2f44 a33d e521 b23c caa9 c1bc 7237 96bc
00000380: 2411 a1bd f2a1 dd3d de44 b3bd b3f7 be3c
00000390: 5487 833d 7913 9fbc 58bc bf3b 8a72 9cbd
000003a0: 077c 073d 8e79 8d3d 0a5d dfbc bd23 0b3d
000003b0: 0125 babc 42d4 9d3d 1435 dcbb 345f e93c
000003c0: 1f56 283c 91a9 dcbc b7c9 f33d 9979 c33d
000003d0: 47b6 fd3d 6778 313d e51c 64bd 566e 753d
000003e0: 347e 6c3d 4421 2abd a65d e1bc 950b d53c
000003f0: 8076 5abd 8233 ca3a 6894 05bd 7e6b 903d

conv.6.bias f4 [16]
-0.009002215 0.023043463 -0.038263798 -0.021364471 0.018541925 -0.040504057 0.020086858 0.005652887
0.033266224 0.008371098 0.0092577925 -0.034306556 -0.020991586 -0.0395632 0.026260337 -0.02861333
00000000: 077e 13bc a5c5 bc3c 80ba 1cbd 8b04 afbc
00000010: 3ce5 973c 95e7 25bd 328d a43c da3b b93b
00000020: 2a42 083d ee26 093c ffad 173c 0885 0cbd
00000030: 8cf6 abbc 060d 22bd eb1f d73c 8166 eabc

conv.7.weight f4 [16]
1.1206758 1.1134304 1.1615214 1.2242227 1.2088715 1.1203481 1.1624664 1.1222534
1.1481452 1.1882093 1.1458812 1.102043 1.1037534 1.1081421 1.1058424 1.1277237
00000000: 4e72 8f3f e384 8e3f bcac 943f 54b3 9c3f
00000010: 4dbc 9a3f 9167 8f3f b3cb 943f 00a6 8f3f
00000020: 6cf6 923f 3e17 983f 3cac 923f bf0f 8d3f
00000030: cb47 8d3f 9ad7 8d3f 3e8c 8d3f 4059 903f

conv.7.bias f4 [16]
0.057311412 -0.014140023 -0.00057483505 0.104393244 -0.11282261 -0.08314796 -0.09528004 0.015206051
-0.024432082 -0.063959315 0.06934376 -0.076440215 0.079428226 -0.08705198 0.0409841 0.033379007
00000000: 5fbf 6a3d 8eab 67bc 87b0 16ba 20cc d53d
00000010: 8a0f e7bd 7a49 aabd 2e22 c3bd cd22 793c
00000020: ca25 c8bc 1afd 82bd 1a04 8e3d b08c 9cbd
00000030: 44ab a23d 4f48 b2bd f2de 273d 6db8 083d

conv.7.running_mean f4 [16]
-0.07937155 0.5889458 -0.25684056 0.44673625 -0.60173565 -0.7161606 -0.4337009 0.03481104
-0.23302999 -0.1893794 0.5872139 -0.36614498 0.21384767 0.04059981 -0.062501214 0.71483284
00000000: 8d8d a2bd 27c5 163f 9b80 83be 9dba e43e
00000010: 590b 1abf 4d56 37bf 0b0e debe 0596 0e3d
00000020: 6a9f 6ebe acec 41be a653 163f 5b77 bbbe
00000030: e2fa 5a3e fd4b 263d a300 80bd 49ff 363f

conv.7.running_var f4 [16]
0.6280543 0.6425091 0.6929718 0.7734503 0.8531053 0.58776796 0.60300946 0.5374868
0.45371485 0.53272235 0.5976536 0.5500435 0.49270123 0.47576508 0.6350519 0.59681576
00000000: 2bc8 203f 7a7b 243f 9a66 313f d700 463f
00000010: 1c65 5a3f f677 163f d45e 1a3f bc98 093f
00000020: 504d e83e 7e60 083f d4ff 183f a7cf 0c3f
00000030: 5643 fc3e 7b97 f33e c392 223f ebc8 183f

fc.0.weight f4 [256, 144]
-0.0009140705 -0.06459214 0.006851817 0.025664521 -0.028155154 0.017915651 -0.1549479 -0.017323712
0.06276012 -0.0062212045 0.045461856 0.07327918 0.009758443 0.03932316 -0.030283459 -0.07605839
0.1601681 -0.13782206 0.04790132 -0.17813936 -0.17709534 0.10797155 -0.094992526 -0.03636493
0.040096648 -0.05793456 -0.05176569 0.114794776 -0.06279608 -0.16525643 0.051186234 -0.020950928
-0.12740183 0.059983507 -0.084140666 -0.035328973 0.010693699 -0.008184461 0.04633209 -0.0894768
0.12075229 0.06094482 -0.02741364 0.06585088 0.019857312 -0.012621599 -0.038667493 -0.10206449
0.010046536 0.011584231 0.026465863 -0.0018089084 0.02118124 -0.06376058 0.002660527 -0.1661881
0.044787414 -0.009899801 0.07829699 0.005320555 -0.07195091 0.17727958 0.06012619 -0.06349869
0.025895778 -0.104734056 0.075645916 0.032639544 0.01571092 -0.002192889 -0.017724477 -0.022630554
-0.10423187 0.08068365 -0.039436042 0.03433744 -0.08993806 0.00815587 0.022665426 0.053609654
0.13372596 -0.021312403 0.047667455 0.17844181 -0.007646819 0.0243179 0.078113005 -0.099336855
-0.059486944 0.039828796 -0.028285699 -0.10008619 -0.07840933 -0.105061375 -0.008676704 -0.08225659
-0.038539205 0.042522922 0.08672724 -0.07120069 0.07304991 0.07513286 -0.13521303 0.07311011
-0.04790745 0.01585022 -0.07620319 -0.051300976 0.034992926 -0.075546145 -0.049528506 -0.163066
0.047449946 -0.023413215 0.053587224 -0.009366559 -0.0020234245 0.052090857 0.10908803 -0.077539474
0.09058489 -0.073797554 0.071832456 -0.051248174 -0.11075134 -0.090412624 -0.002110925 -0.048958395
-0.07985824 -0.04900794 -0.11413841 -0.016455062 0.13768888 -0.023037191 0.077162124 -0.0799686
0.13508902 -0.020072259 -0.14852002 -0.1157027 0.03827098 0.11377326 -0.02709146 0.055837847
0.0054107103 -0.08548598 0.15958068 -0.13666138 -0.060606644 -0.18377313 -0.094441526 0.10782987
-0.06787684 -0.009350133 -0.010771072 -0.11350911 -0.039344944 0.08083074 0.0030936932 0.123256244
0.069475226 -0.04081493 -0.02984906 0.037918802 -0.1015819 0.1559257 -0.07001705 0.11488364
0.083775006 0.07617413 -0.021641096 -0.051975504 0.029741202 -0.08779204 -0.06301742 -0.070007816
-0.009111265 0.053284172 0.024130752 -0.12332689 -0.033124782 0.10441575 -0.020404158 -0.08350039
0.07857338 -0.04093748 -0.035518207 -0.0045850547 0.036293123 0.09627363 0.05422864 0.09839554
0.18954723 0.0458898 0.07065496 -0.1078657 -0.041206196 0.13192871 -0.11001907 0.059048478
0.020157298 -0.053488877 -0.056999296 -0.088862345 0.0024009359 0.14957342 0.047092285 -0.045576278
-0.1264888 0.048106447 0.07723828 0.021409543 -0.10306481 0.110465385 0.03382997 0.10347683
-0.083754435 0.102807224 -0.040279154 0.095181175 0.1117344 -0.020184923 0.009678045 -0.073032565
-0.04716107 -0.054962765 0.0035692842 0.08119092 0.018837377 -0.018019075 -0.10962714 0.007875366
0.088033654 0.050858125 0.107282914 0.09676095 0.06402795 0.036108486 -0.010410855 -0.058226313
0.0826248 -0.03610128 -0.04048328 -0.02162918 -0.02339182 -0.19489326 -0.07076595 0.05584216
0.060494 0.13067798 0.025278285 -0.029806072 -0.050634295 -0.079976514 -0.119366586 0.032551818
00000000: 3c9e 6fba e248 84bd 3585 e03b 673e d23c
00000010: a3a5 e6bc d8c3 923c aaaa 1ebe 75ea 8dbc
00000020: 6188 803d 3fdb cbbb 3636 3a3d 6513 963d
00000030: e0e1 1f3c 5211 213d 0415 f8bc 80c4 9bbd
00000040: 1b03 243e 3a21 0dbe 2d34 443d 2a6a 36be
00000050: 7b58 35be 3020 dd3d 718b c2bd 65f3 14bd
00000060: 623c 243d ca4c 6dbd 4308 54bd 8619 eb3d
00000070: 3b9b 80bd fb38 29be a8a8 513d 48a1 abbc
00000080: a075 02be 44b1 753d f151 acbd 1db5 10bd
00000090: a034 2f3c 1e18 06bc b8c6 3d3d 9d3f b7bd
000000a0: fa4c f73d 47a1 793d 9292 e0bc d4dc 863d
000000b0: cdab a23c d3ca 4ebc ce61 1ebd 3007 d1bd
000000c0: 3a9a 243c c9cb 3d3c f0ce d83c e518 edba
000000d0: 4884 ad3c e894 82bd 3c5c 2e3b 372d 2abe
000000e0: 0273 373d c632 22bc 2c5a a03d 0d58 ae3b
000000f0: 005b 93bd c788 353e e146 763d 9a0b 82bd
00000100: 6223 d43c cf7e d6bd 3fec 9a3d 0bb1 053d
00000110: 30b4 803c 93b6 0fbb ec32 91bc b663 b9bc
00000120: 8577 d5bd 783d a53d b087 21bd 6aa5 0c3d
00000130: 7231 b8bd 33a0 053c d8ac b93c cc95 5b3d
00000140: 75ef 083e 5997 aebc f33e 433d 73b9 363e
00000150: 2b92 fabb 5536 c73c b6f9 9f3d 1f71 cbbd
00000160: 95a8 73bd 8523 233d 69b7 e7bc fdf9 ccbd
00000170: 1295 a0bd 6b2a d7bd bc28 0ebc 2576 a8bd
00000180: 49db 1dbd 842c 2e3d 0d9e b13d abd1 91bd
00000190: 319b 953d 42df 993d 4975 0abe c1ba 953d
000001a0: 9a3a 44bd 52d8 813c 6b10 9cbd f920 52bd
000001b0: be54 0f3d f0b7 9abd 67de 4abd c6fa 26be
000001c0: e05a 423d 12cd bfbc 477e 5b3d 3276 19bc
000001d0: 6e9b 04bb 395d 553d 8c69 df3d 04cd 9ebd
000001e0: 9284 b93d 2c23 97bd e51c 933d 9be9 51bd
000001f0: 99d1 e2bd 412a b9bd 7257 0abb 9988 48bd
00000200: b88c a3bd 8dbc 48bd 66c1 e9bd c4cc 86bc
00000210: 50fe 0c3e 7eb8 bcbc 2d07 9e3d 94c6 a3bd
00000220: c754 0a3e 946e a4bc a215 18be 8af5 ecbd
00000230: 08c2 1c3d f401 e93d e9ee ddbc 3ab6 643d
00000240: 544c b13b 4613 afbd 1e69 233e f6f0 0bbe
00000250: ac3e 78bd 062f 3cbe 8f6a c1bd e8d5 dc3d
00000260: 0303 8bbd 4d31 19bc 2679 30bc 7777 e8bd
00000270: 2a28 21bd 968a a53d 8fbf 4a3b c56d fc3d
00000280: 0749 8e3d 8e2d 27bd 0486 f4bc bf50 1b3d
00000290: 2c0a d0bd fdaa 1f3e 1965 8fbd 1d48 eb3d
000002a0: 3b92 ab3d 2f01 9c3d ab48 b1bc 44e4 54bd
000002b0: d2a3 f33c 50cc b3bd 470f 81bd 4260 8fbd
000002c0: 6a47 15bc 8140 5a3d dbad c53c cf92 fcbd
000002d0: daad 07bd edd7 d53d 9f26 a7bc 4102 abbd
000002e0: 15eb a03d 0fae 27bd 8a7b 11bd 3a3e 96bb
000002f0: 19a8 143d 1c2b c53d da1e 5e3d 9a83 c93d
00000300: ab18 423e f1f6 3b3d 8cb3 903d b1e8 dcbd
00000310: d4c7 28bd 5218 073e ae51 e1bd d1dc 713d
00000320: eb20 a53c 2717 5bbd 1878 69bd 76fd b5bd
00000330: 0559 1d3b c629 193e d7e3 403d 31ae 3abd
00000340: 4886 01be 440b 453d 1a2f 9e3d 1163 af3c
00000350: a513 d3bd ad3b e23d 4b91 0a3d a9eb d33d
00000360: 7287 abbd 988c d23d c1fb 24bd 59ee c23d
00000370: 01d5 e43d da5a a5bc aa90 1e3c 1992 95bd
00000380: f72b 41bd a320 61bd a7ea 693b 6d47 a63d
00000390: d850 9a3c bd9c 93bc 3284 e0bd ae07 013c
000003a0: fd4a b43d 9c50 503d 25b7 db3d 9b2a c63d
000003b0: 1621 833d 7ee6 133d 4a92 2abc b77e 6ebd
000003c0: 3137 a93d f0de 13bd ccd1 25bd ae2f b1bc
000003d0: 34a0 bfbc 1992 47be bded 90bd c0ba 643d
000003e0: 8ec8 773d 73d0 053e 6814 cf3c dd2b f4bc
000003f0: e865 4fbd baca a3bd 7876 f4bd 0e55 053d

fc.0.bias f4 [256]
-0.011590588 -0.121381715 -0.115502626 -0.09313367 0.012619041 0.0098257465 -0.065384135 -0.025261367
0.010460582 -0.056307506 -0.02498893 -0.04034314 -0.07720015 0.0030549457 -0.06879764 0.007466665
-0.007851516 0.04799926 -0.11174425 -0.055275906 -0.11562359 -0.0165824 -0.09885577 0.0334571
-0.0038370197 0.02656901 0.026762845 -0.044344444 -0.10174315 0.04888493 0.053253837 -0.04235863
-0.019971931 -0.08702701 -0.0068142368 -0.067716576 0.036402553 0.02808293 0.01591322 -0.036729764
0.044056114 -0.0050767353 0.043972712 -0.0017386508 -0.08325991 -0.05599424 -0.002018731 -0.10008966
-0.08250488 0.029800082 -0.10362706 0.044906028 0.02425575 0.011019476 -0.12291567 0.007979586
-0.10711107 -0.062218074 -0.0776362 -0.12491813 -0.043714635 -0.13592224 0.02975865 0.117207475
-0.059483882 -0.07776365 0.031311225 -0.05799404 -0.08779513 -0.020815423 -0.06257385 -0.11222565
0.007396268 0.02879922 -0.09029185 -0.10513623 -0.01124764 -0.109035 -0.11379243 -0.09586804
-0.031607397 -0.076758645 -0.09002835 0.055174638 -0.044549823 -0.018007034 -0.12130687 -0.11518095
-0.028773589 -0.0031240706 -0.020478398 -0.03785179 -0.09432921 -0.025970139 0.0010540052 0.023685863
-0.08201283 -0.12034507 0.013106338 0.031614836 0.00054688286 -0.09095151 -0.009450985 -0.056613863
-0.003716019 -0.098147675 0.0030839446 -0.11318446 -0.004481392 0.008051854 -0.07052689 -0.11781339
-0.06107684 -0.11928855 0.0048177815 0.035197455 -0.0909288 -0.07041539 -0.09218836 -0.0448006
0.003986907 -0.06428044 0.0117612565 -0.094789065 -0.021872923 -0.103916995 0.015855052 0.030505866
-0.117618315 -0.07241747 -0.020526035 -0.0719441 -0.094694376 0.011904787 -0.11288349 -0.09706937
-0.10442065 -0.10201582 -0.01043873 -0.08722632 -0.088797174 -0.0137184225 0.4303198 -0.123241104
0.04217935 -0.06530444 -0.064964585 -0.07077298 -0.07754725 -0.02060911 -0.041910253 -0.14309329
-0.07092892 -0.03773907 -0.09148451 -0.11539508 0.036028177 0.031172914 0.041142575 -0.013868133
-0.029118307 -0.11096084 -0.078558594 0.05501949 -0.060984828 -0.09765763 -0.024715735 -0.11097822
0.065116346 -0.06907243 -0.028461367 -0.12874782 -0.12010199 0.037544012 -0.061725978 -0.029428292
0.04886835 -0.0031247307 -0.06337696 -0.019172208 0.008338758 -0.028976284 -0.08187116 0.031019941
-0.01172924 0.03131805 -0.031057535 -0.109396316 -0.060934637 0.020348283 0.024810603 -0.057972647
-0.102823555 -0.001592959 -0.07798578 0.012820204 -0.09554182 0.008121265 -0.12718533 -0.05998449
-0.072539605 -0.036190737 -0.116754696 -0.07512914 -0.06745896 0.029772254 -0.10348268 -0.008207945
-0.043199852 -0.011952241 0.004705134 0.017142039 -0.09627361 -0.09465617 -0.10839344 -0.11314678
-0.015685167 -0.069554225 0.014062054 -0.08629423 -0.07699616 -0.058957238 -0.09441686 0.03282486
0.021749415 -0.024717854 -0.086079925 -0.085079126 0.0008260706 -0.10131916 -0.09900449 0.027356965
-0.021300845 -0.09832788 0.014652995 -0.114302225 -0.104798585 0.019077195 -0.0015034939 -0.059860624
-0.0973916 0.011574751 0.0042465185 -0.05866781 -0.026058383 -0.049579777 -0.060731184 -0.097569875
-0.028415795 -0.0013942663 -0.044799585 -0.042170245 0.04239145 0.00064982224 -0.03431288 -0.11889024
00000000: 73e6 3dbc fa96 f8bd a48c ecbd debc bebd
00000010: 18c0 4e3c 2bfc 203c 1ee8 85bd edf0 cebc
00000020: dc62 2b3c b3a2 66bd 96b5 ccbc d93e 25bd
00000030: 1d1b 9ebd 7c35 483b c7e5 8cbd edaa f43b
00000040: a5a3 00bc df9a 443d 2bda e4bd fd68 62bd
00000050: 10cc ecbd d0d7 87bc e574 cabd 500a 093d
00000060: 8276 7bbb 41a7 d93c c13d db3c 85a2 35bd
00000070: b65e d0bd 903b 483d b220 5a3d 3e80 2dbd
00000080: 2d9c a3bc 383b b2bd f649 dfbb fdae 8abd
00000090: d81a 153d 2c0e e63c 715c 823c f371 16bd
000000a0: 2f74 343d be5a a6bb bb1c 343d 71e3 e3ba
000000b0: 2c84 aabd 375a 65bd b04c 04bb cffb ccbd
000000c0: 52f8 a8bd 4d1f f43c 6d3a d4bd 62ef 373d
000000d0: ffb3 c63c 088b 343c 36bb fbbd cfbc 023c
000000e0: 0c5d dbbd 61d8 7ebd baff 9ebd 14d5 ffbd
000000f0: 1e0e 33bd 332f 0bbe 6ac8 f33c 790a f03d
00000100: 5fa5 73bd 8c42 9fbd 3340 003d 298b 6dbd
00000110: efcd b3bd 1b85 aabc b826 80bd 90d6 e5bd
00000120: 655c f23b 58ec eb3c efea b8bd aa51 d7bd
00000130: 0548 38bc be4d dfbd 010c e9bd 7756 c4bd
00000140: c276 01bd a333 9dbd c960 b8bd cdfe 613d
00000150: e079 36bd 7d83 93bc bc6f f8bd fde3 ebbd
00000160: 97b6 ebbc 35bd 4cbb 50c2 a7bc 7b0a 1bbd
00000170: ac2f c1bd 54bf d4bc 8c26 8a3a db08 c23c
00000180: 58f6 a7bd 7a77 f6bd f7bb 563c 8f7e 013d
00000190: b05c 0f3a c944 babd 4ed8 1abc f0e3 67bd
000001a0: 7488 73bb a601 c9bd 011c 4a3b 41cd e7bd
000001b0: a4d8 92bb eceb 033c 6770 90bd 2648 f1bd
000001c0: b52b 7abd 8e4d f4bd 7bde 9d3b 352b 103d
000001d0: e138 babd f235 90bd 40cd bcbd d580 37bd
000001e0: 9aa4 823b 77a5 83bd 49b2 403c c520 c2bd
000001f0: d82e b3bc 6fd2 d4bd 74e2 813c 70e7 f93c
00000200: dfe1 f0bd 9c4f 94bd 3726 a8bc 6e57 93bd
00000210: 20ef c1bd 4c0c 433c 762f e7bd 4ecc c6bd
00000220: 7eda d5bd aced d0bd 3507 2bbc b6a3 b2bd
00000230: 4bdb b5bd 3cc3 60bc e052 dc3e d565 fcbd
00000240: 41c4 2c3d 56be 85bd 270c 85bd 6df1 90bd
00000250: 18d1 9ebd 70d4 a8bc 16aa 2bbd 0c87 12be
00000260: 2e43 91bd 4894 1abd 3b5c bbbd 4154 ecbd
00000270: 4892 133d 575e ff3c 1e85 283d 2a37 63bc
00000280: 8489 eebc 703f e3bd 54e3 a0bd 1e5c 613d
00000290: 3acb 79bd b900 c8bd a778 cabc 8d48 e3bd
000002a0: b85b 853d d975 8dbd d027 e9bc 78d6 03be
000002b0: 08f8 f5bd c0c7 193d 61d4 7cbd 9a13 f1bc
000002c0: 2e2a 483d 48c8 4cbb c8cb 81bd 090f 9dbc
000002d0: 499f 083c ac5f edbc 11ac a7bd 881d fe3c
000002e0: 002c 40bc 5b47 003d 5f6c febc 2d0b e0bd
000002f0: 9996 79bd 71b1 a63c 9b3f cb3c ba74 6dbd
00000300: 2895 d2bd d6ca d0ba 02b7 9fbd d50b 523c
00000310: 6eab c3bd 0e0f 053c df3c 02be 4cb2 75bd
00000320: a58f 94bd bd3c 14bd 161d efbd 4edd 99bd
00000330: ec27 8abd f1e4 f33c baee d3bd 9e7a 06bc
00000340: 54f2 30bd 55d3 43bc 862d 9a3b 766d 8c3c
00000350: 192b c5bd 18db c1bd 61fd ddbd 80b9 e7bd
00000360: 2e7e 80bc 7272 8ebd 8864 663c 07bb b0bd
00000370: 2ab0 9dbd 257d 71bd a05d c1bd 5c73 063d
00000380: d42b b23c 197d cabc ac4a b0bd f73d aebd
00000390: a98c 583a 6b80 cfbd dec2 cabd b71b e03c
000003a0: 1c7f aebc 2160 c9bd 1e13 703c 4917 eabd
000003b0: a4a0 d6bd c747 9c3c e210 c5ba 6a30 75bd
000003c0: 3f75 c7bd 06a4 3d3c 6126 8b3b a84d 70bd
000003d0: 6478 d5bc 2a14 4bbd 43c1 78bd b7d2 c7bd
000003e0: 3ec8 e8bc d0bf b6ba c57f 37bd b5ba 2cbd
000003f0: a8a2 2d3d d558 2a3a aa8b 0cbd ba7c f3bd
