PARALLEL/weights/best_model_pred1.pth (torch, 286882 bytes, 9 tensors)

network.0.weight f4 [32, 5, 3, 3]
000000 8c 29 93 3b 1f 80 b9 3d 09 a0 0e be 9b b3 7f bd
       0.0044910368 0.0905764 -0.13928236 -0.062427144
000010 34 8a 25 be bb 4b e3 bd de 7e 95 3d ed c2 b5 3b
       -0.16166002 -0.11098429 0.072995886 0.0055469186
000020 2d 02 1e be 6d 88 af bc 4c 9d 25 bd 5a 01 c4 3d
       -0.15430517 -0.021427358 -0.040433213 0.0957057
000030 e3 34 d9 bd 75 c7 8c 3d f1 1a c3 3b a8 60 47 be
       -0.106057905 0.06873981 0.0059541394 -0.19470465
000040 8d 5d 32 be c0 e9 54 be a0 71 cf 3c 30 6d 0e 3d
       -0.174185 -0.20792294 0.025322735 0.034772098
000050 66 5f 8c bc 61 c0 a5 bd 34 d0 6c be 43 31 86 be
       -0.017135333 -0.08093334 -0.23126298 -0.2620946
000060 96 e2 16 bd 6b f1 24 3e 27 8d 90 3c 9b dc b6 bd
       -0.036837183 0.16107719 0.017645432 -0.08928796
000070 4b 6f 89 bd ac 68 5b be 5a 04 ea 3d 8f ae 83 3e
       -0.067106806 -0.21426648 0.11426611 0.25719115
000080 90 23 44 3e d5 29 c2 bc 13 46 a5 3d da 50 f3 bd
       0.19154191 -0.023701588 0.08070006 -0.118806556
000090 64 5c 92 3d ea 58 c3 3d fa 4e 0a be 56 59 df bd
       0.07146528 0.095384434 -0.1350669 -0.10905711
0000a0 ab df 77 bd 25 c1 94 be e5 98 df bb 6b 35 fa bc
       -0.06051604 -0.29053608 -0.0068236464 -0.03054305
0000b0 e1 94 b8 bd 5a 94 3f bc 57 16 ca 3d 76 47 25 3d
       -0.090127714 -0.011693085 0.09867542 0.040351354
0000c0 40 21 a4 bc ac 2c f0 3c 95 54 bb 3c 06 29 2f be
       -0.020035386 0.029318176 0.02286748 -0.17105493
0000d0 ef d6 38 be 34 77 f4 3d 17 71 13 3e b9 d2 d7 3e
       -0.1805074 0.11936799 0.14398609 0.42152956
0000e0 99 ed 25 bd 3b 38 b9 bd aa b7 07 3e 21 25 79 be
       -0.040509794 -0.09043928 0.13253656 -0.2433057
0000f0 ba 8d 41 3e bb a9 5d 3e d8 e5 1a be 16 a8 40 be
       0.1890172 0.21646778 -0.15126741 -0.1881412
000100 1e f9 ba 3d 6b 10 9d bd f3 1c 8b 3d 6b 4a e4 bd
       0.091295466 -0.07669147 0.06792631 -0.111470066
000110 c8 eb 9a 3d c9 fd 62 3a aa 63 31 be 8c 0b 57 3b
       0.07564503 0.0008659033 -0.17323175 0.003281328
000120 b5 b8 1c bd 3e 70 07 be 3b 0f 5f b9 5d 3d 0e 3c
       -0.038262088 -0.13226411 -0.00021272611 0.008681622
000130 d2 50 57 be 86 34 ee bc b3 d4 90 be a6 81 fd bd
       -0.21026924 -0.02907778 -0.28287277 -0.12378244
000140 a7 e6 b0 bd 89 f7 c5 bd f9 34 74 3c 6c f9 70 3d
       -0.086377434 -0.09666354 0.014905208 0.058831617
000150 35 bb 8a bd 96 be 9b bd 30 f1 2f 3e 17 4f 82 be
       -0.06773988 -0.07604711 0.1718185 -0.25450966
000160 51 aa 16 bd 00 e7 80 bd 3e ab f2 3c 15 70 e6 bd
       -0.03678352 -0.0629406 0.02962267 -0.11251847
000170 6f 53 53 be 6b cd cf bd fa 91 b7 bd 29 6e 6d be
       -0.20637296 -0.10146602 -0.0896339 -0.23186554
000180 26 44 19 3c 74 a1 04 3d 34 7f 11 be c1 b1 5d 3e
       0.009354627 0.032380536 -0.1420868 0.21649839
000190 8e de 44 bb 42 f5 26 3e cf 03 d2 3d eb 8c ee 3b
       -0.003003988 0.16304496 0.10254633 0.0072799823
0001a0 6e f7 64 be b8 6f 48 be 50 7b 11 bb 56 d6 4a be
       -0.22360012 -0.19573867 -0.0022198744 -0.19808325
0001b0 6d c7 40 be f2 69 99 bd 6d 69 e3 3d d9 89 73 bd
       -0.18826075 -0.074909106 0.11104093 -0.059457634
0001c0 d3 ea 32 3e 40 47 4e bd 00 03 c7 3d 26 25 91 3d
       0.17472391 -0.050360918 0.09717369 0.070871636
0001d0 71 81 17 3e bb 9d 52 bd 32 f8 d2 bd 6f 0c 6d 3e
       0.14795472 -0.051419955 -0.10301246 0.23149274
0001e0 f7 4d 9d 3e db a0 6f be e6 98 0c 3e a0 49 04 3e
       0.30723545 -0.23401205 0.13730201 0.1291871
0001f0 cc 65 b2 bc 4d 2d 12 be 2e b0 b7 3d 45 11 a2 bb
       -0.021777056 -0.14275093 0.089691505 -0.0049459063
000200 d6 ed 84 bd 07 b1 e3 bc 45 39 81 bd 64 68 36 bd
       -0.06490676 -0.027794374 -0.063097514 -0.04453315
000210 46 e2 08 be 12 29 ad bc d9 81 b9 bd f3 f4 01 be
       -0.13367566 -0.021137748 -0.090579696 -0.12691097
000220 3d ce ad bd aa 4f 46 bd b1 b9 b8 bc b1 4f 1b 3e
       -0.084866025 -0.048415817 -0.022549482 0.15167119
000230 17 c1 8e bd df 80 cf bd bd 1b f6 bd 35 16 a4 3c
       -0.06970423 -0.10132002 -0.120170094 0.02003012
000240 dc c2 0d be a3 b4 4d be 96 6c 36 be cb a4 9a 3c
       -0.13843864 -0.20088439 -0.1781486 0.018877408
000250 93 08 19 be 9e fb 99 bd f9 1d 5b be 96 12 09 be
       -0.14944677 -0.07518695 -0.21398152 -0.13385996
000260 f6 a4 bc bd 64 5b b9 bd f2 ff 24 bd 6d ed 9b bd
       -0.09211151 -0.090506345 -0.04028315 -0.07613645
000270 7a 76 dc bd 1e ec 45 be 68 ec 83 3a b4 dd ce bd
       -0.10764785 -0.19328353 0.0010064961 -0.1010088
000280 53 89 85 bd e4 52 bb 3d 6f 0a 12 3e 7e 9d 96 3e
       -0.06520333 0.091466695 0.14261793 0.29417032
000290 fb c0 a2 3e 81 cb d2 3d e5 64 12 be 2b 61 ad 3e
       0.31787857 0.102927215 -0.142963 0.33863196
0002a0 6f 54 58 be b6 0c 5e bd fb 9c 92 3e b6 d6 bd 3d
       -0.21125959 -0.05421134 0.28635392 0.092694685
0002b0 fc 88 04 3d 4d 31 93 3d 4c dd 2a 3d 18 93 42 3d
       0.0323572 0.07187138 0.04171495 0.04750356
0002c0 67 cf d1 bb 23 72 1e bd 3f 21 32 bc 80 d4 5a 3c
       -0.006402898 -0.038683068 -0.010872184 0.013356328
0002d0 a1 1c c3 bc 7d 6d 71 bd 69 7d 8f 3d 62 71 48 be
       -0.023817362 -0.058942307 0.07006342 -0.19574502
0002e0 bd c0 96 3d 3a 86 3d 3d 4f 80 a7 bb 10 68 72 3d
       0.07360981 0.046270587 -0.005111731 0.059181273
0002f0 a7 01 ca bd 91 92 76 3e c1 4c 18 be a3 95 99 be
       -0.098635964 0.24079348 -0.1487303 -0.29996976
000300 53 32 e2 bd aa de 7f 3e 5d a5 5c be dc ef 28 3b
       -0.11044755 0.24987283 -0.21547456 0.0025777733
000310 13 3c 4a be 43 ce 0d bd ac 20 71 be bd 6b c8 3d
       -0.19749479 -0.034620535 -0.2354762 0.097861744
000320 70 92 c1 bc ea 6a 28 be a7 97 f5 bc 07 7f 13 3d
       -0.023629397 -0.16447034 -0.02997954 0.036009815
000330 2c a5 10 be be 11 63 3d 17 56 3a 3e af 0f 96 be
       -0.14125508 0.055436842 0.18196903 -0.2930884
000340 1b dd b6 3e 27 b2 18 bd 25 f7 b6 bd 69 eb 18 be
       0.35715565 -0.037279274 -0.08933858 -0.14933552
000350 c9 58 8d 3e f1 26 d3 bd 85 94 bb 3d 5a e7 79 bd
       0.276068 -0.10310162 0.09159187 -0.06101165
000360 46 de 0b be d0 64 6e 3e 3c 9c da bd 54 d3 4f 3c
       -0.1365901 0.23280644 -0.106743306 0.012684662
000370 d0 67 0d bd 90 4e b1 bd d1 a5 9f 3d 2a f9 6d 3d
       -0.03452283 -0.08657563 0.07795299 0.05809895
000380 c8 8f 6b be d9 e2 94 bd ef 8d ef bd 69 37 d0 bd
       -0.23004067 -0.0726983 -0.116969936 -0.10166819
000390 7e 40 97 bc f8 72 ac 3d d8 16 0f 3d 66 82 06 be
       -0.01846337 0.08420366 0.034933895 -0.1313568
0003a0 d6 07 94 3d a8 5e be bd 96 99 63 bd a1 f8 6b be
       0.07228057 -0.09295398 -0.055566393 -0.23044063
0003b0 e8 a6 1c bd 88 da bb bd bb 11 7d be f8 a9 92 bd
       -0.03824511 -0.09172541 -0.24713795 -0.07161325
0003c0 bd 1b 93 be 18 02 08 be c5 82 97 be 7a 5f ab bd
       -0.287321 -0.13282049 -0.29591957 -0.0836782
0003d0 6b b0 41 3e 5b e1 09 be 9e 4b 89 3b a3 d7 85 bc
       0.18914954 -0.13464873 0.0041899225 -0.016338175
0003e0 ea 6f 5d 3d bd 9d 03 3c b1 ee d1 3b a0 12 c5 3d
       0.054061808 0.008033213 0.006406628 0.09622693
0003f0 a0 57 3f 3e 7b f0 8e 3e 6d bb 69 3e 02 50 64 3e
       0.1868577 0.27917847 0.22825404 0.22296146

network.0.bias f4 [32]
000000 1f 67 4b bd 36 dd ce bd ad 95 1d be 73 e4 43 3d
       -0.04965889 -0.101007864 -0.15389128 0.047825288
000010 4c ec 2c be 94 d0 e3 3d 28 2a 5a be fd 81 34 3d
       -0.16887015 0.111237675 -0.21305144 0.04406928
000020 d2 a8 18 be 02 02 2a be d9 7a c5 bd 7c 8e e7 bd
       -0.1490815 -0.16602328 -0.09642572 -0.113064736
000030 6f 95 90 3d 87 ab 9a bd 06 00 4a bd a4 a1 d9 bd
       0.07059752 -0.075522475 -0.04931643 -0.10626534
000040 2c c5 9f 3d 4a dd 4b bd 8c 8b fb bd 75 a7 19 be
       0.078012794 -0.049771585 -0.12282476 -0.15005286
000050 fa e7 25 bd c9 e0 75 3d f9 0e ac bd 5c c9 24 be
       -0.040504433 0.060028825 -0.08401293 -0.16092438
000060 bb dd 89 bd 97 63 ee bd 12 a8 ad bd f6 43 b8 3d
       -0.06731745 -0.11640089 -0.084793225 0.089973375
000070 ab 04 e6 bd 01 91 64 bd 9b d9 92 bd 58 b2 32 3d
       -0.11231359 -0.05580235 -0.07170411 0.043627113

network.2.weight f4 [64, 32, 3, 3]
000000 ff a5 99 3d f5 64 6a bd 00 a7 6d 3c f7 c2 f7 bd
       0.07502364 -0.057225186 0.014505148 -0.120977335
000010 b5 68 cd 3b c8 eb 92 bd c2 20 90 3c cc 37 4c 3d
       0.0062685856 -0.07173878 0.017593745 0.0498579
000020 22 ba d2 bd 4d 80 42 bc 11 72 74 bd 33 39 32 bd
       -0.10289408 -0.01187141 -0.059679095 -0.04351158
000030 64 27 82 be 23 a4 4e 3c c0 15 88 bd 53 ee d7 bd
       -0.25420678 0.012612375 -0.066447735 -0.105435036
000040 33 3d 84 3d bb f3 ce bd 56 a9 04 ba c5 9d 03 3a
       0.06456985 -0.10105082 -0.00050606334 0.0005020763
000050 4c 26 a2 3d 55 d9 7a bd 3c 5c 95 bc 21 cc 29 bc
       0.07917461 -0.06124242 -0.018232457 -0.0103636095
000060 19 a3 a3 bd 14 3e d6 3d 45 20 04 3d 0f 2e 93 bd
       -0.07990093 0.10461059 0.032257337 -0.07186519
000070 25 cd 08 bd ad b6 e5 ba 03 95 15 3c fc f6 5b bc
       -0.033398766 -0.0017525755 0.009129765 -0.013425585
000080 23 01 b1 bd a1 9e b2 bc 22 cd 29 bd eb af 9a 3d
       -0.08642795 -0.021804156 -0.041455396 0.07553085
000090 3a 6b 22 3e 40 e4 ef bc 4b c3 43 bd 33 4b 24 be
       0.15861216 -0.029283643 -0.047793668 -0.16044311
0000a0 ff 36 d8 bd 33 27 0d be 05 bb 38 3d 13 bd b3 bd
       -0.10557365 -0.13784485 0.04510023 -0.087762974
0000b0 9d 90 f0 3d cd 10 f2 3d 0e 51 2b bd 44 2c 70 3d
       0.11746333 0.11819611 -0.041825347 0.058635965
0000c0 65 31 56 3c 1b 37 9a bd 25 c7 b5 bd 08 7b 8c bc
       0.0130733 -0.07530042 -0.088758744 -0.01714851
0000d0 17 a1 c7 bc fc 3a 96 bd 47 75 10 bd d6 79 55 3d
       -0.024368806 -0.07335469 -0.035268094 0.052118145
0000e0 7d ea 6c 3e 3a da 2d bd df a1 7d 3d ce 3e a2 bd
       0.23136325 -0.042444445 0.06192195 -0.07922135
0000f0 9f 8c 76 bc 92 37 43 3d 63 9f 12 bd ef bb 8e bd
       -0.015048175 0.047660418 -0.035796534 -0.06969439
000100 5f a3 86 bd 09 15 61 bc d3 82 8a bc 4a 0b 07 bd
       -0.06574129 -0.013737925 -0.016908085 -0.03296975
000110 62 49 15 bc 28 87 7d 3d 6b 54 11 bd 56 98 eb 3d
       -0.009111734 0.061896473 -0.035480898 0.11503665
000120 f2 11 ac 3d 9f 5a 1b bc a9 1d e8 3c 3a 1a cc bd
       0.0840186 -0.009482055 0.028334456 -0.0996594
000130 60 fe a8 3d bf 13 75 bd 2a e8 6c 3c 87 a1 14 bd
       0.08251643 -0.059833284 0.014459649 -0.036286857
000140 ec 9b a8 bd 6a 94 69 bd 75 3c 96 3d 54 37 01 3c
       -0.08232865 -0.057026304 0.0733575 0.007886726
000150 81 50 f1 bd 65 80 03 3d 78 97 8c bc 73 08 43 3c
       -0.11782933 0.03210487 -0.01716207 0.01190387
000160 2e 5d f6 3d a5 2f 3a bd 57 24 d4 3d 71 81 b9 bd
       0.12029491 -0.045455594 0.10358494 -0.09057892
000170 5d 07 99 3d b9 b0 f5 bd 4e c6 2e bd 16 94 30 bd
       0.074721076 -0.11996598 -0.042669587 -0.043109976
000180 e0 ea 5d 3d 96 b9 b8 bd 15 7b 85 bd b6 0d e8 bc
       0.054179072 -0.09019773 -0.06517617 -0.02832685
000190 9b 56 b2 bd 9e 5a 2e be 7d 0e ff 3c 1d 8f f6 3c
       -0.08707925 -0.17026755 0.031134838 0.030097539
0001a0 b7 15 af 3c f0 20 08 bd eb de de 3d 15 a0 5a 3c
       0.02137266 -0.033234537 0.10882362 0.013343831
0001b0 4d d2 c6 bc 50 65 2a 3a 06 2d bf 3c 8e 0c 46 bd
       -0.024270201 0.0006500082 0.023336899 -0.048351817
0001c0 d5 d9 77 bd a7 4b e8 bd cd d8 c1 bd 56 67 aa 3d
       -0.060510475 -0.113425545 -0.094651796 0.08320491
0001d0 39 e9 50 3d 2f c3 5f bd 8d 62 19 be 64 23 3e 3d
       0.05100367 -0.0546295 -0.14979 0.04642047
0001e0 87 7c 27 3d 6b 25 28 bc c9 00 96 3d 4c ff c7 bc
       0.040890243 -0.010262827 0.073243685 -0.024413727
0001f0 40 a9 d7 bd 38 06 2c be 33 9c 03 bd 95 d0 c2 bd
       -0.10530329 -0.16799247 -0.032131385 -0.0951244
000200 b4 d8 6c 3d 92 16 a8 bd f6 e0 38 3d 6b 48 73 bd
       0.05782385 -0.0820743 0.045136414 -0.059395235
000210 b5 24 8e bd 4b 9b 79 3c a1 e0 fc bd 13 a3 69 bb
       -0.06940595 0.015234779 -0.12347532 -0.0035650178
000220 26 76 80 bd 9d 50 42 bb 19 9e 41 3c 9e e2 57 3d
       -0.06272535 -0.00296501 0.011817479 0.052706353
000230 b7 c7 9b 3d 82 fb 8f 3c 46 33 10 3d 15 e1 0b be
       0.07606452 0.017575983 0.03520515 -0.1366008
000240 3c 3c e6 bd 5f cf 1c be 90 39 8e bd 1c d4 00 be
       -0.112419575 -0.15313481 -0.06944573 -0.12580913
000250 32 1d 17 be 96 78 1d bd b7 2d 27 be 8e 63 2f be
       -0.14757231 -0.038445078 -0.16326033 -0.17127821
000260 6b 7a ef bd 3c e7 5d bd 4a 11 cc 3c 4a 5a 7e bd
       -0.11693271 -0.0541756 0.024910588 -0.062097825
000270 3e 67 45 3d 9f 48 23 be 76 f1 27 be d6 fb 8b bd
       0.048194163 -0.15945671 -0.16400704 -0.06835143
000280 c5 b5 f4 bc d3 fb f9 bd 2b b9 16 be b4 92 ba bd
       -0.02987183 -0.12206235 -0.14719073 -0.09110013
000290 19 21 93 bd ea 8a 29 be db 16 c2 3d c7 6e ea 3d
       -0.07184047 -0.16556898 0.094770156 0.1144691
0002a0 2c d6 0e 3c e8 3e 3f 39 12 18 35 bd 0a 0b 0a 3d
       0.008718055 0.00018238614 -0.04421241 0.033701934
0002b0 91 49 76 bd 1a 88 6e 3d dc 5e 41 3e 3c 8b d1 3c
       -0.060128752 0.058235265 0.18883842 0.025579087
0002c0 a0 2e 23 3d ca a6 52 bd a0 4d f5 39 5c e2 8e bd
       0.039839387 -0.051428594 0.00046787877 -0.069767684
0002d0 60 c4 40 bd 08 62 c9 bd 91 fe 87 3d 66 3e 5b bc
       -0.047062278 -0.09833151 0.066403516 -0.013381576
0002e0 c6 93 d7 bd b5 9e 95 bd ee 51 ed bd 87 70 de 3b
       -0.105262324 -0.073056616 -0.115878925 0.0067883166
0002f0 4f ae 12 3d 35 57 b0 3d ed 8d af bd 8a 02 8d 3d
       0.035810765 0.086103834 -0.08571992 0.0688525
000300 69 7a 9f 3d c8 bc 92 bd ee 55 b6 bd 9c 66 a6 bd
       0.0778702 -0.071649134 -0.089031085 -0.0812504
000310 2c a3 0e be a2 fc 0e bd ff f5 d3 bd 21 48 40 ba
       -0.13929433 -0.0349089 -0.103496544 -0.0007334967
000320 3c 70 e2 3c 6b 61 14 3e c7 f4 b0 bd b0 dd 06 be
       0.027641408 0.14490287 -0.086404376 -0.13170505
000330 f5 88 e2 3c a3 96 45 3d 7b f3 c6 3d bf e3 17 3d
       0.027653197 0.04823936 0.09714409 0.03708243
000340 6e da 22 bd ef e9 14 be c7 05 12 3d 31 d0 0a bd
       -0.039759092 -0.14542364 0.03565004 -0.033889953
000350 97 47 06 3d 3a fc c7 bc 41 ff 95 bb 85 26 f4 3d
       0.032783117 -0.024412263 -0.004577548 0.119214095
000360 7c 54 d3 bd 08 50 2b be ea 03 63 bd d7 74 e8 bd
       -0.103188485 -0.16729748 -0.055423655 -0.113504104
000370 02 1a f5 bc 02 2f 8f bd 8e 3b 8a bd 27 52 96 3d
       -0.029919628 -0.06991388 -0.067496404 0.07339888
000380 ba cc 58 bc 20 c4 3d bd 12 b3 82 3d cf 00 e6 bc
       -0.013232404 -0.046329618 0.06381811 -0.028076557
000390 41 be 04 3d 10 95 cc 3d ae 38 b3 3c 7b ca 32 bc
       0.032408003 0.09989369 0.021877613 -0.010912533
0003a0 4b fc 5b bc f5 1a 47 bc e0 d7 0f be b9 92 21 bd
       -0.013426851 -0.012152423 -0.14047194 -0.039446566
0003b0 88 10 cd bc 17 79 aa bd 59 42 09 be 4c 0a b9 bd
       -0.025032297 -0.08323877 -0.13404216 -0.09035167
0003c0 ff 97 7e bd d4 6d 6d bc 4e 7f 89 bd ef d4 10 be
       -0.062156674 -0.014491517 -0.067137346 -0.14143728
0003d0 75 73 bf 3c bb f3 58 3d ec a9 7e bd 33 c0 a5 bd
       0.023370484 0.052966814 -0.06217377 -0.080933
0003e0 ca 83 f5 3b a5 de 2c be 62 d7 c3 bd d5 f1 e5 3c
       0.007492517 -0.16881807 -0.095625654 0.028069416
0003f0 17 ae dd 3d 01 2a 65 bc a2 48 68 bd cd 74 af ba
       0.10824221 -0.013987065 -0.056709893 -0.001338625

network.2.bias f4 [64]
000000 cc 69 0b bd 9e 25 86 bd 1e 18 51 bd 2f 99 df bd
       -0.034036443 -0.06550144 -0.05104839 -0.10917889
000010 93 14 98 bd d8 66 3c bd dd 9f 99 bc 1d c6 9e 3b
       -0.07425799 -0.045996517 -0.018752987 0.0048453943
000020 63 a6 f8 bd 5f 40 9b 3c 04 12 ad bd 99 8d b8 bc
       -0.12141111 0.018951593 -0.08450702 -0.022528457
000030 ba 25 62 bc 9c 97 9e bd fa 7c 3d bd fc 27 db bc
       -0.01380294 -0.07743761 -0.046261765 -0.026752464
000040 eb 24 07 bd 1d fb 2f bd d0 28 c3 bd 4b 84 ad bc
       -0.032994192 -0.04296409 -0.09529269 -0.021181246
000050 e4 99 90 3c 29 32 1b 3c 8f 85 2c bd 96 f3 3f bd
       0.017651506 0.009472408 -0.04211956 -0.04686316
000060 b7 0e 1d 3c 69 88 55 bd c8 f8 82 3c da e6 a1 bd
       0.009586028 -0.052132044 0.015987769 -0.079053596
000070 80 17 c5 bc 7b 56 ae bd f9 d9 b1 bd 1d a2 8f bd
       -0.024059057 -0.085125886 -0.08684153 -0.070133425
000080 c4 d3 89 bd 87 08 b9 bc d9 e4 95 bd 8d 9c 1a bd
       -0.06729844 -0.022587074 -0.0731904 -0.037746955
000090 91 a2 d7 bd c1 d8 d1 bc 24 b3 8d 3c ee f4 5d 3c
       -0.10529054 -0.025616052 0.017297335 0.013547165
0000a0 09 68 d5 bc d9 73 49 bd db 26 56 bd 75 74 b4 bd
       -0.026050584 -0.049182747 -0.05228315 -0.08811275
0000b0 d6 5f fe bc 2f 52 36 bd fd 91 cd 3b f4 e4 57 bd
       -0.031051558 -0.04451197 0.0062735067 -0.05270858
0000c0 30 d7 99 bd f4 b0 7a bd 5a 50 a3 bc 3c 99 ba 3b
       -0.07511747 -0.061203912 -0.019935776 0.0056945365
0000d0 04 21 5a bd 69 f6 37 3c 61 07 ab 3c d6 d5 3c bd
       -0.053254142 0.011228182 0.020877542 -0.046102367
0000e0 de 1a c2 bd 56 20 1c bd df d4 00 3c a9 30 99 bd
       -0.09477781 -0.038116775 0.007863252 -0.07479984
0000f0 98 5d 1c bd e8 d7 f0 bc 2c 4d 9b bd 09 8a 40 bd
       -0.038175195 -0.029399827 -0.07583079 -0.04700664

network.4.weight f4 [64, 64, 3, 3]
000000 be f7 5d bd ae 81 d1 ba 04 19 2e bd 8e 6d 01 3c
       -0.054191343 -0.0015984082 -0.042504326 0.007899655
000010 19 b1 1d bc 6b 3d b7 3c 79 67 7f bb cb 4f 6c 3d
       -0.009624743 0.022368154 -0.0038971587 0.057693284
000020 79 e0 bf 3b c5 8f 52 3d a7 2f 91 bc 46 32 91 bc
       0.0058556166 0.05140664 -0.017722918 -0.017724168
000030 b1 9f f3 3b 89 bb e9 3b 15 27 a9 bc bf af 2c bd
       0.007434808 0.0071329516 -0.020648519 -0.042159792
000040 f1 db 06 be ea 5c f7 bd 48 f6 10 bd 5e 96 96 bd
       -0.13169838 -0.12078269 -0.035391122 -0.07352899
000050 cf d8 a1 3c 7d 6c f7 3c 31 7d d6 3d e1 6f 22 bd
       0.019756703 0.030203098 0.10473097 -0.039657477
000060 e3 94 1e 3d 36 e2 7e 3d 1f 69 14 bd 64 02 02 bc
       0.03871621 0.06222745 -0.036233064 -0.00793514
000070 0c a7 e9 bc 42 db fd bc 7e de 85 ba 33 e1 f5 3c
       -0.028522037 -0.03098834 -0.0010213403 0.03001461
000080 22 c9 66 3d de 47 0c 3d d4 51 a2 3c 5b 48 38 bc
       0.05634416 0.034248225 0.01981441 -0.01124772
000090 9f 1d ae bc 67 a3 72 bd c0 0b 5b 3d 22 2e 11 3b
       -0.021254359 -0.059237864 0.053478003 0.0022152741
0000a0 57 cc 80 bd 98 ee 13 bd 44 3c 41 3c eb 7e 97 bd
       -0.06288975 -0.036116213 0.011794154 -0.073972546
0000b0 28 fd b0 3d 75 a0 12 bd 04 45 c3 bd 21 e1 20 bd
       0.08642036 -0.035797555 -0.09534648 -0.0392772
0000c0 54 08 b8 bd 0a db 87 bd 21 dc ac 3c ae c2 f7 bd
       -0.089859635 -0.06633575 0.02110106 -0.12097679
0000d0 1a 6d 93 3b 01 e2 ab bc c6 b8 aa bc 4c dd c1 bc
       0.00449909 -0.02098179 -0.02084006 -0.023665093
0000e0 79 47 73 3d 73 2d 2c bd 23 77 e8 bd 1c b8 1d 3c
       0.059394334 -0.04203553 -0.113508485 0.009626415
0000f0 21 10 2e 3d c1 60 61 bd 7f 31 12 3c 23 01 99 bd
       0.04249585 -0.055023912 0.008922934 -0.0747092
000100 ce 0d 19 3d ce 39 bf bd c1 1f 95 3c 78 3d d5 3d
       0.03736668 -0.09337197 0.018203618 0.10412115
000110 17 dc f5 bd 6c 56 16 bc a4 4b 58 3d 2c 59 56 bd
       -0.120048694 -0.009175878 0.05280651 -0.052331135
000120 cf 23 68 bc 07 04 c6 bb 62 e6 c4 bd be 5f 4d 3c
       -0.014168694 -0.0060429606 -0.096142545 0.012535034
000130 77 5c 90 bd dc 79 a3 bd 7e 7f 06 bd 72 9a 02 be
       -0.07048886 -0.07982227 -0.03283643 -0.12754229
000140 0b e0 0a be 54 c0 1e bd 12 9d 5c bc ff 8f 15 bd
       -0.13562028 -0.038757637 -0.013465183 -0.03651428
000150 7e aa 9e 3c e4 4b 75 bd fe 52 62 bd 98 db 2f bd
       0.019368406 -0.059886828 -0.05525493 -0.04293403
000160 10 76 15 bb f2 ea 26 ba aa 8a 80 bc 9d a1 da ba
       -0.0022805966 -0.0006367407 -0.01569112 -0.0016680245
000170 dc 3f 15 3d 47 f0 78 ba a3 b1 d1 bc f9 1c e7 bc
       0.036437854 -0.00094962533 -0.0255974 -0.028212057
000180 e0 04 ed bc 65 7f 8e 3c c4 3b 15 bc 9c 8b 21 3d
       -0.028932989 0.01739473 -0.0091084875 0.039439783
000190 4c 22 85 bd e1 05 72 3b c1 6b f8 bc 6c 5a 83 bd
       -0.06500682 0.0036929774 -0.030324819 -0.06413731
0001a0 8d b9 87 bc b8 17 a1 3c 39 48 15 bd 4b 79 b5 bd
       -0.01656797 0.01966463 -0.03644583 -0.088610254
0001b0 86 ff f0 ba 7b 38 87 3c 34 ed 14 3d 7a bf f1 3c
       -0.0018386699 0.016506424 0.036359027 0.029510248
0001c0 c6 6b fd bc e4 3a e4 bb 89 25 0d 3d 53 2e c7 3c
       -0.03093518 -0.006965028 0.034459624 0.024314081
0001d0 a3 04 39 bc 8a 12 3c bd 72 d5 8b bb 1b 45 e8 bb
       -0.011292609 -0.045916118 -0.004267388 -0.007088316
0001e0 c6 a5 c0 3c 63 c6 26 3a 6d 77 f9 3c 74 1a dd bc
       0.023516547 0.00063619594 0.030452454 -0.026990153
0001f0 01 2a 8e 3c 40 09 22 3d 37 84 df 3c a3 7f 80 bb
       0.017354013 0.039559603 0.027284725 -0.0039214655
000200 a1 63 5a bd b3 8e 45 bd 22 43 1e bd 94 0d 8f bb
       -0.05331767 -0.04823179 -0.03863824 -0.0043656323
000210 3e eb 6d bd 59 34 b2 bb e3 66 e4 bc 59 4b 4a bd
       -0.058085673 -0.0054383692 -0.027881091 -0.049388263
000220 c4 61 04 be 00 f3 55 be c7 44 67 bd c6 fa 83 bd
       -0.1292792 -0.20893478 -0.056462076 -0.064443156
000230 2e 66 51 be 6b d2 e6 bc 2d 64 ce bd 39 68 08 be
       -0.20449135 -0.028176507 -0.10077701 -0.13321008
000240 e5 42 3f bd 22 a5 5c 3d 38 ca 02 bd 93 29 a8 3b
       -0.046694655 0.05386842 -0.031931132 0.005131909
000250 f4 20 23 bd 57 0f 90 3c b2 df f9 3b 5a 48 91 3d
       -0.03982635 0.01758544 0.0076255435 0.07093878
000260 cc dd 8a 3c 87 78 d4 bc 10 7a 35 3c ae 64 33 3d
       0.016951464 -0.025936378 0.011076465 0.043797188
000270 0e 9a 9e 3c cc 8b f7 3c 4d fa 3f bd 5b aa 49 bd
       0.019360568 0.030218028 -0.046869565 -0.04923473
000280 6d 8a c1 3a 55 c6 5e 3a 17 a7 18 bb ce 31 7b bc
       0.0014765986 0.00084981817 -0.0023292953 -0.015331699
000290 80 fe 9f 3c c9 8e ef 3b 42 0f d3 3c ac 50 03 3d
       0.019530535 0.0073107225 0.025764111 0.032059357
0002a0 ec 72 3a 3d be d3 21 3d ef 36 5a ba 3d 03 26 3d
       0.045519754 0.039508574 -0.0008324226 0.040530432
0002b0 3b 39 00 3d 3f 32 17 bd 3d 7e 9b 3c 5d 82 cc bc
       0.03130458 -0.036913153 0.018981094 -0.024964506
0002c0 f6 c1 3f 3c a9 c2 82 3c e1 cd 44 bb 84 31 bb 3b
       0.011703959 0.015961962 -0.003002994 0.00571269
0002d0 a3 25 18 bd b4 45 bf bc b3 5e 4c 3c 1a 84 6f 3c
       -0.03714527 -0.023348667 0.01247375 0.014618898
0002e0 74 39 ab 3b 0b 93 f7 3c dc b7 44 bc d9 dd 5b bc
       0.005225355 0.030221483 -0.012006726 -0.013419592
0002f0 a2 ab 49 bc c2 ce 02 bd a4 71 00 bd 91 c0 21 3d
       -0.012308987 -0.03193546 -0.031358376 0.039490286
000300 d0 53 17 bd 1d 78 ea bb 39 82 ad bc c6 ea 51 bd
       -0.036945164 -0.007155432 -0.021180259 -0.051249288
000310 de 41 80 bc 1e cb ed 3c 23 c5 f0 bc 0e 3d 2a bd
       -0.015656408 0.029027518 -0.029390877 -0.041562133
000320 f6 72 8b bc ad 40 95 bc 76 4c 98 bb c5 c7 93 3c
       -0.017022591 -0.018219316 -0.0046477867 0.018039593
000330 49 05 f1 3c 6d fc f4 3c 28 23 8b 3c 76 40 10 be
       0.029421465 0.029905522 0.016984537 -0.1408709
000340 37 6c 3c be d8 d6 3b 3e 33 5d 0b be a7 28 23 be
       -0.18400656 0.18343675 -0.13609771 -0.15933476
000350 11 fe 9b 3e 17 77 7b bd c1 8c 7f 3c 50 dc a8 3e
       0.30467275 -0.06139287 0.015597523 0.32980585
000360 c4 56 e6 bb 66 bc 51 bd de fa b9 bd 3e dc 67 bc
       -0.0070293862 -0.05120506 -0.09081052 -0.014151631
000370 d0 e2 8d 3c d7 aa fb bb af 10 84 bb 02 15 d0 3c
       0.017320067 -0.007680278 -0.004030309 0.025400642
000380 1f 4f 25 bc 04 f4 2f bd 20 94 70 3c 92 0c 17 bd
       -0.010089665 -0.04295732 0.014683753 -0.036877222
000390 8c 94 6f 3b ca bd 46 3c e7 3d c6 bc a5 d1 06 bd
       0.0036557047 0.01213021 -0.02419944 -0.032914776
0003a0 22 0d 0f bd 7e 55 a9 bc 02 f7 bb bc d4 ba f1 bc
       -0.034924634 -0.020670649 -0.022944931 -0.029508032
0003b0 5b b5 09 bd 6a 23 72 ba f7 c0 af bc 98 8c 20 3d
       -0.03362022 -0.00092368445 -0.021454317 0.03919658
0003c0 11 d1 10 bd a4 ed 08 bd b8 06 ac 3c 0f 30 43 be
       -0.03535563 -0.033429757 0.020999297 -0.19061302
0003d0 75 3e ca 3c f8 5f 83 3e 7a 61 ce bd c8 fe ba 3d
       0.024687985 0.25659156 -0.10077186 0.09130627
0003e0 62 77 47 3e 93 dc 16 3d 47 31 d2 bd 68 8d 1f 3e
       0.19479135 0.03683145 -0.10263305 0.15581286
0003f0 4f 76 dc 3d 92 2a 29 bc 5a 95 23 3d 6f 94 76 3d
       0.10764753 -0.010325091 0.039937355 0.06020015

network.4.bias f4 [64]
000000 2e 27 93 3d 0b cc cf bc 76 7c 14 3d e8 b2 2c bd
       0.07185207 -0.02536585 0.036251508 -0.042162806
000010 c5 b9 59 bc 0f 68 8b 3c 4b d0 1c 3d 0e 61 93 bd
       -0.01328892 0.017017392 0.03828458 -0.07196246
000020 3a a2 93 bb 64 27 e9 3c 53 e3 7b 3c 4f 8b 1a bd
       -0.004505423 0.028461166 0.015374023 -0.03773051
000030 fb 1f 08 3d 40 f2 91 bd 74 11 93 bc 00 86 54 bd
       0.033233624 -0.07126284 -0.017952658 -0.051885605
000040 61 2a 44 3c 02 e1 26 3d 66 a5 65 bd 49 96 06 bd
       0.011972995 0.040741928 -0.05606594 -0.032858167
000050 b3 48 25 3c a5 b1 62 bc e7 16 b2 bd 8b 07 d2 3c
       0.010088134 -0.013836299 -0.086957745 0.025638362
000060 0a e4 3d 3c f2 03 aa b8 4e d0 d2 3c 42 4f 95 3d
       0.011590013 -8.1069666e-05 0.025734093 0.07290508
000070 69 04 26 be d9 c7 18 3c 9b 91 12 3d a5 25 a2 bd
       -0.1621262 0.009324991 0.03578339 -0.079173364
000080 80 98 a9 bc 59 55 49 3c 95 e8 2d 3c 88 9d b8 bc
       -0.0207026 0.012288415 0.010614534 -0.022536054
000090 08 c1 40 bd 4c 06 d3 3c f1 5a 9c bd 90 b0 82 bc
       -0.04705909 0.025759839 -0.07634533 -0.015953332
0000a0 76 bf 0f 3d b6 d2 1b bd 93 bd 81 bd 37 71 8f 3c
       0.0350947 -0.038042746 -0.063349865 0.01751004
0000b0 41 65 13 bc 80 8f 86 bd d2 7c a7 bd 28 f2 81 bc
       -0.008996309 -0.06570339 -0.081781045 -0.01586254
0000c0 a4 37 48 ba 46 3c 7a 3d 43 27 83 bd 76 3b a5 bd
       -0.00076376856 0.061092637 -0.06403973 -0.08067982
0000d0 22 60 90 ba f6 ea a4 3d bc ac e8 3c ba 08 00 be
       -0.0011014978 0.08052628 0.028402679 -0.12503329
0000e0 a6 f7 b7 bd c3 a6 18 bd 62 28 b7 3c 69 25 5e 3c
       -0.08982782 -0.03726841 0.022358123 0.013558724
0000f0 84 fc 13 bc 77 09 19 bd 1d d4 1b bd ee 9a 2a bb
       -0.009032372 -0.037362542 -0.038044084 -0.0026032287

actor.weight f4 [5, 2304]
000000 e9 ad 09 3e c9 d5 02 3d d6 ae 62 bd a4 98 18 3d
       0.13445248 0.031942163 -0.055342518 0.037254944
000010 1f d8 ef 3c a1 1c 62 bc d7 f2 28 3e 8d 0b cd 3d
       0.02927786 -0.013800771 0.16498886 0.10011969
000020 f1 e2 8c bb f8 b9 82 bc 63 9c 41 bc c9 d0 39 37
       -0.0042995145 -0.015957817 -0.011817071 1.1075471e-05
000030 fa 34 f3 3d 36 7f 33 3e 9d 7e 1d 3d 87 bc 1c bd
       0.11875339 0.17528996 0.038450826 -0.03826573
000040 ee 21 15 3d dc c1 d4 bc 14 a1 fd 3d 81 3d 0b 3e
       0.03640931 -0.025971346 0.12384239 0.1359768
000050 85 14 ed bb 72 b7 e8 bc 4e 6e 19 3c 7f 78 8b bc
       -0.007235112 -0.028407786 0.009364678 -0.01702523
000060 d3 5b d5 3d 3c 2c 32 3d 1a fb 83 bd 06 e3 a4 bd
       0.10417905 0.043499216 -0.06444378 -0.08051114
000070 11 d8 53 3b 7c 47 11 bc 39 42 c3 3d e7 8b 1e 3d
       0.003232483 -0.008867141 0.09534115 0.03870764
000080 4d 2f 84 bd d1 b5 0b 3c f8 f4 ac 3c 91 1c 29 3c
       -0.064543344 0.008527235 0.021112904 0.010321752
000090 31 cb cb 3b 40 ca b1 b9 15 2a cc 3b a4 51 d6 b8
       0.0062192907 -0.0003391076 0.0062306025 -0.00010219522
0000a0 4e cd 22 38 c1 bd 39 b7 b9 78 d1 3c 27 2f c8 b8
       3.8815015e-05 -1.107104e-05 0.02557026 -9.545526e-05
0000b0 aa 9e e5 3b 00 44 70 b9 f7 46 ac b8 fe ab 81 bc
       0.0070074396 -0.00022913516 -8.214817e-05 -0.015829083
0000c0 9c 0d 56 39 cb 5e 67 bc 97 d5 df 3b c6 e0 22 3b
       0.000204137 -0.0141217215 0.006830882 0.0024853214
0000d0 7c 07 35 b6 c7 8a 80 3b 69 9c 91 b9 d2 88 20 3b
       -2.6975458e-06 0.0039227935 -0.0002777309 0.0024495614
0000e0 ed 2a c9 3b 67 2a c3 3b 98 85 d9 38 56 98 03 3b
       0.0061391504 0.0059559825 0.0001037225 0.0020079813
0000f0 c3 31 c2 3b 74 8f 4a 39 f8 6b b1 3b 5a af bf 3b
       0.005926342 0.00019317662 0.005414482 0.005849761
000100 19 c9 36 bc fe 75 ee 3b 0a e4 02 3b a2 e2 b3 3b
       -0.011156344 0.0072772494 0.0019972348 0.005489663
000110 2d e7 1e b4 9d af 6e b9 6c fc 8d ba 7d 0c 00 bc
       -1.4798998e-07 -0.0002276287 -0.0010832674 -0.007815477
000120 28 58 82 3e d3 db 62 3e 03 4b 89 3d 79 fe ce bc
       0.25457883 0.22154169 0.067037605 -0.025267826
000130 65 63 87 3d fe 38 e0 bc bd 46 14 3d e8 e6 f2 bd
       0.06610755 -0.027370926 0.036200274 -0.11860448
000140 e8 cb 95 bd 10 ae c7 bd 00 a3 ff bd 10 fc 93 bd
       -0.07314283 -0.09749997 -0.12482262 -0.072258115
000150 7f 94 a7 3d 5b 5d 9d bd 28 cd b1 bd 96 62 9b bd
       0.0818262 -0.07683822 -0.086817086 -0.07587163
000160 ed 78 14 ba b5 3b 15 be f4 7c 68 bd e9 33 1b be
       -0.00056637713 -0.14573558 -0.05675979 -0.15156521
000170 c9 df eb bd 69 3a b1 bd 0d 0c 8c bd e7 d4 57 3d
       -0.11517293 -0.08653719 -0.06838236 0.052693274
000180 75 72 04 be ad 32 b6 bd 73 a8 e6 3d d9 20 21 3c
       -0.12934287 -0.088963844 0.11262598 0.009834492
000190 b3 05 13 be ca 5e 59 bd 99 46 85 be 0f ab 02 be
       -0.14357643 -0.053068914 -0.26030424 -0.12760566
0001a0 32 e8 93 bd 78 18 2d 3d 9a 88 ae bd f0 6d 82 bd
       -0.07222022 0.042259663 -0.085221484 -0.06368625
0001b0 69 89 71 3b 7a 74 85 3a 7b cb 28 bc 90 49 49 bc
       0.0036855584 0.0010181807 -0.01030242 -0.012285605
0001c0 ba 63 8a bc bc 62 1c 3c 0c d0 61 bc 20 71 df bc
       -0.016893256 0.0095450245 -0.013782512 -0.027275622
0001d0 fd f7 da bc 5e 92 76 3c 56 8b 97 3d d2 64 ec bb
       -0.026729578 0.015049545 0.07399623 -0.007214167
0001e0 4a 23 09 3d cf c9 de 3c bf d8 84 3c de c7 b9 3c
       0.03348092 0.02719584 0.016216634 0.022678312
0001f0 2c ec 8e bc f1 1d f6 3d 93 91 08 3d 76 6f 1d 3c
       -0.0174466 0.120174296 0.033341955 0.009609094
000200 8e df 3d bd 17 55 18 bd 20 94 09 3d 9b 63 88 bc
       -0.046355776 -0.037190523 0.03358853 -0.016649058
000210 bd 90 63 bd c9 84 eb 3c 21 31 78 bd 41 e9 39 bd
       -0.055557955 0.02874984 -0.060593728 -0.045388464
000220 83 f4 8c 3c 80 83 ae bd 02 d5 bf bb 1c 1b c8 ba
       0.017206436 -0.085211754 -0.00585425 -0.0015266868
000230 22 4c a2 ba 37 6f b7 3d 7c 04 9e bd cb 4f cd bb
       -0.0012382308 0.089567594 -0.07715699 -0.0062656156
000240 2f 5b 0f 3e c7 64 d8 bd f1 f7 0a be 8d 24 0e bd
       0.13999628 -0.10566097 -0.13571145 -0.034702826
000250 d4 19 22 bd 19 59 bc 3c 81 d3 5e bd ac fd 41 bd
       -0.039575413 0.022991704 -0.054400925 -0.04736106
000260 33 63 00 3d 81 77 08 3d 0d 04 46 bd 6c 20 0d bd
       0.031344604 0.033317093 -0.048343707 -0.034454748
000270 59 d9 6f 3c 99 d5 ab bd 66 c5 8b bd e4 9e f7 3d
       0.014639222 -0.0839035 -0.0682476 0.12090853
000280 97 9e 94 bd 8c 46 0e bd bb 2b 17 bd 00 1f 3f bd
       -0.07256811 -0.034735247 -0.03690694 -0.046660423
000290 0d 7d 49 bd f8 db 9f 3d 1a 21 27 bd 91 1a ed bd
       -0.049191523 0.078056276 -0.040803052 -0.11577333
0002a0 c1 14 af 3d 80 a6 e5 3b d6 82 8c bd 68 39 51 bd
       0.0854888 0.0070083737 -0.068608925 -0.051080137
0002b0 6c 6f 2d 3d 88 27 87 bd 66 10 8f bd f8 c5 59 bd
       0.04234259 -0.06599337 -0.0698555 -0.053167313
0002c0 cf 2d af bb c0 5c 11 3c 6b ff a8 3c cc 12 32 3c
       -0.005346037 0.008872211 0.020629605 0.010868739
0002d0 fc 68 91 3d 51 c1 9c b9 74 25 1b 3d fe 31 26 bb
       0.07100102 -0.0002989867 0.037877515 -0.0025359388
0002e0 5d f8 54 3b f3 fe e8 3a 32 40 56 3c 6a fc 03 3b
       0.003249667 0.0017776176 0.013076829 0.0020139464
0002f0 c2 5f 87 3b e2 ec 4b bc 97 93 ad 3b 6c 88 38 3c
       0.0041312883 -0.012446614 0.005297135 0.011262994
000300 0e 51 db bb 87 a6 d6 3a 9d 59 aa 3b e5 a7 24 3c
       -0.006693012 0.0016376533 0.005198671 0.010049795
000310 be f7 68 bc 0a c8 9f 3c ca 10 40 3c 15 59 95 3c
       -0.014219223 0.019504566 0.011722753 0.018230954
000320 b8 05 0c 3d 38 25 44 3b c8 74 da bb a6 96 ce 3c
       0.03418514 0.002992941 -0.0066667534 0.02521832
000330 e1 05 ce bc 0f d2 1a bc 89 44 4d 3d 12 10 f8 3a
       -0.025149288 -0.009449496 0.05011419 0.0018925688
000340 d6 46 14 3b 97 f6 d3 3c c7 dc 14 3b d2 3c 83 3c
       0.002262523 0.02587442 0.0022714601 0.016020212
000350 77 1c b0 3c d4 f8 a8 bc ac 3b e8 bb 7b 5f 40 3d
       0.021497948 -0.020626463 -0.0070871916 0.046966057
000360 66 06 89 3d ba 90 d3 3c 73 58 ea bd fb 9d 98 3d
       0.066906735 0.025825847 -0.114426516 0.074520074
000370 94 46 bb 3d 10 bf 04 bd 66 85 29 bc a1 d9 cb 3c
       0.09144321 -0.032408774 -0.010346746 0.024884047
000380 1d d7 05 bd eb be 9f 3c 4c a9 0c bd 6c e0 9a bd
       -0.03267585 0.019500216 -0.03434114 -0.07562336
000390 7c d9 2a 3b 1d 41 ce bb b0 45 c7 3a 0d 98 31 3d
       0.0026069572 -0.006294383 0.0015203264 0.043357898
0003a0 70 47 4c 3d 0e 7c f2 bc 49 31 b3 3c d2 71 65 bc
       0.049872816 -0.02960017 0.021874087 -0.014004188
0003b0 b8 4d ff 3c d4 69 8f 3d 15 a4 37 bd 95 27 27 3d
       0.031164989 0.07002607 -0.044834215 0.040809233
0003c0 08 9a 2f bc fa 77 fc bd 18 c1 ac bc 85 13 ac 3c
       -0.010717876 -0.12327571 -0.021088168 0.021005401
0003d0 6e 7c 35 bd dd 84 4c bd 78 87 09 bd 7c 53 82 bd
       -0.04430812 -0.049931396 -0.03357646 -0.0636358
0003e0 0f 17 4d bd 4a 81 1b bd 2d 05 ac bb 93 45 fd bd
       -0.05007082 -0.037965097 -0.0052496404 -0.12366786
0003f0 68 c2 19 bb 88 12 94 3b 07 90 6c b9 ad 0a f8 3b
       -0.0023461822 0.0045188107 -0.00022560368 0.007569632

actor.bias f4 [5]
000000 c9 33 b0 3d 47 1e d7 bc 0c c5 05 bd cd bc 0c bb
       0.08603627 -0.026259555 -0.03265862 -0.0021474839
000010 a0 c8 0d bd
       -0.03461516

critic.weight f4 [1, 2304]
000000 2d 13 19 bd bf a1 c2 bd 0d 1e a9 bd ec bc f3 bd
       -0.037371803 -0.09503507 -0.08257685 -0.11901268
000010 d8 40 92 bb 0d 43 cb bd ea 5a c6 bd db da 8a bd
       -0.0044632964 -0.09924898 -0.09685309 -0.067800246
000020 b6 24 1d bd 26 42 09 be ef d0 1d be 87 f9 84 bd
       -0.03836509 -0.1340414 -0.15411733 -0.06492906
000030 9e 00 14 3b 01 ab 75 3b cb a0 23 bd 0a 65 9c bd
       0.0022583376 0.003748596 -0.039948266 -0.07636459
000040 51 17 98 bc 56 a6 47 bd 90 87 98 bd 94 d5 aa bd
       -0.018565806 -0.048742615 -0.074477315 -0.08341518
000050 ae d1 a4 bd 37 5b 67 bc 15 cc 71 bd c0 97 51 bd
       -0.08047806 -0.014120868 -0.05903252 -0.05117011
000060 c9 3a 78 bd fd d0 ba bd dd 28 8b bd ad bc d1 3d
       -0.060602937 -0.091218926 -0.067949034 0.10241065
000070 ba 9e 92 3d 82 2f 1b bd 0b ed 54 bd 0b 63 b8 bd
       0.07159181 -0.037887104 -0.051983874 -0.09003266
000080 0d 65 da bc f5 ef 12 3e 82 a9 06 3e f7 f1 56 bd
       -0.026659513 0.14349349 0.131506 -0.05247685
000090 a9 31 f7 bc 95 17 59 3c ce 43 18 3d 9a 6c 0d 3d
       -0.030175047 0.013250251 0.03717404 0.0345274
0000a0 d5 f5 19 bd 4a 42 27 bd a9 96 39 bb cd 3f b0 3c
       -0.03758796 -0.040834703 -0.002831856 0.021514798
0000b0 69 d5 4f bc cf b3 07 3d 7a 16 36 bd c5 66 2d bd
       -0.012685158 0.033130463 -0.04445503 -0.042334337
0000c0 e0 ec 96 3c 8f c9 34 bb 07 2e f4 3c ad 4a 83 bb
       0.018423498 -0.0027585959 0.029807104 -0.004006705
0000d0 19 73 34 bc 40 fc 36 bc ee cc 11 3d 43 70 07 3d
       -0.01101377 -0.0111685395 0.035595827 0.033066045
0000e0 b5 0e 1b 3d de f9 ff bb 2d f0 6d 3d 0e 67 12 bd
       0.037855823 -0.007811769 0.058090378 -0.03574281
0000f0 86 2b aa 3c 37 5e df 3c 68 b6 06 3d 32 3e 22 3d
       0.020772707 0.027266605 0.0328888 0.039610095
000100 68 54 bd 3c 72 16 51 3c 86 f0 47 bd 0e 07 8e bd
       0.023111537 0.012761699 -0.048813365 -0.06934939
000110 19 51 15 bd 2d bf 2e 3c 3d 10 18 3d bb 6a ce bc
       -0.036454294 0.010665697 0.03712486 -0.025197377
000120 ca 2b 0f be 85 df 17 3d bd cf df bc 96 27 89 bc
       -0.13981548 0.0370784 -0.027320737 -0.016742509
000130 fa cc 9d 3d d3 e1 41 3d f0 64 f3 3c f5 ba 14 3d
       0.07705112 0.047334503 0.029711217 0.03631111
000140 62 05 91 bd f6 d0 93 bc 37 c8 f1 bc db 1e b8 3b
       -0.07081105 -0.018043976 -0.029514415 0.0056189126
000150 81 8a e0 bc 1b dc a1 3c 6d 63 17 3b 76 27 04 bd
       -0.027409794 0.019758275 0.0023100034 -0.032264195
000160 ec 01 4f 3c 2c 15 1d 3d fe e5 d4 3d 2f 3a 45 3d
       0.012634736 0.03835027 0.1039543 0.04815119
000170 a2 35 ad bd 9e d1 06 3e 16 c8 a2 ba c1 e2 16 3d
       -0.08457495 0.131659 -0.0012419249 0.036837343
000180 fb 8f 83 3d 53 51 b7 3d f5 9f 69 3d a7 79 ba bc
       0.064239465 0.08951058 0.057037313 -0.022763086
000190 df cc 4d 3d 78 ef 7e bd d7 7a 0a bd ce 6f 94 3b
       0.05024421 -0.062240094 -0.033808555 0.0045299297
0001a0 89 60 70 3c b0 62 36 be a4 48 19 bd 1b 7d 89 3d
       0.014671453 -0.17811084 -0.03742279 0.06713315
0001b0 c6 06 b1 bd 35 3d dd bd 3d 01 b2 bd c3 36 f9 bd
       -0.0864387 -0.1080269 -0.086916424 -0.12168648
0001c0 80 87 00 be 2c 06 c1 bb fb bb d3 bd 76 c2 49 bd
       -0.12551689 -0.0058906283 -0.10338589 -0.049257718
0001d0 32 51 47 3d c0 cb e7 bc a4 b4 d8 bc b2 e3 16 3d
       0.04866142 -0.028295398 -0.026453324 0.03683824
0001e0 ce d9 10 bd 3b eb 65 3b 29 86 a6 3a fa 16 2b bd
       -0.035363965 0.0035082835 0.0012704778 -0.04176996
0001f0 7a 94 a7 bc 6f 98 90 3d 7e 24 2c bd 98 b6 05 bb
       -0.020456541 0.070603244 -0.04202699 -0.0020403024
000200 a1 28 29 bd 98 17 57 bd 35 18 9d bd eb e6 0c bc
       -0.041298512 -0.052512735 -0.07670633 -0.008599977
000210 cb 91 89 bd 9b f4 8c 3d 9f e4 90 3c 47 f6 28 bd
       -0.06717261 0.06882592 0.01768714 -0.041250493
000220 d7 5c 44 3d 78 81 87 3d 27 b7 60 bd 59 d6 23 bd
       0.0479401 0.06616491 -0.054862168 -0.03999934
000230 1f 21 10 3e 43 ed b3 3c 01 9b 04 3c 5e 89 8e bd
       0.14075135 0.021963721 0.008093596 -0.069597945
000240 7d c0 3c 3d 37 45 d9 bd 08 69 29 3e 37 ea 87 3d
       0.04608201 -0.10608905 0.16543972 0.0663647
000250 23 4f 05 3e 76 5e 1d bb d8 ab d2 3b 23 f4 9e bd
       0.1301847 -0.0024012602 0.006429177 -0.07761409
000260 69 ae 23 bd 32 14 30 3d 14 8f 1c 3d a9 92 7f bd
       -0.039961252 0.04298801 0.038222387 -0.062395725
000270 79 49 23 3b 66 83 f6 bc 13 7e a5 3c 69 5d 6a bd
       0.002491562 -0.030091953 0.020201718 -0.05721799
000280 5d 7b 6b bc ef de 30 bd 30 ab 7a 3d ba 96 f7 bb
       -0.014372674 -0.043181356 0.061198413 -0.00755581
000290 9e 28 80 bd 0d 14 b8 3d 60 47 56 3d e8 9a 19 3c
       -0.06257747 0.089881994 0.052314162 0.009375311
0002a0 bf d6 73 3c 05 81 d0 bc 96 98 39 bd 23 cb ea bd
       0.014882742 -0.025452146 -0.045311533 -0.114645265
0002b0 cc d9 14 bd 87 03 0a 3c 57 50 1a 3c 65 b8 08 be
       -0.03634052 0.008423693 0.009418569 -0.13351591
0002c0 73 1e fc bd ae 30 ae 3b 21 91 bc bd 6b 54 d6 3b
       -0.12310495 0.0053158617 -0.09207369 0.006540825
0002d0 4f 14 cb bd 87 3b 88 bd 01 8f b8 bc 16 58 9c bc
       -0.09915983 -0.06651979 -0.022529127 -0.019084971
0002e0 e5 e0 d1 3c 9a 94 13 bd 8c b2 71 3d 47 70 71 3c
       0.025619933 -0.03603039 0.059008166 0.014736242
0002f0 b0 f8 8a bc 9d e0 16 bd 58 e2 9b bd 4e 1f f0 bb
       -0.016964287 -0.0368353 -0.07611531 -0.0073279506
000300 0a 49 19 bd ed 91 94 bd 21 73 b5 3c cc 9f 7e bc
       -0.03742317 -0.07254396 0.022149624 -0.015541028
000310 5b de 89 bd 6c 9a 05 3d de d1 a1 3c 4d 25 2b 3d
       -0.06731864 0.03261797 0.019753393 0.04178362
000320 3c f1 0c 3d cd 64 ba bd 34 8d 10 bd 3b f5 1d 3d
       0.034409747 -0.091012575 -0.03529091 0.038563948
000330 57 ec 93 bc 8d c1 08 3c fc 98 3e 3d 96 a3 bd bc
       -0.018057032 0.008346927 0.046532616 -0.023149293
000340 8a 1e ab bd 23 32 e5 3d d4 b5 a7 bd e0 2c ae bd
       -0.08355434 0.111912034 -0.08188978 -0.08504653
000350 77 fe c0 bd 52 75 a5 bd 93 6d d2 bd 10 9d 88 bd
       -0.09423535 -0.08079018 -0.10274806 -0.06670582
000360 07 b0 59 bd c5 3c 20 bd fe b3 2a 3d c1 a5 ea bc
       -0.05314639 -0.039120454 0.04167556 -0.02864349
000370 72 14 02 3d 1f 86 70 3d 65 aa 67 3c 7f 93 92 bd
       0.03175778 0.058721658 0.014139746 -0.07157039
000380 2d bc a2 bd 1d 6f 94 bc e2 bf 2f bb 51 a0 14 bd
       -0.07946048 -0.01811939 -0.0026817252 -0.036285702
000390 a3 ac b1 bd ae 2b c9 bc 8b ff c1 bd 30 e9 82 bd
       -0.08675506 -0.02455696 -0.09472569 -0.06392133
0003a0 32 2a f0 bb 9d 34 a3 bd 86 88 96 bd a9 8b 1e bd
       -0.007329249 -0.079690196 -0.073502585 -0.03870741
0003b0 a1 5a 15 be 0a 9e 53 bc 9f c5 3d bd d3 25 9b bd
       -0.14585353 -0.012916097 -0.046331044 -0.07575574
0003c0 fb 8a 90 bd 87 71 c7 36 3f 54 91 bd 45 a4 f9 bc
       -0.070577584 5.9438785e-06 -0.07096147 -0.030473838
0003d0 ca c5 59 bd 8b 14 40 bd 8d 86 4f bd d8 e2 25 bd
       -0.053167142 -0.04689459 -0.050665427 -0.04049954
0003e0 70 5b 89 bd 8b 2d b8 3b e2 71 90 bd b0 fd dc 3b
       -0.067068934 0.0056206635 -0.070529714 0.006744109
0003f0 af fc 4f b9 f8 34 31 3d 25 04 1b 3b 1f ca e6 3a
       -0.0001983519 0.043263406 0.0023653593 0.0017607844
