PARALLEL/weights/best_model_hider1.pth (torch, 286966 bytes, 9 tensors)

network.0.weight f4 [32, 5, 3, 3]
-0.008178798 0.08115246 0.039615322 -0.038388792 -0.015420517 0.028498707 0.07325059 -0.04813948
0.016492015 0.05055366 0.024192814 -0.11989799 -0.09608225 -0.04508775 0.0309154 0.28009823
-0.032516915 -0.052235715 -0.023805648 -0.15827861 0.14678054 0.066272974 0.07081409 0.14951767
-0.031521086 -0.30579227 -0.0667021 0.14675936 -0.16607212 0.13763706 0.0943949 0.19359174
-0.15003347 0.045530394 -0.44199356 0.17140438 -0.11782499 -0.21700728 0.22492307 -0.11219226
-0.09739409 0.05858131 0.004810698 0.11820201 -0.013283127 -0.076285 0.0070714783 0.19769037
-0.09897493 0.11519082 -0.076864876 0.06565336 -0.01651186 -0.073470056 -0.07933938 0.025117991
-0.15778087 -0.24361643 -0.10543724 -0.34230968 -0.13691165 -0.25613898 -0.029854074 0.21034208
-0.07087928 0.037043262 -0.067364454 -0.0022162513 -0.021208731 0.094269335 0.16742648 0.09586427
-0.08517013 -0.0985809 0.112082094 0.018838057 -0.042848457 -0.056757852 -0.18783915 0.22282757
-0.22941858 0.021276517 -0.10138855 0.07704906 0.06898981 0.20516823 0.23570181 0.10235553
-0.09880541 0.08968181 -0.005915891 0.012468058 -0.015593767 0.09681063 0.07275109 -0.064806074
-0.06130771 -0.032509275 0.02056905 -0.06629907 -0.29565498 0.09697575 0.014833479 -0.14893244
0.09529871 -0.36615428 -0.20378514 0.26794606 0.007814449 -0.098279625 0.14362483 0.20082417
-0.20447247 -0.009615891 0.14370939 -0.07408251 0.048419528 0.06296236 0.03225206 -0.2248357
-0.13941486 0.00858728 0.06825617 0.045917388 -0.23758307 -0.31579778 -0.028493106 0.07081204
-0.010492187 -0.031850506 0.11068191 0.05450991 -0.073275454 0.07951674 -0.032708474 -0.02413443
-0.17970029 -0.12709609 0.058902077 -0.0063940827 0.016711654 -0.10325968 -0.084684804 -0.096965946
0.1276885 0.05012566 0.13844952 0.14798169 0.032511137 0.013742917 0.08918804 0.18731886
0.2016226 -0.021792741 -0.20962985 -0.29974282 -0.028171709 -0.22662696 0.07999039 -0.1936668
0.034212 -0.001092336 0.070117995 0.048955068 0.08073135 0.076567955 -0.10883258 0.06215445
0.06944179 0.1571542 0.04349888 -0.091617815 -0.11486066 -0.17041081 -0.18112592 -0.2034212
-0.26600608 -0.046289347 0.03780464 -0.052130453 -0.049184598 0.046984177 -0.15544403 -0.08830928
-0.035765953 0.10397826 0.04868385 -0.0016796619 0.050368473 -0.014858499 -0.1673244 -0.018456208
0.069915 0.04632657 -0.022001144 -0.24666765 0.23701218 0.13100329 -0.012017896 -0.03787491
-0.12268044 -0.17255853 0.09161216 0.0060637114 -0.010024195 0.010549418 0.06400315 -0.027971024
0.03063685 0.09187233 0.0020660493 -0.02777833 -0.11662643 -0.014335788 0.25528812 0.007971018
-0.07787849 -0.039707273 -0.007807037 -0.28195795 -0.124215215 -0.123163894 -0.10535121 -0.06587786
-0.044537716 -0.027842194 -0.08656796 -0.03231082 -0.13699442 0.013760271 0.12053008 0.055181295
-0.026246002 -0.05682501 0.020700239 -0.0109682195 0.19989835 -0.07792802 0.12570162 0.1964073
-0.024533533 0.29384598 -0.31290612 -0.029488236 -0.20113356 0.070913054 -0.26980713 0.08821453
0.06890323 0.065867096 0.14208452 0.010144894 0.2892634 -0.15899353 -0.104471676 -0.11508603
00000000: 5d00 06bc 4333 a63d ad43 223d 913d 1dbd
00000010: 56a6 7cbc 1f76 e93c 6804 963d e72d 45bd
00000020: 431a 873c 5b11 4f3d 0230 c63c 148d f5bd
00000030: c5c6 c4bd efad 38bd 4b42 fd3c 0969 8f3e
00000040: 7530 05bd 1ef5 55bd 1004 c3bc ca13 22be
00000050: a34d 163e 20ba 873d fa06 913d 291b 193e
00000060: 411c 01bd ce90 9cbe 1c9b 88bd 1648 163e
00000070: cf0e 2abe bbf0 0c3e 1d52 c13d ea3c 463e
00000080: 60a2 19be 147e 3a3d fb4c e2be a184 2f3e
00000090: 3a4e f1bd 2837 5ebe 3c52 663e 0ec5 e5bd
000000a0: 8d76 c7bd f5f2 6f3d 0fa3 9d3b e513 f23d
000000b0: 79a1 59bc 4f3b 9cbd dcb7 e73b 586f 4a3e
000000c0: 5eb3 cabd 2ae9 eb3d 556b 9dbd 4575 863d
000000d0: e143 87bc 7877 96bd af7c a2bd 3fc4 cd3c
000000e0: 4f91 21be 9676 79be 7bef d7bd 3743 afbe
000000f0: 9132 0cbe a624 83be 8890 f4bc ea63 573e
00000100: 2829 91bd adba 173d 60f6 89bd 873e 11bb
00000110: efbd adbc 4810 c13d d971 2b3e 7d54 c43d
00000120: ad6d aebd c8e4 c9bd 4c8b e53d 4552 9a3c
00000130: dd81 2fbd ec7a 68bd e858 40be e92c 643e
00000140: b4ec 6abe 174c ae3c cda4 cfbd e6cb 9d3d
00000150: 884a 8d3d 9f17 523e d15b 713e c79f d13d
00000160: 7e5a cabd 19ab b73d 17da c1bb d346 4c3c
00000170: 007d 7fbc a744 c63d 86fe 943d 0cb9 84bd
00000180: cb1d 7bbd 7228 05bd 6d80 a83c cfc7 87bd
00000190: 1760 97be 399b c63d 1f08 733c bf81 18be
000001a0: f82b c33d 9378 bbbe 0dad 50be 3a30 893e
000001b0: 2d08 003c d446 c9bd 6312 133e daa4 4d3e
000001c0: 3b61 51be f88b 1dbc 8e28 133e 92b8 97bd
000001d0: 8e53 463d 69f2 803d bc1a 043d 543b 66be
000001e0: c5c2 0ebe aab1 0c3c e4c9 8b3d df13 3c3d
000001f0: fa48 73be 3fb0 a1be 606a e9bc e705 913d
00000200: 6ce7 2bbc ad75 02bd 32ad e23d c945 5f3d
00000210: 7111 96bd acd9 a23d 52f9 05bd 91b5 c5bc
00000220: 5a03 38be 7a25 02be 4e43 713d 7485 d1bb
00000230: e1e6 883c d079 d3bd 3a6f adbd 1596 c6bd
00000240: c6c0 023e 9050 4d3d b6c5 0d3e 8388 173e
00000250: 662a 053d f929 613c 38a8 b63d 84d0 3f3e
00000260: 2876 4e3e b186 b2bc 35a9 56be e477 99be
00000270: 5bc8 e6bc e610 68be 00d2 a33d 9750 46be
00000280: e221 0c3d b72c 8fba 069a 8f3d 1c85 483d
00000290: 7a56 a53d a9cf 9c3d 9ee3 debd aa95 7e3d
000002a0: 7f37 8e3d 08ed 203e e22b 323d 1fa2 bbbd
000002b0: 113c ebbd 2c80 2ebe 1379 39be a64d 50be
000002c0: f331 88be e699 3dbd 0ad9 1a3d be86 55bd
000002d0: ca75 49bd 7b72 403d b82c 1fbe 7fdb b4bd
000002e0: 527f 12bd 8ef2 d43d b768 473d 1a28 dcba
000002f0: 2c4f 4e3d 1071 73bc 1657 2bbe 7931 97bc
00000300: 982f 8f3d eec0 3d3d be3b b4bc 7296 7cbe
00000310: 52b3 723e ba25 063e b6e6 44bc b922 1bbd
00000320: e23f fbbd 2fb3 30be 289f bb3d 19b2 c63b
00000330: 853c 24bc 77d7 2c3c 1514 833d 7d23 e5bc
00000340: 22fa fa3c 8f27 bc3d 8e66 073b 618f e3bc
00000350: d6d9 eebd a7e0 6abc 20b5 823e df98 023c
00000360: c27e 9fbd 18a4 22bd 2cd2 ffbb cb5c 90be
00000370: 8c64 febd 5a3d fcbd 60c2 d7bd f9ea 86bd
00000380: 2e6d 36bd 5015 e4bc 8b4a b1bd 5a58 04bd
00000390: 4448 0cbe c272 613c 79d8 f63d c805 623d
000003a0: db01 d7bc 57c1 68bd 8c93 a93c 0cb4 33bc
000003b0: 27b2 4c3e ba98 9fbd edb7 003e ff1e 493e
000003c0: 8cfa c8bc fb72 963e 3b35 a0be 5091 f1bc
000003d0: f5f5 4dbe dd3a 913d 2924 8abe d2a9 b43d
000003e0: 231d 8d3d 54e5 863d 9b7e 113e c536 263c
000003f0: 551a 943e 33cf 22be 3ff5 d5bd 39b2 ebbd

network.0.bias f4 [32]
-0.0014835688 0.1310492 -0.0017165575 0.0073112003 -0.037596542 -0.08853481 0.006651305 -0.13631923
-0.1203875 0.05629853 -0.08878457 0.028603368 0.026334481 -0.067765765 -0.0016178925 0.0027587358
-0.08383156 0.044417515 -0.08686047 0.00052440347 -0.028536355 0.024317434 -0.08941078 -0.020878496
0.013182197 -0.096461505 -0.11060492 0.052747156 0.0004864233 0.04449142 -0.07384214 0.087790884
00000000: 4f74 c2ba c331 063e 1dfe e0ba cb92 ef3b
00000010: d5fe 19bd bd51 b5bd 31f3 d93b 4597 0bbe
00000020: b98d f6bd 4a99 663d afd4 b5bd 9c51 ea3c
00000030: 69bb d73c c7c8 8abd 770f d4ba e8cb 343b
00000040: e2af abbd 24ef 353d e7e3 b1bd 1f78 093a
00000050: 13c5 e9bc 5b35 c73c 001d b7bd 6109 abbc
00000060: 24fa 573c 9c8d c5bd d584 e2bd 670d 583d
00000070: a106 ff39 a33c 363d 8c3a 97bd b5cb b33d

network.2.weight f4 [64, 32, 3, 3]
-0.046216477 -0.01781592 -0.0553463 -0.05877065 -0.06723548 -0.05482236 0.03781634 -0.04789425
-0.056101542 -0.031091053 -0.012246229 -0.05572847 0.0075040627 -0.03354488 -0.07947767 -0.0020955808
-0.021277206 -0.017920524 -0.02450905 -0.005364797 -0.015977401 -0.047348894 -0.029248672 -0.011511163
-0.078023165 0.017758911 -0.028656565 0.016130803 -0.034816734 0.005845993 -0.06263758 0.046109997
-0.0057578585 -0.057730805 0.030470194 -0.093700595 -0.010778078 0.03762283 0.031232933 -0.07700421
-0.018320568 -0.015743272 -0.049827356 -0.020294363 -0.15548417 -0.051246468 0.096854895 0.02283142
-0.1351399 -0.043443583 -0.017833395 -0.039300125 0.027493302 0.043413606 -0.024241582 0.021490991
0.032367773 0.009338007 0.04424439 0.06671415 -0.068338014 -0.08626132 0.044264123 0.024016129
0.024324466 -0.054384712 -0.035559535 -0.02785196 0.07366803 -0.073585965 -0.024326706 -0.10554691
0.03400045 -0.030355463 -0.013495819 -0.008789125 0.009175915 -0.020282598 0.06595989 0.011995436
-0.009274602 0.0060672727 -0.06812639 -0.014167901 -0.02355782 -0.092068255 -0.026514718 0.0035055068
-0.10938267 -0.06448534 -0.08651361 0.017892325 0.006633528 0.039948504 -0.019330198 -0.045028865
0.045924958 -0.027936403 0.0006052363 0.0044234754 -0.022835243 -0.064225 -0.018139603 -0.02303939
0.05826561 0.034433767 0.0091229705 0.034778878 -0.09697178 -0.09320068 -0.10442848 -0.0026320426
-0.023007194 -0.039385777 -0.038566697 0.017427439 -0.06557873 -0.06216905 0.02105952 0.015812937
-0.04268013 -0.02639961 0.101108156 -0.042836856 -0.041480098 0.038607165 0.0065202573 -0.04845372
0.041950624 -0.02838978 -0.10134418 0.05610731 -0.08541833 0.015385864 0.016679194 -0.0418596
-0.07509205 -0.06791217 -0.1420949 0.02988323 -0.047420472 0.01450806 0.042943392 0.009758534
0.051584046 0.035486422 0.051209636 -0.029151361 -0.16218571 -0.08155186 -0.051458977 -0.109923005
-0.08785369 0.03959789 -0.008294798 0.08342782 -0.020811383 -0.08197543 -0.04543497 0.015275352
-0.109019995 0.008623868 -0.100914225 -0.022639569 -0.0775499 -0.09368069 -0.02467721 0.028015584
-0.03671685 0.01141356 0.00063207484 0.043852195 -0.02621003 -0.017016664 0.008635922 -0.014976347
0.041119885 -0.028014293 -0.081422865 -0.07874282 -0.051862217 -0.11276795 0.010131971 -0.016020356
0.05433731 0.011576367 0.017175386 -0.07735835 -0.003814838 0.0080985045 -0.07410735 -0.08823798
-0.01579427 -0.05869452 -0.03784941 -0.0761799 -0.050192982 -0.01975648 -0.09300179 0.016759837
0.012860899 -0.055217046 -0.0013806286 -0.06483028 -0.046668965 0.027932337 0.048397005 -0.060689874
-0.096379116 -0.040984537 0.0056591025 -0.028108623 0.02610423 0.07157845 -0.07631253 -0.059873626
-0.015718553 -0.07160785 -0.036212288 0.01990778 -0.021838706 -0.080925055 -0.032854024 -0.010381775
0.06447805 0.09369112 -0.023171624 -0.015824333 -0.019813325 -0.079939336 -0.16870458 -0.07004563
-0.083531894 -0.13626257 -0.019710908 -0.035025537 -0.008696469 -0.08300766 -0.022486117 -0.035458043
-0.02277544 0.12181766 0.004919143 0.022984331 -0.01998927 -0.052151617 -0.012889036 -0.07650641
-0.00885968 -0.09205007 0.02795753 0.012835337 0.0022465142 -0.0054336684 -0.053836618 -0.010713487
00000000: 7d4d 3dbd b1f2 91bc cdb2 62bd 7eb9 70bd
00000010: c1b2 89bd 698d 60bd 4ee5 1a3d c32c 44bd
00000020: bbca 65bd aab2 febc 68a4 48bc 8943 64bd
00000030: a4e4 f53b 5b66 09bd 30c5 a2bd 0356 09bb
00000040: 894d aebc 10ce 92bc 34c7 c8bc 2ecb afbb
00000050: 0ae3 82bc eaf0 41bd e99a efbc 5199 3cbc
00000060: 9cca 9fbd 237b 913c 2cc1 eabc bf24 843c
00000070: fe9b 0ebd be8f bf3b 2248 80bd d6dd 3c3d
00000080: 6bac bcbb 2377 6cbd a19c f93c 19e6 bfbd
00000090: 8996 30bc 661a 1a3d 35dc ff3c 62b4 9dbd
000000a0: 0415 96bc 09f8 80bc c517 4cbd 5d40 a6bc
000000b0: 3e37 1fbe d1e7 51bd dc5b c63d f508 bb3c
000000c0: 1d62 0abe e6f1 31bd 5717 92bc 2bf9 20bd
000000d0: a239 e13c 77d2 313d 4896 c6bc e00d b03c
000000e0: 1294 043d 71fe 183c 9b39 353d 6ea1 883d
000000f0: cdf4 8bbd c6a9 b0bd 4c4e 353d 79bd c43c
00000100: 1a44 c73c 81c2 5ebd e0a6 11bd cb29 e4bc
00000110: 44df 963d 3db4 96bd cd48 c7bc fa28 d8bd
00000120: 0e44 0b3d 05ac f8bc 911d 5dbc 4300 10bc
00000130: 9456 163c b127 a6bc fb15 873d 8188 443c
00000140: 80f4 17bc f9cf c63b d985 8bbd 7c20 68bc
00000150: 54fc c0bc 488e bcbd 6535 d9bc a5bc 653b
00000160: 0504 e0bd e410 84bd 0c2e b1bd ed92 923c
00000170: 115e d93b 0ba1 233d 5d5a 9ebc 3070 38bd
00000180: cf1b 3c3d e2da e4bc b8a8 1e3a cdf2 903b
00000190: fa10 bbbc 6688 83bd 8199 94bc 1abd bcbc
000001a0: eca7 6e3d 6c0a 0d3d 8378 153c 4c74 0e3d
000001b0: 2499 c6bd 00e0 bebd 99de d5bd 597e 2cbb
000001c0: 9579 bcbc fb52 21bd 1df8 1dbd fdc3 8e3c
000001d0: 244e 86bd f9a4 7ebd 0485 ac3c 228a 813c
000001e0: 5cd1 2ebd ff43 d8bc cb11 cf3d b375 2fbd
000001f0: 09e7 29bd 8c22 1e3d e2a7 d53b 6877 46bd
00000200: 6bd4 2b3d af91 e8bc 8a8d cfbd c7d0 653d
00000210: ceef aebd fe14 7c3c cea2 883c f974 2bbd
00000220: dcc9 99bd 8915 8bbd 5381 11be adcd f43c
00000230: f83b 42bd 37b3 6d3c 69e5 2f3d 42e2 1f3c
00000240: cb49 533d 365a 113d 32c1 513d d6ce eebc
00000250: 0314 26be a904 a7bd a6c6 52bd 501f e1bd
00000260: a3ec b3bd 6631 223d e8e6 07bc 34dc aa3d
00000270: a27c aabc bce2 a7bd 051a 3abd 7845 7a3c
00000280: e045 dfbd 204b 0d3c 1eac cebd 9e76 b9bc
00000290: 7bd2 9ebd a9db bfbd dc27 cabc f080 e53c
000002a0: 6864 16bd f1ff 3a3c d3b1 253a 5c9e 333d
000002b0: 6bb6 d6bc 8866 8bbc af7d 0d3c 5a5f 75bc
000002c0: 536d 283d 3b7e e5bc 08c1 a6bd ea43 a1bd
000002d0: 7a6d 54bd e2f2 e6bd 9100 263c 1f3d 83bc
000002e0: cd90 5e3d cdaa 3d3c 65b3 8c3c 0e6e 9ebd
000002f0: 5c02 7abb 97af 043c 98c5 97bd 1db6 b4bd
00000300: fc62 81bc aa69 70bd fc07 1bbd 3504 9cbd
00000310: 2897 4dbd 57d8 a1bc b977 bebd ed4b 893c
00000320: 85b6 523c 452b 62bd 35f6 b4ba bdc5 84bd
00000330: f527 3fbd 5bd2 e43c f03b 463d f295 78bd
00000340: 6a62 c5bd 67df 27bd fe6f b93b 0e44 e6bc
00000350: 8ad8 d53c b997 923d be49 9cbd 0c3e 75bd
00000360: 32c4 80bc 23a7 92bd 5653 14bd a415 a33c
00000370: 16e7 b2bc 09bc a5bd f191 06bd 5218 2abc
00000380: 110d 843d 21e1 bf3d 6bd2 bdbc 08a2 81bc
00000390: 8e4f a2bc 3cb7 a3bd e5c0 2cbe 1574 8fbd
000003a0: c512 abbd 6a88 0bbe c578 a1bc f076 0fbd
000003b0: a27b 0ebc ecff a9bd ce34 b8bc 743c 11bd
000003c0: 8f93 babc 8a7b f93d c330 a13b a349 bc3c
000003d0: 8ac0 a3bc ef9c 55bd 892c 53bc 65af 9cbd
000003e0: 3128 11bc bf84 bcbd 3107 e53c 4e4b 523c
000003f0: 413a 133b ea0c b2bb c983 5cbd 9f87 2fbc

network.2.bias f4 [64]
-0.012608855 0.0023256426 0.02156777 0.006989087 0.047814015 -0.019492034 -0.055162217 -0.016247343
-0.003601487 -0.04735536 -0.06897806 -0.02871367 -0.09663096 -0.032408603 -0.020568956 0.019465664
-0.0452795 -0.036169697 -0.017020212 -0.022314547 -0.010932605 -0.034396242 0.033450354 -0.031198537
-0.08615389 -0.053730264 -0.017070904 -0.11197556 0.037372116 0.050390903 0.005004378 -0.069626324
0.011728547 -0.069029205 -0.05227512 -0.025436632 0.049708094 -0.07403886 -0.034385484 -0.05055222
-0.030283317 0.009490593 -0.080711156 -0.046599533 -0.004284183 -0.016532917 0.01438567 -0.07464853
0.004405065 -0.03890742 -0.008739122 -0.047105163 0.017680617 -0.009349999 -0.014798521 -0.033265367
-0.01325199 -0.021860257 -0.029846922 -0.012240137 -0.08998855 -0.032728065 -0.07750864 -0.06995298
00000000: 5f95 4ebc cf69 183b e4ae b03c b604 e53b
00000010: a1d8 433d c2ad 9fbc c7f1 61bd 2619 85bc
00000020: ed06 6cbb b2f7 41bd 5e44 8dbd ee38 ebbc
00000030: 74e6 c5bd e2be 04bd 3a80 a8bc 7576 9f3c
00000040: ff76 39bd ad26 14bd f96d 8bbc ffcc b6bc
00000050: ab1e 33bc 13e3 0cbd 3d03 093d 1394 ffbc
00000060: 7371 b0bd 4414 5cbd 48d8 8bbc 7153 e5bd
00000070: 8113 193d b166 4e3d c4fb a33b 3f98 8ebd
00000080: 1729 403c 2f5f 8dbd 701e 56bd 7c60 d0bc
00000090: b79a 4b3d b0a1 97bd cbd7 0cbd d80f 4fbd
000000a0: b814 f8bc 6f7e 1b3c e44b a5bd 27df 3ebd
000000b0: 5562 8cbb 0a70 87bc e0b1 6b3c 54e1 98bd
000000c0: 5d58 903b 635d 1fbd 892e 0fbc 58f1 40bd
000000d0: f1d6 903c bd30 19bc 7f75 72bc 4441 08bd
000000e0: e01e 59bc 4814 b3bc 8881 f4bc db8a 48bc
000000f0: eb4b b8bd dd0d 06bd dabc 9ebd 8243 8fbd

network.4.weight f4 [64, 64, 3, 3]
0.014029052 0.00056128507 -0.01805769 0.035298772 -0.044314288 0.0048474856 -0.036630973 0.025393385
0.010404824 -0.0034134593 -0.013276894 0.006225007 0.013659424 -0.037940238 0.016431447 -0.035997406
0.034098417 0.018538918 0.026125958 0.033942886 0.03998112 -0.005970286 -0.13829923 -0.04435646
0.019113772 0.14403912 -0.031689618 0.002786834 -0.07999849 0.012363042 -0.046696376 -0.008812262
0.059145924 -0.022795951 0.019096784 -0.02884318 -0.027664034 -0.014382791 0.007816555 -0.10478971
-0.074342065 -0.08379445 -0.034647655 0.009429374 -0.01596758 0.13177073 0.005609284 -0.064541765
-0.044077016 -0.078283824 -0.09478524 -0.03217268 -0.13113847 -0.123171166 0.03472426 -0.031910982
-0.042107668 0.06202555 -0.007617952 0.04189151 -0.033598535 0.010151473 0.0143775325 0.0014630769
0.011164938 -0.03720271 -0.04198919 0.097588144 0.040452193 -0.058585245 0.034478135 -0.052204262
-0.16147332 -0.042986788 -0.05069693 0.021212483 -0.07259729 -0.020418406 0.044219434 -0.01968705
0.0015778072 -0.07710471 0.07305592 -0.08593922 0.047696643 0.0013334112 -0.0029383213 -0.0055357614
-0.022711981 0.018420167 0.0010349146 0.018712688 -0.022522822 0.01310826 0.0007290177 -0.021692611
-0.0066209286 -0.030492 -0.06812265 0.011396309 -0.086933695 -0.04102436 0.0155246975 -0.039544344
-0.019028412 -0.055693187 -0.055864327 -0.045736335 -0.057006966 0.024763986 -0.063661076 -0.117280014
0.11003461 -0.10662011 -0.036841847 0.036863692 0.06407408 -0.14972958 -0.14621095 -0.042872906
-0.09804048 -0.033218652 0.025394816 -0.00045130987 -0.1563051 0.011849792 -0.011957037 -0.014973857
-0.021528533 -0.031350415 -0.03657227 -0.08645856 -0.07815985 -0.10472134 -0.06682867 0.0042579756
-0.006608834 -0.050155662 -0.042496227 -0.040038932 -0.09743019 0.0011689712 -0.03902938 -0.030605393
0.0054142685 -0.059676137 0.039667852 -0.1029116 -0.054649215 0.08693297 -0.045970615 -0.011005085
-0.05296107 0.05755404 0.00084846816 -0.11161879 -0.07353261 -0.067768276 0.02415808 -0.13100827
-0.036335297 0.039904755 -0.03700154 -0.015136342 -0.06763905 -0.066734366 -0.02742905 -0.11215219
-0.19221117 -0.124930725 -0.13804162 -0.048972387 0.0112847425 0.028470408 -0.02126244 -0.019553736
0.048432246 -0.048927836 0.1820594 -0.057761095 -0.002487002 -0.0534832 -0.09301714 -0.09376042
-0.028560722 -0.054620918 -0.066501394 -0.2493735 -0.15073396 0.0021535833 -0.032315597 -0.12452772
-0.06325602 -0.048263118 -0.038708806 -0.12548009 -0.035426617 -0.0020140728 0.057485923 -0.0541612
-0.045439813 -0.022785364 -0.02885258 0.0036206325 0.107637696 -0.07767595 -0.0030013733 -0.071575634
-0.014795692 0.110443704 -0.048419937 -0.078283414 -0.046133015 0.04805468 -0.011968159 -0.06725408
0.05851253 -0.006306328 -0.0019624715 -0.039862666 0.008689881 0.0013117353 -0.07261729 -0.006946094
0.032821294 -0.03568732 0.019220464 0.0037515003 -0.00567013 0.007637629 -0.007002085 -0.021822734
-0.02063304 -0.038999554 0.032353673 -0.052436434 -0.053875584 -0.10954682 -0.00037548915 0.028329773
-0.043148424 -0.09774987 0.0007042512 0.050779827 -0.12570678 -0.1349597 0.05843417 -0.033832
-0.033210088 0.012191186 -0.019275598 0.0072276723 -0.07988676 -0.023668522 -0.11920019 -0.048384137
00000000: 1cda 653c 3423 133a b8ed 93bc 7295 103d
00000010: e682 35bd a8d7 9e3b 5c0a 16bd ca05 d03c
00000020: ff78 2a3c 58b4 5fbb 5487 59bc 25fb cb3b
00000030: c7cb 5f3c 3967 1bbd 3e9b 863c 0472 13bd
00000040: c8aa 0b3d eede 973c 1b06 d63c b207 0b3d
00000050: 3ec3 233d 64a2 c3bb 509e 0dbe 1faf 35bd
00000060: 7c94 9c3c fe7e 133e f9cc 01bd 51a3 363b
00000070: 40d6 a3bd 5b8e 4a3c b344 3fbd 4e61 10bc
00000080: ff42 723d 93be babc dc70 9c3c 8848 ecbc
00000090: af9f e2bc cca5 6bbc 0211 003c fd9b d6bd
000000a0: a740 98bd 6d9c abbd b3ea 0dbd a97d 1a3c
000000b0: 71ce 82bc e8ee 063e 16ce b73b 792e 84bd
000000c0: 1a8a 34bd 4553 a0bd c41e c2bd 80c7 03bd
000000d0: 2a49 06be 2a41 fcbd 073b 0e3d 17b5 02bd
000000e0: 1779 2cbd 810e 7e3d 03a0 f9bb 6f96 2b3d
000000f0: 9e9e 09bd 5d52 263c be8f 6b3c b7c4 bf3a
00000100: 25ed 363c de61 18bd dbfc 2bbd 4bdc c73d
00000110: 33b1 253d 15f7 6fbd f238 0d3d 23d4 55bd
00000120: 4359 25be ea12 30bd 96a7 4fbd cdc5 ad3c
00000130: e3ad 94bd 8044 a7bc 701f 353d bc46 a1bc
00000140: 6dce ce3a 13e9 9dbd 589e 953d e700 b0bd
00000150: 8e5d 433d dbc5 ae3a da90 40bb 5565 b5bb
00000160: 7a0e babc e4e5 963c f9a5 873a 5a4b 993c
00000170: c881 b8bc 07c4 563c 8d1b 3f3a b4b4 b1bc
00000180: 60f4 d8bb 5cca f9bc e383 8bbd 96b7 3a3c
00000190: 4b0a b2bd 2909 28bd 4d5b 7e3c 40f9 21bd
000001a0: 79e1 9bbc 8a1e 64bd fed1 64bd 0656 3bbd
000001b0: 2380 69bd d8dd ca3c bd60 82bd 8130 f0bd
000001c0: d359 e13d a55b dabd 7ae7 16bd 62fe 163d
000001d0: 4539 833d b652 19be 53b8 15be 809b 2fbd
000001e0: 72c9 c8bd 4810 08bd ca08 d03c c99d ecb9
000001f0: 720e 20be a125 423c 73e7 43bc e954 75bc
00000200: 9b5c b0bc 4b69 00bd cecc 15bd 2f11 b1bd
00000210: 4512 a0bd 2478 d6bd 78dd 88bd 7d86 8b3b
00000220: eb8e d8bb 0670 4dbd 8610 2ebd ddff 23bd
00000230: 7b89 c7bd 2a38 993a 45dd 1fbd 29b8 fabc
00000240: 2d6a b13b f76e 74bd c27a 223d 51c3 d2bd
00000250: dbd7 5fbd ea09 b23d af4b 3cbd ac4e 34bc
00000260: b5ed 58bd c9bd 6b3d bc6b 5e3a 6498 e4bd
00000270: 4498 96bd 18ca 8abd 2ae7 c53c 0827 06be
00000280: 52d4 14bd 2b73 233d ed8e 17bd 6bfe 77bc
00000290: 5886 8abd 07ac 88bd e3b2 e0bc 0cb0 e5bd
000002a0: 01d3 44be aedb ffbd c85a 0dbe 4597 48bd
000002b0: a4e3 383c c63a e93c 922e aebc 282f a0bc
000002c0: e460 463d 8e68 48bd c86d 3a3e e696 6cbd
000002d0: f8fc 22bb 3311 5bbd c57f bebd 7705 c0bd
000002e0: 2df8 e9bc 2fba 5fbd e231 88bd c45b 7fbe
000002f0: 015a 1abe 2223 0d3b 5c5d 04bd 6408 ffbd
00000300: 5f8c 81bd 8caf 45bd 208d 1ebd da7d 00be
00000310: 801b 11bd 89fe 03bb 5c76 6b3d 22d8 5dbd
00000320: 191f 3abd 5fa8 babc 3f5c ecbc 2248 6d3b
00000330: 2771 dc3d 9214 9fbd b0b2 44bb 3f96 92bd
00000340: a169 72bc 4f30 e23d fc53 46bd 0e53 a0bd
00000350: f9f5 3cbd fcd4 443d 1916 44bc 82bc 89bd
00000360: d6aa 6f3d 50a5 cebb cf9c 00bb 0947 23bd
00000370: 0160 0e3c 88ee ab3a 60b8 94bd 0f9c e3bb
00000380: 9f6f 063d de2c 12bd 3c74 9d3c bbdb 753b
00000390: 7fcc b9bb 1345 fa3b bf71 e5bb 97c5 b2bc
000003a0: 9f06 a9bc ffbd 1fbd 4985 043d 96c7 56bd
000003b0: a5ac 5cbd 155a e0bd 4ddd c4b9 d713 e83c
000003c0: 67bc 30bd 1531 c8bd 7f9d 383a 82fe 4f3d
000003d0: 47b9 00be e032 0abe ab58 6f3d 6c93 0abd
000003e0: 4d07 08bd 8abd 473c dce7 9dbc 1cd6 ec3b
000003f0: ab9b a3bd 7de4 c1bc 3b1f f4bd 722e 46bd

network.4.bias f4 [64]
-0.026010076 -0.002806086 -0.059706487 -0.060965195 0.024087772 -0.025319083 -0.08871332 -0.063493595
-0.030278014 -0.09026236 -0.060885817 -0.02550165 -0.04804086 -0.07610432 -0.019678952 0.009852942
-0.058825083 -0.012333529 -0.09034205 0.011992146 0.0044725244 0.06308171 0.059892625 -0.017451394
-0.06679166 -0.024404224 -0.08450364 -0.06285517 0.039837003 -0.018963791 -0.0010344789 -0.02186966
-0.041799832 0.017461538 0.049671024 0.02427383 -0.06154731 -0.046438567 0.042150952 0.042445205
-0.022492405 -0.015954355 -0.033522185 0.02670016 -0.023399005 -0.06942728 -0.1001409 -0.06398619
0.060401004 0.009335804 0.019689698 -0.067869455 -0.05527757 -0.10567806 0.0025425698 0.06748158
-0.042764597 0.029417727 -0.034635477 -0.041233927 -0.021135082 -0.01941503 -0.02724901 -0.013697779
00000000: 1513 d5bc 50e6 37bb ca8e 74bd a4b6 79bd
00000010: b853 c53c f769 cfbc 54af b5bd ee08 82bd
00000020: 9909 f8bc 79db b8bd 6863 79bd d6e8 d0bc
00000030: 7ec6 44bd 95dc 9bbd c135 a1bc 3c6e 213c
00000040: 92f2 70bd 9212 4abc 4105 b9bd b57a 443c
00000050: 418e 923b fc30 813d f851 753d 3af6 8ebc
00000060: 11ca 88bd 5eeb c7bc 3f10 adbd 36ba 80bd
00000070: 202c 233d f459 9bbc 5a97 87ba 0028 b3bc
00000080: 4d36 2bbd 800b 8f3c d873 4b3d e9d9 c63c
00000090: 0819 7cbd 5e36 3ebd 7aa6 2c3d 06db 2d3d
000000a0: fe41 b8bc b5b2 82bc 8f4e 09bd 4bba da3c
000000b0: 45af bfbc e42f 8ebd ac16 cdbd 310b 83bd
000000c0: 0b67 773d 33f5 183c 4a4c a13c 24ff 8abd
000000d0: bc6a 62bd bd6d d8bd 3ea1 263b c833 8a3d
000000e0: ee29 2fbd 72fd f03c eedd 0dbd e8e4 28bd
000000f0: 7b23 adbc 450c 9fbc 5139 dfbc a66c 60bc

actor.weight f4 [5, 2304]
-0.001344359 -0.022401921 0.06584702 0.11659905 -0.006645592 0.04927621 0.0031182414 0.012238871
-0.033707622 0.09423412 -0.031565044 -0.08527752 0.0009959617 -0.010858629 0.035318997 0.049157474
0.06492894 0.06572088 0.014288637 -0.032343816 -0.029879827 0.110353254 -0.017120834 -0.08850947
0.0062509123 -0.021483893 0.022961663 -0.017447822 0.13600083 0.0687056 0.006751361 -0.04114718
-0.00013864343 -0.052756187 0.03626252 -0.08259149 -0.070351146 -0.07710911 -0.05556347 -0.09596279
-0.05080763 -0.051928144 -0.051268667 -0.03454353 -0.041015368 -0.039923258 -0.057568643 -0.10744733
-0.1022713 -0.11826152 0.007425082 -0.052388854 -0.06073053 -0.035315003 -0.024419846 0.0062232018
-0.110544585 -0.016469564 -0.05329711 -0.0370268 -0.019645121 0.0037710597 0.014808683 -0.023746857
-0.005552362 -0.009521299 -0.093621485 -0.030290844 0.043333743 0.058974266 0.06420629 -0.007852644
0.024023762 -0.009875321 -0.06409718 0.0021584076 0.0110452445 0.060978983 0.122996576 -0.0074405773
-0.00078549463 0.037557516 0.018716779 0.0100387065 0.10452237 0.03802111 0.11997088 0.10044393
-0.01477971 0.01933351 -0.047999006 0.044033043 -0.033251923 -0.041603602 -0.0043904893 -0.0367889
0.01644078 0.010141264 -0.056297444 0.06760593 -0.026474804 -0.002810012 0.0478846 0.025772195
0.067277364 -0.009238851 -0.0037684238 -0.008732626 2.4106235e-05 0.00036682317 -0.0017089937 -7.0477494e-05
0.00023794932 0.0014254133 0.0019380401 0.0070228647 -0.0072900737 -0.006250371 -0.0011168178 -0.016983997
0.0031838836 0.014992021 0.022734022 -0.008770595 0.0050821076 -0.014525258 0.0056449077 0.0036364608
-0.013411987 -0.02093332 -0.025033785 -0.025005197 -0.008171561 -0.01846381 -0.009610331 -0.019504659
-0.02926997 -0.030951247 -0.004204753 -0.00604168 -0.0077945 -0.017812189 -0.024784576 -0.020215712
-0.018583957 -0.030064367 0.01295756 -0.029193554 -0.10104292 -0.0080442345 -0.12895773 -0.018502077
0.0040634684 0.010690964 0.0038659452 -0.12480889 -0.022352334 -0.07779148 0.041007 -0.124264404
-0.08099055 -0.026163753 -0.004085997 -0.04853588 -0.31446016 -0.075950466 -0.20465513 -0.110616446
-0.11406133 0.039333794 -0.07141603 0.066414006 -0.034620058 0.015865836 0.0101448195 -0.06314613
0.08101104 -0.049151987 -0.05182276 0.036385417 -0.0245026 -0.08582386 0.062353536 -0.09117951
-0.014166742 -0.065913774 0.051972203 0.1358481 0.036895923 -0.089697 -0.018410157 0.06739616
-0.036089823 -0.15023835 0.07127257 0.0005237914 0.036520287 0.06041344 0.024813984 -0.12533644
0.0628185 0.023898568 -0.058496468 -0.0022488022 0.202031 0.003752287 0.07982179 -0.011544575
-0.0073129893 -0.015852861 0.088051476 0.11421827 0.028348234 -0.028142946 -0.01334983 0.00078755606
0.012923156 -0.019916758 0.058976468 0.06018618 0.058879886 -0.14165431 -0.05695414 0.14192775
0.091871336 -0.09305236 0.05735942 0.09395211 -0.018846164 0.1839736 0.07412129 -0.011680074
0.013675638 -0.093497515 0.0961145 0.07215139 -0.04525159 0.012140428 0.085742705 0.10877002
-0.07364478 0.16488902 0.032672 -0.020720692 -0.044680692 0.027095707 -0.012534914 0.059626635
0.14567764 -0.037066884 0.035260193 0.012341892 -0.0024067305 -0.009078433 -0.017460268 -0.0096724415
00000000: 3435 b0ba 3c84 b7bc cdda 863d 7ccb ee3d
00000010: 44c3 d9bb dad5 493d 695b 4c3b 8c85 483c
00000020: 0111 0abd d1fd c03d 594a 01bd fba5 aebd
00000030: ee8a 823a 64e8 31bc a7aa 103d 5959 493d
00000040: 77f9 843d ab98 863d e31a 6a3c f37a 04bd
00000050: 8ac6 f4bc e300 e23d fe40 8cbc 7444 b5bd
00000060: 74d4 cc3b fdfe afbc 191a bc3c bcee 8ebc
00000070: cd43 0b3e 86b5 8c3d 853a dd3b f289 28bd
00000080: d060 11b9 df16 58bd 0288 143d ba25 a9bd
00000090: 4314 90bd 62eb 9dbd 8596 63bd 2488 c4bd
000000a0: a91b 50bd 9bb2 54bd 18ff 51bd 847d 0dbd
000000b0: bbff 27bd 9286 23bd 19cd 6bbd 590d dcbd
000000c0: 9e73 d1bd 1933 f2bd 1a4e f33b b295 56bd
000000d0: 94c0 78bd 77a6 10bd 210c c8bc 00ec cb3b
000000e0: 3365 e2bd 2eeb 86bc 124e 5abd 6aa9 17bd
000000f0: ceee a0bc e223 773b 1ea0 723c c588 c2bc
00000100: 97f0 b5bb 39ff 1bbc 9fbc bfbd 8124 f8bc
00000110: b97e 313d 008f 713d 967e 833d 60a8 00bc
00000120: 7bcd c43c 19cc 21bc 6245 83bd 1274 0d3b
00000130: 1df7 343c 19c5 793d a1e5 fb3d 16d0 f3bb
00000140: a7e9 4dba e9d5 193d ee53 993c 6379 243c
00000150: d30f d63d 06bc 1b3d 4bb3 f53d 8cb5 cd3d
00000160: 9926 72bc 4f61 9e3c 9b9a 44bd fe5b 343d
00000170: 2b33 08bd 8a68 2abd 18de 8fbb f5af 16bd
00000180: d1ae 863c 8b27 263c 2698 66bd fa74 8a3d
00000190: b0e1 d8bc 2e28 38bb a422 443d 3620 d33c
000001a0: b7c8 893d 8d5e 17bc a9f7 76bb 4a13 0fbc
000001b0: bf37 ca37 2c52 c039 5000 e0ba 51cd 93b8
000001c0: 0982 7939 efd4 ba3a d605 fe3a 0f20 e63b
000001d0: 92e1 eebb eacf ccbb 3062 92ba 0622 8bbc
000001e0: b4a8 503b 18a1 753c b33c ba3c 8bb2 0fbc
000001f0: cf87 a63b 59fb 6dbc ebf8 b83b b051 6e3b
00000200: f3bd 5bbc 5b7c abbc a713 cdbc b3d7 ccbc
00000210: 03e2 05bc 6b41 97bc a674 1dbc 3cc8 9fbc
00000220: 93c7 efbc 788d fdbc 06c8 89bb 49f9 c5bb
00000230: 0169 ffbb deea 91bc 0609 cbbc 6c9b a5bc
00000240: 623d 98bc 8c49 f6bc f24b 543c 5227 efbc
00000250: 97ef cebd f7cb 03bc 7f0d 04be ab91 97bc
00000260: d826 853b 2729 2f3c cc5b 7d3b ce9b ffbd
00000270: 3e1c b7bc 2451 9fbd f5f6 273d 567e febd
00000280: 60de a5bd 5e55 d6bc d4e3 85bb 8fcd 46bd
00000290: ec00 a1be eb8b 9bbd 1d91 51be e08a e2bd
000002a0: fd98 e9bd 791c 213d 9142 92bd 1104 883d
000002b0: c3cd 0dbd 12f9 813c 7536 263c c252 81bd
000002c0: 1ee9 a53d 9853 49bd 1a44 54bd e008 153d
000002d0: adb9 c8bc 6bc4 afbd 6c66 7f3d 53bc babd
000002e0: 9f1b 68bc cdfd 86bd cee0 543d c41b 0b3e
000002f0: 2e20 173d 10b3 b7bd e6d0 96bc ff06 8a3d
00000300: ecd2 13bd 15d8 19be 5af7 913d 0c4f 093a
00000310: 4c96 153d 1574 773d b246 cb3c 3258 00be
00000320: fca6 803d eec6 c33c fe99 6fbd a460 13bb
00000330: 37e1 4e3e eee8 753b 9b79 a33d 7525 3dbc
00000340: cda1 efbb dcdd 81bc 5554 b43d 45eb e93d
00000350: 8e3a e83c 098c e6bc 3fb9 5abc fe73 4e3a
00000360: a5bb 533c 7828 a3bc 4f91 713d c985 763d
00000370: 092c 713d d40d 11be bf48 69bd 8255 113e
00000380: 0a27 bc3d 3c92 bebd b6f1 6a3d f769 c03d
00000390: 4563 9abc 9363 3c3e e7cc 973d c85d 3fbc
000003a0: c80f 603c a07b bfbd aed7 c43d 1cc4 933d
000003b0: bb59 39bd a5e8 463c df99 af3d d1c2 de3d
000003c0: 13d3 96bd abd8 283e 13d3 053d 71be a9bc
000003d0: 1a03 37bd d1f7 dd3c 3d5f 4dbc 0f3b 743d
000003e0: 852c 153e 72d3 17bd fe6c 103d a635 4a3c
000003f0: 3dba 1dbb b5bd 14bc d608 8fbc 2979 1ebc

actor.bias f4 [5]
-0.11182569 0.027092498 0.0076701012 0.010119843 0.008327344
00000000: de04 e5bd 16f1 dd3c 7955 fb3b b3cd 253c
00000010: 6a6f 083c

critic.weight f4 [1, 2304]
0.03054628 0.0066498006 -0.08573822 -0.16951574 -0.0011715959 0.044642042 -0.007392056 -0.013841191
0.104945034 -0.1375043 -0.015986256 -0.03399895 0.100431345 0.08852386 -0.010620362 -0.032956973
-0.05202003 -0.05889906 0.039033424 0.08236675 -0.065803766 0.10906488 -0.023446506 -0.063608244
0.00030778197 0.06404635 0.024829598 0.042361192 -0.06984425 0.08483636 0.018914977 0.063060686
0.00087809545 0.055747382 -0.024818294 0.042618655 -0.0013436665 0.054851804 0.05880124 0.027596291
0.11594583 0.042571373 0.08311916 0.016960172 0.013651641 0.023103608 0.05524242 0.06504613
0.026571842 -0.020485425 0.0035539968 -0.105389856 -0.056902226 0.11002957 0.021823633 0.04780464
0.020606041 -0.004925707 0.0025456732 0.0017618117 -0.033036564 0.019257266 -0.07790234 -0.021400722
0.11395236 0.029366123 0.04521186 0.020729942 -0.06142549 -0.008641632 0.032194637 0.03803768
-0.042618416 0.033541594 0.056981552 0.06037481 -0.018298985 -0.036545888 0.034612205 0.10961652
-0.037602887 0.025418142 0.0047181626 0.00036713932 -0.103965014 -0.12810561 -0.10436871 -0.030201105
0.079289004 0.03271166 -0.007736439 -0.00023611619 -0.18703774 -0.13128985 0.03423171 -0.0021592514
-0.06047852 -0.05267472 -0.025774771 0.0052482174 0.036827832 0.007308802 -0.03911223 -0.024698775
-0.027098056 0.048447635 -0.0001673269 0.02185694 -0.009348382 -0.01420609 0.031336345 -0.02557679
-0.031185443 -0.042856187 -0.032283895 0.033722304 -0.018913534 -0.008972341 -0.054926623 -0.0815621
0.026553052 -0.015217961 -0.019629944 -0.022530796 -0.014804557 0.014277499 0.017341543 0.008993821
-0.00034009188 0.013610193 0.016741242 -0.030353466 0.060827747 0.016292956 -0.014587039 0.0042739925
0.034552705 0.06592178 0.014533571 0.0049044024 -0.028419029 0.032099918 0.021572921 -0.055400155
-0.016657451 0.06430528 0.042764705 0.007424901 0.014451161 0.053434707 0.06941078 0.050022
0.12842976 0.05429081 0.08139149 0.18317388 0.003438576 -0.047750782 0.0006308274 -0.008401095
0.034906115 -0.0050065005 0.057221573 -0.07017431 0.085439205 -0.08109226 0.02776875 0.12951149
0.010661211 -0.0021609268 0.06584065 -0.08290018 -0.10516841 0.077787615 0.014076948 0.007718128
-0.0025623105 -0.0032746678 0.05033195 0.05202924 0.034952562 -0.028665159 0.04683628 -0.05526362
0.016367154 -0.075479634 0.034024272 -0.02893657 0.09550718 0.019153679 0.045589242 -0.04327082
0.004203841 0.022738762 -0.017087528 -0.07298276 -0.06702467 -0.0563156 -0.0024982654 0.015269098
0.071308754 -0.039500386 -0.07010959 0.05809705 0.10990373 -0.063010626 0.021868424 0.04034455
0.00017814407 0.026130015 -0.023317698 0.076446585 0.018695692 0.11563813 -0.028819872 -0.021837967
-0.013445552 -0.019926349 0.07636872 0.08249866 -0.05636043 0.0022188125 -0.06961208 -0.050760463
0.014374576 -0.1253411 -0.084528156 0.088907145 0.07003755 -0.0464611 -0.1664037 -0.11804746
-0.05955696 -0.041866727 -0.05027512 0.039885093 -0.08267641 0.016579434 0.06660927 -0.021400753
0.04446466 -0.10037661 -0.062156018 -0.04314346 0.10466168 -0.07081427 0.12645058 0.11367545
0.1268052 -0.079959944 -0.01981417 0.05303778 0.027427154 0.009278202 0.0006780743 0.04109605
00000000: 313c fa3c 92e6 d93b 8597 afbd 8995 2dbe
00000010: 3c90 99ba 93da 363d 0f39 f2bb 2ac6 62bc
00000020: 6ced d63d edcd 0cbe 9cf5 82bc 7c42 0bbd
00000030: f3ae cd3d ff4b b53d 0701 2ebc e4fd 06bd
00000040: f412 55bd 2440 71bd 83e1 1f3d e6af a83d
00000050: 20c4 86bd 685d df3d e312 c0bc 0a45 82bd
00000060: cc5d a139 bc2a 833d 7167 cb3c ee82 2d3d
00000070: 810a 8fbd afbe ad3d 95f3 9a3c f625 813d
00000080: fd2f 663a 5e57 643d bc4f cbbc e690 2e3d
00000090: f71d b0ba 49ac 603d 92d9 703d 9e11 e23c
000000a0: 0275 ed3d 525f 2e3d 613a aa3d 0ff0 8a3c
000000b0: 22ab 5f3c c743 bd3c e045 623d e836 853d
000000c0: 31ad d93c 0dd1 a7bc 2cea 683b a3d6 d7bd
000000d0: 4f12 69bd 2f57 e13d 7ac7 b23c ccce 433d
000000e0: 00ce a83c d367 a1bb 4fd5 263b 97ec e63a
000000f0: 5951 07bd 6ac1 9d3c 438b 9fbd 9150 afbc
00000100: db5f e93d 3991 f03c 1230 393d d7d1 a93c
00000110: 4b99 7bbd a295 0dbc 86de 033d 66cd 1b3d
00000120: a690 2ebd e962 093d 7d65 693d 944b 773d
00000130: c1e7 95bc 24b1 15bd 87c5 0d3d a07e e03d
00000140: 7c05 1abd b539 d03c d19a 9a3b 9b7c c039
00000150: 9ceb d4bd 1e2e 03be 43bf d5bd 4f68 f7bc
00000160: 4662 a23d a9fc 053d f481 fdbb f595 77b9
00000170: d286 3fbe d970 06be 8d36 0c3d 3a82 0dbb
00000180: 53b8 77bd 72c1 57bd 9d25 d3bc 3df9 ab3b
00000190: c8d8 163d ad7e ef3b 2534 20bd 1655 cabc
000001a0: befc ddbc 0771 463d 7974 2fb9 530d b33c
000001b0: f529 19bc a9c0 68bc 8a5a 003d 6b86 d1bc
000001c0: 9d78 ffbc f889 2fbd 1e3c 04bd 6620 0a3d
000001d0: 8ef0 9abc ba00 13bc bdfa 60bd 080a a7bd
000001e0: c985 d93c c154 79bc face a0bc 8192 b8bc
000001f0: d08e 72bc 2cec 693c da0f 8e3c d25a 133c
00000200: 5c4e b2b9 49fd 5e3c ee24 893c d5a7 f8bc
00000210: 8426 793d ce78 853c 7afe 6ebc d90c 8c3b
00000220: 2387 0d3d 0002 873d 371e 6e3c 1cb5 a03b
00000230: 06cf e8bc 347b 033d b2b9 b03c 46eb 62bd
00000240: 3575 88bc 7db2 833d 0b2a 2f3d 954c f33b
00000250: 90c4 6c3c 5ade 5a3d 3d27 8e3d dee3 4c3d
00000260: 1783 033e 0a60 5e3d 95b0 a63d ef91 3b3e
00000270: bb59 613b 5396 43bd 1c5e 253a bfa4 09bc
00000280: b7f9 0e3d 920d a4bb 2b61 6a3d 8cb7 8fbd
00000290: c0fa ae3d b313 a6bd 4a7b e33c a99e 043e
000002a0: 5cac 2e3c 569e 0dbb 76d7 863d 92c7 a9bd
000002b0: 8962 d7bd 1d4f 9f3d 00a3 663c 5ae8 fc3b
000002c0: 70ec 27bb cf9b 56bb e028 4e3d 9d1c 553d
000002d0: 6b2a 0f3d 32d3 eabc 66d7 3f3d 1b5c 62bd
000002e0: 6914 863c 1195 9abd 095d 0b3d 630c edbc
000002f0: 4599 c33d 2de8 9c3c c9bb 3a3d be3c 31bd
00000300: 60c0 893b a446 ba3c 25fb 8bbc fc77 95bd
00000310: 3b44 89bd 30ab 66bd f0b9 23bb 3d2b 7a3c
00000320: 530a 923d 28cb 21bd 9e95 8fbd 2cf7 6d3d
00000330: 3515 e13d b70b 81bd 6925 b33c 5440 253d
00000340: 2fcc 3a39 9d0e d63c c204 bfbc 0790 9c3d
00000350: b527 993c afd3 ec3d a717 ecbc 89e5 b2bc
00000360: bc4a 5cbc 953c a3bc 3467 9c3d 0ff5 a83d
00000370: 32da 66bd 7f69 113b c790 8ebd 34ea 4fbd
00000380: 5783 6b3c 6b59 00be 191d adbd f314 b63d
00000390: d96f 8f3d ff4d 3ebd bb65 2abe dec2 f1bd
000003a0: 00f2 73bd 727c 2bbd 49ed 4dbd 8d5e 233d
000003b0: 4052 a9bd 98d1 873c 716a 883d a250 afbc
000003c0: 9320 363d 4192 cdbd 4f97 7ebd 32b7 30bd
000003d0: dd58 d63d 1207 91bd 437c 013e adce e83d
000003e0: 39d9 013e 0ac2 a3bd 5451 a2bc 253e 593d
000003f0: e9ae e03c 9a03 183c ccc0 313a 5554 283d
